model_policy2_epoch-70.pt (torch, 373906 bytes, 28 tensors)

layers.0.weight f8 [128, 128]
00000000: d25a e09b f42b b63f a344 6140 b6b7 babf
00000010: 8b78 2c10 67a0 babf 4dba 4933 5286 9f3f
00000020: 2d9c 9309 2dbf b0bf 26f0 d8bd 78db a4bf
00000030: 8f17 c71a 8e55 a13f aaa9 cd24 1dbf 7dbf
00000040: 2835 f64b 84d9 c23f 2680 341a 6ad6 b73f
00000050: 341e fabc 78a9 b73f cfbf 2382 6afc c23f
00000060: 3b31 181d c917 b8bf 507e c2c5 029e d1bf
00000070: c2fe 9c23 efaa c8bf 55bc 4d8e 3f62 d8bf
00000080: ba16 563e 77b1 cdbf fc27 9d12 321d 8dbf
00000090: e6dd db15 596c b83f 2620 e27f b28f b7bf
000000a0: afc5 4549 bfc0 b1bf b16c 09c2 2c1f 9b3f
000000b0: 18e3 2bdb 7417 c73f f586 84e7 1240 d7bf
000000c0: be5e a829 1121 d43f a3b6 60b2 f5cd d3bf
000000d0: c897 a117 ac72 a9bf 2d06 c93f c25b d4bf
000000e0: 3f39 b30f bcce c3bf 562e b4fb fc53 99bf
000000f0: 9444 9403 7290 d63f eeff a6fa ef78 9fbf
00000100: 3715 18a3 4bc7 f4bf 3341 9df5 c4e6 d13f
00000110: 60a7 2537 d185 993f 3426 5daa 292e b53f
00000120: 61fa 2eae ed32 cd3f 7950 56ba edd4 b1bf
00000130: 9bf0 64d0 cb9b d9bf a056 af97 89c8 f1bf
00000140: 2044 b2b4 0d4b debf 7240 72fc 6fae b6bf
00000150: ac1a 59a0 ba63 d2bf be72 f7d4 7b32 313f
00000160: 6996 6c00 90dd b33f f86f b06d 0a6e cfbf
00000170: 4a07 ce31 d57a b2bf 3e76 46ef 9b0e dabf
00000180: b41b ca53 a029 e63f 3f09 c50b ee62 e0bf
00000190: f85b 6f47 5257 e6bf d0ff 93d5 96e5 d1bf
000001a0: af89 4150 207b d5bf 3ace 2317 8ed1 c33f
000001b0: ba69 b7f8 49f7 e5bf 71ff 0665 ba12 cdbf
000001c0: a11b 1576 a67b 803f c5d4 d94c 7888 e43f
000001d0: 9cb4 28cb f248 c83f 50b1 799d 80fb 943f
000001e0: f0c2 904a 7c0e dcbf 49b5 7b49 09c4 cbbf
000001f0: 9cfc 59bf f8dc d8bf 1031 f238 7edd e13f
00000200: fde9 ae6d 6f12 d13f 206f e34a 02a4 afbf
00000210: 3a33 dbd5 9e6d 813f c6d7 d074 8bcd 94bf
00000220: 3075 3038 917c d13f 6fa9 aec2 9dde d03f
00000230: fd25 7842 6856 cd3f 3141 c0fd 75a3 d33f
00000240: fc31 5ff8 0974 c03f c8d6 5e97 f468 ae3f
00000250: 793e 6442 299d b13f 8c35 1fea a9a0 9b3f
00000260: 165a d6ce 1269 d03f 431e a606 2878 b0bf
00000270: ac41 8e65 cfe8 c33f e23d 4686 ae42 bc3f
00000280: 0565 5123 317d cc3f f618 f4bf e0ed 81bf
00000290: cf11 85aa 7e71 aa3f 78d3 a72a fa25 d23f
000002a0: 94a9 d9ee 8107 d93f e5e1 156b 35ec 793f
000002b0: 7c30 a855 d25c d43f 980e 272e b3d3 e03f
000002c0: 4643 3666 7c07 b83f 9202 0ecc 436f cc3f
000002d0: 1b4e d757 7776 b13f 1e68 e9b4 81cb d93f
000002e0: f9a4 beb0 d9cf b53f cee2 b6dd adec 463f
000002f0: 6738 2904 6de2 b53f 3c45 0b8b 1451 d73f
00000300: 96a5 fe8d 63d4 eb3f 56c8 b25b 7604 e53f
00000310: 6c05 dbac b104 b73f e875 f951 9d45 ba3f
00000320: 293a 8cc3 96d7 b63f 48ce df0b 3c56 b93f
00000330: fbcd 0919 836b e53f 41fb 5b68 2c4a e33f
00000340: c41e 1e39 cffb 58bf 05e8 bb1c e649 b5bf
00000350: c1f1 3bf1 cf08 ee3f 5ab9 1687 ea3b b2bf
00000360: 2cad 4214 fe42 e0bf 149e f9bf a614 d33f
00000370: 7235 30f9 735f e53f 8c02 bbaa e485 e23f
00000380: 72cd a327 947e e0bf ef23 9617 3d9b e93f
00000390: 489c f93f 4b56 ee3f cdc1 0642 32fc d03f
000003a0: d085 6889 77f1 d53f 3782 6082 bc4e cfbf
000003b0: 1afa 948f 5d78 e03f 8341 8053 6c85 c03f
000003c0: d9bf aeb3 cd08 e7bf 9f2c 4da3 4eb3 bb3f
000003d0: 1342 d13e e17e b43f 84e9 a211 ca7c c63f
000003e0: 51fa f0df f662 e03f 0605 2d3b 57db bfbf
000003f0: a8ee 9424 5e83 cf3f a471 4e76 549b d3bf
00000400: eb99 136f d2a3 d4bf 0dc7 e7a2 41af d1bf
00000410: 4fe5 fbad bc61 d6bf 00cd 0f7a c55b dabf
00000420: 602b 69da ec4d d6bf 56e5 d57e 0ce6 d6bf
00000430: a67b 1664 21be 9dbf a620 a95e bba5 d1bf
00000440: 7b83 f153 a92d dbbf da7b cdc0 2089 d4bf
00000450: bb1b 04b7 e9ee d5bf 0c76 dfdc 1b8b d4bf
00000460: b3da ff6b 1751 d8bf 1ba1 672e 29d5 d0bf
00000470: 1ca9 4844 8092 d1bf b953 a37d c8ee d7bf
00000480: 5ffe 4225 49b5 e1bf e59d 5bcb f3b2 d5bf
00000490: 3506 cadd a0aa d2bf 0874 3563 0315 d6bf
000004a0: 4e8b 3288 4a18 ddbf b70c a79f cd69 d3bf
000004b0: 9482 cb67 6643 d6bf c6a1 544c 8779 dabf
000004c0: 9fb7 5b86 5df7 c9bf 44f1 fb50 dd57 d3bf
000004d0: 291b dd96 73ea d4bf 5354 6e5a c927 cbbf
000004e0: 8105 3889 49ce d2bf 20f0 d544 f2ab d5bf
000004f0: 72c4 3b2f 8e0f dabf d7b6 633b 9475 d3bf
00000500: c049 9052 1eee d9bf 6fd0 7af6 6965 d4bf
00000510: 5094 6f7b 334c dfbf bcd6 0fc0 4c69 d7bf
00000520: 5f29 77aa e248 ddbf 7737 d23d 7eb2 debf
00000530: 4231 1265 27b0 d7bf 0e16 40bd c16d d6bf
00000540: 6846 bce4 6c15 c8bf 271c de52 4729 d3bf
00000550: 30c2 a42d 7e18 bebf f70a aace ca1d dcbf
00000560: ca1b 724e 4339 cfbf 429a e598 fac9 ccbf
00000570: 30d3 43e6 215a 743f 7b42 c765 b9fc d8bf
00000580: 0f2a 9c8f ea74 993f 9e72 8473 1623 d6bf
00000590: e79a 42bb 5870 dcbf 57ee b118 f070 d5bf
000005a0: f924 0c53 f876 d9bf c75b 60a9 7724 c6bf
000005b0: 0b53 5a54 0421 d9bf fb08 6955 f7cd d3bf
000005c0: be18 0651 a06d c43f dcfb e726 c5d4 c53f
000005d0: 034c 7ac9 d363 d1bf 2523 162c 8dd7 d0bf
000005e0: 27a4 1800 f7d0 a0bf bea4 12ba 08a7 d5bf
000005f0: 7ba4 07b6 6532 d1bf ab9c 7666 2062 bebf
00000600: 306e faed 64d1 d03f 2ea7 fbd4 cea1 d23f
00000610: 3ee0 4809 f853 d93f 4458 935f 7524 df3f
00000620: 9c32 16da c1be de3f a203 70bd 55c6 dc3f
00000630: 6ac5 3669 5c6a c23f d58e 5633 fd77 d73f
00000640: d7ce 59a3 8c94 d33f 31d2 d1b6 ee2f dd3f
00000650: 7df4 29d4 fd94 e13f 1420 fbf9 9106 de3f
00000660: 4c7a 5eb6 405a de3f ee14 95fb 3389 d63f
00000670: 828f 91c8 bee7 d53f 8742 a37d 8398 da3f
00000680: d94b 7348 8223 d73f 8ff2 88e0 bf9d d43f
00000690: bc05 ecf6 925c d33f 3abc e239 50cf d83f
000006a0: 4a59 b10e 9851 db3f eea2 454f 3fbb d83f
000006b0: 62d0 51bb fdbd d73f 4caf 8bbf b59f da3f
000006c0: ec90 ddbe bf01 d63f 424b 15b7 ee99 d23f
000006d0: ee12 5308 5f6f d63f e1da 746d 5107 d23f
000006e0: 7704 d498 fed0 dd3f 51e1 3afa 3fbe de3f
000006f0: 018d 7cba 7221 d73f 17f0 bc1a 2aac da3f
00000700: c805 cf89 b135 e13f f5eb c4ca 07b5 de3f
00000710: 108c 54b3 826d da3f 77fd b5b4 c1cd d73f
00000720: 012d 2a88 b722 db3f 8d40 6063 80b8 dd3f
00000730: deb5 966a ee8f d63f 0d14 dd6b 3f2a e13f
00000740: 9f30 dc39 ec63 ca3f bd5b b750 d091 d23f
00000750: 6ad5 d251 72eb d23f 55c6 8766 9073 d73f
00000760: e164 7dcb aa0e d53f 82ce 6e05 9297 d43f
00000770: 5574 6122 0028 d43f 9ce7 4930 93b1 de3f
00000780: a67f df99 20ba b13f c96c 81ee 44ee d43f
00000790: 3b88 c574 c8d6 d63f 459c c424 d380 d93f
000007a0: c223 e35b ea76 d83f ec4f cb4a fbdb b73f
000007b0: c2fe b04e 43ef d63f 2e26 7e4f 7de7 c23f
000007c0: 60b5 8b89 6d1b aa3f 7fd3 10b4 c62f b33f
000007d0: 81f0 a7b0 a4ce d23f 650b 34f6 413d cf3f
000007e0: e37f cbef 640b c93f 3fdd 10eb 0589 d73f
000007f0: eecc 35ed a944 d83f e431 ead9 1a39 8e3f
0.08660820775581193 -0.10436572143341265 -0.10401004929414819 0.0307858318141661 -0.06541711314967875 -0.040736935782178116 0.03385585858227024 -0.007262338488411771
0.14726308545179134 0.09311545505306693 0.09242968190857753 0.14832812647318724 -0.0941129394561288 -0.2752692157027683 -0.1927164958851702 -0.3809965982135897
-0.23197832626117593 -0.014215842431116947 0.09540325912154621 -0.09203639623785928 -0.06934733904724653 0.026486110060756022 0.18040333463411495 -0.3632857571520696
0.3145182520688471 -0.30944578571038955 -0.04970300472704953 -0.3181005118277394 -0.15474653975111072 -0.02473445211675903 0.3525662455513807 -0.0307347771392869
-1.298656117521501 0.2797100447251239 0.024924534789000474 0.08273563775323894 0.2281167126183901 -0.06965528296706393 -0.4001340422726202 -1.111459343451692
-0.4733309044468701 -0.08859920418967862 -0.287336975660234 0.0002624084781624284 0.07759952555041995 -0.24554567676466355 -0.0721867796510455 -0.4071416699096949
0.6925813328278907 -0.5120763997913754 -0.6981593508925235 -0.2796380124782418 -0.33564002835751244 0.15483261232258078 -0.686436639570551 -0.22713403637862542
0.008048344114866714 0.6416589261049458 0.1897262088763555 0.02049065552857715 -0.4383841255358183 -0.21692005241440374 -0.38848704039259885 0.5582877266147381
0.2667501994252744 -0.06179816402592864 0.00850986566674693 -0.020315341000433106 0.2732279823993222 0.26358741771641453 0.2291994404370569 0.3068518617665346
0.12854122760326436 0.05939449641975397 0.06880433913124219 0.026980070986430557 0.25641317557293186 -0.06433344042135851 0.15554230173849015 0.11039248254950665
0.22257055496701397 -0.008754497392612564 0.05164714652576984 0.28356794515212114 0.3910832245370781 0.006328781762356493 0.3181653820508996 0.5258422757546724
0.09386422629746702 0.22214553321466163 0.06821390051418812 0.4030460612026462 0.08520279469543714 0.0006996010737828297 0.08548623420321776 0.36432374552267155
0.8696763776144276 0.6567947188361909 0.08991537542444455 0.10262473346070744 0.0892271258746652 0.09897208490274878 0.6693740357426913 0.6028043783443097
-0.001524879804920263 -0.08315885736001867 0.9385757171253816 -0.07122674749436922 -0.5081777950012216 0.29813545939984576 0.6679019801101005 0.5788443884449221
-0.5154515051093951 0.8002000294374038 0.9480339288246649 0.26539284179582695 0.3428629724386072 -0.2445903431517011 0.5146930507979193 0.12907175137707946
-0.7198246488023826 0.10820476042606451 0.0800610330927685 0.17568326817656665 0.5120806096891305 -0.12444062418673604 0.2461965254423053 -0.3063555865608356
-0.322498901818476 -0.2763218012688505 -0.34971539488431785 -0.41185128135767 -0.3485061772268434 -0.35779106508524217 -0.02904560254466628 -0.2757404732151464
-0.4246619529495132 -0.32086962536226127 -0.3427070891634078 -0.320990529724299 -0.3799494318658773 -0.26301030666083286 -0.27456671398489774 -0.37394916791282246
-0.5533796050803622 -0.3390473829190042 -0.29166433009240517 -0.34503254593238397 -0.45460761356860224 -0.30333271590297833 -0.34786377083040887 -0.41366751150283354
-0.20286149082624846 -0.3022378245220987 -0.32680978520186216 -0.21215168872427856 -0.29384077453877216 -0.3386197731231295 -0.40719942677157583 -0.30405145454174715
-0.40515859663824116 -0.31868981428420445 -0.48902594618113415 -0.3658019900898173 -0.45757357260722203 -0.4796443561289076 -0.3701265799543486 -0.35044902307012726
-0.18815385025714026 -0.2993944463018487 -0.11756123174996769 -0.4393183725552911 -0.24393502550466756 -0.224913906723673 0.004968769473852316 -0.39042506160061635
0.02486006261373502 -0.3458915832614283 -0.4443570927345903 -0.3350181809580354 -0.39788635358907204 -0.1729878975899892 -0.3926401923902609 -0.3094461759648223
0.15959552723160714 0.17055572890964654 -0.27171797442969153 -0.26315621667213157 -0.03284427524733529 -0.33831995173620644 -0.2687010076175011 -0.11868479253336044
0.2627804111486709 0.2911259727394392 0.3957500544233915 0.4866002496104367 0.4803928975823426 0.4496054029441955 0.14387087952995198 0.36669855130660994
0.30594173385837337 0.4560505662296093 0.5494374412370601 0.46915101444437934 0.47425859269597903 0.3521242100581067 0.3422696074178405 0.4155586935931201
0.361542292358704 0.3221282665943272 0.3025252734515467 0.38765340474032295 0.4268551009639806 0.3864286684170527 0.37097113888672173 0.4159979219973493
0.34385675086220036 0.29064529303757436 0.3505475598615665 0.28169665993793386 0.4658810131514381 0.48036193310283176 0.3614165135533796 0.4167580853570611
0.5378043834281749 0.4797992210548608 0.4129339934608547 0.37193339011715615 0.4239939527257804 0.4643860788792232 0.3525348702340504 0.5364071947775543
0.2061744005699255 0.2901497638935629 0.29562051764090447 0.36642847073298884 0.32902021286061084 0.321751122766024 0.31494143826950466 0.47958831515972533
0.06924632794061711 0.32704280177649686 0.35685931590535674 0.3984878405630677 0.3822580239616934 0.09320040298490512 0.3583534496756152 0.1476894987247745
0.05099050811791517 0.07494775673042219 0.293862507358206 0.2440569355167909 0.19566022595154128 0.3677382274213023 0.37919090428404345 0.014757356429321918

layers.0.bias f8 [128]
00000000: 741d 2347 da1b b9bf 03e8 f224 347c d53f
00000010: ea87 b7bf 0e31 d33f eb57 c811 6603 ac3f
00000020: 70f4 93f3 3a3d c43f 03b4 5102 5cbc a0bf
00000030: 9b05 6d96 1a12 d5bf beb9 50b1 3073 d9bf
00000040: 0916 66d9 4e1f c9bf 3a3a ff14 7b62 acbf
00000050: f4ae cbca b227 d2bf 916c a428 7ae2 e03f
00000060: 8025 deb7 d32f c93f e30a ce64 9a73 bbbf
00000070: f244 5ad6 fbe0 81bf 8218 5e9b 1239 a2bf
00000080: 1883 9b95 9b4a 993f 8396 7861 4f3e d33f
00000090: 4a62 9c96 368b af3f f604 4f6f 48e0 9fbf
000000a0: a4b2 e348 5cda c6bf 8d0e 677d 578d d13f
000000b0: 4c99 22fe 69ad b2bf efd4 75d5 c5a4 babf
000000c0: 214b 3d26 2bba d2bf 3f3d cb4b 69f8 acbf
000000d0: 8da9 bda5 82d9 8c3f d2f4 de7a 7c4c 8a3f
000000e0: 3ef7 ccc2 8607 bb3f 8daa 1d0e 7fda dabf
000000f0: 9bbe c970 ff9a d2bf 1023 e76f f754 dabf
00000100: 57d9 be8e 8117 993f 0454 5ccf 0f5c c73f
00000110: 05cf ba8f 2faa cb3f 0886 b4cb 7232 dfbf
00000120: 2189 49bb c52d b53f 8aae 1220 0ad0 d23f
00000130: 8c64 16cd 38e5 c63f b113 f320 385a d03f
00000140: 607b 7636 ce8a aa3f c495 2427 c014 813f
00000150: 7300 3176 a0be a53f c1ea 1783 0034 c23f
00000160: b271 ba38 ae8d d1bf 3dbe befc ca29 c4bf
00000170: 30a5 1486 be0d cc3f 45d4 f97c 828b c13f
00000180: 18fd 0ab1 1fde d23f 51a2 26f0 ad1d e1bf
00000190: 02fa fe10 d1c3 b9bf 4654 6344 2afa bfbf
000001a0: 9005 e07d ba0d a23f 96d3 ecbe abc4 ddbf
000001b0: 4032 016c 9e87 ba3f 37fd 7118 fe8d d4bf
000001c0: d3d4 9865 d782 c2bf 880c 30d1 3691 dc3f
000001d0: 8fa1 09b9 30aa c83f 8fb3 8565 44d5 d2bf
000001e0: 95bc a5e9 d8a7 b23f 3154 36f2 1e55 b4bf
000001f0: c68a 3626 e4ac a53f 13d9 f07b 86b1 d43f
00000200: c56c 7f9a 88c8 d8bf be01 cb9c 3513 d03f
00000210: 1287 534c 8d97 b43f 39ad 90ee 23ef aebf
00000220: a439 b766 eead c2bf 7278 9806 3d3b c83f
00000230: 1474 0c7d 9717 d1bf 674f d5ec ec36 dc3f
00000240: 12a4 5b77 5fb6 d0bf 8c0c 745d b164 d4bf
00000250: f0c6 d47a 701c e1bf 3c39 9960 4814 b2bf
00000260: 2582 b45d c4dc 75bf 6769 3244 8f4c b9bf
00000270: 2a62 d057 6478 d03f 1d87 76b0 7298 c9bf
00000280: e912 a9a2 f5e3 b33f 97fb 3a27 3b37 ccbf
00000290: 1089 ae3b 1cd4 c4bf a4aa 8f7e db04 c43f
000002a0: 0174 af7b 7424 b93f e886 e779 293d c43f
000002b0: 1075 7083 bbc2 c23f 6e7b 3ef3 8a70 a53f
000002c0: dcaa 9e9e 8e14 b83f bc44 9a02 a2c3 c0bf
000002d0: 9e15 1260 5391 ce3f 4cde fcfd 7291 babf
000002e0: 1b20 6566 e854 d5bf b36d 33a0 9e2b d23f
000002f0: 94ee 6183 ab3d b7bf fc13 f84a db2a d5bf
00000300: ac91 b5b6 c3b1 e2bf 0687 a297 3617 c83f
00000310: 17f9 106a 897a e13f 3148 488a 9264 ddbf
00000320: b0c0 1860 8842 d23f 01d5 7d5c b55b d5bf
00000330: f97f 49a2 3467 b1bf 6361 adad 613b c63f
00000340: de0d 1927 f2d3 e2bf 9362 432c b6fe e03f
00000350: 1f4e d595 6e8a c13f 02a1 153d 26db b0bf
00000360: 54b2 5d31 1293 d5bf f46d 8ede 46b6 c73f
00000370: 89b0 1019 c9a1 c13f bd05 9873 e201 dfbf
00000380: c7c2 79a1 08a6 953f 695b d57e 21b7 b0bf
00000390: b2af d5ad 3f94 ccbf d4b5 8d53 9505 bb3f
000003a0: 2f75 0013 d9ff d23f 2708 ae7c 4cf8 d03f
000003b0: 71a8 b4b5 5ff1 7a3f 1d5b 3435 49a6 c1bf
000003c0: 9682 b8f3 7ec8 ca3f 515a ebdb bc04 c53f
000003d0: 1c3a 810c d5bd d6bf f9d6 f25e 8cd7 c0bf
000003e0: 58b4 b955 98cd c0bf 7c1c 9c4e ea43 d1bf
000003f0: d929 114a 523b cbbf 5271 43f7 dd11 c73f
-0.09808124768016119 0.3357057915524139 0.29986923906665075 0.05471343009064341 0.15811859982924004 -0.03268706825551961 -0.3292299717905622 -0.39765565219832044
-0.1962679444806528 -0.05543884879408663 -0.2836729984689861 0.5276461404604494 0.1967720649520679 -0.10723271332794186 -0.008729903677961979 -0.0355916800172489
0.024698668485942127 0.3006781055322351 0.06160898769866614 -0.031129009050123245 -0.17853883322768127 0.27425181623787226 -0.07295858816596484 -0.10407673322136522
-0.29261282667464356 -0.05658272791117235 0.014086743052492046 0.012841198444102284 0.10558359390139757 -0.419585956368487 -0.29071031584224166 -0.41143594673171524
0.024503731095785266 0.18249700188667373 0.21613115804722596 -0.4874541272457411 0.08272968122904391 0.29394772655607737 0.17887029661213594 0.25550654618956076
0.05184025206403109 0.008340359873339483 0.042469992091810925 0.14221197510763342 -0.2742724946963576 -0.15752541867321837 0.21916944071680566 0.13706999876345285
0.2948073605475243 -0.5348729792068047 -0.10064417519513572 -0.12491096658352871 0.03526099001465888 -0.46512883801488536 0.10363187920410954 -0.3211665381167736
-0.14461796246329203 0.44636316708074064 0.19269379649200544 -0.2942667952946118 0.07287364677698556 -0.07942384160408335 0.04233468023746449 0.323335286174726
-0.3872396000640033 0.2511724501782985 0.08043749917444767 -0.06041824614689024 -0.145932960657274 0.18930781194734753 -0.2670649262598215 0.44085238579031344
-0.2611311593632887 -0.31864580274868426 -0.5347216033025841 -0.07062198980677165 -0.005337492995096703 -0.09882445731128585 0.25734814239106873 -0.19996484390599614
0.07769713612749353 -0.22043551841303774 -0.16272309221410142 0.15639823608156178 0.09821250934278682 0.15811651661265747 0.14656776349958323 0.0418742582253263
0.09406367657235698 -0.13097024085121756 0.2388099879355367 -0.10378187847970216 -0.3333073615981463 0.2839123310529558 -0.090784759116952 -0.3307407600516965
-0.5841997688808553 0.1882084122090008 0.5462081023795545 -0.4592634535230245 0.2853108347362747 -0.33372243912101857 -0.06798104250037786 0.17368718128524127
-0.588372303355239 0.5310927261844703 0.13703710857463222 -0.06584395400352963 -0.3371015054788462 0.1852501475049021 0.13774980281721508 -0.48449002541027736
0.02114118085450192 -0.06529435488242331 -0.22327419269583754 0.10555394449121219 0.29686571937220924 0.26515495467913514 0.006577848306998133 -0.13788714502217028
0.20924364948679813 0.1642070840668617 -0.3553364393345946 -0.13157801281129602 -0.1312742632466406 -0.26977021862735007 -0.2127478467612736 0.18023275922213117

layers.1.weight f8 [100, 128]
00000000: 10f8 f4b5 680d e0bf 458b 77f9 d78c a63f
00000010: 37d4 8cef e9a2 cdbf cc59 1acc e9f9 703f
00000020: ca7d c5e8 0ada d7bf 7148 96ff ac2d d0bf
00000030: 205d 930a e90c cb3f 7d68 3984 7dd5 bd3f
00000040: 74bb d158 e82b d13f 83aa 3ff6 8874 c3bf
00000050: abc4 efe5 ce92 d0bf 1b33 b289 5c23 c6bf
00000060: 30f8 da56 1f9c b7bf 9e9c 2437 d138 ce3f
00000070: 4a3e e076 a115 c13f 2c3a 5e27 69ac cc3f
00000080: fd7d da96 9c2a d03f abc3 b95f 87b8 ccbf
00000090: 9e4d c44f 6dae b73f b855 44f3 4322 c93f
000000a0: 22c7 b9f5 44cf c73f b492 60f4 cdb4 b73f
000000b0: 4ee2 cc71 8b03 b63f 7157 970a 8e8e c23f
000000c0: 0bb5 a8ee 31f4 debf 58d7 a417 1331 d2bf
000000d0: a70d 3d2f b3af b7bf bd7b 06db 76fb d43f
000000e0: ac78 db63 db4b c93f 1048 75f3 f38c a73f
000000f0: 4932 9df2 72a4 e13f 9027 7301 9a49 ce3f
00000100: c7e4 d3df 5fb4 c43f e1a7 714f d6ae a4bf
00000110: d3a8 12dc f6fa cbbf 6696 b697 ee2f aebf
00000120: d3f8 ec0f 677c d13f d393 9d4f 34bf abbf
00000130: 3f8a d827 3351 d83f 600a 0572 c7b4 c2bf
00000140: 9337 7041 385c 9d3f 2e91 9c17 a55c e0bf
00000150: 7d2d 6ac0 fedd c4bf 7701 d30a 3101 b5bf
00000160: c905 b267 9589 91bf 8731 7f49 be8f babf
00000170: 9409 5f39 86d7 bfbf c294 ce27 a88c e6bf
00000180: d99a 3c44 2ee0 b8bf 7043 b0d3 a99d b53f
00000190: 2db4 ebea 3078 b73f a663 777e 1702 e13f
000001a0: e145 6435 6da1 ca3f 0ede a9cd 1312 c43f
000001b0: 8c45 d604 3f6d babf 7741 a3c9 4544 d93f
000001c0: 7f56 1ca6 5df5 d03f a56e ff8e 71e5 a23f
000001d0: 0623 6239 25ca b1bf 7e8a d46c b517 a53f
000001e0: ff01 f11e 80d3 d43f f8f7 7b67 f968 debf
000001f0: 626c 56c4 0dd6 e0bf d60e e0d2 7573 bdbf
00000200: f3b4 2aab 11ba d93f 654e 284b 95ca a83f
00000210: 05e6 917b 2dfc b83f a092 dd5c 9db5 b7bf
00000220: b140 f8eb ec6e d43f 8c7f 5c11 8022 c03f
00000230: e045 1714 f4b7 aa3f 108d d22b d478 d13f
00000240: cf63 2c82 2004 a33f c90e e90f 8e5f 7f3f
00000250: d203 8971 e176 b83f 8100 2ac2 cce7 b23f
00000260: 5ab1 8482 e01d b33f 2c50 df9c b4b5 da3f
00000270: bd32 23ab 2413 c03f d431 ef9d 93f5 b03f
00000280: 86a8 d6c5 dba0 80bf d1de 9685 d43c afbf
00000290: f0dd 71ea f807 d7bf 92fb 38b6 6ca6 893f
000002a0: 98fe b139 0620 c5bf 1640 9f26 402c c63f
000002b0: ca37 34e6 0330 bfbf a453 7762 852c e23f
000002c0: f900 54d1 7b25 f03f 23f6 f281 40b5 c23f
000002d0: 16f1 3059 57df b4bf 08bf 2d91 706d c33f
000002e0: 5c85 4563 a507 bebf abd7 31f4 5999 b3bf
000002f0: c9be 6bd3 4286 e0bf e810 89a6 5611 a6bf
00000300: bd9d ee7c 6829 c4bf 3fc9 b4e3 a739 d33f
00000310: d9ae 348a 5a34 c1bf a207 f33c 6056 8c3f
00000320: fe28 29b1 7c90 cf3f 446f 798a 3512 d23f
00000330: ba5c c047 4f86 c8bf 323d 0518 a58f bfbf
00000340: 4df9 01dd cbb3 c53f abb9 ebfc 2f95 c6bf
00000350: ea87 9689 a108 d1bf e7a2 af6d a8b0 e0bf
00000360: bda8 4282 37af b43f 478d 7f9e 67ae c5bf
00000370: ff88 1dc4 e073 e83f 4bd9 5833 adff b73f
00000380: 5289 8c44 5cd9 d0bf 0349 3086 cd5e c3bf
00000390: 5bcb 4cfb 510b d93f 5f7f 0aef 9717 cebf
000003a0: 651d 4ddd a1d3 c53f 6082 221b d18f cabf
000003b0: 44a6 379f 223c 4bbf 42c9 d7b0 2a97 f13f
000003c0: 38ab ec9c 8f3d be3f 22a5 31c2 72c8 d3bf
000003d0: 287b 2aad af97 c1bf 44d5 432a b247 ad3f
000003e0: d246 b2da 42f6 d53f 0a09 184a 6e93 bbbf
000003f0: 5941 2e2a dea1 d53f 1293 b92e a454 d13f
00000400: 8f84 619d b1e0 a53f 1807 d385 807a b0bf
00000410: 4c65 6e73 3177 993f 0caf 9748 9a4a a5bf
00000420: 46ee 949b 499b aabf 2580 24c0 ef9f b83f
00000430: 9bde 3e7c f168 6a3f deac 9ccf 70bb 8c3f
00000440: 1aa8 e1e1 6dea 3cbf 180f b768 2086 21bf
00000450: fde1 d632 5248 b53f 67c7 e80e 8d91 b1bf
00000460: d6ee 5a03 8098 b5bf 4e7f c8f8 d11d aebf
00000470: 1d75 bde3 833c 90bf 5bdc 62c7 5724 9c3f
00000480: ac31 30ed 29b4 b83f 7b08 bff6 b3d4 b63f
00000490: 83b6 2901 dc0a a3bf 64ce ad1b 2d1a a0bf
000004a0: bcdf 9a7c a16b bbbf 2d4a 905b 04d4 93bf
000004b0: 4c7d 33df ef70 993f 9f6c 3f9e 1189 b13f
000004c0: cd60 31f6 6102 78bf 2bed 4941 49bf 673f
000004d0: 36d9 b45e 473a a03f 63ed 36b8 d098 b6bf
000004e0: ac8d 2f75 1328 ac3f f817 68f0 d67d b8bf
000004f0: 10c7 1cc5 396b b4bf da90 a3f7 954c b0bf
00000500: 87c8 1a85 5552 b83f 08f7 8903 32c4 aa3f
00000510: 79db 0c6b 6d02 aa3f c0b0 cf35 6bdb b43f
00000520: c341 cb84 8fc6 a6bf 772b ecb9 05ec 6e3f
00000530: f08d 6538 50eb 993f 6153 af18 f683 a23f
00000540: d998 31f5 b1dc 5dbf 964d 94fa 8ded 493f
00000550: c7ef 6408 b956 85bf 87ac dd64 73b3 a93f
00000560: 6f75 53e7 d4d8 90bf 401e 0b07 5db1 92bf
00000570: b761 9c12 ae8d a43f 1bef ca41 3f8a b83f
00000580: 2112 0e66 3e71 8f3f 37f7 580e 21a2 9abf
00000590: 9b9f f3fd 13c0 a93f 85d1 efff 917f 7cbf
000005a0: e26e 330f 6765 a0bf 49b9 44f8 3c4b 5bbf
000005b0: 692b 81a7 ca01 a1bf a117 e3fd 5445 a63f
000005c0: e555 84ef 5464 bc3f e2d1 1cf0 e7e2 97bf
000005d0: 3edc dc25 3405 aabf a057 8162 04a5 aa3f
000005e0: fb44 4c6a 5e73 99bf dc33 30d4 6ed7 923f
000005f0: c7c1 ad69 385b 93bf c6cf 8531 7906 b0bf
00000600: 77a9 c43b 6cd0 b1bf 5068 9084 c920 af3f
00000610: 9974 4a1a 950c 33bf 2c6f 8474 5808 9c3f
00000620: 18b9 0fb1 0850 82bf 250e 75f0 bf4a ae3f
00000630: 9d1d 3f0c 3968 aabf 48fc 5e8e f1ef b03f
00000640: 95ca 6c44 2741 9dbf a088 a829 e6d3 b13f
00000650: 31c3 69bf fb9d a0bf 64e7 7de0 15fa a43f
00000660: 4f04 3803 0642 b3bf 9272 e358 9423 9c3f
00000670: a05b c4d6 8510 83bf 11aa d979 2534 aabf
00000680: 3500 681b 39a9 9abf a2c3 5a21 6021 b23f
00000690: 764b 2415 945b b03f d977 8fb5 5346 b5bf
000006a0: 9b5d 2f89 5da2 a2bf 2b89 b71d 1de6 b5bf
000006b0: 9621 411d d260 74bf 4de9 c4e9 81a5 a7bf
000006c0: 13cb e1da aeff 96bf e35f cc74 452e a43f
000006d0: 1470 4052 a81f 49bf a173 e7b0 a9f3 a4bf
000006e0: 624f a1e1 59ce a13f 188a 8fbe 7076 913f
000006f0: 18c4 4c12 5c39 bc3f 1ffe b390 554d 92bf
00000700: 2f98 0879 e382 b53f 9cb3 12a5 da6e a53f
00000710: 4d20 4b85 c13a b73f 8005 5bc4 b97c 993f
00000720: 205e bb4c 5fba 933f 4992 e77b 48df 72bf
00000730: 02dd ad9b d6e9 9abf 6a26 20b3 b23b 36bf
00000740: 3c76 419d 15f8 b93f b539 fe6c 54f3 6e3f
00000750: fa5b f5aa 7319 bdbf f8be 7384 bf12 b53f
00000760: b1d2 a76a c827 b33f c76c 403e 8696 b73f
00000770: 1740 41cd cfb3 a7bf bbda 1785 c27c 903f
00000780: 8062 aaf1 e2ca a8bf 04ae 3484 02aa ad3f
00000790: 62e7 5d34 a7db a7bf 35db f9ef 3a2b 5a3f
000007a0: a079 fc12 d745 ae3f fc3d 7c3e be7e b1bf
000007b0: 6541 bcfe d62c b5bf 6038 3cc3 a49f b23f
000007c0: 5ee9 666c a34f a73f 858a 1fb6 eba6 a53f
000007d0: 7890 53ba ad2e a13f 4ed1 047b a3b1 97bf
000007e0: e66c 9c45 16f8 b6bf 6929 a82c b3ee b3bf
000007f0: 4d29 3d6f ab81 b93f e7d2 09a7 b347 a33f
-0.5016368440481092 0.04404330177546582 -0.2315342349699294 0.004144585867513272 -0.3726832650335977 -0.25278782806083827 0.21133149162663134 0.1165388534367668
0.26830490754848957 -0.15199386619436348 -0.25896046118493626 -0.17295414660875327 -0.09222598906032498 0.23610892479448337 0.1334726171921708 0.22401155874509138
0.2526008103540958 -0.224381372204815 0.09250529477531308 0.19635819795864307 0.1860128593285078 0.09260260788193869 0.08599158790901493 0.1449754287447678
-0.48365448290390195 -0.2842452746293609 -0.09252471831592023 0.3278481615943141 0.19762747169347017 0.04599726054097186 0.5513243425899158 0.236621142108842
0.16175459317290672 -0.040396401593923555 -0.21859632249590408 -0.058959442157441797 0.2732179313205851 -0.05419314834470126 0.3799560441131326 -0.14614193980567602
0.028672102922477526 -0.5113091908611176 -0.16302475352527415 -0.08204943193687152 -0.017126402334275235 -0.1037558488307636 -0.12438239002862012 -0.7046700265388142
-0.09717072645126325 0.084437002355356 0.0916777204071912 0.5315053434415986 0.20805134875312972 0.15680167715230237 -0.10322946422663487 0.39479202929671636
0.2649759409117464 0.03690676565721888 -0.06949074412308329 0.04119650796407813 0.3254089643633335 -0.4751571188534167 -0.5261296114653187 -0.11504303358384091
0.40198175158987154 0.048420586990826554 0.09759792582362799 -0.0926149703714807 0.31927035373611107 0.12605286452980768 0.052184703304771096 0.2729998043016204
0.03714086140661942 0.007659487657807503 0.09556397458892654 0.07384948482831712 0.07467463671190924 0.4173404247242185 0.1255842052109041 0.0662472019750518
-0.008119313216259149 -0.0610109723160669 -0.3598615922450952 0.012524461089126668 -0.1650398046222008 0.17322542081683484 -0.1218264042874743 0.5679346964994818
1.0091512848740065 0.14615637154740665 -0.0815329163314725 0.15177733506015323 -0.11730416940328808 -0.07655870639595601 -0.5163892869295178 -0.043101032094030434
-0.15751367664527818 0.30039403187688046 -0.13441020725564704 0.013836624012018298 0.24659689569882198 0.2823613979614843 -0.19159880641448074 -0.12328559719502577
0.16954944888488868 -0.17642783975266005 -0.26615179478005635 -0.5215646879488219 0.08079859667000995 -0.16938491095707262 0.7641452627542832 0.09374506476965398
-0.2632666272567309 -0.15133065273455068 0.3913159326649997 -0.23509501621173975 0.17052100473140822 -0.20751394104901788 -0.0008311432888465438 1.0994059474874835
0.11812684613384483 -0.3091093918252047 -0.13744159655922172 0.057187621745394185 0.3431555877406086 -0.10771836575444041 0.33800462836463435 0.27079109728792716
0.04272990270761411 -0.06436923281856044 0.024868748350489953 -0.04158479820384117 -0.0519659998339788 0.09619043770771947 0.003223868990939694 0.014029389701667613
-0.00044121916460560103 -0.00013369699114040216 0.0831347822303385 -0.06862718214031603 -0.08435821611322622 -0.0588212600889607 -0.015855847144270564 0.02748238710838922
0.09649908104638055 0.08918308996274675 -0.03719222559162196 -0.03144970858457155 -0.1071110657893532 -0.01936346825466211 0.024844882963291057 0.06849775422544944
-0.005861647284369731 0.0028988295328510514 0.031694631872982645 -0.0882692765944078 0.054993255667592805 -0.09567016000082151 -0.07976113378824956 -0.06366860671875277
0.09500631808876579 0.05227810185622955 0.050799769704489024 0.08147306503059593 -0.04448364730854195 0.0037746536103261913 0.0253117117330372 0.036163034928597744
-0.001822637354757675 0.0007912581687911531 -0.010419316834138116 0.05019722563050615 -0.016452147120494084 -0.018254712633988257 0.040143432399591665 0.09585948330180509
0.015352714051695195 -0.026009098530486354 0.05029356455798891 -0.006957598029647354 -0.03202364025648109 -0.0016658873947324618 -0.03321679396375183 0.04349771117408286
0.11090594146329343 -0.023326515226658524 -0.050820951101222964 0.0520402307744654 -0.02485415958205282 0.01839993639082481 -0.01890266556751088 -0.06259877642679532
-0.06958652934250674 0.06079702132429132 -0.0002906669636020903 0.02737558566251079 -0.008941715148435267 0.059164045431796354 -0.05157640718931165 0.06616124845366855
-0.028568852950409413 0.06963957325982273 -0.03245531760774723 0.04097050061586918 -0.0752261884554326 0.027479474950143308 -0.009308858505887418 -0.05117909538678956
-0.026036159799332565 0.07082176985092173 0.06389737621456767 -0.08310435469272139 -0.03639499950048305 -0.085542506938087 -0.004975147971045498 -0.046184596811559155
-0.022459728345391627 0.03941552210579837 -0.0007667133218123312 -0.04092150005792595 0.03477745894693275 0.017053376799490122 0.11025023886465168 -0.017873131710983366
0.08402845101281352 0.04186137452175062 0.09074029449686911 0.02488985310515579 0.019265641268104372 -0.004607470646508968 -0.02628264737310549 -0.00033925164018509
0.10144171799898855 0.003778138059664838 -0.11366961406507406 0.08231732352919241 0.07482578853507495 0.09214056987586892 -0.0462937295966414 0.016100921033251874
-0.0484229011537467 0.05793769706573573 -0.04659769548648175 0.001597220951138301 0.05912658793225778 -0.06834019685287979 -0.08271545142293275 0.07274846807942614
0.045529467566171475 0.04228912923988041 0.03355925464146109 -0.02313857496592791 -0.08972300719726753 -0.07786102142578034 0.09963485208314644 0.03765641607325226

layers.1.bias f8 [100]
00000000: ae5a 5f6a 814b bebf 0ebf d7f3 73b7 b6bf
00000010: c4e0 a07d e186 9fbf 8c1c e98a dea0 b03f
00000020: 4dd0 97f7 6255 a8bf 3a41 8e15 c9c0 8d3f
00000030: 0000 0080 4560 9fbf c63b e69f 6feb 5a3f
00000040: b585 edad 3cc2 b1bf e24b f108 475b a9bf
00000050: c559 3781 1c63 86bf e0c9 84fa 79e7 a83f
00000060: 6817 011f b4de b3bf 7eeb 8903 cfdb b13f
00000070: 7baf 7726 2420 b53f 2808 94de b42b a7bf
00000080: 6b4b 273b 76b0 b7bf 139c cad4 e74d bdbf
00000090: aa1b e963 b41d c03f 9614 bcfe 5f0c a5bf
000000a0: 0754 3688 1dbc 77bf a177 c77c 1a4d b2bf
000000b0: 3aef 0672 dd4f 98bf 42ea 1fe7 1c1e c93f
000000c0: 3b0e 59ed abb9 c53f 1e7f 2e40 0dff ab3f
000000d0: 266f 7d7a 0639 aabf a7c3 bee7 98f8 7d3f
000000e0: 5504 e099 eda3 b2bf 67b5 9cb3 a6b4 b3bf
000000f0: e13f bcdf 2171 b33f 5075 61f9 5b43 763f
00000100: 0000 00e0 a425 aabf 3620 a972 fd3a a8bf
00000110: 9473 eaf9 822f 37bf 5c54 4dc3 f3ec a7bf
00000120: ac36 322e 1210 abbf 868c a3fa 6630 b5bf
00000130: 8562 3fc4 f2c5 b6bf 6321 18c7 ba7e ba3f
00000140: 59ee 3803 df79 b1bf 8a60 1202 9d7b ad3f
00000150: af61 bd69 648c 953f cd86 d65e 159d 7dbf
00000160: 43d8 bf42 214f c03f d49a 8d91 dcc9 bebf
00000170: 23a3 9421 428f c13f 1c1b 2fdc 6417 babf
00000180: 78a3 8846 6f88 b4bf 85d2 c3c0 7e36 b83f
00000190: 3bc6 a58c efbc 9bbf 97f4 5bc0 870b 8d3f
000001a0: 06f3 5004 cd4b ad3f d3b7 391c e176 bbbf
000001b0: cc3d 9b60 679f 743f 4fdb 1175 8e5f b2bf
000001c0: 2625 196d 7140 b5bf 0f21 a584 7fbb d53f
000001d0: cea8 c902 a0db 973f 4987 cf88 5c32 79bf
000001e0: 6e8c 09b2 48bf c33f 8e61 8b96 ef15 a13f
000001f0: b3e4 804a 3114 b2bf 0000 0040 0efd a3bf
00000200: 1efb 1697 2432 cebf e84d 5c00 82bd c93f
00000210: 9b06 be02 ada5 b8bf 46c4 fd85 4ee4 a93f
00000220: 670a 128c 2d0d 9d3f c525 5126 7e5c 95bf
00000230: 0000 0020 f3db 78bf 3b1e c3e6 647a 91bf
00000240: f39e 5744 6f35 643f 5877 26ae 7870 d33f
00000250: 583a ffe2 3fce b53f 6b60 aa2f 9913 72bf
00000260: e729 5ee8 ecc2 b13f 8b8d 99c7 4f1c a53f
00000270: 99f4 cc0f 9353 a13f b6d3 9879 ea44 d33f
00000280: 0abc 3dd1 2c66 a7bf 33bc be04 d864 a33f
00000290: f8ae fde2 480c abbf 9082 13bb 589b 7dbf
000002a0: 8bfb 0df7 b8b0 a93f f284 f69c 732f 8d3f
000002b0: fd9f 5284 3748 a7bf 0000 00a0 b3f6 a4bf
000002c0: ea24 8c06 487b b03f b098 8650 b68a c0bf
000002d0: 0000 00a0 85c6 a5bf 4d0e 5581 f7fb b5bf
000002e0: 9737 aeba bcc9 bfbf 13c9 cac1 743f babf
000002f0: 0388 4a0f b789 9bbf f4c2 6ecc 6d32 9dbf
00000300: 559f d616 ee9c b23f 0000 00c0 01b1 a8bf
00000310: 337a 182a 39e7 3b3f d1d8 de72 0a51 90bf
-0.11833962294563591 -0.0887367697066532 -0.0307879670073994 0.06495467082378265 -0.0475264479863716 0.014527865381552919 -0.030640684068202972 0.0016430463871050945
-0.06937007185253814 -0.04952451690828476 -0.010931227391591922 0.04864102538194337 -0.07761693722667717 0.06976026379008535 0.08252168597362967 -0.04525532929439208
-0.0925363439958297 -0.11446999497512449 0.12590651396223268 -0.041110038610022645 -0.005794635162051704 -0.07148900553099093 -0.023742160877858277 0.19623147282966796
0.16972874726535445 0.05468026550738457 -0.0512163185619257 0.007317158971930227 -0.07281384474482995 -0.07697526822149357 0.07594501220978557 0.005435332559583131
-0.05106845125555992 -0.047325058218632796 -0.0003537840620227381 -0.046729676809868365 -0.05285698713224227 -0.08276980990517488 -0.08895795146180248 0.1034962402410478
-0.06826585606261783 0.0575837197331462 0.021043366388171666 -0.007229884603846504 0.12741485366103875 -0.12026766351264523 0.13718439712217742 -0.1019194638784992
-0.08020682785048716 0.09458152967619966 -0.027087920150228078 0.014182148511731092 0.057218939568406 -0.10728270472620176 0.005034831827017649 -0.07177057607792146
-0.08301457322626912 0.33956897691361204 0.02329874054923025 -0.006151544058384869 0.15427502339580051 0.03337048256588836 -0.07062061375553945 -0.039040036499500275
-0.23590524079733027 0.20109581964116718 -0.09627801243734739 0.050569967132908775 0.02837058226988134 -0.020860644425089853 -0.006069135386496782 -0.01706845911465236
0.0024668858702517837 0.30373970991955934 0.08517836849134974 -0.0044132217250521895 0.06938057587664269 0.04123162566682045 0.03384074752691752 0.30108129381852267
-0.04570140890324843 0.037878752307158335 -0.052828099926811534 -0.007228228191906397 0.05017641082576237 0.014250663020734387 -0.04547284593837728 -0.04094468429684639
0.0643811241135556 -0.12923315936968072 -0.042530227452516556 -0.08587595851445791 -0.12417201573972957 -0.10253076297047796 -0.026892528827950467 -0.028512683489398463
0.07270706231667863 -0.04822545498609543 0.00042576928726304196 -0.015934146176470435

layers.3.weight f8 [100]
00000000: 14e0 1a0b a472 f43f 7c68 5b13 3e8c ef3f
00000010: ec47 4e5d 17f3 f13f 39ef 93e7 eba2 ef3f
00000020: c87f 3f73 653c e13f bcf4 9fb7 af7b f83f
00000030: 0000 0000 0000 f03f 8f4d dca5 b203 f23f
00000040: daed 36bd d6af e63f bf22 2837 e936 f23f
00000050: f3c2 8855 c8d4 eb3f 1219 2952 8898 f43f
00000060: 2f92 a1c2 c20c e53f cfbf 7df6 8c19 eb3f
00000070: 4c2e fa6a 8cda ef3f 7fff 4ba3 9dd4 ee3f
00000080: d8c9 694d 8ea9 ef3f ff40 610b d4fb ee3f
00000090: 40ab 4cc1 e8b2 df3f 8e84 be5e 1df3 eb3f
000000a0: aeaf 489b bf6d e63f a660 6432 60f9 f43f
000000b0: 01ce 5fc0 a602 f03f 27bb eb1a b038 f53f
000000c0: a8db d67b 25bb e33f c6a8 01a6 b1b2 ef3f
000000d0: cf66 ec1b fa41 ee3f aaf0 12f8 10d2 ee3f
000000e0: fc6b ee05 fe07 f03f 16ce 9f31 9918 f03f
000000f0: e866 b7cc cde2 ef3f ab97 9daf c083 f33f
00000100: 0000 0000 0000 f03f c85c fd1c dc95 ef3f
00000110: fece 11c2 4660 ea3f ed69 8b0d 5fe7 ef3f
00000120: ebd6 bce5 eaaf ef3f 1859 2393 f0ee e53f
00000130: b386 f13e 96ca ee3f 7a90 edf7 e54f f23f
00000140: f17f 21c2 95fc ee3f 0259 6055 b40f f13f
00000150: d390 e96a a504 f03f 6d79 31b1 bf93 f03f
00000160: 144a 093e 19b7 e13f 6000 a7b7 2cf3 ec3f
00000170: c10f d41d e547 f53f 8c5a 80d3 37fc ee3f
00000180: 557d cbda 5c45 ef3f 82d6 2db3 7c7d e43f
00000190: fd4a c292 da9b f03f 4881 45dd 043a e73f
000001a0: 12c6 17d2 c83d e63f aa85 4622 2b37 ef3f
000001b0: bbce ea81 19d2 ee3f 63a4 587b c43c ec3f
000001c0: 0440 c8d1 6f04 ed3f 3b24 7b8e 98a1 f13f
000001d0: 50bd 64f5 ddfb ee3f 3a85 0194 688c f03f
000001e0: a236 cccc 45d7 dd3f 8fe6 51ba 23ae ee3f
000001f0: 5a1a 4444 c116 ef3f 0000 0000 0000 f03f
00000200: 5965 6839 b325 ed3f 6e49 af46 354b f53f
00000210: 35b4 9f70 d9fb ee3f 3038 7cfb d3a5 f33f
00000220: bee6 a5ad f19e f73f 39fb 198b fae0 ed3f
00000230: 0000 0000 0000 f03f f83c 4573 9bfc ee3f
00000240: 95a8 3dbc 603b f23f 2c5b 0d59 00fc f03f
00000250: c2a5 6d43 d778 ed3f c81e 2396 6625 ee3f
00000260: a892 fbd1 c3b0 f23f 2e81 252c 3e80 f03f
00000270: 1945 3e02 08f6 ee3f 5ebb 9b14 036a ed3f
00000280: cc56 9aaa afda ed3f 97a9 4750 bafa f63f
00000290: cbb8 968b a49a ef3f fe86 365f 171a f13f
000002a0: 4615 e2ed e609 f03f daea e979 7e32 f03f
000002b0: 9b7b 019c b833 f03f 0000 0000 0000 f03f
000002c0: e66d c315 8319 f03f d797 0943 7b22 e63f
000002d0: 0000 0000 0000 f03f a479 d2ed b50f f03f
000002e0: 95a3 98d1 a058 f03f a6c0 ae41 89a3 ea3f
000002f0: b0fc 5eed 61d0 ee3f 1b62 a98b cdce ef3f
00000300: 85df 890a 3e25 f03f 0000 0000 0000 f03f
00000310: 9051 1ae8 58d3 f53f 3c7f b44f c267 f43f
1.277988475207171 0.9858694437091482 1.1218484539754128 0.9886378787045721 0.5386225939691878 1.5301968739361618 1.0 1.1259027937820496
0.7089647002789505 1.1384060053407408 0.8697244330015493 1.2872393807788893 0.6578077126874343 0.8468689741403014 0.9954282845878395 0.9634540738479557
0.9894477378823536 0.9682407591117509 0.49529475094702846 0.8734270906899313 0.700897029198577 1.3108827560845753 1.0006473078364027 1.3263398219675737
0.6165950220810048 0.9905632250131695 0.9455538316135178 0.9631428570933356 1.0019512397473127 1.006005472035104 0.9964360235564671 1.2196661815628242
1.0 0.9870434347348231 0.8242524900838075 0.9969935669462849 0.9902243125022471 0.6854174493589964 0.9622298459400639 1.1445064243971772
0.9683331290834741 1.0663340888036719 1.0011343170418072 1.0360714837657625 0.5536009036680434 0.9046844088516188 1.3300524869127772 0.9682883387457237
0.9772171281182788 0.6403182506171137 1.0380502445956943 0.7258323976239263 0.6950420478225985 0.9754844350283538 0.963146928543629 0.8824179085833176
0.9067916009244077 1.1019521299042612 0.9682454865305008 1.0342794209939954 0.4662642002084373 0.9587572707234403 0.9715277036019174 1.0
0.9108520623441719 1.3308613549348496 0.9682433318790858 1.227985365261258 1.4763047011496577 0.9337132183862656 1.0 0.9683358432174876
1.1394965508612007 1.061523769245194 0.9210010830840292 0.9420655186049425 1.1681554987382388 1.0313092922661542 0.9675331157506292 0.9191909220224763
0.9329450924003253 1.4362128387389015 0.9876272894232668 1.0688699454553325 1.0024174969015163 1.0123276483779393 1.0126272291160834 1.0
1.006228528035416 0.6917091664624831 1.0 1.003835610382887 1.021637743697487 0.8324629099716006 0.9629373203423679 0.9939944961325325
1.0090923701918382 1.0 1.364098459865179 1.2753317941168936

layers.3.bias f8 [100]
00000000: 25f0 275c c8c7 a03f 5a76 f936 439a 30bf
00000010: cea4 5474 17cc 92bf cffe da1f af8f a7bf
00000020: bf57 2a4b 36f4 b0bf 6892 0d92 2881 b13f
00000030: e300 aef7 3567 71bf b834 43ff ed81 a0bf
00000040: 88ff ae1a 226c 913f b5cb 0c5c c8fd 9abf
00000050: 6ff3 a5ab 9b45 bfbf 4206 2128 cbc0 aebf
00000060: af45 8236 ab46 bbbf 4850 e942 f2e0 a5bf
00000070: b8b3 847f e9c0 593f 58a0 46cf 45f9 933f
00000080: 6082 e6d4 c37a 74bf 473a 5e86 303f cb3f
00000090: a535 0cfe e0e7 8f3f ab48 e278 e2cc cbbf
000000a0: e3c2 1ba0 eec2 793f 5f40 c8ea 71e8 bf3f
000000b0: c6d4 90c8 6182 983f c9d0 a440 d261 dabf
000000c0: e1f9 9e43 a8ad c73f bb4f 0338 3648 923f
000000d0: 2276 e4c2 3b56 d0bf af7f f06c 4de5 a4bf
000000e0: 4dc1 b648 27f3 833f f279 607a 0870 713f
000000f0: 861d 9091 4e79 c2bf fbf7 f25e ba6e 913f
00000100: d3e4 4bb2 d18a 693f 97b7 f3e3 f1e7 acbf
00000110: 585a 2c18 fe52 46bf d988 5b66 fcb3 74bf
00000120: 3efc f570 53d0 73bf 10ed 13e2 007f 7f3f
00000130: 0b4d 132e 9298 903f 7e3a d177 0a45 b9bf
00000140: 61f2 a89f be84 c03f d878 7000 3cc5 bcbf
00000150: 7f60 f7a2 7a7d 9abf 1057 d5cd bfc1 a6bf
00000160: 54a0 fd70 86b0 77bf 34e2 91ca bd9d 41bf
00000170: b355 c545 0cca 73bf 8ce4 5ed7 932a bbbf
00000180: d078 c297 a78f a93f 1f10 61d6 24f9 c03f
00000190: ac5f 9d83 b020 9e3f 7203 bd60 99bd b0bf
000001a0: a295 f105 92bd 8c3f b019 9608 60fa 893f
000001b0: 2ae6 886c 864f a0bf 5210 ccaa 5d17 bf3f
000001c0: fa4c 295e 8943 8dbf ee5d 4753 0c86 d6bf
000001d0: 910f 1a4a f25b be3f ae97 ca9b c235 99bf
000001e0: 9b3d 0370 79cf 9f3f 1c88 d288 ad73 b9bf
000001f0: cf83 ec42 289b 84bf 670e 9b72 9366 c53f
00000200: 6232 076c a1e8 9cbf 6a63 29ca 2f98 76bf
00000210: dd97 0f98 573b 763f b1c1 91df d6de c1bf
00000220: 5d2e 9c4f 2936 c43f 5569 6c79 01c9 94bf
00000230: 556e d458 60c9 993f 16ab 0bd3 aed3 ac3f
00000240: 460d e07b 3b76 a03f bc2a 83a9 94c2 c2bf
00000250: 5afd d890 daf2 55bf 2961 b7f3 5ccd 743f
00000260: 614d 99b2 612d cb3f 2bba f4ee e2fe b03f
00000270: aac4 34e3 ae62 7cbf 58b2 549f 20ea cdbf
00000280: dcf3 1bbe 109b a7bf 0cf4 51cc 25e4 d93f
00000290: f436 cec8 c01d 52bf e7b8 3434 1da7 a0bf
000002a0: 83ac dce7 aafb 8cbf b4ac b984 f13a babf
000002b0: 653d 2246 b9c3 95bf a090 2586 8dde 7b3f
000002c0: d78c 60b8 cb25 8e3f 9989 d049 1b28 673f
000002d0: 705b cf48 33c0 c0bf d356 ed91 d818 8fbf
000002e0: 5426 d2e8 4ce4 663f c6dd c19d da74 83bf
000002f0: 20ef 47e1 b7ff 813f 79a1 f567 a632 a5bf
00000300: ecc6 18ea a2f0 88bf 398e d2ab 7b2c aa3f
00000310: 1dc7 5502 0714 c6bf a9f7 821b e7cf c5bf
0.032774220704567626 -0.000253335389947517 -0.01835667274022939 -0.04601809753284913 -0.06622638068287666 0.06837705198047106 -0.004248820124189675 -0.03224128476140592
0.01701405799735725 -0.02635872899845611 -0.12215588513022423 -0.060064648293075354 -0.10654707031996823 -0.042731829326527804 0.0015718727355065031 0.01950558736430738
-0.004999890296318726 0.21286589203778503 0.0155789926079944 -0.2171900835279009 0.006289417391358329 0.12464057905185787 0.023934867731630026 -0.41222053826210164
0.1849870996647516 0.017853591126211415 -0.2552632716413844 -0.040811938808701036 0.009741122156669358 0.004257233731577591 -0.14432699306074087 0.017023956341965612
0.0031179519304457086 -0.05645709903352197 -0.0006812802024310323 -0.005054460465290422 -0.0048373469757044246 0.007689479303049099 0.01620701223585023 -0.09870973038889905
0.12905104442497176 -0.11238455782629175 -0.025869289585756846 -0.044446939350264114 -0.0057835818878189844 -0.0005376030650401987 -0.004831359805696977 -0.10611843116829983
0.04992412307295668 0.13260326831562083 0.029421575577856338 -0.06539305316711166 0.014033451849352844 0.012684583913835507 -0.03185672831427795 0.12145028514720593
-0.014288972078395624 -0.35193164951985423 0.11859049138189294 -0.024619141348601374 0.03106488939448369 -0.09942135420217862 -0.010061564009051253 0.1671928701017464
-0.028231165140640953 -0.005516230276577308 0.005427686847701421 -0.13961301723931066 0.15790287387095506 -0.0202980261193287 0.02518225233244061 0.056302512419128245
0.032152041312679944 -0.14656313206645233 -0.001339639132666401 0.00507866200811006 0.21232243748327576 0.06638925870786554 -0.006930049089804028 -0.23370750217272263
-0.04610493012112446 0.4045500274003764 -0.0011057264957545195 -0.03252497923164004 -0.014151892853609965 -0.10246190538753092 -0.021254439263939235 0.006804039791266231
0.014720527233356524 0.002826741502319052 -0.13086548857856029 -0.01518410868963419 0.002794409002096635 -0.009500225009317808 0.008788525164156236 -0.04140205401455694
-0.012177727479044852 0.0511206290477983 -0.17248618711487831 -0.17040718882884434

layers.3.running_mean f8 [100]
00000000: 0500 0000 0000 0000 0500 0000 0000 0000
00000010: 0500 0000 0000 0000 0500 0000 0000 0000
00000020: 0500 0000 0000 0000 2f07 cb0c eab5 3940
00000030: 0000 0000 0000 0000 0500 0000 0000 0000
00000040: 0500 0000 0000 0000 0500 0000 0000 0000
00000050: 7ea8 8589 acc9 4140 0500 0000 0000 0000
00000060: 0500 0000 0000 0000 0500 0000 0000 0000
00000070: 0500 0000 0000 0000 0500 0000 0000 0000
00000080: 0500 0000 0000 0000 0500 0000 0000 0000
00000090: 0500 0000 0000 0000 3d61 41ac 2495 3840
000000a0: 0500 0000 0000 0000 c22e f4e9 6706 3f40
000000b0: 0500 0000 0000 0000 438e 7dc4 d4b2 4240
000000c0: 000d 6452 ab40 2e40 0500 0000 0000 0000
000000d0: 8169 9c58 41b0 2440 0500 0000 0000 0000
000000e0: 0500 0000 0000 0000 0500 0000 0000 0000
000000f0: 0500 0000 0000 0000 d98b 6135 f664 4040
00000100: 0000 0000 0000 0000 0500 0000 0000 0000
00000110: 0500 0000 0000 0000 0500 0000 0000 0000
00000120: 0500 0000 0000 0000 0500 0000 0000 0000
00000130: 0500 0000 0000 0000 5d0e 8ae2 8fe8 3640
00000140: 0500 0000 0000 0000 fbec d3f1 067e 4340
00000150: 0500 0000 0000 0000 0500 0000 0000 0000
00000160: 0500 0000 0000 0000 0500 0000 0000 0000
00000170: e10a 59c4 7d67 4040 0500 0000 0000 0000
00000180: 0500 0000 0000 0000 fcdd eb60 0354 3540
00000190: 0500 0000 0000 0000 0500 0000 0000 0000
000001a0: 0500 0000 0000 0000 0500 0000 0000 0000
000001b0: 0500 0000 0000 0000 aeea 0e0e 23dc 3740
000001c0: 0500 0000 0000 0000 ede4 dde6 4a0a 3240
000001d0: 0500 0000 0000 0000 0500 0000 0000 0000
000001e0: 1780 6c58 695e 1c40 0500 0000 0000 0000
000001f0: 0500 0000 0000 0000 0000 0000 0000 0000
00000200: 0500 0000 0000 0000 f2ab ad4c b7e1 3240
00000210: 0500 0000 0000 0000 0500 0000 0000 0000
00000220: ca6f db5a 9eab 4640 0500 0000 0000 0000
00000230: 0000 0000 0000 0000 0500 0000 0000 0000
00000240: 75ba a408 46a8 4940 0500 0000 0000 0000
00000250: 0500 0000 0000 0000 0500 0000 0000 0000
00000260: af73 0169 45a9 3540 0500 0000 0000 0000
00000270: 0500 0000 0000 0000 8c2c 3ee0 6d7a 3140
00000280: 0500 0000 0000 0000 029a 1563 78dd 4040
00000290: 0500 0000 0000 0000 0500 0000 0000 0000
000002a0: 0500 0000 0000 0000 0500 0000 0000 0000
000002b0: 0500 0000 0000 0000 0000 0000 0000 0000
000002c0: 0500 0000 0000 0000 75c0 09fc 0b1f 4240
000002d0: 0000 0000 0000 0000 0500 0000 0000 0000
000002e0: 0500 0000 0000 0000 0500 0000 0000 0000
000002f0: 0500 0000 0000 0000 0500 0000 0000 0000
00000300: 0500 0000 0000 0000 0000 0000 0000 0000
00000310: 0676 a9d9 c7fb 2740 2a26 fb2b 60f8 3940
2.5e-323 2.5e-323 2.5e-323 2.5e-323 2.5e-323 25.710602569167516 0.0 2.5e-323
2.5e-323 2.5e-323 35.575577917349605 2.5e-323 2.5e-323 2.5e-323 2.5e-323 2.5e-323
2.5e-323 2.5e-323 2.5e-323 24.58259083362758 2.5e-323 31.025023100008873 2.5e-323 37.397118150049685
15.126307081902723 2.5e-323 10.34424855145767 2.5e-323 2.5e-323 2.5e-323 2.5e-323 32.78876368773462
0.0 2.5e-323 2.5e-323 2.5e-323 2.5e-323 2.5e-323 2.5e-323 22.90844550962935
2.5e-323 38.98458693359313 2.5e-323 2.5e-323 2.5e-323 2.5e-323 32.80852560375002 2.5e-323
2.5e-323 21.32817655333018 2.5e-323 2.5e-323 2.5e-323 2.5e-323 2.5e-323 23.859909895555283
2.5e-323 18.040205411122702 2.5e-323 2.5e-323 7.092198735830627 2.5e-323 2.5e-323 0.0
2.5e-323 18.881703178787525 2.5e-323 2.5e-323 45.340770108362975 2.5e-323 0.0 2.5e-323
51.31463726085068 2.5e-323 2.5e-323 2.5e-323 21.661215365271058 2.5e-323 2.5e-323 17.478239073924257
2.5e-323 33.73023642115369 2.5e-323 2.5e-323 2.5e-323 2.5e-323 2.5e-323 0.0
2.5e-323 36.24255323864137 0.0 2.5e-323 2.5e-323 2.5e-323 2.5e-323 2.5e-323
2.5e-323 0.0 11.991759111343537 25.970217465224927

layers.3.running_var f8 [100]
00000000: 0500 0000 0000 0000 0500 0000 0000 0000
00000010: 0500 0000 0000 0000 0500 0000 0000 0000
00000020: 0500 0000 0000 0000 692d 1015 fa35 2240
00000030: 0500 0000 0000 0000 0500 0000 0000 0000
00000040: 0500 0000 0000 0000 0500 0000 0000 0000
00000050: 58f3 b450 4a77 0740 0500 0000 0000 0000
00000060: 0500 0000 0000 0000 0500 0000 0000 0000
00000070: 0500 0000 0000 0000 0500 0000 0000 0000
00000080: 0500 0000 0000 0000 0500 0000 0000 0000
00000090: 0500 0000 0000 0000 bc2d 0c43 64f3 1340
000000a0: 0500 0000 0000 0000 8a3b 3b3a 7cfe 1b40
000000b0: 0500 0000 0000 0000 04c1 7e00 5300 2140
000000c0: d031 a459 0016 1940 0500 0000 0000 0000
000000d0: bcc9 989d cf17 1240 0500 0000 0000 0000
000000e0: 0500 0000 0000 0000 0500 0000 0000 0000
000000f0: 0500 0000 0000 0000 fd0e bd38 3fb5 1340
00000100: 0500 0000 0000 0000 0500 0000 0000 0000
00000110: 0500 0000 0000 0000 0500 0000 0000 0000
00000120: 0500 0000 0000 0000 0500 0000 0000 0000
00000130: 0500 0000 0000 0000 6ae3 9fa3 3f39 1d40
00000140: 0500 0000 0000 0000 9e4f 5037 c76a 1c40
00000150: 0500 0000 0000 0000 0500 0000 0000 0000
00000160: 0500 0000 0000 0000 0500 0000 0000 0000
00000170: 0e89 fc8e 7fa7 0540 0500 0000 0000 0000
00000180: 0500 0000 0000 0000 12ea 6b31 20bd 0f40
00000190: 0500 0000 0000 0000 0500 0000 0000 0000
000001a0: 0500 0000 0000 0000 0500 0000 0000 0000
000001b0: 0500 0000 0000 0000 870e 6e4c 1321 1640
000001c0: 0500 0000 0000 0000 b66f 3ac1 8950 1240
000001d0: 0500 0000 0000 0000 0500 0000 0000 0000
000001e0: 2df4 15f2 109e 1140 0500 0000 0000 0000
000001f0: 0500 0000 0000 0000 0500 0000 0000 0000
00000200: 0500 0000 0000 0000 4483 9e62 0460 1a40
00000210: 0500 0000 0000 0000 0500 0000 0000 0000
00000220: d1c7 5fca 8e66 2240 0500 0000 0000 0000
00000230: 0500 0000 0000 0000 0500 0000 0000 0000
00000240: d281 f837 1d81 0940 0500 0000 0000 0000
00000250: 0500 0000 0000 0000 0500 0000 0000 0000
00000260: e196 67ea e0fd 0b40 0500 0000 0000 0000
00000270: 0500 0000 0000 0000 568b 53d6 7e02 0940
00000280: 0500 0000 0000 0000 23de d666 1e41 1640
00000290: 0500 0000 0000 0000 0500 0000 0000 0000
000002a0: 0500 0000 0000 0000 0500 0000 0000 0000
000002b0: 0500 0000 0000 0000 0500 0000 0000 0000
000002c0: 0500 0000 0000 0000 bcf4 9311 fd46 1a40
000002d0: 0500 0000 0000 0000 0500 0000 0000 0000
000002e0: 0500 0000 0000 0000 0500 0000 0000 0000
000002f0: 0500 0000 0000 0000 0500 0000 0000 0000
00000300: 0500 0000 0000 0000 0500 0000 0000 0000
00000310: cdfb 4eb5 a050 1e40 bf74 88bf 9711 1640
2.5e-323 2.5e-323 2.5e-323 2.5e-323 2.5e-323 9.105423601364878 2.5e-323 2.5e-323
2.5e-323 2.5e-323 2.9332472138616303 2.5e-323 2.5e-323 2.5e-323 2.5e-323 2.5e-323
2.5e-323 2.5e-323 2.5e-323 4.987687156313253 2.5e-323 6.998520765176076 2.5e-323 8.500633254502198
6.271485710760729 2.5e-323 4.523252928209725 2.5e-323 2.5e-323 2.5e-323 2.5e-323 4.926998983897417
2.5e-323 2.5e-323 2.5e-323 2.5e-323 2.5e-323 2.5e-323 2.5e-323 7.305906826623735
2.5e-323 7.104275573994441 2.5e-323 2.5e-323 2.5e-323 2.5e-323 2.7067862673585585 2.5e-323
2.5e-323 3.96734655962542 2.5e-323 2.5e-323 2.5e-323 2.5e-323 2.5e-323 5.532300180642443
2.5e-323 4.5786504928509455 2.5e-323 2.5e-323 4.404361517515139 2.5e-323 2.5e-323 2.5e-323
2.5e-323 6.593766728329516 2.5e-323 2.5e-323 9.200308155242881 2.5e-323 2.5e-323 2.5e-323
3.188044011374793 2.5e-323 2.5e-323 2.5e-323 3.498964148794457 2.5e-323 2.5e-323 3.1262184852834407
2.5e-323 5.563592535843358 2.5e-323 2.5e-323 2.5e-323 2.5e-323 2.5e-323 2.5e-323
2.5e-323 6.569324755340116 2.5e-323 2.5e-323 2.5e-323 2.5e-323 2.5e-323 2.5e-323
2.5e-323 2.5e-323 7.5787380532701265 5.517180435851684
