model_policy2_epoch-250.pt (torch, 373942 bytes, 28 tensors)

layers.0.weight f8 [128, 128]
0	0xbfe0a84c623b571e	-0.5205442350950056
1	0xbfdbe05912ac12b5	-0.4355681116433446
2	0xbfd7c7166da94fae	-0.3715263434326016
3	0x3fbac4a15c5613a3	0.10456284050276436
4	0xbfc7ad330264bab3	-0.18497312180394018
5	0xbfae23202003b4d1	-0.05886173620988589
6	0xbfb0afa29725386b	-0.06517997922967005
7	0xbfa8a5040a68a197	-0.048133970518679785
8	0xbfb7ab6c31686759	-0.0924594517349794
9	0x3fd23c87f5dcd392	0.2849445248605714
10	0x3fb6673751787ac8	0.08751245249775785
11	0x3f891606b5e7cd01	0.012249042917551469
12	0xbfd2cb4228875e89	-0.29365591009034425
13	0xbfdfda438697b0f6	-0.49769676345637437
14	0xbfd390efb0274b7a	-0.30572120859613217
15	0xbff0f2b843a4fd04	-1.0592577593195651
16	0xbfba566f9c88cb7f	-0.10288140842093972
17	0xbfb10ffa2f2ac0b9	-0.06665004397905507
18	0x3fd3385be6afe548	0.300314879684795
19	0xbfc638f461e3aab5	-0.1736131170249188
20	0xbfd96be761887eb7	-0.39721092724537804
21	0x3fd036d9ee12c84e	0.2533478569922679
22	0x3fe2268ec8c806e7	0.5672067567358824
23	0xbff15693dada801a	-1.083637099167396
24	0x3fe8284fca21dc4d	0.7549208591361861
25	0xbfd8a49682a88602	-0.38504565009688474
26	0xbfdb8d24cf1bc41b	-0.43048973298488286
27	0xbfe4bba33437f044	-0.6479049701588413
28	0xbfe05191a07a1dea	-0.5099571356121804
29	0xbfdd8dd4c3fa9139	-0.46178168428948
30	0x3fd812ad47b88056	0.37613994602179923
31	0x3fdc3769555b18f2	0.44088204703838507
32	0xc00381ed790254d2	-2.4384412244640794
33	0x3fd64ebd1f6902b9	0.3485558325519765
34	0xbfbf7a34fe6aad9c	-0.12295848094316003
35	0x3fd93f8cdc198502	0.39450379842863026
36	0x3fde3258d41e1a53	0.4718229361973602
37	0xbfe68fee510cdada	-0.7050696928989411
38	0xbfe1b91e10641f1a	-0.5538473434580482
39	0xc00046d224160cce	-2.034580499575532
40	0xbfeafb24a5cbaf0f	-0.8431571233936398
41	0xbfae1f90c0d5a2f4	-0.05883457521378502
42	0xbfe1297c8178fed7	-0.5363142517816993
43	0x3fd4fd1ea45f290b	0.3279492001717165
44	0xbfa0dab6f35681d8	-0.032918660358749186
45	0xbfed6c1079c45bfb	-0.9194414499532962
46	0x3fc4e5632f74e8d9	0.16325034920902828
47	0x3fc16796fcd82de4	0.1359738096801798
48	0x3fda61b236913b3b	0.41221289948309775
49	0xbff2c41be2eb16a1	-1.1728781570431368
50	0xbfff984f2049f506	-1.9746848355565034
51	0xbfe10f7a163d0d75	-0.53313927024321
52	0xbfd050909e02ebdd	-0.2549172919349852
53	0xbf941aaf4c5b7c85	-0.019633044276699003
54	0xbff387a46190b07b	-1.2206157504215571
55	0xbfa144493c4015c3	-0.0337241064117211
56	0x3fc677742f96e79b	0.17552044223503746
57	0x3fe52f7b24fbadc0	0.662046024544388
58	0x3fd14a6d335142e4	0.27016763698070023
59	0x3fc873a56904a2c3	0.1910292399200185
60	0xbfe5c209b65f39bc	-0.6799362718536979
61	0xbfb8c78a6c292777	-0.09679474964755551
62	0xbfe5d0b8833bd0c1	-0.6817286074788386
63	0x3feb024e1aa01142	0.8440313835167574
64	0x3fdcdefa9721bad5	0.4511095500846925
65	0xbfb437c6424fb838	-0.07897605055743007
66	0x3fa7b0fa759e578d	0.04627211271069518
67	0x3facf94d32838386	0.05658951989767673
68	0x3fe0281afb16ee21	0.5048956779568848
69	0x3fdf2a3c373b635e	0.48695283311604054
70	0x3fe1e704859d01cd	0.5594503984103142
71	0x3febecf7208f14d7	0.8726764331737752
72	0xbfb5ba1d9c991799	-0.08487114976114042
73	0xbfb9d829a8488a5c	-0.1009546314094591
74	0x3fd218a1ec2ffd75	0.2827534491079498
75	0x3f9414d2a796c52d	0.01961068294412376
76	0x3fd1e29df33b5afe	0.2794566035567384
77	0x3fcea21292d5a336	0.2393210617986143
78	0x3fc59eda0e4ef168	0.16891027163172656
79	0x3fe40c44ed329310	0.6264977104916358
80	0xbf74b8eea282b352	-0.0050591775581495125
81	0xbf3192f810920c41	-0.0002681594492701147
82	0x3f8a88e0ebb84e01	0.012956387704469387
83	0x3febe9f2bff7f1b3	0.8723081349740397
84	0x3fe695a2b4e5a73b	0.705766061129203
85	0xbfa957da2fb69103	-0.049498384785041004
86	0x3fb09de5c17c5226	0.06490932439584948
87	0x3ff2f739b6ac59ff	1.1853577743219146
88	0xbf9dc55f98d2ef65	-0.029073232367167096
89	0x3fe225c2305a2f4c	0.567109198034339
90	0x3fcf15121abc3d0b	0.24283052735743413
91	0x3fd8cc6067eb491b	0.38747415684078285
92	0x3fccc3aa2c2cb674	0.22472121388402722
93	0x3fa8c736ebcad4e7	0.04839488628696547
94	0xbf9c3902c3a2805d	-0.027561228933905436
95	0x3fe8689c3e78bd81	0.7627698154591799
96	0x3ffd87d5a6128f03	1.8456627356726478
97	0x3ff1096374cb9601	1.0647921144785644
98	0xbfc041eaf0963b5e	-0.12701164958385908
99	0x3fc91be891a99ba5	0.19616419899395257
100	0x3fda74f0747c68a2	0.4133874070699993
101	0x3fe44cfd8222660a	0.6343982259451775
102	0x3ff380cc3f35e033	1.2189447850378314
103	0x3ff03cf2294b707e	1.0148793805192606
104	0xbfd99dd216f1488c	-0.4002576087997418
105	0xbfc39ebce3450fa8	-0.15328179452091928
106	0x3ff4ae27c8f45b30	1.2925184106622503
107	0xbfbe88c71a03ca9d	-0.11927456269385535
108	0xbfe3cfb706c4c6bc	-0.6191058284950581
109	0x3fee6a82e4492e7d	0.9505018671711266
110	0x3fe66bac8fe523eb	0.7006438074541824
111	0x3feadabf154a8a3d	0.8392024436801148
112	0xbfe28b53dc1b3f86	-0.57950776090182
113	0x3ff6fcb0d5262820	1.4366920782217747
114	0x3ffe1bb8ffdfbb94	1.8817682261539845
115	0x3fe46f05de77e793	0.6385526032529348
116	0x3fd3755d24aa1504	0.3040383203554742
117	0xbfde1e802b3b75d8	-0.4706116125288111
118	0x3ff1eb9224f08245	1.1200124209355107
119	0xbfab76d6ccf150ce	-0.05364104511014177
120	0xbfef7deef237ab4f	-0.984122727471325
121	0xbfc1a4a107866b11	-0.13783657901225202
122	0x3fc0ce4ba9ad8d68	0.13129564080291378
123	0x3fd817c338f46345	0.3764503532598165
124	0x3fe5be86be44a63f	0.6795076099562677
125	0xbfcc1fa1d2a10cff	-0.21971533569931265
126	0x3fe1ed96f3b7b112	0.5602526435955346
127	0xbfd5c01dc1a2045c	-0.33985084447346536
128	0xbfe67a5e6adf7c38	-0.702437599884326
129	0xbfd2fb76ffd4b213	-0.2965981958721226
130	0xbfea247ccb13f0a3	-0.816954037319665
131	0xbfe80132f3a14d05	-0.7501463659667996
132	0xbfe628b4f431ebd9	-0.6924690980371181
133	0xbfe734e5b0599b91	-0.7252071804367565
134	0xbfdf275767a23e46	-0.48677621002659455
135	0xbfe4026f040e799a	-0.6252970771054607
136	0xbfebd95bc7802797	-0.870283021592729
137	0xbfe417b5027e955b	-0.6278939293594407
138	0xbfeb0bb881e9a239	-0.8451807534557424
139	0xbfe6d4dab327661a	-0.7134831904506342
140	0xbfe4b195a5c59470	-0.6466778028231044
141	0xbfdf191351533bf2	-0.4859054845991856
142	0xbfe15d78668df497	-0.5426599505441513
143	0xbfe3c818a0b946e5	-0.6181758059630879
144	0xbfe7f2d4c189b31f	-0.74839246559495
145	0xbfe377e18f5a7ea5	-0.6083839225647877
146	0xbfd7a54096c137c9	-0.36946119997162136
147	0xbfe7d106952a7d28	-0.7442658341787238
148	0xbfe873885af84f3b	-0.7641031052357684
149	0xbfe3529f3c1dbaac	-0.6038356947081716
150	0xbfd6ee088d6c1de4	-0.3582784062459423
151	0xbfec21a80f2c436b	-0.8791084572168136
152	0xbfe2e2f7ce09b41b	-0.5902060531785794
153	0xbfeb1cfa0986d1f1	-0.8472871957843023
154	0xbfe9a80abf792247	-0.8017629375181706
155	0xbfd6f502a4cf25a9	-0.35870424360890724
156	0xbfdda32c7dd5c8cf	-0.46308433807929544
157	0xbfe265768b329fa0	-0.5748856276231784
158	0xbfe6661ae09a1447	-0.6999639879947005
159	0xbfea939e49aac987	-0.8305198134242325
160	0xbfe27d9de81c73a5	-0.5778340848370261
161	0xbfe82359286db00f	-0.7543149747484693
162	0xbfebbc8983fccee5	-0.86676479128661
163	0xbfe091e3d3666338	-0.5178088311105062
164	0xbfe58c9ea7468902	-0.673415495595947
165	0xbfec7caea9a5da88	-0.8902200044093016
166	0xbfe74bc0682672d9	-0.7279970201667211
167	0xbfe5658cc11f412a	-0.668646218482569
168	0xbfcf86bb9249038a	-0.24629921572525532
169	0xbfdf19dac789da57	-0.4859530399911924
170	0xbfcb0b5a75d13666	-0.2112839770583605
171	0xbfe1e59caae1e6be	-0.5592788064525036
172	0xbfdb4b98ca93cb73	-0.4264890650076076
173	0xbfe3ae7e815ac42e	-0.6150505567985698
174	0xbfb85ffcce31e90b	-0.09521465333992667
175	0xbfe2a42f84dfe3af	-0.582542190094605
176	0x3f611ccaa85f12f5	0.0020889242323128784
177	0xbfe37e197ec74d46	-0.6091430164473557
178	0xbfed191d8475e50f	-0.9093158328170449
179	0xbfe2380ea862b9c8	-0.569342926862924
180	0xbfe76168aa7755e8	-0.730640728894909
181	0xbfe0c66fe1234791	-0.5242232701514117
182	0xbfddb6ad0ad3c565	-0.464274654935329
183	0xbfddc02255741cb9	-0.464851935816522
184	0x3fb1e72bc45e70c7	0.06993363899386217
185	0x3fcf92086fcf261c	0.2466440721457709
186	0xbfe724862a8ccdc7	-0.7232085066847781
187	0xbfe3bfb3dc86df16	-0.61715119430207
188	0xbfc96bd3c4608bf8	-0.19860312546470005
189	0xbfe37394d94b1a44	-0.6078590625773548
190	0xbfe788308461310c	-0.7353746972599153
191	0xbfd950ed7002f6cb	-0.3955644220221585
192	0x3fe24b4d96dda965	0.5716922709082551
193	0x3fdc33e22982931e	0.4406667142268804
194	0x3fe77788bb9c75b1	0.7333415664940529
195	0x3fe82ae9e2280d49	0.755238477432081
196	0x3feaf28d0172ee74	0.8421082523631882
197	0x3fe50ad68e0d5778	0.6575730108695401
198	0x3fda4c96873f53e9	0.4109245606207979
199	0x3fe6f3f29ee1abdb	0.7172787764696936
200	0x3fe68c2a26b58890	0.7046099430119899
201	0x3febb22e210bb8bd	0.8655005116868534
202	0x3ff0dec0a61f6418	1.0543829430737386
203	0x3fe94f726b526e50	0.7909481140263299
204	0x3fe4efc6e6da3b0c	0.6542696484410455
205	0x3fe78e87e00583de	0.7361487746639985
206	0x3fe5a2a633b1ba37	0.6761046418813014
207	0x3fe6a13f94f4eb7b	0.7071836385069753
208	0x3fe21f9fb390e34a	0.5663603312633338
209	0x3fe6c715e23528ad	0.7118024271124078
210	0x3fe3e41aace7fdae	0.6215947510790352
211	0x3febae9351066b36	0.8650604803582158
212	0x3fe6f4e6d341774f	0.7173952222908414
213	0x3febcd32b2a5182c	0.8687985886724667
214	0x3fdd1ce5565b4005	0.4548886626553215
215	0x3feea26e6510ad03	0.957328030960895
216	0x3fe175ff61a73efc	0.5456540019312963
217	0x3fe4460b875d7b22	0.6335504192209991
218	0x3fe897a950eef616	0.7685133534175204
219	0x3fe1c252abbc768a	0.5549710611555423
220	0x3fea2820bd129b95	0.8173984234643848
221	0x3fe7ffa20149450b	0.7499551797028813
222	0x3fe4812a2f93ec82	0.6407671860937543
223	0x3fe69bb7320e3d46	0.7065082528733135
224	0x3ff25c5e93a2853b	1.1475511328683996
225	0x3fe41d8120d3db58	0.6286016122020142
226	0x3fec76824cbd5518	0.8894664286441722
227	0x3fec35cd79750648	0.8815677044114603
228	0x3fe8d6c049002989	0.7762147355836514
229	0x3feb668bdbd0b13a	0.8562678616777142
230	0x3fe716989ed79cff	0.7215083219897734
231	0x3ff1b8778eaa2f32	1.107535893711383
232	0x3fc848df1cbd61b3	0.18972386267956906
233	0x3fdf8cf8a5094988	0.49297920338462875
234	0x3fe8539e59a44df1	0.7602073431793867
235	0x3fe4f0218f8ff8d0	0.6543128780320107
236	0x3fdaea0e9e8b169a	0.42053571207757445
237	0x3fe4c5601d531577	0.6490936825509114
238	0x3fd9e3161c79a49f	0.40448525219705717
239	0x3fecb49cdf3c6e56	0.8970474586562414
240	0xbf99138feee43ccd	-0.024488686519416093
241	0x3fdfcc6820feba8b	0.4968509981362465
242	0x3ff175fc796f7339	1.0913052314346727
243	0x3fe8daa643fed581	0.7766906097446481
244	0x3fe210976810b480	0.5645253212475296
245	0x3fdb5333fa843b19	0.42695331062798086
246	0x3fe680ed92182070	0.7032382825282308
247	0x3fe0aac09d11359e	0.5208437984198786
248	0x3fdd7d68e3a447d1	0.4607794020713501
249	0x3fc5984c400e9e23	0.16871026160991773
250	0x3fe0bca67165a8dd	0.5230285849368347
251	0x3fe1ea24a9ccaf67	0.5598319355390061
252	0x3fd0c528cb9a2769	0.2620336521437055
253	0x3fe4051cfca53e5e	0.6256241735918129
254	0x3fe68e1f8324572b	0.7048490105978308
255	0x3fdbead58a7c45b9	0.4362081386944641

layers.0.bias f8 [128]
0	0xbfa93a030c7d994d	-0.04927072074387926
1	0x3fd6238c4600fe8e	0.3459196742660219
2	0x3fd503483f8c7b6c	0.3283253307908385
3	0x3fd13fdc42cbb774	0.269522729139559
4	0x3fd587f12b10c9e1	0.3364222450792607
5	0xbfd9f7ba79c93308	-0.40574514287145336
6	0xbfe39be37665ca17	-0.6127793610051552
7	0xbff1c3129ae491b0	-1.1101251650335193
8	0xbff14e94d202bb79	-1.0816848948995512
9	0xbfe8c582edc985e4	-0.7741102833062397
10	0xbfd37f42a83d911c	-0.3046423571561421
11	0x3fe857b9886a8cc8	0.7607085861567606
12	0x3fea78d5b6ef84da	0.8272503445588442
13	0x3fb4d642902859b7	0.08139434833024138
14	0xbff0a3025f8a145d	-1.039797185135533
15	0x3fece76c684b3f45	0.9032499348631765
16	0xbfe67f3388b5da52	-0.703027503025462
17	0xbfef0e67a9d74aaf	-0.9705084149557787
18	0xbfe17d07601bad42	-0.5465123059379169
19	0x3fae3179545e5a09	0.05897120623483338
20	0xbfd93aea8b2dcf48	-0.3942209586305023
21	0x3fe86340abc97724	0.7621157984937992
22	0x3fdb3aa4849ce055	0.42545426321476515
23	0xbfa48f3f670157d7	-0.040155392955668105
24	0x3fbd57b91e7540b1	0.11461979859928097
25	0x3ff06c8733c194dd	1.0264961263395016
26	0xbfd9bc6887e8a051	-0.40212453148206345
27	0x3fce0cd5ba6d1fa5	0.23476668932766845
28	0x3fe13024799e42cf	0.5371267676692585
29	0xbfdbed398e320975	-0.4363540543200977
30	0xbfecfd315ff5fbef	-0.9059073328243111
31	0xbfceb32232489758	-0.2398417230153267
32	0xbfe99d1f631353e1	-0.8004300055569012
33	0x3fdbcfd734be49aa	0.4345605864592935
34	0x3fd9ba77409bba50	0.40200597104459224
35	0xbfd8ce1652d7418c	-0.3875785645477883
36	0x3fd524176c57c57f	0.33032785015446814
37	0x3fcdf24f39bcfc24	0.23395719832657946
38	0x3fd14d843b6c9204	0.2703562336267
39	0x3fda4a9f2741d7f4	0.41080454667769506
40	0x3fd0eb1cb72f893f	0.2643501080439314
41	0xbfcf86d093f494c0	-0.24630171989807614
42	0x3fe692f6ffeef990	0.7054400442792019
43	0xbfb6c36b350212e2	-0.08891935390608866
44	0x3fde7f34184c4b47	0.4765138852391612
45	0xbfdc60a3cd4f269e	-0.44339842843747046
46	0x3fde583ab861bf10	0.4741350937465407
47	0x3fd1d3c819ea3877	0.27855112581972413
48	0x3fc4055299bdf605	0.1564124346440822
49	0xbfe410c373767e96	-0.6270463233122026
50	0xbfeaa491614a2c6b	-0.8325888538542022
51	0xbfd0856e3e8a2e56	-0.25814396006965035
52	0xbfddef38aaae6e09	-0.4677259127435894
53	0xbfe75a25e66f4578	-0.7297544003178436
54	0x3fea4d82c525a1d1	0.8219617701079703
55	0xbfe515c183f75e96	-0.6589057519403976
56	0xbfe2607178b3310c	-0.5742728574200853
57	0x3f36c166dbee8d20	0.00034722100456914713
58	0x3fecf1b2be528f2d	0.9045041768299363
59	0xbfdcf1f781fb8176	-0.45226848310087264
60	0x3fe0284dd5bbd4fd	0.504919927071256
61	0x3fd96b59d81f792f	0.3971771822524656
62	0xbfd269037f22a4b4	-0.28765952506598613
63	0x3fd74ef0d93dd857	0.36419316496847415
64	0xbfcd4b9885eb5e09	-0.2288695005324686
65	0x3fea006199b3a2eb	0.8125465394960804
66	0x3fdfc16cea0f4c64	0.4961807523479307
67	0x3fdd1c867518a785	0.4548660415190329
68	0xbff04798cad548f2	-1.0174796984834384
69	0x3fd5c6e7388e1f6e	0.3402650883003763
70	0xbfcfc6dd37d9cb45	-0.24825635172927654
71	0x3fa46c7ce2fb3990	0.039890196521457644
72	0xbfde164999aef427	-0.47011032112260626
73	0xbfbc00ce95b825e0	-0.10938731341607122
74	0xbff47b395566db44	-1.2800839744574697
75	0xbff21409bf57e7e3	-1.1298921083784925
76	0x3fc02a33e4ad51ab	0.12628792444105605
77	0x3fcdbf8143b2c5ab	0.23240676694471793
78	0x3ff457ad08ef91bd	1.2714052533202527
79	0xbfe3ee00bb8e336f	-0.6228030837242907
80	0x3fa4d0630367dad0	0.040652364888890014
81	0xbfe923f8a5d58fc4	-0.785641025443049
82	0xbfe74a2556951305	-0.7278010073719946
83	0xbfb0e49d1e1092b6	-0.06598836883547218
84	0x3ff1a6e864e66026	1.103248972072842
85	0x3fe87aabe5cb349d	0.7649745453033067
86	0x3fb1ad6391b1df6c	0.06905195528986291
87	0xbfcc1870da75f5ec	-0.21949587504415946
88	0x3fc6b08639fbaeb4	0.17726209479530086
89	0x3fe69017dac469eb	0.7050894997403793
90	0xbfdd2ffde8b5b3cf	-0.4560541889721294
91	0xbfdce52845aab428	-0.4514866524066883
92	0xbfe6d3639315b71a	-0.7133043167829982
93	0x3ff0809c6b623e25	1.0313991732290415
94	0x3fdd3ba592d027d8	0.45676555001466346
95	0xbfe13703f99ac7b7	-0.5379657626237905
96	0xbfec2caf8db21b45	-0.8804548041815471
97	0xbfdd281b0036746f	-0.4555728437497412
98	0x3fec8a0daa68417c	0.8918522194162928
99	0xbff08a69bfc3fa52	-1.0337922564355222
100	0x3fe7aec0d5760091	0.7400821847113709
101	0xbfe15864c930f615	-0.5420402459637353
102	0x3fb84349eb458fcd	0.09477674478472338
103	0xbfd765e18a99c176	-0.36559332404342315
104	0xbfc319c347a5debc	-0.14922371862825468
105	0x3fde8a16e6871b35	0.47717831146694617
106	0x3fda2425cd52f5ed	0.40845627833536363
107	0xbfaba8d1800124f3	-0.054022356868310605
108	0xbfe23634bc9957c9	-0.5691169437002311
109	0xbfd400b133634530	-0.3125422479470954
110	0x3fdbf0f4f6dfab06	0.4365818415523538
111	0xbff251e7f144c33b	-1.1449965881876796
112	0x3fe2d6d6ff9efdb6	0.5887255661581807
113	0x3fd4e2d748b9f586	0.3263452730387474
114	0xbfd3cdc8b4099dd2	-0.3094350584201183
115	0xbfd69c2a5ed51658	-0.3532815862748513
116	0x3fe1851c3e43fcde	0.547498818981605
117	0x3fd5795311820055	0.33553005895374116
118	0xbfeb14319499a330	-0.8462150480600936
119	0x3fd76c979d78e90e	0.3660029447379579
120	0x3fe636cd08e8f895	0.6941895650886801
121	0xbfd25440361d94d3	-0.28639226231309783
122	0xbfdad1dc43b4ca2a	-0.41905886279997395
123	0xbfedec728dc563a3	-0.9351132172551967
124	0xbfee61b7a21e5885	-0.94942838348176
125	0x3f7c0d308f905f1e	0.006848516169178058
126	0x3ff11a670b58dc05	1.0689459269758583
127	0xbfdbdef3c2d49e34	-0.43548292185230086

layers.1.weight f8 [100, 128]
0	0xbfe1d9eed1d5ec22	-0.5578531359054788
1	0xbf8af0767e49220c	-0.013153959015782334
2	0xbfd29eae02369a61	-0.29093504158155353
3	0x3fad8f5b3a035ae1	0.05773434718292037
4	0xbfd5aa93f96bc960	-0.33853625638507445
5	0xbfd20e7d759938c6	-0.2821344040320465
6	0x3fd199c432c3554f	0.2750101562245008
7	0x3fc18751fe5150b9	0.1369421474252073
8	0x3fce026f0ed3a650	0.23444927429163664
9	0xbfc9cb35fcd382e4	-0.2015140041831024
10	0xbfc9fe99d677af5f	-0.20308230373427258
11	0xbfce160064eea915	-0.2350464337189996
12	0xbfb716cea5fbc971	-0.09019176056225377
13	0x3fd043d438aeb8b8	0.25413995299721703
14	0x3fb4bed68850af00	0.08103695705420577
15	0x3fc60a6ccad8b417	0.17219314484228285
16	0x3fd39b7f7568ebad	0.3063658377247361
17	0xbfc629d3efd8c16a	-0.17315148555054388
18	0x3f9d624f65f636ac	0.0286953359587218
19	0x3fc2708bd7fc6297	0.14405963941751018
20	0x3fc11b52d5c492ea	0.13364634931453817
21	0x3fa347d9a8ba95c3	0.037657548758299984
22	0x3fc3f7ac2323736f	0.15599586215730762
23	0x3fc960daa15581fe	0.19826825025212708
24	0xbfdba1f164d5a1fc	-0.43175921294326236
25	0xbfcd1e2e83a00f01	-0.2274835722638429
26	0xbfa4c9b4b2bf3d46	-0.04060139352770391
27	0x3fd90ed7d98d02f2	0.3915309547920024
28	0x3fc907111a004302	0.19552816171246695
29	0x3fa0ce2da8c02304	0.032823016023092705
30	0x3fe008e64866b4c4	0.5010863699041228
31	0x3fd37ad80b70ab5a	0.30437279813002294
32	0x3fbb1ee2aa187452	0.10594002392504479
33	0x3f81e2ac848d8dce	0.008733127398676734
34	0xbfc55e3bcc2bb610	-0.16693828076624628
35	0xbf69f6a02a5c2437	-0.0031693580848508834
36	0x3fd4cb35a6a10f2b	0.3249029280889199
37	0xbfa599ba4ef7e7eb	-0.04218847478837503
38	0x3fda7daad9bc60ea	0.4139201284720132
39	0xbfcac8a398ff60db	-0.20924801798424295
40	0xbf95a99683cd33fd	-0.02115473918393106
41	0xbfdd52dc57b47348	-0.45818241658144077
42	0xbfbbf60adc91a9a3	-0.10922305951104376
43	0xbfc15ce0016ebfef	-0.13564682073547327
44	0x3fa8a266a67ad51c	0.0481140211317472
45	0xbfbb3d5d9ec2e709	-0.10640511632928108
46	0xbfc8c3eaef8d07f0	-0.19347893425771145
47	0xbfe5096fbde29113	-0.6574019154254834
48	0xbfc3863c5ee31af0	-0.15253405221138605
49	0x3fc252fba9473a33	0.14315744176424658
50	0x3fa5f7fd169fe08c	0.04290762807062362
51	0x3fde78722ea0154c	0.47610144189123527
52	0x3fc3d72d2a893a69	0.15500416352229543
53	0x3fcb3d790fd70a00	0.21281350396573373
54	0xbfc3fad1a6997a89	-0.15609188685171585
55	0x3fd60a025b6e022f	0.3443609135502212
56	0x3fd8e7a5bf41660a	0.3891386382798322
57	0xbf9520e9422821bb	-0.020633358633888692
58	0xbf9651ec8f8e25fd	-0.021796890508573686
59	0xbf78bc6710a82329	-0.006039049718773262
60	0x3fd176e5117cce4f	0.2728817625786392
61	0xbfe0888b12f01d9a	-0.5166678781396741
62	0xbfde73f255ae512b	-0.4758268200614732
63	0xbfc4c608e9360753	-0.16229354274042382
64	0x3fd86a671b1274a9	0.38149430888899843
65	0x3f68b95b824d59a4	0.0030180728230490717
66	0x3fc30f62ae5233a6	0.14890702735683908
67	0xbfc32fc2d0303664	-0.14989504971929357
68	0x3fd82cd29b469f5d	0.3777357593885336
69	0x3fb26fa6e60fa241	0.07201617352223712
70	0x3fabc6923f3b1fff	0.05424935361730831
71	0x3fce620ef1be110a	0.237367504156403
72	0x3fb8c142cbb82868	0.09669892762772891
73	0x3fafa0f1d519cd64	0.061774785292892515
74	0x3fc34e04f683c799	0.15081846272329072
75	0x3fc03fc5008a709f	0.12694609190373726
76	0x3fc09f9c6f41af32	0.12987094337892696
77	0x3fd7642450cf4903	0.3654871739537528
78	0x3fc5273573b044cd	0.16525905751090023
79	0x3f96591dd226042a	0.021824327422567937
80	0xbf8afbb5640ffb5e	-0.013175408474123958
81	0xbf85a4da3cb5a2c6	-0.01056833741923081
82	0xbfda7b10dbd11601	-0.41376134363630973
83	0xbfa45d225e60c91c	-0.03977305795742067
84	0xbfcb271bd0164843	-0.21213100109577185
85	0x3fbef3fe46529fdf	0.12091054169525205
86	0xbfb138bd2d278f62	-0.0672720179787212
87	0x3fe3f37e03091641	0.6234731730734852
88	0x3fee41ed5c111002	0.9455477522064941
89	0x3fb86318b6daba61	0.09526209320277125
90	0xbfc12cda8b3ba956	-0.13418132589806459
91	0x3fb85aceb70d9eed	0.09513561219284457
92	0xbfb0e0f1bdbb6aca	-0.06593237764483742
93	0xbf701ff25bae1ad0	-0.003936716758181816
94	0xbfddaa38939d7533	-0.46351446548017633
95	0xbfb7e37f7fc20a55	-0.0933150946530444
96	0xbfc3e64a497201ce	-0.15546539865682835
97	0x3fcf57984a1e4c80	0.24486068362293523
98	0xbfb5a2d55bf4ddb6	-0.08451589102775511
99	0xbfa13fbaf23f3c0d	-0.0336893482886965
100	0x3fd2e9c4a03877c3	0.2955180706647946
101	0x3fd5d8975eb8fe7a	0.3413446831727708
102	0xbfc23d2acb4654a2	-0.14249167371295807
103	0xbfc8e5c745477fd6	-0.194512280299931
104	0x3fccb751da6dd655	0.224344474463282
105	0xbfcf1f6f3dc571a5	-0.24314680591750207
106	0xbfd4605c4b74e716	-0.3183813797837599
107	0xbfe247192681d219	-0.5711789848415406
108	0x3fad561792b19e4e	0.05729745546051089
109	0xbfcb80f2131cffe9	-0.2148726075483858
110	0x3fea197a245e3c21	0.8156099996866751
111	0x3fa4f5007bd260bf	0.040931716074909634
112	0xbfd1d5ab5b4c2b57	-0.27866634288573294
113	0xbfba222c20346799	-0.10208392893073749
114	0x3fdc7884f599ea91	0.44485591873641633
115	0xbfd23bfa95cb7d95	-0.28491081837088333
116	0x3fcb1944594c139e	0.2117085872670516
117	0xbfd09d29e811eb4a	-0.2595925108250198
118	0xbfb0f16521d6499a	-0.0661833961114894
119	0x3ff29efc91fa09d3	1.163815088483365
120	0x3fc60b650af606ad	0.17222273860175133
121	0xbfd74d82a72a9c31	-0.3641058571324179
122	0xbfc80df4868ebc23	-0.18792587824052118
123	0x3fba56261c6919d0	0.10287702745072314
124	0x3fd9538c3dd05120	0.3957243541383537
125	0x3f8305c11c5f3837	0.009288319280951736
126	0x3fd9b112893e815b	0.4014326420092595
127	0x3fca52957eeeb68a	0.20564526269793176
128	0x3fa5e0b19d61848f	0.04272990270761411
129	0xbfb07a8085d30718	-0.06436923281856044
130	0x3f997731736e654c	0.024868748350489953
131	0xbfa54a9a4897af0c	-0.04158479820384117
132	0xbfaa9b499b94ee46	-0.0519659998339788
133	0x3fb89fefc0248025	0.09619043770771947
134	0x3f6a68f17c3ede9b	0.003223868990939694
135	0x3f8cbb70cf9cacde	0.014029389701667613
136	0xbf3cea6de1e1a81a	-0.00044121916460560103
137	0xbf21862068b70f18	-0.00013369699114040216
138	0x3fb5485232d6e1fd	0.0831347822303385
139	0xbfb1918d0ee8c767	-0.06862718214031603
140	0xbfb59880035aeed6	-0.08435821611322622
141	0xbfae1dd1f8c87f4e	-0.0588212600889607
142	0xbf903c83e3bd751d	-0.015855847144270564
143	0x3f9c2457c762dc5b	0.02748238710838922
144	0x3fb8b429ed3031ac	0.09649908104638055
145	0x3fb6d4b3f6bf087b	0.08918308996274675
146	0xbfa30adc0129b683	-0.03719222559162196
147	0xbfa01a2d1badce64	-0.03144970858457155
148	0xbfbb6ba17c9adfbc	-0.1071110657893532
149	0xbf93d4045b904a2d	-0.01936346825466211
150	0x3f9970efdf337d4c	0.024844882963291057
151	0x3fb189119e3f6c9f	0.06849775422544944
152	0xbf780261f63160cd	-0.005861647284369731
153	0x3f67bf494149ed2b	0.0028988295328510514
154	0x3fa03a475eb4d936	0.031694631872982645
155	0xbfb698d0b836ed63	-0.0882692765944078
156	0x3fac2813752f8dac	0.054993255667592805
157	0xbfb87dd6f06817f8	-0.09567016000082151
158	0xbfb46b39c51cc710	-0.07976113378824956
159	0xbfb04c95f7a390da	-0.06366860671875277
160	0x3fb85255851ac887	0.09500631808876579
161	0x3faac4320389f708	0.05227810185622955
162	0x3faa026d6b0cdb79	0.050799769704489024
163	0x3fb4db6b35cfb0c0	0.08147306503059593
164	0xbfa6c68f84cb41c3	-0.04448364730854195
165	0x3f6eec05b9ec2b77	0.0037746536103261913
166	0x3f99eb5038658df0	0.0253117117330372
167	0x3fa283f618af5361	0.036163034928597744
168	0xbf5ddcb1f53198d9	-0.001822637354757675
169	0x3f49ed8dfa944d96	0.0007912581687911531
170	0xbf8556b90864efc7	-0.010419316834138116
171	0x3fa9b37364ddac87	0.05019722563050615
172	0xbf90d8d4e753756f	-0.016452147120494084
173	0xbf92b15d070b1e40	-0.018254712633988257
174	0x3fa48dae129c61b7	0.040143432399591665
175	0x3fb88a3f41caef1b	0.09585948330180509
176	0x3f8f713e660e1221	0.015352714051695195
177	0xbf9aa2210e58f737	-0.026009098530486354
178	0x3fa9c013fdf39f9b	0.05029356455798891
179	0xbf7c7f91ffefd185	-0.006957598029647354
180	0xbfa065670f336ee2	-0.03202364025648109
181	0xbf5b4b3cf844b949	-0.0016658873947324618
182	0xbfa101caa7812b69	-0.03321679396375183
183	0x3fa64554fde317a1	0.04349771117408286
184	0x3fbc6454ef8455e5	0.11090594146329343
185	0xbf97e2e7f01cd1e2	-0.023326515226658524
186	0xbfaa053425dcdc3e	-0.050820951101222964
187	0x3faaa504628157a0	0.0520402307744654
188	0xbf99735e6a4c44fb	-0.02485415958205282
189	0x3f92d76ed43033dc	0.01839993639082481
190	0xbf935b3869adc1c7	-0.01890266556751088
191	0xbfb006793185cfc6	-0.06259877642679532
192	0xbfb1d06c3bc4a977	-0.06958652934250674
193	0x3faf20c984906850	0.06079702132429132
194	0xbf330c951a4a7499	-0.0002906669636020903
195	0x3f9c085874846f2c	0.02737558566251079
196	0xbf825008b10fb918	-0.008941715148435267
197	0x3fae4abff0750e25	0.059164045431796354
198	0xbfaa68390c3f1d9d	-0.05157640718931165
199	0x3fb0eff18e5efc48	0.06616124845366855
200	0xbf9d4127446cca95	-0.028568852950409413
201	0x3fb1d3e629a888a0	0.06963957325982273
202	0xbfa09dfbbf69c331	-0.03245531760774723
203	0x3fa4fa15e07de764	0.04097050061586918
204	0xbfb342060338044f	-0.0752261884554326
205	0x3f9c239458e37292	0.027479474950143308
206	0xbf831085d6c45ba0	-0.009308858505887418
207	0xbfaa342579d9aa11	-0.05117909538678956
208	0xbf9aa9391b680035	-0.026036159799332565
209	0x3fb22160215ac3a2	0.07082176985092173
210	0x3fb05b9415244b76	0.06389737621456767
211	0xbfb54653b58f77d9	-0.08310435469272139
212	0xbfa2a25d892f5d9b	-0.03639499950048305
213	0xbfb5e61d1db7892b	-0.085542506938087
214	0xbf7460d21d412196	-0.004975147971045498
215	0xbfa7a581e9c4e94d	-0.046184596811559155
216	0xbf96ffaedae1cb13	-0.022459728345391627
217	0x3fa42e4574cc5fe3	0.03941552210579837
218	0xbf491fa852407014	-0.0007667133218123312
219	0xbfa4f3a9b0e773a1	-0.04092150005792595
220	0x3fa1ce59e1a14f62	0.03477745894693275
221	0x3f917670be8f8a18	0.017053376799490122
222	0x3fbc395c124cc418	0.11025023886465168
223	0xbf924d5590b3fe1f	-0.017873131710983366
224	0x3fb582e37908982f	0.08402845101281352
225	0x3fa56edaa512b39c	0.04186137452175062
226	0x3fb73ac1854b204d	0.09074029449686911
227	0x3f997cb9c45b0580	0.02488985310515579
228	0x3f93ba5f4cbb5e20	0.019265641268104372
229	0xbf72df487be79249	-0.004607470646508968
230	0xbf9ae9d69baddd02	-0.02628264737310549
231	0xbf363bb2b320266a	-0.00033925164018509
232	0x3fb9f8159d41763c	0.10144171799898855
233	0x3f6ef3546cfe39b5	0.003778138059664838
234	0xbfbd1973aaf55bfa	-0.11366961406507406
235	0x3fb512bf8473bef8	0.08231732352919241
236	0x3fb327c86aa7d2b1	0.07482578853507495
237	0x3fb796863e406cc7	0.09214056987586892
238	0xbfa7b3cfcd414017	-0.0462937295966414
239	0x3f907cc28517dabb	0.016100921033251874
240	0xbfa8cae2f1aa6280	-0.0484229011537467
241	0x3fadaa028434ae04	0.05793769706573573
242	0xbfa7dba7345de762	-0.04659769548648175
243	0x3f5a2b3aeff9db35	0.001597220951138301
244	0x3fae45d712fc79a0	0.05912658793225778
245	0xbfb17ebe3e7c3dfc	-0.06834019685287979
246	0xbfb52cd6febc4165	-0.08271545142293275
247	0x3fb29fa4c33c3860	0.07274846807942614
248	0x3fa74fa36c66e95e	0.045529467566171475
249	0x3fa5a6ebb61f8a85	0.04228912923988041
250	0x3fa12eadba539078	0.03355925464146109
251	0xbf97b1a37b04d14e	-0.02313857496592791
252	0xbfb6f816459c6ce6	-0.08972300719726753
253	0xbfb3eeb32ca82969	-0.07786102142578034
254	0x3fb981ab6f3d294d	0.09963485208314644
255	0x3fa347b3a709d2e7	0.03765641607325226

layers.1.bias f8 [100]
0	0xbfc5c3aa3957e655	-0.1700337200161807
1	0xbfb6b773f3d7bf0e	-0.0887367697066532
2	0xbf9f86e17da0e0c4	-0.0307879670073994
3	0x3fb0a0de8ae91c8c	0.06495467082378265
4	0xbfa85562f797d04d	-0.0475264479863716
5	0xbfd59388b1b24c9b	-0.3371297583882524
6	0xbfaff35ec620f29e	-0.062403642354614805
7	0x3f5aeb6f9fe63bc6	0.0016430463871050945
8	0xbfb1c23caded85b5	-0.06937007185253814
9	0xbfa95b4708f14be2	-0.04952451690828476
10	0xbf86631c6cee1e21	-0.010931226801189688
11	0x3f9d70f8ca54609c	0.028751265858858774
12	0xbfb3deb41f011768	-0.07761693722667717
13	0x3fb1dbcf0389eb7e	0.06976026379008535
14	0x3faa1fa5b4db1500	0.05102269966804762
15	0xbfa72bb4de940828	-0.04525532929439208
16	0xbfb7b0763b274b6b	-0.0925363439958297
17	0xbfbd4de7d4ca9c13	-0.11446999497512449
18	0x3fc01db463e91baa	0.12590651396223268
19	0xbfa50c5ffb9e3c50	-0.04111003824720483
20	0xbfa33b0af4ad6308	-0.03755983578475336
21	0xbfb24d1a7cb2c99b	-0.07148900551218278
22	0xbf984fdd7206ef3a	-0.023742160877858277
23	0x3fc91e1ce6dff4e0	0.19623147271332808
24	0x3fd1c61e36b49472	0.2777171644432378
25	0x3fabff0d402e7f1e	0.05468026550738457
26	0xbfc873deb984ae9a	-0.19103607233534065
27	0x3f7df898e7bec3a7	0.007317158971930227
28	0xbfb2a3ed99e00455	-0.07281384474482995
29	0xbfb3b4a6b39cb567	-0.07697526822149357
30	0x3fb37121dfbc3fe1	0.07594501220978557
31	0x3f76435c12564be7	0.005435332922746539
32	0xbfaa25a4e0000000	-0.05106845125555992
33	0xbfa83afd72a92036	-0.047325058218632796
34	0xbf372f82f9ea7394	-0.0003537840620227381
35	0xbfa7ecf3c34d545c	-0.046729676809868365
36	0xbfab10122e3236ac	-0.05285698713224227
37	0xbfb53066faa38c86	-0.08276980990517488
38	0xbfb6c5f2c43f6285	-0.08895795146180248
39	0xbfac46c8b91d93ab	-0.05522753963194956
40	0xbfb179df0338ee59	-0.06826585606261783
41	0x3fad7b9cff5f615c	0.05758371941891724
42	0x3f958c6469bd61af	0.021043366388171666
43	0xbf7d9d155ed686cd	-0.007229884603846504
44	0x3fb29c0a6a63b1a3	0.07269349191091705
45	0xbfbec9dc918d9ad4	-0.12026766351264523
46	0x3fc18f422054887b	0.1371843965399114
47	0xbfba1764dc2f1b1c	-0.1019194638784992
48	0xbfb4886f4688a378	-0.08020682785048716
49	0xbf82528966719484	-0.008946488798935677
50	0xbf9bbcef8ca5c63b	-0.027087920150228078
51	0x3f8d0b87c05bf497	0.014182148511731092
52	0x3fcadc224a52b70b	0.20984295491273772
53	0xbfbb76e11c39b7d3	-0.10728270472620176
54	0x3f749f67609b3dcc	0.005034831827017649
55	0x3fabaff1ddf4ec72	0.05407672724182867
56	0xbfb540716d192526	-0.08301457322626912
57	0x3fe601b3ccd9792d	0.6877078057257556
58	0x3f97dba002c9a8ce	0.02329874054923025
59	0xbf79325c88cf8749	-0.006151544058384869
60	0x3fb55d7572fa04bd	0.0834573178963351
61	0x3f892303722a8a51	0.012273814126563172
62	0xbfb214314a80e4b3	-0.07062061375553945
63	0xbfa3fd0e40000000	-0.039040036499500275
64	0xbfce32249716fb1e	-0.23590524079733027
65	0x3fb1fe8377b63a21	0.07028981850292172
66	0xbfb8a5ad02be069b	-0.09627801243734739
67	0x3fa9e44e85fdc446	0.050569967132908775
68	0x3fb5bcd0cf328d11	0.08491234835178242
69	0xbfb58d6cafdcd231	-0.08418921750564647
70	0xbf78dbf320000000	-0.006069135386496782
71	0xbf917a64e6c31e3b	-0.01706845911465236
72	0x3f64356eaa4f8ead	0.0024668847495251307
73	0x3fd1734f5399348b	0.27266295589363015
74	0x3fb5ce3fe2ff3a58	0.08517836849134974
75	0xbf7213992faa606b	-0.0044132217250521895
76	0x3fb1c2ece7a6d226	0.0693805757098934
77	0x3fa51c4fc7998d8b	0.04123162566682045
78	0x3fa153930fccf499	0.03384074752691752
79	0x3fd344ea7a0d3d9e	0.3010812942420332
80	0xbfa7662cd13dbc0a	-0.04570140890324843
81	0x3fa364d803b26097	0.037878752185123314
82	0xbfab0c48e2fdaef8	-0.052828099926811534
83	0xbf7d9b58bb138290	-0.007228228191906397
84	0x3fa9b0b8f70dfb8b	0.05017641082576237
85	0x3f8d2f739cf684f2	0.014250663020734387
86	0xbfa7483784529ffd	-0.04547284593837728
87	0xbfa4f6b3a0000000	-0.04094468429684639
88	0x3fb07b48068c24ea	0.0643811241135556
89	0xbfc08ab6519532b2	-0.12923315986190215
90	0xbfa5c685a0000000	-0.042530227452516556
91	0xbfb5fbf781550e4d	-0.08587595851445791
92	0xbfbfc9bcbaae3797	-0.12417201573972957
93	0xbfba3f74c1cac913	-0.10253076297047796
94	0xbf9b89b70f4a8803	-0.026892528827950467
95	0xbf9d326dcc6ec2f4	-0.028512683489398463
96	0x3fb29cee16d69f55	0.07270706231667863
97	0xbfa8b101c0000000	-0.04822545498609543
98	0x3f3be73ba137cf22	0.0004257698612655116
99	0xbf90510a69d373ea	-0.015934145650010757

layers.3.weight f8 [100]
0	0x3ff62632be1e3685	1.3843257357106336
1	0x3fef8c3e135b687c	0.9858694437091482
2	0x3ff1f3175d4e47ec	1.1218484539754128
3	0x3fefa2ebe793ef39	0.9886378787045721
4	0x3fe13c65733f7fc8	0.5386225939691878
5	0x3ff695d2837b3677	1.411577714537456
6	0x3feefbc7ec0498a5	0.9682349786496799
7	0x3ff203b2a5dc4d8f	1.1259027937820496
8	0x3fe6afd6bd36edda	0.7089647002789505
9	0x3ff236e9372822bf	1.1384060053407408
10	0x3ff4953575df897e	1.286427936975627
11	0x3ff53ed2a3d97654	1.3278376007432557
12	0x3fe50cc2c2a1922f	0.6578077126874343
13	0x3feb198cf67dbfcf	0.8468689741403014
14	0x3feed6572e597a09	0.9636646180404692
15	0x3feed49da34bff7f	0.9634540738479557
16	0x3fefa98e4d69c9d8	0.9894477378823536
17	0x3feefbd40b6140ff	0.9682407591117509
18	0x3fdfb2e8c14cab40	0.49529475094702846
19	0x3ff6bd617ece205e	1.4212355569198034
20	0x3fe5698a66c11eb8	0.6691333777352702
21	0x3ff88da0eca6e04c	1.5345772976125032
22	0x3ff002a6c05fce01	1.0006473078364027
23	0x3ff7a4a2655dcf9a	1.4776939353587069
24	0x3ff226781f82bec4	1.1343919020545608
25	0x3fefb2b1a601a8c6	0.9905632250131695
26	0x3ff7a2a164f9150f	1.4772046989685952
27	0x3feed210f812f0aa	0.9631428570933356
28	0x3ff007fe05ee6bfc	1.0019512397473127
29	0x3ff01899319fce16	1.006005472035104
30	0x3fefe2cdccb766e8	0.9964360235564671
31	0x3ff988a4effa5bf2	1.5958604215754773
32	0x3ff0000000000000	1.0
33	0x3fef95dc1cfd5cc8	0.9870434347348231
34	0x3fea6046c211cefe	0.8242524900838075
35	0x3fefe75f0d8b69ed	0.9969935669462849
36	0x3fefafeae5bcd6eb	0.9902243125022471
37	0x3fe5eef093235918	0.6854174493589964
38	0x3feeca963ef186b3	0.9622298459400639
39	0x3ff30cf44a7e0e3b	1.1906626615390354
40	0x3feefc95c2217ff1	0.9683331290834741
41	0x3ff96dccd189f1c5	1.5893066582785746
42	0x3ff004a56ae990d3	1.0011343170418072
43	0x3ff093bfb131796d	1.0360714837657625
44	0x3fe1f2b250e438f2	0.5608760433113089
45	0x3fecf32cb7a70060	0.9046844088516188
46	0x3ff706ff85ce8a0a	1.4392085291698344
47	0x3feefc37d3805a8c	0.9682883387457237
48	0x3fef455cdacb7d55	0.9772171281182788
49	0x3ff1d042ae609949	1.1133448421110919
50	0x3ff09bda92c24afd	1.0380502445956943
51	0x3fe73a04dd458148	0.7258323976239263
52	0x3ff0ab7688a38a24	1.041861089463631
53	0x3fef372b224685aa	0.9754844350283538
54	0x3feed21981eacebb	0.963146928543629
55	0x3ff5c9470c604790	1.3616400226060001
56	0x3fed046fd1c84004	0.9067916009244077
57	0x3ff6b40b564b13bf	1.4189561243849622
58	0x3feefbddf564bd50	0.9682454865305008
59	0x3ff08c689401853a	1.0342794209939954
60	0x3fdf988a07500be8	0.49368525232438154
61	0x3ff0279498448042	1.0096631954147743
62	0x3fef16c144441a5a	0.9715277036019174
63	0x3ff0000000000000	1.0
64	0x3fed25b339686559	0.9108520623441719
65	0x3ff627db3ea88d4a	1.3847305724710446
66	0x3feefbd9709fb435	0.9682433318790858
67	0x3ff3a5d3fb7c3830	1.227985365261258
68	0x3ffb6eace6e6bd9a	1.7145203609069086
69	0x3febd88aa79e5013	0.8701833032414491
70	0x3ff0000000000000	1.0
71	0x3feefc9b73453cf8	0.9683358432174876
72	0x3ff56f3206403bd2	1.339647316377285
73	0x3ff079e64ef8fd06	1.0297606549136744
74	0x3fed78d7436da5c2	0.9210010830840292
75	0x3fee256696231ec8	0.9420655186049425
76	0x3ff471305de2165b	1.2776340167341889
77	0x3ff0803e2c25812e	1.0313092922661542
78	0x3feef608023e4519	0.9675331157506292
79	0x3ff6edc0c724a127	1.4330451754595488
80	0x3feddaafaa9a56cc	0.9329450924003253
81	0x3ffb72362e1baeec	1.7153837014292845
82	0x3fef9aa48b96b8cb	0.9876272894232668
83	0x3ff11a175f3686fe	1.0688699454553325
84	0x3ff009e6ede21546	1.0024174969015163
85	0x3ff0327e79e9eada	1.0123276483779393
86	0x3ff033b89c017b9b	1.0126272291160834
87	0x3ff0000000000000	1.0
88	0x3ff0198315c36de6	1.006228528035416
89	0x3ff22bdb89e13fd3	1.1357074151928728
90	0x3ff0000000000000	1.0
91	0x3ff00fb5edd279a4	1.003835610382887
92	0x3ff058a0d198a395	1.021637743697487
93	0x3feaa38941aec0a6	0.8324629099716006
94	0x3feed061ed5efcb0	0.9629373203423679
95	0x3fefcecd8ba9621b	0.9939944961325325
96	0x3ff0253e0a89df85	1.0090923701918382
97	0x3ff0000000000000	1.0
98	0x3ff9200768b87851	1.5703195658347975
99	0x3ffbb3840f6639f8	1.7313271142517106

layers.3.bias f8 [100]
0	0x3f9cc38059d83898	0.028089528545074488
1	0xbfa7ef419de76b44	-0.04674725582636666
2	0xbf8ca48a166cfad7	-0.01398570900857747
3	0xbf7ad3de2647c3ac	-0.006549709102260087
4	0xbf87af8ed975722f	-0.011565319072070228
5	0xbf9af12195984265	-0.026310467486896267
6	0xbf859a9b4f742a50	-0.010548795091854718
7	0x3fa50885d46c6820	0.04108064859447347
8	0x3f84abd48eb9a0cf	0.010093365293144889
9	0xbfab65ea8b6508de	-0.05351193381876994
10	0xbfca1c765760f066	-0.2039935995725301
11	0xbf6371311fa1121b	-0.002373310036121857
12	0xbf819dcb7f8cef43	-0.008601751165421617
13	0xbf8f11c04de11d64	-0.015170576454819958
14	0x3f672df4d97294a1	0.0028295309271749313
15	0x3f929218e51f81de	0.01813544176536818
16	0x3f947e8e8d8c44cf	0.020014026059531894
17	0x3fa681a4b5ca19bc	0.04395785063848076
18	0x3f5bcec86055729e	0.0016972500610200956
19	0xbfcfe132ff6917fe	-0.24906003447739516
20	0x3f937b80d1f9a359	0.019025814834466945
21	0x3fa6fb1d0540f3a1	0.044884592906306205
22	0x3f95e4364c378bc8	0.0213783725756789
23	0xbfc44f9f4767b51a	-0.15867987619950769
24	0x3f02ee6d318c7f88	3.6108691523261424e-05
25	0xbf9ca765333724c5	-0.02798231244176887
26	0xbfcfd09b417d3205	-0.24855366418559313
27	0x3f95b2d426c4d0a5	0.021189989916096014
28	0xbf86867b6d19d0d1	-0.01099869181346272
29	0xbfa77e1a8cf93701	-0.04588396998279443
30	0xbfa0a4d65f627561	-0.03250760950434529
31	0x3f81193bdda06c1a	0.008348911000259963
32	0xbf84fc1fe1eb5628	-0.010246514398583775
33	0x3f942e2b6ea5250d	0.01970737326454235
34	0x3faaca14b74a8c8a	0.0523230050796651
35	0x3f9a9399a408891b	0.025953674923706687
36	0x3f960e8f463f7501	0.021539915716734196
37	0x3f8150ec4b9b41d4	0.008455129678083852
38	0x3f9adc6e34582f8d	0.026231500573018308
39	0x3fa438945506f2ff	0.039494166735925866
40	0x3f9114e6ceebe7b1	0.01668129575680383
41	0xbf566d2ccc05951c	-0.0013688027830423615
42	0x3f7ec564092ef24f	0.007512465252997715
43	0xbf964d03db3049ed	-0.021778164151394042
44	0xbfaf920b8affb8bc	-0.061661110608711905
45	0x3f918d576d4c2cd5	0.017140737577432247
46	0x3fc8f14ae0d66f9d	0.1948636625137369
47	0xbf948ae9ef8e760a	-0.020061164137237276
48	0x3f8c586c27fdf81e	0.013840527506314312
49	0xbf9282f42dc98e46	-0.018077674193035763
50	0xbfa01d86f20ea75e	-0.03147527413177785
51	0xbf94a14af04e4eba	-0.02014653293333766
52	0xbf9492fe81cd851e	-0.02009198825124258
53	0xbf726f1d84190e26	-0.004500499054816786
54	0xbf100f292de45c36	-6.126107061664516e-05
55	0x3f9be6169574d12a	0.027244904396142612
56	0xbf7338d52d4371da	-0.004692871782222297
57	0xbfdc771a90b0fff8	-0.4447695172311792
58	0xbf533e5ffd78d6f3	-0.0011745393184247582
59	0xbf889958ec4ff21e	-0.012011236869505611
60	0x3f90dea2edbb0d9c	0.016474290618828755
61	0x3f9061efee6872f6	0.01599860088946322
62	0x3f87b502a1da95d1	0.011575718464267222
63	0x3fa901545066c700	0.04883826714957529
64	0xbf97d918749482da	-0.023289091220365467
65	0xbf67a56db17631aa	-0.002886499638128555
66	0xbf91d05514b13ec9	-0.0173962873344056
67	0xbfac6ca602bb7e8c	-0.05551642211298455
68	0x3fdc30565c6b60a3	0.4404502775701166
69	0x3f9302c049247a7c	0.018565182174933956
70	0x3fa4ec1f7a121996	0.040863975192269184
71	0xbfaabcaaa453fd5c	-0.052220661696987775
72	0x3f9f188710eddf84	0.030367002876544827
73	0xbfafe7fb2f12631e	-0.06231675099951971
74	0xbf9bc57342ffd88a	-0.02712040039474365
75	0xbf7b84d52257eb1b	-0.0067184758713618965
76	0x3fd2b144344cdc22	0.29206948382801745
77	0xbf900ea3d004564f	-0.01568084675917297
78	0x3fa528a467050808	0.04132570035518773
79	0xbfbb047447dcb42a	-0.10553671602674855
80	0x3f7e601f49963ab7	0.007415888039203614
81	0x3fdf6e2e712c7642	0.4910999398433412
82	0xbf8ba1ccfe9f8554	-0.013492204208832938
83	0xbf954b9850487f71	-0.020796184444520308
84	0xbf88f8b52fd25b2f	-0.012193122407820304
85	0xbf975173d8145822	-0.022771654189533426
86	0xbf9149a0460e49c7	-0.016882423663966663
87	0xbf8dedf792b92031	-0.01461404243958961
88	0xbf9bbe605efa7379	-0.027093416020409464
89	0x3fc31488906e6668	0.14906413128192075
90	0xbf95ff1157f290ca	-0.021480818741694198
91	0xbf96e89fe501cb1f	-0.022371767380216952
92	0xbfa034a423c5619e	-0.03165162026079148
93	0x3f820d1f534ecd0e	0.008814091424801631
94	0x3f7fe9f3654c177d	0.007791472210333936
95	0x3f94bdb862eae12c	0.020254975354618995
96	0x3f911d9b70baba83	0.016714504962403353
97	0x3f7902d9354551d7	0.006106232136819454
98	0xbfd1b332b6d262cc	-0.2765623841637932
99	0xbfb5674d35682736	-0.08360750726583607

layers.3.running_mean f8 [100]
0	0x0000000000000005	2.5e-323
1	0x0000000000000005	2.5e-323
2	0x0000000000000005	2.5e-323
3	0x0000000000000005	2.5e-323
4	0x0000000000000005	2.5e-323
5	0x0000000000000005	2.5e-323
6	0x0000000000000005	2.5e-323
7	0x0000000000000005	2.5e-323
8	0x0000000000000005	2.5e-323
9	0x0000000000000005	2.5e-323
10	0x4054eb77717cfadd	83.67916524128982
11	0x0000000000000005	2.5e-323
12	0x0000000000000005	2.5e-323
13	0x0000000000000005	2.5e-323
14	0x0000000000000005	2.5e-323
15	0x0000000000000005	2.5e-323
16	0x0000000000000005	2.5e-323
17	0x0000000000000005	2.5e-323
18	0x0000000000000005	2.5e-323
19	0x4051c00571e5d8a5	71.0003323311417
20	0x0000000000000005	2.5e-323
21	0x405ec6babd1ee5d9	123.10514762894981
22	0x0000000000000005	2.5e-323
23	0x404b7dd52c2eaaee	54.983068011080704
24	0x40509fbba90d16bf	66.49582887914856
25	0x0000000000000005	2.5e-323
26	0x403b4683c819170b	27.275448328137866
27	0x0000000000000005	2.5e-323
28	0x0000000000000005	2.5e-323
29	0x0000000000000005	2.5e-323
30	0x0000000000000005	2.5e-323
31	0x40585b4af31b39dc	97.42644956263342
32	0x0000000000000000	0.0
33	0x0000000000000005	2.5e-323
34	0x0000000000000005	2.5e-323
35	0x0000000000000005	2.5e-323
36	0x0000000000000005	2.5e-323
37	0x0000000000000005	2.5e-323
38	0x0000000000000005	2.5e-323
39	0x0000000000000005	2.5e-323
40	0x0000000000000005	2.5e-323
41	0x406a27547084aca4	209.229057559137
42	0x0000000000000005	2.5e-323
43	0x0000000000000005	2.5e-323
44	0x0000000000000005	2.5e-323
45	0x0000000000000005	2.5e-323
46	0x40623096258d47af	145.5183284530044
47	0x0000000000000005	2.5e-323
48	0x0000000000000005	2.5e-323
49	0x0000000000000005	2.5e-323
50	0x0000000000000005	2.5e-323
51	0x0000000000000005	2.5e-323
52	0x0000000000000005	2.5e-323
53	0x0000000000000005	2.5e-323
54	0x0000000000000005	2.5e-323
55	0x40458d0e73322050	43.10200347850389
56	0x0000000000000005	2.5e-323
57	0x404136e9fb2e2fb3	34.429015538741986
58	0x0000000000000005	2.5e-323
59	0x0000000000000005	2.5e-323
60	0x0000000000000005	2.5e-323
61	0x0000000000000005	2.5e-323
62	0x0000000000000005	2.5e-323
63	0x0000000000000000	0.0
64	0x0000000000000005	2.5e-323
65	0x0000000000000005	2.5e-323
66	0x0000000000000005	2.5e-323
67	0x0000000000000005	2.5e-323
68	0x404ef2396f401b8d	61.8923777640367
69	0x0000000000000005	2.5e-323
70	0x0000000000000000	0.0
71	0x0000000000000005	2.5e-323
72	0x4060438a7f617144	130.1106564429448
73	0x0000000000000005	2.5e-323
74	0x0000000000000005	2.5e-323
75	0x0000000000000005	2.5e-323
76	0x4058026cece173c4	96.0378982736284
77	0x0000000000000005	2.5e-323
78	0x0000000000000005	2.5e-323
79	0x40547dd7ccbd02da	81.96629637201423
80	0x0000000000000005	2.5e-323
81	0x40600ce5f1d78864	128.4030694207787
82	0x0000000000000005	2.5e-323
83	0x0000000000000005	2.5e-323
84	0x0000000000000005	2.5e-323
85	0x0000000000000005	2.5e-323
86	0x0000000000000005	2.5e-323
87	0x0000000000000000	0.0
88	0x0000000000000005	2.5e-323
89	0x4052a9667133d642	74.64687757551386
90	0x0000000000000000	0.0
91	0x0000000000000005	2.5e-323
92	0x0000000000000005	2.5e-323
93	0x0000000000000005	2.5e-323
94	0x0000000000000005	2.5e-323
95	0x0000000000000005	2.5e-323
96	0x0000000000000005	2.5e-323
97	0x0000000000000000	0.0
98	0x40538e611bca5dff	78.224677035927
99	0x405804cf649f4594	96.07515826753507

layers.3.running_var f8 [100]
0	0x0000000000000005	2.5e-323
1	0x0000000000000005	2.5e-323
2	0x0000000000000005	2.5e-323
3	0x0000000000000005	2.5e-323
4	0x0000000000000005	2.5e-323
5	0x0000000000000005	2.5e-323
6	0x0000000000000005	2.5e-323
7	0x0000000000000005	2.5e-323
8	0x0000000000000005	2.5e-323
9	0x0000000000000005	2.5e-323
10	0x40429348bfd9d6f0	37.15065763603877
11	0x0000000000000005	2.5e-323
12	0x0000000000000005	2.5e-323
13	0x0000000000000005	2.5e-323
14	0x0000000000000005	2.5e-323
15	0x0000000000000005	2.5e-323
16	0x0000000000000005	2.5e-323
17	0x0000000000000005	2.5e-323
18	0x0000000000000005	2.5e-323
19	0x404a92895dee5c82	53.14481710566271
20	0x0000000000000005	2.5e-323
21	0x404a38702ed86c04	52.44092355315664
22	0x0000000000000005	2.5e-323
23	0x4048811f0e62646e	49.008760259669415
24	0x404096ab7b833196	33.177108229693815
25	0x0000000000000005	2.5e-323
26	0x404945e21579c4aa	50.545962032754076
27	0x0000000000000005	2.5e-323
28	0x0000000000000005	2.5e-323
29	0x0000000000000005	2.5e-323
30	0x0000000000000005	2.5e-323
31	0x40466351e23332e2	44.775936388968844
32	0x0000000000000005	2.5e-323
33	0x0000000000000005	2.5e-323
34	0x0000000000000005	2.5e-323
35	0x0000000000000005	2.5e-323
36	0x0000000000000005	2.5e-323
37	0x0000000000000005	2.5e-323
38	0x0000000000000005	2.5e-323
39	0x0000000000000005	2.5e-323
40	0x0000000000000005	2.5e-323
41	0x405108709b23e725	68.13187292581695
42	0x0000000000000005	2.5e-323
43	0x0000000000000005	2.5e-323
44	0x0000000000000005	2.5e-323
45	0x0000000000000005	2.5e-323
46	0x403a096d2311056a	26.036821548133425
47	0x0000000000000005	2.5e-323
48	0x0000000000000005	2.5e-323
49	0x0000000000000005	2.5e-323
50	0x0000000000000005	2.5e-323
51	0x0000000000000005	2.5e-323
52	0x0000000000000005	2.5e-323
53	0x0000000000000005	2.5e-323
54	0x0000000000000005	2.5e-323
55	0x4048d325dea20df3	49.64959319031541
56	0x0000000000000005	2.5e-323
57	0x40480a09e4e4959c	48.078426944364054
58	0x0000000000000005	2.5e-323
59	0x0000000000000005	2.5e-323
60	0x0000000000000005	2.5e-323
61	0x0000000000000005	2.5e-323
62	0x0000000000000005	2.5e-323
63	0x0000000000000005	2.5e-323
64	0x0000000000000005	2.5e-323
65	0x0000000000000005	2.5e-323
66	0x0000000000000005	2.5e-323
67	0x0000000000000005	2.5e-323
68	0x40538a8436805565	78.16431963474822
69	0x0000000000000005	2.5e-323
70	0x0000000000000005	2.5e-323
71	0x0000000000000005	2.5e-323
72	0x4045b4e68c0e9c94	43.41328573907336
73	0x0000000000000005	2.5e-323
74	0x0000000000000005	2.5e-323
75	0x0000000000000005	2.5e-323
76	0x4042d8a265d22e88	37.692455985668005
77	0x0000000000000005	2.5e-323
78	0x0000000000000005	2.5e-323
79	0x40475d0e5f72d02b	46.7270011244403
80	0x0000000000000005	2.5e-323
81	0x404ca15fa4bcf31b	57.26073130823189
82	0x0000000000000005	2.5e-323
83	0x0000000000000005	2.5e-323
84	0x0000000000000005	2.5e-323
85	0x0000000000000005	2.5e-323
86	0x0000000000000005	2.5e-323
87	0x0000000000000005	2.5e-323
88	0x0000000000000005	2.5e-323
89	0x40418b5ef9259a86	35.08883585296739
90	0x0000000000000005	2.5e-323
91	0x0000000000000005	2.5e-323
92	0x0000000000000005	2.5e-323
93	0x0000000000000005	2.5e-323
94	0x0000000000000005	2.5e-323
95	0x0000000000000005	2.5e-323
96	0x0000000000000005	2.5e-323
97	0x0000000000000005	2.5e-323
98	0x4054df5cadab77f2	83.4900316404817
99	0x4048286c29920ca8	48.31580085402794
