model_policy_epoch-160.pt (torch, 373906 bytes, 28 tensors)

layers.0.weight f8 [128, 128]
000000 95 5b 7d b3 c4 c6 f2 bf bb 6a ed ce 8a 88 c3 bf
       -1.1735274325671743 -0.15260443786504205
000010 af af 88 30 63 c0 88 3f 34 78 b0 da ea a6 d6 bf
       0.012085699957502387 -0.3539378295553235
000020 b1 f8 26 ba 59 8c d2 bf 75 99 e5 35 3f e1 d7 bf
       -0.28981631449631623 -0.37312298072210776
000030 8f 94 85 e5 d8 3e ca bf a4 06 a5 05 be 37 ef bf
       -0.20504294592970893 -0.9755544767615061
000040 77 81 bd 79 6d ad f4 bf 0c 8e 9a 48 90 8b f7 bf
       -1.2923407321432856 -1.4715731464465334
000050 0c 23 56 9a b2 76 94 bf 69 c8 5a ea 6f a5 f0 bf
       -0.0199840456676013 -1.0403899340131153
000060 f3 b4 c5 80 db b7 de bf 18 ea 9b f5 82 ee da bf
       -0.47997176719111606 -0.42080759034402737
000070 ad be cd d7 cf 99 e0 bf 29 f8 b2 a5 75 b5 c4 3f
       -0.5187758650699458 0.16178770628715824
000080 92 ae a1 26 9f 29 d1 3f 61 bc 8c cf 40 e1 df bf
       0.26816538593878037 -0.4981233622410795
000090 a9 ea d1 c8 f4 3b ee bf 4b a0 5a 9b 7f 32 c2 3f
       -0.944818870760476 0.14216609082837048
0000a0 39 f0 c0 bf e3 a0 cf bf a3 a4 da 69 7f 1d dc bf
       -0.24709746230098675 -0.43930039727508524
0000b0 00 32 b8 37 5d 92 dd bf 57 7a 54 9f e0 08 df 3f
       -0.4620583576331967 0.4849168353993369
0000c0 2e e6 08 7e b1 81 eb bf aa fe 04 a0 b8 3a 01 c0
       -0.8595817052475405 -2.1536724568867003
0000d0 7d f3 d7 a0 9a 5d ee bf d0 06 70 a3 42 cb ea bf
       -0.9489262715793384 -0.8373120491162016
0000e0 19 ed bc ad 41 fa 02 c0 3d bc 2d 33 cc fb da bf
       -2.372195584610051 -0.4216185092727221
0000f0 6e 27 d1 b2 9d 6c f6 bf 18 4e 3f dc 6c c2 f1 bf
       -1.4015175805129405 -1.1099670985612473
000100 8d ae f5 f5 e4 23 f5 bf 88 73 6f e0 d7 dd d1 bf
       -1.321263275890405 -0.279165238547471
000110 26 c7 46 f4 24 72 ce bf 39 94 e9 3a 5c 10 f6 bf
       -0.23785840919077222 -1.3789942075029684
000120 ed 16 2a 34 17 c3 c0 bf ce 14 ae 62 0f 22 d7 bf
       -0.13095369383898206 -0.3614538634941028
000130 ff 21 e9 71 42 e6 da bf b3 b4 78 9a 35 43 ea 3f
       -0.4203039276513038 0.8207042710324884
000140 b4 d0 05 61 6c 18 ce 3f 82 86 09 4c 8e 24 f9 bf
       0.23512034165799423 -1.5714247675136055
000150 f6 df 4d d8 c0 ee f6 bf f5 98 e7 f9 b8 5e d7 bf
       -1.4332893800146826 -0.3651564064479225
000160 d4 d2 09 fe 5d ee e2 3f 17 a0 01 44 3a 3a f3 bf
       0.5915975534140565 -1.2017157227037438
000170 40 e6 77 d4 ac d4 f8 bf 2c bf 3e c1 3a 24 d9 bf
       -1.5519226359887313 -0.3928362738761162
000180 46 e0 70 1f 14 46 e7 bf 02 e9 23 49 46 e3 ec bf
       -0.7273045171814452 -0.9027434757729511
000190 55 24 8c 5b 2c 0e 04 c0 3a 0b 9e ca 30 24 f3 bf
       -2.506920542921345 -1.1963355936756686
0001a0 3b 56 87 62 54 6b da bf b0 8c 98 1c 72 cd dc bf
       -0.4128008806413594 -0.45003941338127174
0001b0 22 74 bf 35 e8 e4 ed bf c2 4d 1b 9a 07 13 f2 bf
       -0.9341927575839046 -1.1296459216872425
0001c0 a4 cb bb 03 cd 61 f2 bf 8e 6e e0 1f 6f d6 e9 bf
       -1.148877157768518 -0.8074260351745168
0001d0 79 e0 b9 fd 74 47 fa bf bd 93 9e d9 56 a8 fd bf
       -1.6424455557990127 -1.8535984516868063
0001e0 ee e4 01 5e 22 46 ef bf 65 90 32 bd 1b 23 d4 bf
       -0.9773113094408055 -0.31464284397430325
0001f0 43 5c fb c6 83 e9 fc bf f5 77 9c a3 fd 36 c0 bf
       -1.8070104382257035 -0.12667818535641087
000200 08 88 0b 2e d2 e7 f5 3f 05 f0 a2 7e 12 cb e5 3f
       1.3690969275126026 0.6810390923851634
000210 ae 5f b6 8f 66 99 e0 3f 68 fe b1 3b 20 fb ef 3f
       0.5187256628878367 0.9994050184177015
000220 6a 0b b1 7f 9c e7 e6 3f 55 ed 60 1e e0 fe e6 3f
       0.7157728666282825 0.7186127274830293
000230 31 32 68 2a 3a b8 e8 3f c7 19 4c 08 91 a4 de 3f
       0.7724886730443982 0.47879434404640303
000240 ab 95 c7 79 31 25 e7 bf a9 4c 60 f4 f1 70 ec 3f
       -0.7232901934154844 0.8887872479412141
000250 ed 38 d1 e4 a5 e8 f0 3f c2 b9 da 6b 14 0c fe 3f
       1.0567988336729812 1.8779491627752667
000260 08 3c c3 47 db 20 fc 3f 12 34 58 2c 37 ee e0 bf
       1.75802162201194 -0.5290790430168519
000270 c7 f9 32 5d 13 b9 fb 3f 7c 4a e1 f8 f2 3a f4 3f
       1.7326844826308034 1.2643918725849792
000280 52 6e 15 df 31 06 d2 3f 0e a4 88 b9 41 e7 f3 3f
       0.2816281012107754 1.2439591643726575
000290 99 f7 75 58 9f fd fc 3f 18 77 8e 70 c0 ac ea 3f
       1.8119195418835032 0.8335878561372025
0002a0 f9 d4 ea 72 aa dd e1 3f f9 5f 11 0e 6d fe e2 3f
       0.5583088154295687 0.5935578608286952
0002b0 6a 7f bd 30 18 6b e2 3f c2 0d 9a 27 11 ae de bf
       0.5755730583150414 -0.4793742071853694
0002c0 39 51 18 b5 b9 19 e5 3f 60 0d 83 d9 0d 77 e0 3f
       0.6593903100024711 0.5145329712180846
0002d0 a6 57 46 3d 00 03 f6 3f 3e 6d 6c c8 ee e6 cb bf
       1.3757326501413245 -0.21798500810914762
0002e0 9c 10 e2 99 50 48 ee 3f 08 92 70 0d 8c 47 ba 3f
       0.9463274961022026 0.10265422180288664
0002f0 2e 29 c7 5c 49 2f f8 3f bd 58 df a3 2f c3 bd 3f
       1.511544573224977 0.11625955344001944
000300 21 16 fa 77 32 78 01 40 89 7a 3e 24 00 54 e1 bf
       2.183690011329205 -0.5415039737598174
000310 e5 e0 10 90 34 3e be 3f 0f b1 d3 43 ad 90 f2 3f
       0.11813667790636691 1.160321488331707
000320 27 1d 30 11 a7 ff e6 3f bf 14 87 00 48 bf e1 3f
       0.718707593507962 0.5545997629457345
000330 8d 56 15 c0 83 54 e0 3f c1 67 78 1f 21 6e f9 bf
       0.5103167297008483 -1.5893870572385682
000340 60 86 f8 1f 61 8e c1 bf 2a f4 3a 33 5f d7 fa 3f
       -0.1371575742824005 1.677581024282754
000350 41 62 cd 1d ed f1 02 40 f4 c8 3b 36 3e 49 dd 3f
       2.3681280449202693 0.4575953988670698
000360 1a 81 5a b7 aa 39 ba 3f dc 26 8b 19 7c fb f5 3f
       0.10244242645649529 1.373897647647417
000370 5e 1c 0b 88 04 fa cf 3f cc 65 ed 08 cc 5c e3 bf
       0.24981743471855372 -0.6050777601587298
000380 9a a4 ad f7 c0 1d e4 3f b0 de 09 bb 8e f4 f1 3f
       0.6286320531336458 1.122206431025841
000390 94 31 cc 4a 53 fd b2 bf 6e fe 0c 14 4a 2f d4 bf
       -0.07417793823350954 -0.3153863139923264
0003a0 17 33 56 14 24 07 e4 bf bd c0 b0 b5 60 91 db 3f
       -0.6258716962052827 0.430748155052253
0003b0 6a cf ec 25 3a c4 ea 3f 78 bc 2d 19 a2 85 f7 3f
       0.8364535084460674 1.4701252921620647
0003c0 be ee cd 64 c8 74 04 40 6e d7 0c da 34 3c f0 3f
       2.5570228457780493 1.014698840864607
0003d0 92 6b 51 1b 9f 20 e6 3f b9 d1 2c 29 4e 4b 04 40
       0.6914821179919832 2.536770173721575
0003e0 d7 a3 74 d9 c6 6f fb 3f 29 48 cc ff 1a 44 ea bf
       1.7147892469749786 -0.8208136554769726
0003f0 84 19 e3 d3 2c d3 e8 3f dc 8f 7d 06 1b 3a f3 bf
       0.775778211442955 -1.2016859296354516
000400 8b 86 d3 59 15 4d f7 bf ad 20 c0 9f 75 1a e3 bf
       -1.456319189914583 -0.5969799156310011
000410 c2 31 80 95 f0 d3 cd bf 06 41 61 40 92 5e e4 bf
       -0.2330303888305832 -0.6365443475170032
000420 7a b0 ce ae 05 55 d6 bf 22 63 ca a3 b7 1d e6 bf
       -0.348939343176205 -0.6911276053461715
000430 c1 d3 16 4c f0 4a dd bf 56 21 c2 f5 83 02 e3 bf
       -0.4576988928850448 -0.5940570640532694
000440 78 7e c1 c3 ea 0b f2 bf 63 d5 6e 45 be 98 02 c0
       -1.1279094359123558 -2.324581663555976
000450 a5 95 35 38 0a b8 f2 bf ef dc 53 b6 f3 fc e4 bf
       -1.1699316211391786 -0.6558779297910443
000460 f9 46 6e 9e fb d0 ed bf 92 51 d1 35 5a 51 db bf
       -0.9317606062270151 -0.42684035544996235
000470 f3 f2 b1 4a 27 0e f0 bf 76 1b 96 e5 e3 8a c1 bf
       -1.003455440309321 -0.13705109319945635
000480 78 55 6b e5 f9 96 d9 bf de 38 a9 e3 5d 8e e7 bf
       -0.3998398533270442 -0.7361287542824149
000490 f2 69 73 c6 6f e9 ee bf 4f 78 29 de 0f 5f ad bf
       -0.9659956813805464 -0.05736589037836436
0004a0 29 dc 6e ba 15 71 e1 bf 4b 83 7f 59 68 a1 e0 bf
       -0.5450543061514327 -0.5197030780801496
0004b0 17 0e e5 df 98 77 d0 bf 71 3e 6d a5 0e 3c e7 bf
       -0.25729963173600495 -0.7260812026015185
0004c0 1a 88 f8 a2 62 70 ec bf f1 cf c5 25 81 cf 00 c0
       -0.8887189085983238 -2.1013205481522097
0004d0 f4 4c 70 54 76 9c ef bf 70 55 3e 21 09 98 d7 bf
       -0.9878493928139549 -0.3686545204776257
0004e0 5c f1 ac 19 4f c5 fc bf 4c 00 60 38 11 34 c8 bf
       -1.7981711390449027 -0.18908896687207954
0004f0 ca a5 e7 32 19 38 f7 bf a0 c3 a5 0c 38 23 e8 bf
       -1.4511959064933415 -0.7542991873761942
000500 7b 66 35 72 07 c3 f7 bf e1 aa fe a9 fa 23 f3 bf
       -1.4851145230553857 -1.1962839737340618
000510 c4 90 b2 ca 14 09 e1 bf 49 c8 50 62 42 2a f6 bf
       -0.5323585471092191 -1.3853172150088702
000520 c6 e4 a7 ce 5a 4f e7 bf e9 29 2a fd de 19 e2 bf
       -0.7284368549582261 -0.5656580872176252
000530 fa 50 76 6e 6f af e2 bf bb 64 4a ee 07 17 cb bf
       -0.5839154393638915 -0.21164034972460918
000540 aa ad 2b 95 48 da de bf a9 54 78 66 b7 60 fa bf
       -0.48207296912615993 -1.648612404130555
000550 62 b3 60 7a be e3 ed bf 65 88 eb 95 7d a8 ce bf
       -0.9340507879438571 -0.2395169240981573
000560 5f ad b4 ab b1 a0 bd 3f 12 79 6b 1f aa 0c e2 bf
       0.1157332462504903 -0.5640459645908626
000570 57 82 01 2c 7c c6 c4 bf 9b 1b 1b 7c 68 bd ed bf
       -0.16230728291249605 -0.9293711112921871
000580 77 1a 7f f9 6d 8e 90 bf 13 89 76 ea 5f 8c f3 bf
       -0.01616832576089641 -1.2217711600029062
000590 2e 43 93 dd 6e 5e 05 c0 f5 09 89 80 a9 f5 f7 bf
       -2.671109896713822 -1.4974761029158092
0005a0 4f 44 59 47 52 41 e1 bf 7a fe 8a 9a 0e 04 e3 bf
       -0.5392238038567799 -0.5942452448288826
0005b0 e1 7c 87 c6 77 8c e2 bf 25 95 1d 1e 8f 46 f2 bf
       -0.5796469571613693 -1.1422263313664385
0005c0 e0 d9 29 aa 4a 92 cd bf d4 d9 35 08 f0 6d d4 bf
       -0.23102696713222226 -0.3192100601367234
0005d0 88 13 09 72 30 9b f2 bf ba bf a3 a4 4c 2e 00 c0
       -1.162887998057359 -2.022607122657033
0005e0 ba 1e fb 5a e8 40 eb bf b3 44 00 ae 4f 6d d2 bf
       -0.8516732956859052 -0.2879218291501033
0005f0 54 08 84 78 d9 47 00 c0 75 8e 80 7c 4a cb c3 3f
       -2.0350827613156444 0.15464144782264425
000600 8b 0d 6d f7 91 73 e8 3f 9b 5c d7 01 f3 b7 e7 3f
       0.7641076881922556 0.7412047420465514
000610 2e 05 4c 62 ad ed e0 3f a9 bc c2 4b a8 36 ee 3f
       0.5290133399832138 0.9441720466328621
000620 4c 6c 38 ff 2e 0b e2 3f f9 ad d5 7d d4 be f0 3f
       0.563865183331822 1.0465893664758126
000630 67 96 bf 41 76 30 d0 3f 71 47 3f 06 f0 84 da 3f
       0.25295788212529263 0.41436386690212773
000640 e4 3a 4e 16 8f e3 d9 bf 1f 3a d7 94 68 cc f1 3f
       -0.4045140950992574 1.112404424103836
000650 d6 25 9f 4b 44 98 f7 3f f3 93 a6 eb 4e 8a fe 3f
       1.4746745065661933 1.9087666707139277
000660 70 c9 0a 0e 10 c1 f4 3f ea e8 bc 13 af 09 ab 3f
       1.2971344517250962 0.05280825725499645
000670 98 8f 16 90 05 aa f4 3f 4c 93 68 2b 8e e4 f0 3f
       1.2915092113916895 1.0557996459621846
000680 80 b0 c1 fe b4 6d e7 3f 7c 68 ed 56 51 b7 ec 3f
       0.7321419692721207 0.8973776529121689
000690 f1 6b 14 83 c2 3b f5 3f c7 df 42 7e 13 12 e6 3f
       1.327089798002586 0.689706560710868
0006a0 38 44 02 4f 33 94 e2 3f d6 14 2e c9 ad ce e4 3f
       0.580590872110526 0.6502293519303304
0006b0 e9 9f c7 79 5d a2 e5 3f 6b b3 1f 13 28 bb be bf
       0.6760699633132364 -0.1200432821930925
0006c0 b9 4a 54 b9 fe ec f3 3f 9c d5 91 6a 69 cc e8 3f
       1.2453601111816808 0.7749526101530821
0006d0 af 12 03 a9 5e 2e f2 3f a9 70 18 7a 7a 84 e2 bf
       1.1363207437545204 -0.578671682803834
0006e0 23 e3 ae 80 ef 24 e0 3f a7 d1 e7 a8 0f 44 a4 3f
       0.5045087350218619 0.03958176552615394
0006f0 b9 c2 47 fd fc 29 fd 3f d8 2e 9c a6 af 07 d1 bf
       1.8227510350954346 -0.26609412451283054
000700 10 c4 ce 1e b7 66 01 40 7b df 48 40 ff 20 c8 3f
       2.1751539618349014 0.188506990803713
000710 58 47 13 5f ed a9 bb 3f 9f cd bb 55 77 73 dd 3f
       0.10806163378881928 0.460172494625306
000720 52 39 17 c2 6d 2a cf 3f 5f a5 d8 64 f4 c1 d9 3f
       0.24348232247434481 0.40246305320996173
000730 7f fa c1 84 2f e1 e5 3f 44 fc 31 5e 4d 3e e2 bf
       0.6837384789394746 -0.5701052512885174
000740 dd ad b1 91 03 f0 c6 3f dc 9a c7 57 87 8b f3 3f
       0.1791996442219518 1.2215646199126047
000750 a7 ea 2f 1e 12 6b 00 40 30 34 4e 3f 3c 5d f2 3f
       2.0522806509373654 1.147762534415289
000760 ef 6b 3c 97 9f 79 db bf ff f1 67 f1 14 42 ee 3f
       -0.4292983033098485 0.9455666270219466
000770 c2 26 56 f3 a3 66 ae bf 80 0e 48 77 18 a5 c8 3f
       -0.05937683434883702 0.19253831695833767
000780 55 56 51 e7 7a 93 e6 bf 03 3e 17 7e 05 80 e6 3f
       -0.7055029409336365 0.7031276190481893
000790 95 2f a5 fe e0 65 f1 3f 5b 0f f7 7c b2 7c 91 bf
       1.0873727747993815 -0.017077244641554894
0007a0 03 89 13 5c 93 2c da 3f 0d 6a 83 dc 99 f8 9e 3f
       0.40897068015887345 0.030245212635103203
0007b0 92 7b dd b4 e8 3c cd 3f e1 47 65 0d f1 f7 ed 3f
       0.22842129546458217 0.9365163098939285
0007c0 77 f0 dc fa 06 b5 e9 3f c7 b9 ba 73 c5 de e3 3f
       0.8033480548542816 0.6209437618579664
0007d0 2c 66 61 7d 06 41 e2 3f 18 7e ca ff 96 13 00 40
       0.5704376648747647 2.009565351836283
0007e0 3f bf c3 94 28 e6 f6 3f dc 08 ec 5b e8 23 e4 bf
       1.431191044914115 -0.6293832583762895
0007f0 9e 70 8a ed 1f ac f4 3f e4 f0 ab e0 ff 3c f5 bf
       1.2920226363121752 -1.327392461417781

layers.0.bias f8 [128]
000000 25 d4 05 da f5 11 03 c0 21 7d cf 29 e1 06 03 c0
       -2.3837697060612464 -2.3783591524549057
000010 95 2e 16 ae 1e 59 fd 3f be 4d 74 4c c1 9b e2 3f
       1.8342577743777941 0.5815130704162852
000020 ab f3 cf a4 2b 2d e0 3f e1 ef 49 77 36 c4 f5 bf
       0.5055139750471559 -1.3604035052985568
000030 e9 c5 c4 a2 c3 02 d3 3f b5 7b b5 58 47 0c 03 40
       0.2970437135255382 2.3809954576858794
000040 54 b5 de c4 39 43 c0 bf 91 6f 8f 48 37 24 e1 3f
       -0.12705156433859577 0.5356708924477848
000050 1d e1 cf 09 60 3d ee 3f 14 10 34 ed b3 eb f9 3f
       0.9449920837060152 1.620044638229051
000060 46 8e ea b2 80 1f 03 c0 40 1d bf 2b 64 47 f9 bf
       -2.390382192404817 -1.579929514775202
000070 02 0d 9e d6 24 b9 d7 bf fc cc 0c cd dc 21 02 40
       -0.3706752868531141 2.266534425690791
000080 5a 57 d3 0e a8 30 ed 3f 8e ed d5 ac d0 72 ce bf
       0.91218951125732 -0.23787887992135065
000090 f7 1c cc 2d 33 00 fe 3f 36 12 4d 75 88 d7 b9 bf
       1.8750488079984373 -0.10094502319140805
0000a0 41 ef 0d 62 3c 5d f0 3f a4 9e 36 9a fc fa ee bf
       1.0227626638652085 -0.9681380283336307
0000b0 49 c2 87 e2 d6 52 ec 3f 74 a2 e8 4b d6 41 d5 bf
       0.8851122307224354 -0.3321433774276905
0000c0 b0 c1 73 48 4e 3a f1 3f 95 3d 6e ae 3a 34 00 c0
       1.0767348127520613 -2.0255025508301494
0000d0 4f bd 30 3e 3d 86 dd 3f 5b cf a1 14 4a 94 ec 3f
       0.46131831239013804 0.8931017306299326
0000e0 45 ed 1b d2 4b 26 e2 bf d2 7d 7a 6e 77 2e f4 bf
       -0.567174826020541 -1.261344367558071
0000f0 74 3d 93 ea c3 e2 f2 bf c8 e9 f4 52 9e 5a f7 3f
       -1.1803626216022538 1.459623645829753
000100 f7 a6 85 f4 f1 33 cd 3f 4c 76 56 23 df d1 e4 bf
       0.2281477397876228 -0.6506190958204541
000110 20 1b 78 42 78 fa d5 3f 43 18 81 13 d0 cf 7a 3f
       0.34341246119622504 0.006545841977702751
000120 65 79 1c ab 47 15 fd 3f 89 02 9b 10 4b f6 02 c0
       1.81769530144046 -2.3702603623681324
000130 0b 9e bf f3 16 58 eb bf fd 71 b8 a2 28 39 eb bf
       -0.8545031319344515 -0.8507273843893582
000140 b1 eb 5f 24 68 4f e6 bf bf ac fc 97 6d 14 f1 3f
       -0.6971932135050932 1.0674873291962255
000150 17 97 41 b7 23 02 fa bf 44 f5 df 26 47 07 d8 bf
       -1.6255223425336618 -0.37544421001787875
000160 2d 2c 9e dd f0 0d fa bf 95 ae 03 c9 26 1f b6 3f
       -1.6284035355518072 0.08641283423974706
000170 87 32 d8 37 c9 5d 99 3f 7a 6b aa 8a ea 2b e4 bf
       0.02477182772968203 -0.6303608616175176
000180 96 4a a6 c8 e1 b7 d6 3f f1 3a dd eb 70 44 d6 bf
       0.3549732646435272 -0.34792731317149533
000190 1a 53 fe 11 43 66 02 c0 a2 d3 9d 6c 35 15 d5 3f
       -2.299932613920089 0.3294194756229506
0001a0 2a 37 f1 55 85 65 f9 3f 59 ad 4f f0 f0 58 fc 3f
       1.5872853619689047 1.771714152065064
0001b0 c8 e1 49 1f 23 ba e1 bf 61 f4 dc 23 23 0c f6 3f
       -0.5539718257050987 1.3779631997015473
0001c0 d8 da 10 23 0f 09 fa 3f 03 3c c5 fc 37 22 f1 3f
       1.627211701370177 1.0708541749806961
0001d0 d7 c7 ae 01 d2 b4 d1 3f 6f 46 ad 7e 95 dd be bf
       0.2766613975937821 -0.12056860296913795
0001e0 e3 9a d5 d2 1c 89 fa bf a9 71 29 5f ae 4b f7 3f
       -1.6584747539251843 1.4559768407117224
0001f0 64 27 56 02 95 3b f7 3f 48 ed 72 9d 85 03 db 3f
       1.452046403052429 0.4220899617755163
000200 b5 36 26 57 7e 8c c4 bf f1 ff e5 8b 67 8c d9 3f
       -0.1605375218900257 0.3991946092792196
000210 04 7d 41 00 e2 d8 d6 bf de 33 98 32 75 b6 d8 3f
       -0.35698747658712215 0.38613634053109347
000220 11 19 fe 55 cb 14 f1 3f 41 7b a0 5d d2 95 f8 3f
       1.0675767287335172 1.5365775735187557
000230 26 5c c1 a3 e9 37 f8 bf 69 bd 35 b5 13 7a e2 3f
       -1.513650550526799 0.577401975560787
000240 77 7c 30 b8 d2 8f f5 bf 1f e1 56 46 8c e5 ea bf
       -1.3476130671404272 -0.8405209897819396
000250 9b af 80 2a 54 3a fa bf 1c 5b 0b 47 6c 11 f8 3f
       -1.6392404232273978 1.504253652112033
000260 0f b2 cf 54 3e 6f e3 bf 34 db a8 c9 b5 cd cc bf
       -0.6073295265646851 -0.2250277743021002
000270 99 c2 d9 65 5e 92 e7 bf 72 68 60 2c 8d 68 f3 3f
       -0.7366172780294448 1.2130252583943073
000280 f2 16 06 1c 0e 28 e4 3f de bf ea 8c 00 15 d4 bf
       0.6298895404185869 -0.3137818695204241
000290 34 18 7e 47 9c b6 fc 3f fe e4 aa da c4 62 f3 3f
       1.7945826332738877 1.211613516016143
0002a0 7f 62 5b 9c 38 f4 a0 3f e0 ec 6a 24 79 81 e8 bf
       0.03311325939802589 -0.7658048354418518
0002b0 c4 6a 0e 61 f2 07 ea bf a4 ee f3 b5 5c 08 f5 bf
       -0.8134700675612625 -1.314541540864334
0002c0 8c e7 48 e9 c2 55 fd 3f 74 ee 43 8a 1b 41 f1 bf
       1.8334378349959222 -1.078395404910137
0002d0 23 ad 2c 36 25 8c f5 bf 93 b3 77 36 eb 40 f4 bf
       -1.346715175265509 -1.265849316371917
0002e0 1a 2a 82 7f 1a 69 00 c0 a8 5b d9 79 f1 78 e0 bf
       -2.0513200723264733 -0.5147635822166778
0002f0 6e e9 dd 0c c5 e7 00 c0 f7 76 d2 ee 42 d4 b4 bf
       -2.1131688122961156 -0.0813638527929149
000300 df 2c 29 04 a0 10 e5 bf ba 2a 22 d1 61 0f ed 3f
       -0.6582794266954827 0.9081276974332788
000310 34 42 12 7b f2 f7 f5 3f a8 dd 40 ba 3e cc d3 3f
       1.3730339820359747 0.30934112728888374
000320 42 f6 b6 93 b9 bd ec 3f 39 9e 76 de e7 65 06 c0
       0.8981597790768279 -2.799758661265312
000330 8d 55 26 76 14 aa f3 3f 09 15 a4 63 94 cd cf bf
       1.2290234198784191 -0.24846129288940969
000340 8d db b7 99 95 ca f5 3f a6 c7 49 6e bb 80 d7 bf
       1.3619590763680407 -0.3672321869881848
000350 e5 81 ef 4c 7a f2 fc bf 15 86 b5 9d c1 97 e4 bf
       -1.8091986661239556 -0.6435249405150808
000360 79 fd 24 3c d0 4d d3 bf 08 76 36 6f b3 8d f9 3f
       -0.3016243541096269 1.5970949501273726
000370 c5 b2 8c 0c 96 60 f3 3f fd 70 bf 4e b0 8d f0 bf
       1.2110805978983745 -1.0345919681631692
000380 36 75 48 ca 47 3e d8 3f 0e 9f 9b 03 41 f5 f8 bf
       0.3788012957973764 -1.5598764553960254
000390 b4 04 4a 73 80 90 dc bf ff 22 cc fd 13 0c ec 3f
       -0.44631968744949835 0.8764743763905186
0003a0 bf 8c 67 d0 a3 75 d3 bf 2e 83 47 82 76 f8 e7 bf
       -0.304055169601451 -0.7490799469488587
0003b0 9d e8 cb cd 70 42 f0 3f 9f 4f 3c 9c 21 14 de 3f
       1.01622085942521 0.4699787164438422
0003c0 ca 3e ad 20 a7 8e e2 bf 40 55 ac d8 f4 40 f5 3f
       -0.5799136770455899 1.328358503703683
0003d0 07 7d e6 50 c5 94 ec 3f 0a 68 f8 a1 0c 87 d8 3f
       0.8931604938588017 0.38324275796333096
0003e0 03 db df 3b 92 63 d5 3f 18 20 e0 56 4a 42 eb 3f
       0.33420234534371235 0.8518420883929165
0003f0 28 ea 93 90 d0 2c bb bf 52 fc df ba 6b 63 c2 3f
       -0.10615256814700358 0.14365908264878385

layers.1.weight f8 [100, 128]
000000 1d 35 d0 99 e9 ef aa bf ed 26 7b 40 4f 74 a6 3f
       -0.05261163714031112 0.043856121655677295
000010 74 79 c9 9b 1e a5 9e bf 11 0b a6 4d 28 cc b9 bf
       -0.029926756151661363 -0.10077144523351601
000020 79 a7 0d 63 4e 22 be 3f 13 e5 b6 c8 bc c6 87 3f
       0.11771097105306962 0.011609530330007922
000030 d5 69 0a 81 7c fc b3 bf 3d 4e a8 f0 52 d8 bd bf
       -0.07807138586432612 -0.11658209205079913
000040 0e 7c 48 65 ed 81 bb 3f 64 db d8 ac 91 53 96 bf
       0.10745128367169363 -0.021803165602445232
000050 12 e1 17 8b a2 af 9d bf 79 00 69 d0 67 61 b1 3f
       -0.028990306605892142 0.06789254034174687
000060 59 52 78 39 45 85 a2 3f a2 c0 d7 00 b7 8e b2 3f
       0.036173022523290306 0.07249015589309463
000070 42 cc 83 56 3d 2b a5 3f 8e 80 6e d7 47 6a a4 3f
       0.041345516978161814 0.03987335686474679
000080 32 fd 8d 83 e1 97 ab bf 4b ed 74 1f a6 d7 ad 3f
       -0.05389313441173228 0.058285895671782294
000090 45 4a e9 83 98 8a 96 bf 8f e9 05 b6 74 43 cb bf
       -0.022013075877405325 -0.21299609077307166
0000a0 3a 62 d5 f4 25 e2 a6 bf 53 e1 49 ba 4c e3 a2 bf
       -0.04469412435236504 -0.03689040922194189
0000b0 44 c9 68 e8 8b 8c bd bf 63 32 d3 20 44 82 c0 3f
       -0.1154258196263856 0.12897540667326543
0000c0 c8 94 fa ed d1 9a b8 3f f5 d7 0c 5c 53 17 49 bf
       0.09611236629514786 -0.0007657200841097988
0000d0 f0 3b 77 e6 0d c5 c1 3f ab 26 bb 97 90 dc ae 3f
       0.13882611993037086 0.06027652599511887
0000e0 fd 9a e0 e8 79 0c 8b bf 48 af be 85 e9 7c be bf
       -0.013207390231469324 -0.11909350886588499
0000f0 88 24 19 bf bc 6f b3 bf 41 5b 8d d7 df 02 b7 bf
       -0.07592372575267536 -0.08988760960106125
000100 28 c7 45 4b 6d a2 b0 bf 3e 8e db 9f 98 1a 7b 3f
       -0.06497843826016647 0.006617160977586743
000110 a7 ec 1e 73 bd d7 ba 3f b7 e6 7c 71 05 cf c4 3f
       0.10485443172994967 0.16256778756524223
000120 23 a3 26 08 36 5b 8a 3f 86 a0 51 68 9d ba 94 3f
       0.012869283794161362 0.02024312924587026
000130 32 d9 11 6e ad 10 b0 3f 07 52 8c 28 06 49 8c bf
       0.06275447785614999 -0.013811157333784697
000140 29 0d 3d e8 b0 b3 b1 bf 70 f7 74 26 cd 8b c9 3f
       -0.06914811773190323 0.19957889917162275
000150 e9 7e 9e 23 42 4b c4 bf ee 49 a8 92 3d 3e 72 bf
       -0.15854670275893248 -0.004453888434471127
000160 68 f7 29 0f 7c 2e b3 bf 60 51 30 ac 4d 72 cf 3f
       -0.07492804880345505 0.24567576320317652
000170 54 3d 87 77 81 63 b0 bf 98 af e0 17 36 3f d0 3f
       -0.06401833694620979 0.2538581116848433
000180 16 9e 5a fa 97 90 c4 bf 83 62 14 8e cb 41 a7 3f
       -0.1606626484328763 0.04542385205622159
000190 cb aa d7 27 d7 c9 70 3f 75 da e1 68 23 d1 b0 3f
       0.004098740054795778 0.065691197496429
0001a0 9d 2d ef 23 4a f1 aa bf ef 52 fc 8b 47 d9 96 3f
       -0.052622143637189846 0.02231323043732208
0001b0 e3 6d f9 e2 06 2a a4 bf ec c2 79 d9 53 98 99 bf
       -0.03938313980753685 -0.024995145939501848
0001c0 06 f7 ed 93 0a 7c 58 3f e8 f5 61 22 bc 73 bb bf
       0.0014944175051989097 -0.10723472442074178
0001d0 b5 69 6a f2 a5 67 ad 3f 23 f0 18 51 8e 24 b1 bf
       0.057431398240811594 -0.06696404914777125
0001e0 fb 92 7d fd 0a e3 bf 3f dd 74 6a 3b 80 39 85 bf
       0.12455815018399712 -0.010363580525615418
0001f0 02 11 0d 9b 44 71 ba bf 68 12 e5 ea fc 51 a1 3f
       -0.10329083238054085 0.033828643487628096
000200 ee ca 4f f1 90 fd b0 bf 08 ce 61 70 0a 89 6f 3f
       -0.06636911288641631 0.003849525822312353
000210 7a 2f 7f 8f fc e0 94 bf 3f 1a 0d f5 46 9d b1 3f
       -0.020389505632734985 0.06880610926337115
000220 e7 37 02 82 00 36 9e 3f 74 79 bb 87 94 9b bf bf
       0.029502876219844067 -0.12346771539475815
000230 36 1d f7 72 ad 5a c9 bf d7 49 63 6f 06 3a c0 3f
       -0.19807975877322698 0.1267707866559948
000240 95 4e 0d 8f 85 3c b2 3f 77 7d 20 5a f5 32 b3 3f
       0.07123598806838978 0.07499631357540247
000250 7a 81 16 ff 29 fb 8e 3f e0 ac 4c c9 5e 4e 9a 3f
       0.015127494904675787 0.02568958381304476
000260 86 9e 0c 0d 6c 49 94 bf bb 1c 62 cf bc eb b7 3f
       -0.019811332985368434 0.09344081938808106
000270 e8 d8 c1 c1 bd 1e 85 3f 27 ef b3 e2 ea b2 a9 bf
       0.010312540507794357 -0.05019315736168855
000280 4f 96 f1 83 e1 89 be bf 5a 4f 47 0e 7e ba c4 bf
       -0.11929139586717351 -0.1619412965507035
000290 68 f1 9b d0 b6 35 c0 bf fe f3 3d 84 1f 40 b0 bf
       -0.12663922487252965 -0.06347844103397901
0002a0 90 8a 00 1f 38 c4 c4 3f 44 ed 15 80 3d 8c b3 bf
       0.1622381354691993 -0.07635864617434601
0002b0 57 ce b8 cf 84 2c ca 3f dd e1 9d 41 46 6c 96 bf
       0.20448360579176736 -0.021897409205367303
0002c0 21 14 ba 3a 01 62 b6 3f fd b6 93 ee da 31 c2 bf
       0.08743293460618463 -0.1421464600493251
0002d0 2e 55 e3 b9 1a 7c b1 3f 00 29 70 b4 b0 19 9d bf
       0.06829993284494115 -0.028418313038891974
0002e0 b1 eb 36 e1 0a 4c b0 bf f3 ea 3e f3 90 85 96 3f
       -0.06366031645204263 0.021993889662307486
0002f0 03 c2 c3 23 48 c7 b5 bf e7 de 1f 26 2b 9e 94 bf
       -0.08507204888497459 -0.02013461513703776
000300 bf 05 85 de ae 01 77 3f 79 80 ec 97 89 1b b1 bf
       0.00561683948791497 -0.0668264385135461
000310 c5 b5 64 a6 63 a9 05 3f d0 f9 c9 3f 66 ed b2 bf
       4.1316369605897146e-05 -0.07393492753360609
000320 62 29 99 32 8a 5d b1 bf 91 dc 30 6b f7 de b4 3f
       -0.0678335546046234 0.08152719847645275
000330 6b 16 c6 a5 54 bd c1 bf 77 c2 80 6e 32 fb 97 bf
       -0.13859041304037886 -0.023419178003850818
000340 fb c2 39 91 9d d2 88 3f 31 ee b0 42 57 a6 ba bf
       0.012120467180666497 -0.10410066011621023
000350 86 b7 07 24 b0 e2 89 bf d6 13 b3 b4 08 c1 9e 3f
       -0.012639404391815889 0.030033241299651646
000360 11 9e 62 f0 60 d9 c2 3f 8f 9a dc 6b 60 7a b1 3f
       0.14725887048301492 0.06827356942504025
000370 76 56 2f 54 87 77 98 bf 3f 07 1d 67 44 52 99 3f
       -0.023893465531577417 0.024727886956731778
000380 ad ba a9 60 d3 40 97 3f 36 15 a4 98 aa 85 a1 bf
       0.022708227896539302 -0.03422291863720732
000390 b6 ef 4a 84 12 63 b2 bf 68 95 3c f4 48 d7 95 bf
       -0.07182422380259265 -0.021329059512159715
0003a0 b0 ac 1e 48 16 3e b2 bf 2b 70 63 f4 9e 05 b0 bf
       -0.07125987301576475 -0.06258576838030254
0003b0 62 fb 53 9e 66 aa a9 3f 33 57 e5 67 23 f4 b3 bf
       0.05012818033900747 -0.07794400488395752
0003c0 f9 79 76 e0 50 d5 96 bf 70 e7 c9 a9 7c a4 9d bf
       -0.022298110675928105 -0.028947780478552898
0003d0 0a b9 7f e2 fe 4a c2 3f cd f6 c1 66 79 a6 a1 3f
       0.14291368541257327 0.03447322253576388
0003e0 d8 24 69 7f cb d3 bd bf 0c 10 db f1 70 38 a3 bf
       -0.11651298390019649 -0.03753998710956816
0003f0 a0 eb 0b 0f 39 89 bf 3f 6e bf 1b 79 77 2a c2 3f
       0.1231876050696159 0.1419209805821952
000400 6d 05 de ac d9 d3 c5 3f f7 40 0b 1f 41 3e eb 3f
       0.17052765789780314 0.8513494116141648
000410 28 f0 c7 9e a8 5a c9 bf 88 4e 2f 56 ca a4 db 3f
       -0.19807918313006323 0.43193300644382093
000420 90 1b 52 38 e4 9a e4 bf 82 7f 6d 61 7b 2d e1 3f
       -0.6439076519026106 0.5368019965062418
000430 ed 9b d4 08 2d 51 e6 bf 45 0e 3f a2 ae 28 ec bf
       -0.697409169432715 -0.8799660843728324
000440 05 98 39 f3 e1 a0 ad 3f 47 94 a3 8d 82 14 d5 bf
       0.057868061962651075 -0.3293768294518639
000450 9a 84 5c 0e cb b5 d1 bf 4e f1 9f 8e 26 be c1 bf
       -0.2767207756279021 -0.13861543621158962
000460 34 94 97 2b cf 19 ef 3f a9 6e 5a d2 c7 d3 d2 3f
       0.9719005443008712 0.29417605917272255
000470 8f 28 f1 cf 57 ff a7 3f 2f 7b 5d 1c 26 83 d3 bf
       0.046869987615154256 -0.3048796917918705
000480 64 75 45 f9 d3 01 b2 3f 49 1c 39 2f f3 4c dc 3f
       0.07034039340711257 0.44219665156964943
000490 20 bf ce 3d 2b 49 dd bf 8c f4 d4 62 30 f4 d2 bf
       -0.4575908759679681 -0.2961541142611359
0004a0 08 c6 2a 19 a1 a4 e5 bf c5 5a fc d7 a7 48 90 bf
       -0.676346348909818 -0.015902159269070255
0004b0 78 f3 3e 81 2e fe c6 bf 18 1e 1d 6d f1 56 df bf
       -0.1796320086558827 -0.48968158393515315
0004c0 5a 21 24 be b7 18 c6 bf d3 33 50 d2 6a 07 e8 3f
       -0.17262932571635298 0.7509054286653004
0004d0 03 e1 c1 73 2f 31 d5 3f 22 af 5c df 63 e3 a7 3f
       0.3311270361368914 0.046656723991274754
0004e0 c5 a6 04 bd 1c db d3 3f 80 b4 2e 3c bc 12 cb 3f
       0.3102485509758533 0.21150925577731883
0004f0 19 2d a0 78 c8 e8 b9 bf 6e 64 86 31 57 09 e0 bf
       -0.10120823807681169 -0.5011402098927087
000500 a1 0b 0b 6e 9f e6 ef bf 2b 17 07 6c 35 e7 b9 3f
       -0.9969021939544868 0.10118421447176888
000510 bc 2e bd c2 40 a8 d9 3f 16 50 f3 e1 48 ed c5 3f
       0.4008943464038841 0.17130385430084577
000520 21 d6 f9 4f e7 83 eb bf 5e da 68 13 b1 48 e7 3f
       -0.8598515092878111 0.7276234988301657
000530 4a ba db 66 85 e2 fb 3f 6f 6a fc 73 26 ae d5 3f
       1.7428030031111512 0.3387542851138851
000540 db 72 45 a5 59 af d4 bf f2 31 c0 a7 69 46 99 bf
       -0.3232025255181676 -0.024682665694898583
000550 8d a5 3a af 58 f9 81 3f aa 5a 96 62 9f 15 b9 3f
       0.008776371810500528 0.09798618466298117
000560 dc 93 75 24 a7 22 f3 3f 81 18 88 3f 41 46 b7 bf
       1.1959601806822695 -0.09091575432839429
000570 db 6e 11 6b bc e1 db bf 86 f6 ca 60 4c 56 d2 3f
       -0.43565283256405757 0.2865172333948539
000580 9d 49 b8 a3 44 4a e6 3f a7 28 a5 49 2a e5 d5 3f
       0.6965659330037856 0.3421121329489644
000590 ed 14 41 0f 6a 69 f2 3f 6a af c0 74 9d 60 eb bf
       1.1507359119289575 -0.8555438309026446
0005a0 82 fe e9 38 81 0f e9 bf 84 04 2e b9 68 47 d4 3f
       -0.7831426726915682 0.31685846408806406
0005b0 c6 5d 5f 74 45 37 b1 bf 1e be d0 1e 10 a5 e7 bf
       -0.06724962321401681 -0.7388992883551884
0005c0 b0 b9 d7 93 fe bf ec bf cb 88 32 4e 30 93 c4 3f
       -0.898436821704129 0.1607418424437753
0005d0 fb c5 2f ed 7e 3b ed 3f d8 4c b4 4c ff da d0 bf
       0.9135126717139309 -0.26336653223661477
0005e0 60 30 0c 16 71 ae a8 bf 8d 76 20 e1 41 5c ef bf
       -0.04820588487754729 -0.9800118824966418
0005f0 3b 38 76 8c 9a ee f0 bf aa dc 35 0d bd b8 75 3f
       -1.0582528578556907 0.005303133471321756
000600 09 83 09 61 99 fc dd 3f 9c e8 3d a9 48 34 e2 3f
       0.4685424277904962 0.5688823037628654
000610 a9 63 bc 39 e3 5f b7 3f 01 1f 27 47 49 44 a6 3f
       0.09130687865798727 0.04348973268093737
000620 3b 12 b0 14 6b ff e1 3f 93 56 47 c2 b4 b1 c8 bf
       0.5624289897974174 -0.19292315946829727
000630 e9 51 d3 4c 8d af dd 3f 50 f2 b5 4a 0d fd d1 3f
       0.46383984091269653 0.2810700635525665
000640 2e 57 c6 84 d6 38 d7 3f 9c 51 95 c5 ea 53 d7 3f
       0.3628441139820663 0.36449689193002555
000650 6e db 7a b4 21 ae e9 3f 8c 52 2b 2b c7 f2 bd 3f
       0.802506306171251 0.11698574832855452
000660 d1 59 8d 05 51 f8 bf bf 91 4d 42 63 e1 79 c2 bf
       -0.12488275895643787 -0.1443444952643458
000670 95 44 77 a2 a5 63 e3 bf 37 89 db 3d a2 33 e2 bf
       -0.6059139416849059 -0.5688029487758176
000680 56 a5 4d 9a 64 e0 b6 3f 36 ef 4c 77 89 2e e1 3f
       0.08936146514101515 0.5369307832802181
000690 70 db c9 0d 39 22 d1 3f fc c8 17 55 18 04 f9 bf
       0.2677137980130544 -1.5634997676793878
0006a0 6c 67 d7 c3 04 53 db bf 30 1f dd 48 e5 70 aa bf
       -0.4269420540346036 -0.05164257540178452
0006b0 1d 6c 14 e8 75 91 bf 3f 19 1f 25 50 9e 62 b1 3f
       0.12331330219278454 0.06791104752221279
0006c0 33 84 0c 8c c8 aa cf bf de 2a c0 6b 6b ab d5 bf
       -0.24739939535450758 -0.33858762285733046
0006d0 98 d5 1a 65 cd 8a e0 3f 3f 33 5e b6 d7 d9 da 3f
       0.5169436430648373 0.4195460587441637
0006e0 38 cf 32 51 be 2d d1 bf 96 f4 2c 00 e4 89 f1 3f
       -0.26841695718325154 1.096164704023328
0006f0 19 a7 ff 7a 5b d2 cd 3f be 4d 57 c3 ff 39 e1 3f
       0.23298209672730577 0.5383299651388638
000700 ce aa e0 cd 5d 8e e0 3f b1 db f6 19 31 bc b8 3f
       0.5173787137076375 0.09662157901662628
000710 32 54 f1 a3 9e 80 d4 bf f9 53 4a 88 5d 66 c1 bf
       -0.3203503228190271 -0.13593644289781517
000720 f7 28 29 75 c5 d6 ec bf 3e ee 8b d7 f8 30 e5 3f
       -0.901217202024127 0.6622280321020708
000730 c9 01 17 20 68 48 d1 3f 96 6b 80 5f dd c5 dc bf
       0.27004435666824783 -0.4495767052300662
000740 ab bf dd ad c4 ec dd bf b4 89 be 88 cf 21 c5 bf
       -0.4675761888420264 -0.1650943200775835
000750 ac 85 17 ca 77 17 f9 3f de ea 71 5d 4f 9d dc bf
       1.568229474469585 -0.44710144162642773
000760 75 4d 38 f6 6d 81 f3 3f a4 76 89 0f 29 0d dd bf
       1.2190990083662119 -0.45392824666292086
000770 50 fd 2a 18 3c 6f ff bf d8 01 bb 82 27 03 e5 bf
       -1.9646569198665311 -0.6566350510911958
000780 6d 8f 45 06 ec 6e d6 bf e2 a6 59 6b ae 84 e0 3f
       -0.35052013981316216 0.5161964508708616
000790 62 ec ef 13 8b 80 d4 3f 77 99 dd 20 c3 c1 d0 bf
       0.32034565875046017 -0.2618263073876714
0007a0 a1 a2 07 c7 e1 08 e2 3f ab 60 e6 c4 48 9a a4 3f
       0.5635842215825343 0.0402395954471911
0007b0 f2 4c 13 69 e8 bf c8 3f 0a fa 49 77 c3 9b c4 3f
       0.19335656290659348 0.16100352596909345
0007c0 fc 22 cd ce 69 30 d3 3f 88 d1 38 f8 8d 47 e8 bf
       0.29982991404953885 -0.7587346885762125
0007d0 47 a7 fc a1 c6 e0 c8 bf 65 0f 8b 73 e4 af e9 bf
       -0.19435961637037222 -0.8027212387755581
0007e0 71 8b 85 9f 52 98 b8 bf 53 5f 6f 5b 1a 5e f8 bf
       -0.09607426065990211 -1.5229743549043249
0007f0 f5 8b 0f 42 51 1f c7 bf 5f 81 c6 a9 f3 b8 e9 bf
       -0.18064323163625287 -0.8038271251607901

layers.1.bias f8 [100]
000000 c6 70 8d f8 47 9e a2 bf d9 35 51 d8 2a ee d1 bf
       -0.03636383923614654 -0.2801615822289399
000010 e4 fc 00 44 cb fd 86 3f 07 35 68 ef 4a 7a b9 bf
       0.011226261151135515 -0.09952228875063805
000020 a1 e6 11 de 9d e8 86 bf 7b 41 ea 18 56 05 e1 3f
       -0.011185868587051674 0.5319014059660242
000030 d6 51 79 dc c6 ea a0 bf 8e 91 65 a4 47 e1 cf 3f
       -0.033041204846685865 0.24906249549088638
000040 ee 98 5b a1 c2 87 e4 3f 26 61 80 f9 35 64 b1 3f
       0.6415722991485191 0.06793534604401383
000050 89 f0 e0 87 0e c1 94 3f b1 b0 51 cf 5c c7 d9 3f
       0.020267703097701904 0.4027931236839875
000060 ee 91 2c ee 03 a3 b3 bf 11 94 7c de 8a ab 9e 3f
       -0.07670616688535123 0.029951257543093194
000070 12 44 db 60 16 73 b8 bf 02 d0 57 38 fe 43 d3 bf
       -0.09550609459553552 -0.3010249662613661
000080 68 84 d7 07 7b 5f a3 3f 56 15 fd f2 c3 8f cb bf
       0.03783783407903557 -0.21532487263372485
000090 99 31 31 a6 f6 d6 6a 3f c1 10 a1 14 b5 fa b2 bf
       0.0032763306967693137 -0.07413799050943039
0000a0 a6 56 16 6c f9 7f 9f 3f ed d8 a1 97 14 f5 c2 bf
       0.030761620733378202 -0.14810426143566904
0000b0 bc 40 36 c5 1f 81 c2 3f 6d 7b a5 1a ce 16 a4 3f
       0.14456555490006007 0.039236489060150294
0000c0 0c 04 1c 74 37 59 55 3f dd ae 11 6f 2a 52 88 3f
       0.0013030091799353131 0.011875468744811208
0000d0 c9 95 a7 88 23 17 c3 bf 3b 77 fe af 2f 5e 9a 3f
       -0.14914364025677987 0.025749917141744332
0000e0 5a c6 41 db d1 d4 95 bf 86 02 db 8b a8 32 c2 3f
       -0.021319655425435215 0.14217097119219008
0000f0 8b be 66 5c 34 f5 aa 3f 22 15 01 a9 7c a8 af bf
       0.05265201213785272 -0.06183232844390775
000100 5c 58 d6 7f 5e 44 a0 bf 1a f7 86 3c ba dc 67 3f
       -0.031771615128648206 0.002912868254695844
000110 a6 4f 5f 62 ee cb 9d 3f 32 53 eb 26 f6 c2 c4 bf
       0.02909824824730802 -0.16219975376466206
000120 5c b5 16 d7 fb d7 b6 bf fc 77 be ea 7c f1 bd bf
       -0.08923315049351771 -0.11696606379561553
000130 2d a0 46 cb 48 9b ca 3f 3d dc e4 69 7d e5 da bf
       0.20786390233593136 -0.42025695172509697
000140 d1 ef 6a 8e 8f 5d 85 bf 48 0e 07 41 77 7d 96 3f
       -0.010432359250778152 0.021962989181487452
000150 8a 7b 08 9d 1a 7a a0 3f 40 c0 ee b1 0c c7 92 bf
       0.032181579274257535 -0.01833743892683537
000160 18 e6 31 77 74 f9 b6 bf dd 94 65 98 94 b1 d4 3f
       -0.08974388036758574 0.3233386505365397
000170 4e 0b 70 0d fd 27 a0 3f c2 89 88 b7 37 19 e6 bf
       0.031555087938633805 -0.690578325713709
000180 f5 e9 7d 50 9c 6b a3 3f e3 40 d5 9c 08 58 b1 bf
       0.03793037874762099 -0.06774953679019151
000190 01 10 54 7e 1a ea a6 3f 2e 23 c9 4a 0e 9b 53 bf
       0.044754817887252336 -0.0011966361590955532
0001a0 10 83 cf 5d 2a 7a 8c bf 91 b2 64 97 75 82 96 3f
       -0.013904887187835807 0.021982037892643694
0001b0 d3 f1 c9 41 1f e0 a1 bf 90 4e 14 e8 96 51 84 bf
       -0.03491304090582372 -0.009921244580744643
0001c0 cf 40 71 f8 e2 38 e1 3f 91 a6 eb c9 41 b3 a0 3f
       0.5381941654577761 0.032617622278690146
0001d0 68 f1 7d c5 8d bb bd bf 6f f6 4c 06 de 58 9d 3f
       -0.11614309379178211 0.028659314283905276
0001e0 8e 25 7f 4e 48 13 82 3f 79 0f f3 54 8d cb b4 bf
       0.008825840850380098 -0.08123095821343708
0001f0 f9 69 b5 59 3e 42 99 3f 83 a4 e5 68 80 a3 9c 3f
       0.024666761613255848 0.02796745910874111
000200 65 c6 ac ca 60 02 c3 3f 78 ac 79 9b 3e 4a cb 3f
       0.14851007362590277 0.21320326415602486
000210 6b 8f 17 b2 4c 7f a6 3f 8a 70 8c 64 51 45 d9 3f
       0.04393996881461145 0.394855831329331
000220 f7 53 67 c1 57 26 bb 3f 35 49 de ec 24 70 cb bf
       0.10605381461876094 -0.21435987058482345
000230 46 09 09 30 1d 85 e4 3f b0 d0 bf 81 ce d0 94 bf
       0.6412492693128022 -0.020327784222857914
000240 3a 89 91 c2 ba 1e 87 bf 00 00 00 a0 57 09 a7 bf
       -0.011289080679664044 -0.04499315097928047
000250 32 91 e3 25 00 c1 d1 bf 69 cb 38 53 5d d3 cb bf
       -0.2774048204430698 -0.2173878342014988
000260 4b fa 28 a8 7c 50 d2 3f 61 8d 02 3a 44 02 c7 3f
       0.28616253301507716 0.17975666840093665
000270 07 e6 fe 15 91 5a a9 bf 46 9c 1a 15 19 a8 74 bf
       -0.04951909440519491 -0.00504312322451656
000280 22 79 f9 e8 1d d9 c6 bf 59 d9 fc 48 47 91 ad bf
       -0.1785008800097297 -0.05774901166880637
000290 d8 af 2c 4f a6 62 e3 3f a5 49 c5 20 32 35 bc 3f
       0.6057921930673684 0.11018670368256396
0002a0 07 57 a8 48 a3 cc c0 bf 1f 48 57 58 3d 8e b3 bf
       -0.13124505088551805 -0.0763891544986852
0002b0 da 56 44 7d 53 dc c0 bf 20 83 79 fb 10 28 d3 3f
       -0.13172381989050203 0.2993204551512907
0002c0 8a 40 67 43 1b 1b a8 bf b4 11 47 fd f7 98 cc 3f
       -0.0470818061618284 0.22341823451109877
0002d0 cd d0 c1 5a 49 ed ba bf 48 89 c2 e8 a8 a3 a7 bf
       -0.10518320527791332 -0.04617050019557439
0002e0 7a 36 ba 3b 9d 54 d1 3f 0b 73 77 49 6d 72 97 3f
       0.27078944046738906 0.022897441491170272
0002f0 c3 1d af fc dd 95 ab bf b2 9d 93 b7 bf dc 5f 3f
       -0.053877770514698685 0.0019447204816119665
000300 0b 64 d8 cc e0 7f bc bf 0a b9 45 9c b0 64 ac bf
       -0.11132626534562477 -0.0554557028543617
000310 eb 6a 15 2d 66 60 71 bf 3f 1f f9 04 aa 3f b0 3f
       -0.004242323995039081 0.06347143765844708

layers.3.weight f8 [100]
000000 41 a2 71 1f ae ac ee 3f d4 1f 43 39 7f cf ed 3f
       0.9585791219843217 0.9315792196657591
000010 c0 ac e6 25 5f 10 ef 3f 50 13 8d 4f 07 88 ee 3f
       0.9707484951262799 0.9541050485355331
000020 41 0a c0 71 b8 c4 ef 3f af f0 7b 5d 0a 2c f1 3f
       0.9927637311632865 1.0732520724987287
000030 83 a3 76 18 b0 da f0 3f 8d b8 29 37 b3 9e 00 40
       1.0533905940630752 2.0774902639014443
000040 11 0b 8b 9e a7 31 f5 3f f8 1a 70 92 90 40 ed 3f
       1.3246227448550523 0.9141314373126468
000050 54 2a cc 8e 08 12 f0 3f a2 93 88 e1 91 bc ca 3f
       1.0044026926067504 0.20887969505670606
000060 f6 51 9e 81 3d 21 ee 3f 33 30 1e d8 db 31 ef 3f
       0.9415576488123054 0.9748362752011474
000070 44 03 ce 04 bd d0 ee 3f 13 8b e2 fa 22 fe fe 3f
       0.9629807561724211 1.9370450782959707
000080 6a 43 3d 9f 26 10 ef 3f 23 26 18 9b 6c a4 f1 3f
       0.9707215414183399 1.102642637097582
000090 08 72 d3 1c 10 8e ec 3f 27 af 5b 35 cc 3a f1 3f
       0.8923416674620634 1.0768549045851132
0000a0 0e 5a 4b b4 42 2e ee 3f 24 60 03 af 06 78 dd 3f
       0.9431470414518246 0.46045081225520534
0000b0 4b 03 73 3d 04 f0 e5 3f 53 12 47 10 2c 8b ee 3f
       0.6855488968068156 0.9544887845918971
0000c0 8f f9 12 01 97 4a ef 3f ae 45 3a 9b 70 db ed 3f
       0.9778552075365939 0.9330370933332028
0000d0 74 08 5d 62 df 45 eb 3f c9 06 a6 42 b1 0a 05 40
       0.8522793694649082 2.6302209097783344
0000e0 eb 8d 2c c8 b9 dd f9 3f cf 29 5a 70 09 ce eb 3f
       1.6166322535799462 0.868900985181705
0000f0 0d 20 1f 34 5f ef ee 3f 06 96 d0 8f 3e 11 e3 3f
       0.9667202013015427 0.595855027092228
000100 63 2f 97 8a b3 69 ed 3f f0 19 5d 9b b8 44 e3 3f
       0.9191529948088654 0.6021388086745088
000110 6a 26 73 51 f9 a9 ed 3f 67 05 fd bb 8e eb ee 3f
       0.9269987669769766 0.9662545844695786
000120 e6 a6 64 e6 79 4b f2 3f 33 20 eb cb 0e cf ee 3f
       1.1434267997487324 0.9627756102354453
000130 95 1c 7c 6a 41 67 e5 3f 54 9d 47 7d 9b b7 f4 3f
       0.6688544349462001 1.2948260205974593
000140 58 a4 cb 99 b8 30 ea 3f e6 a8 bb 4d b7 c8 ee 3f
       0.8184473995035075 0.9620014684890321
000150 22 58 32 1b e1 1f f0 3f b0 a3 71 11 bd 8b ee 3f
       1.007783037411635 0.9545579281522034
000160 5c b3 bf 3d d7 bb f0 3f 16 e4 ea 6d 90 0d e1 3f
       1.0458595668853468 0.5329057833506592
000170 28 29 f2 2a f5 fb ee 3f 53 f3 ac f2 52 51 c9 3f
       0.9682565535343075 0.1977943119944948
000180 b2 db df b8 33 f9 ef 3f de f9 73 98 65 bc ef 3f
       0.9991701708630585 0.991747663268878
000190 c7 8e 5e 43 95 54 ec 3f b4 4e 16 32 89 79 f0 3f
       0.8853250804717953 1.0296718555954785
0001a0 24 04 8e ef 08 ad f0 3f 3a 5f 38 77 0c 84 ee 3f
       1.04224484993052 0.9536192253608313
0001b0 30 d1 51 96 f2 7b ef 3f 38 cf 19 94 b3 bd f0 3f
       0.9838803230218556 1.0463138375461778
0001c0 c6 b0 a9 00 7d 98 02 40 1d a0 7d 4d 4e 1e ef 3f
       2.3244571735177457 0.9724494470110617
0001d0 30 24 6e 32 89 68 eb 3f f6 9d 53 5d 15 24 eb 3f
       0.8565107331243151 0.8481547186647151
0001e0 36 b5 d1 63 c8 2d d3 3f db d2 99 b0 a1 12 ef 3f
       0.29966935871091793 0.9710243653522314
0001f0 54 d3 1c e8 31 e9 ee 3f 31 5c 95 71 d9 f2 ee 3f
       0.9659661801766597 0.9671447008539699
000200 1d 7a 32 2f f3 24 fb 3f 72 6e 62 b3 5d 31 f4 3f
       1.6965209811820678 1.262052250595755
000210 38 90 39 9c 8c 41 f1 3f bf f3 07 c9 4f a9 01 40
       1.0785032370122405 2.2076717095901297
000220 07 69 b5 88 ec 0d f2 3f a5 a4 8f 3c cc 10 f5 3f
       1.1283994045430192 1.3166010251682476
000230 75 ae d7 8f 6e e5 fd 3f 33 f8 c2 93 8e 21 d7 3f
       1.8685136431548959 0.3614231532081959
000240 c6 4c 4a ba 5e af ed 3f 00 00 00 00 00 00 f0 3f
       0.9276574743729717 1.0
000250 ee 97 e0 6f c4 c3 f0 3f ec ed e6 74 bf b0 aa bf
       1.047794758816504 -0.05212972929026791
000260 5b 39 2f a7 62 0d f6 3f 8c 74 94 20 28 57 d9 3f
       1.378267911018688 0.39594462567931354
000270 7a c1 5b cd 13 fd ee 3f 84 8e 7b c2 46 a1 ed 3f
       0.9683932314783725 0.9259370611657265
000280 b2 32 0c ab 32 a3 c3 3f d4 08 31 63 8b 22 f0 3f
       0.15341790534912075 1.0084337114972657
000290 c6 54 9e 45 52 62 fe 3f a3 9d 3c a5 2e 29 f0 3f
       1.8990042418929973 1.0100542501985295
0002a0 0b 6d cb 40 52 a1 ee 3f 08 ee a9 a8 d1 21 ec 3f
       0.9571925416488808 0.8791282934393516
0002b0 75 e2 34 47 b8 1f f1 3f 34 7f 5c 29 3a 6d e9 3f
       1.0702441007144021 0.7945833976591303
0002c0 b6 27 19 1f 3b c9 e8 3f bb 42 e3 f4 ff 61 03 40
       0.7745643241298612 2.4228514797071887
0002d0 03 38 4b c2 8a 27 f0 3f f1 a6 c3 80 cd 1c f0 3f
       1.0096538152315595 1.0070319204191345
0002e0 7a 82 29 ec 27 82 f9 3f e4 65 48 cb 3e 8f ee 3f
       1.5942763543208955 0.9549859972350387
0002f0 f8 f2 f9 62 6f 0b f2 3f f6 2c ad d6 98 31 ee 3f
       1.1277917734398084 0.9435543244266273
000300 c3 9e 7b f3 fe d6 f2 3f 9b f0 40 a9 a0 b4 c9 3f
       1.1774892340708198 0.2008248163637106
000310 fe b6 f7 c6 66 14 ff 3f b7 23 85 ec 9b 18 ed 3f
       1.9424808284924775 0.9092540378124941

layers.3.bias f8 [100]
000000 4d 7f 25 44 8e 32 b4 bf d2 2a 7d 5f 0c a8 b5 bf
       -0.07889641917927044 -0.08459546405098742
000010 92 22 7d 57 65 50 d2 bf 59 b7 b7 b3 ef 0e c4 bf
       -0.2861569742567919 -0.1567058208015009
000020 fa a4 fb 41 64 a2 b1 3f e3 7b a8 42 bb f4 ea bf
       0.06888414965546366 -0.8423744489590458
000030 74 1b db fa 34 08 a3 bf cb 88 46 0a e2 26 eb 3f
       -0.03717198908048305 0.8484964562124103
000040 9a 22 e6 57 a2 66 f0 3f 5a 12 ce 51 49 54 91 3f
       1.0250571664384212 0.01692308961675546
000050 ec ba 32 c2 ee 04 a8 bf e3 f9 1b f8 15 2a d1 bf
       -0.04691263313849511 -0.26819371442243617
000060 c2 97 df ff c5 41 de 3f e2 c2 46 27 07 58 c1 3f
       0.4727644919170154 0.13549889962953104
000070 86 03 50 16 45 8e d0 bf d4 49 4f e1 ca 54 e0 3f
       -0.258683463849643 0.5103506470280146
000080 2d 41 ef 0e a7 bc b9 bf d6 62 92 ae 0d ce d0 bf
       -0.10053485979665729 -0.26257650421170575
000090 89 87 f6 d9 46 e3 c4 3f e7 9c 96 ff bd 19 ca bf
       0.16318593638157733 -0.20391058902644163
0000a0 37 41 49 bf bf 55 de bf e4 d0 3c da 7e 32 b6 bf
       -0.47398370437896936 -0.08670800045075883
0000b0 5e 36 76 41 33 7c d2 bf 70 a3 b9 8b 89 4e cd 3f
       -0.28883057968855563 0.22895926783101173
0000c0 be 67 37 e3 bc c7 d1 3f de ae 07 bc f7 61 d8 bf
       0.27781603039840863 -0.380979474661883
0000d0 47 f3 a9 a6 ee df 8c 3f 4a 9f a8 5d d6 e1 f2 3f
       0.014098991833856224 1.180136075834485
0000e0 e9 6c 9c 33 47 b4 e0 bf 70 f8 3f a1 d7 19 e2 bf
       -0.5220066078212798 -0.565654578152829
0000f0 bb 61 86 57 87 c9 c9 bf be 01 35 d5 5f 54 e4 3f
       -0.20146266721418535 0.6352996029091214
000100 dd 31 cf 4c 64 f4 d1 bf d7 7b 2f 85 bc c8 b2 bf
       -0.28054149151719604 -0.0733754944953796
000110 4b ae 2a 97 6a 65 cd bf e2 08 3c fb 07 15 c1 3f
       -0.22965748196780775 0.13345432059583745
000120 68 48 39 9e ef a8 d6 3f 20 90 8f 89 cf a6 ad bf
       0.3540610356477658 -0.05791328958710573
000130 52 6e cd cc 8b 01 c5 bf 51 ff 16 c0 6f 1f df 3f
       -0.16410968303795187 0.4862937332036284
000140 fd d6 cb 95 82 ec af bf 40 96 4e 59 44 63 bc 3f
       -0.06235130384986396 0.1108896940264339
000150 fc e2 bd ea a5 51 b3 bf 3e b4 0e 61 1a 38 82 bf
       -0.07546460133552196 -0.008896070563276234
000160 c9 09 32 e0 ae 6f d6 bf 29 b3 f6 b3 1a 48 f2 bf
       -0.3505665959748084 -1.1426035909491452
000170 37 21 72 0e d9 2d e4 3f 72 ca ec 9a 2e 81 e2 bf
       0.6305966646332654 -0.5782692933920102
000180 8e 14 68 91 d6 71 c0 3f c0 42 16 18 c7 ba b8 bf
       0.12847406482629647 -0.09660000169811678
000190 fe 7b e0 9a fe 88 8f 3f 92 2a 1f f5 56 5f d3 bf
       0.015398015119044924 -0.3026940721289658
0001a0 e0 ab 53 7d 54 69 a7 3f 57 74 69 6a bd 45 c7 3f
       0.045725479410826386 0.18181579299826708
0001b0 68 63 b8 d5 87 02 d0 bf 73 98 20 52 fe ae 70 3f
       -0.25015445586318785 0.0040731367499003855
0001c0 01 60 a5 36 e1 6f f0 3f 10 c3 2f c3 65 18 9c 3f
       1.0273143896683907 0.02743681911300927
0001d0 52 30 0f 98 56 87 85 3f b3 d4 b5 f2 f5 5c c3 bf
       0.010512043490870013 -0.15127443648421987
0001e0 17 c8 e5 64 be 27 e2 bf fa 59 24 e8 ef 0c b9 bf
       -0.5673515291839547 -0.09785365502862212
0001f0 90 9f 72 aa 4d 21 bf 3f 8c be 20 11 b1 7d d2 bf
       0.1216019192821689 -0.2889216105713579
000200 ed 5f e2 44 52 64 de 3f 1f 96 37 5e 87 a5 e4 3f
       0.4748731301019678 0.6452061500719458
000210 3d 44 c6 32 ff a7 df 3f 6a 8d 07 d1 fe de fb 3f
       0.49462871511883916 1.7419422307219414
000220 63 d1 21 f4 8b 6d 98 bf c5 99 34 42 b1 7f dc 3f
       -0.023855387473717637 0.445293726590901
000230 e3 c0 a4 cf 89 76 ac bf 72 a0 87 2b 4b 4c e4 bf
       -0.055591875645747434 -0.6343131876174211
000240 96 33 ce 7a c3 b6 d7 3f 9f 27 2e 95 62 38 ba bf
       0.3705300044319356 -0.10242286817643141
000250 dd 13 ca db d4 05 e3 bf 7f 92 b3 c8 b0 76 d1 bf
       -0.5944618504296347 -0.27286929702521684
000260 21 9d c7 d5 31 3a f4 bf fd 02 fe 1d df b2 c7 bf
       -1.2642076826831004 -0.1851462265440417
000270 97 bd 01 f1 cf e7 c7 bf 90 77 0d 18 3c 72 af bf
       -0.18676184909734836 -0.06141841691599759
000280 b8 6d d7 40 cb 7d c6 bf f6 92 af 78 23 12 c0 3f
       -0.17571392694558852 0.12555354493010612
000290 b6 9f bf e4 37 2f e4 bf 00 e1 7f d8 51 ab e8 bf
       -0.6307639568085424 -0.7709130505091082
0002a0 c4 66 b0 1a 05 1f a8 bf b1 3d a2 52 6a 05 c8 3f
       -0.04711166334909714 0.18766526255465757
0002b0 f4 72 ee 01 62 00 d1 3f 1e c7 c8 ed e6 7e da 3f
       0.26564836681954707 0.41399548741456893
0002c0 cb 06 49 52 ac 9a d1 bf f5 8c e3 9e 5f 8f d9 3f
       -0.2750654986922256 0.39937582508555575
0002d0 76 83 de 18 6a 9b b3 bf 6e 79 a5 87 cb c4 d6 bf
       -0.076590186187344 -0.3557614159270973
0002e0 e9 53 fa 02 16 01 f2 bf 7c a1 c0 f9 b9 79 97 3f
       -1.12526513255329 0.022925287121468227
0002f0 51 f0 68 16 f4 42 f0 bf 81 dc d2 73 a9 ed cb bf
       -1.0163460612666493 -0.21819036632016167
000300 b6 e0 e4 4a 69 88 ea bf 7f d0 1f e6 e0 e0 ad 3f
       -0.8291517699026574 0.058356311885206395
000310 6b 2d 7c 79 6c 74 dc bf 32 74 3e 99 45 46 c7 3f
       -0.4446059404733293 0.18183202726950892
