model_policy_epoch-60.pt (torch, 373806 bytes, 28 tensors)

layers.0.weight f8 [128, 128]
-0.8988691058308106 -0.20302635542767938 -0.1592960326597635 -0.3270900477716879 -0.11373605185307173 -0.18776678878937902 0.04561027851702163 -0.7364816648707316
-0.4688434505021218 -0.7993464899396912 -0.1962335132732191 -0.9730592332239837 -0.42916077291131094 -0.14592758822816468 -0.41206297541496373 -0.08194181782385124
0.2560583326201673 -0.5638149778774936 -0.5432202673074432 -0.36960598603047135 -0.48338174203489614 -0.4950322589976644 -0.3922051919332031 -0.2045090880737787
-0.424992663366465 -0.35429645640717233 -0.6428556556782672 -1.125841557609709 -0.8309355482230049 -0.4915579001098485 -0.42282072732023934 -0.7638511141522228
-0.748769442333767 -0.17100863859861165 -0.5565325655836595 -0.9516821533251489 -0.5037491552195583 -0.27665599042901445 0.015843729985755232 -0.061767939258594765
-0.3724828921296934 -0.5054710007197684 -0.9665121185828313 -0.7746779641597646 -0.24039825426794925 -0.7821442302899775 -1.4477346205043347 -0.6110679329413327
-0.26815887224064994 -0.8412619452361276 -0.691382676875235 0.008920058968729685 -0.07499007376797437 0.05308008248998068 -1.1204918794621446 -0.5655110154671593
-1.0522382026851422 0.16767419206619186 -0.5610791772186309 -1.3203734038868795 -0.5280956686395377 -0.2789676029369001 -0.8336582758494262 0.13700265773173942
0.6348884677025097 0.25863246962437875 0.31410345787332145 0.5431251083058666 0.5305284454590516 0.4303613619107093 0.07230524420763935 0.4390111190807629
-0.6519462105959404 0.48905637599534046 0.18008776681940689 0.7847961830673831 0.7816437246537199 0.055039240075779726 0.8329064961891793 0.4962837567050538
-0.3334366521128008 0.7947047596616573 0.7911114316399456 0.8081619249246726 0.4655508561500151 0.4704977359183872 0.39906772418504394 -0.44082178272214645
0.21890229369717695 0.48085884173685844 0.5816577536886101 0.02493901494443019 0.9585719883855824 0.29886241886454534 0.22986863766505453 0.2239743991093532
1.22123177119489 -0.7888369968282413 0.3149252139074428 0.35062494025286917 0.9156478231785667 0.3381955479400027 0.1655003018820165 -0.10614078842479971
-0.06709830437282145 1.1112466203835372 1.6058140549372204 0.3719670197428805 0.08060809117473222 0.5469163762405809 0.9314604052472374 -0.24804517850018487
0.9722585876800408 1.3324929038766682 0.3086459294490864 0.09178171691487924 -0.30086678606717304 -0.23904212871770758 1.3216318627798367 0.8742796188700446
1.1111398867491835 0.43426749336889564 0.35844921955447895 1.6631797001645123 0.5791716950271372 -0.6054438991311878 0.846846169963116 -0.07900027767052557
-1.1780007229653944 -0.36085386191138613 -0.15405492224507134 -0.5496349839164817 -0.055003402206162975 -0.45871999863232515 0.15805565957495454 -0.6202994448666567
-0.7706924575829855 -1.5597957380005125 -0.7735473730561917 -0.8661688061911694 -0.4137934008502544 -0.44549266199727366 -0.7713339329964684 -0.3945438513991103
-0.47995191127596615 -0.603880807757696 -0.5483555012594726 -0.32859622606253874 -0.43299035890677456 -0.5817355382795518 -0.4278520526207889 -1.041967612759119
-0.5288479770393152 -0.8991125598926334 -0.6058000333496182 -0.6776034292046123 -0.41179460214471425 -0.3561141172106464 -0.7850923262570971 -0.8129253799840707
-0.4686687033208087 -0.7406227904444285 -0.7908005260837615 -0.8772151876851872 -0.5998134843852084 -0.16623009607619127 -0.20304617031934133 -0.6387449060455155
-0.7772652219332572 -0.60293594827504 -0.7084027213029211 -0.6284541255697642 -0.4644585386475981 -0.052965676927104535 -0.5486649228499029 -1.3994041028748052
0.08898970817532394 -0.6642294044875412 -1.0439007520552739 -0.41887238071325317 -0.42732285939427833 0.03219132291820367 -0.7014894343488396 -0.5580297274067552
-0.13488621375404333 0.43376064953954996 -0.31530231438079637 -1.6042181661272954 -0.3654773729930572 -0.3225569809783355 -0.8967688817992446 0.4640662802049672
0.29614758294839394 0.49224884860234025 0.5112539929269198 0.4776143522874049 0.5399628546492675 0.6037918342549211 -0.01917096977180733 0.25009249518279
-0.4119332801761748 0.47213741651769336 0.761672032699139 0.526089791139405 0.7752462780173508 0.2218128870169454 0.5806087248496261 0.39714829540313407
-0.17484560731346183 0.5382652799538171 0.4541969071082638 0.6798548445286084 0.3963327009570771 0.31058013056495537 0.3529797151574622 -0.09534034728114993
0.6768147151816876 0.7412188440443057 0.7046706494860182 -0.30045436243254114 0.51376237494585 -0.09889060086241488 0.4956323183713782 -0.27994941640497
1.2288240640949057 -0.3055833165157409 0.21537779520997613 -0.0107446315529553 0.6154701781696439 0.34566699180252486 0.27026032204504563 0.40472281087930706
0.5820727728267212 0.7243146616041661 1.4224888288649509 0.8489875119584309 -0.008010150314136277 0.03252624904339985 0.5191076069089022 0.10968323531349494
-0.08172972466198734 1.0104061500347183 0.7355038202699435 0.34120895920180877 0.23094785013959346 -0.16256166743064238 0.6117932129956324 0.6552693940734922
0.13704967228488033 -0.0013489839407475513 0.15097772758122 1.491365137127877 0.5806105761488523 -0.7953619574921632 1.018223435494383 -0.26742807519389494
00000000: f3b2 9d24 89c3 ecbf b6db 6482 c4fc c9bf
00000010: 6aff 53f9 cf63 c4bf cdb1 8118 0bef d4bf
00000020: 54c9 154f ce1d bdbf 900a 90fc bd08 c8bf
00000030: 6522 2ffd 3a5a a73f 4b26 17ff 4191 e7bf
00000040: 156d b6f5 8701 debf e6d3 0e17 3f94 e9bf
00000050: c79e f104 2e1e c9bf 3392 f81d 4d23 efbf
00000060: 9854 18bf 5e77 dbbf 6d16 8355 c1ad c2bf
00000070: a22e d362 3d5f dabf 586d ba93 23fa b4bf
00000080: c033 1e7d 4263 d03f 5152 5fb5 c50a e2bf
00000090: dd83 5378 0f62 e1bf 7e07 9add 9fa7 d7bf
000000a0: 2e7f 61f9 b9ef debf c109 b7c8 9bae dfbf
000000b0: 2d2b 2bce e319 d9bf 2e7e 8192 5a2d cabf
000000c0: daba 8c6d 1433 dbbf 32e1 560b cbac d6bf
000000d0: 38fa 2506 4692 e4bf 1895 e66f 7203 f2bf
000000e0: cf73 9625 0697 eabf a5fb 4344 af75 dfbf
000000f0: c053 faaa 7e0f dbbf b280 49e4 7771 e8bf
00000100: 7e2a 6255 ebf5 e7bf 9aa8 0e6f 9ce3 c5bf
00000110: c6e7 0a62 1dcf e1bf e8fc 9621 2e74 eebf
00000120: bac7 618c b61e e0bf 94a5 c853 bbb4 d1bf
00000130: 81b9 8ab8 5639 903f 5a2c 1d1e 0ca0 afbf
00000140: cf0e 017c c2d6 d7bf 995e 2585 d12c e0bf
00000150: a707 90d2 aaed eebf 05f0 1f71 29ca e8bf
00000160: b054 0cb8 5ec5 cebf ac37 3b56 5307 e9bf
00000170: 40a6 05c7 eb29 f7bf 4ac1 7356 de8d e3bf
00000180: 2ef9 99d4 8329 d1bf 8612 c52b 9eeb eabf
00000190: f966 4690 ce1f e6bf ee86 640c ae44 823f
000001a0: f6aa 5baa 8c32 b3bf 0616 ba04 502d ab3f
000001b0: 6593 9be4 88ed f1bf c3b1 9e8e aa18 e2bf
000001c0: ef26 c2b9 f7d5 f0bf b55c a711 5976 c53f
000001d0: 05dc 9351 5cf4 e1bf d03c c3dc 3f20 f5bf
000001e0: 06ea 3ee3 28e6 e0bf df7a d0ee 9ada d1bf
000001f0: 5c04 da1e 54ad eabf aa21 3697 4d89 c13f
00000200: 8079 ac9e 0151 e43f 5d1b ae33 6f8d d03f
00000210: 6b17 c863 451a d43f caec 39e8 4761 e13f
00000220: e304 5bca 16fa e03f c695 b761 0a8b db3f
00000230: 957b 33b3 9882 b23f 3110 c217 c218 dc3f
00000240: 9857 a84c bedc e4bf 9237 331d b34c df3f
00000250: 4d13 73ae 1d0d c73f ec99 89e2 0c1d e93f
00000260: 075d 50b3 3903 e93f 9b8c 3e70 1a2e ac3f
00000270: 6b45 3886 2ba7 ea3f f963 25f2 1cc3 df3f
00000280: 6e2e 07af 0657 d5bf 8f1d 17ad 386e e93f
00000290: 6d54 cceb c850 e93f 6590 ad65 76dc e93f
000002a0: de80 72d1 95cb dd3f 1b23 2789 a21c de3f
000002b0: efe3 105a 538a d93f 82fc 0991 6c36 dcbf
000002c0: 0871 3988 fd04 cc3f d024 d029 64c6 de3f
000002d0: 40d6 b1b8 f09c e23f c2b8 52f6 9c89 993f
000002e0: e149 9f29 9fac ee3f 0eb5 c1d6 8f20 d33f
000002f0: b9e0 92e4 556c cd3f 2f70 a86f 31ab cc3f
00000300: 2de4 6153 2a8a f33f a111 e815 273e e9bf
00000310: f5c4 9a15 bc27 d43f e012 e396 a370 d63f
00000320: be93 e6a9 fc4c ed3f f486 83f0 fea4 d53f
00000330: 91db 0728 1d2f c53f 2a61 0eef 0a2c bbbf
00000340: 6df8 e5be 5a2d b1bf b567 4589 aac7 f13f
00000350: a399 1614 6ab1 f93f da1e 3fc2 4ece d73f
00000360: 3072 635b bba2 b43f 3c34 b3c5 5680 e13f
00000370: 0bc9 410d 86ce ed3f 065d cbc4 f1bf cfbf
00000380: d9e8 aa0a be1c ef3f 79d6 4414 e451 f53f
00000390: 18c0 41db dac0 d33f a827 85b0 017f b73f
000003a0: dd1c a7c3 6641 d3bf 30b9 9ab6 ee98 cebf
000003b0: f7da bf73 6725 f53f e065 5340 19fa eb3f
000003c0: f6e6 2d9e 3ac7 f13f 370f 6fe2 09cb db3f
000003d0: 72d8 d0fe d4f0 d63f 1f3e 3951 629c fa3f
000003e0: 5322 1d14 9388 e23f fb98 4ae2 cb5f e3bf
000003f0: 8a80 9723 5d19 eb3f 8b46 f8b8 5c39 b4bf
00000400: c5cf 3c49 17d9 f2bf 6cdc e2cb 3a18 d7bf
00000410: b04a 6a5a 12b8 c3bf af14 151b 9c96 e1bf
00000420: 23d5 49eb 6729 acbf 7868 0920 ab5b ddbf
00000430: da3b 69f8 2a3b c43f 61bc ad38 7ed9 e3bf
00000440: 23f8 923a 83a9 e8bf 2c70 3260 ecf4 f8bf
00000450: 96db a56b e6c0 e8bf 8401 eda4 a7b7 ebbf
00000460: 20f5 fc50 977b dabf b0b8 78a7 f382 dcbf
00000470: f479 1080 c4ae e8bf 4636 a6da 3440 d9bf
00000480: 5a4f a538 88b7 debf 340b 00d8 fd52 e3bf
00000490: 45b7 0fd6 208c e1bf a3c4 2177 b807 d5bf
000004a0: bd39 bf31 1db6 dbbf b99c fad8 939d e2bf
000004b0: bb18 6293 ed61 dbbf 6eaa 443b e6ab f0bf
000004c0: 5911 be97 52ec e0bf a92c 05b4 87c5 ecbf
000004d0: cddf 64c0 b662 e3bf 9ceb 0263 edae e5bf
000004e0: 5360 38bf d75a dabf a112 c4dd 92ca d6bf
000004f0: 65ac 33f1 791f e9bf afd6 2316 7c03 eabf
00000500: 7efb 5a04 abfe ddbf d231 f490 2eb3 e7bf
00000510: 290f a6e7 3c4e e9bf 3a32 d595 2512 ecbf
00000520: ff4b 640c ac31 e3bf 060c 211d 0747 c5bf
00000530: 3fc0 8cba 6afd c9bf 7477 3e28 9970 e4bf
00000540: 4eb0 9050 5bdf e8bf c691 6d54 404b e3bf
00000550: 2297 0c2f 3cab e6bf 2278 8bd3 4b1c e4bf
00000560: 80b8 754e b0b9 ddbf c2c1 6c34 511e abbf
00000570: 4949 83bd a98e e1bf a4c4 7b8e f563 f6bf
00000580: 6129 4b8e 07c8 b63f f218 2a06 5e41 e5bf
00000590: 288e 6546 d1b3 f0bf fe1b 171a cece dabf
000005a0: db9f 7bfa 4159 dbbf 2b1d 4c8e 617b a03f
000005b0: dc91 60f8 9972 e6bf c40c ad28 61db e1bf
000005c0: f59f 6092 f343 c1bf f619 0407 bcc2 db3f
000005d0: a697 27c2 e92d d4bf 3ca7 f2aa e0aa f9bf
000005e0: 21b9 1b35 fb63 d7bf 2080 1909 c6a4 d4bf
000005f0: 6dbe 6ca7 54b2 ecbf 7a07 2a0e 43b3 dd3f
00000600: 1061 e3fd 14f4 d23f bd67 8f50 0181 df3f
00000610: d441 7255 315c e03f 162d cbc9 3b91 de3f
00000620: bdbf 382e 6047 e13f 86ef b640 4352 e33f
00000630: a260 cf00 8ea1 93bf 6a3f f2f3 8301 d03f
00000640: 3c67 9f67 1d5d dabf c254 cada 7f37 de3f
00000650: 850f d706 9e5f e83f bd80 f641 bad5 e03f
00000660: 92c4 4d48 d1ce e83f 0ad9 c85b 5d64 cc3f
00000670: 860b a0bf 5894 e23f 79ca 1aaf e06a d93f
00000680: 965a a142 5761 c6bf 6d2a bf1b 7839 e13f
00000690: a35b 7ee7 8f11 dd3f 97e1 68f2 5ec1 e53f
000006a0: 2b8b 3cd5 835d d93f d416 e47b 8be0 d33f
000006b0: 2a2c 303b 3897 d63f 88d3 8f99 3968 b8bf
000006c0: 5905 6555 77a8 e53f ca2c cb94 10b8 e73f
000006d0: faca 3f76 a98c e63f a1a6 25ef a43a d3bf
000006e0: ced8 c9ca bd70 e03f 02fb 95f8 e450 b9bf
000006f0: 08ba 8f9d 70b8 df3f ab97 fff4 b0ea d1bf
00000700: f434 fd6b 43a9 f33f 4cda a853 ad8e d3bf
00000710: 3c10 5be5 7f91 cb3f 6225 0509 4801 86bf
00000720: 7adc dc83 eeb1 e33f 8d4e 4672 681f d63f
00000730: e7c0 25f3 f14b d13f 0cff 2a81 fae6 d93f
00000740: 8ad9 6514 57a0 e23f 6b4d f3f0 952d e73f
00000750: a667 6ea5 83c2 f63f 245d d2db e72a eb3f
00000760: e602 152d a067 80bf f14f cecf 47a7 a03f
00000770: f4e9 588e 879c e03f 6447 9754 3314 bc3f
00000780: 37c9 883e 3dec b4bf df38 a1a3 9f2a f03f
00000790: 1c8f c44e 3f89 e73f 13ef 371a 5ed6 d53f
000007a0: 122d b7fb b28f cd3f bc52 991a d2ce c4bf
000007b0: 6164 375c cf93 e33f 3cb1 3385 f7f7 e43f
000007c0: dd0e 32fa d78a c13f d23d 227a 0c1a 56bf
000007d0: d55f 31f9 3c53 c33f 98bd a5b0 a1dc f73f
000007e0: 58ac 88a1 5c94 e23f 0d2a 7deb 9a73 e9bf
000007f0: 9a81 37a8 a44a f03f 495c 3fa5 8a1d d1bf

layers.0.bias f8 [128]
-0.8049506103755154 -0.928423290788758 0.6975750307364641 0.10519350839216851 0.7139206733482911 -0.8348336448618525 -0.15292066220259315 1.366559599983812
-0.16017454079306012 0.4662998257941821 -0.4475438575138296 0.71585499062424 -0.82556731539064 -1.2434049785419137 0.12319377962714873 0.7972229994514637
0.3356791493422559 -0.46431381162529484 1.2041834151075617 0.5438889718595922 0.9421001506527275 -0.27414243181647496 0.5883146556819093 -0.042362935369855026
0.34962294476589556 -1.138822562291664 -0.34328694206289406 -0.03436165103594626 -0.5064977933571038 -1.1099506894028277 0.5824255550838602 0.8065860912867586
0.26795954146166834 -0.42886850621933065 -0.03482056716973141 0.3930698489845634 0.9846677108057682 -1.8384887952868232 -1.137643909468842 -0.46418080496451447
0.32050199626286263 0.3502824079136441 -0.3313254820486703 -0.4094266339668777 -1.1262675440705197 0.29374886172270087 0.017718347558039586 -0.9811484330574218
-0.21614892178538112 -0.9863217747709834 -1.2183873869721347 0.7010308866219438 0.42132479865526573 0.6474823079656988 -0.22485636423367253 1.338581261040985
0.9990850782768742 0.48982045606517244 -0.3046959231847367 0.6048212959522559 -0.1399436388734288 1.0721816351894626 1.3097261893465626 0.5406763327351529
-0.266214952856208 0.06128008462450314 -0.4381308375723552 -0.02093194560951724 0.5917202388958173 0.3722335943167284 -0.3093321907124948 -0.2867775475704799
-1.1229541332405821 -0.9388447108933281 -0.9491404184754895 0.640872165092008 0.17037116196115923 -0.3748862913056406 -0.2796555062620611 0.8819193688306977
0.35688084314591145 -0.10102784034607498 0.6434568442441139 1.1467360731180207 0.4789071226944598 -0.21926315404315397 -0.06479976840710656 -1.1299333187834317
0.4190634946301666 0.4820101276627815 -0.3277951545582007 -0.32304602366917495 -0.20442340964036726 -0.534314223941743 -0.4154950253994387 -0.6452680475173165
-0.6503015485257877 0.1295439075792689 1.3321982393555984 -0.26637564809297803 1.2234354157193847 -1.1336226264221452 0.3454219074186585 0.27321766466332614
1.0070433940947194 -0.38167236325813136 -1.3038897771688391 0.07962907637868273 -1.0705957729016173 0.532131448557742 0.6817170928577072 0.016859839733531466
0.7106539967185329 -0.4769947483497231 -0.6862316926600556 0.5889830028789604 -1.105533557048385 -0.44050575442073236 -0.11546655143306682 0.6202574418870088
0.004489572414818059 1.1541923326179884 0.5458905270115996 1.2045808368478534 0.7451934909763347 0.9828827707934003 0.6069379325739681 0.08179302431124913
00000000: 91a8 4ec8 27c2 e9bf 8809 d9c2 a4b5 edbf
00000010: 2c9e f0de 8852 e63f d4bd 4b36 f6ed ba3f
00000020: c303 ff2a 70d8 e63f 4007 490c f5b6 eabf
00000030: 807a 857d e792 c3bf ee71 5f99 6ddd f53f
00000040: 4fd3 2d6f 9980 c4bf 17a8 7a39 dbd7 dd3f
00000050: 950b e3fd 8ea4 dcbf 9a1a adb9 48e8 e63f
00000060: 66fa 8725 0c6b eabf 6e56 689e fce4 f3bf
00000070: 60b9 91a6 a089 bf3f 026b c8ce d982 e93f
00000080: 13f1 1766 c47b d53f 72c0 0047 51b7 ddbf
00000090: 725c 24d4 5544 f33f 2b58 59d8 8967 e13f
000000a0: 3f86 1337 af25 ee3f 3940 c6b2 8c8b d1bf
000000b0: 6129 bd41 79d3 e23f f0c1 f33b 98b0 a5bf
000000c0: dbd8 6cea 3860 d63f 7bd5 cf01 9e38 f2bf
000000d0: 5b74 53cb 69f8 d5bf 5335 dfae d997 a1bf
000000e0: aee0 3edc 3a35 e0bf 5886 72a7 5bc2 f1bf
000000f0: 0e13 eeea 3aa3 e23f ee85 6fa2 8dcf e93f
00000100: 4aa8 cec6 3f26 d13f fbc4 1fe4 9472 dbbf
00000110: f7bf 715a 00d4 a1bf c3ab 9b70 0e28 d93f
00000120: 92d0 eadb 6582 ef3f 091c 1d3a 736a fdbf
00000130: 9f98 9a19 ca33 f2bf 113a 3068 23b5 ddbf
00000140: 011c 10ce 1a83 d43f 5f9b 96e7 066b d63f
00000150: 16c0 6ecb 6f34 d5bf 4bf1 bfc4 0b34 dabf
00000160: 1444 c51d 3105 f2bf bc84 9506 c8cc d23f
00000170: 012a 342d c224 923f ce1a 1066 9165 efbf
00000180: c722 1193 c4aa cbbf 6e2b bfae f28f efbf
00000190: aa77 cec5 837e f3bf 45de 7053 d86e e63f
000001a0: 30f6 cd49 fcf6 da3f dc70 2ed1 2cb8 e43f
000001b0: e12d 57e5 17c8 ccbf fd59 332f d46a f53f
000001c0: 63dd 2345 81f8 ef3f d48c ede5 3759 df3f
000001d0: e663 5354 2380 d3bf c041 c130 b25a e33f
000001e0: 6a4f 1f54 ace9 c1bf 312b 28ee a727 f13f
000001f0: bf54 df72 a3f4 f43f c232 da73 384d e13f
00000200: 624f 0e71 aa09 d1bf 1a7a b76e 1a60 af3f
00000210: b982 afec 550a dcbf 558e 5617 2f6f 95bf
00000220: ff0a 4e48 5fef e23f 3a06 84da acd2 d73f
00000230: eb73 ad3e 19cc d3bf f8b4 0237 905a d2bf
00000240: 3cd2 d2c0 9ef7 f1bf c3e6 2910 040b eebf
00000250: 563f 15ba 5b5f eebf 9494 bf57 0682 e43f
00000260: 5900 67e4 b8ce c53f d917 3812 23fe d7bf
00000270: 17ae 6235 e0e5 d1bf 22c7 daf7 ae38 ec3f
00000280: ad5b 78bf 22d7 d63f 549b 45e6 f5dc b9bf
00000290: 854e cdce 3297 e43f 40f7 b2ec 0759 f23f
000002a0: 96d3 720f 6aa6 de3f dfa4 eaa5 d010 ccbf
000002b0: 39ce 18b6 b796 b0bf 8b5e adf5 3414 f2bf
000002c0: 1194 18b1 efd1 da3f 70c1 a901 41d9 de3f
000002d0: db57 2787 98fa d4bf c3c3 b03a c9ac d4bf
000002e0: a299 78d9 8b2a cabf cbc1 b324 1a19 e1bf
000002f0: 1c71 6f72 7897 dabf 64b3 272d 09a6 e4bf
00000300: f49a 6e31 45cf e4bf 0b79 390f e594 c03f
00000310: 2023 dd19 af50 f53f 39a6 4072 4c0c d1bf
00000320: d986 b403 3193 f33f e0d1 a77a 5123 f2bf
00000330: 52d8 eb7c 641b d63f 63c8 9af1 657c d13f
00000340: 72a2 b488 d91c f03f e4c3 7eeb 516d d8bf
00000350: 5776 e886 bbdc f4bf c56c db36 9262 b43f
00000360: 9892 7d08 2921 f1bf c250 1788 3807 e13f
00000370: 6856 5e5d a0d0 e53f a6d4 15b1 b443 913f
00000380: 75b0 5573 adbd e63f e2a6 21fb 1487 debf
00000390: 6684 ae2a 9cf5 e5bf f47a e8e1 f2d8 e23f
000003a0: 2e74 82f4 43b0 f1bf 66f5 3b0c 3f31 dcbf
000003b0: 3fda 2f46 378f bdbf 9c2b 8022 26d9 e33f
000003c0: 785b 1d6b a863 723f 2036 1e61 9277 f23f
000003d0: b7c0 1669 ef77 e13f c165 3a8e f645 f33f
000003e0: 08ef 1d05 a0d8 e73f 2c81 8b91 c673 ef3f
000003f0: ec6c 6319 096c e33f f82e 753c 63f0 b43f

layers.1.weight f8 [100, 128]
-0.05261163714031112 0.043856121655677295 -0.029926756151661363 -0.10077144523351601 0.11771097105306962 0.011609530330007922 -0.07807138586432612 -0.11658209205079913
0.10745128367169363 -0.021803165602445232 -0.028990306605892142 0.06789254034174687 0.036173022523290306 0.07249015589309463 0.041345516978161814 0.03987335686474679
-0.05389313441173228 0.058285895671782294 -0.022013075877405325 -0.21299609077307166 -0.04469412435236504 -0.03689040922194189 -0.1154258196263856 0.12897540667326543
0.09611236629514786 -0.0007657200841097988 0.13882611993037086 0.06027652599511887 -0.013207390231469324 -0.11909350886588499 -0.07592372575267536 -0.08988760960106125
-0.06497843826016647 0.006617160977586743 0.10485443172994967 0.16256778756524223 0.012869283794161362 0.02024312924587026 0.06275447785614999 -0.013811157333784697
-0.06914811773190323 0.19957889917162275 -0.15854670275893248 -0.004453888434471127 -0.07492804880345505 0.24567576320317652 -0.06401833694620979 0.2538581116848433
-0.1606626484328763 0.04542385205622159 0.004098740054795778 0.065691197496429 -0.052622143637189846 0.02231323043732208 -0.03938313980753685 -0.024995145939501848
0.0014944175051989097 -0.10723472442074178 0.057431398240811594 -0.06696404914777125 0.12455815018399712 -0.010363580525615418 -0.10329083238054085 0.033828643487628096
-0.06636911288641631 0.003849525822312353 -0.020389505632734985 0.06880610926337115 0.029502876219844067 -0.12346771539475815 -0.19807975877322698 0.1267707866559948
0.07123598806838978 0.07499631357540247 0.015127494904675787 0.02568958381304476 -0.019811332985368434 0.09344081938808106 0.010312540507794357 -0.05019315736168855
-0.11929139586717351 -0.1619412965507035 -0.12663922487252965 -0.06347844103397901 0.1622381354691993 -0.07635864617434601 0.20448360579176736 -0.021897409205367303
0.08743293460618463 -0.1421464600493251 0.06829993284494115 -0.028418313038891974 -0.06366031645204263 0.021993889662307486 -0.08507204888497459 -0.02013461513703776
0.00561683948791497 -0.0668264385135461 4.1316369605897146e-05 -0.07393492753360609 -0.0678335546046234 0.08152719847645275 -0.13859041304037886 -0.023419178003850818
0.012120467180666497 -0.10410066011621023 -0.012639404391815889 0.030033241299651646 0.14725887048301492 0.06827356942504025 -0.023893465531577417 0.024727886956731778
0.022708227896539302 -0.03422291863720732 -0.07182422380259265 -0.021329059512159715 -0.07125987301576475 -0.06258576838030254 0.05012818033900747 -0.07794400488395752
-0.022298110675928105 -0.028947780478552898 0.14291368541257327 0.03447322253576388 -0.11651298390019649 -0.03753998710956816 0.1231876050696159 0.1419209805821952
0.08332216827381721 0.5756456553572709 -0.06947655650379213 0.4547576171478888 -0.9162581181733727 0.23221326605776607 -0.6629383532813852 -0.5792209172347688
0.21810923560745404 -0.2410228173469269 0.04968034199067593 0.20094981289352432 0.7427185877303076 0.3547318892784248 0.2474234394811637 -0.2338049141156903
0.17560893386576537 0.6686291911973312 -0.46480072056395033 -0.2725285288808262 -0.5542467582407519 0.08413796109292776 -0.1470425797616333 -0.5239230032141008
-0.229818555327397 0.8068996528072314 0.22227534377492353 -0.07719315154401107 0.3951734423821813 0.47028027902187663 -0.23564280886652378 -0.29097639519769447
-0.7817041109960844 -0.11665531680922772 0.42746634551677165 0.11565297144582977 -0.5590558923997301 0.5010304268720922 1.5722061791809654 0.43070277380163263
-0.4083019290767505 -0.01664599345735165 -0.029096075684613164 -0.10331979298719032 1.0573212288143965 -0.24544191985714076 -0.38764656790441904 0.38635581158275
0.9228432844952495 0.4218530045424083 0.787287081001426 -0.7166022430789246 -0.40289775849907233 0.12841792519093007 -0.2814546984011841 -0.5721579377866448
-0.7132694656830576 0.20045499724590649 0.9766279264662405 -0.6130193284931181 -0.26779357195258574 -0.5663162023590905 -0.8312477101764307 0.10799611822947035
0.5109800871968629 0.7439780258689752 0.21778071781821595 0.08887369828459837 0.7985514928935863 0.026847377565737025 0.289001478990727 0.2311000786045936
0.21125591873174282 0.5425138534768728 0.4474385767513754 0.03826755124654815 -0.06440334643582411 -0.03252494782942466 -0.6284175402113615 -0.2608599152825078
-0.13249180852156248 0.6466100755578496 0.26037115826749335 -1.358513917796945 -0.5966892593650732 -0.39725904232940695 -0.12038955302466678 0.2845914772637387
-0.29950241525520765 -0.3845126295019709 0.5255123999791537 0.22795870827635484 -0.2558748583993456 1.3667410246380727 0.18230113648704133 0.611906002894236
0.603573372173301 -0.01149520387572681 -0.5070089753884304 0.26162720325540295 -0.7061380816587115 0.34692062820105596 0.3496084641599566 -0.15886861185296988
-0.3433420834802574 0.13971326463030306 1.2374629333859881 -0.3429955704252563 1.0492517254832328 -0.4939327966176245 -1.6458408867789627 -0.4522477071954427
-0.6227878440436143 0.11310654585745003 0.4344241199437883 -0.379089271680889 0.4713768026538254 0.17590277447692568 0.24251059558212437 -0.057260758060865814
-0.0037188946320429 -0.6608135788749299 -0.3734693861115996 -0.7980563746536701 -0.12618175248752775 -1.2990372835226374 -0.2525399104313419 -0.9886075807505911
00000000: 1d35 d099 e9ef aabf ed26 7b40 4f74 a63f
00000010: 7479 c99b 1ea5 9ebf 110b a64d 28cc b9bf
00000020: 79a7 0d63 4e22 be3f 13e5 b6c8 bcc6 873f
00000030: d569 0a81 7cfc b3bf 3d4e a8f0 52d8 bdbf
00000040: 0e7c 4865 ed81 bb3f 64db d8ac 9153 96bf
00000050: 12e1 178b a2af 9dbf 7900 69d0 6761 b13f
00000060: 5952 7839 4585 a23f a2c0 d700 b78e b23f
00000070: 42cc 8356 3d2b a53f 8e80 6ed7 476a a43f
00000080: 32fd 8d83 e197 abbf 4bed 741f a6d7 ad3f
00000090: 454a e983 988a 96bf 8fe9 05b6 7443 cbbf
000000a0: 3a62 d5f4 25e2 a6bf 53e1 49ba 4ce3 a2bf
000000b0: 44c9 68e8 8b8c bdbf 6332 d320 4482 c03f
000000c0: c894 faed d19a b83f f5d7 0c5c 5317 49bf
000000d0: f03b 77e6 0dc5 c13f ab26 bb97 90dc ae3f
000000e0: fd9a e0e8 790c 8bbf 48af be85 e97c bebf
000000f0: 8824 19bf bc6f b3bf 415b 8dd7 df02 b7bf
00000100: 28c7 454b 6da2 b0bf 3e8e db9f 981a 7b3f
00000110: a7ec 1e73 bdd7 ba3f b7e6 7c71 05cf c43f
00000120: 23a3 2608 365b 8a3f 86a0 5168 9dba 943f
00000130: 32d9 116e ad10 b03f 0752 8c28 0649 8cbf
00000140: 290d 3de8 b0b3 b1bf 70f7 7426 cd8b c93f
00000150: e97e 9e23 424b c4bf ee49 a892 3d3e 72bf
00000160: 68f7 290f 7c2e b3bf 6051 30ac 4d72 cf3f
00000170: 543d 8777 8163 b0bf 98af e017 363f d03f
00000180: 169e 5afa 9790 c4bf 8362 148e cb41 a73f
00000190: cbaa d727 d7c9 703f 75da e168 23d1 b03f
000001a0: 9d2d ef23 4af1 aabf ef52 fc8b 47d9 963f
000001b0: e36d f9e2 062a a4bf ecc2 79d9 5398 99bf
000001c0: 06f7 ed93 0a7c 583f e8f5 6122 bc73 bbbf
000001d0: b569 6af2 a567 ad3f 23f0 1851 8e24 b1bf
000001e0: fb92 7dfd 0ae3 bf3f dd74 6a3b 8039 85bf
000001f0: 0211 0d9b 4471 babf 6812 e5ea fc51 a13f
00000200: eeca 4ff1 90fd b0bf 08ce 6170 0a89 6f3f
00000210: 7a2f 7f8f fce0 94bf 3f1a 0df5 469d b13f
00000220: e737 0282 0036 9e3f 7479 bb87 949b bfbf
00000230: 361d f772 ad5a c9bf d749 636f 063a c03f
00000240: 954e 0d8f 853c b23f 777d 205a f532 b33f
00000250: 7a81 16ff 29fb 8e3f e0ac 4cc9 5e4e 9a3f
00000260: 869e 0c0d 6c49 94bf bb1c 62cf bceb b73f
00000270: e8d8 c1c1 bd1e 853f 27ef b3e2 eab2 a9bf
00000280: 4f96 f183 e189 bebf 5a4f 470e 7eba c4bf
00000290: 68f1 9bd0 b635 c0bf fef3 3d84 1f40 b0bf
000002a0: 908a 001f 38c4 c43f 44ed 1580 3d8c b3bf
000002b0: 57ce b8cf 842c ca3f dde1 9d41 466c 96bf
000002c0: 2114 ba3a 0162 b63f fdb6 93ee da31 c2bf
000002d0: 2e55 e3b9 1a7c b13f 0029 70b4 b019 9dbf
000002e0: b1eb 36e1 0a4c b0bf f3ea 3ef3 9085 963f
000002f0: 03c2 c323 48c7 b5bf e7de 1f26 2b9e 94bf
00000300: bf05 85de ae01 773f 7980 ec97 891b b1bf
00000310: c5b5 64a6 63a9 053f d0f9 c93f 66ed b2bf
00000320: 6229 9932 8a5d b1bf 91dc 306b f7de b43f
00000330: 6b16 c6a5 54bd c1bf 77c2 806e 32fb 97bf
00000340: fbc2 3991 9dd2 883f 31ee b042 57a6 babf
00000350: 86b7 0724 b0e2 89bf d613 b3b4 08c1 9e3f
00000360: 119e 62f0 60d9 c23f 8f9a dc6b 607a b13f
00000370: 7656 2f54 8777 98bf 3f07 1d67 4452 993f
00000380: adba a960 d340 973f 3615 a498 aa85 a1bf
00000390: b6ef 4a84 1263 b2bf 6895 3cf4 48d7 95bf
000003a0: b0ac 1e48 163e b2bf 2b70 63f4 9e05 b0bf
000003b0: 62fb 539e 66aa a93f 3357 e567 23f4 b3bf
000003c0: f979 76e0 50d5 96bf 70e7 c9a9 7ca4 9dbf
000003d0: 0ab9 7fe2 fe4a c23f cdf6 c166 79a6 a13f
000003e0: d824 697f cbd3 bdbf 0c10 dbf1 7038 a3bf
000003f0: a0eb 0b0f 3989 bf3f 6ebf 1b79 772a c23f
00000400: 0f92 c403 9a54 b53f c401 fb6f b06b e23f
00000410: 77c1 0532 37c9 b1bf db73 50b1 bf1a dd3f
00000420: f2f8 878b fc51 edbf 892d b50f 2ab9 cd3f
00000430: d171 537e ca36 e5bf abd6 154e fa88 e2bf
00000440: 8edd f1e0 00eb cb3f 7923 0cef d5d9 cebf
00000450: de45 35a8 b36f a93f b8eb 4135 b9b8 c93f
00000460: f5da 8dc5 59c4 e73f e824 d361 edb3 d63f
00000470: 7aef 6a3e 92ab cf3f 6daf e2c5 51ed cdbf
00000480: b860 eb81 5a7a c63f b2fd aa0b 6965 e53f
00000490: 83ae 7e85 4bbf ddbf f949 b17f 1b71 d1bf
000004a0: 87db 91b2 63bc e1bf ec09 3fbf 108a b53f
000004b0: 410c 998f 4ad2 c2bf 3fa7 8d2c fac3 e0bf
000004c0: d793 92c5 b16a cdbf fcbe 7e38 1fd2 e93f
000004d0: d437 1cba 8473 cc3f a850 5b2d eec2 b3bf
000004e0: 8fde d18c 854a d93f e292 9674 1219 de3f
000004f0: 2c45 cf26 8b29 cebf 6c0d 5275 5b9f d2bf
00000500: dd0f fc56 b803 e9bf 92a3 9972 1fdd bdbf
00000510: a2a6 88cd 9b5b db3f 1989 0be2 6e9b bd3f
00000520: 21c6 cf2e c9e3 e1bf 06ee 36f6 7008 e03f
00000530: fb6b a2aa c127 f93f 5f91 f15d a290 db3f
00000540: 91d0 116a 9e21 dabf 27f7 08b6 a50b 91bf
00000550: e687 0796 5ccb 9dbf 32d3 e87b 2a73 babf
00000560: 67fd 31aa c9ea f03f b24b 6d0d a46a cfbf
00000570: 8597 e38c 33cf d8bf 4a84 d7b9 0dba d83f
00000580: b5b0 c7a3 ee87 ed3f a9a7 8ebe a3ff da3f
00000590: 97dc 2ead 7431 e93f 8574 c8d3 67ee e6bf
000005a0: 79a7 18ae 13c9 d9bf e725 75a2 ff6f c03f
000005b0: 8012 3c91 5a03 d2bf 1a18 de29 1e4f e2bf
000005c0: 1603 8b7c 1ad3 e6bf 12d7 be64 82a8 c93f
000005d0: aa0c 9135 8940 ef3f cd33 f6b5 da9d e3bf
000005e0: 5d62 67a6 8723 d1bf 8578 0a28 431f e2bf
000005f0: 1fa5 42cc 9499 eabf 6bf9 e333 a2a5 bb3f
00000600: 3f5e 6de9 f259 e03f b498 4101 abce e73f
00000610: 2444 5d12 3de0 cb3f 325f 9b3b 6dc0 b63f
00000620: 39cc 44dc bb8d e93f 1248 8302 e17d 9b3f
00000630: 01b1 300f 007f d23f 61d9 daf7 af94 cd3f
00000640: c606 0517 6f0a cb3f 60ec 4903 465c e13f
00000650: 9d6b 8769 d5a2 dc3f f32f 34f2 cd97 a33f
00000660: e7df b1da bc7c b0bf 3785 7626 1ca7 a0bf
00000670: 1719 ee19 ff1b e4bf e571 3ec9 edb1 d0bf
00000680: bf43 4bd8 7df5 c0bf 271f f99c 07b1 e43f
00000690: 4e27 65ca eba9 d03f 5294 0117 79bc f5bf
000006a0: 521e db12 1418 e3bf d515 b630 b16c d9bf
000006b0: 5e60 0589 d9d1 bebf 825b e42b bf36 d23f
000006c0: 3306 a62d 0c2b d3bf 1709 27dc da9b d8bf
000006d0: a7b1 7161 ffd0 e03f 1a53 713e c02d cd3f
000006e0: 8d67 2cf1 4060 d0bf bac0 2ed6 2bde f53f
000006f0: 0a24 9ec5 a455 c73f b604 d5e5 bb94 e33f
00000700: 8010 c71a 7950 e33f 9223 a825 cc8a 87bf
00000710: 004c 02e3 6a39 e0bf 2775 6e06 80be d03f
00000720: 24e6 e5e3 ae98 e6bf 989a 1b94 f233 d63f
00000730: 0032 fe2d fc5f d63f 797c 2282 ce55 c4bf
00000740: 64d8 f812 51f9 d5bf 23c8 33cf 1fe2 c13f
00000750: 117b ceee a5cc f33f cc8e 69b1 a3f3 d5bf
00000760: 898d 632d bcc9 f03f c33f f94d 989c dfbf
00000770: 1f2a f240 5d55 fabf 341b 065e a0f1 dcbf
00000780: 0070 d0c5 e0ed e3bf 7ed8 6bf3 8cf4 bc3f
00000790: 4323 f0d2 9acd db3f 7291 08a6 ff42 d8bf
000007a0: 4070 df9b 092b de3f 37b8 d36b fb83 c63f
000007b0: e3b6 7a52 960a cf3f 6d61 6e36 4851 adbf
000007c0: 16f5 4c5a 1677 6ebf 44a8 c084 6225 e5bf
000007d0: 5f04 da23 ece6 d7bf 0b0f b085 ad89 e9bf
000007e0: 5198 2442 b926 c0bf 033b 9051 dbc8 f4bf
000007f0: 4731 0f28 9d29 d0bf d3d8 7c5d aca2 efbf

layers.1.bias f8 [100]
-0.03636383923614654 -0.05507059536934488 0.011226261151135515 -0.09952228875063805 -0.011185868587051674 0.5319014061625804 -0.033041204846685865 -0.05440478575246137
0.10260822234750272 0.06793534604401383 0.020267703097701904 -0.1519112600562713 -0.04507662912519137 0.029951257543093194 -0.09550609459553552 -0.03248646679877796
0.03783783407903557 -0.21532487263372485 0.0032763306967693137 -0.07413799050943039 0.030761620733378202 -0.14810426143566904 0.14456555490006007 0.07084712711005661
0.0013030091799353131 0.011875468744811208 -0.14914364025677987 0.025749917044177544 0.010598972589068863 0.14217097120287917 0.05265201213785272 -0.053050515962139846
-0.031771615128648206 0.04949527781160673 0.02909824824730802 -0.16219975376466206 -0.08923315049351771 -0.11696606379561553 0.11246009089271597 -0.3643987657984333
-0.010432359250778152 0.021962989181487452 0.032181579274257535 -0.01833743892683537 -0.08974388036758574 -0.13317526141389344 0.031555087938633805 -0.12023017176679285
0.03793037874762099 -0.06774953679019151 0.044754817887252336 -0.0011966361590955532 -0.013904887187835807 0.021982037892643694 -0.03491304090582372 -0.009921244580744643
0.26956736596294084 0.06411719820862394 -0.11614309379178211 0.028659314283905276 -0.022792725394804748 -0.08123095821343708 0.024666761613255848 0.02796745910874111
0.14851007362401972 -0.007286707165595707 0.043939968752189404 0.394855831655514 0.10605381461876094 -0.182802469552457 0.12934370452868138 -0.09088108315863562
-0.011289080679664044 -0.04499315097928047 -0.2774048204430698 0.12238989958742173 0.16747361769021188 0.05047523330742708 -0.04951909440519491 -0.00504312322451656
0.055059838999890996 -0.05774901166880637 0.5520139383566717 0.37968151702351344 -0.13124505088551805 -0.0763891544986852 -0.10092165890212834 0.14632665140877685
-0.0470818061618284 0.2234182344695404 -0.10518320527791332 -0.04617050019557439 0.27078944051819037 0.022897441491170272 0.08217045262630773 0.0019447204816119665
-0.11132626534562477 0.0028366696533018367 -0.004242323666717785 0.06347143765844708
00000000: c670 8df8 479e a2bf 9f48 2a8c 3632 acbf
00000010: e4fc 0044 cbfd 863f 0735 68ef 4a7a b9bf
00000020: a1e6 11de 9de8 86bf 3045 0519 5605 e13f
00000030: d651 79dc c6ea a0bf 96fc 1aaf f1da abbf
00000040: 2481 484f 8844 ba3f 2661 80f9 3564 b13f
00000050: 89f0 e087 0ec1 943f b0fc ea02 d471 c3bf
00000060: 3d30 d0af 4814 a7bf 1194 7cde 8aab 9e3f
00000070: 1244 db60 1673 b8bf 0d3b edf0 10a2 a0bf
00000080: 6884 d707 7b5f a33f 5615 fdf2 c38f cbbf
00000090: 9931 31a6 f6d6 6a3f c110 a114 b5fa b2bf
000000a0: a656 166c f97f 9f3f edd8 a197 14f5 c2bf
000000b0: bc40 36c5 1f81 c23f 1208 f48d 0923 b23f
000000c0: 0c04 1c74 3759 553f ddae 116f 2a52 883f
000000d0: c995 a788 2317 c3bf cb5c 51ae 2f5e 9a3f
000000e0: 5148 2105 eab4 853f e1e2 e08b a832 c23f
000000f0: 8bbe 665c 34f5 aa3f 32c7 2fee 6f29 abbf
00000100: 5c58 d67f 5e44 a0bf e8ba 03ef 7157 a93f
00000110: a64f 5f62 eecb 9d3f 3253 eb26 f6c2 c4bf
00000120: 5cb5 16d7 fbd7 b6bf fc77 beea 7cf1 bdbf
00000130: 7c49 7d3c 2fca bc3f 73a6 7333 4f52 d7bf
00000140: d1ef 6a8e 8f5d 85bf 480e 0741 777d 963f
00000150: 8a7b 089d 1a7a a03f 40c0 eeb1 0cc7 92bf
00000160: 18e6 3177 74f9 b6bf 9757 3410 e30b c1bf
00000170: 4e0b 700d fd27 a03f 3018 bb8f 67c7 bebf
00000180: f5e9 7d50 9c6b a33f e340 d59c 0858 b1bf
00000190: 0110 547e 1aea a63f 2e23 c94a 0e9b 53bf
000001a0: 1083 cf5d 2a7a 8cbf 91b2 6497 7582 963f
000001b0: d3f1 c941 1fe0 a1bf 904e 14e8 9651 84bf
000001c0: ea4c 387b 9740 d13f f0cc 6a15 fc69 b03f
000001d0: 68f1 7dc5 8dbb bdbf 6ff6 4c06 de58 9d3f
000001e0: 2d2c a1e8 f956 97bf 790f f354 8dcb b4bf
000001f0: f969 b559 3e42 993f 83a4 e568 80a3 9c3f
00000200: 61bd abca 6002 c33f c056 8c8f aad8 7dbf
00000210: ee4a 8eb1 4c7f a63f a119 e664 5145 d93f
00000220: f753 67c1 5726 bb3f 1e8c 2d42 1266 c7bf
00000230: 4874 72a2 558e c03f 27cc fd8f fb43 b7bf
00000240: 3a89 91c2 ba1e 87bf 0000 00a0 5709 a7bf
00000250: 3291 e325 00c1 d1bf 0fb5 16c8 f154 bf3f
00000260: d90c 7687 c66f c53f ee71 a0c8 e3d7 a93f
00000270: 07e6 fe15 915a a9bf 469c 1a15 19a8 74bf
00000280: 93b5 a79f cd30 ac3f 59d9 fc48 4791 adbf
00000290: b5b2 8522 19aa e13f ffbe a0b4 b34c d83f
000002a0: 0757 a848 a3cc c0bf 1f48 5758 3d8e b3bf
000002b0: 5855 7178 00d6 b9bf dfbc 2aeb d4ba c23f
000002c0: 8a40 6743 1b1b a8bf e238 30fd f798 cc3f
000002d0: cdd0 c15a 49ed babf 4889 c2e8 a8a3 a7bf
000002e0: 4d2d c83b 9d54 d13f 0b73 7749 6d72 973f
000002f0: 083e ba6e 1f09 b53f b29d 93b7 bfdc 5f3f
00000300: 0b64 d8cc e07f bcbf b1de 7e6c ed3c 673f
00000310: 4187 8516 6660 71bf 3f1f f904 aa3f b03f

layers.3.weight f8 [100]
0.9585791219843217 1.3255325191214793 0.9707484951262799 0.9541050485355331 0.9927637311632865 0.7643107725437277 1.0533905940630752 0.6290187026044017
1.0495925971203197 0.9141314373126468 1.0044026926067504 1.2545452207431742 0.9733021456368913 0.9748362752011474 0.9629807561724211 1.278605783793795
0.9707215414183399 1.102642637097582 0.8923416674620634 1.0768549045851132 0.9431470414518246 0.46045081225520534 0.6855488968068156 0.986127593843075
0.9778552075365939 0.9330370933332028 0.8522793694649082 1.481193226511219 0.8928882711676838 0.8322601934954634 0.9667202013015427 0.6275941871246241
0.9191529948088654 0.7157727274276925 0.9269987669769766 0.9662545844695786 1.1434267997487324 0.9627756102354453 1.0139264681460296 1.4108317311977099
0.8184473995035075 0.9620014684890321 1.007783037411635 0.9545579281522034 1.0458595668853468 0.666809556333793 0.9682565535343075 0.16775970029371362
0.9991701708630585 0.991747663268878 0.8853250804717953 1.0296718555954785 1.04224484993052 0.9536192253608313 0.9838803230218556 1.0463138375461778
1.8257950818967446 1.0041549935631182 0.8565107331243151 0.8481547186647151 1.0882559588319658 0.9710243653522314 0.9659661801766597 0.9671447008539699
0.7946957925813873 0.7456818081328613 0.5856039171663862 1.3166113294356323 1.1283994045430192 1.3482306115785148 0.3553990194522657 1.0356320162710195
0.9276574743729717 1.0 1.047794758816504 0.5375133662041802 1.4171408707750255 0.4649518459677333 0.9683932314783725 0.9259370611657265
0.4579171095534118 1.0084337114972657 1.5200334097693826 1.5879258723452558 0.9571925416488808 0.8791282934393516 1.101932383307117 0.7547295923963014
0.7745643241298612 1.4981847656808394 1.0096538152315595 1.0070319204191345 1.3426196788726419 0.9549859972350387 0.9076737390314041 0.9435543244266273
1.1774892340708198 0.17036383258350002 1.2878239213111506 0.9092540378124941
00000000: 41a2 711f aeac ee3f 7994 3696 6135 f53f
00000010: c0ac e625 5f10 ef3f 5013 8d4f 0788 ee3f
00000020: 410a c071 b8c4 ef3f 28c9 81dd 3b75 e83f
00000030: 83a3 7618 b0da f03f a143 88d4 eb20 e43f
00000040: 6f16 6c9b 21cb f03f f81a 7092 9040 ed3f
00000050: 542a cc8e 0812 f03f dc1e 6702 9e12 f43f
00000060: f062 948a 4a25 ef3f 3330 1ed8 db31 ef3f
00000070: 4403 ce04 bdd0 ee3f c8ee 9d56 2b75 f43f
00000080: 6a43 3d9f 2610 ef3f 2326 189b 6ca4 f13f
00000090: 0872 d31c 108e ec3f 27af 5b35 cc3a f13f
000000a0: 0e5a 4bb4 422e ee3f 2460 03af 0678 dd3f
000000b0: 4b03 733d 04f0 e53f 59a7 a774 5b8e ef3f
000000c0: 8ff9 1201 974a ef3f ae45 3a9b 70db ed3f
000000d0: 7408 5d62 df45 eb3f 2dc2 2eab f7b2 f73f
000000e0: b6b5 746c 8a92 ec3f b46b 1a21 e0a1 ea3f
000000f0: 0d20 1f34 5fef ee3f d584 9b67 4015 e43f
00000100: 632f 978a b369 ed3f 0f76 f534 9ce7 e63f
00000110: 6a26 7351 f9a9 ed3f 6705 fdbb 8eeb ee3f
00000120: e6a6 64e6 794b f23f 3320 ebcb 0ecf ee3f
00000130: 96c6 d3f5 0a39 f03f 9e73 1a4b c492 f63f
00000140: 58a4 cb99 b830 ea3f e6a8 bb4d b7c8 ee3f
00000150: 2258 321b e11f f03f b0a3 7111 bd8b ee3f
00000160: 5cb3 bf3d d7bb f03f 28a5 a3fe 8056 e53f
00000170: 2829 f22a f5fb ee3f d693 2c5d 2679 c53f
00000180: b2db dfb8 33f9 ef3f def9 7398 65bc ef3f
00000190: c78e 5e43 9554 ec3f b44e 1632 8979 f03f
000001a0: 2404 8eef 08ad f03f 3a5f 3877 0c84 ee3f
000001b0: 30d1 5196 f27b ef3f 38cf 1994 b3bd f03f
000001c0: 471b 5fe7 7436 fd3f ba7f 97d3 0411 f03f
000001d0: 3024 6e32 8968 eb3f f69d 535d 1524 eb3f
000001e0: 43c4 8d14 7f69 f13f dbd2 99b0 a112 ef3f
000001f0: 54d3 1ce8 31e9 ee3f 315c 9571 d9f2 ee3f
00000200: cafc ecde 256e e93f a0e3 6418 a0dc e73f
00000210: af73 146d 44bd e23f 8781 970a d710 f53f
00000220: 0769 b588 ec0d f23f ff21 0343 5a92 f53f
00000230: 1efd 6487 dbbe d63f 6f31 89e0 f291 f03f
00000240: c64c 4aba 5eaf ed3f 0000 0000 0000 f03f
00000250: ee97 e06f c4c3 f03f 7e50 203b 4f33 e13f
00000260: f1db dce7 9bac f63f 105c 2963 c5c1 dd3f
00000270: 7ac1 5bcd 13fd ee3f 848e 7bc2 46a1 ed3f
00000280: 60e3 7390 834e dd3f d408 3163 8b22 f03f
00000290: 0097 7c8d 0e52 f83f 501f a3f5 2468 f93f
000002a0: 0b6d cb40 52a1 ee3f 08ee a9a8 d121 ec3f
000002b0: 8751 cbd9 83a1 f13f fb4b 95ac be26 e83f
000002c0: b627 191f 3bc9 e83f 1e6f bf96 90f8 f73f
000002d0: 0338 4bc2 8a27 f03f f1a6 c380 cd1c f03f
000002e0: 9595 bbc5 5e7b f53f e465 48cb 3e8f ee3f
000002f0: 517e 12cc a90b ed3f f62c add6 9831 ee3f
00000300: c39e 7bf3 fed6 f23f 6205 af68 7bce c53f
00000310: 1d9b 9041 ed9a f43f b723 85ec 9b18 ed3f

layers.3.bias f8 [100]
-0.020068307367916996 0.5505579546231011 -0.03283858413223724 0.11759990028943372 0.046334131297802235 -0.5795352352476517 -0.00040921664891936725 -0.174921729242126
0.1645646603493506 0.025957013544990568 -0.10699774235574051 -0.031339002585156046 0.2950206868491596 0.07614669881310983 -0.007194258878933464 0.780652482969786
-0.01809630057076586 -0.05113465944175772 0.2911005660827075 -0.23188500190404332 -0.35856385205877833 -0.33046561522313717 -0.4406050591132148 0.06789713743364921
0.20202038175310424 0.03895553669540144 0.06301645180695895 0.5454462897459676 1.0926903144016862 0.13108710218238398 -0.4693697245288865 0.5868868437378479
-0.020563952415776198 0.08007348427337514 -0.1189796261464601 -0.17775249126682696 0.24127183188646809 0.24050284208632886 -0.06864903212665882 0.6143872923523185
0.05101144252390409 -0.10350087945797201 0.021368673787081308 -0.029993847632322282 -0.27993072334503905 -0.3429183448732428 -0.0327458116089145 -0.2424151915175287
0.0882762732217487 -0.009796805606090152 0.10813912609689563 -0.3050869824223447 0.054855176672675025 0.10641711185795923 0.06448388179991352 0.02297469024473607
0.4773413926039157 -0.04953985768420739 0.049932031204929915 -0.04691248218723309 -0.23350808660993513 -0.017604734429275584 0.05138911221951909 -0.26083233061074007
-0.5573513964882584 0.14372854921745815 -0.06316932307368402 0.9630147182028745 -0.20875548642898623 -0.129092147243924 -0.3542211115963084 -0.07967833624865447
0.032990863072992094 -0.16900021186611905 -0.4073919264269455 0.23322965988365305 -0.7192509969782747 -0.5197996184961047 0.052466052440422094 0.12338623531067468
0.08010243127473442 -0.0710559852485686 0.2902091922870415 -0.7233346531875902 0.0645255027913647 -0.03991675872870881 -0.02753465706181931 0.38009515478593875
-0.024269344477131253 -0.3677366589983779 -0.046653011499700296 -0.33060406435235923 -0.13300454678256313 -0.05261154177851402 -0.6623118291909267 0.022668116224052216
-0.46876827692543327 0.5118812995562932 -0.17853692986467043 0.04111050394719111
00000000: e43a 534f c98c 94bf 7915 35b7 2b9e e13f
00000010: ca30 ca09 38d0 a0bf d387 c1ed 061b be3f
00000020: b9aa 3975 1bb9 a73f 2a96 487a 8d8b e2bf
00000030: 0c31 c41f 84d1 3abf 8c33 3ad1 d563 c6bf
00000040: 3d8f 236d 7410 c53f 9c39 1cb1 7994 9a3f
00000050: d5ea 293c 3464 bbbf f98f 626e aa0b a0bf
00000060: 3c47 6a72 9ee1 d23f 6dc5 199d 597e b33f
00000070: a1e3 a929 ba77 7dbf 89af 7cea 1afb e83f
00000080: 6825 852c d687 92bf 2928 fd73 522e aabf
00000090: 3807 cb44 64a1 d23f 822d ce61 68ae cdbf
000000a0: efb1 87cc b5f2 d6bf 497f 7540 5926 d5bf
000000b0: 56fa d58f df32 dcbf 9f00 c5f0 b461 b13f
000000c0: 6da4 60ca cddb c93f 73b2 35e8 faf1 a33f
000000d0: f2ef 9e9f d821 b03f ffde 05c7 4b74 e13f
000000e0: e02d d0d6 a87b f13f f57e 6650 76c7 c03f
000000f0: d661 2550 270a debf a5d0 09eb c6c7 e23f
00000100: 93b6 687c b70e 95bf 591d 3b24 b27f b43f
00000110: 6a79 30e3 7275 bebf 9a03 63f8 97c0 c6bf
00000120: 75fe b2d1 fee1 ce3f ff8b ad10 ccc8 ce3f
00000130: 5ed4 e2a3 fb92 b1bf fb65 f789 0fa9 e33f
00000140: be51 b9fa 2b1e aa3f 1615 619c 087f babf
00000150: 4431 4c6c abe1 953f 84eb a50a b5b6 9ebf
00000160: 7d67 7a8d 62ea d1bf 2e75 1bc9 5ff2 d5bf
00000170: 7aed e11b 0fc4 a0bf cd88 cf03 7607 cfbf
00000180: 390b 801a 4699 b63f 66a8 77fd 5810 84bf
00000190: 6412 017a 01af bb3f 731d fc8c 8b86 d3bf
000001a0: 3fa0 a64b fa15 ac3f 592a 2adf 263e bb3f
000001b0: 5a23 7303 0482 b03f 7c8e f25c ad86 973f
000001c0: d2b2 90e9 c28c de3f fa4e 34c9 495d a9bf
000001d0: cb96 18f2 b090 a93f ff64 89b1 e904 a8bf
000001e0: abac abcd 97e3 cdbf 8496 83ba f906 92bf
000001f0: d9e4 b478 ac4f aa3f 0c9b 6d16 7ab1 d0bf
00000200: 0481 8998 d2d5 e1bf 34fc 3175 b265 c23f
00000210: 1d41 b660 dd2b b0bf a2ef 073e 04d1 ee3f
00000220: 485a 89f1 7fb8 cabf 0ba2 4a6b 1786 c0bf
00000230: 66f8 7606 8fab d6bf d63d 63a8 cc65 b4bf
00000240: c83d eeab 2de4 a03f e5b3 7d87 cca1 c5bf
00000250: 711f 2a96 b512 dabf bb28 d430 78da cd3f
00000260: ff62 b4aa 1a04 e7bf de3f 3dcf 32a2 e0bf
00000270: bb7f c396 d4dc aa3f ad97 6f85 3d96 bf3f
00000280: cbb2 a7ca 9781 b43f 90e1 d39c b930 b2bf
00000290: 53c5 7793 c992 d23f 6c22 f0b6 8e25 e7bf
000002a0: bf32 3f4c be84 b03f 60b0 9a2a f86f a4bf
000002b0: f62d 598e 0b32 9cbf 531d cba0 7a53 d83f
000002c0: a16d 4c23 10da 98bf b70d fc56 ff88 d7bf
000002d0: 3760 4d4d e7e2 a7bf 225b 14f3 9d28 d5bf
000002e0: a840 5301 4b06 c1bf e165 a966 e6ef aabf
000002f0: 8220 c493 a831 e5bf 2a7e 6087 4f36 973f
00000300: 2b02 b3a8 4c00 debf 7fe7 20e4 5461 e03f
00000310: 11d1 7251 4cda c6bf e655 f39b 6f0c a53f

layers.3.running_mean f8 [100]
2.5e-323 5.919932563522072e-183 2.5e-323 2.5e-323 2.5e-323 113.5632064962376 2.5e-323 2.5e-323
193.23045301327983 2.5e-323 2.5e-323 2.5e-323 2.5e-323 2.5e-323 2.5e-323 179.07209971968666
2.5e-323 2.5e-323 2.5e-323 2.5e-323 2.5e-323 2.5e-323 2.5e-323 2.5e-323
2.5e-323 2.5e-323 2.5e-323 216.99784931943915 112.77204817168818 144.23436705613847 2.5e-323 2.5e-323
2.5e-323 2.5e-323 2.5e-323 2.5e-323 2.5e-323 2.5e-323 2.5e-323 2.5e-323
2.5e-323 2.5e-323 2.5e-323 2.5e-323 2.5e-323 2.5e-323 2.5e-323 2.5e-323
2.5e-323 2.5e-323 2.5e-323 2.5e-323 2.5e-323 2.5e-323 2.5e-323 2.5e-323
83.32489847666213 2.5e-323 2.5e-323 2.5e-323 2.5e-323 2.5e-323 2.5e-323 2.5e-323
158.84869082660524 205.64017067492242 198.69919414889506 149.3028260708175 2.5e-323 2.5e-323 80.62121287379719 2.5e-323
2.5e-323 0.0 2.5e-323 2.5e-323 137.6140133007713 2.5e-323 2.5e-323 2.5e-323
214.00336043155335 2.5e-323 112.82129070568612 159.1294718489305 2.5e-323 2.5e-323 2.5e-323 2.5e-323
2.5e-323 71.90463841192928 2.5e-323 2.5e-323 107.53122688673497 2.5e-323 68.38167009588034 2.5e-323
2.5e-323 13.810111947985979 243.72655814846675 2.5e-323
00000000: 0500 0000 0000 0000 ed96 b555 8727 191a
00000010: 0500 0000 0000 0000 0500 0000 0000 0000
00000020: 0500 0000 0000 0000 0e8f 4293 0b64 5c40
00000030: 0500 0000 0000 0000 0500 0000 0000 0000
00000040: a669 ffde 5f27 6840 0500 0000 0000 0000
00000050: 0500 0000 0000 0000 0500 0000 0000 0000
00000060: 0500 0000 0000 0000 0500 0000 0000 0000
00000070: 0500 0000 0000 0000 5c43 12a4 4e62 6640
00000080: 0500 0000 0000 0000 0500 0000 0000 0000
00000090: 0500 0000 0000 0000 0500 0000 0000 0000
000000a0: 0500 0000 0000 0000 0500 0000 0000 0000
000000b0: 0500 0000 0000 0000 0500 0000 0000 0000
000000c0: 0500 0000 0000 0000 0500 0000 0000 0000
000000d0: 0500 0000 0000 0000 772a b261 ee1f 6b40
000000e0: 9715 bc3c 6931 5c40 fc2b 57ef 7f07 6240
000000f0: 0500 0000 0000 0000 0500 0000 0000 0000
00000100: 0500 0000 0000 0000 0500 0000 0000 0000
00000110: 0500 0000 0000 0000 0500 0000 0000 0000
00000120: 0500 0000 0000 0000 0500 0000 0000 0000
00000130: 0500 0000 0000 0000 0500 0000 0000 0000
00000140: 0500 0000 0000 0000 0500 0000 0000 0000
00000150: 0500 0000 0000 0000 0500 0000 0000 0000
00000160: 0500 0000 0000 0000 0500 0000 0000 0000
00000170: 0500 0000 0000 0000 0500 0000 0000 0000
00000180: 0500 0000 0000 0000 0500 0000 0000 0000
00000190: 0500 0000 0000 0000 0500 0000 0000 0000
000001a0: 0500 0000 0000 0000 0500 0000 0000 0000
000001b0: 0500 0000 0000 0000 0500 0000 0000 0000
000001c0: 2ef2 fa22 cbd4 5440 0500 0000 0000 0000
000001d0: 0500 0000 0000 0000 0500 0000 0000 0000
000001e0: 0500 0000 0000 0000 0500 0000 0000 0000
000001f0: 0500 0000 0000 0000 0500 0000 0000 0000
00000200: e915 aa79 28db 6340 cd14 3647 7cb4 6940
00000210: e261 68cc 5fd6 6840 32d1 4cc0 b0a9 6240
00000220: 0500 0000 0000 0000 0500 0000 0000 0000
00000230: 0a34 a4f3 c127 5440 0500 0000 0000 0000
00000240: 0500 0000 0000 0000 0000 0000 0000 0000
00000250: 0500 0000 0000 0000 0500 0000 0000 0000
00000260: e5c3 38ff a533 6140 0500 0000 0000 0000
00000270: 0500 0000 0000 0000 0500 0000 0000 0000
00000280: e8f3 5587 1bc0 6a40 0500 0000 0000 0000
00000290: 905b e406 9034 5c40 189d 25a2 24e4 6340
000002a0: 0500 0000 0000 0000 0500 0000 0000 0000
000002b0: 0500 0000 0000 0000 0500 0000 0000 0000
000002c0: 0500 0000 0000 0000 447c 8298 e5f9 5140
000002d0: 0500 0000 0000 0000 0500 0000 0000 0000
000002e0: 1652 0e9f ffe1 5a40 0500 0000 0000 0000
000002f0: b4ea 6848 6d18 5140 0500 0000 0000 0000
00000300: 0500 0000 0000 0000 b365 45fe c69e 2b40
00000310: d3c9 dff6 3f77 6e40 0500 0000 0000 0000

layers.3.running_var f8 [100]
2.5e-323 3.049133391567225e-183 2.5e-323 2.5e-323 2.5e-323 423.3139862783446 2.5e-323 2.5e-323
112.32656876810572 2.5e-323 2.5e-323 2.5e-323 2.5e-323 2.5e-323 2.5e-323 89.72744185363358
2.5e-323 2.5e-323 2.5e-323 2.5e-323 2.5e-323 2.5e-323 2.5e-323 2.5e-323
2.5e-323 2.5e-323 2.5e-323 74.71670951720532 101.00743470683835 502.40419833931855 2.5e-323 2.5e-323
2.5e-323 2.5e-323 2.5e-323 2.5e-323 2.5e-323 2.5e-323 2.5e-323 2.5e-323
2.5e-323 2.5e-323 2.5e-323 2.5e-323 2.5e-323 2.5e-323 2.5e-323 2.5e-323
2.5e-323 2.5e-323 2.5e-323 2.5e-323 2.5e-323 2.5e-323 2.5e-323 2.5e-323
87.23274103080087 2.5e-323 2.5e-323 2.5e-323 2.5e-323 2.5e-323 2.5e-323 2.5e-323
76.9452574363516 332.9568795026379 200.70347303016027 72.45990825240742 2.5e-323 2.5e-323 58.99737927760357 2.5e-323
2.5e-323 2.5e-323 2.5e-323 2.5e-323 427.1283567714829 2.5e-323 2.5e-323 2.5e-323
587.6083837288525 2.5e-323 467.7595586642749 185.99286870037187 2.5e-323 2.5e-323 2.5e-323 2.5e-323
2.5e-323 89.64439349820893 2.5e-323 2.5e-323 440.77037886829334 2.5e-323 421.6458721178294 2.5e-323
2.5e-323 130.31063260675052 425.99144186487837 2.5e-323
00000000: 0500 0000 0000 0000 1ce0 91ef 83e9 091a
00000010: 0500 0000 0000 0000 0500 0000 0000 0000
00000020: 0500 0000 0000 0000 20ce 7916 0675 7a40
00000030: 0500 0000 0000 0000 0500 0000 0000 0000
00000040: 2eba b080 e614 5c40 0500 0000 0000 0000
00000050: 0500 0000 0000 0000 0500 0000 0000 0000
00000060: 0500 0000 0000 0000 0500 0000 0000 0000
00000070: 0500 0000 0000 0000 43c6 4668 8e6e 5640
00000080: 0500 0000 0000 0000 0500 0000 0000 0000
00000090: 0500 0000 0000 0000 0500 0000 0000 0000
000000a0: 0500 0000 0000 0000 0500 0000 0000 0000
000000b0: 0500 0000 0000 0000 0500 0000 0000 0000
000000c0: 0500 0000 0000 0000 0500 0000 0000 0000
000000d0: 0500 0000 0000 0000 3e48 9891 dead 5240
000000e0: 78ae 6bcf 7940 5940 8887 ad98 7766 7f40
000000f0: 0500 0000 0000 0000 0500 0000 0000 0000
00000100: 0500 0000 0000 0000 0500 0000 0000 0000
00000110: 0500 0000 0000 0000 0500 0000 0000 0000
00000120: 0500 0000 0000 0000 0500 0000 0000 0000
00000130: 0500 0000 0000 0000 0500 0000 0000 0000
00000140: 0500 0000 0000 0000 0500 0000 0000 0000
00000150: 0500 0000 0000 0000 0500 0000 0000 0000
00000160: 0500 0000 0000 0000 0500 0000 0000 0000
00000170: 0500 0000 0000 0000 0500 0000 0000 0000
00000180: 0500 0000 0000 0000 0500 0000 0000 0000
00000190: 0500 0000 0000 0000 0500 0000 0000 0000
000001a0: 0500 0000 0000 0000 0500 0000 0000 0000
000001b0: 0500 0000 0000 0000 0500 0000 0000 0000
000001c0: 88ee a23a e5ce 5540 0500 0000 0000 0000
000001d0: 0500 0000 0000 0000 0500 0000 0000 0000
000001e0: 0500 0000 0000 0000 0500 0000 0000 0000
000001f0: 0500 0000 0000 0000 0500 0000 0000 0000
00000200: 94db 0b19 7f3c 5340 aea0 e160 4fcf 7440
00000210: 0145 dfd9 8216 6940 06d0 0523 6f1d 5240
00000220: 0500 0000 0000 0000 0500 0000 0000 0000
00000230: fa81 c91f aa7f 4d40 0500 0000 0000 0000
00000240: 0500 0000 0000 0000 0500 0000 0000 0000
00000250: 0500 0000 0000 0000 0500 0000 0000 0000
00000260: d47b d4bf 0db2 7a40 0500 0000 0000 0000
00000270: 0500 0000 0000 0000 0500 0000 0000 0000
00000280: b8d6 49f8 dd5c 8240 0500 0000 0000 0000
00000290: 4467 fc26 273c 7d40 37aa 9494 c53f 6740
000002a0: 0500 0000 0000 0000 0500 0000 0000 0000
000002b0: 0500 0000 0000 0000 0500 0000 0000 0000
000002c0: 0500 0000 0000 0000 fe23 3abe 3d69 5640
000002d0: 0500 0000 0000 0000 0500 0000 0000 0000
000002e0: 97cd ca78 538c 7b40 0500 0000 0000 0000
000002f0: 9c77 007e 555a 7a40 0500 0000 0000 0000
00000300: 0500 0000 0000 0000 12e2 cab3 f049 6040
00000310: 9b18 25f2 dc9f 7a40 0500 0000 0000 0000
