model_policy2_epoch-80.pt (torch, 358754 bytes, 12 tensors)

layers.0.weight f8 [128, 128]
00000000: 3d01 f67f fc20 90bf dcd0 8c95 e1e7 abbf
00000010: 939c 84fd 4860 86bf e638 dcc4 20ee ae3f
00000020: 410d 6c5b 79ba 953f fbef 2613 6aec b7bf
00000030: 2b74 7174 7c01 b23f 27b2 3138 ff34 90bf
00000040: 178f 21c0 8261 91bf 723a ff91 de5f ad3f
00000050: 623c f403 e0ce a3bf 25e7 cf97 cb74 a33f
00000060: e0d8 e21e 4d22 a9bf 4475 cf6c 306e 6f3f
00000070: 7b0c 5f7c ac38 a0bf 72d2 4cce 7141 a1bf
00000080: a970 413e 2a9b 63bf aa2b 7de4 e61c 9cbf
00000090: aa1f 75fd 9a40 a13f c505 b1bb 652d b4bf
000000a0: d155 7437 7e37 adbf 7ecb 9d32 dabe 4bbf
000000b0: cc36 efa0 70dc 99bf 0f0b badd 349b 863f
000000c0: b78f 8f8c dc25 97bf e555 213e 835f b2bf
000000d0: 1cf7 92d9 76b5 ae3f ec66 9558 5fb1 a2bf
000000e0: 79a8 9093 c629 94bf 0357 3495 25cd a73f
000000f0: 3b04 5e5b 0055 ad3f e87e 6adf 3878 abbf
00000100: f037 8f7e 3387 a43f a430 4a18 7ed1 afbf
00000110: c8f3 8d81 3568 b23f b6fd fef5 e8b1 a8bf
00000120: 2b2c 9335 1050 b4bf 7ace 0e1d 4019 863f
00000130: cdfd b2df 94fd acbf 077a 8345 9beb b43f
00000140: da8d b790 2407 a0bf 39bb 8538 f567 ad3f
00000150: 4a99 cdfa aa01 a7bf 8984 260b a71c 80bf
00000160: f903 e171 32e5 6dbf af4c ae92 cc18 b3bf
00000170: b6f1 8a39 09ba b43f b0a3 d011 138e b03f
00000180: e41b a350 0b68 9c3f fc0a 6b12 c675 a8bf
00000190: dfa5 5e95 8a82 b0bf 7041 d326 058d 8abf
000001a0: a601 7217 4fb8 b33f ad81 a7e0 672f aebf
000001b0: 12c0 f5c4 2490 b3bf 76b3 149b 6671 94bf
000001c0: e852 2e03 ec07 adbf 17b2 bbde a33d b43f
000001d0: d9bc fda5 da89 913f 0d15 8496 9cf0 a33f
000001e0: 9c3d 67dc 31cc b2bf 96ca db36 812c 92bf
000001f0: f103 e43a 984e aa3f 31a1 e558 de79 a9bf
00000200: faf8 eb95 ffcc b3bf d79a 5de2 dde2 acbf
00000210: a68e 91f5 ef7b ab3f 2214 cab4 24ec 9e3f
00000220: c00e 1f97 70d1 7ebf 65a9 4165 ad2d 923f
00000230: 4114 2c8f 12fd 79bf 08e3 a19b 8582 a8bf
00000240: 62c9 bf94 6657 b2bf 287e c35f fab6 533f
00000250: b7b3 3b41 b98f 92bf 05bc 1bd0 285c b1bf
00000260: 7824 bf74 c946 973f d98e 13db 4f2a 743f
00000270: 2879 f733 d3df a93f 7e54 b7c3 d6c2 873f
00000280: e7e0 7090 013a b1bf d9f7 f849 2dc4 81bf
00000290: 1c74 487e b0fd a53f c773 9207 2d8d 8d3f
000002a0: c950 6827 81ab b1bf 58a8 a748 8b61 b4bf
000002b0: 4592 4839 32c1 94bf 03f8 378c 70ec 9ebf
000002c0: 272d f4a7 73cc 91bf f24e bba6 0823 9fbf
000002d0: 6e8c 93d4 521e 883f 0d3f e3ed df04 b5bf
000002e0: 514a d519 86ee a03f 9d02 6a02 8da8 a4bf
000002f0: ada4 390d a0f6 a6bf 85df bc16 5dfb aabf
00000300: 991f cb7f 4c20 b3bf c8ca 012a 7c8f ab3f
00000310: 8b79 7e12 d931 a13f b0ff 5f3b 604c b1bf
00000320: 8dc1 42f7 4470 abbf 19a9 3794 7674 b5bf
00000330: 50c8 6504 85ee 913f c4b6 9b45 7db5 b43f
00000340: a738 e72e be43 a73f 7ba3 119a abdd a73f
00000350: 3c76 5748 b592 b03f 1b17 0977 55dc b33f
00000360: de29 13e1 68a8 9ebf 6cf8 f5a7 f8c1 a2bf
00000370: f043 16e9 adbc 82bf 2ad7 ffd8 b56d b3bf
00000380: 7906 be33 473a b03f 8ef7 c80b f48e a8bf
00000390: 7c34 b42c 329d 97bf 6fd3 c211 735c ad3f
000003a0: d922 3811 1d4f b0bf ed4f 3c43 0996 a4bf
000003b0: 1e64 e6cc 2376 a63f c538 ca3d d266 b33f
000003c0: a5b1 95dc aafe 963f 09b0 ebc4 1ff2 80bf
000003d0: f625 a438 a179 b03f 5bce 1ff6 22c0 96bf
000003e0: 856a 1ce5 d43d 85bf 7552 942f 80a1 9b3f
000003f0: 93c7 cef2 a7c6 ab3f 38d6 da3c 9b6b a5bf
00000400: 0d3b 1b9a 1892 adbf 1082 7c71 3dd6 a83f
00000410: 4592 c08a 765b 97bf a890 35f6 bd7f b5bf
00000420: 7fb6 247e 4f94 b23f 8819 be24 c220 b3bf
00000430: c2f7 0d7a 1f8a 8ebf 0d3b 1b6a a283 a2bf
00000440: 7a76 211a 30cd a4bf a933 0f3a 3b92 803f
00000450: f3ec 4214 1d57 9bbf 70db 7eaa 46d9 863f
00000460: 1d49 60d5 973c aabf 8689 dee5 c1cc a43f
00000470: 8589 dec5 692a af3f 0e13 bdcb f089 9c3f
00000480: 9224 b0fa 28e5 b2bf 0d13 bdcb eab9 953f
00000490: 9224 b09a e8a3 b3bf 6cdb 7eea 640c 8d3f
000004a0: 9224 8175 b4df 85bf 1d49 6075 34c5 a3bf
000004b0: e0b6 fd54 54c1 793f 9224 b0da bcd8 b4bf
000004c0: 9224 b0da 6ece b2bf 1d49 6015 ed46 aabf
000004d0: 6edb 4f65 ffdd b13f 0d13 bdab 4dba 923f
000004e0: 7a76 21aa 45c6 a2bf 6cdb 7e6a 6b1b 8d3f
000004f0: 2449 0a5f 5b7a 78bf 9224 b01a 5582 b6bf
00000500: e3b6 9fea 24ff a53f e3b6 9f0a f010 a53f
00000510: 2754 943a 51df b7bf 6edb 4f05 8d85 b43f
00000520: 5ec9 38a5 2e3a b1bf e3b6 9f8a a540 af3f
00000530: bb6d 3f35 f147 913f bb6d 3f95 8966 983f
00000540: 1d49 60f5 d64d afbf 6edb 4fa5 ce48 b03f
00000550: 4392 c00a c9a0 90bf 5292 04f6 8cd5 68bf
00000560: 2449 027f 881f 7bbf a236 c70a 98bd b43f
00000570: e3b6 9fca 49f8 ad3f 9224 b0da 07f7 b7bf
00000580: a236 c72a 7483 b03f 0ad3 e6d8 b91b 613f
00000590: cb92 71ca 28d7 a4bf 5ec9 38d5 206b b4bf
000005a0: 9424 81ad 462c 83bf 6edb 4f25 4819 b43f
000005b0: 366d 8ed5 3496 af3f 5ec9 38f5 4b16 b6bf
000005c0: d9e7 0d78 547a a1bf 71bf 6763 923f b2bf
000005d0: be5e 5deb 13bd 8e3f b2f9 d1a5 4e68 a2bf
000005e0: 0000 00e0 30c4 2bbf 1d49 60d5 d530 acbf
000005f0: e5fd 9e7d 9401 96bf e9f3 06bc 7fda b3bf
00000600: 899d 0dfd 9d08 b2bf 2a04 f9e2 a0aa 903f
00000610: 9224 b05a 9412 b4bf a2ea 4db9 ff6b 6f3f
00000620: 7fb6 247e ab5c b23f 78e6 411b 7333 b23f
00000630: fdbe 4147 978e b0bf f8c4 e4c5 dfc2 af3f
00000640: 7a76 212a a2ec a0bf dc99 07ad e351 963f
00000650: 41bb 10fd 6bd5 b4bf e3b6 9f4a a8c8 a23f
00000660: 4592 c0ea 412b 9ebf bf44 ef62 4065 b33f
00000670: 8689 de45 df9c a23f 41bb 103d bff8 b6bf
00000680: e3b6 9f8a 2643 aa3f 7b76 21ba aece a1bf
00000690: 70db 7e6a 2dd7 863f 9224 b0ba 4f45 b2bf
000006a0: 6edb 4fe5 9701 b33f 1d49 60b5 b7e7 a8bf
000006b0: 4592 c0ea 574b 98bf 1d49 6075 db12 a0bf
000006c0: bc6d 3f15 8b41 9e3f 1d49 6095 6116 aebf
000006d0: 1d49 6035 ef86 a4bf f4d9 8538 064c 86bf
000006e0: 7a76 215a ef6c a7bf e3b6 9f4a f6a1 ad3f
000006f0: 9224 b05a 249e b4bf 6edb 4fe5 0aee b03f
00000700: e3b6 9f2a 5ef4 aa3f 4592 c00a 9055 9fbf
00000710: 40a1 a254 7a1f 8cbf 70db 7eaa 45f8 833f
00000720: 5ec9 3835 f80e b4bf bb6d 3f15 ef6a 953f
00000730: 3d4b c651 6a2b 80bf 6edb 4f05 c33c b23f
00000740: 9224 81fd cff6 83bf 6edb 4f85 bf83 b33f
00000750: 2449 0247 2600 7abf 9224 b03a 2e45 b0bf
00000760: 9c92 24b0 a258 3dbf cb92 716a fb43 aabf
00000770: 9224 81b5 259e 81bf 9224 b05a 8dc4 b7bf
00000780: 8396 8c9e 7b3f 78bf 356d 8e15 a307 a53f
00000790: 0ad3 e658 e601 603f 3c4b c679 cbe9 88bf
000007a0: 5492 0436 74ac 63bf 1d49 60d5 2699 aebf
000007b0: bc6d 3fd5 d3aa 9f3f 5ec9 38d5 8e1f b6bf
000007c0: 8260 c8df 564e 823f 8f40 98dc 517b b13f
000007d0: 58af ae95 8ef5 9c3f 61f3 a30b cd49 9ebf
000007e0: 0000 0060 0b1a a1bf 9224 81dd 8805 84bf
000007f0: 71bf 6783 3b57 b3bf 170c f923 2be1 b43f
-0.01575083285342881 -0.05450348806917457 -0.01092583678889828 0.06041052249030247 0.021219154553375977 -0.0934511467702918 0.07033517687655493 -0.015827167324845483
-0.01697353646922214 0.05737205059232488 -0.038687706453963924 0.038000452310326595 -0.049089822788504156 0.003836721973569242 -0.03168238657192376 -0.03370242732345198
-0.002393324381087043 -0.027454002090319264 0.033696025313985814 -0.07881770927726624 -0.05706400324758543 -0.0008467259806209518 -0.025254974196107935 0.011038220421374171
-0.02260536773600538 -0.07176990763522147 0.0599782124131549 -0.03650949436514658 -0.019690611607224604 0.04648702093451897 0.0572891341717043 -0.05365159728284913
0.04009400291361931 -0.06214517637735753 0.07190260327293096 -0.04823234560853555 -0.07934666927319316 0.010790348898672909 -0.056622173602132266 0.08172007033451943
-0.031304495492601794 0.05743376078577573 -0.04493459998666312 -0.007867150333199529 -0.0036493287325645133 -0.07459715443683267 0.08096368460514367 0.06466788468300311
0.027740647122097686 -0.047773542164142285 -0.0644919027969517 -0.012964287040092087 0.07703108141323031 -0.05895542733537993 -0.07641820725052664 -0.019963839736351706
-0.05670106448011386 0.07906555354902199 0.017127434140488205 0.0389450963721548 -0.07342826491298243 -0.017747897122669963 0.05138087958221849 -0.049757908202823116
-0.07734677705954943 -0.05641835582973947 0.05367994187034002 0.030197690519816807 -0.007523956113746955 0.017752370171743154 -0.006344864365705639 -0.04787080311593256
-0.0716461289555688 0.0012032933291762447 -0.018126387220877862 -0.06781249123353923 0.022730968237543142 0.0049231643072038195 0.05053577432021178 0.01160209450510252
-0.06729135300054488 -0.008674959011042137 0.042951121726425096 0.014429427903729931 -0.06902320110413308 -0.07961340450097631 -0.020268234964662808 -0.03019882064653957
-0.017381484151923445 -0.030407080818647132 0.011776587593379708 -0.08210563237957676 0.033069792417013695 -0.04034844068974517 -0.04485035096588184 -0.05269900229035244
-0.07471159095723436 0.0538290787962033 0.03358343458897924 -0.0675716538389668 -0.053590922530363995 -0.08380833738889172 0.01751144255963083 0.08089430760784483
0.04543871233509949 0.04661308532451521 0.06473858848718178 0.07758077770367004 -0.02993930696247015 -0.03663613367369653 -0.009148939777135795 -0.07589279697262144
0.06338925374259387 -0.04796564716205785 -0.023060592630873775 0.057345958631606624 -0.06370717687981244 -0.04020718522784237 0.04387008548946646 0.07578767784636671
0.022455854142593563 -0.008274315068284481 0.06435592301217938 -0.02221731784079704 -0.01037184070769582 0.02698326387788304 0.0542500003715666 -0.041836596659248604
-0.05775524979764244 0.048509521582904225 -0.022809841364635614 -0.08398043881385553 0.07257553891823852 -0.0747186031058843 -0.0149118861315819 -0.036160541012227744
-0.040627959432396346 0.008091414174396254 -0.02669949947515433 0.011156608656035266 -0.05124353866280471 0.040624675092902726 0.060870461849179804 0.027869951663222862
-0.07380920524896542 0.021217030225005696 -0.0767197969108955 0.014183796316371754 -0.01068058951945464 -0.038613929107798685 0.006287888929234348 -0.08143215502799908
-0.0734624179750816 -0.05132237325610076 0.06979366515575489 0.018288816077318738 -0.03666894628325408 0.014212454974637821 -0.005976063651035344 -0.08792621518672863
0.042962220802889715 0.041144849106655966 -0.09325130157624582 0.0801628244370087 -0.06729404004798797 0.06104008977113808 0.016876000285135122 0.023828649267540785
-0.061140744641436685 0.06361094985900959 -0.016238347321762225 -0.0030315163750336627 -0.006621869266512346 0.08101797354830834 0.05853491400180901 -0.09361313904823224
0.06450582546605202 0.00208841608329136 -0.040704035484656474 -0.07975964742289451 -0.00936179368013005 0.0785107699483498 0.06169285876168333 -0.08627772080288795
-0.034136428504055245 -0.07128252913366652 0.015009074802648011 -0.035952050916410086 -0.00021184059733059257 -0.05506008367241775 -0.021490402381230473 -0.07755277958399599
-0.07044398716026569 0.016275895932498376 -0.07840850080551068 0.003835677586207468 0.07172653035805786 0.0710975591227 -0.06467576493900747 0.06203364649480564
-0.03305536999026244 0.021796758113760237 -0.08138155868867349 0.03668714438377465 -0.029461889222277788 0.07576372542759467 0.036353089598622865 -0.08973307839253854
0.051293568059788595 -0.034779987545999945 0.011152605831609569 -0.07137010867895047 0.07424306248127063 -0.04864286507667457 -0.023724912360324053 -0.03139386947454368
0.029546902820454454 -0.05876450489462768 -0.04009196783603584 -0.010887192344608977 -0.04575298285702174 0.05787629757820214 -0.08053805555404583 0.0661322412341698
0.05264562864600266 -0.030599833160652307 -0.013731914241660648 0.009750885263071857 -0.07835341739045051 0.02091573302446446 -0.007895308132707885 0.07123965148626407
-0.009748101161806386 0.07622906689344486 -0.00634779884434725 -0.06355561192335049 -0.0004477879703180061 -0.05129991220818438 -0.008602423287941616 -0.09284289802612225
-0.00591991699983441 0.04107389104975782 0.0019540308923872195 -0.012164678243413378 -0.002401568388579892 -0.05976220469178115 0.03092509259282193 -0.08641903596506981
0.008938482956225128 0.06828796039212846 0.028280475507627884 -0.029578403315997707 -0.03340182825922966 -0.009776181468753618 -0.07554981191765166 0.0815607989143675

layers.0.bias f8 [128]
00000000: 9f58 9da3 16d5 aa3f 066d 495c f925 a43f
00000010: 3a41 85d7 4091 5cbf 8939 cd8d 611b b2bf
00000020: 22fe 2c74 edc6 a43f 9f6f d133 ddf4 b13f
00000030: 2fcc 2d70 ab32 adbf 4187 ceb2 c8af 973f
00000040: 23d8 644b 1492 b6bf 4dce b651 0213 40bf
00000050: 4a19 78c4 9d7a 9fbf 66ec c172 5ed9 a13f
00000060: 0000 00c0 0b96 583f 80cc 2da4 c03c a53f
00000070: 3254 cec3 d6b1 b5bf b417 d523 c164 a73f
00000080: 0000 00c0 6c48 b3bf 52fd 1130 33e7 79bf
00000090: 40b0 fa9c 3dc9 743f 42ea 690f dc6c a13f
000000a0: 2b63 9cd9 f7a4 aebf eb8d a0c4 782b 96bf
000000b0: de16 b71c cc1b aebf 0000 00c0 ecf7 ae3f
000000c0: b9d1 d090 d53e a93f 2882 7b6a 87a0 b5bf
000000d0: 173f 651e 1406 b33f 0000 0000 6929 b53f
000000e0: 8f2f be85 71d5 aebf be80 28ba 5e83 b1bf
000000f0: 48b8 278c 2e2d b13f 3442 4c93 9352 983f
00000100: 4af9 6919 891f 97bf b7a2 121f 4347 9e3f
00000110: 5116 3ece 7849 a53f 1caf 0645 9174 b0bf
00000120: 0000 00e0 eeaf b3bf 48fb 63d0 2e02 a3bf
00000130: b95c 8d0c 7a87 b0bf c4ff 0db5 8c26 a63f
00000140: d874 224a 43ea aa3f 5ec6 3b5c 9d28 b9bf
00000150: 4712 5e8c fcee 7fbf c71c 6211 2962 b4bf
00000160: 0000 0040 13e1 b4bf 0000 0060 4864 973f
00000170: af6c bbbf b03f a43f 0161 b026 fd78 abbf
00000180: 0000 0020 f6e9 b0bf 0000 0020 b801 a4bf
00000190: 9925 fb3b caa2 a2bf 8a2f 68c6 ecae abbf
000001a0: 54dc 2f4d 7ca5 7bbf 2493 ad11 9063 b43f
000001b0: 0000 0000 ff13 983f cce8 0d3c a880 743f
000001c0: 3297 6cad 8f77 b43f 0000 00e0 2d00 7dbf
000001d0: 56f4 0012 a687 923f 028d 29a5 ad0b abbf
000001e0: 7bb7 257a de1c b3bf 00a1 9477 c2ca 9b3f
000001f0: d3ab 97f2 2c73 a8bf 461c c0fb 6a48 b13f
00000200: 0e80 70ee a7ed afbf 0000 0080 b273 a8bf
00000210: e487 329f 788b a63f b141 2b9d 9446 59bf
00000220: 210a 7152 3a9e 413f a307 a1b0 ebcd a13f
00000230: 5df2 6cb1 7cf7 7e3f 0000 0040 d7b7 af3f
00000240: 9cbc b392 b179 a73f 0b81 98c3 0626 b03f
00000250: feac 0d09 586a a73f bacd 330b 2f2b 4e3f
00000260: 2c55 c830 360e b53f c8bb 455f 45dc a5bf
00000270: ae1c 2467 3bcc 723f fb20 130a 1bad ae3f
00000280: e5d7 e02d 130d 99bf c7e2 488f e75d a9bf
00000290: aa42 fa17 a347 ae3f a383 47b3 089b af3f
000002a0: 0000 0000 bc3b 863f 0000 0080 44ca 8b3f
000002b0: 0df6 1e81 9fbb 9abf 0578 a8bd 322a 9bbf
000002c0: a3f3 91dc f309 a33f 0000 00e0 2bdf 7b3f
000002d0: f80c ce91 f410 b4bf ca0f f9ef 566d b0bf
000002e0: 7342 f87c 188f b23f 3152 63f3 f96b af3f
000002f0: 8b5d 82f1 d0aa a9bf f59e 7d97 58f0 b23f
00000300: ab4f 02ef 1114 a9bf 0000 0040 db6f adbf
00000310: 0000 00e0 013c b6bf 6b93 d1ec f9e5 b0bf
00000320: cd99 3440 a361 a1bf d04f fecb 5535 8cbf
00000330: 6d84 d1fb 6854 a63f cb6c 6b02 d7b2 af3f
00000340: 4f2e bdf7 2b12 a03f 0000 00c0 e925 85bf
00000350: e641 f9fe 28e9 abbf 93b3 d8a0 7fa6 a3bf
00000360: 0000 0080 5016 8bbf 9ac8 f6cc e175 a53f
00000370: ce21 de57 5aea b23f f57e e67f 88f8 a0bf
00000380: 0000 0000 0a7d b63f b976 f446 4c4c 8abf
00000390: ec15 fd1a 2180 a6bf 93cf e952 5d00 b9bf
000003a0: 0000 00c0 8dfc a1bf a88e a29d 6399 853f
000003b0: b958 cb65 3348 a7bf bed2 db7f e279 b03f
000003c0: 6deb 3341 2e09 a7bf d462 6135 a819 a7bf
000003d0: 23f7 577a 7348 a33f 0000 0020 f1c6 913f
000003e0: eab5 0c20 676c 923f 66e8 8781 51f3 b7bf
000003f0: 1f85 ef3b 1bc5 a1bf aafc 04ac 5643 acbf
0.052406985733498994 0.039352219119530615 -0.00174361545767361 -0.07073030197100229 0.04058019679223103 0.07014257922258914 -0.057027203983033174 0.023131500161645894
-0.08816649285003612 -0.0004905473064610949 -0.030741181484722525 0.03486151839111855 0.001500617479905486 0.04147912983071311 -0.08474485664767498 0.04569057047278538
-0.07532386481761932 -0.006324005081409583 0.005074730564654628 0.03403365791469472 -0.05985235720999634 -0.021650206566972512 -0.058805826668999236 0.06048526614904404
0.04930751221437241 -0.08448072766942316 0.07431150190427292 0.08266311883926392 -0.06022219426731034 -0.06841079754713328 0.06709566995388727 0.0237525042203421
-0.022581236053605104 0.029568718692334097 0.04157617108925805 -0.06427867827613593 -0.07690327614545822 -0.03712602895574563 -0.06456721121263599 0.043262860394861075
0.05256853370631526 -0.09827598096651388 -0.007796274678075372 -0.07962280916591445 -0.08155937492847443 0.022843485698103905 0.03954841938476627 -0.053657446835304164
-0.06606996804475784 -0.039075616747140884 -0.036398238965897174 -0.05406894609413289 -0.0067496161964220765 0.07964420730202143 0.023513779044151306 0.005005509535175711
0.07994935974110431 -0.007080249022692442 0.018095583771572464 -0.052823473369040044 -0.07465925676453182 0.027140654133433806 -0.04775371991475876 0.06751125952006118
-0.062360046249750764 -0.047757700085639954 0.0440328306515452 -0.0015427066143055385 0.0005376610541890128 0.03477417498699189 0.007560240824031253 0.0619494691491127
0.04585032382771567 0.06308023715292081 0.045733214478639525 0.0009206752496581574 0.0822481030557653 -0.04269615924828646 0.004589302103574484 0.05991444108946272
-0.024463939356984005 -0.049544559708413476 0.0591402975816256 0.061729690441786354 0.01085612177848816 0.013569388538599014 -0.026106350189129702 -0.02652816088276923
0.037185307192863414 0.006804629694670439 -0.07838371810617051 -0.06416838988030729 0.07249596644420268 0.06137066932720748 -0.05013134906874502 0.07397988985541899
-0.04898124735441852 -0.05749402195215225 -0.08685313910245895 -0.0660091593905016 -0.03394804152258111 -0.013773603713879284 0.04361274789767653 0.06191131500755772
0.03138863944203917 -0.010326219722628593 -0.05451324570151765 -0.038379658112126645 -0.013226155191659927 0.04191499354364332 0.0738884415169487 -0.03314615784915801
0.08784544467926025 -0.01284083930527956 -0.04394629911852718 -0.09766181253672661 -0.035129956901073456 0.01054647278608141 -0.04547272317511059 0.06435981389570153
-0.04499191804821732 -0.04511762286774049 0.03766213291599587 0.017360465601086617 0.017991648989825672 -0.09355649387717477 -0.03470692736278579 -0.05520125245902226

layers.1.weight f8 [100, 128]
00000000: 02d3 12d2 c455 b03f 0000 0040 766e b23f
00000010: 0000 00a0 1ebd afbf 4702 61fc 264f 85bf
00000020: 0000 00e0 2f02 82bf 2a1f a123 3c2b 9d3f
00000030: f6da fcf1 7d60 903f 5fd4 1a1d 743c acbf
00000040: 0580 b08d 76a0 af3f 18ca 1f71 6cd2 a4bf
00000050: 0000 0000 4162 a2bf 0000 0020 ec39 76bf
00000060: 0000 0020 d953 b2bf 0000 00e0 dafa acbf
00000070: 0000 0020 c08f 97bf 0000 0040 8473 993f
00000080: 0000 0060 a7b7 933f 2048 5f06 845d b33f
00000090: 7519 82a1 c63c 9abf e1f5 d840 1625 b23f
000000a0: 0000 00e0 744b b63f e02a c952 9d8b a73f
000000b0: 79b7 cbb3 8c3f 843f 0000 00c0 162c ae3f
000000c0: 3870 af69 8ad4 b4bf 0000 00a0 4cd5 a0bf
000000d0: 0000 0060 23db 903f 0000 0040 4dc3 b23f
000000e0: 19e6 90d9 98de a03f 0000 0000 b7e0 b1bf
000000f0: b13e 5284 9393 963f d7cf 12b8 73e1 adbf
00000100: 84c3 d6f2 7fa6 b4bf be98 00f6 55bc b6bf
00000110: 0000 00a0 880d a2bf 0000 0020 a946 933f
00000120: 0000 0000 73ae b13f e61b 07e0 5c43 873f
00000130: 2f90 a708 26db 91bf 0000 00e0 4400 98bf
00000140: 0000 0020 fabe b53f 0000 0000 d50b b13f
00000150: 0000 0020 7f11 b6bf abdf 16ed 42ff b23f
00000160: 0000 00c0 35d1 a1bf 0000 0060 4f14 94bf
00000170: 0000 0000 cfe4 9a3f 0000 0080 2dd4 b23f
00000180: 0000 00a0 1147 a6bf 0000 0020 2e54 89bf
00000190: 0000 0060 a7f6 b43f ae2c 5e28 0027 b23f
000001a0: 904a 08f7 a11d a9bf 0000 00e0 8284 abbf
000001b0: 0000 0000 4979 a83f 3a5c d386 e82c a4bf
000001c0: 0000 00e0 a919 ac3f 0000 0080 158c 82bf
000001d0: 0000 00c0 ef13 b43f eea6 cd1d fb63 8d3f
000001e0: 18c0 4f0a b569 b7bf 4b01 5828 69ac 96bf
000001f0: e635 e97d 8e58 aebf 66ab 948c 3aa1 a93f
00000200: ea6c a4f5 181b b03f 0000 0000 3ce7 adbf
00000210: 2811 8c63 d706 adbf 0000 00c0 4263 973f
00000220: d0aa 0602 74ce ae3f 6bf4 9b90 109e 9abf
00000230: 0000 00c0 029e 84bf 0000 00c0 8f6e aabf
00000240: a546 76ef 312f 7bbf 9173 fe05 e492 b7bf
00000250: 7267 5092 d14f b7bf 0000 0080 1a66 983f
00000260: 0000 0000 d653 82bf 0000 00a0 519e 9abf
00000270: e182 eada 7fe4 b5bf 2af7 1c7d d2d5 97bf
00000280: 55cd 8b93 da9e a33f 0000 0040 385c a0bf
00000290: 48f9 5941 a4cb a73f 8b52 e704 db51 b1bf
000002a0: 0000 00a0 c249 b2bf 0000 00a0 bd94 ae3f
000002b0: 0000 00a0 85fe 9d3f 0000 0020 db1e 953f
000002c0: 0000 00a0 a50a ab3f 0000 00c0 89ed 843f
000002d0: 51c6 0cea 1e2a a23f 7ca4 72b7 6d9c b6bf
000002e0: 0000 0060 e2a2 a83f 65d4 514a 8998 6a3f
000002f0: 0000 0020 b144 a03f 0000 0020 ab13 b0bf
00000300: 0000 0020 69bc 9e3f 0000 00a0 84f9 b3bf
00000310: 0000 0040 bc28 9cbf 8998 3fff 745a 713f
00000320: 0000 0060 ce63 a7bf 0000 0020 3801 b13f
00000330: a44c 5a5d 02bf b2bf 0ca5 5045 6a28 703f
00000340: 0000 00a0 b89f b13f 0000 0080 44f7 b13f
00000350: b405 c1c4 001f b03f 0000 00a0 2edb 793f
00000360: 0000 00c0 345f 773f 0000 0020 4d97 a8bf
00000370: 0000 0080 c1af aebf 0000 0020 e363 aabf
00000380: 0000 0020 4568 9c3f 0000 0040 70c4 a3bf
00000390: 7ffd 5bf9 a806 ab3f 0000 0060 2f28 a5bf
000003a0: 0000 0020 5ed2 97bf 2129 54aa dd52 90bf
000003b0: 0000 0020 6c5f a63f 0000 00c0 69db a9bf
000003c0: a40b 1fc0 ae34 b5bf 0000 0000 21c6 483f
000003d0: f04e 003a 1707 b7bf 0000 00a0 6969 99bf
000003e0: 0000 0000 533c a7bf 650d afe9 3888 a43f
000003f0: 0000 0060 2383 a63f 0000 0020 ab43 a5bf
00000400: 0fd3 68a2 cb7f a6bf c518 915d 23c6 acbf
00000410: c4ff 38ca e61c 913f 1997 f809 1819 8dbf
00000420: 66a6 22b5 cbe6 b03f c025 2731 0abd b33f
00000430: 76e6 9a97 6737 a3bf c82c 05f2 a9ae af3f
00000440: d856 7a9a 0a59 b0bf 83d0 60af 64cc 873f
00000450: 6acf c206 cf88 b7bf 048a 0d9f b10a 4d3f
00000460: 0000 00c0 9a0d a3bf 0edc 1f0a 9cae a03f
00000470: d453 7cc9 6a9c afbf 1606 ffad 98c8 b7bf
00000480: 0000 00e0 1222 aebf 3fd3 84f9 9256 b03f
00000490: bd9d bd8d 3e58 8d3f 3aae dbc1 18c8 9f3f
000004a0: 9e7b 6653 e568 a03f 65ab 1a61 d465 9e3f
000004b0: e354 0bee 2d3c a03f 0000 00e0 b418 a13f
000004c0: 3856 a993 7c2a 99bf 0000 0040 92ed 443f
000004d0: b6a9 caca 39f0 b03f 0000 00e0 61f5 9dbf
000004e0: ecc0 0d1d 3a9a b3bf c6cf 411b 876f 42bf
000004f0: 4bc3 c1f9 9a01 ae3f 2e5d c172 194b a3bf
00000500: e8d1 805b 3040 b6bf a9ea d670 4a25 abbf
00000510: 0000 0000 f1e0 b13f 0000 0060 1943 89bf
00000520: 0000 00a0 b7b8 93bf 55f2 d512 49cb 8b3f
00000530: 8099 4371 cdcd a13f 66b2 0087 f7b1 b33f
00000540: 014f 7e63 a720 b0bf 45e3 1e70 658e b13f
00000550: 52a1 005a 82b4 a43f 1114 c4ac 9b05 6fbf
00000560: 0000 0080 a09d a0bf 0000 0000 877d b03f
00000570: 1e92 05cd 2c30 a23f e2b2 45ed fddc b0bf
00000580: 0000 00a0 a47b b0bf 0000 0060 a2fa b33f
00000590: 0000 0080 6056 a23f 4743 a818 f167 91bf
000005a0: 4008 8dd0 0bb5 b1bf 2b83 66cc bf4c b43f
000005b0: 0000 0040 7ef5 a93f d26a 6308 30d8 a43f
000005c0: b5d3 167e 2eb6 8c3f 0000 0000 ad9d b5bf
000005d0: 035f b4f1 eb38 b13f 33d6 8691 5a02 b3bf
000005e0: e500 aea4 754b a0bf ffd2 97a6 225c a1bf
000005f0: 8f42 936d 51cd 963f b922 923e b6fa ab3f
00000600: 8f6a b936 1506 b6bf 0000 0020 5883 9cbf
00000610: 9991 9829 dcc0 783f 22bb 26af c100 a43f
00000620: 2d1a eed7 51a8 b03f ec01 a50c 1bf9 b23f
00000630: 0000 0060 a7bf a53f 0000 00e0 34c0 87bf
00000640: ce8c afbd f894 a5bf 3b46 0b7d 5cdc 923f
00000650: bf13 8a01 3805 b4bf c934 051c 76a2 adbf
00000660: 0000 0000 01c5 7e3f 0000 00e0 e524 b5bf
00000670: 0288 2b6b 58e7 8abf 0878 7d0b 40b9 66bf
00000680: 8f51 5b18 4aff 90bf 4e74 c271 862d 7b3f
00000690: 6082 50bc 212a a8bf 18cb 01ee abca b1bf
000006a0: 0000 0020 3732 b3bf 0000 00a0 26b7 71bf
000006b0: 7edd 8159 5c7c b2bf 7dab e3eb 31ea a93f
000006c0: f85c 0d56 01f4 9cbf 0000 00c0 e369 b63f
000006d0: 05e5 32ce 0a19 b0bf 2382 a1e8 b70b 9d3f
000006e0: 940c aae0 e4d6 a73f 03a7 7b34 d859 b0bf
000006f0: b21b 1037 9ffc 873f 0000 00a0 8fc5 92bf
00000700: f0bf 04be 77f2 ae3f 0000 0020 0473 b3bf
00000710: 0000 0060 97cd a03f cfab a91d ae5f ab3f
00000720: 1957 6ef7 5179 a33f 0000 00a0 529a 8c3f
00000730: 0598 4eae 4262 78bf 67cd 1cb3 5493 96bf
00000740: 0000 0080 0c69 613f 0000 0000 de35 aa3f
00000750: ddd6 0598 a2c5 aebf 0000 00c0 43d4 b2bf
00000760: 0000 00c0 23c6 b4bf 0000 0020 4cc2 963f
00000770: 42a1 d146 02ee a4bf 2331 d093 cc90 99bf
00000780: 0000 0080 bd9d 853f beb9 2d2d 4700 a3bf
00000790: 5638 04d0 a504 b5bf a1f1 be36 53dc 91bf
000007a0: 0000 0060 8851 ae3f f82a 21cf 9612 9c3f
000007b0: 0000 00e0 39b9 9e3f 26d6 90a4 4624 afbf
000007c0: dc94 43d8 85e3 a4bf 0000 0080 151d b0bf
000007d0: b21e 1856 8f59 b23f 0000 00c0 22f1 b23f
000007e0: 35e4 6767 ca28 b0bf 3783 fa5f ab73 7ebf
000007f0: 0000 00a0 b82c 9cbf 2de6 4b07 0ac3 b1bf
0.0638087284922442 0.07199801504611969 -0.06198974326252937 -0.01040487725924878 -0.008793233893811703 0.02848524062599648 0.015993087668188154 -0.055148724129516984
0.06177111129386507 -0.040667904671767896 -0.0359058678150177 -0.005426332820206881 -0.07159192115068436 -0.05660137161612511 -0.023009302094578743 0.02485472336411476
0.019255271181464195 0.07564568667956495 -0.025622466666868477 0.07087840159598315 0.08708887547254562 0.04598704944199539 0.009886836277896315 0.05893012136220932
-0.08136811332900684 -0.03287734463810921 0.016460945829749107 0.0732925683259964 0.03294828086695762 -0.0698351263999939 0.022047333670853934 -0.0583606874655797
-0.08066558531460372 -0.0888112760154369 -0.03525950387120247 0.01882423646748066 0.06906813383102417 0.011358953081879574 -0.017437547949057993 -0.023438526317477226
0.08494532853364944 0.06658679246902466 -0.08620447665452957 0.07420748031915873 -0.03479927033185959 -0.01960872672498226 0.026263460516929626 0.07355007529258728
-0.04351096227765083 -0.012367592193186283 0.08188863843679428 0.07090760217231448 -0.04905420437366559 -0.05374535545706749 0.04780033230781555 -0.03940512319393759
0.05488329753279686 -0.009056251496076584 0.0784292072057724 0.014350854727769282 -0.09145671369310582 -0.022142069899929322 -0.05926938330649616 0.050058202419981865
0.06291347500921388 -0.05840480327606201 -0.05669282045531282 0.022839587181806564 0.060168862578697024 -0.02599359400391103 -0.010067006573081017 -0.05162476748228073
-0.006636805591726668 -0.09208512445770924 -0.09106168577309662 0.023826994001865387 -0.00894896686077118 -0.025994563475251198 -0.08551787466650353 -0.023276604543972436
0.03832133341884495 -0.03195358067750931 0.04647553727862658 -0.06765526647297741 -0.07143799215555191 0.05972855165600777 0.029291236773133278 0.020625518634915352
0.05281560495495796 0.010218692943453789 0.03547760588697869 -0.08832441071230507 0.048117708414793015 0.003246563096178922 0.03177407756447792 -0.06280011683702469
0.030015604570508003 -0.07802609354257584 -0.027499143034219742 0.004236657161504572 -0.04568333551287651 0.06642485409975052 -0.07322706965560372 0.003944792862094159
0.06884340196847916 0.07017925381660461 0.0629730682712964 0.0063125439919531345 0.005706029944121838 -0.0480293370783329 -0.05993466079235077 -0.051543328911066055
0.027741508558392525 -0.03860808163881302 0.052785187186596076 -0.04132221266627312 -0.02326342649757862 -0.015941108246843364 0.04369676485657692 -0.05050211399793625
-0.08283512297116019 0.0007560406811535358 -0.08995194593472511 -0.024816179648041725 -0.04538211226463318 0.040101793790678276 0.043969254940748215 -0.041531894356012344
-0.04394375188386423 -0.056199174091078365 0.01671181306141968 -0.01420801906995055 0.06602166340112489 0.0771032686235662 -0.03753207898757875 0.06187945441578219
-0.06385866424019626 0.011620318033330307 -0.09193128504813122 0.0008862845698838777 -0.037213169038295746 0.03258216498937126 -0.06174024304906536 -0.09290460823014998
-0.05885371193289757 0.06382101623314627 0.014328468990881466 0.031036745865021788 0.03205029147215231 0.029685324122208274 0.03170913248838205 0.033391620963811874
-0.02457613612417317 0.0006386722670868039 0.06616555405586308 -0.029256371781229973 -0.07657206734961947 -0.0005626115512442568 0.05860599802770724 -0.03768233800718189
-0.08691694482769885 -0.05301888110576176 0.06983858346939087 -0.012335012666881084 -0.01925932802259922 0.013571329963036375 0.03477327354066784 0.07693430944409271
-0.06299825839078822 0.06857904422112167 0.04043967579520093 -0.003786853840326739 -0.032452598214149475 0.06441539525985718 0.035523796107359326 -0.06587206881313137
-0.06438664346933365 0.0780431255698204 0.03581525385379791 -0.016998068933449486 -0.06916879502844697 0.07929610004658787 0.0507010892033577 0.04071188070675692
0.014019358847557098 -0.08443719148635864 0.06727480555525393 -0.0742546658792314 -0.03182571063280352 -0.03390606196982126 0.022267601311627912 0.05464715493969181
-0.08603031717340513 -0.027844788506627083 0.006043300637916715 0.03906827223851496 0.06506835481386793 0.07411355074601261 0.04247782751917839 -0.011597073636949062
-0.04215218844890388 0.018418736583788436 -0.07820463216383099 -0.05788010685010076 0.00751209631562233 -0.08259426802396774 -0.01313656880433101 -0.0027738810421587025
-0.016598851906410025 0.006635213063558144 -0.04719643996964318 -0.06949877320020581 -0.07498497515916824 -0.004325056914240122 -0.07221009431110834 0.0506148910952424
-0.028274556042870963 0.0875532478094101 -0.06288211378241122 0.028365014623320427 0.04656138651355338 -0.06387091904948865 0.011712306850325625 -0.01833176054060459
0.06044363207399772 -0.0759737566113472 0.03281853720545769 0.05346435653776604 0.03803497453115607 0.013966222293674946 -0.0059530834886683025 -0.02204639762130736
0.0021252864971756935 0.05119222402572632 -0.060101586396667385 -0.07355140149593353 -0.08114837110042572 0.02222556062042713 -0.04087836374748345 -0.024966427346997066
0.01055477187037468 -0.037111496224372584 -0.08210216835524994 -0.017442035881445887 0.05921579524874687 0.02741466178148763 0.03000345639884472 -0.06082363852366894
-0.04079836144391333 -0.06294378638267517 0.07167907573613766 0.07399193942546844 -0.06312241577678963 -0.007434529717699693 -0.027514347806572914 -0.06938231161247961

layers.1.bias f8 [100]
00000000: 747c 7e3c 31b6 b3bf 654e 030f 31d4 b0bf
00000010: d331 d7c9 5304 45bf 9210 f7e0 99bf 94bf
00000020: 0fcd 7e8f 3434 ba3f 69f3 0d0d 3194 a3bf
00000030: 7711 1c8e 6627 b43f e341 818d 8ac7 9abf
00000040: 918a 07ca e636 a2bf 429f 2032 3f56 49bf
00000050: 604b bffa f5e3 a3bf a5d3 70f1 16fe a8bf
00000060: a814 7591 a1d3 97bf 768a 1dd1 cd1a 9abf
00000070: deab 229a 43dd b0bf ccb6 191d 1188 b2bf
00000080: cbbb c8b3 7826 b93f fef1 d1b2 a86e a33f
00000090: d8b6 ef95 c4c5 b23f 477c fc99 7880 a1bf
000000a0: 453c 1ed3 6e87 a9bf 2e0e 4ba1 2081 be3f
000000b0: 6473 85d4 f294 95bf b9e8 2b0a d2cf a6bf
000000c0: c0a5 1516 8b35 b33f 131f bade 7377 b0bf
000000d0: d7dc 4c20 cd97 acbf c633 35e8 c8e4 b2bf
000000e0: 77ca 49fb 7f53 b3bf 82de 9b03 82e3 93bf
000000f0: b609 c5ef d666 92bf a6a1 162f 36f7 9dbf
00000100: fdf9 cdd4 2c33 aebf cbd9 52bc 8f84 9c3f
00000110: ea56 e08a 9da4 ad3f 9dd9 08ff a79b bd3f
00000120: 2c61 33eb bddb 9cbf c43a ea3e 480c 7dbf
00000130: 96f9 a010 6107 753f 63c8 7e14 bdc2 9cbf
00000140: 2303 6cef c519 96bf a894 671b 541d 9cbf
00000150: e24e c0e5 d26a b23f 265a bbc7 b6dc b93f
00000160: e032 8335 3f75 41bf 39a6 99ac 3c2c 72bf
00000170: 6153 1098 fe96 bcbf acc7 1a86 2958 c03f
00000180: 89a8 480e 3cf6 bc3f d4ed 392f 9108 ad3f
00000190: 1bab c212 06b8 a4bf 3e8e 07e6 2603 93bf
000001a0: a397 3fcf 1de8 b13f 1658 1a30 7b2c b1bf
000001b0: 0000 00a0 638a acbf dd4a 407a 1ad9 b03f
000001c0: 52af cda8 47be b2bf 98fe 95f2 7f03 bf3f
000001d0: d654 5e80 9184 bd3f 2cca 0c8c 7ac1 a13f
000001e0: 218a dfac 7688 b1bf 27de 9dab 7e1c aa3f
000001f0: d42a 4da7 7ee9 b0bf 72ae 3cca bf3a 87bf
00000200: 7f71 1e1a 0738 87bf 379b 3644 7ade acbf
00000210: a809 e2cc 4398 963f d69f 69fa 600d 9cbf
00000220: e52d 004b 2baa 95bf be37 af6b 45a6 973f
00000230: abea f1e7 586b 88bf 6ca1 6d28 8c75 743f
00000240: 22f2 df4b ef8b b33f b73c 7db2 7d10 b0bf
00000250: 0000 0080 ecfd b1bf 80c1 b71c d4ae a73f
00000260: 564f 8eea c4e6 90bf 43ba 9da5 0324 a8bf
00000270: c10a 223a d0f7 b83f 1dca e509 77d9 b1bf
00000280: c070 1d6d cd2e 6fbf 5053 a06b 19aa b43f
00000290: f319 cdea 6121 b3bf 77c6 10b7 1d7d 67bf
000002a0: 9435 cade 4317 a3bf f10c 6b74 0a36 afbf
000002b0: 2ba1 e273 a8f0 b7bf 871f 2cc1 d385 a23f
000002c0: 0c0e 7207 25e0 b3bf a677 41a6 2899 b3bf
000002d0: 1f47 e1c4 6a75 b5bf d8eb 701b c3a3 aabf
000002e0: 7202 a690 44e2 b63f 5a18 ec6b 1258 b0bf
000002f0: 9495 2b83 0a0a a7bf 1136 6b0b 515c a6bf
00000300: 2f53 00b5 aa1b adbf fd05 7d6a e3d8 9cbf
00000310: e430 e7ff 480e babf d741 2118 5270 a2bf
-0.07699878432184609 -0.06573778740431065 -0.0006413849948159696 -0.020262150150089094 0.10235908988288521 -0.03823998722416528 0.07872620553468389 -0.026151814352774038
-0.035575115358161054 -0.0007732208798687317 -0.03884857831839983 -0.04881354996943025 -0.023268246176730983 -0.025492874039068934 -0.06587622178146499 -0.07238871536693664
0.09824327840099938 0.03795363600599798 0.0733301988654732 -0.034183281705047856 -0.04986139609456378 0.11915782869169142 -0.02107600614668871 -0.04455429433979092
0.07503575600789869 -0.06432270229026597 -0.055845651810551615 -0.07380347890030156 -0.07549285778967794 -0.019422561140315604 -0.01797042692602143 -0.0292633501282197
-0.05898418519699431 0.027849431866991552 0.05789654083507208 0.1156563756602282 -0.02818199871112019 -0.007091791353231517 0.0051339904403548044 -0.028086618781977168
-0.021582691896585914 -0.027455629513401775 0.07194250210914846 0.10102407814279299 -0.0005327757490022032 -0.004436718949003154 -0.11167899334425392 0.12769049690319656
0.11313224171377291 0.05670598699085941 -0.04046648959168505 -0.018566711225402203 0.06994806585097861 -0.06708497928988807 -0.055743325501680374 0.06581273541113881
-0.07321594115427146 0.12114715263850895 0.11530408271785872 0.0346792503318237 -0.06848851891076226 0.05099864811830584 -0.06606284698970494 -0.01134252391746957
-0.011337333187662278 -0.05638486941034276 0.02206521928793284 -0.02739478615185916 -0.021156956150702916 0.023095211694275745 -0.011923498705291044 0.0049949145239697006
0.07635398485576464 -0.06275163276335403 -0.07028082013130188 0.04625571108397519 -0.016505314651637924 -0.047149766890346466 0.09753133219968914 -0.0697245024837589
-0.0038064968329490634 0.0807205093154384 -0.07472812635851493 -0.002867277180961743 -0.03728687376597431 -0.060959173880769664 -0.09351589993696467 0.036177270250902054
-0.0776389258554035 -0.0765557676217826 -0.08382289225235383 -0.052030655956023686 0.08939007312256722 -0.06384387144871209 -0.044998482238763376 -0.04367306961431095
-0.05685170611847067 -0.02817111337140509 -0.10178047416337993 -0.03601318878702713

layers.2.weight f8 [64, 100]
00000000: 751b c1d0 e6ed b5bf ea03 9857 5b75 b83f
00000010: d8b5 9531 fb63 a13f 9aca 4eb6 613a bbbf
00000020: e62c 28bc 5d37 9cbf f7c4 918b 2ea1 a73f
00000030: 37ac dbe1 0737 843f d8ba 6a2e 06a9 b9bf
00000040: 5afb c6b8 c326 af3f ca14 d520 cb6d a33f
00000050: 04c0 e4e2 f9f9 b5bf 97a7 1cb1 9632 b73f
00000060: 4701 fdae ed42 b6bf f76c 9813 a666 b63f
00000070: a835 6186 a053 a53f 0000 0000 3c8e 98bf
00000080: 4cb4 18f9 c964 b3bf 6e87 fd12 9322 37bf
00000090: e89b 54b7 08f2 99bf 7814 0557 2690 81bf
000000a0: 55a6 62cc 5d7c a63f 9156 97bc 8d9e ad3f
000000b0: 4ba9 6e3a ccea 933f 1dcd 393a d897 b03f
000000c0: 8438 024e aff1 b3bf 2567 3092 696f adbf
000000d0: 15ce f076 b1d0 a9bf 0000 00e0 38dd 983f
000000e0: cc44 c281 166c b9bf 461f 05c7 3617 793f
000000f0: 458b de09 d252 9f3f 118c dd58 3d93 b3bf
00000100: 9634 1898 151c 9ebf 01f9 6f47 44fd b9bf
00000110: d438 8d07 db13 a33f 2a06 56ad e203 af3f
00000120: 8d0e 32fe e512 a3bf 50be dab1 a8f9 c3bf
00000130: 468b c9b8 dc17 afbf 0000 0000 7e11 ac3f
00000140: 50d3 dbdf d49b b5bf 7043 fed0 acb7 90bf
00000150: fff2 fde6 fdef 9d3f f3cf cb6a 9579 b13f
00000160: 684e 426f f2d8 a13f 0994 d509 962f 8fbf
00000170: a802 1d72 a822 a1bf f2c4 60da 22f3 abbf
00000180: c23e e96c 57e5 b7bf fe3c 48ff 1cb4 a4bf
00000190: 0000 0040 930d 983f 1039 3063 505c aabf
000001a0: cd2f 8bc3 1da5 a7bf 41a0 67c1 440d b6bf
000001b0: 0000 0000 90a1 9bbf 8741 1b0a 6dd7 b0bf
000001c0: 0000 00a0 e183 af3f 365a 7956 93dc afbf
000001d0: a055 2a6c 1718 b8bf 7ea4 7861 22d0 9d3f
000001e0: cef2 3b74 a65c a8bf e8da d4f4 95e2 b3bf
000001f0: de4f d619 3076 a33f 7f9a d16e 0f26 b73f
00000200: e578 2e60 7ef7 8dbf f1dc 4cdd eaec afbf
00000210: 0073 e8a7 858d afbf 38f8 409f aefc 7a3f
00000220: 122c b9ce f422 b0bf c71b c319 c871 b3bf
00000230: 0000 0040 b36d 4e3f a72f 93a7 06c9 a83f
00000240: 314c ad00 1d68 bfbf 837d ea12 50f8 a13f
00000250: 0000 0060 4ee0 91bf 9520 844f 88d7 a2bf
00000260: b076 cc36 2f22 b63f 1536 c43c 6a26 abbf
00000270: 6d5d 2eec 661a b5bf c834 88ea 9035 933f
00000280: 0ffb abeb 5b66 98bf 8c9c 047d 868d b13f
00000290: a5b1 b1d5 d5ff 9dbf 297a cd17 03ee a1bf
000002a0: 3d6f b353 f44d ac3f 7b7f 7645 2449 9d3f
000002b0: 0000 0060 a64c 7cbf 45dc 6137 01db a1bf
000002c0: 1fb2 1dc8 6241 75bf 0000 0000 e12f b53f
000002d0: 55f8 8e73 155a 9bbf 82fa 2c2e 2f70 b4bf
000002e0: e0e8 96f3 39a5 803f c754 bd20 f5f3 b83f
000002f0: c669 a121 4334 b93f 2675 e5f3 2ca9 ab3f
00000300: 3779 92da 3e10 b63f 0621 e363 352d a43f
00000310: 0000 0040 43ce 9c3f 0000 0060 bf80 b7bf
00000320: 8d28 48ad 6acd b7bf dd8b 2587 5c24 b13f
00000330: f1e9 1075 bf92 7c3f 0000 0060 201c a9bf
00000340: 37cd b0cd 97ad 993f 8336 5e05 88b8 b83f
00000350: 3a39 77ae 3225 883f 65b7 8658 6184 b83f
00000360: c4a9 79f1 01ae b13f 9030 017f d171 903f
00000370: 47db 2409 ca30 afbf 2584 59f5 142c af3f
00000380: 7ef5 0337 02d8 b23f 0000 0060 0eda a0bf
00000390: fef1 cf18 155c b13f 0000 00a0 e10b 81bf
000003a0: 7aa2 8f89 51c4 8c3f 1ac5 6414 124d a7bf
000003b0: 0000 00a0 71b2 b53f 15cd a765 f1b5 b8bf
000003c0: 0000 0060 d908 b53f 0000 0000 20f6 a6bf
000003d0: 0000 0040 78a8 b8bf dae9 8b32 236a a33f
000003e0: e968 e951 07c9 adbf c2ea f605 4828 a33f
000003f0: 0000 00e0 4c84 b6bf 0000 0060 a8f2 b63f
00000400: 0000 00e0 2e5e a3bf 0000 00e0 a480 8ebf
00000410: 3c0e 0ea4 d47e a43f 3a71 a2cd 0bb8 a13f
00000420: 0000 00a0 d619 b1bf 98ba 6bec 1196 a4bf
00000430: 0000 0040 3233 b2bf 0000 0000 7830 acbf
00000440: 069a 86d8 4a60 a33f 0000 0060 af1d b4bf
00000450: 0000 0040 9469 b03f 0000 00e0 7413 8ebf
00000460: 8a47 08db 1198 a13f 1f24 8ccb e8af b6bf
00000470: f782 5328 161a b5bf 0000 0060 1e53 833f
00000480: 0a87 4935 7836 8cbf f0ab 0c40 36c5 723f
00000490: 09d3 ba62 aa3b b3bf f48e 5d9c 7485 a23f
000004a0: bccc 1843 2571 afbf 0000 0060 fa58 a5bf
000004b0: 0000 00e0 dc1e 78bf 0000 0000 dc7e a83f
000004c0: 0000 0040 a9ee a93f 3310 4e4a eb89 b03f
000004d0: 0000 00e0 e404 86bf 0000 00e0 5616 abbf
000004e0: 0000 0060 36d4 973f 96e1 8e3a ae8b b1bf
000004f0: ba79 46c8 fcf9 a73f e257 80c4 5b0f a1bf
00000500: e317 b845 7636 b5bf 19c7 face aa30 973f
00000510: 5c66 42f2 c99c a43f 51dd 3041 68c4 993f
00000520: 2b72 9298 1083 ad3f 0000 00e0 8e67 b7bf
00000530: caa6 2a7c eda7 773f ba6c 7630 6f8a b1bf
00000540: dcc5 45dc ae0b 85bf 8dbe 24f0 0fc0 903f
00000550: 0000 0060 e6d4 69bf 0da7 2533 b1fa 96bf
00000560: 0000 00e0 84cb a83f 0000 0040 778b 94bf
00000570: 0000 0000 9c42 ae3f a68f c305 1753 943f
00000580: c9d0 775e e036 b1bf 0000 00a0 9fc5 a33f
00000590: 0000 00a0 4543 9d3f 0000 0060 5680 7fbf
000005a0: 812b e289 f64e aebf 0804 f8db d088 b5bf
000005b0: df87 57a1 1563 843f 75a1 9e5c 2699 b93f
000005c0: d3ce 6870 81e2 b8bf 1c4b ce7c b8c1 b83f
000005d0: 0000 00e0 38d7 9a3f b0a2 fc73 0a9c 903f
000005e0: 6ce6 e6fd f511 b73f 0000 0040 0bda a33f
000005f0: 0000 00e0 ec1e 74bf 89b2 20a8 a523 7e3f
00000600: 736c 399d 6b50 a9bf 7147 9e0f 314b b33f
00000610: a884 1024 8f2f 80bf 0000 0040 3d57 aa3f
00000620: 0000 00a0 2de8 b83f 0000 00e0 d416 a93f
00000630: 0000 00a0 b168 9ebf 0000 0040 9598 a4bf
00000640: 0000 0040 73f4 923f 19fb 6d58 705a b3bf
00000650: 3c9f f103 39a3 b53f a4bf e9e3 b6d2 a53f
00000660: 462d d691 0858 abbf eccf 9a64 a165 a43f
00000670: 61a9 824e 6e5a 7abf d56e ea90 8362 b83f
00000680: f234 ae31 0f9d acbf 2eb1 ecd2 8c26 9e3f
00000690: 6520 47b0 b74a 8dbf 257f 35c4 ec49 71bf
000006a0: d8b8 1713 a233 b63f 0033 e342 e5a5 883f
000006b0: 6810 30ee bdda 873f ac88 68cb 1267 aa3f
000006c0: 08f5 f56c 8e0c b1bf 8673 9595 d136 b43f
000006d0: 581c 426d 40f0 a33f 7f2c aeb0 8401 7d3f
000006e0: a1a9 8d8f 00f3 97bf c60f 5de3 d218 9cbf
000006f0: 3076 207c f5c5 853f 7c25 9969 d989 b53f
00000700: 8d71 ab4c aea7 a3bf 160b b486 8392 bebf
00000710: d31b 071d 242c b13f 5cd1 772c cfd7 a63f
00000720: 0000 0000 434a b4bf 618c 0a27 c2d6 b1bf
00000730: 3abe af1a 08aa 93bf 2e92 f52b 8a41 ab3f
00000740: aa32 afe3 874f 833f 6c1d 4fee 2288 9abf
00000750: 4e88 bffe eb29 ae3f a239 baff f550 923f
00000760: 2c38 c9a2 8b8e adbf 531d 391c 8a70 a03f
00000770: a3fb eb9b ae30 a63f 9e41 2da3 b6ee b03f
00000780: 712c 725d cf59 b7bf 0000 0040 ad5a b23f
00000790: a13b 6bb3 a967 9d3f 1ab9 dd4f 4eee b5bf
000007a0: 3ef0 7b6e c607 a93f a417 6069 a2e8 a53f
000007b0: 11ae 49a2 f093 a53f 0f5a 343a 9304 c03f
000007c0: 2be5 58f1 1325 b0bf e4fd a1d0 7284 a0bf
000007d0: 654a a2af 5d81 b13f fa7b f796 9622 95bf
000007e0: b00c a65d fd02 9d3f f1e0 14d4 9194 bcbf
000007f0: 0000 0060 7a72 943f e09d 60b6 ec2c 69bf
-0.08566134068051474 0.09554072273751016 0.033965921213944206 -0.10635958386300573 -0.02755495510977548 0.046151594674379064 0.009870587902204615 -0.100235353786711
0.06084262495595878 0.037947032697539365 -0.085845582860884 0.09061567138692649 -0.08695874712157546 0.08750379541782026 0.04165364876153471 -0.02398008108139038
-0.07575666743714854 -0.00035301294973610106 -0.02533734911881061 -0.008575725107798457 0.043917590331443414 0.05785029341829529 0.019450369898245595 0.06481696530845622
-0.07790656713970817 -0.05749063405546754 -0.05042032792007604 0.024281395599246025 -0.09930554073277448 0.006125654196075752 0.03058937249410156 -0.07646544856611139
-0.029404008300890704 -0.10152079338147148 0.03726086108382423 0.06057651868742327 -0.03725355842564424 -0.15605648693370933 -0.060728929097214876 0.0548209547996521
-0.08440905061054349 -0.016325664764340997 0.029235808585769792 0.06826146943404847 0.03485829933302115 -0.015227482009047237 -0.03346754448876271 -0.05458935657260068
-0.0933432236572527 -0.040436655199409074 0.02348928526043892 -0.05148555002971211 -0.04618161212928804 -0.08613996240421874 -0.02698349952697754 -0.06578713890781361
0.061553049832582474 -0.062229732805168345 -0.09411760702854233 0.02911428184430464 -0.04758186501383009 -0.07767617442446417 0.03801107707400296 0.0904245038560507
-0.014632212934710906 -0.062354411615553114 -0.061626602884848225 0.006588632695693923 -0.06303339049297588 -0.07595492009123382 0.0009286046260967851 0.04840870662300683
-0.12268239275481176 0.03509760123165064 -0.017457222566008568 -0.03680063219695843 0.08645911300524278 -0.053027458112506455 -0.08243411317959266 0.018759025873852392
-0.023827968844666588 0.068565755388237 -0.02929624668870336 -0.03501901307639727 0.055282244889637934 0.028599325885465526 -0.006909036543220282 -0.03487399865201061
-0.005189309946086711 0.08276182413101196 -0.02671082990467995 -0.0798367965444218 0.008127644296895331 0.09747249650293376 0.09845370837266562 0.05402508237123475
0.08618538700327326 0.03940741390539597 0.028130579739809036 -0.09180828183889389 -0.09297816019548773 0.06696108149985443 0.006975887184177841 -0.0490427128970623
0.025076267175063918 0.09656572466902884 0.011789699506064556 0.09576996241841369 0.06906139512435688 0.01605918252634858 -0.06091910707112063 0.06088319296828385
0.0736085304560756 -0.03291363641619682 0.06781131606835086 -0.008323443122208118 0.014046322832613745 -0.04550987719484052 0.0847540870308876 -0.09652622920821259
0.08216627687215805 -0.044846534729003906 -0.09632064402103424 0.037919139785987446 -0.05817435145282152 0.037416697242823385 -0.08795624226331711 0.08964016288518906
-0.03782793506979942 -0.014893806539475918 0.04003014090178822 0.03460728535830744 -0.06680051237344742 -0.040207443342173466 -0.07109369337558746 -0.05505728721618652
0.03784402745377595 -0.07857795804738998 0.06411100924015045 -0.014685547910630703 0.03436332510695113 -0.08862166375560364 -0.08242929920698915 0.009435879997909069
-0.013775767446705629 0.004582607188051022 -0.07512917433161816 0.03617443474538887 -0.061410107079063775 -0.04169447347521782 -0.00588880805298686 0.04784286022186279
0.05064896494150162 0.06460447849355049 -0.010751522146165371 -0.05290481075644493 0.023270463570952415 -0.06853760652200544 0.04682912773863586 -0.03332030080507288
-0.0828622741902048 0.022646588213951355 0.04025870401637796 0.025163296679435124 0.05764057028247679 -0.09142392128705978 0.005775382686502526 -0.06851859028977261
-0.010276189896759762 0.016357659370611222 -0.0031532763969153166 -0.022440689799089465 0.048427727073431015 -0.02006326988339424 0.05910193920135498 0.01984821293525809
-0.06724359804485681 0.038617122918367386 0.028576934710144997 -0.00769075145944953 -0.05919619019649414 -0.08411889429409325 0.00995461367250877 0.09999313126775695
-0.09720620149965535 0.09670594260232374 0.026211632415652275 0.016220248536373105 0.09011781166818772 0.03877291828393936 -0.004912305157631636 0.0073582144705538555
-0.049441683714314254 0.07536608344369512 -0.007903211868383345 0.051446832716464996 0.09729275852441788 0.04900231584906578 -0.029696250334382057 -0.040226615965366364
0.01851062849164009 -0.07559873732496349 0.08452183100018557 0.04262324840681167 -0.05340601711494712 0.03983787873349329 -0.006433897862886035 0.09525320327741878
-0.055885767759812924 0.029443931936087235 -0.014302668635437674 -0.004220890873824411 0.08672535863999842 0.012035170654053129 0.011647685843861846 0.05156763775836856
-0.06659784469771435 0.0789614668078241 0.038942349755466565 0.007081526108673518 -0.023387917291452735 -0.027438445212524497 0.01063148293547575 0.0841346628959822
-0.03838867841634217 -0.11942312277464526 0.0670797892445159 0.044615244081713995 -0.07925814390182495 -0.0696832032504502 -0.019203306797804333 0.05323440348255236
0.009429036746859982 -0.02590994433901754 0.05891358837813297 0.017886966451038717 -0.057728160497035524 0.0321086081935912 0.043340164693282966 0.06614247783477942
-0.09121414214512115 0.07169611752033234 0.028715755058154383 -0.08566750955444427 0.048887444483597595 0.04279048477478334 0.042144317446254694 0.12513962118164598
-0.06306576387659805 -0.03226050183092946 0.0683802179139917 -0.020639756168630875 0.028331717339381057 -0.11164199283382793 0.019967949017882347 -0.0030731795586864535

layers.2.bias f8 [64]
00000000: 2792 ce12 2b6b 8fbf 8f47 9e1a eba1 b7bf
00000010: a800 d82f 5033 93bf 451f 29b5 0d66 253f
00000020: b293 8b1c be8f 8abf 0021 4162 cd65 9dbf
00000030: ce7c 18e8 8ac4 9a3f 8db2 8ed7 e7b4 b5bf
00000040: 81e8 b11b d5f6 8dbf 5022 d684 8b07 b23f
00000050: 5329 6468 b1d0 b03f 0000 00a0 c5e9 b0bf
00000060: 9e22 68a7 18a3 c23f efd5 11d0 9548 c03f
00000070: eda4 887b 123d aa3f 59a0 3d28 6612 a73f
00000080: e368 d0f4 7307 a03f c1aa f3d6 a7b6 853f
00000090: 0000 00e0 7103 b5bf 209f 9442 df1b b73f
000000a0: b964 60cb 4b02 a73f 674d d6ed cb27 b3bf
000000b0: 01f8 d48b 7db5 a53f bef8 a06b 08f4 723f
000000c0: 7e13 b285 1b01 793f 3b43 63a3 931e ab3f
000000d0: 8b30 f566 9f73 77bf 25ec ccdf ccfb b13f
000000e0: efd2 b7fa 5d03 a0bf 0000 0060 ccb7 b8bf
000000f0: 01ae 15d7 b68b 9a3f ff95 ddf9 d963 92bf
00000100: 10d2 cb0a a474 56bf 3715 6bec 185f 933f
00000110: 263b 4455 92fa a2bf 81f6 49bf b36c a2bf
00000120: 0000 0040 b89e b2bf 117a 8dd3 d3d1 b53f
00000130: 7930 2bcd 8800 843f e75e fd98 4d25 b7bf
00000140: 5e92 c7ed 992a 90bf 7be8 0887 0d00 aa3f
00000150: 1d51 4028 26f3 a03f e478 5099 643c b2bf
00000160: ac69 8c4e 3ce8 b0bf e690 5f34 48a4 88bf
00000170: 26c6 edf0 45dc b6bf 1cee 51e6 bff7 bc3f
00000180: 0000 00e0 b331 b9bf 082e 4462 10da b4bf
00000190: 1680 0c24 c457 a0bf 0000 0060 c6f7 adbf
000001a0: 3023 b395 286c 993f 3466 6d1e 8fb2 a23f
000001b0: 6062 dcf8 cd77 9d3f a0f4 76b0 7bac a7bf
000001c0: b447 d316 d69a 813f f5bc 937f 0891 b6bf
000001d0: 049a 47d0 6325 a5bf a987 880d 3d8e 66bf
000001e0: c7bf 469c 2795 983f 81e0 2100 4085 9d3f
000001f0: eb21 abff c5e0 a1bf 84ee a7f5 2ec7 91bf
-0.015341125976029947 -0.09231442832813584 -0.018750431938315743 0.0001632587178212968 -0.012969479795580916 -0.028708657381032232 0.0261403755340524 -0.08479165089256409
-0.014630951793368265 0.07042762749746001 0.06568440245260847 -0.06606707721948624 0.14560230421218007 0.12721512469913374 0.05124719388943242 0.04506224862308334
0.031306861528905626 0.01060229420405301 -0.0820838138461113 0.09026904464246543 0.04493939263938657 -0.0748259978920963 0.04240028697903143 0.004627259151730621
0.006104571827681647 0.05296765679816536 -0.005725500740776944 0.07024841750983109 -0.03127568898699972 -0.09655454009771347 0.025923592450835645 -0.017959028125366313
-0.0013705827688542706 0.01891745512945883 -0.03706795969821135 -0.0359855814940433 -0.07273437082767487 0.08523296275004834 0.009766644250156485 -0.09041295037365736
-0.015787511003411907 0.050781653150310434 0.03310508004520527 -0.07123402350450508 -0.06604363362968141 -0.01203209314184801 -0.08929860240984819 0.11315535901115265
-0.09841465204954147 -0.08145239256935366 -0.03191960277604282 -0.05853099748492241 0.02482665456480787 0.036518547500872606 0.028777330698263603 -0.04623781708822006
0.008596108028004902 -0.08815053095507948 -0.04130088727452022 -0.0027533714712868096 0.024006480134346277 0.028828620918347262 -0.03491801019623949 -0.017361387008334464
