model_policy2_epoch-40.pt (torch, 373906 bytes, 28 tensors)

layers.0.weight f8 [128, 128]
00000000: cae5 e9e7 7562 b53f 8cab 5011 c9a2 833f
00000010: 1549 cad0 5645 bfbf 89ea 7890 2947 a0bf
00000020: d3b1 6486 4efc b03f 18e6 01fe ce51 a2bf
00000030: f456 40e1 4fc1 b03f a09c 85aa fd53 ab3f
00000040: b885 2fc3 89d6 c63f 7dab c825 ba93 bc3f
00000050: 53d9 2610 738a bb3f ae2c 3a1c 6deb a53f
00000060: 8d2f 9c27 fac7 b9bf b95e c8b0 b8ae cbbf
00000070: 90fd 95d2 f248 bbbf db39 6bde 1735 d5bf
00000080: f374 169a 9f9f cebf 0295 bbb6 7753 7bbf
00000090: 0691 aece 47b0 833f e883 5b8f 2562 8fbf
000000a0: 17c7 95e3 b6b3 a6bf ce97 bb16 9cc0 5bbf
000000b0: 56cf 8c6b 36b8 c83f 6dcb f98c 5307 cfbf
000000c0: f1f6 5d7e 03ef 7fbf a8e6 fb92 bfb8 ccbf
000000d0: f6a3 9b6a 670b bb3f dbc4 a988 4823 bfbf
000000e0: 7cb4 c640 7c02 b4bf e1aa 4133 e60b ac3f
000000f0: 3527 4fe4 7671 d03f 4bec dd0c 29be bebf
00000100: d2ba 1052 233f e9bf 20b6 3c1e 67ef c53f
00000110: 78b8 af43 b1f3 b83f 79dd e3a4 2e03 cc3f
00000120: a2e0 ea91 e773 9a3f 0898 ce16 1876 ac3f
00000130: 4126 3f10 926f d5bf 4a6a b3db 2da9 e9bf
00000140: 3969 ff6f a614 d9bf a509 f4cc 3d1c d0bf
00000150: 2678 9ba6 345a abbf 8129 437d 6c0b c3bf
00000160: 8d8a 9604 275e 9fbf ca4d aedd a8fb c4bf
00000170: a439 1720 3bbe b43f b845 4934 4c0c c2bf
00000180: d2a7 99b0 d55d e03f 9eec 7a94 59be ccbf
00000190: 13c3 6ed5 c3d2 dabf 02a4 9900 5a4d cabf
000001a0: 3900 925b 0d4d c8bf 1e5e 90b6 7b37 c03f
000001b0: 8872 6c9d 38aa e2bf b462 e70a 7b8b b7bf
000001c0: e733 d67a 476b b13f 7d7a ca58 36cf dd3f
000001d0: 6a22 417e 8f56 b73f fbed 14b3 fb43 c03f
000001e0: ea6b 5378 1499 c6bf 3ecf 20f1 ebe5 b8bf
000001f0: c884 2e6c bd79 d0bf 2ed1 5659 7f34 e13f
00000200: 6d80 154a 47f0 c83f f46e 04e3 7200 9f3f
00000210: 8538 c6a9 df07 a0bf 1459 6a20 a09e 3e3f
00000220: dec5 7792 8441 d13f c302 102e f252 cf3f
00000230: 0fe9 d7a8 e25b c13f d3e5 0cf2 f96c d33f
00000240: 7690 d8a6 58e6 c03f e000 9caf 02b8 c93f
00000250: 0923 6807 bbca ba3f 6e40 512b 18a7 92bf
00000260: 2ffd 7c07 c736 c53f bfd8 081c 5e0d b6bf
00000270: ab2e f88a c36b c23f dbb4 e37d 2e12 aabf
00000280: 2ec8 8f3c 994d bf3f f269 b0fc 4045 b23f
00000290: 525e 925a 2a6f ab3f 873b 32c3 4915 c83f
000002a0: 7257 0a65 f59a d03f f557 5985 31ab bb3f
000002b0: c04e e145 c476 d53f 29a7 f7b4 a3a9 d73f
000002c0: 9a36 e065 65bb 8d3f 6e52 07c1 2ae5 9d3f
000002d0: 04fa 1e06 e9a5 c53f b4e4 22f3 c976 d43f
000002e0: ce78 6195 54a7 b73f 6f3c f52e f59b b5bf
000002f0: 3eab fc48 ac54 b1bf b3b3 ecb6 9f2f d73f
00000300: 84d8 98f6 f59d e13f af99 8f91 74c0 dc3f
00000310: 3565 0098 c7fa a03f 0cbf e3d6 68aa c53f
00000320: 5b6c 806d 7c32 a13f 07b5 5410 faed b63f
00000330: 9ee4 9b20 ae8a d63f 62f7 afd2 a3ec d53f
00000340: 1076 9a7e b432 8d3f 89a0 b1ed 9031 b2bf
00000350: d938 f99a 7d3c e53f 2858 569b 2331 a73f
00000360: 2448 d89b 238e d7bf bf44 eb42 f1fd c53f
00000370: 8a1a eced 31cd de3f bee9 d5ce bc7c e33f
00000380: c6bc 7fce 2583 d5bf 08c1 8943 e1f4 e13f
00000390: 47e2 9951 3a58 e43f c952 501d 0f33 c43f
000003a0: 7b0b 1c66 4a94 cf3f 6bde 1033 e5d3 d1bf
000003b0: d312 6f08 3e84 de3f 2514 ab99 8f34 8e3f
000003c0: a449 2f46 8f20 d9bf ef81 2c99 8a7f 90bf
000003d0: 94df 0aba 2ec8 9bbf 0d87 ce88 2b41 a23f
000003e0: 1fbd e0ad 2b27 da3f 562c c5c7 ff32 c3bf
000003f0: b50d 7f5b 9481 cc3f 5386 1ca0 7dcc cfbf
00000400: 9374 23ad ce39 ccbf d818 f392 2907 c8bf
00000410: 3a20 a1b4 dd64 ccbf ba0b a8df 01b4 d6bf
00000420: 109b 1b5b 01b7 cebf f09b 2610 a7f7 c8bf
00000430: 50c7 a8a5 f210 ad3f 1cc6 a5fb 34f5 c3bf
00000440: 498c 1f85 8417 d4bf d93b 6fce 4f13 d2bf
00000450: 0ed0 6baa 73a7 cfbf fbea 9c2f 36c1 cdbf
00000460: 4e38 166a 6e57 d4bf d68b 3712 d4bc c7bf
00000470: c351 2751 eb59 cfbf 60de c9e7 38dc d0bf
00000480: 90c8 62e5 0757 d5bf fb36 0e87 5921 d5bf
00000490: 3217 17cb 3d03 d2bf 581f ce82 584d d2bf
000004a0: 55de 6668 1f15 d6bf c53d a965 6d5f cbbf
000004b0: f193 3970 5f93 d0bf ded2 02a2 93a3 d0bf
000004c0: 51a2 17ba 8ed2 bcbf 555a d123 fe48 c7bf
000004d0: 1024 6889 99f9 d0bf d0a2 e7ab a3e8 c7bf
000004e0: e6e8 e2e0 3b49 cfbf d5dd 72de 96ab cebf
000004f0: 6728 2cff 5477 d4bf 1507 f769 b3fe c6bf
00000500: d4c2 3ce2 a3b7 c7bf 0dde 666c a909 c2bf
00000510: 6308 d30f bd2e d4bf e1d2 1747 fe45 d0bf
00000520: 800d db40 2e89 d3bf 44d7 f413 779e d6bf
00000530: a5ad cff7 2b08 d2bf 8d79 7fcc 1395 c2bf
00000540: 3986 1f9f 7075 babf 4162 512a d46e ccbf
00000550: fb77 f061 67cd 96bf ad6c bea2 5425 d2bf
00000560: cf7f 2e39 89b8 c7bf 951c ff30 734d cbbf
00000570: a2a5 9006 ebd4 a3bf 1d10 433a cf0b d0bf
00000580: 8e4c ca43 9dca c03f 5b28 7382 8525 cfbf
00000590: b2fc 568c 78fb d5bf e49c fd90 56fc c7bf
000005a0: 66ab cac8 a07f d0bf acb1 34b6 5193 c1bf
000005b0: 8373 b5d1 5890 d3bf 8335 1453 7db8 c8bf
000005c0: d8eb ed81 cb55 d73f fefc be34 e748 cc3f
000005d0: e372 78d8 e02c bebf 4ce7 c6f9 7970 bcbf
000005e0: e3b4 1bb4 dcf5 873f d686 6f0b c13b c3bf
000005f0: 696b 10c4 46be c6bf b3a8 449d 2bc3 a63f
00000600: 8454 93e9 2f59 c93f 91f4 ff83 9dd9 c93f
00000610: f48c 93f8 c73e d23f a5f1 0b21 5ca3 db3f
00000620: 9f19 7f51 d774 db3f bfb3 0d24 7e6e da3f
00000630: 76b4 2bef 03d4 b23f 9cbd 6763 f5e3 d03f
00000640: 68b5 f702 9ca5 ce3f 550e be06 fff6 d73f
00000650: 414e c3c0 da26 db3f 4b47 5d84 fa5a da3f
00000660: 45e9 5ad7 52a1 db3f 61e2 56ee 4bad d43f
00000670: f741 112a d4cd cd3f e071 1477 201e d43f
00000680: 9987 b536 a937 ce3f 3b7b a52d 71b5 ce3f
00000690: 957a b181 ab8e d13f 1cc0 2e6d 4bb7 d03f
000006a0: 4661 cff6 d56b d83f 5cfa b8bf ed74 d63f
000006b0: 48ff f4e7 947a d53f f883 0a7a f353 d43f
000006c0: cbcf 5f76 add0 c93f 12b0 d81e 4f5a c93f
000006d0: 982c d2f7 571c d33f ed4f e3ce a8cb ce3f
000006e0: c48f 4004 1599 d53f cdf2 400d 284d d93f
000006f0: 5e3d 50a6 aae1 cb3f 435f eb45 e8ff d93f
00000700: bd9c d4ba dcc4 dc3f f7b9 fe4a 6f24 d63f
00000710: 6dda 3c97 8c58 d53f 73c0 2126 d635 d23f
00000720: 1e6e 171e 6f44 d63f 3e85 833c 384c da3f
00000730: 4df4 bb08 9e6c c73f 88df 795b 964f da3f
00000740: 8cde ebab dbef c33f 990d 191d a154 c83f
00000750: 9e75 7265 c3bf ca3f 7002 4b67 a991 d13f
00000760: 28f9 1d28 d891 cf3f b634 2b72 8548 d03f
00000770: 1bde 3a3b 471f d23f cac1 f1d1 1c7a d13f
00000780: 5210 7ede 681b 903f 8a44 bb16 0353 ce3f
00000790: 4247 3069 7fdd ca3f b365 636e 3897 d23f
000007a0: 6d47 9f39 3c4b d43f 6b3d 7e2f 8877 a63f
000007b0: f592 a95f 9afb c93f cf9f 1e77 5beb 8e3f
000007c0: 1e11 d5ec 383c a4bf b153 8dd2 2152 bbbf
000007d0: 8a6f a1aa 1406 b93f 4e40 59e7 5b44 a73f
000007e0: fe7b fc27 b593 a23f fb64 cc3d 9943 c83f
000007f0: 5fac e119 0328 d03f 4afe 080a 4119 c0bf
0.08353363906817105 0.009587832299151854 -0.12215178105751463 -0.03179292572572929 0.06634989529692996 -0.035780399805798335 0.06544970750141116 0.05337517458502217
0.1784221842818121 0.11162913725335773 0.10758132118539736 0.04281178445406773 -0.10070765940707656 -0.21626957542388484 -0.10658185616738636 -0.3313655540522668
-0.23924632095160056 -0.006671397811918613 0.009613572115832369 -0.015323918759749547 -0.044339862138157375 -0.0016938709549605305 0.1931217217585252 -0.24241108306486173
-0.007796300551374578 -0.2243880717940574 0.10564276077970178 -0.12163213097098284 -0.0781629236359595 0.05477828384103645 0.2569253186780885 -0.12008911670811633
-0.7889572718466644 0.1713684938089708 0.0974684515237828 0.2188471131446297 0.02583276584729844 0.0555884864655099 -0.3349347265871963 -0.8019017497093242
-0.39188538491511654 -0.2517237187859343 -0.05342258962421935 -0.1487861262924746 -0.030632600455315063 -0.1639300424982209 0.0810276940676205 -0.1410002951911744
0.5114544343207348 -0.22455901861198851 -0.41911407321008304 -0.2054855826311553 -0.18985144587714034 0.12669321455244725 -0.5832789492302064 -0.09197205558974525
0.06804320095962134 0.46577223464002043 0.0911645587194784 0.12707468265749342 -0.1765466296700134 -0.09725832592885994 -0.2574304157697722 0.5376583809761877
0.19483271710760466 0.030275149446523167 -0.03131007144394097 0.00046721848813415065 0.26962389281751864 0.24471881150386396 0.13561661953264845 0.3035263885281811
0.13202961107993233 0.20092805456807294 0.10465592318372442 -0.01821553959263194 0.16573417535435328 -0.0861414736217254 0.14391369138353602 -0.050919964663856475
0.12227781036907068 0.07136922997634779 0.05358250003444866 0.18814966231408567 0.2594579207155824 0.10808095460501461 0.3353739435599259 0.36972897217366324
0.014517585917953203 0.02919451525834165 0.1691256790054042 0.3197502970102264 0.09239700934401471 -0.08441097637590798 -0.06769825727375875 0.3622817312596524
0.5505323234890658 0.44924654211936405 0.03316329699027635 0.16926298611314683 0.03358830296220879 0.08956873797133734 0.3522143667647216 0.34256835532129604
0.014256868470790912 -0.0710688190753236 0.6636341120554575 0.04529677649695457 -0.3680504819795962 0.17181220786600268 0.4812741111240163 0.6089767493970653
-0.33612961927333307 0.5611425704101132 0.6357699960490856 0.15780819827400297 0.24671297059839134 -0.278558063382184 0.47682143043156805 0.014748689534267065
-0.39261228422142325 -0.01611153182887109 -0.02713082323563716 0.03565345807079554 0.4086407850290516 -0.14999387030033756 0.2227044531592647 -0.24842806165638595
-0.2205141396906681 -0.18771857905648548 -0.22182818717760872 -0.3547367748398603 -0.2399598784315562 -0.19505775726904018 0.05676992675979753 -0.15592062270620566
-0.31393540382686475 -0.28242869529361553 -0.24729772397370237 -0.23245885205127323 -0.31783638343847975 -0.18545008553982595 -0.24493161642625524 -0.2634413016853383
-0.3334369411560454 -0.33016050519005063 -0.281447838144561 -0.2859708096880147 -0.3450392264889833 -0.21384971107407416 -0.25899492225136017 -0.2599839288844076
-0.11258785289067787 -0.1819150614635016 -0.26523435991890754 -0.1867870892886203 -0.2444224212720833 -0.2396114908385544 -0.3197834484022963 -0.17964785265035546
-0.1852917532610464 -0.1409198550515928 -0.3153526930365215 -0.2542720503109149 -0.30524784406244265 -0.35342194508426794 -0.28174876404110655 -0.1451744793439044
-0.10335449108927088 -0.2221322256689451 -0.022267928459875446 -0.28352847950891197 -0.18531909267494348 -0.21330108539971052 -0.03873381095065588 -0.2507207936253069
0.13118329820699554 -0.24333256597157313 -0.3434735651498598 -0.18738824920294583 -0.2577897988182286 -0.1373083247830328 -0.3056852386414947 -0.1931301742228407
0.36461150825897226 0.22097482753267877 -0.11787228856014624 -0.11109125469274977 0.011699413534609742 -0.15026104982739835 -0.1776817757934979 0.04445778174188444
0.1980342760568058 0.20195359177879316 0.28508185648952566 0.43184569575512405 0.4290064140190228 0.41299394150592755 0.07354759778145756 0.2639134855989711
0.23942899842169685 0.374450451454526 0.4242464907121964 0.4118028919812004 0.4317214110448229 0.3230771853955386 0.23284389547417536 0.31433879498379547
0.23607363864271916 0.23991217354611102 0.27433288255080274 0.2611874166714203 0.38158177473589594 0.35088676188380474 0.33560679103901636 0.31762396734308096
0.20168083457940464 0.1980685139291159 0.29860495759266703 0.24059019185972322 0.3374683896565751 0.3953342561178886 0.21782429810307752 0.406244343071638
0.4495155167118801 0.34597379993184013 0.33352961320216573 0.28453592037022374 0.3479268831121959 0.4109020796732529 0.1830022375724262 0.41110762532434153
0.15575738806341055 0.19008268280786636 0.20897715047332793 0.2745154865952264 0.24663831671564052 0.25442634724897617 0.2831590727250572 0.27307816030863974
0.015729559497700336 0.23690832719743 0.20988457332765093 0.29047976284126803 0.3170919954983365 0.04388070659399087 0.20299081488624152 0.015097345898382656
-0.039521960172836254 -0.10672198667937384 0.09774903455530484 0.045443412771988365 0.03628316987146006 0.18956294553280614 0.25244214560979644 -0.12577069272991742

layers.0.bias f8 [128]
00000000: 1bda ebcd 92d7 a63f 7a18 40fe 2430 bf3f
00000010: c5d8 8c8d 3cd2 de3f b447 37d7 c171 c6bf
00000020: bfaa 0a8b 3f81 b5bf 2c86 95fb 4ff5 cf3f
00000030: 4fd1 1a22 7524 c6bf c820 4f26 70ee d3bf
00000040: 40e4 0b3e afe5 abbf 2454 c1be 1962 af3f
00000050: 2c98 9960 297e d4bf 3ad7 9235 7a97 e03f
00000060: 0764 8ce7 0135 d03f 991b 2540 4c27 97bf
00000070: 7b93 5e27 2b75 bbbf 15e5 f08f 3d63 a6bf
00000080: 8157 c875 4588 d0bf 46b9 6c5f bf21 d13f
00000090: be65 9a58 9951 cb3f 4f88 09c6 02ff b7bf
000000a0: d36f 5a29 2e51 b8bf a60c d6e1 c8d6 c63f
000000b0: 7f27 9344 53ba b33f f020 f58d a8ef d3bf
000000c0: bc2f c205 9f06 c5bf 9bc0 1590 cf32 a13f
000000d0: 10a7 bd93 7efc 8cbf 1062 1242 7f85 c13f
000000e0: 14d6 0547 28ba a03f 1372 ca1f c569 cdbf
000000f0: 9090 4a4b 0620 d8bf d030 a51c 3116 e0bf
00000100: 5138 8e74 4022 ad3f 3aed bcb0 9ba9 d23f
00000110: e1c4 8756 2a29 a5bf cef9 e951 993e d4bf
00000120: 1510 4296 d3b1 b3bf 1520 73fd 8ef2 d53f
00000130: 544b ce7f 60c9 b23f 7200 7495 028d bd3f
00000140: 6b3c 65a9 d293 c3bf 52da a271 65c9 bc3f
00000150: 6205 6b61 e42c b33f 7809 efe1 3c8c d23f
00000160: 1d2d 70ea e85a b7bf 8ff0 1871 00ad a13f
00000170: c367 a8b5 ce20 ce3f 20a8 b686 6c66 c83f
00000180: abfb 4ed1 0769 be3f a387 947a 9f10 e1bf
00000190: 4a63 8c3c a89f a43f b3c1 e853 0859 d5bf
000001a0: c1c3 ab00 4799 82bf beda cc86 ca8b d3bf
000001b0: 053a f3cc 4062 ac3f 4bf3 b1aa 86b1 dfbf
000001c0: 4457 a479 021f bbbf dc7a 05d9 eb32 d33f
000001d0: 3385 d86b e32e c13f 1429 faa8 5e0d d3bf
000001e0: d30a 5243 faac c43f 7d6d d171 5495 a0bf
000001f0: 5e3b 52b4 e738 b0bf 60db d334 6e89 d33f
00000200: 7dcd fdf1 b24b d4bf 191e 2ee2 de8b bf3f
00000210: 49c3 c2d1 fed2 ba3f 59a0 97d0 f333 a53f
00000220: 7dee 572f 7242 c2bf 913e 2384 5907 9f3f
00000230: b568 c2ce 8967 c2bf de23 b90b daef d53f
00000240: f58d 2a22 de1b dcbf 4868 48f4 b2d6 cabf
00000250: beda 324e a006 dbbf c20a 00b9 1a54 96bf
00000260: ba0c d15b 38fa a83f a261 1eb1 e078 d5bf
00000270: ec27 88f3 0252 c53f 996b 2425 3192 c9bf
00000280: 5132 cb62 5c67 c93f f18e 73f5 7582 b6bf
00000290: 4a5d 4a68 772e c0bf 899c 08c1 69ae 71bf
000002a0: 3c35 f75e 239c a73f 6bcb 0c09 a98b b9bf
000002b0: db0a 1b83 c0a0 c73f 20bb 9338 7955 a5bf
000002c0: 3bdf 04a4 fc60 a83f 5bc5 3332 172b b43f
000002d0: 70e0 08c8 14aa d33f e960 e2f3 2ed9 c8bf
000002e0: 471f b3a2 17ae cbbf 04fe 3dca 7447 c43f
000002f0: 9eab b564 4b2a 8fbf 6809 9175 f3d0 d0bf
00000300: 49ff a32d bb4f d6bf 6e15 7bdc ccfb c13f
00000310: d58d 5eec 7fc4 d33f f0f0 baa3 617e d4bf
00000320: de4a 3ef1 f6c7 ce3f a1c7 8423 1682 dfbf
00000330: 11b3 04d1 5549 c7bf 3956 ad03 6dae b43f
00000340: a108 7850 6ca3 ddbf 0a95 1188 c2dc d13f
00000350: fc12 b92e 4649 bb3f 8243 5f93 393d be3f
00000360: c81b f6de 964b d2bf 7c2b a706 b969 d23f
00000370: be00 5bef 8ec5 c23f dac7 7ce5 043f d7bf
00000380: fbef a80a 5d51 c53f 559c 4ffb 8afa 98bf
00000390: 89f2 868b 4e76 d7bf df99 54b8 56f2 7abf
000003a0: fec6 6045 b8ea d13f d7b3 916c 8fa8 c53f
000003b0: 52b4 d9f5 8371 a0bf e815 57ba 149c 9dbf
000003c0: 95cc ef14 2640 b03f 7c2c 2d06 3100 d73f
000003d0: bdfc 1ed1 24f1 c8bf 252f 05f4 5fa0 c33f
000003e0: 6e51 02b8 e54d 66bf 4dfb 3799 9b22 bdbf
000003f0: e0f0 ea31 92da c9bf a721 d3a6 d4d3 b63f
0.04461344493568139 0.12182837683949002 0.48158181975612663 -0.17534659393873897 -0.08400342125484438 0.2496738413274654 -0.17298759618064216 -0.3114281057464834
-0.054486728977231724 0.06129532292894904 -0.3202002948149836 0.5184908911094006 0.25323531734608234 -0.022610846915337744 -0.1072566004864494 -0.043725894757196716
-0.2583173418255385 0.2676847869760376 0.21342770410846684 -0.09373490652936421 -0.09498871335603036 0.1784297087398034 0.07706184791746117 -0.31150258887329496
-0.16426456242731813 0.033590780580994926 -0.014153469928448043 0.1368865082374815 0.03267026774384987 -0.22979034473691282 -0.3769546256319325 -0.5027089652517365
0.056901945331546806 0.2916020608860951 -0.04132969194677983 -0.3163207340184301 -0.07693216722879044 0.3429295992941673 0.07338526840457621 0.11543289326437092
-0.15294869681608544 0.11244806312866132 0.07490374925966628 0.2898094374069369 -0.09123092387760719 0.03452302342017887 0.23537620420466795 0.19062573030288466
0.11879013881751514 -0.5332791704315593 0.040280587569390194 -0.3335591144014202 -0.009081415851570076 -0.3054071728142097 0.055437111872027635 -0.49521032971806694
-0.1059419199922021 0.2999829882955234 0.13424341932208392 -0.29769102574995654 0.161528857108428 -0.03238929643040487 -0.06336830284474845 0.3052630916494561
-0.31712030059789936 0.12322800657249679 0.10478203412163824 0.041411990368772585 -0.14265277206128593 0.030301474275630517 -0.14378473849939657 0.34276438851207824
-0.4392009099630905 -0.20967709472535234 -0.4222794307383245 -0.021805207768930364 0.0487840282517253 -0.33550278946634127 0.16656529322818814 -0.19977392495715376
0.1984668238059322 -0.08792817347017114 -0.1264180430632485 -0.00431672392054517 0.04611311468361598 -0.09978729697176696 0.18459326173441223 -0.041667736202603445
0.047614951154570005 0.0787825105251349 0.30725593123089023 -0.19412791164791734 -0.21625037617035955 0.15843067050080617 -0.015217389117159471 -0.2627533577071035
-0.3486164041241762 0.14049683347381453 0.30886838992065907 -0.3202137087753405 0.24047743586978404 -0.49231484860058045 -0.18192551332449416 0.08078652705929636
-0.463099554617779 0.27909911430317946 0.10658682480523035 0.11812171791031115 -0.2858636071545644 0.28770280503947965 0.1466540020683222 -0.3632213822448854
0.16654551525596148 -0.02439324530487526 -0.3665958750314436 -0.006578768491897396 0.27995116019438615 0.1692065506098561 -0.032116054307018374 -0.028915714143087273
0.06347883235121039 0.35938668826265263 -0.19485912524212337 0.15333175101329136 -0.0027226912207628995 -0.11380932322206867 -0.20198275983228253 0.08916977951878967

layers.1.weight f8 [100, 128]
00000000: 2de7 8a7c 1549 dfbf a686 3d87 ddaa ad3f
00000010: 9ab3 1031 3151 ccbf d36f 379f 393c 6dbf
00000020: 341a d5aa cd26 d7bf bcc4 a668 8735 cebf
00000030: 78b0 456d c20b c83f 2179 1edd 040c c03f
00000040: c49c d72b 7aaf d13f ea55 03f8 b63c c2bf
00000050: b534 a01b 36ff d0bf 881d 3dcc 67a7 c4bf
00000060: b09c 3070 d80a b4bf fad0 29d8 2f14 ce3f
00000070: 01e0 6e38 909d c23f 261e 0bd5 76f9 cc3f
00000080: a021 60ef c684 cf3f 8755 87c6 bedc cdbf
00000090: b456 21c2 dfca bb3f 76fe 6afe 053c ca3f
000000a0: 6f9c 8563 f20f c93f 1a1c 4894 1b28 ba3f
000000b0: 8555 c7e4 af18 bf3f ff59 ccdb 1a04 c13f
000000c0: 7730 5ad0 232c e0bf db15 1428 331d d3bf
000000d0: 3393 881d 8726 babf d14d f491 93cb d33f
000000e0: 7c39 1e24 aa1e c83f c9ac 3a85 14c9 a13f
000000f0: 4484 3c9f 4a10 e23f 4b55 6c8d 3933 cb3f
00000100: d61c 7eb3 6a90 c63f 615f e09d 007c aabf
00000110: 68c2 1a69 a0b6 ccbf 6af9 44b3 412c b2bf
00000120: b890 45ac 85bd d03f f296 58b4 31fa b0bf
00000130: 29a5 a68c 590e d73f 6abd 3d1c 3d2a c0bf
00000140: 646c 97dc ccc4 a03f 22a5 845f 7f3a e0bf
00000150: 9be2 1dc4 e0e8 c5bf e77f 55d9 2d20 b2bf
00000160: 1e9b 534d edd2 a0bf 90ec 470a e15f a8bf
00000170: 0ed6 9e0e d2d9 bcbf 881f 4010 e679 e6bf
00000180: c6a7 a734 7e92 b9bf 2125 8ab6 c7da b23f
00000190: 3e2a 79cd 9b5f b83f 929e 1560 b542 e13f
000001a0: 2005 1598 cdaf cb3f f74b da8a ff29 c43f
000001b0: 54c2 1bda 6aed b8bf d169 007d f7dc d73f
000001c0: 33d8 9844 dd3b d13f 9c36 3e92 0dc1 a83f
000001d0: 5482 e4b8 a69f b3bf ac2a 490c e2c9 a83f
000001e0: 4612 e91d 3c0b d53f d07f e585 b063 debf
000001f0: f0cb 6d79 f89f e0bf 119e 9268 49ab b9bf
00000200: 80b5 6824 82f8 d83f c47e f7d6 b264 b13f
00000210: 9869 a2f0 294f b53f 789f dc5e b7d5 b5bf
00000220: 4129 d898 42e8 d23f 162a 5bfc 43f3 c03f
00000230: e890 ac64 5396 93bf cc6e 5f08 d92d d23f
00000240: 550b eb06 61cf 993f b477 7323 3dfb 72bf
00000250: b1ee bb3c 7244 b63f 7f09 ddd9 9b2c b43f
00000260: b039 2b6f 1cc7 b03f 24f2 8f6f e279 da3f
00000270: 219c 0eb3 2407 bf3f 0193 cb19 ba47 b23f
00000280: 4580 0b75 2db3 80bf 7a5b aac7 e996 b1bf
00000290: f3fe 7865 3422 d6bf adba f60f 89ef 973f
000002a0: aa8e 4a43 13b5 c5bf 4d87 ed62 3cc4 c73f
000002b0: af9c a945 c0c2 c0bf b258 58dd bde7 e13f
000002c0: 6a6f 5783 ae2b f03f 9404 3473 2d09 c43f
000002d0: 3b39 a856 9d9f b2bf e1c0 6e69 8cd9 c23f
000002e0: 6923 738b 4311 c1bf b197 f48e 21f3 bbbf
000002f0: 4c17 d8bf d7e4 e0bf 0457 79ff 0efe a1bf
00000300: 3ffb a9ee 9d52 c2bf 9b86 573d fd2e d43f
00000310: 4951 8691 b04b c2bf c636 6b3e ba9c 973f
00000320: 5dcc 1465 ae21 ce3f 6b13 108f 7457 d13f
00000330: c372 99fa c120 c9bf 0b38 336f c8d2 babf
00000340: b5cc 458a 5f40 c43f e7a1 5509 ab46 c6bf
00000350: 63a9 887e fe53 d0bf 40bf f528 068f e0bf
00000360: 7e54 5c72 981f b13f c58e 8536 a546 c5bf
00000370: 0c50 2fda 62a9 e73f a66e fb90 4a02 bd3f
00000380: 0e3e b7e0 c46c cebf f9ad c7de c12f c4bf
00000390: b9b4 0725 4679 d83f 3142 7bdd 0ade ccbf
000003a0: 9f94 7538 00b9 c53f 9e08 3a4d 242d c9bf
000003b0: e84a fd66 d9ce 913f de9c 6be3 1b9e f03f
000003c0: bf92 efad 3f85 bb3f 7a90 4ba7 6528 d3bf
000003d0: d69f e15d b83c bfbf 425b a187 4060 a43f
000003e0: b5f5 0ede 7f69 d43f fe5e 8f9d b503 c0bf
000003f0: bc75 ad47 ffef d43f 82f4 7b20 ba5c d13f
00000400: 8f84 619d b1e0 a53f 1807 d385 807a b0bf
00000410: 4c65 6e73 3177 993f 0caf 9748 9a4a a5bf
00000420: 46ee 949b 499b aabf 2580 24c0 ef9f b83f
00000430: 9bde 3e7c f168 6a3f deac 9ccf 70bb 8c3f
00000440: 1aa8 e1e1 6dea 3cbf 180f b768 2086 21bf
00000450: fde1 d632 5248 b53f 67c7 e80e 8d91 b1bf
00000460: d6ee 5a03 8098 b5bf 4e7f c8f8 d11d aebf
00000470: 1d75 bde3 833c 90bf 5bdc 62c7 5724 9c3f
00000480: ac31 30ed 29b4 b83f 7b08 bff6 b3d4 b63f
00000490: 83b6 2901 dc0a a3bf 64ce ad1b 2d1a a0bf
000004a0: bcdf 9a7c a16b bbbf 2d4a 905b 04d4 93bf
000004b0: 4c7d 33df ef70 993f 9f6c 3f9e 1189 b13f
000004c0: cd60 31f6 6102 78bf 2bed 4941 49bf 673f
000004d0: 36d9 b45e 473a a03f 63ed 36b8 d098 b6bf
000004e0: ac8d 2f75 1328 ac3f f817 68f0 d67d b8bf
000004f0: 10c7 1cc5 396b b4bf da90 a3f7 954c b0bf
00000500: 87c8 1a85 5552 b83f 08f7 8903 32c4 aa3f
00000510: 79db 0c6b 6d02 aa3f c0b0 cf35 6bdb b43f
00000520: c341 cb84 8fc6 a6bf 772b ecb9 05ec 6e3f
00000530: f08d 6538 50eb 993f 6153 af18 f683 a23f
00000540: d998 31f5 b1dc 5dbf 964d 94fa 8ded 493f
00000550: c7ef 6408 b956 85bf 87ac dd64 73b3 a93f
00000560: 6f75 53e7 d4d8 90bf 401e 0b07 5db1 92bf
00000570: b761 9c12 ae8d a43f 1bef ca41 3f8a b83f
00000580: 2112 0e66 3e71 8f3f 37f7 580e 21a2 9abf
00000590: 9b9f f3fd 13c0 a93f 85d1 efff 917f 7cbf
000005a0: e26e 330f 6765 a0bf 49b9 44f8 3c4b 5bbf
000005b0: 692b 81a7 ca01 a1bf a117 e3fd 5445 a63f
000005c0: e555 84ef 5464 bc3f e2d1 1cf0 e7e2 97bf
000005d0: 3edc dc25 3405 aabf a057 8162 04a5 aa3f
000005e0: fb44 4c6a 5e73 99bf dc33 30d4 6ed7 923f
000005f0: c7c1 ad69 385b 93bf c6cf 8531 7906 b0bf
00000600: 77a9 c43b 6cd0 b1bf 5068 9084 c920 af3f
00000610: 9974 4a1a 950c 33bf 2c6f 8474 5808 9c3f
00000620: 18b9 0fb1 0850 82bf 250e 75f0 bf4a ae3f
00000630: 9d1d 3f0c 3968 aabf 48fc 5e8e f1ef b03f
00000640: 95ca 6c44 2741 9dbf a088 a829 e6d3 b13f
00000650: 31c3 69bf fb9d a0bf 64e7 7de0 15fa a43f
00000660: 4f04 3803 0642 b3bf 9272 e358 9423 9c3f
00000670: a05b c4d6 8510 83bf 11aa d979 2534 aabf
00000680: 3500 681b 39a9 9abf a2c3 5a21 6021 b23f
00000690: 764b 2415 945b b03f d977 8fb5 5346 b5bf
000006a0: 9b5d 2f89 5da2 a2bf 2b89 b71d 1de6 b5bf
000006b0: 9621 411d d260 74bf 4de9 c4e9 81a5 a7bf
000006c0: 13cb e1da aeff 96bf e35f cc74 452e a43f
000006d0: 1470 4052 a81f 49bf a173 e7b0 a9f3 a4bf
000006e0: 624f a1e1 59ce a13f 188a 8fbe 7076 913f
000006f0: 18c4 4c12 5c39 bc3f 1ffe b390 554d 92bf
00000700: 2f98 0879 e382 b53f 9cb3 12a5 da6e a53f
00000710: 4d20 4b85 c13a b73f 8005 5bc4 b97c 993f
00000720: 205e bb4c 5fba 933f 4992 e77b 48df 72bf
00000730: 02dd ad9b d6e9 9abf 6a26 20b3 b23b 36bf
00000740: 3c76 419d 15f8 b93f b539 fe6c 54f3 6e3f
00000750: fa5b f5aa 7319 bdbf f8be 7384 bf12 b53f
00000760: b1d2 a76a c827 b33f c76c 403e 8696 b73f
00000770: 1740 41cd cfb3 a7bf bbda 1785 c27c 903f
00000780: 8062 aaf1 e2ca a8bf 04ae 3484 02aa ad3f
00000790: 62e7 5d34 a7db a7bf 35db f9ef 3a2b 5a3f
000007a0: a079 fc12 d745 ae3f fc3d 7c3e be7e b1bf
000007b0: 6541 bcfe d62c b5bf 6038 3cc3 a49f b23f
000007c0: 5ee9 666c a34f a73f 858a 1fb6 eba6 a53f
000007d0: 7890 53ba ad2e a13f 4ed1 047b a3b1 97bf
000007e0: e66c 9c45 16f8 b6bf 6929 a82c b3ee b3bf
000007f0: 4d29 3d6f ab81 b93f e7d2 09a7 b347 a33f
-0.48883568918573667 0.0579442241276074 -0.22122778793109604 -0.0035687566212185633 -0.36174337084631536 -0.23600857362683836 0.18785887084539232 0.12536679074123305
0.2763352802416643 -0.14247786626826492 -0.2655768651755566 -0.16135880920976953 -0.07829048861514099 0.23499105505801038 0.14543345218203288 0.2263630428553693
0.24623953521974062 -0.2332991093996208 0.10856436242587614 0.20495676920653566 0.19579915866345085 0.10217449541242765 0.12147044501701572 0.13293777210556354
-0.5053881711369418 -0.2986572162047573 -0.10215038748772258 0.3093003201804239 0.1884358097417581 0.03473724485714908 0.5644887075506024 0.2125007572691778
0.17628225101746037 -0.05172731330111336 -0.22432332164818836 -0.07098780276007735 0.26156751464283046 -0.06631765988330665 0.36025084243245203 -0.12628902319873286
0.03275146668212228 -0.5071408143605007 -0.1711693723298325 -0.07080351406102602 -0.03285924500396774 -0.04760649919986648 -0.11269867760605498 -0.7023802106277666
-0.09989155564804184 0.07365081984075462 0.09520887152135857 0.539393127121871 0.21630258489498377 0.15753168373029755 -0.09737270188248576 0.37286174018086365
0.2692788286107117 0.04834787759965062 -0.07665483488063646 0.04841524505589709 0.3288107196897595 -0.47483456683948777 -0.5195276614816731 -0.10026987841649083
0.39016774707382496 0.06794278858387331 0.08323919415344105 -0.08529230180704228 0.2954260342236417 0.13242387601924638 -0.019128134746225905 0.28404832666067814
0.025205150649309022 -0.0046341312620067805 0.08698190672651653 0.07880567616397192 0.06553819383700588 0.41368924040560473 0.12120274898062224 0.0714069664932815
-0.00815425408785598 -0.06870900272984484 -0.3458376875823738 0.02337469253478257 -0.16958847795205162 0.18567614393674106 -0.1309433307789951 0.5595387766977835
1.0106644754914336 0.1565300762668228 -0.07274802556660102 0.1472640528495566 -0.13333935078687922 -0.10917863597987211 -0.5279349085765062 -0.035141438184536994
-0.14314626840129027 0.31536799421710676 -0.14293486695954474 0.023058805522672164 0.23540286956412873 0.27096284838653756 -0.19631218658732594 -0.10477879252286486
0.15821451427072977 -0.17403161960397925 -0.25512659413165845 -0.5174589920043005 0.06688835899361043 -0.16621842539017542 0.7394270192548915 0.11331621207812734
-0.2376943680996963 -0.15770743730477912 0.38240197769375645 -0.22552619757199602 0.16970827824403487 -0.19669011851153057 0.017390629683471298 1.0386008151634125
0.10750196453552528 -0.29934064233226076 -0.12202026645684269 0.03979684501307769 0.3189391773738309 -0.12511320298539624 0.32714826583636714 0.27128461048398134
0.04272990270761411 -0.06436923281856044 0.024868748350489953 -0.04158479820384117 -0.0519659998339788 0.09619043770771947 0.003223868990939694 0.014029389701667613
-0.00044121916460560103 -0.00013369699114040216 0.0831347822303385 -0.06862718214031603 -0.08435821611322622 -0.0588212600889607 -0.015855847144270564 0.02748238710838922
0.09649908104638055 0.08918308996274675 -0.03719222559162196 -0.03144970858457155 -0.1071110657893532 -0.01936346825466211 0.024844882963291057 0.06849775422544944
-0.005861647284369731 0.0028988295328510514 0.031694631872982645 -0.0882692765944078 0.054993255667592805 -0.09567016000082151 -0.07976113378824956 -0.06366860671875277
0.09500631808876579 0.05227810185622955 0.050799769704489024 0.08147306503059593 -0.04448364730854195 0.0037746536103261913 0.0253117117330372 0.036163034928597744
-0.001822637354757675 0.0007912581687911531 -0.010419316834138116 0.05019722563050615 -0.016452147120494084 -0.018254712633988257 0.040143432399591665 0.09585948330180509
0.015352714051695195 -0.026009098530486354 0.05029356455798891 -0.006957598029647354 -0.03202364025648109 -0.0016658873947324618 -0.03321679396375183 0.04349771117408286
0.11090594146329343 -0.023326515226658524 -0.050820951101222964 0.0520402307744654 -0.02485415958205282 0.01839993639082481 -0.01890266556751088 -0.06259877642679532
-0.06958652934250674 0.06079702132429132 -0.0002906669636020903 0.02737558566251079 -0.008941715148435267 0.059164045431796354 -0.05157640718931165 0.06616124845366855
-0.028568852950409413 0.06963957325982273 -0.03245531760774723 0.04097050061586918 -0.0752261884554326 0.027479474950143308 -0.009308858505887418 -0.05117909538678956
-0.026036159799332565 0.07082176985092173 0.06389737621456767 -0.08310435469272139 -0.03639499950048305 -0.085542506938087 -0.004975147971045498 -0.046184596811559155
-0.022459728345391627 0.03941552210579837 -0.0007667133218123312 -0.04092150005792595 0.03477745894693275 0.017053376799490122 0.11025023886465168 -0.017873131710983366
0.08402845101281352 0.04186137452175062 0.09074029449686911 0.02488985310515579 0.019265641268104372 -0.004607470646508968 -0.02628264737310549 -0.00033925164018509
0.10144171799898855 0.003778138059664838 -0.11366961406507406 0.08231732352919241 0.07482578853507495 0.09214056987586892 -0.0462937295966414 0.016100921033251874
-0.0484229011537467 0.05793769706573573 -0.04659769548648175 0.001597220951138301 0.05912658793225778 -0.06834019685287979 -0.08271545142293275 0.07274846807942614
0.045529467566171475 0.04228912923988041 0.03355925464146109 -0.02313857496592791 -0.08972300719726753 -0.07786102142578034 0.09963485208314644 0.03765641607325226

layers.1.bias f8 [100]
00000000: c4a3 ce64 e767 bbbf 0ebf d7f3 73b7 b6bf
00000010: c4e0 a07d e186 9fbf 8c1c e98a dea0 b03f
00000020: fbc3 a5c4 1e34 b03f d2cb 2218 c9c0 8d3f
00000030: 0000 0080 4560 9fbf c63b e69f 6feb 5a3f
00000040: b585 edad 3cc2 b1bf e24b f108 475b a9bf
00000050: f07f 958c 1c63 86bf e0c9 84fa 79e7 a83f
00000060: 6817 011f b4de b3bf 7eeb 8903 cfdb b13f
00000070: 7baf 7726 2420 b53f 2808 94de b42b a7bf
00000080: 6b4b 273b 76b0 b7bf 139c cad4 e74d bdbf
00000090: aa1b e963 b41d c03f 177a 5efb 5f0c a5bf
000000a0: 0754 3688 1dbc 77bf 7106 0f7d 1a4d b2bf
000000b0: 3aef 0672 dd4f 98bf 835e b9e5 1c1e c93f
000000c0: 64a3 6a2a d498 c83f 1e7f 2e40 0dff ab3f
000000d0: abb9 fac3 1873 a8bf a7c3 bee7 98f8 7d3f
000000e0: 5504 e099 eda3 b2bf 67b5 9cb3 a6b4 b3bf
000000f0: e13f bcdf 2171 b33f 0fbb ebff 5b43 763f
00000100: 0000 00e0 a425 aabf 3620 a972 fd3a a8bf
00000110: 9473 eaf9 822f 37bf 5c54 4dc3 f3ec a7bf
00000120: ac36 322e 1210 abbf 868c a3fa 6630 b5bf
00000130: 8732 a3a3 4d48 adbf 9d4c abc7 ba7e ba3f
00000140: 59ee 3803 df79 b1bf c3e4 fd01 9d7b ad3f
00000150: af61 bd69 648c 953f cd86 d65e 159d 7dbf
00000160: 8c73 8cec 5009 c13f d49a 8d91 dcc9 bebf
00000170: f1af 6a22 428f c13f 1c1b 2fdc 6417 babf
00000180: 78a3 8846 6f88 b4bf 545f 7b86 11af b33f
00000190: 3bc6 a58c efbc 9bbf 97f4 5bc0 870b 8d3f
000001a0: 06f3 5004 cd4b ad3f d3b7 391c e176 bbbf
000001b0: cc3d 9b60 679f 743f e2ca 021a cfa9 bfbf
000001c0: 2625 196d 7140 b5bf e281 8484 7fbb d53f
000001d0: cea8 c902 a0db 973f 4987 cf88 5c32 79bf
000001e0: 2774 52e0 2b99 91bf 8e61 8b96 ef15 a13f
000001f0: b3e4 804a 3114 b2bf 0000 0040 0efd a3bf
00000200: 7db0 eb4d 8e80 c2bf c63c 972a ac96 c53f
00000210: 9b06 be02 ada5 b8bf 46c4 fd85 4ee4 a93f
00000220: de16 2a8d 2d0d 9d3f c525 5126 7e5c 95bf
00000230: 0000 0020 f3db 78bf 3b1e c3e6 647a 91bf
00000240: ba23 6f61 6f35 643f 627a b5a9 6424 d93f
00000250: 583a ffe2 3fce b53f 6b60 aa2f 9913 72bf
00000260: f830 88e7 ecc2 b13f 8b8d 99c7 4f1c a53f
00000270: 99f4 cc0f 9353 a13f 09bd d12c b8d3 d13f
00000280: 0abc 3dd1 2c66 a7bf e47d 7575 28cf b13f
00000290: f8ae fde2 480c abbf 9082 13bb 589b 7dbf
000002a0: 8bfb 0df7 b8b0 a93f f284 f69c 732f 8d3f
000002b0: fd9f 5284 3748 a7bf 0000 00a0 b3f6 a4bf
000002c0: ea24 8c06 487b b03f ee32 c350 b68a c0bf
000002d0: 0000 00a0 85c6 a5bf 4d0e 5581 f7fb b5bf
000002e0: 9737 aeba bcc9 bfbf 13c9 cac1 743f babf
000002f0: 0388 4a0f b789 9bbf f4c2 6ecc 6d32 9dbf
00000300: 559f d616 ee9c b23f 0000 00c0 01b1 a8bf
00000310: 0901 0c6a 5e6d a3bf a13b 3e6c 0a51 90bf
-0.1070541974173827 -0.0887367697066532 -0.0307879670073994 0.06495467082378265 0.0632952909561623 0.01452786545664778 -0.030640684068202972 0.0016430463871050945
-0.06937007185253814 -0.04952451690828476 -0.01093122772243757 0.04864102538194337 -0.07761693722667717 0.06976026379008535 0.08252168597362967 -0.04525532929439208
-0.0925363439958297 -0.11446999497512449 0.12590651396223268 -0.041110038218210736 -0.005794635162051704 -0.07148900559607242 -0.023742160877858277 0.1962314721774768
0.19216396399613267 0.05468026550738457 -0.04775311844183546 0.007317158971930227 -0.07281384474482995 -0.07697526822149357 0.07594501220978557 0.005435332654754501
-0.05106845125555992 -0.047325058218632796 -0.0003537840620227381 -0.046729676809868365 -0.05285698713224227 -0.08276980990517488 -0.05719225523498488 0.10349624037489709
-0.06826585606261783 0.05758371972383138 0.021043366388171666 -0.007229884603846504 0.1330968050978324 -0.12026766351264523 0.13718439751153214 -0.1019194638784992
-0.08020682785048716 0.07689008267641145 -0.027087920150228078 0.014182148511731092 0.057218939568406 -0.10728270472620176 0.005034831827017649 -0.12368482956916751
-0.08301457322626912 0.3395689767949347 0.02329874054923025 -0.006151544058384869 -0.01718586498883581 0.03337048256588836 -0.07062061375553945 -0.039040036499500275
-0.14454821400375187 0.16866066054942602 -0.09627801243734739 0.050569967132908775 0.02837058233355704 -0.020860644425089853 -0.006069135386496782 -0.01706845911465236
0.002466886081922995 0.3928462655366386 0.08517836849134974 -0.0044132217250521895 0.06938057568203593 0.04123162566682045 0.03384074752691752 0.2785473287285219
-0.04570140890324843 0.06956723086977196 -0.052828099926811534 -0.007228228191906397 0.05017641082576237 0.014250663020734387 -0.04547284593837728 -0.04094468429684639
0.0643811241135556 -0.12923315947991604 -0.042530227452516556 -0.08587595851445791 -0.12417201573972957 -0.10253076297047796 -0.026892528827950467 -0.028512683489398463
0.07270706231667863 -0.04822545498609543 -0.037943792767693614 -0.01593414579070507

layers.3.weight f8 [100]
00000000: a630 107c 42a1 f43f 7c68 5b13 3e8c ef3f
00000010: ec47 4e5d 17f3 f13f 39ef 93e7 eba2 ef3f
00000020: 89c0 69ea d9d1 e03f ebf3 7b1b 1330 f83f
00000030: 0000 0000 0000 f03f 8f4d dca5 b203 f23f
00000040: daed 36bd d6af e63f bf22 2837 e936 f23f
00000050: fbec 3995 ea75 ec3f 1219 2952 8898 f43f
00000060: 2f92 a1c2 c20c e53f cfbf 7df6 8c19 eb3f
00000070: 4c2e fa6a 8cda ef3f 7fff 4ba3 9dd4 ee3f
00000080: d8c9 694d 8ea9 ef3f ff40 610b d4fb ee3f
00000090: 40ab 4cc1 e8b2 df3f aba1 aeb4 1941 eb3f
000000a0: aeaf 489b bf6d e63f e3fd 5205 34dd f13f
000000b0: 01ce 5fc0 a602 f03f a17c 8163 4227 f13f
000000c0: 72fe e072 b846 e43f c6a8 01a6 b1b2 ef3f
000000d0: 21cb 8368 8242 ea3f aaf0 12f8 10d2 ee3f
000000e0: fc6b ee05 fe07 f03f 16ce 9f31 9918 f03f
000000f0: e866 b7cc cde2 ef3f 2301 de8c 5e8b f03f
00000100: 0000 0000 0000 f03f c85c fd1c dc95 ef3f
00000110: fece 11c2 4660 ea3f ed69 8b0d 5fe7 ef3f
00000120: ebd6 bce5 eaaf ef3f 1859 2393 f0ee e53f
00000130: 6783 be94 cdce ef3f 0ec7 4f48 28d7 ed3f
00000140: f17f 21c2 95fc ee3f e652 ab5d be47 f03f
00000150: d390 e96a a504 f03f 6d79 31b1 bf93 f03f
00000160: f9bc 4c2a e503 e33f 6000 a7b7 2cf3 ec3f
00000170: c954 e4ba b42d f43f 8c5a 80d3 37fc ee3f
00000180: 557d cbda 5c45 ef3f 0b97 93e3 1270 df3f
00000190: fd4a c292 da9b f03f 4881 45dd 043a e73f
000001a0: 12c6 17d2 c83d e63f aa85 4622 2b37 ef3f
000001b0: bbce ea81 19d2 ee3f 1e6a cb95 943d f43f
000001c0: 0440 c8d1 6f04 ed3f 9c3d 6e6b 4323 f03f
000001d0: 50bd 64f5 ddfb ee3f 3a85 0194 688c f03f
000001e0: e7a2 3fe5 602e e13f 8fe6 51ba 23ae ee3f
000001f0: 5a1a 4444 c116 ef3f 0000 0000 0000 f03f
00000200: dbae 5dc5 0d21 ec3f df04 d830 4362 f53f
00000210: 35b4 9f70 d9fb ee3f 3038 7cfb d3a5 f33f
00000220: b7dd 95c6 76bb f73f 39fb 198b fae0 ed3f
00000230: 0000 0000 0000 f03f f83c 4573 9bfc ee3f
00000240: 4e4d 346e 9bab f03f 838c a106 f9e5 f03f
00000250: c2a5 6d43 d778 ed3f c81e 2396 6625 ee3f
00000260: 9d4c a79f 3659 f03f 2e81 252c 3e80 f03f
00000270: 1945 3e02 08f6 ee3f 837d 0b80 7f51 ec3f
00000280: cc56 9aaa afda ed3f f121 2b4a 487e f13f
00000290: cbb8 968b a49a ef3f fe86 365f 171a f13f
000002a0: 4615 e2ed e609 f03f daea e979 7e32 f03f
000002b0: 9b7b 019c b833 f03f 0000 0000 0000 f03f
000002c0: e66d c315 8319 f03f 1520 6573 a225 ea3f
000002d0: 0000 0000 0000 f03f a479 d2ed b50f f03f
000002e0: 95a3 98d1 a058 f03f a6c0 ae41 89a3 ea3f
000002f0: b0fc 5eed 61d0 ee3f 1b62 a98b cdce ef3f
00000300: 85df 890a 3e25 f03f 0000 0000 0000 f03f
00000310: dc47 c533 7425 f63f a378 8582 d138 f23f
1.2893700453014758 0.9858694437091482 1.1218484539754128 0.9886378787045721 0.5256166056042427 1.5117369721986005 1.0 1.1259027937820496
0.7089647002789505 1.1384060053407408 0.8893940844131117 1.2872393807788893 0.6578077126874343 0.8468689741403014 0.9954282845878395 0.9634540738479557
0.9894477378823536 0.9682407591117509 0.49529475094702846 0.8516968277881934 0.700897029198577 1.1165046890235935 1.0006473078364027 1.0720847975679038
0.6336328738907027 0.9905632250131695 0.8206188241295856 0.9631428570933356 1.0019512397473127 1.006005472035104 0.9964360235564671 1.0340257170319738
1.0 0.9870434347348231 0.8242524900838075 0.9969935669462849 0.9902243125022471 0.6854174493589964 0.9939945130500804 0.932514325364737
0.9683331290834741 1.0175155314402047 1.0011343170418072 1.0360714837657625 0.5942254854361685 0.9046844088516188 1.2611586857286048 0.9682883387457237
0.9772171281182788 0.4912154409815776 1.0380502445956943 0.7258323976239263 0.6950420478225985 0.9754844350283538 0.963146928543629 1.2650342799521535
0.9067916009244077 1.008609218264474 0.9682454865305008 1.0342794209939954 0.536911437750942 0.9587572707234403 0.9715277036019174 1.0
0.8790348868182848 1.3364898593866241 0.9682433318790858 1.227985365261258 1.4832675702326534 0.9337132183862656 1.0 0.9683358432174876
1.0418962769370697 1.0561456927323725 0.9210010830840292 0.9420655186049425 1.0217806087937682 1.0313092922661542 0.9675331157506292 0.8849484921337737
0.9329450924003253 1.093330659599925 0.9876272894232668 1.0688699454553325 1.0024174969015163 1.0123276483779393 1.0126272291160834 1.0
1.006228528035416 0.8170940641221046 1.0 1.003835610382887 1.021637743697487 0.8324629099716006 0.9629373203423679 0.9939944961325325
1.0090923701918382 1.0 1.3841440222063204 1.1388716791621298

layers.3.bias f8 [100]
00000000: 918f 908b 1ca2 be3f 8544 5490 ebaf 58bf
00000010: 4037 45b2 7b9a 95bf 4c83 7829 9139 91bf
00000020: 9526 7980 bed5 c3bf 1897 7aee 7865 b23f
00000030: 04a6 d820 0613 94bf ab1a c41f c3b9 babf
00000040: 0824 e9a3 43ea a8bf 2264 9625 29ce a0bf
00000050: 24e2 13eb c745 c4bf afb7 58be d581 85bf
00000060: 9719 9c04 21b9 cabf dda4 fcbc 8b03 74bf
00000070: b338 9780 f94b 873f 1d3f 1de2 1680 813f
00000080: 7b1a cb13 bdbc 84bf 9a28 9615 f724 d03f
00000090: beca 6865 094d bb3f 8033 92c9 88bf c2bf
000000a0: 0bd8 5c3b 39d0 ba3f 4afd 078f 692e 94bf
000000b0: 7e9e 3357 5bc9 6dbf ec5e cd66 f5e3 d2bf
000000c0: 06cb 48b3 6c72 bc3f 53d5 e891 0b96 623f
000000d0: ab12 4545 9b03 d6bf 1d10 a99c 0790 b8bf
000000e0: 57df fb30 c8e1 953f d7b2 4d24 dded ad3f
000000f0: c1a4 ffe1 937a 84bf 274b ca79 8ff3 a03f
00000100: d786 c7a3 8365 9ebf 3dea 7ac9 b9ee b3bf
00000110: 1247 7d10 caa7 9e3f 7183 099b 89a9 a13f
00000120: 1470 74f0 50a8 9c3f 6076 1e2c dead 72bf
00000130: bf1e d2ac f9db 90bf eb4c 5450 1093 d3bf
00000140: 1747 7ad9 d8d4 c83f 7c78 d6f7 3164 843f
00000150: 2a16 f749 8c36 9c3f 2fd7 f900 6bbd a5bf
00000160: ed1d 4a68 99f5 b4bf 8946 280c 85dc 9a3f
00000170: e9cb 7b7c 6e3d a93f ccb2 d0ef 71f8 c2bf
00000180: 4794 184f 6721 a23f 9ab2 9466 08af 9cbf
00000190: f13c adb1 3745 883f 0993 03a8 b2a4 96bf
000001a0: 64d5 18a2 726f 9dbf 94e4 427a 0840 5d3f
000001b0: f82c 34da 21dc 9cbf cc15 3c96 5498 b43f
000001c0: a053 7d68 fa3b 8dbf ec33 a77f 5c0c ccbf
000001d0: aff0 6954 074b ca3f 13c5 fd14 7d68 acbf
000001e0: e72a 977e b5c6 90bf 0cbc c61f b752 c2bf
000001f0: 04fc d649 d07d b13f 6ac0 2007 dc84 c93f
00000200: e54c 6ac1 477f c1bf f9e5 85ec d0d7 c0bf
00000210: c126 f286 cdfb 993f 7711 c291 42a0 c6bf
00000220: 7376 0e0b b81b b23f 784e 9b8e 2f3f 9d3f
00000230: 1f7c 69f5 443c 90bf 9823 f8ff 108a bd3f
00000240: d606 3bd6 c27b c03f 51a8 950c 1448 dabf
00000250: 99a7 5bcc 4383 783f 7a51 3eae 41d8 813f
00000260: 4d83 f6c1 a150 d23f 28a3 f462 098c c63f
00000270: 6ded 2895 a328 6a3f b502 7a08 32fc d4bf
00000280: 9e49 3ca2 273a c2bf 81a2 8caf 04a0 ce3f
00000290: 8c12 b48e ecb9 93bf b341 1e71 7acc 833f
000002a0: 2507 e512 dacb babf 3c90 b2b0 ea1a c6bf
000002b0: 248f b26c 21f7 a23f 06a5 ceb0 7bde 993f
000002c0: 9011 6e5d 61bc 5fbf 45a1 c01f 5792 72bf
000002d0: 6ea0 f58f 13c6 c8bf 4050 2623 dfd2 a2bf
000002e0: 9551 05e5 c356 a0bf 0f5d 8d40 ee06 b0bf
000002f0: 12be 3ae8 ecd8 8f3f 356f f1f1 98ec 8a3f
00000300: ffbb 0037 5122 a23f c2e7 e5b7 4c44 9f3f
00000310: 1977 7a85 ba7c b7bf 665e 8ba4 299f ccbf
0.11966112525311547 -0.0015067863872142717 -0.02109711909843459 -0.016821163326429286 -0.15496045373065628 0.07186084577787388 -0.019603820566919353 -0.10439700627839936
-0.04866229415763007 -0.03282288154441228 -0.15837954500581575 -0.010501546737113758 -0.2087746880062695 -0.0048861940884219164 0.011375378834511762 0.008545092368563762
-0.010125615278764535 0.25225617511808596 0.10664423681081822 -0.14647016374911104 0.10473973941120122 -0.019708299021656196 -0.003636053466482824 -0.29516348876266707
0.11112098099765086 0.0022688127494584847 -0.3439701248610542 -0.09594771933285569 0.021369102468241277 0.058455382043438746 -0.009999423345976035 0.033108218781441594
-0.02968412100916037 -0.07786141556690836 0.02993694043772794 0.03449659364264946 0.02798582522983402 -0.004560344563200397 -0.0164641391498026 -0.3058510574785049
0.19399557703996415 0.009956732154759111 0.02755183412025112 -0.04246076952851607 -0.081872547112759 0.026231840960525808 0.049296810813664944 -0.14820694169738713
0.03541109886672494 -0.028011447201765273 0.01185077200866977 -0.022112647537954753 -0.02874545206414804 0.0017852862156771164 -0.028183487837890348 0.0804493777069048
-0.014274555505531528 -0.21912723763526232 0.20541469213265404 -0.05548468476525605 -0.01638301453730664 -0.14314927150323375 0.06832601359108997 0.19936704967540503
-0.1366967863474208 -0.131586184968725 0.025374614106602026 -0.17676574818700505 0.070735457133617 0.02856134708311095 -0.015854909399760083 0.11538797616243668
0.12877688847043228 -0.4106493113419037 0.0059845589036998876 0.008713257913577566 0.28617137853330094 0.17614857990090482 0.003193206307768362 -0.32789278819840756
-0.14239974424033347 0.23925837108369666 -0.019263931474613957 0.009667355134099198 -0.10467303239149979 -0.1726964342861964 0.0370417065799116 0.02526276842732946
-0.0019370032148070294 -0.004534092262510396 -0.19354481248160788 -0.03676507286141417 -0.031911966044080455 -0.0626057536695621 0.015550471150475285 0.013146586307065536
0.03541806980535255 0.030533980106589594 -0.0917469573855353 -0.22360725912470797

layers.3.running_mean f8 [100]
00000000: 270b b4bc 2de2 a93d 0500 0000 0000 0000
00000010: 0500 0000 0000 0000 0500 0000 0000 0000
00000020: c276 50ec 5ccd 2440 80cd d374 da39 3340
00000030: 0000 0000 0000 0000 0500 0000 0000 0000
00000040: 0500 0000 0000 0000 0500 0000 0000 0000
00000050: bd09 abec 6ba8 3b40 0500 0000 0000 0000
00000060: 0500 0000 0000 0000 0500 0000 0000 0000
00000070: 0500 0000 0000 0000 0500 0000 0000 0000
00000080: 0500 0000 0000 0000 0500 0000 0000 0000
00000090: 0500 0000 0000 0000 a3d8 c342 25d7 2e40
000000a0: 0500 0000 0000 0000 e7fd baaa d5b5 3340
000000b0: 0500 0000 0000 0000 004b 8b02 61ff 4040
000000c0: 2d01 7ddb c699 2040 0500 0000 0000 0000
000000d0: 8d2b d977 d3bc 2240 0500 0000 0000 0000
000000e0: 0500 0000 0000 0000 0500 0000 0000 0000
000000f0: 0500 0000 0000 0000 e8d3 c3e9 36f1 4140
00000100: 0000 0000 0000 0000 0500 0000 0000 0000
00000110: 0500 0000 0000 0000 0500 0000 0000 0000
00000120: 0500 0000 0000 0000 0500 0000 0000 0000
00000130: 0500 0000 0000 0000 f3de 2f3e a073 2a40
00000140: 0500 0000 0000 0000 e822 ede3 8d01 3e40
00000150: 0500 0000 0000 0000 0500 0000 0000 0000
00000160: b527 e12f 628c 1140 0500 0000 0000 0000
00000170: 8ef4 3ad1 c5b0 3540 0500 0000 0000 0000
00000180: 0500 0000 0000 0000 ba3d 2e6c 5bcb 1940
00000190: 0500 0000 0000 0000 0500 0000 0000 0000
000001a0: 0500 0000 0000 0000 0500 0000 0000 0000
000001b0: 0500 0000 0000 0000 0500 0000 0000 0000
000001c0: 0500 0000 0000 0000 c0a8 9266 962c 2040
000001d0: 0500 0000 0000 0000 0500 0000 0000 0000
000001e0: 59cc 4bad 17ce 2540 0500 0000 0000 0000
000001f0: 0500 0000 0000 0000 0000 0000 0000 0000
00000200: 52a3 2d5f d577 1c40 ba22 bdef 0b81 2740
00000210: 0500 0000 0000 0000 0500 0000 0000 0000
00000220: a730 e187 e8c6 3540 3049 7324 4a3b d01e
00000230: 0000 0000 0000 0000 0500 0000 0000 0000
00000240: 9cb8 4fcd 7564 3c40 8236 ff2b 8e28 1e40
00000250: 0500 0000 0000 0000 0500 0000 0000 0000
00000260: 747b b7c8 2ed8 2940 0500 0000 0000 0000
00000270: 0500 0000 0000 0000 8805 ecdf 8b38 2a40
00000280: 0500 0000 0000 0000 8675 c56a e0c7 2140
00000290: 0500 0000 0000 0000 0500 0000 0000 0000
000002a0: 0500 0000 0000 0000 0500 0000 0000 0000
000002b0: 0500 0000 0000 0000 0000 0000 0000 0000
000002c0: 0500 0000 0000 0000 1fba 5f00 6042 3d40
000002d0: 0000 0000 0000 0000 0500 0000 0000 0000
000002e0: 0500 0000 0000 0000 0500 0000 0000 0000
000002f0: 0500 0000 0000 0000 0500 0000 0000 0000
00000300: 0500 0000 0000 0000 0000 0000 0000 0000
00000310: 9546 61e2 ac44 2240 f695 7ded 6918 3040
1.17704577829048e-11 2.5e-323 2.5e-323 2.5e-323 10.401099572012189 19.225989629468586 0.0 2.5e-323
2.5e-323 2.5e-323 27.65789679694875 2.5e-323 2.5e-323 2.5e-323 2.5e-323 2.5e-323
2.5e-323 2.5e-323 2.5e-323 15.420206152350437 2.5e-323 19.710291548397347 2.5e-323 33.99514800836005
8.30034528637824 2.5e-323 9.368800874004387 2.5e-323 2.5e-323 2.5e-323 2.5e-323 35.88448831617262
0.0 2.5e-323 2.5e-323 2.5e-323 2.5e-323 2.5e-323 2.5e-323 13.225831931441894
2.5e-323 30.006071324724786 2.5e-323 2.5e-323 4.387093303792359 2.5e-323 21.69051845254267 2.5e-323
2.5e-323 6.448590936968168 2.5e-323 2.5e-323 2.5e-323 2.5e-323 2.5e-323 2.5e-323
2.5e-323 8.087084966089947 2.5e-323 2.5e-323 10.902524390700068 2.5e-323 2.5e-323 0.0
7.117024886284371 11.752044193113182 2.5e-323 2.5e-323 21.77698563812069 2.8863144864322564e-160 0.0 2.5e-323
28.392422515834014 7.539604842616997 2.5e-323 2.5e-323 12.922231933973059 2.5e-323 2.5e-323 13.110442159234267
2.5e-323 8.890384041408435 2.5e-323 2.5e-323 2.5e-323 2.5e-323 2.5e-323 0.0
2.5e-323 29.259277366038187 0.0 2.5e-323 2.5e-323 2.5e-323 2.5e-323 2.5e-323
2.5e-323 0.0 9.134131502508618 16.095366328392593

layers.3.running_var f8 [100]
00000000: 2949 23bf c27d a13d 0500 0000 0000 0000
00000010: 0500 0000 0000 0000 0500 0000 0000 0000
00000020: 8f50 013f 2f6b 0840 9878 4b6d ccf7 1040
00000030: 0500 0000 0000 0000 0500 0000 0000 0000
00000040: 0500 0000 0000 0000 0500 0000 0000 0000
00000050: 5b74 57b6 ddb3 f93f 0500 0000 0000 0000
00000060: 0500 0000 0000 0000 0500 0000 0000 0000
00000070: 0500 0000 0000 0000 0500 0000 0000 0000
00000080: 0500 0000 0000 0000 0500 0000 0000 0000
00000090: 0500 0000 0000 0000 204b d69c e826 f53f
000000a0: 0500 0000 0000 0000 7089 4a57 55d3 0240
000000b0: 0500 0000 0000 0000 e4f4 7437 a2c1 0b40
000000c0: 62e3 638a 6318 0140 0500 0000 0000 0000
000000d0: fcaf d878 8090 0240 0500 0000 0000 0000
000000e0: 0500 0000 0000 0000 0500 0000 0000 0000
000000f0: 0500 0000 0000 0000 ac61 f33f 4020 fb3f
00000100: 0500 0000 0000 0000 0500 0000 0000 0000
00000110: 0500 0000 0000 0000 0500 0000 0000 0000
00000120: 0500 0000 0000 0000 0500 0000 0000 0000
00000130: 0500 0000 0000 0000 bd6c a49e 617d 0740
00000140: 0500 0000 0000 0000 eca9 0318 6ed2 0440
00000150: 0500 0000 0000 0000 0500 0000 0000 0000
00000160: aca8 6fec caaf e23f 0500 0000 0000 0000
00000170: f9eb 8853 2102 f93f 0500 0000 0000 0000
00000180: 0500 0000 0000 0000 d3d7 5dbd 559b fe3f
00000190: 0500 0000 0000 0000 0500 0000 0000 0000
000001a0: 0500 0000 0000 0000 0500 0000 0000 0000
000001b0: 0500 0000 0000 0000 0500 0000 0000 0000
000001c0: 0500 0000 0000 0000 19ab 3769 c8d9 fd3f
000001d0: 0500 0000 0000 0000 0500 0000 0000 0000
000001e0: f19d 1340 f155 fa3f 0500 0000 0000 0000
000001f0: 0500 0000 0000 0000 0500 0000 0000 0000
00000200: 33bd e190 080b fd3f 8503 f713 0ecb 0440
00000210: 0500 0000 0000 0000 0500 0000 0000 0000
00000220: 50db 3cb7 692f 0d40 35a6 30be a5c0 911e
00000230: 0500 0000 0000 0000 0500 0000 0000 0000
00000240: 6c71 ebca 7e1f fa3f 2cad dab6 b570 f73f
00000250: 0500 0000 0000 0000 0500 0000 0000 0000
00000260: 837a 45ad dc8d 0240 0500 0000 0000 0000
00000270: 0500 0000 0000 0000 a2d3 4e90 b5cb fa3f
00000280: 0500 0000 0000 0000 bcb5 560d 96cd 0f40
00000290: 0500 0000 0000 0000 0500 0000 0000 0000
000002a0: 0500 0000 0000 0000 0500 0000 0000 0000
000002b0: 0500 0000 0000 0000 0500 0000 0000 0000
000002c0: 0500 0000 0000 0000 f22b cf0c a40a 0340
000002d0: 0500 0000 0000 0000 0500 0000 0000 0000
000002e0: 0500 0000 0000 0000 0500 0000 0000 0000
000002f0: 0500 0000 0000 0000 0500 0000 0000 0000
00000300: 0500 0000 0000 0000 0500 0000 0000 0000
00000310: f8aa fe6a 5f59 0640 e057 7384 0cda ff3f
7.95410089621368e-12 2.5e-323 2.5e-323 2.5e-323 3.052336208560582 4.241990764361752 2.5e-323 2.5e-323
2.5e-323 2.5e-323 1.6064126131743908 2.5e-323 2.5e-323 2.5e-323 2.5e-323 2.5e-323
2.5e-323 2.5e-323 2.5e-323 1.321999180455073 2.5e-323 2.3531901187536093 2.5e-323 3.4695476849143336
2.1369086086019005 2.5e-323 2.320557541001106 2.5e-323 2.5e-323 2.5e-323 2.5e-323 1.6953737733912062
2.5e-323 2.5e-323 2.5e-323 2.5e-323 2.5e-323 2.5e-323 2.5e-323 2.9362213510445074
2.5e-323 2.602749049770173 2.5e-323 2.5e-323 0.5839590661901375 2.5e-323 1.5630200636940101 2.5e-323
2.5e-323 1.9129235646373572 2.5e-323 2.5e-323 2.5e-323 2.5e-323 2.5e-323 2.5e-323
2.5e-323 1.8656696424538437 2.5e-323 2.5e-323 1.6459820273392973 2.5e-323 2.5e-323 2.5e-323
1.8151937159962699 2.599147945380937 2.5e-323 2.5e-323 3.6481508555838573 1.972979462057839e-161 2.5e-323 2.5e-323
1.6326892782736548 1.465017046236265 2.5e-323 2.5e-323 2.3192685639217543 2.5e-323 2.5e-323 1.6747336995151518
2.5e-323 3.97538385792606 2.5e-323 2.5e-323 2.5e-323 2.5e-323 2.5e-323 2.5e-323
2.5e-323 2.3801957131122373 2.5e-323 2.5e-323 2.5e-323 2.5e-323 2.5e-323 2.5e-323
2.5e-323 2.5e-323 2.7936390265434703 1.9907345937585816
