model_policy_epoch-260.pt (torch, 373906 bytes, 28 tensors)

layers.0.weight f8 [128, 128]
00000000: 905f ac52 3b69 fabf 4073 4b31 e8d1 bb3f
00000010: 0a40 08cb c94d bdbf 8e80 b30f bfd0 cdbf
00000020: f4b5 7ac0 f9b8 c0bf b2a7 7ad8 d84f e1bf
00000030: a11b f8ca 0d59 e0bf f8b9 fd03 ef18 f2bf
00000040: 04f7 5f9d 5644 f6bf d09a 16e0 4004 fbbf
00000050: 9232 176f 0171 d23f e6ca bb84 efb2 fdbf
00000060: 7050 9544 4556 e7bf 88b1 8eaf 370a dbbf
00000070: 5c7f b730 830c efbf c3d8 f316 3bbc d3bf
00000080: aa6e 9ec3 2c98 c33f b9e8 6a53 83ba dfbf
00000090: 1ded b3f5 f053 f9bf 3065 aa29 e3ca c9bf
000000a0: 852a c079 0038 adbf e42b 86b6 cca2 ebbf
000000b0: 4590 8b17 c9e2 d4bf c8e6 1f8d ea8d e63f
000000c0: 0947 5408 ef57 f1bf 93c6 8452 7811 06c0
000000d0: 3872 153d 671b f7bf 1589 4045 7d61 efbf
000000e0: 729f c254 29f8 04c0 cbd8 b9ba ffd7 b33f
000000f0: 2919 9e0a 4ed0 f8bf 13c7 96cc ff23 f1bf
00000100: c2c1 8132 4310 fabf f562 5258 d4fb ba3f
00000110: 08a1 d3d2 569b ac3f dd6c c285 52ee eebf
00000120: a47d 2129 5300 ce3f a138 0278 4da4 cabf
00000130: 6560 bcc1 3755 e7bf 8df1 c1c9 5712 f23f
00000140: b06d c718 126f f13f 556e a329 11d2 ffbf
00000150: 9770 5994 ec60 edbf 540c cccc 5abc e1bf
00000160: e09d c2e1 41f3 f03f 92a8 da35 4564 fabf
00000170: 4833 46fa cbdf 00c0 3af1 c9a7 6baa d23f
00000180: 51a5 a1dd 1d5c f2bf 5464 b0fa 7810 d9bf
00000190: 1b17 d2d9 e63b 13c0 55ce 7a02 22ef fcbf
000001a0: 2992 0ae0 57e5 c9bf 9c8c e15d 4824 e7bf
000001b0: e071 8118 7538 edbf d80c 510f 87c1 02c0
000001c0: 4588 c4e7 fac9 f1bf 8332 ac3d a18d f8bf
000001d0: 3896 2372 d1ad 06c0 dbde e6bd 19bd febf
000001e0: 41ed 4701 aa37 f9bf bd60 3ddc 548b e4bf
000001f0: deba bd52 0e8a 00c0 afab bc0f 7427 d43f
00000200: fdb7 202c 2616 0240 8c27 c08d 8668 e73f
00000210: fbe6 7fbf 22e4 babf 5e0a 3e59 eb43 f43f
00000220: 7089 5345 0f5b f23f 5193 cb19 f778 f43f
00000230: d5b1 ee07 7f2a ea3f 9a7b 3e4c 6521 d83f
00000240: 2e4e 086e 186d e4bf 68bf de33 9c38 f03f
00000250: 5b2e 1604 a233 f13f 099e c151 bdcb fc3f
00000260: 8046 12af 3726 0240 ee81 4663 f3f6 e9bf
00000270: 08d1 9e3f 97e3 fd3f f958 2c16 4278 f33f
00000280: c831 e199 d18b d3bf 8246 a729 c8f6 fe3f
00000290: 2c24 5ddf fd17 f53f 4a47 19e1 e300 e23f
000002a0: 9a19 ad48 f8b1 e33f 8b97 1ebc bb87 e93f
000002b0: 7f91 5a4f 2f59 eb3f e6c4 b5b2 b419 e1bf
000002c0: 3d5f c48a b756 ee3f 0a55 0c09 e8da ef3f
000002d0: 8d82 f568 1a81 ff3f ee35 5ac7 8b94 d3bf
000002e0: d288 d8cd 13df f53f 122d c2e2 dbdc c43f
000002f0: 77e1 9366 4c3a 0240 e7f4 26ac 9b91 b2bf
00000300: 1005 e734 e00b 0440 b2f7 02fb bc54 b43f
00000310: ff53 9b36 8ac0 6f3f 7217 6590 575e fd3f
00000320: 1170 69fa c195 debf 5207 f7e7 512b d2bf
00000330: 7d4f 6ea9 8873 dfbf 4b31 e90e d62b 08c0
00000340: f5a3 9a9a 23f8 e5bf dde1 1a48 ea5a 0140
00000350: b31b 3ff8 b68b 0540 bc18 5b05 3043 d1bf
00000360: bd68 888c f92b c63f 97fb 62ca 3958 0240
00000370: ae6b 3f62 414b e9bf 1aa4 e052 02b9 a6bf
00000380: 7766 038d 53c8 e53f a447 d61a 6b38 f03f
00000390: ec8b 963c 7492 d8bf 728d 255f 96a6 c53f
000003a0: 122d 5b00 dfbc f2bf c353 feb6 5209 ca3f
000003b0: a3aa 1032 0f30 dc3f b82c 22ee 6eac db3f
000003c0: 3eff fea3 2920 0540 8ead 5d7f d094 f13f
000003d0: d861 3855 0593 f03f 36af f75a 1bd5 0740
000003e0: be4f af50 d51e 0140 9756 c40f 4df0 f8bf
000003f0: 211e 888b 0326 eb3f 847a de66 d961 fdbf
00000400: f2db 6831 00b7 00c0 d2f5 5aab a3b3 eabf
00000410: 4dd0 4754 9865 eabf 33af 3181 13f2 e0bf
00000420: a6b5 633b ff1b e3bf 82c1 789a 6aab f9bf
00000430: 61db b3c1 8d34 e6bf 91fb c99a 970c e2bf
00000440: fb90 3573 09d4 f5bf 9bd1 42ad 6b54 01c0
00000450: a196 0f73 7694 f2bf b2af 367f 472a f8bf
00000460: 5edf dda4 fa29 f8bf 03ca 0e7a 5574 ebbf
00000470: ee68 d184 7d9a f4bf b064 a307 9d16 e1bf
00000480: 87e0 0717 928a ebbf 8e32 3d9f d472 f0bf
00000490: b63d 4b29 9eee f8bf 31f9 6cb3 709e ebbf
000004a0: 1576 9569 b548 e0bf 6d22 9964 3792 e6bf
000004b0: 09ee 1a70 82cb d6bf a7e4 76b2 ae25 eebf
000004c0: e551 cc52 494e f6bf 9017 91cb 8f28 03c0
000004d0: d7f5 372e ef4a f6bf d43c fb80 1e39 cebf
000004e0: d046 a2e9 7bc6 01c0 02a1 430e 3762 b3bf
000004f0: f6f0 748d ea33 febf fdbe c4ad d407 e2bf
00000500: 8823 1b12 9415 fabf 1952 a10b 651b ecbf
00000510: c0b6 f991 02a7 aebf 0565 c794 e786 e4bf
00000520: 7000 f7f9 ff36 e5bf d19d 7939 52e4 dbbf
00000530: 000f 57d0 d42c f1bf d0b5 3521 1dbc a83f
00000540: 8f9a 4e12 2e91 c93f 353f 4e7d 04c6 fcbf
00000550: bdad 1708 7621 e2bf 4841 a1a1 d328 e9bf
00000560: 892c 4a63 13ec e33f 924c 5990 4adb f7bf
00000570: 17b4 ce01 5bbf dfbf 19ad c043 0435 e6bf
00000580: fb85 d16b d744 d5bf 9e89 ed80 4414 f1bf
00000590: 781a 68b8 a284 14c0 2203 bc7d 576c f8bf
000005a0: 4a48 d469 5b28 e7bf daaf e9b6 0607 f2bf
000005b0: f907 1583 5282 dfbf 5460 e5dd f27d 02c0
000005c0: c4ad 5900 ec86 d2bf 31f8 3740 a41b f0bf
000005d0: bdbf c2f8 d757 02c0 90bd 70b5 f1da f9bf
000005e0: 797d f37e 89c8 f9bf d13e 4281 a5bf d7bf
000005f0: e249 7e47 d4cd 02c0 47c8 d798 4913 e33f
00000600: 0f16 3acd 3606 fe3f 21ee a8b2 9c0f e33f
00000610: 5864 3e48 7f32 cebf 3558 e1a9 9d37 f03f
00000620: da88 3ecf 0c8a e83f 323c 976f ff59 f53f
00000630: 2951 8929 8539 b53f 96f7 8525 389b c23f
00000640: 098e bdec b5ac d8bf 2e42 7b37 7d78 fa3f
00000650: 3f8c 819c 7a52 f63f b58d 2714 fadc f83f
00000660: 1ccf cbfc 37c4 f73f f053 619e 1b8c afbf
00000670: 8495 17d1 85ef f93f f792 b8b4 2a3b f23f
00000680: b369 e27c 0c5e debf 5e08 198f f2aa f83f
00000690: d8b2 3aeb 795f db3f cc97 3726 2096 d83f
000006a0: fca4 cc00 8ae1 e43f 4f17 aabb 7227 f53f
000006b0: 5f41 b1d8 9981 d93f 369e fe59 8d4e 9e3f
000006c0: 49ff 544f 33ac 0040 12af 4ca1 9bb5 f13f
000006d0: 7292 efb1 97a4 f53f 709c 3f21 2adf d6bf
000006e0: d77a 8a88 2d6b e63f d264 c062 160f b1bf
000006f0: 73c2 8f74 04a9 0140 37fb acb5 d685 93bf
00000700: 3f02 4165 eb13 0240 dd49 2a88 7cce e73f
00000710: 8d17 7345 f9a0 a43f f1ee 68c3 e914 e83f
00000720: b2c4 5c94 e0fa e5bf 0602 3f04 2a2b d5bf
00000730: 5a1b 551c 702f e1bf d7e3 046d aec2 fcbf
00000740: 5a2b 555f ae67 e6bf bc36 6554 4c0a ff3f
00000750: 0428 8cfd 48e9 f83f fc46 d600 381d d73f
00000760: 9f4a e7fb b69c c8bf abcb 1634 5cd4 fa3f
00000770: de0a add4 5237 f2bf b02a 3785 82a9 e13f
00000780: ba79 955e 65d0 f1bf 4798 f9f0 7c8d ea3f
00000790: 67b6 b11f 6857 df3f 0a6d 8fe5 4ae1 e13f
000007a0: d954 ab0f e461 d0bf 59e5 3c72 1c22 e0bf
000007b0: 962e fee5 fdc3 b23f cfab 2c34 e849 d03f
000007c0: ca74 b98b 8c2f c63f 7f95 15cc 3228 db3f
000007d0: 8359 5ea0 04dd e93f 6fe8 4571 54d3 0240
000007e0: d141 daf4 7ef9 fb3f db14 b0f5 5d85 f3bf
000007f0: 5e43 b929 33ab f63f a1b0 1cd3 cc27 03c0
-1.650691340391834 0.10867167666897348 -0.11446820456353649 -0.23293293253573605 -0.13064500711827487 -0.5409969547374571 -0.5108708347550995 -1.1310873180296976
-1.391684164758261 -1.688538432450219 0.28814731453602704 -1.856185453882682 -0.72928107638519 -0.422498628084917 -0.9702774001598118 -0.30836369744737285
0.1530815081758779 -0.49575884958506894 -1.5829934690253318 -0.20150413069203799 -0.05706788526739096 -0.8636230053829164 -0.3263418893750479 0.7048237568225995
-1.0839681935653422 -2.7585302778978273 -1.4441902528843809 -0.9806505539493481 -2.6211725828069854 0.07751463230838167 -1.5508556761502155 -1.0712888709790078
-1.628970334331925 0.10540511280340666 0.055872643695524415 -0.9665920841684074 0.23438491352406488 -0.20813911781119024 -0.7291525634673347 1.1294782525211275
1.0896168678217286 -1.988785898828515 -0.9180815598915782 -0.5542425155584945 1.0593890017279293 -1.6494800666501175 -2.1092757752107083 0.2916516436159956
-1.1474894196965872 -0.39163040620184586 -4.808497813651935 -1.8083820435394007 -0.2023115009261727 -0.7231790383924763 -0.9131417730928284 -2.344495887433009
-1.111811547606082 -1.5345775994384503 -2.834872142516158 -1.921167127422385 -1.5760898637807517 -0.6420082379873048 -2.0674101318503366 0.3149080423051442
2.2608149955258328 0.7315094727102731 -0.10504357505115174 1.266581867793 1.147231360250398 1.2795325286508226 0.81768752621934 0.3770383114405661
-0.638317313105693 1.01382084142457 1.0751056823381961 1.7997410958868179 2.268660896058293 -0.811395353219323 1.8680641637011508 1.2168599001066112
-0.3054088595133888 1.9352494837843612 1.3183573460721716 0.5626086613139958 0.6154748362976534 0.7978190111359579 0.8546368169668738 -0.5343879213743576
0.9480855665487763 0.9954719711992379 1.9690193271600578 -0.30594152896887195 1.366962246022514 0.16299007961456674 2.27846603525921 -0.07253430321630426
2.5057987339975014 0.07941800239765831 0.0038759898642219954 1.8355327263284065 -0.4778904862812406 -0.28389403965785676 -0.4914266256903302 -3.0214043774523467
-0.6865404147730475 2.1693921693042584 2.6932200807818503 -0.2697258045485673 0.17321700441318014 2.2930789767701287 -0.7904364508534536 -0.044380257241137325
0.680703902641837 1.0137740181275854 -0.3839388457947155 0.16914634366831255 -1.1711111081993448 0.20340951857784093 0.4404333104054478 0.4323994946978007
2.6407044231599732 1.098831651232874 1.0358937577167264 2.979056082423905 2.140055303907473 -1.5586672416588152 0.8483903622845369 -1.83638897116876
-2.0893558368802525 -0.8344286295684304 -0.8249017377952527 -0.5295503161737315 -0.5971676025343882 -1.6043497118044745 -0.693915251088452 -0.5640371344778591
-1.3642668247567247 -2.1662210021988364 -1.1612457747045613 -1.5103220910341233 -1.5102487983803807 -0.8579509147587604 -1.287717360325185 -0.5340104245361967
-0.8606653642482492 -1.028034803416776 -1.558256303123796 -0.8630908493430863 -0.5088755666908492 -0.705348679047416 -0.3561712355401317 -0.9420999036439256
-1.394112895422148 -2.3948055175450875 -1.3932945065893045 -0.23611813829345485 -2.221916032089986 -0.07571739290472482 -1.8876748586326904 -0.5634559053341658
-1.630268164373975 -0.8783440806533377 -0.05986793548514191 -0.6414678483808137 -0.6629638559461579 -0.4358106194763112 -1.0734451425823295 0.04831019430535444
0.19974304098032689 -1.7983441252471952 -0.5665846021706141 -0.7862337261995345 0.6225678385975623 -1.49103790651569 -0.4960544126177537 -0.6939717601102614
-0.33232675103326387 -1.0674481426473004 -5.129526978830306 -1.5264506255627528 -0.7236764018036947 -1.126715387824325 -0.49232924271575446 -2.311498387873181
-0.28948497804841744 -1.0067484386959331 -2.292892402117984 -1.6159531676783878 -1.611459251311173 -0.37107217429091316 -2.3505025468268608 0.5961044297421346
1.876517106692862 0.5956557740641452 -0.23591605212712596 1.0135780940959311 0.7668518111934433 1.3344721182836676 0.08290893806526313 0.14536191780274227
-0.3855414211195414 1.6544162909741646 1.3951364625470573 1.5539494311604873 1.4854049563263692 -0.06161581333495991 1.6209772269879474 1.1394450244344492
-0.47449028201813376 1.5417352285153565 0.4277024075661706 0.3841629384245351 0.6525316253293165 1.3221309023515067 0.3985352150093799 0.029596527688822337
2.084082240849885 1.1068378735316782 1.3526837301843924 -0.357370884389133 0.7005832354369329 -0.0666364661305068 2.2075280290958346 -0.01906524165974163
2.2597263250793556 0.743955865810047 0.04029063198826952 0.7525528732871561 -0.6868746659948981 -0.330759529253584 -0.5370407632225167 -1.797529626708856
-0.700156389424005 1.9400141998952867 1.5569543747137695 0.3611583717512159 -0.19228255557989812 1.6768457445839242 -1.1385067279485876 0.5519421197762622
-1.1133779234583998 0.8297714907209944 0.4897098836434907 0.5587515338515072 -0.2559747841854239 -0.5041639548500526 0.07330309739171023 0.25451092810788806
0.17332608053667392 0.4243285172472823 0.8082297451208408 2.3531884049853526 1.7484120907357588 -1.2200603100948715 1.4167968396979727 -2.3944336407785873

layers.0.bias f8 [128]
00000000: bc51 5e56 c76e 04c0 fc70 ec74 c2f0 04c0
00000010: 41a2 856e 1537 0140 6b01 07ee 1398 e73f
00000020: edc8 7966 4cf5 d03f cd2f b3c2 4ed9 fbbf
00000030: 5983 f3fa ffa5 eb3f e9ed e1ce 7505 0040
00000040: b9b6 8643 a790 e6bf af78 faef 5274 b53f
00000050: 31ef 3a3c bcb0 eb3f 2a1e b905 192b f53f
00000060: fff5 c370 c512 09c0 ce49 2f4b e288 fcbf
00000070: 333e e33d ebbf d3bf 0e5e da09 8d84 0640
00000080: 9a52 5ae6 898f 0040 11cc 91b4 aadf 8c3f
00000090: 4efd 2126 bb1e 0140 a54c 5336 e97f e0bf
000000a0: 0940 48b9 7826 ea3f 60d0 eaa7 7231 f0bf
000000b0: 92d8 dc3d 95a3 d93f f8b7 3e8b 9330 d8bf
000000c0: d36a ff64 0ecf f33f 64ab fb35 610d 04c0
000000d0: 69df f561 562a f03f f651 6f37 73c4 f83f
000000e0: a20e 97c5 0f8a f2bf 6373 af1e f6bf f0bf
000000f0: 95d9 53b6 90a4 f6bf 6fec 2fb4 bd38 f03f
00000100: 5ab9 5401 0bc6 d13f 43b6 0cf0 806f 793f
00000110: e36d c9b0 a72b dd3f 91f1 72ad fe38 b4bf
00000120: 9b4e 38fe cfc6 0040 3bc9 30bc da39 0cc0
00000130: edcc c2ea b568 e7bf 9fc9 038b 0d73 f9bf
00000140: 8ba2 33c5 ba21 ad3f b8eb 2c66 ea6f f83f
00000150: ac0d a98d fec4 f5bf 1302 29a1 8553 f1bf
00000160: e082 8304 01f5 00c0 58bd 40dc a81a c4bf
00000170: 6ba0 65f3 54ff d6bf 7756 ce07 ece4 c33f
00000180: e5fd 9e0a bd31 6b3f 6087 ee59 95a4 c3bf
00000190: f4e5 96f6 6ccc 05c0 4907 948a 39f0 b53f
000001a0: ead3 2599 3028 f53f 6c73 37a6 34bf 0040
000001b0: 9e98 9e7c 82d5 ddbf bf15 2704 ae95 ec3f
000001c0: 0467 f5aa f702 fd3f 9214 e8f3 6796 e63f
000001d0: 4480 e3aa 645f d83f b7a7 7021 b7c2 e2bf
000001e0: 252e ba59 3e88 f8bf 282a 1445 23d5 fa3f
000001f0: 9509 35ad 92b1 f03f db3d ca15 66ad e33f
00000200: 9e1c ec1e 75a0 e9bf b277 ccc1 8f5b e03f
00000210: a70e 58a7 ac24 f5bf ee03 0e03 3404 f23f
00000220: 2b6e 79fc 86aa e13f 88cd fe46 9d27 0340
00000230: 98ca 2f5d fd53 01c0 adfb 6e09 f8e1 f03f
00000240: 4646 ff90 5241 f4bf c4af 065a 898b efbf
00000250: 8a5b 6961 e9c1 fdbf 16c8 b92b 1cbb 0140
00000260: 511b c90c e6ec c2bf f929 ce2a 43a0 78bf
00000270: ea95 9b6f 4904 f1bf 8401 94c0 14c9 fb3f
00000280: b00d 85c3 1ae6 ea3f b5f2 11bf a7aa d6bf
00000290: 9836 0eb9 93eb fb3f d912 c540 3511 ee3f
000002a0: 614c 03c1 7179 f03f 1af8 7802 d9ef e3bf
000002b0: cad9 a816 e71f f8bf 15d7 590b 94a9 fcbf
000002c0: af7e 5445 d6d0 fc3f 81bb 61b8 1290 fdbf
000002d0: 6d7b 715b eec0 01c0 2088 73e2 f010 ffbf
000002e0: 6c4c 3efa d947 02c0 624f c548 8bf5 c9bf
000002f0: ff17 a30f aae9 00c0 ab9a c1a7 161b e4bf
00000300: ac7c 5cd8 3a92 f4bf f777 bcb4 e94c ec3f
00000310: a88d 6c5e 11ed fe3f 100c 48e8 47e1 e53f
00000320: b98c 6433 757c d93f 9cd3 fc9a f010 0ec0
00000330: d331 bb72 c472 e73f bda8 3e1b 6348 e5bf
00000340: 5e55 8008 429d fb3f 0dd2 676b 4755 d5bf
00000350: f24d 32d8 8a12 00c0 8fae 087c a4a3 dfbf
00000360: 1d6b a2a0 5c4c aabf 362e 3aac 6e2b fe3f
00000370: 076f 0c20 343c f83f 9b0a d5c6 4d8b f9bf
00000380: e172 9ab7 dbd1 c23f 6370 e2f9 724e f5bf
00000390: aea8 8b10 2344 e9bf 80fa 105b 992a e93f
000003a0: eecf 4f9c a44e ccbf b74d dfa8 567f f1bf
000003b0: 7623 cd20 d7f3 f43f bd43 3c01 875a d5bf
000003c0: 656d ab6b 7bd1 f4bf f964 cea4 dba1 db3f
000003d0: 2079 5664 afab f13f 362d 331e b0a0 d9bf
000003e0: 9ddf 735a 0736 c33f 6fef 4373 fc8e e83f
000003f0: 19be d0a0 5167 e2bf 6a41 7385 3063 c43f
-2.554091143372913 -2.6175583967834637 2.1518963465244103 0.7373141907665234 0.2649718285312151 -1.7405536275355076 0.8640136624709199 2.002666107435051
-0.7051578825828165 0.08380621298644785 0.8653241325732549 1.3230219100531806 -3.1341656503489044 -1.7834189354804155 -0.308588800847221 2.8147221345677798
2.070087241774968 0.014098485599083362 2.1400053958056224 -0.5156141339342822 0.8171962374490259 -1.012072235037543 0.40060931245114617 -0.37796486471313484
1.2380508370612702 -2.5065330712727008 1.0103362871722885 1.5479614415572747 -1.1587064474451059 -1.046865577568689 -1.415177070824574 1.0138527906954342
0.2777125847814169 0.006209853804461543 0.4557894922670284 -0.07899467215151491 2.0970764027532147 -3.5282492353809665 -0.7315320573019598 -1.5905890875115813
0.05689796120879461 1.5273231497983328 -1.36059432350235 -1.0828911109275665 -2.1196308472284358 -0.15706358675513843 -0.3593342186854957 0.15542364483978918
0.003319615575463552 -0.153460186874379 -2.724817205886888 0.08569678910501212 1.32231197188707 2.093362139289118 -0.4661565987575019 0.8932714539629883
1.813224475676578 0.705860115413673 0.3808223408541418 -0.5862689641119151 -1.533262587067733 1.6770355890645394 1.0433527723222131 0.6149168420396863
-0.8008370975448036 0.5111769471293341 -1.3214537178873031 1.1260261649442742 0.5520663195742989 2.3943429514417325 -2.1660105972490094 1.0551681869980982
-1.2659478820754813 -0.9857832678148886 -1.859841709627036 2.21636232529364 -0.1478545725278431 -0.006012213107974501 -1.0635465964963893 1.736592056520835
0.8405889338250088 -0.3541659704131164 1.745013926385047 0.9396005883250736 1.029649499851779 -0.6230282829562868 -1.507788742555578 -1.7914009517093679
1.8009855945783035 -1.8476741030133044 -2.2192046302802084 -1.941635975432753 -2.285083727861595 -0.2028059106183902 -2.1140938970229395 -0.6283067013253761
-1.285700650368919 0.8843887834552778 1.932877892345326 0.6837501084086188 0.39822130221200386 -3.7582714184195094 0.732759689411575 -0.6650863201259863
1.725893052299703 -0.3333300160295785 -2.00905388740079 -0.49436294663130637 -0.0513638444983455 1.885603592646374 1.5146981479546768 -1.5965097205050032
0.14702936615949283 -1.331652618514476 -0.7895675013690118 0.7864500788344486 -0.22114999420557474 -1.0935885044644758 1.3095313340474752 -0.33365035172124263
-1.3011430936665758 0.431754027312834 1.1044153136677508 -0.4004326147957785 0.15008632580406536 0.7674543620373536 -0.5751121655393404 0.15927702442287323

layers.1.weight f8 [100, 128]
00000000: 1d35 d099 e9ef aabf ed26 7b40 4f74 a63f
00000010: 7479 c99b 1ea5 9ebf 110b a64d 28cc b9bf
00000020: 79a7 0d63 4e22 be3f 13e5 b6c8 bcc6 873f
00000030: d569 0a81 7cfc b3bf 3d4e a8f0 52d8 bdbf
00000040: 0e7c 4865 ed81 bb3f 64db d8ac 9153 96bf
00000050: 12e1 178b a2af 9dbf 7900 69d0 6761 b13f
00000060: 5952 7839 4585 a23f a2c0 d700 b78e b23f
00000070: 42cc 8356 3d2b a53f 8e80 6ed7 476a a43f
00000080: 32fd 8d83 e197 abbf 4bed 741f a6d7 ad3f
00000090: 454a e983 988a 96bf 8fe9 05b6 7443 cbbf
000000a0: 3a62 d5f4 25e2 a6bf 53e1 49ba 4ce3 a2bf
000000b0: 44c9 68e8 8b8c bdbf 6332 d320 4482 c03f
000000c0: c894 faed d19a b83f f5d7 0c5c 5317 49bf
000000d0: f03b 77e6 0dc5 c13f ab26 bb97 90dc ae3f
000000e0: fd9a e0e8 790c 8bbf 48af be85 e97c bebf
000000f0: 8824 19bf bc6f b3bf 415b 8dd7 df02 b7bf
00000100: 28c7 454b 6da2 b0bf 3e8e db9f 981a 7b3f
00000110: a7ec 1e73 bdd7 ba3f b7e6 7c71 05cf c43f
00000120: 23a3 2608 365b 8a3f 86a0 5168 9dba 943f
00000130: 32d9 116e ad10 b03f 0752 8c28 0649 8cbf
00000140: 290d 3de8 b0b3 b1bf 70f7 7426 cd8b c93f
00000150: e97e 9e23 424b c4bf ee49 a892 3d3e 72bf
00000160: 68f7 290f 7c2e b3bf 6051 30ac 4d72 cf3f
00000170: 543d 8777 8163 b0bf 98af e017 363f d03f
00000180: 169e 5afa 9790 c4bf 8362 148e cb41 a73f
00000190: cbaa d727 d7c9 703f 75da e168 23d1 b03f
000001a0: 9d2d ef23 4af1 aabf ef52 fc8b 47d9 963f
000001b0: e36d f9e2 062a a4bf ecc2 79d9 5398 99bf
000001c0: 06f7 ed93 0a7c 583f e8f5 6122 bc73 bbbf
000001d0: b569 6af2 a567 ad3f 23f0 1851 8e24 b1bf
000001e0: fb92 7dfd 0ae3 bf3f dd74 6a3b 8039 85bf
000001f0: 0211 0d9b 4471 babf 6812 e5ea fc51 a13f
00000200: eeca 4ff1 90fd b0bf 08ce 6170 0a89 6f3f
00000210: 7a2f 7f8f fce0 94bf 3f1a 0df5 469d b13f
00000220: e737 0282 0036 9e3f 7479 bb87 949b bfbf
00000230: 361d f772 ad5a c9bf d749 636f 063a c03f
00000240: 954e 0d8f 853c b23f 777d 205a f532 b33f
00000250: 7a81 16ff 29fb 8e3f e0ac 4cc9 5e4e 9a3f
00000260: 869e 0c0d 6c49 94bf bb1c 62cf bceb b73f
00000270: e8d8 c1c1 bd1e 853f 27ef b3e2 eab2 a9bf
00000280: 4f96 f183 e189 bebf 5a4f 470e 7eba c4bf
00000290: 68f1 9bd0 b635 c0bf fef3 3d84 1f40 b0bf
000002a0: 908a 001f 38c4 c43f 44ed 1580 3d8c b3bf
000002b0: 57ce b8cf 842c ca3f dde1 9d41 466c 96bf
000002c0: 2114 ba3a 0162 b63f fdb6 93ee da31 c2bf
000002d0: 2e55 e3b9 1a7c b13f 0029 70b4 b019 9dbf
000002e0: b1eb 36e1 0a4c b0bf f3ea 3ef3 9085 963f
000002f0: 03c2 c323 48c7 b5bf e7de 1f26 2b9e 94bf
00000300: bf05 85de ae01 773f 7980 ec97 891b b1bf
00000310: c5b5 64a6 63a9 053f d0f9 c93f 66ed b2bf
00000320: 6229 9932 8a5d b1bf 91dc 306b f7de b43f
00000330: 6b16 c6a5 54bd c1bf 77c2 806e 32fb 97bf
00000340: fbc2 3991 9dd2 883f 31ee b042 57a6 babf
00000350: 86b7 0724 b0e2 89bf d613 b3b4 08c1 9e3f
00000360: 119e 62f0 60d9 c23f 8f9a dc6b 607a b13f
00000370: 7656 2f54 8777 98bf 3f07 1d67 4452 993f
00000380: adba a960 d340 973f 3615 a498 aa85 a1bf
00000390: b6ef 4a84 1263 b2bf 6895 3cf4 48d7 95bf
000003a0: b0ac 1e48 163e b2bf 2b70 63f4 9e05 b0bf
000003b0: 62fb 539e 66aa a93f 3357 e567 23f4 b3bf
000003c0: f979 76e0 50d5 96bf 70e7 c9a9 7ca4 9dbf
000003d0: 0ab9 7fe2 fe4a c23f cdf6 c166 79a6 a13f
000003e0: d824 697f cbd3 bdbf 0c10 dbf1 7038 a3bf
000003f0: a0eb 0b0f 3989 bf3f 6ebf 1b79 772a c23f
00000400: 6d05 deac d9d3 c53f f740 0b1f 413e eb3f
00000410: 28f0 c79e a85a c9bf 884e 2f56 caa4 db3f
00000420: 901b 5238 e49a e4bf 827f 6d61 7b2d e13f
00000430: ed9b d408 2d51 e6bf 450e 3fa2 ae28 ecbf
00000440: 0598 39f3 e1a0 ad3f 4794 a38d 8214 d5bf
00000450: 9a84 5c0e cbb5 d1bf 4ef1 9f8e 26be c1bf
00000460: 3494 972b cf19 ef3f a96e 5ad2 c7d3 d23f
00000470: 8f28 f1cf 57ff a73f 2f7b 5d1c 2683 d3bf
00000480: 6475 45f9 d301 b23f 491c 392f f34c dc3f
00000490: 20bf ce3d 2b49 ddbf 8cf4 d462 30f4 d2bf
000004a0: 08c6 2a19 a1a4 e5bf c55a fcd7 a748 90bf
000004b0: 78f3 3e81 2efe c6bf 181e 1d6d f156 dfbf
000004c0: 5a21 24be b718 c6bf d333 50d2 6a07 e83f
000004d0: 03e1 c173 2f31 d53f 22af 5cdf 63e3 a73f
000004e0: c5a6 04bd 1cdb d33f 80b4 2e3c bc12 cb3f
000004f0: 192d a078 c8e8 b9bf 6e64 8631 5709 e0bf
00000500: a10b 0b6e 9fe6 efbf 2b17 076c 35e7 b93f
00000510: bc2e bdc2 40a8 d93f 1650 f3e1 48ed c53f
00000520: 21d6 f94f e783 ebbf 5eda 6813 b148 e73f
00000530: 4aba db66 85e2 fb3f 6f6a fc73 26ae d53f
00000540: db72 45a5 59af d4bf f231 c0a7 6946 99bf
00000550: 8da5 3aaf 58f9 813f aa5a 9662 9f15 b93f
00000560: dc93 7524 a722 f33f 8118 883f 4146 b7bf
00000570: db6e 116b bce1 dbbf 86f6 ca60 4c56 d23f
00000580: 9d49 b8a3 444a e63f a728 a549 2ae5 d53f
00000590: ed14 410f 6a69 f23f 6aaf c074 9d60 ebbf
000005a0: 82fe e938 810f e9bf 8404 2eb9 6847 d43f
000005b0: c65d 5f74 4537 b1bf 1ebe d01e 10a5 e7bf
000005c0: b0b9 d793 febf ecbf cb88 324e 3093 c43f
000005d0: fbc5 2fed 7e3b ed3f d84c b44c ffda d0bf
000005e0: 6030 0c16 71ae a8bf 8d76 20e1 415c efbf
000005f0: 3b38 768c 9aee f0bf aadc 350d bdb8 753f
00000600: 0983 0961 99fc dd3f 9ce8 3da9 4834 e23f
00000610: a963 bc39 e35f b73f 011f 2747 4944 a63f
00000620: 3b12 b014 6bff e13f 9356 47c2 b4b1 c8bf
00000630: e951 d34c 8daf dd3f 50f2 b54a 0dfd d13f
00000640: 2e57 c684 d638 d73f 9c51 95c5 ea53 d73f
00000650: 6edb 7ab4 21ae e93f 8c52 2b2b c7f2 bd3f
00000660: d159 8d05 51f8 bfbf 914d 4263 e179 c2bf
00000670: 9544 77a2 a563 e3bf 3789 db3d a233 e2bf
00000680: 56a5 4d9a 64e0 b63f 36ef 4c77 892e e13f
00000690: 70db c90d 3922 d13f fcc8 1755 1804 f9bf
000006a0: 6c67 d7c3 0453 dbbf 301f dd48 e570 aabf
000006b0: 1d6c 14e8 7591 bf3f 191f 2550 9e62 b13f
000006c0: 3384 0c8c c8aa cfbf de2a c06b 6bab d5bf
000006d0: 98d5 1a65 cd8a e03f 3f33 5eb6 d7d9 da3f
000006e0: 38cf 3251 be2d d1bf 96f4 2c00 e489 f13f
000006f0: 19a7 ff7a 5bd2 cd3f be4d 57c3 ff39 e13f
00000700: ceaa e0cd 5d8e e03f b1db f619 31bc b83f
00000710: 3254 f1a3 9e80 d4bf f953 4a88 5d66 c1bf
00000720: f728 2975 c5d6 ecbf 3eee 8bd7 f830 e53f
00000730: c901 1720 6848 d13f 966b 805f ddc5 dcbf
00000740: abbf ddad c4ec ddbf b489 be88 cf21 c5bf
00000750: ac85 17ca 7717 f93f deea 715d 4f9d dcbf
00000760: 754d 38f6 6d81 f33f a476 890f 290d ddbf
00000770: 50fd 2a18 3c6f ffbf d801 bb82 2703 e5bf
00000780: 6d8f 4506 ec6e d6bf e2a6 596b ae84 e03f
00000790: 62ec ef13 8b80 d43f 7799 dd20 c3c1 d0bf
000007a0: a1a2 07c7 e108 e23f ab60 e6c4 489a a43f
000007b0: f24c 1369 e8bf c83f 0afa 4977 c39b c43f
000007c0: fc22 cdce 6930 d33f 88d1 38f8 8d47 e8bf
000007d0: 47a7 fca1 c6e0 c8bf 650f 8b73 e4af e9bf
000007e0: 718b 859f 5298 b8bf 535f 6f5b 1a5e f8bf
000007f0: f58b 0f42 511f c7bf 5f81 c6a9 f3b8 e9bf
-0.05261163714031112 0.043856121655677295 -0.029926756151661363 -0.10077144523351601 0.11771097105306962 0.011609530330007922 -0.07807138586432612 -0.11658209205079913
0.10745128367169363 -0.021803165602445232 -0.028990306605892142 0.06789254034174687 0.036173022523290306 0.07249015589309463 0.041345516978161814 0.03987335686474679
-0.05389313441173228 0.058285895671782294 -0.022013075877405325 -0.21299609077307166 -0.04469412435236504 -0.03689040922194189 -0.1154258196263856 0.12897540667326543
0.09611236629514786 -0.0007657200841097988 0.13882611993037086 0.06027652599511887 -0.013207390231469324 -0.11909350886588499 -0.07592372575267536 -0.08988760960106125
-0.06497843826016647 0.006617160977586743 0.10485443172994967 0.16256778756524223 0.012869283794161362 0.02024312924587026 0.06275447785614999 -0.013811157333784697
-0.06914811773190323 0.19957889917162275 -0.15854670275893248 -0.004453888434471127 -0.07492804880345505 0.24567576320317652 -0.06401833694620979 0.2538581116848433
-0.1606626484328763 0.04542385205622159 0.004098740054795778 0.065691197496429 -0.052622143637189846 0.02231323043732208 -0.03938313980753685 -0.024995145939501848
0.0014944175051989097 -0.10723472442074178 0.057431398240811594 -0.06696404914777125 0.12455815018399712 -0.010363580525615418 -0.10329083238054085 0.033828643487628096
-0.06636911288641631 0.003849525822312353 -0.020389505632734985 0.06880610926337115 0.029502876219844067 -0.12346771539475815 -0.19807975877322698 0.1267707866559948
0.07123598806838978 0.07499631357540247 0.015127494904675787 0.02568958381304476 -0.019811332985368434 0.09344081938808106 0.010312540507794357 -0.05019315736168855
-0.11929139586717351 -0.1619412965507035 -0.12663922487252965 -0.06347844103397901 0.1622381354691993 -0.07635864617434601 0.20448360579176736 -0.021897409205367303
0.08743293460618463 -0.1421464600493251 0.06829993284494115 -0.028418313038891974 -0.06366031645204263 0.021993889662307486 -0.08507204888497459 -0.02013461513703776
0.00561683948791497 -0.0668264385135461 4.1316369605897146e-05 -0.07393492753360609 -0.0678335546046234 0.08152719847645275 -0.13859041304037886 -0.023419178003850818
0.012120467180666497 -0.10410066011621023 -0.012639404391815889 0.030033241299651646 0.14725887048301492 0.06827356942504025 -0.023893465531577417 0.024727886956731778
0.022708227896539302 -0.03422291863720732 -0.07182422380259265 -0.021329059512159715 -0.07125987301576475 -0.06258576838030254 0.05012818033900747 -0.07794400488395752
-0.022298110675928105 -0.028947780478552898 0.14291368541257327 0.03447322253576388 -0.11651298390019649 -0.03753998710956816 0.1231876050696159 0.1419209805821952
0.17052765789780314 0.8513494116141648 -0.19807918313006323 0.43193300644382093 -0.6439076519026106 0.5368019965062418 -0.697409169432715 -0.8799660843728324
0.057868061962651075 -0.3293768294518639 -0.2767207756279021 -0.13861543621158962 0.9719005443008712 0.29417605917272255 0.046869987615154256 -0.3048796917918705
0.07034039340711257 0.44219665156964943 -0.4575908759679681 -0.2961541142611359 -0.676346348909818 -0.015902159269070255 -0.1796320086558827 -0.48968158393515315
-0.17262932571635298 0.7509054286653004 0.3311270361368914 0.046656723991274754 0.3102485509758533 0.21150925577731883 -0.10120823807681169 -0.5011402098927087
-0.9969021939544868 0.10118421447176888 0.4008943464038841 0.17130385430084577 -0.8598515092878111 0.7276234988301657 1.7428030031111512 0.3387542851138851
-0.3232025255181676 -0.024682665694898583 0.008776371810500528 0.09798618466298117 1.1959601806822695 -0.09091575432839429 -0.43565283256405757 0.2865172333948539
0.6965659330037856 0.3421121329489644 1.1507359119289575 -0.8555438309026446 -0.7831426726915682 0.31685846408806406 -0.06724962321401681 -0.7388992883551884
-0.898436821704129 0.1607418424437753 0.9135126717139309 -0.26336653223661477 -0.04820588487754729 -0.9800118824966418 -1.0582528578556907 0.005303133471321756
0.4685424277904962 0.5688823037628654 0.09130687865798727 0.04348973268093737 0.5624289897974174 -0.19292315946829727 0.46383984091269653 0.2810700635525665
0.3628441139820663 0.36449689193002555 0.802506306171251 0.11698574832855452 -0.12488275895643787 -0.1443444952643458 -0.6059139416849059 -0.5688029487758176
0.08936146514101515 0.5369307832802181 0.2677137980130544 -1.5634997676793878 -0.4269420540346036 -0.05164257540178452 0.12331330219278454 0.06791104752221279
-0.24739939535450758 -0.33858762285733046 0.5169436430648373 0.4195460587441637 -0.26841695718325154 1.096164704023328 0.23298209672730577 0.5383299651388638
0.5173787137076375 0.09662157901662628 -0.3203503228190271 -0.13593644289781517 -0.901217202024127 0.6622280321020708 0.27004435666824783 -0.4495767052300662
-0.4675761888420264 -0.1650943200775835 1.568229474469585 -0.44710144162642773 1.2190990083662119 -0.45392824666292086 -1.9646569198665311 -0.6566350510911958
-0.35052013981316216 0.5161964508708616 0.32034565875046017 -0.2618263073876714 0.5635842215825343 0.0402395954471911 0.19335656290659348 0.16100352596909345
0.29982991404953885 -0.7587346885762125 -0.19435961637037222 -0.8027212387755581 -0.09607426065990211 -1.5229743549043249 -0.18064323163625287 -0.8038271251607901

layers.1.bias f8 [100]
00000000: c670 8df8 479e a2bf d935 51d8 2aee d1bf
00000010: e4fc 0044 cbfd 863f 0735 68ef 4a7a b9bf
00000020: a1e6 11de 9de8 86bf bd14 f998 203b e23f
00000030: d651 79dc c6ea a0bf 9f5d 84a4 47e1 cf3f
00000040: 8968 6089 7839 b63f 2661 80f9 3564 b13f
00000050: 89f0 e087 0ec1 943f 9c3e af4b eeb7 b0bf
00000060: ee91 2cee 03a3 b3bf 1194 7cde 8aab 9e3f
00000070: 1244 db60 1673 b8bf 97b5 57a9 245c d7bf
00000080: 6884 d707 7b5f a33f 5615 fdf2 c38f cbbf
00000090: 9931 31a6 f6d6 6a3f c110 a114 b5fa b2bf
000000a0: a656 166c f97f 9f3f edd8 a197 14f5 c2bf
000000b0: bc40 36c5 1f81 c23f 6d7b a51a ce16 a43f
000000c0: 0c04 1c74 3759 553f ddae 116f 2a52 883f
000000d0: c995 a788 2317 c3bf ce64 9bf7 ce50 b53f
000000e0: 64aa 9f6f d53c b1bf 2a5f 81da 9c59 d4bf
000000f0: 8bbe 665c 34f5 aa3f 22c2 1f3e 0262 d63f
00000100: 5c58 d67f 5e44 a0bf 34c0 fbd4 2eb7 4abf
00000110: a64f 5f62 eecb 9d3f 3253 eb26 f6c2 c4bf
00000120: 5cb5 16d7 fbd7 b6bf fc77 beea 7cf1 bdbf
00000130: 403f d020 261f ae3f 3ddc e469 7de5 dabf
00000140: 0ebc e83f d943 9cbf 480e 0741 777d 963f
00000150: b10b 936d 7e65 623f 1f60 4b05 d504 c3bf
00000160: 18e6 3177 74f9 b6bf a471 a595 2805 b1bf
00000170: 4e0b 700d fd27 a03f c289 88b7 3719 e6bf
00000180: f5e9 7d50 9c6b a33f d191 fc88 c779 b9bf
00000190: 1224 2f85 8cca c9bf 2e23 c94a 0e9b 53bf
000001a0: 1083 cf5d 2a7a 8cbf 91b2 6497 7582 963f
000001b0: d3f1 c941 1fe0 a1bf 904e 14e8 9651 84bf
000001c0: eb6c 2182 02ef d73f 91a6 ebc9 41b3 a03f
000001d0: 68f1 7dc5 8dbb bdbf 6f05 0fef 688a a3bf
000001e0: f3b0 9ced 61d4 e3bf 790f f354 8dcb b4bf
000001f0: f969 b559 3e42 993f 83a4 e568 80a3 9c3f
00000200: b2bd 5bcb 6002 c33f eb94 d9e2 a10f c2bf
00000210: 14f9 8acc 1aa6 a13f 5793 2e64 5145 d93f
00000220: f753 67c1 5726 bb3f 3549 deec 2470 cbbf
00000230: 6ddb b385 ba47 eb3f 13d1 a593 06a5 ccbf
00000240: 3a89 91c2 ba1e 87bf 0000 00a0 5709 a7bf
00000250: 3291 e325 00c1 d1bf 69cb 3853 5dd3 cbbf
00000260: 9551 c2ac 196a b2bf 63dc 333f 1077 e03f
00000270: 07e6 fe15 915a a9bf 1abc a3cf 5e7d 8ebf
00000280: 2279 f9e8 1dd9 c6bf 59d9 fc48 4791 adbf
00000290: 81e2 e1bd 7563 bfbf b39f ea19 6fb1 62bf
000002a0: 0757 a848 a3cc c0bf 1f48 5758 3d8e b3bf
000002b0: da56 447d 53dc c0bf 4245 2254 ea92 d13f
000002c0: 34da fa17 752b b4bf 4bc5 05b4 b396 b23f
000002d0: cdd0 c15a 49ed babf 4889 c2e8 a8a3 a7bf
000002e0: b851 eca9 5237 d03f 0b73 7749 6d72 973f
000002f0: 6dda a74c 66d0 e1bf b29d 93b7 bfdc 5f3f
00000300: 0b64 d8cc e07f bcbf 3662 592f c36b d43f
00000310: 5b5f 616e 6660 71bf 3f1f f904 aa3f b03f
-0.03636383923614654 -0.2801615822289399 0.011226261151135515 -0.09952228875063805 -0.011185868587051674 0.569717692160928 -0.033041204846685865 0.24906249554690604
0.0868144355194166 0.06793534604401383 0.020267703097701904 -0.06530656192557632 -0.07670616688535123 0.029951257543093194 -0.09550609459553552 -0.36499897515644747
0.03783783407903557 -0.21532487263372485 0.0032763306967693137 -0.07413799050943039 0.030761620733378202 -0.14810426143566904 0.14456555490006007 0.039236489060150294
0.0013030091799353131 0.011875468744811208 -0.14914364025677987 0.08326428933232252 -0.06733449912250361 -0.31796952570356274 0.05265201213785272 0.34973198000719397
-0.031771615128648206 -0.0008152941390715597 0.02909824824730802 -0.16219975376466206 -0.08923315049351771 -0.11696606379561553 0.058831397538709584 -0.42025695172509697
-0.027602571988776296 0.021962989181487452 0.002245661668525988 -0.14858496435658794 -0.08974388036758574 -0.06648496297333978 0.031555087938633805 -0.690578325713709
0.03793037874762099 -0.09951445669555105 -0.20149380210048712 -0.0011966361590955532 -0.013904887187835807 0.021982037892643694 -0.03491304090582372 -0.009921244580744643
0.373963000374444 0.032617622278690146 -0.11614309379178211 -0.0381653587169336 -0.6196756020413247 -0.08123095821343708 0.024666761613255848 0.02796745910874111
0.1485100739441641 -0.14110206200272243 0.03447040316449282 0.39485583098785554 0.10605381461876094 -0.21435987058482345 0.8525059329393635 -0.22378618440019035
-0.011289080679664044 -0.04499315097928047 -0.2774048204430698 -0.2173878342014988 -0.0719314619803469 0.5145341143060133 -0.04951909440519491 -0.014887562476785066
-0.1785008800097297 -0.05774901166880637 -0.12261138807105888 -0.0022818727441808683 -0.13124505088551805 -0.0763891544986852 -0.13172381989050203 0.2745920011157815
-0.07878810725637991 0.07261202950555405 -0.10518320527791332 -0.04617050019557439 0.25337664217047573 0.022897441491170272 -0.556689405172461 0.0019447204816119665
-0.11132626534562477 0.3190772974390116 -0.004242324945231103 0.06347143765844708

layers.3.weight f8 [100]
00000000: 41a2 711f aeac ee3f d41f 4339 7fcf ed3f
00000010: c0ac e625 5f10 ef3f 5013 8d4f 0788 ee3f
00000020: 410a c071 b8c4 ef3f e9aa 2d9d f2c6 fd3f
00000030: 83a3 7618 b0da f03f 312a 16cd a309 0540
00000040: 69de 805d b762 f73f f81a 7092 9040 ed3f
00000050: 542a cc8e 0812 f03f 9940 e947 7dad d13f
00000060: f651 9e81 3d21 ee3f 3330 1ed8 db31 ef3f
00000070: 4403 ce04 bdd0 ee3f cabc 3d95 5233 fa3f
00000080: 6a43 3d9f 2610 ef3f 2326 189b 6ca4 f13f
00000090: 0872 d31c 108e ec3f 27af 5b35 cc3a f13f
000000a0: 0e5a 4bb4 422e ee3f 2460 03af 0678 dd3f
000000b0: 4b03 733d 04f0 e53f 5312 4710 2c8b ee3f
000000c0: 8ff9 1201 974a ef3f ae45 3a9b 70db ed3f
000000d0: 7408 5d62 df45 eb3f d1e2 1620 94f9 0640
000000e0: 1717 74d1 bc18 0140 4583 e6be fe77 e43f
000000f0: 0d20 1f34 5fef ee3f de90 2627 4bb8 e33f
00000100: 632f 978a b369 ed3f 0ad7 4096 a140 e23f
00000110: 6a26 7351 f9a9 ed3f 6705 fdbb 8eeb ee3f
00000120: e6a6 64e6 794b f23f 3320 ebcb 0ecf ee3f
00000130: 8d2a 024f d805 e63f 549d 477d 9bb7 f43f
00000140: 7775 a522 c32c e93f e6a8 bb4d b7c8 ee3f
00000150: ecd2 0e38 943b ef3f 85e8 bcc9 d1fd e83f
00000160: 5cb3 bf3d d7bb f03f 1bcd a414 087d ed3f
00000170: 2829 f22a f5fb ee3f 53f3 acf2 5251 c93f
00000180: b2db dfb8 33f9 ef3f a1ae 06ce 2db8 ee3f
00000190: 92df 4777 7a8e e93f b44e 1632 8979 f03f
000001a0: 2404 8eef 08ad f03f 3a5f 3877 0c84 ee3f
000001b0: 30d1 5196 f27b ef3f 38cf 1994 b3bd f03f
000001c0: 8c27 fbbb 9bd0 fb3f 1da0 7d4d 4e1e ef3f
000001d0: 3024 6e32 8968 eb3f d1f0 f12e b242 ee3f
000001e0: 7655 5eb9 a09e eb3f dbd2 99b0 a112 ef3f
000001f0: 54d3 1ce8 31e9 ee3f 315c 9571 d9f2 ee3f
00000200: 67a1 fe1b 16d1 0440 cbe4 d09a 5878 f13f
00000210: 50c4 cf90 6dcb fa3f 558e afee 9076 0840
00000220: 0769 b588 ec0d f23f a5a4 8f3c cc10 f53f
00000230: f37b 0600 cc04 fb3f d309 9df8 6009 e43f
00000240: c64c 4aba 5eaf ed3f 0000 0000 0000 f03f
00000250: ee97 e06f c4c3 f03f eced e674 bfb0 aabf
00000260: 2f15 f2c3 2fb0 fc3f 1a99 6644 a34a ea3f
00000270: 7ac1 5bcd 13fd ee3f 680f 0bcb 179d ec3f
00000280: b232 0cab 32a3 c33f d408 3163 8b22 f03f
00000290: 2558 aa60 7b2a f93f 12fe 8246 e747 dc3f
000002a0: 0b6d cb40 52a1 ee3f 08ee a9a8 d121 ec3f
000002b0: 75e2 3447 b81f f13f 81d1 6c6a f061 e93f
000002c0: bd15 4c1f 02c5 e73f 3b9f b75e e175 0440
000002d0: 0338 4bc2 8a27 f03f f1a6 c380 cd1c f03f
000002e0: 2a6c 5d80 0c4c ff3f e465 48cb 3e8f ee3f
000002f0: 049c c72d 855c f63f f62c add6 9831 ee3f
00000300: c39e 7bf3 fed6 f23f a33a d720 7c1e d73f
00000310: 3c5b a82f f682 0540 b723 85ec 9b18 ed3f
0.9585791219843217 0.9315792196657591 0.9707484951262799 0.9541050485355331 0.9927637311632865 1.8610712184696985 1.0533905940630752 2.6297069570912517
1.4616006519771878 0.9141314373126468 1.0044026926067504 0.27621395132610754 0.9415576488123054 0.9748362752011474 0.9629807561724211 1.637529929135598
0.9707215414183399 1.102642637097582 0.8923416674620634 1.0768549045851132 0.9431470414518246 0.46045081225520534 0.6855488968068156 0.9544887845918971
0.9778552075365939 0.9330370933332028 0.8522793694649082 2.8718645579323057 2.137078892092983 0.6396478394054631 0.9667202013015427 0.6162467732106298
0.9191529948088654 0.5703895506510162 0.9269987669769766 0.9662545844695786 1.1434267997487324 0.9627756102354453 0.6882134955534 1.2948260205974593
0.7867141415296562 0.9620014684890321 0.9760228247529006 0.7809838237947281 1.0458595668853468 0.9215126422117551 0.9682565535343075 0.1977943119944948
0.9991701708630585 0.9599827789256389 0.7986423806860208 1.0296718555954785 1.04224484993052 0.9536192253608313 0.9838803230218556 1.0463138375461778
1.7384297698031075 0.9724494470110617 0.8565107331243151 0.9456416050811872 0.8631137485960341 0.9710243653522314 0.9659661801766597 0.9671447008539699
2.6020929514963203 1.0918813750743535 1.6746650368406968 3.0578936240506587 1.1283994045430192 1.3166010251682476 1.688671112154904 0.6261448722582891
0.9276574743729717 1.0 1.047794758816504 -0.05212972929026791 1.793014302647247 0.8216110549881563 0.9683932314783725 0.8941763845145774
0.15341790534912075 1.0084337114972657 1.5728715682976226 0.4418886364546505 0.9571925416488808 0.8791282934393516 1.0702441007144021 0.7932054594626124
0.7427988635324067 2.5575587653910623 1.0096538152315595 1.0070319204191345 1.9560666097884316 0.9549859972350387 1.397587946726845 0.9435543244266273
1.1774892340708198 0.3612356491766297 2.6889461253407756 0.9092540378124941

layers.3.bias f8 [100]
00000000: 0cd6 31c9 bacf b9bf 69d2 9981 34cd cabf
00000010: 0c1b 62ff bb7f cbbf 4c1d 45e5 a0bf d83f
00000020: 3ac6 d8e7 b152 a9bf 55b9 b7f6 eb23 ebbf
00000030: db36 7226 596d c23f 8575 672f 0e5b e93f
00000040: 9098 0182 5524 e53f b15c 9742 f0dd c1bf
00000050: be83 ffb6 da75 98bf 0a5e f620 a0bb e8bf
00000060: 8637 94ab 4c71 ec3f 62eb bdc4 418a eb3f
00000070: 71fd 85e7 eb18 b0bf aee8 0f7d 5c6f d4bf
00000080: a1e8 cd91 72ee c53f a215 8292 6349 d4bf
00000090: 7870 df26 1904 b2bf b508 22d9 6109 c2bf
000000a0: 4f18 5433 8d27 dbbf 7af5 7f2b d93d b43f
000000b0: 269a 8468 3407 e0bf f163 badc 0a6e d03f
000000c0: 2862 3b78 c367 9b3f c4ea 72e1 0145 adbf
000000d0: 09af b906 6f8b c33f 49fc 6ca9 6d68 f33f
000000e0: 82cc eed4 e7b6 e7bf 760a 24e4 7e19 f0bf
000000f0: 8156 a58a 14fe d0bf 6c4c a532 ca45 ec3f
00000100: c57b d49a 6c94 edbf 0115 6829 cc65 a93f
00000110: 4b91 e3dc 21d4 cd3f da4a b0fe 3d8c d3bf
00000120: 289b 928a 187e ce3f f1a2 9ba8 1083 d13f
00000130: 96f9 c038 2e0b dcbf aec0 0c1c 1f1d f43f
00000140: 77e1 0cdb f022 dc3f 30cb 3354 fc9f 98bf
00000150: 9591 b326 7118 acbf 91b6 1500 0bc2 c13f
00000160: 8a58 7c4e 7764 d6bf 6550 1952 52fd f2bf
00000170: 76f5 6ea3 a184 c63f b8b5 52e4 d134 ccbf
00000180: b591 66e1 9524 c53f 7e92 c792 6dd9 d2bf
00000190: 78fd a00f 4125 4abf 7d9d 4d31 725a d6bf
000001a0: 2848 e4a9 3b96 d43f 7064 29f5 ee18 e3bf
000001b0: 9945 8aef 5b82 993f eac2 5f69 7d0d 8dbf
000001c0: f6a7 1907 a6fe e33f a8d7 e2e1 cd4b 9f3f
000001d0: edc1 2f0a dbd2 d43f 0f48 5910 eb03 c5bf
000001e0: 12c0 0e12 1fda e4bf 04d4 1fa1 1902 babf
000001f0: f67c af0a 1f7d d43f 93f2 7cbd 1c08 cabf
00000200: cf65 8f9a d18b 9b3f b5b4 7199 148e d53f
00000210: f1b8 79e6 f85d da3f bce5 fc8c 830f f83f
00000220: 3447 ab2b f4a1 a03f 4c6d a5a9 d265 d83f
00000230: 3bbf 23b5 6ce7 a5bf 0778 e103 dbbc f5bf
00000240: 3923 8bca 0a65 f33f 7e87 5637 aa9c bebf
00000250: d361 ba41 b7fb e2bf b5b6 9dfd e14b debf
00000260: 2983 e3a4 20fb f9bf b30e 8443 79c1 8dbf
00000270: 2600 d180 7b10 de3f 0c46 a8bf 85d7 cf3f
00000280: fbf3 9f86 b1fd c2bf 45a3 60e7 f70f 91bf
00000290: ac01 c14b 41a8 e6bf d71b b570 e1b0 e13f
000002a0: cc56 062f e1c7 b8bf f49c d46d 78c1 a2bf
000002b0: bfaa 5482 de28 bc3f 0cc8 0064 8fbd e43f
000002c0: c941 b8e7 3ace cabf 4f47 2207 56bf e83f
000002d0: 67a9 df48 de0a c9bf 9f8f a244 9046 ddbf
000002e0: a68e 6485 9028 eabf 8ed0 a1cc ccbf a1bf
000002f0: 7e59 6ae6 2409 f6bf f399 2726 1247 c2bf
00000300: 8914 c490 821c e7bf eeb8 ab31 1a84 c53f
00000310: 84df fec0 c5ec f0bf 1c27 5aae 3d47 e33f
-0.10082595264415078 -0.20938736274878814 -0.2148356434811024 0.3866960753407127 -0.04945903735314201 -0.8481349772171521 0.1439620435452785 0.7923651624548006
0.6606853045639287 -0.13958552600408816 -0.023887078685109968 -0.7729035037800156 0.8888305045272638 0.8606270640005784 -0.0628802719347641 -0.31929695332622543
0.1713393413481912 -0.3169793062919216 -0.07037503432315073 -0.14091132261461828 -0.4242890359167903 0.07906873046882437 -0.5008794823996296 0.25671645694234174
0.026763014043213712 -0.057167109270684274 0.1526926787222396 1.2129952066604963 -0.7410773428768069 -1.0062245284795188 -0.2655078271830931 0.8835192670034195
-0.9243681930564597 0.04960477834178257 0.23303626332848135 -0.3054347026056071 0.23822314039463177 0.2736245771944104 -0.4381824068294916 1.2571097465225125
0.439632619777988 -0.024047796859075266 -0.05487397763662042 0.13873422149793105 -0.3498819605314415 -1.1868460852611176 0.17592258911274045 -0.22036193512523794
0.16517899995700494 -0.2945207532305075 -0.0007978980713757985 -0.34927038969768615 0.32166949835766667 -0.5967936313928828 0.02491134309327023 -0.014185886171590185
0.6248350275684504 0.03056260768126831 0.32536960596828984 -0.1641820745304021 -0.6516261437118394 -0.10159454520892558 0.32013679545885 -0.203372566722369
0.02690055375919603 0.33679690346509555 0.41198561198588296 1.5037875659312325 0.032485609369940965 0.38121477667819614 -0.04278125487496572 -1.3586073066321676
1.2121684944015227 -0.11957801676774513 -0.5932270320654943 -0.4733815170974183 -1.6238104287114743 -0.014529178021354871 0.4697560079548587 0.24876472337977906
-0.1483671099994409 -0.01666247701374181 -0.7080389480179767 0.552841873294592 -0.09679992101731755 -0.036632312209173096 0.10999861413862798 0.6481396630463236
-0.2094186431354628 0.7733564509710308 -0.19564417417798127 -0.45743185713421924 -0.8174517255142362 -0.034666442851546284 -1.3772324562647493 -0.1427939115812503
-0.7222302272281392 0.1680939428837926 -1.0578057803049612 0.6024464040103541

layers.3.running_mean f8 [100]
00000000: 0500 0000 0000 0000 0500 0000 0000 0000
00000010: 0500 0000 0000 0000 0500 0000 0000 0000
00000020: 0500 0000 0000 0000 d832 5572 40d2 7640
00000030: 0500 0000 0000 0000 c737 04d1 ab6e 7e40
00000040: 0500 0000 0000 0000 0500 0000 0000 0000
00000050: 0500 0000 0000 0000 0500 0000 0000 0000
00000060: 0500 0000 0000 0000 0500 0000 0000 0000
00000070: 0500 0000 0000 0000 0500 0000 0000 0000
00000080: 0500 0000 0000 0000 0500 0000 0000 0000
00000090: 0500 0000 0000 0000 0500 0000 0000 0000
000000a0: 0500 0000 0000 0000 0500 0000 0000 0000
000000b0: 0500 0000 0000 0000 0500 0000 0000 0000
000000c0: 0500 0000 0000 0000 0500 0000 0000 0000
000000d0: 0500 0000 0000 0000 ad8f c953 2018 7640
000000e0: 6111 ca13 c943 7640 0500 0000 0000 0000
000000f0: 0500 0000 0000 0000 55e1 d659 bb29 6840
00000100: 0500 0000 0000 0000 0500 0000 0000 0000
00000110: 0500 0000 0000 0000 0500 0000 0000 0000
00000120: 0500 0000 0000 0000 0500 0000 0000 0000
00000130: 0500 0000 0000 0000 0500 0000 0000 0000
00000140: 0500 0000 0000 0000 0500 0000 0000 0000
00000150: 0500 0000 0000 0000 0500 0000 0000 0000
00000160: 0500 0000 0000 0000 0500 0000 0000 0000
00000170: 0500 0000 0000 0000 0500 0000 0000 0000
00000180: 0500 0000 0000 0000 0500 0000 0000 0000
00000190: 0500 0000 0000 0000 0500 0000 0000 0000
000001a0: 0500 0000 0000 0000 0500 0000 0000 0000
000001b0: 0500 0000 0000 0000 0500 0000 0000 0000
000001c0: f0da f75c 3869 0b3e 0500 0000 0000 0000
000001d0: 0500 0000 0000 0000 0500 0000 0000 0000
000001e0: 0500 0000 0000 0000 0500 0000 0000 0000
000001f0: 0500 0000 0000 0000 0500 0000 0000 0000
00000200: 7d3d a736 d457 8040 0500 0000 0000 0000
00000210: aa60 73df dfc4 973b 14aa 205c 6403 7a40
00000220: 0500 0000 0000 0000 0500 0000 0000 0000
00000230: 2e55 c070 e1bf 9c3f 0500 0000 0000 0000
00000240: 0500 0000 0000 0000 0000 0000 0000 0000
00000250: 0500 0000 0000 0000 0500 0000 0000 0000
00000260: c221 0889 5c63 5e40 7ac6 00b2 f5b2 7340
00000270: 0500 0000 0000 0000 0500 0000 0000 0000
00000280: 0500 0000 0000 0000 0500 0000 0000 0000
00000290: 0500 0000 0000 0000 0500 0000 0000 0000
000002a0: 0500 0000 0000 0000 0500 0000 0000 0000
000002b0: 0500 0000 0000 0000 0072 b906 7222 343f
000002c0: 0500 0000 0000 0000 80b4 deb6 0951 5840
000002d0: 0500 0000 0000 0000 0500 0000 0000 0000
000002e0: e2d2 a7d3 fb4c 6440 0500 0000 0000 0000
000002f0: b9d8 4c57 bbae 3a3e 0500 0000 0000 0000
00000300: 0500 0000 0000 0000 e48e 38a3 4466 6f40
00000310: 1a6a 2de2 12de 8940 0500 0000 0000 0000
2.5e-323 2.5e-323 2.5e-323 2.5e-323 2.5e-323 365.1407340362616 2.5e-323 486.91694738051996
2.5e-323 2.5e-323 2.5e-323 2.5e-323 2.5e-323 2.5e-323 2.5e-323 2.5e-323
2.5e-323 2.5e-323 2.5e-323 2.5e-323 2.5e-323 2.5e-323 2.5e-323 2.5e-323
2.5e-323 2.5e-323 2.5e-323 353.50789240584237 356.23659113819855 2.5e-323 2.5e-323 193.30411998719015
2.5e-323 2.5e-323 2.5e-323 2.5e-323 2.5e-323 2.5e-323 2.5e-323 2.5e-323
2.5e-323 2.5e-323 2.5e-323 2.5e-323 2.5e-323 2.5e-323 2.5e-323 2.5e-323
2.5e-323 2.5e-323 2.5e-323 2.5e-323 2.5e-323 2.5e-323 2.5e-323 2.5e-323
7.977655705624234e-10 2.5e-323 2.5e-323 2.5e-323 2.5e-323 2.5e-323 2.5e-323 2.5e-323
522.9786198678627 2.5e-323 1.2583225547446502e-21 416.21200192222136 2.5e-323 2.5e-323 0.028075716501992413 2.5e-323
2.5e-323 0.0 2.5e-323 2.5e-323 121.55252290529373 315.18498421004153 2.5e-323 2.5e-323
2.5e-323 2.5e-323 2.5e-323 2.5e-323 2.5e-323 2.5e-323 2.5e-323 0.00030722888798154213
2.5e-323 97.26621791599791 2.5e-323 2.5e-323 162.405740573674 2.5e-323 6.212514382100436e-09 2.5e-323
2.5e-323 251.19587861105458 827.7592204616551 2.5e-323

layers.3.running_var f8 [100]
00000000: 0500 0000 0000 0000 0500 0000 0000 0000
00000010: 0500 0000 0000 0000 0500 0000 0000 0000
00000020: 0500 0000 0000 0000 244b cbd6 c6b9 8940
00000030: 0500 0000 0000 0000 f2b9 dfd1 1052 9040
00000040: 0500 0000 0000 0000 0500 0000 0000 0000
00000050: 0500 0000 0000 0000 0500 0000 0000 0000
00000060: 0500 0000 0000 0000 0500 0000 0000 0000
00000070: 0500 0000 0000 0000 0500 0000 0000 0000
00000080: 0500 0000 0000 0000 0500 0000 0000 0000
00000090: 0500 0000 0000 0000 0500 0000 0000 0000
000000a0: 0500 0000 0000 0000 0500 0000 0000 0000
000000b0: 0500 0000 0000 0000 0500 0000 0000 0000
000000c0: 0500 0000 0000 0000 0500 0000 0000 0000
000000d0: 0500 0000 0000 0000 1a73 3137 aa01 9940
000000e0: c292 f993 b42a 9740 0500 0000 0000 0000
000000f0: 0500 0000 0000 0000 4e16 d54e 3815 7440
00000100: 0500 0000 0000 0000 0500 0000 0000 0000
00000110: 0500 0000 0000 0000 0500 0000 0000 0000
00000120: 0500 0000 0000 0000 0500 0000 0000 0000
00000130: 0500 0000 0000 0000 0500 0000 0000 0000
00000140: 0500 0000 0000 0000 0500 0000 0000 0000
00000150: 0500 0000 0000 0000 0500 0000 0000 0000
00000160: 0500 0000 0000 0000 0500 0000 0000 0000
00000170: 0500 0000 0000 0000 0500 0000 0000 0000
00000180: 0500 0000 0000 0000 0500 0000 0000 0000
00000190: 0500 0000 0000 0000 0500 0000 0000 0000
000001a0: 0500 0000 0000 0000 0500 0000 0000 0000
000001b0: 0500 0000 0000 0000 0500 0000 0000 0000
000001c0: a888 77a0 e88d 0f3e 0500 0000 0000 0000
000001d0: 0500 0000 0000 0000 0500 0000 0000 0000
000001e0: 0500 0000 0000 0000 0500 0000 0000 0000
000001f0: 0500 0000 0000 0000 0500 0000 0000 0000
00000200: 2318 47db 5648 9040 0500 0000 0000 0000
00000210: d356 49fe b312 d63b 4e91 715d c082 9640
00000220: 0500 0000 0000 0000 0500 0000 0000 0000
00000230: a2eb ee27 a164 d23f 0500 0000 0000 0000
00000240: 0500 0000 0000 0000 0500 0000 0000 0000
00000250: 0500 0000 0000 0000 0500 0000 0000 0000
00000260: 7d06 2634 0aab 9740 a7cf 5d48 36f4 9240
00000270: 0500 0000 0000 0000 0500 0000 0000 0000
00000280: 0500 0000 0000 0000 0500 0000 0000 0000
00000290: 0500 0000 0000 0000 0500 0000 0000 0000
000002a0: 0500 0000 0000 0000 0500 0000 0000 0000
000002b0: 0500 0000 0000 0000 f577 ec6e 86f0 2b3f
000002c0: 0500 0000 0000 0000 ef85 fb44 0457 9240
000002d0: 0500 0000 0000 0000 0500 0000 0000 0000
000002e0: 82f7 3a41 4585 9440 0500 0000 0000 0000
000002f0: 4bf6 98d1 9d0d 703e 0500 0000 0000 0000
00000300: 0500 0000 0000 0000 1911 fcf7 b5b5 6f40
00000310: f589 c756 cf39 9d40 0500 0000 0000 0000
2.5e-323 2.5e-323 2.5e-323 2.5e-323 2.5e-323 823.2220893747622 2.5e-323 1044.516425605511
2.5e-323 2.5e-323 2.5e-323 2.5e-323 2.5e-323 2.5e-323 2.5e-323 2.5e-323
2.5e-323 2.5e-323 2.5e-323 2.5e-323 2.5e-323 2.5e-323 2.5e-323 2.5e-323
2.5e-323 2.5e-323 2.5e-323 1600.4162261702063 1482.6763457294296 2.5e-323 2.5e-323 321.3262470554081
2.5e-323 2.5e-323 2.5e-323 2.5e-323 2.5e-323 2.5e-323 2.5e-323 2.5e-323
2.5e-323 2.5e-323 2.5e-323 2.5e-323 2.5e-323 2.5e-323 2.5e-323 2.5e-323
2.5e-323 2.5e-323 2.5e-323 2.5e-323 2.5e-323 2.5e-323 2.5e-323 2.5e-323
9.183518953399267e-10 2.5e-323 2.5e-323 2.5e-323 2.5e-323 2.5e-323 2.5e-323 2.5e-323
1042.0848208530886 2.5e-323 1.8696608202660633e-20 1440.6878564591348 2.5e-323 2.5e-323 0.28739193820700326 2.5e-323
2.5e-323 2.5e-323 2.5e-323 2.5e-323 1514.7599645558796 1213.053010431098 2.5e-323 2.5e-323
2.5e-323 2.5e-323 2.5e-323 2.5e-323 2.5e-323 2.5e-323 2.5e-323 0.00021316185981218286
2.5e-323 1173.7541693974015 2.5e-323 2.5e-323 1313.3176316464965 2.5e-323 5.980279063011643e-08 2.5e-323
2.5e-323 253.67846297485156 1870.452479474826 2.5e-323
