model_policy2_epoch-260.pt (torch, 373942 bytes, 28 tensors)

layers.0.weight f8 [128, 128]
0	0xbfe13195ec5d1be7	-0.5373029343107846
1	0xbfdc759b933d0d43	-0.4446782052875344
2	0xbfd9e8c7bbd039c0	-0.40483277646208293
3	0x3fb9cf30b7554455	0.10081772304444432
4	0xbfc88eb9f64ec226	-0.19185566450825425
5	0xbf811329fb63f3b3	-0.008337333664252577
6	0xbfb24d18a816105e	-0.07148889640490227
7	0xbfa380fb88d2f776	-0.0380934338113396
8	0xbfb842ed786da8d3	-0.09477123441834871
9	0x3fd2cb7dda41c2c7	0.29367014230869554
10	0x3f875b7b0999ae41	0.011404954176405304
11	0x3fae0fabf8857efa	0.05871331604680381
12	0xbfd07f7eed500c18	-0.25778172659937715
13	0xbfe08eed922bc6ea	-0.5174472670462056
14	0xbfcf527de49cef0b	-0.2447049490236782
15	0xbff1e068e046bb14	-1.1172875176232013
16	0xbfb9f5e86e92dce9	-0.10140850734284225
17	0xbfc11eba8c0ba062	-0.13375026548533514
18	0x3fd2d4bccbdca45d	0.2942344656790448
19	0xbfd02c38233a95ad	-0.2526989311248496
20	0xbfd9547c4a71d116	-0.395781586360742
21	0x3fd1c70dfe5bae6e	0.27777433242474714
22	0x3fe1ed3767165566	0.5602070821211498
23	0xbff188d98c372c6a	-1.095910594670182
24	0x3febd0298e0628a1	0.869160439863908
25	0xbfdcfc7d2a0c146a	-0.4529107008568817
26	0xbfdecc8c42481a65	-0.4812346122056737
27	0xbfe583ae90945905	-0.6723244499033006
28	0xbfe4445c0c14c280	-0.6333446727713437
29	0xbfd86a17d33cdb0c	-0.38147540692027415
30	0x3fda111f06152fce	0.4072949942972145
31	0x3fdf351de39b3159	0.48761698939485637
32	0xc00392a87762c2b6	-2.446610386563715
33	0x3fd56604986a0885	0.33435168155859457
34	0xbfcc4b5791918178	-0.22104925735312597
35	0x3fd9b8d67e025bf0	0.4019066076811546
36	0x3fdb3c188b57c8e8	0.4255429611940955
37	0xbfe9476286331be7	-0.7899639721953208
38	0xbfe4ca4a6324861d	-0.649693673742323
39	0xc0010549d6f26b8e	-2.1275822441797976
40	0xbfe93c8efbd0135d	-0.7886423986643468
41	0xbfb525943e33a3dd	-0.08260466116520555
42	0xbfe182a2e1283e4d	-0.5471968076325965
43	0x3fd6ed573eee5d0a	0.3582361330567926
44	0x3f9022ea84e3947f	0.015758194313907566
45	0xbfef1d4faae6c2cd	-0.9723280275266802
46	0x3fc5d966c0e9c0a0	0.17069706363281956
47	0x3fc3423901f6a44c	0.15045845600005447
48	0x3fdb1fb0a1fa1d17	0.4238092023665145
49	0xbff3310dc47a20ba	-1.1994760203252057
50	0xc000078b2f2e1914	-2.0036834417288762
51	0xbfe34a301cd945cb	-0.6028061450435244
52	0xbfb7c5b699fc318e	-0.09286061534311882
53	0x3f9273306f53b8b8	0.01801753692137062
54	0xbff3db710765d2e8	-1.241074589631518
55	0x3fb4ff40ffd49b8f	0.08201986547338279
56	0x3fd0c9a7d52f4526	0.262308080852636
57	0x3fe487456aa78f89	0.6415125926109663
58	0x3fd38154c2ddd3fc	0.3047687438004798
59	0x3fc17c84c9d9c457	0.13661250930775523
60	0xbfe60914a075e672	-0.6886084684367246
61	0xbfbc67c4a277ad66	-0.11095837561122365
62	0xbfe670d1c4bded47	-0.7012719004264135
63	0x3fe81de2999f40e2	0.7536480904036831
64	0x3fdf6bc3455c5fb1	0.49095231793898636
65	0xbfbb76d05de9bd7b	-0.10728170674132358
66	0x3f9cc02340bf21e0	0.028076697184390542
67	0x3fac53fc20066b24	0.05532825365954455
68	0x3fdf9c1042a97ec3	0.49390036115617536
69	0x3fe0ea0ab6645b35	0.5285695612281872
70	0x3fe19a697e825bc4	0.5500991316683828
71	0x3fee1d6b00518237	0.9410910612314812
72	0x3f8db6eca86b5d4e	0.014509056939842193
73	0xbfc474a0d8a4505c	-0.15980921343055143
74	0x3fc9456fce7eec36	0.19743154127886137
75	0x3f6c88844221bb24	0.003483064953847219
76	0x3fd11e7735b05fc2	0.2674844765001546
77	0x3fd027945ef37ca2	0.25241574547357903
78	0x3fccca5a07ad298d	0.22492528319191898
79	0x3fe3bc3747a41dc1	0.6167255782356095
80	0xbfb54b38d84aa47b	-0.08317904739910091
81	0xbfb6ae1ae5ae689a	-0.08859413249448025
82	0x3f73a8079aaa2ce4	0.004798917487856633
83	0x3feaec92b6882228	0.8413785519670158
84	0x3fe64c6f4bd9867b	0.6968304139556517
85	0xbfb1d2c814c531d8	-0.06962252146804049
86	0x3fb683fe7ef5bdf4	0.0879515705071226
87	0x3ff2e29472737e47	1.1803173514125704
88	0x3fb98db9e3d23f50	0.09981881916087088
89	0x3fe426c2327910d4	0.629731272296818
90	0x3fcc357ae557d02b	0.2203820819701162
91	0x3fd9af1cc8f7eb9e	0.40131301523040885
92	0x3fa3d3cdf418c1aa	0.038725315138779706
93	0x3fc4ba644d37a6af	0.16193822641735298
94	0x3f89800b668b951c	0.012451256815845961
95	0x3fe9337b5f7b7905	0.7875344147576305
96	0x3ffd87466c8be7ce	1.8455261459443935
97	0x3fefde9631e98a32	0.9959212279175687
98	0xbfc5223b9efd7e95	-0.16510720503992063
99	0x3fcd7ff6ff30125a	0.23046767673817464
100	0x3fda62f554343113	0.41228993628534844
101	0x3fe6a6c86990ea56	0.7078592359387794
102	0x3ff36ff971bc6038	1.2148374979788183
103	0x3ff06298045b4e71	1.024070755975938
104	0xbfd139038d2e7be8	-0.26910485064757816
105	0xbfc06f6cd08c4c41	-0.12840042288789458
106	0x3ff338df29cefca3	1.201384700121516
107	0xbfc17ff4dec3dd80	-0.13671742322160796
108	0xbfe2efb540dc979e	-0.5917612330274442
109	0x3fef7566e4ae2d6f	0.9830812899030387
110	0x3fe71e611e36815b	0.7224584188552784
111	0x3fe86ed3f03f2b65	0.7635287945098354
112	0xbfe0272433f8caf7	-0.504778005130304
113	0x3ff6f421587a874d	1.4346021133610123
114	0x3fff2706d06fa0a0	1.9470279829056736
115	0x3fe41f1fbf92bceb	0.628799318472287
116	0x3fd6d8d59f796640	0.3569845254292865
117	0xbfdc94771111eb8c	-0.4465615908335898
118	0x3ff2845946a62e10	1.1573117027027173
119	0xbfaab53d119417ba	-0.052163990398227125
120	0xbfeec33d3f454911	-0.9613329158549125
121	0xbfc08658c38fe516	-0.12909993695192473
122	0x3fc6a8e8d645c10b	0.1770297094585732
123	0x3fd9136cd600d162	0.39181061648129945
124	0x3fe5405755adde34	0.6641041444226574
125	0xbfce509c62f3da1c	-0.23683504897754026
126	0x3fe361b22f3f4630	0.6056757853313623
127	0xbfd96e4198baa1d1	-0.39735450663513655
128	0xbfe762cce9fba39b	-0.7308106012325085
129	0xbfd433b9fce21cb7	-0.31565713592176387
130	0xbfeae2da3c78b296	-0.8401919537623879
131	0xbfe8d0ed61a3a5c9	-0.7755038172737666
132	0xbfe77cc36c3e5de1	-0.7339799036153033
133	0xbfe730e5c33bb932	-0.7247189343595777
134	0xbfdf2c8dcc3426c6	-0.48709435407418444
135	0xbfe4682ae677f664	-0.6377157689418707
136	0xbfeb9483a7f7d884	-0.8618791847827798
137	0xbfe4bd2abf43f2ec	-0.6480916724827614
138	0xbfebc4b0c9fc8cde	-0.8677600808190638
139	0xbfe7ce725ca00ffb	-0.7439510163389963
140	0xbfe37e616834564a	-0.6091773066752435
141	0xbfddeddd3fea930f	-0.4676430820639305
142	0xbfe110dee5ece7be	-0.5333094111185728
143	0xbfe50b7c58d73934	-0.657652066723847
144	0xbfe80472c45ee42a	-0.7505430064549092
145	0xbfe4581c1121a5d2	-0.6357555708502167
146	0xbfdbec619fe8f966	-0.43630257240501746
147	0xbfe87231de786577	-0.7639397950289738
148	0xbfe9340603a0ed6c	-0.7876005240317858
149	0xbfe323dc98197b92	-0.5981276484197784
150	0xbfd6c00f35aadc5f	-0.35547237626037104
151	0xbfece8a9d5a2d72e	-0.903401295907974
152	0xbfe1cf81c9ee88e2	-0.5565804428081516
153	0xbfeba39a7b4631e2	-0.8637211234759514
154	0xbfea7be6b2db5897	-0.8276246541306759
155	0xbfd48ffff6732daa	-0.32128905360579074
156	0xbfe00635e5ddeb8d	-0.5007581224048053
157	0xbfe1a1446f737bbf	-0.5509359528331216
158	0xbfe614803ea209ca	-0.6900025580692326
159	0xbfebef5f1f0f53f4	-0.8729701620710544
160	0xbfe2872026552bd3	-0.5789948223767801
161	0xbfe86992b041bbb9	-0.7628873293414166
162	0xbfece17e6021bd08	-0.9025260808538471
163	0xbfe11ad6c7ed56ac	-0.5345262436701055
164	0xbfe5fbd07ac97b52	-0.6869890592750869
165	0xbfeed2709dc0c903	-0.9631884652247041
166	0xbfe7dadb5b443fa4	-0.745465925459929
167	0xbfe4bc4887213b12	-0.6479838027242713
168	0xbfd06cec0ee9247f	-0.2566480775463517
169	0xbfe0427f6b94cd35	-0.5081173993297968
170	0xbfcf09b70d01505e	-0.24248397955909956
171	0xbfe398ba39d15daa	-0.6123934869055365
172	0xbfdb9fe05be95e2c	-0.43163308120481036
173	0xbfe4b127308a8034	-0.646625132376363
174	0xbfbad5d065fe4eaa	-0.10482504358361192
175	0xbfe3ea7216d03983	-0.6223688550542622
176	0xbfa27cd8b170f213	-0.03610875288038442
177	0xbfe2d32ef14daa02	-0.588279219909339
178	0xbfed16ab0817ee17	-0.9090171011043279
179	0xbfe29f29b2460a44	-0.5819290620714317
180	0xbfe7365f29548d57	-0.725387173388678
181	0xbfe1409b51f4036c	-0.5391365624092095
182	0xbfdf9404ecb7ebfe	-0.4934093772605478
183	0xbfdcec817b96ade2	-0.4519351679725486
184	0x3f95e39d4170faf1	0.021376092070791
185	0x3fd44c118c303223	0.31714285555134064
186	0xbfe72504f662c612	-0.7232689678405129
187	0xbfe36efd38d54783	-0.6072984800359652
188	0xbfc917c902f2a2cb	-0.19603836673674943
189	0xbfe3adad1a88edf0	-0.6149507063159358
190	0xbfe83c5522533cac	-0.7573648138440112
191	0xbfda6fdb56b789d2	-0.4130771967740233
192	0x3fe24bd216a31bae	0.5717554514056837
193	0x3fd9ef6b11366fd5	0.4052379291622377
194	0x3fe7a7f16a5b9948	0.7392508580494814
195	0x3fe878a84637cf5b	0.7647286769338096
196	0x3fea615191028ec0	0.8243797142244702
197	0x3fe5f372523d6925	0.6859675985572592
198	0x3fdc48becf42d740	0.44194002380696773
199	0x3fe7f46d02d83b2d	0.7485871367988232
200	0x3fe881f251a7467a	0.7658626169961302
201	0x3fed032874a7c15e	0.9066355017112462
202	0x3ff151f459bd8745	1.0825084214670408
203	0x3fe916c08fdd1251	0.7840273675761386
204	0x3fe674ec763d8d33	0.7017729100593101
205	0x3fe8533c42ee013e	0.7601605708332853
206	0x3fe62d2d1915750d	0.6930146684568698
207	0x3fe5fee481e2cb89	0.6873648201784458
208	0x3fe1ca518f8e85a4	0.5559470943300551
209	0x3fe6cfabbfccb3bc	0.71285045109618
210	0x3fe2e32d0a691669	0.5902314380006831
211	0x3fed479bc41aea56	0.9149912672213059
212	0x3fe6fa0eac54ca96	0.7180245748371188
213	0x3febcb89862f8b05	0.868595850068545
214	0x3fdd5f5257635991	0.45894297155373304
215	0x3fede4feffa188aa	0.93420362403801
216	0x3fe3505d7eb17dcf	0.6035602068404219
217	0x3fe50b29a079c836	0.6576126226702914
218	0x3fea662adab36ca9	0.8249716063977718
219	0x3fe2e0ec1a507b34	0.5899563325836881
220	0x3fe9c435f2b74abf	0.8052015057131355
221	0x3fe9feafef40cb4f	0.8123397515213159
222	0x3fe5b01f6ebcf781	0.6777493632177852
223	0x3fe6e1a302f94a9f	0.7150435503084117
224	0x3ff2d0fad0908708	1.176020445542635
225	0x3fe543cd72345452	0.664526675277225
226	0x3fec6e9c89b77e88	0.8885023774891616
227	0x3fecf1f1a8b5a0b3	0.9045341773135277
228	0x3fe925983d7a90d1	0.7858391953236837
229	0x3feb981e31ee9738	0.8623190856203342
230	0x3fe85525ca9b3d9f	0.7603939969211985
231	0x3ff23afb94a0feba	1.139400082189168
232	0x3fcaf1a984d01f62	0.2104999445439218
233	0x3fe11049b6ca3151	0.5332382745851111
234	0x3fe7dd8858411c6c	0.7457925533025338
235	0x3fe4dc1be18c210b	0.6518687634680033
236	0x3fd9c8532c4d9776	0.40285186125253547
237	0x3fe3c21e34e6a740	0.6174460442755176
238	0x3fd7ff9b360e14d6	0.37497597006615757
239	0x3febf801a139b516	0.8740242146429036
240	0xbfafaf159256702b	-0.0618826619276834
241	0x3fde8e978dfa9ebe	0.4774531256211779
242	0x3ff130dccceeaf82	1.0744293217821625
243	0x3fe989e2f6fead08	0.7980818580739717
244	0x3fe30aabfe566978	0.5950527160196506
245	0x3fde4eb424841a97	0.47355369153994203
246	0x3fe706849a8cda8f	0.7195456522520817
247	0x3fe045c2973f938a	0.5085156396931876
248	0x3fddcd35c31a7cb7	0.4656500249202042
249	0x3fcc9b786c025f34	0.22349458001985456
250	0x3fe04f7781392bed	0.5097005390065285
251	0x3fe3399651e6bd9e	0.600779685939347
252	0x3fd1e3676eeba822	0.279504640885195
253	0x3fe3db0799ea308a	0.6204870229862689
254	0x3fe791ec3de28dd4	0.7365628441515875
255	0x3fdce0ca3df8c1c7	0.45122009326862805

layers.0.bias f8 [128]
0	0x3fa60b4ecf331c99	0.04305502204220452
1	0x3fd9470ea51e3082	0.39496198773191094
2	0x3fda0f333b7c71a0	0.40717774209204016
3	0x3fc8aa17503ef709	0.19269076746234529
4	0x3fce7f526659053c	0.23826055524299672
5	0xbfd8aefc397e95cc	-0.3856802522153344
6	0xbfe5b1e72bfec0c0	-0.6779666766433579
7	0xbff17d95411312b0	-1.0931599180195626
8	0xbff2c63e4a910686	-1.1733992493394978
9	0xbfe8bcab40a388c1	-0.7730308783032102
10	0xbfd87547399f6c40	-0.3821580946657299
11	0x3feb53e42a1d1bd0	0.8539906332524598
12	0x3feab609f8ae6981	0.8347215516144361
13	0xbf7aecbc3c699253	-0.006573424622363949
14	0xbff1000d8675f2ff	-1.0625128986714
15	0x3feb541482e6a900	0.854013686815307
16	0xbfe8b8ee952da5cd	-0.77257470260991
17	0xbfef31cf3b5e3e95	-0.9748302611860306
18	0xbfdfca033a226b3c	-0.4967048709601618
19	0x3fc3a2f09e0adbfa	0.1534100314799785
20	0xbfd969d0e4e289d5	-0.39708349563639206
21	0x3feb8242d61f40ca	0.8596510107108994
22	0x3fdc1b0769122f0d	0.4391497160038263
23	0xbfaf59b98b5b68ea	-0.06123142076622108
24	0x3fa9cb1600a42e44	0.05037754781559703
25	0x3fefd7e7c2d63496	0.9951056294827534
26	0xbfdb7a4e90a2d0fc	-0.4293400204144431
27	0x3fd572161b69b9c3	0.33508827855157736
28	0x3fe348aac065704e	0.6026204831828268
29	0xbfe061775e32f01f	-0.5118977393935927
30	0xbfebf5700e3a5160	-0.8737106588255692
31	0xbfd27a5b6b07f081	-0.28871808483359734
32	0xbfe7cfb5a9cfe551	-0.7441051785128058
33	0x3fe10c1ec633db76	0.5327295180457969
34	0x3fdcf08ff3508e19	0.4521827579612548
35	0xbfd4adb03a6f40f0	-0.32310109812261967
36	0x3fd284dfcd06f30c	0.2893599989145492
37	0x3fd0efa1fd2fe52d	0.2646260235338385
38	0x3fd6ca76f91e0528	0.3561074669633677
39	0x3fdefe3c2dee9faa	0.48426727757986987
40	0x3fce68001b3634ec	0.23754884079645622
41	0xbfdb9ce46bf0abb5	-0.43145094433810566
42	0x3fe39f4ac5aff608	0.6131948338585866
43	0xbfbda1ec2df2d623	-0.11575199243346694
44	0x3fddd23d8cb214f5	0.4659570573788437
45	0xbfdabe6b2889435c	-0.4178722282277272
46	0x3fe226e969d6927d	0.5672499720718204
47	0x3fc739c690f34e92	0.18145067289025413
48	0x3fc5d6c88fe8771a	0.17061717058907605
49	0xbfe3d91b6fe0590d	-0.6202523408017285
50	0xbfec36e357165939	-0.881700201122647
51	0xbfd126d4f404ceb7	-0.26799510793646725
52	0xbfdad9fa5a646abb	-0.4195543177353717
53	0xbfe84bfd1629058e	-0.7592759545151908
54	0x3fe95e0ca844f157	0.7927306448469079
55	0xbfe82274dbf2cc47	-0.7542061134212269
56	0xbfe73c87638d1e87	-0.7261387771950049
57	0x3fb1e61960ee6438	0.06991728416905196
58	0x3ff19cc772cbc073	1.1007761463370371
59	0xbfd655ce80b6778f	-0.34898722238164565
60	0x3fe2c6ba93b74f8c	0.5867588887290238
61	0x3fd4fe39257d41ae	0.32801655446112477
62	0xbfd8681099964d48	-0.3813516139864146
63	0x3fd934ef1654f9bf	0.39385583096364124
64	0xbfd45d7a7430e574	-0.31820546480920275
65	0x3fefc447eda10b7d	0.9927100793068885
66	0x3fe1a8163821d888	0.5517684074718696
67	0x3fddd3053ee7d9c0	0.46600466864711265
68	0xbff0803b10a7ace2	-1.0313063288293098
69	0x3fd6ff127d513747	0.3593183730889575
70	0xbfd463382a9a58b5	-0.31855587158623716
71	0x3fc99bc6fdcee861	0.2000664462373747
72	0xbfe21b1b3dbdb6fa	-0.5658088880424821
73	0xbfcb7d13d6f5d3ce	-0.21475456234079932
74	0xbff46ee0bec7dfc9	-1.2770698025105836
75	0xbff1d4f8b9f48ad2	-1.1144950164677323
76	0x3fc1b797575086e1	0.1384152580586067
77	0x3fcab7eecf33c2a9	0.20873818509382616
78	0x3ff4cfcd020ec912	1.3007326202756002
79	0xbfe6ac268392bb05	-0.7085144586361315
80	0x3fb14d4989a46c8a	0.06758555994422202
81	0xbfec21a46bb5ba9b	-0.8791067222317283
82	0xbfe7cf9c34ba1b4e	-0.7440930394958316
83	0x3f90e0ea8250894f	0.016482986644527128
84	0x3ff1257d10fa2357	1.0716524756591832
85	0x3fe7fa57c97f9ff6	0.7493094382780316
86	0x3fc6182f7e2b6376	0.17261308346385434
87	0xbfc1518ddf2e34f8	-0.1353013362644686
88	0x3fd0d0f4ca34c567	0.262753674952441
89	0x3fe6b2235b1f375a	0.7092453746533736
90	0xbfdab97a1ce71e29	-0.4175706178907342
91	0xbfdb57ddab067bc4	-0.4272379083794784
92	0xbfe9ae18b81b14e4	-0.8025020213905489
93	0x3ff097d56362c4f5	1.0370687372454175
94	0x3fd9f3a2952f8c0b	0.4054953057186032
95	0xbfe45838d3820111	-0.6357692843448907
96	0xbfe944c228f39013	-0.7896433639366499
97	0xbfda6431e76bc5bd	-0.4123654136629645
98	0x3febc30eb17de3b4	0.8675607172618727
99	0xbff1b4ab45c3a983	-1.1066086507003952
100	0x3feae02979bf5f1f	0.8398635270959608
101	0xbfe262793ca9621e	-0.574520700912277
102	0x3fc5fbeff220f470	0.17175101587955366
103	0xbfd3c67820e5dbf8	-0.30898860180553767
104	0xbfc39a0657bc7512	-0.15313796314232114
105	0x3fddec6284cf25ef	0.4675527855839325
106	0x3fd4d60228136d2d	0.32556203759823427
107	0xbfbfd01592dd4f74	-0.12426886401709486
108	0xbfe27bb5f37663d6	-0.5776014094473065
109	0xbfd06e20bd045138	-0.25672167261770396
110	0x3fe122277eb347b5	0.5354192232718932
111	0xbff2b7563a16e2a7	-1.169759966766074
112	0x3fe0b99f9982aad3	0.5226591108560917
113	0x3fd91d3886349c0f	0.3924084959602973
114	0xbfd9aa01c9282d91	-0.4010014023230833
115	0xbfd152766d0ee866	-0.2706581177732289
116	0x3fe371b875503f5a	0.607631901862969
117	0x3fd33622625d6c85	0.30017909627867595
118	0xbfea3bbac1d7a922	-0.8197912012085775
119	0x3fdaf2d27e70f8f0	0.42107069347174697
120	0x3fe42c58b492f92f	0.6304133917654208
121	0xbfca096932c9052c	-0.20341219882724582
122	0xbfdf34d71166e468	-0.4876001043263103
123	0xbfec2a7175be7f3b	-0.8801810550394075
124	0xbfec1462c10a0d3c	-0.8774884958551534
125	0xbfb1f6263af44bd8	-0.07016219081223996
126	0x3ff0d98db712715d	1.0531136657001163
127	0xbfd75451d8fa2559	-0.3645214671056088

layers.1.weight f8 [100, 128]
0	0xbfe1d9eed1d5ec22	-0.5578531359054788
1	0xbf8af0767e49220c	-0.013153959015782334
2	0xbfd29eae02369a61	-0.29093504158155353
3	0x3fad8f5b3a035ae1	0.05773434718292037
4	0xbfd5aa93f96bc960	-0.33853625638507445
5	0xbfd20e7d759938c6	-0.2821344040320465
6	0x3fd199c432c3554f	0.2750101562245008
7	0x3fc18751fe5150b9	0.1369421474252073
8	0x3fce026f0ed3a650	0.23444927429163664
9	0xbfc9cb35fcd382e4	-0.2015140041831024
10	0xbfc9fe99d677af5f	-0.20308230373427258
11	0xbfce160064eea915	-0.2350464337189996
12	0xbfb716cea5fbc971	-0.09019176056225377
13	0x3fd043d438aeb8b8	0.25413995299721703
14	0x3fb4bed68850af00	0.08103695705420577
15	0x3fc60a6ccad8b417	0.17219314484228285
16	0x3fd39b7f7568ebad	0.3063658377247361
17	0xbfc629d3efd8c16a	-0.17315148555054388
18	0x3f9d624f65f636ac	0.0286953359587218
19	0x3fc2708bd7fc6297	0.14405963941751018
20	0x3fc11b52d5c492ea	0.13364634931453817
21	0x3fa347d9a8ba95c3	0.037657548758299984
22	0x3fc3f7ac2323736f	0.15599586215730762
23	0x3fc960daa15581fe	0.19826825025212708
24	0xbfdba1f164d5a1fc	-0.43175921294326236
25	0xbfcd1e2e83a00f01	-0.2274835722638429
26	0xbfa4c9b4b2bf3d46	-0.04060139352770391
27	0x3fd90ed7d98d02f2	0.3915309547920024
28	0x3fc907111a004302	0.19552816171246695
29	0x3fa0ce2da8c02304	0.032823016023092705
30	0x3fe008e64866b4c4	0.5010863699041228
31	0x3fd37ad80b70ab5a	0.30437279813002294
32	0x3fbb1ee2aa187452	0.10594002392504479
33	0x3f81e2ac848d8dce	0.008733127398676734
34	0xbfc55e3bcc2bb610	-0.16693828076624628
35	0xbf69f6a02a5c2437	-0.0031693580848508834
36	0x3fd4cb35a6a10f2b	0.3249029280889199
37	0xbfa599ba4ef7e7eb	-0.04218847478837503
38	0x3fda7daad9bc60ea	0.4139201284720132
39	0xbfcac8a398ff60db	-0.20924801798424295
40	0xbf95a99683cd33fd	-0.02115473918393106
41	0xbfdd52dc57b47348	-0.45818241658144077
42	0xbfbbf60adc91a9a3	-0.10922305951104376
43	0xbfc15ce0016ebfef	-0.13564682073547327
44	0x3fa8a266a67ad51c	0.0481140211317472
45	0xbfbb3d5d9ec2e709	-0.10640511632928108
46	0xbfc8c3eaef8d07f0	-0.19347893425771145
47	0xbfe5096fbde29113	-0.6574019154254834
48	0xbfc3863c5ee31af0	-0.15253405221138605
49	0x3fc252fba9473a33	0.14315744176424658
50	0x3fa5f7fd169fe08c	0.04290762807062362
51	0x3fde78722ea0154c	0.47610144189123527
52	0x3fc3d72d2a893a69	0.15500416352229543
53	0x3fcb3d790fd70a00	0.21281350396573373
54	0xbfc3fad1a6997a89	-0.15609188685171585
55	0x3fd60a025b6e022f	0.3443609135502212
56	0x3fd8e7a5bf41660a	0.3891386382798322
57	0xbf9520e9422821bb	-0.020633358633888692
58	0xbf9651ec8f8e25fd	-0.021796890508573686
59	0xbf78bc6710a82329	-0.006039049718773262
60	0x3fd176e5117cce4f	0.2728817625786392
61	0xbfe0888b12f01d9a	-0.5166678781396741
62	0xbfde73f255ae512b	-0.4758268200614732
63	0xbfc4c608e9360753	-0.16229354274042382
64	0x3fd86a671b1274a9	0.38149430888899843
65	0x3f68b95b824d59a4	0.0030180728230490717
66	0x3fc30f62ae5233a6	0.14890702735683908
67	0xbfc32fc2d0303664	-0.14989504971929357
68	0x3fd82cd29b469f5d	0.3777357593885336
69	0x3fb26fa6e60fa241	0.07201617352223712
70	0x3fabc6923f3b1fff	0.05424935361730831
71	0x3fce620ef1be110a	0.237367504156403
72	0x3fb8c142cbb82868	0.09669892762772891
73	0x3fafa0f1d519cd64	0.061774785292892515
74	0x3fc34e04f683c799	0.15081846272329072
75	0x3fc03fc5008a709f	0.12694609190373726
76	0x3fc09f9c6f41af32	0.12987094337892696
77	0x3fd7642450cf4903	0.3654871739537528
78	0x3fc5273573b044cd	0.16525905751090023
79	0x3f96591dd226042a	0.021824327422567937
80	0xbf8afbb5640ffb5e	-0.013175408474123958
81	0xbf85a4da3cb5a2c6	-0.01056833741923081
82	0xbfda7b10dbd11601	-0.41376134363630973
83	0xbfa45d225e60c91c	-0.03977305795742067
84	0xbfcb271bd0164843	-0.21213100109577185
85	0x3fbef3fe46529fdf	0.12091054169525205
86	0xbfb138bd2d278f62	-0.0672720179787212
87	0x3fe3f37e03091641	0.6234731730734852
88	0x3fee41ed5c111002	0.9455477522064941
89	0x3fb86318b6daba61	0.09526209320277125
90	0xbfc12cda8b3ba956	-0.13418132589806459
91	0x3fb85aceb70d9eed	0.09513561219284457
92	0xbfb0e0f1bdbb6aca	-0.06593237764483742
93	0xbf701ff25bae1ad0	-0.003936716758181816
94	0xbfddaa38939d7533	-0.46351446548017633
95	0xbfb7e37f7fc20a55	-0.0933150946530444
96	0xbfc3e64a497201ce	-0.15546539865682835
97	0x3fcf57984a1e4c80	0.24486068362293523
98	0xbfb5a2d55bf4ddb6	-0.08451589102775511
99	0xbfa13fbaf23f3c0d	-0.0336893482886965
100	0x3fd2e9c4a03877c3	0.2955180706647946
101	0x3fd5d8975eb8fe7a	0.3413446831727708
102	0xbfc23d2acb4654a2	-0.14249167371295807
103	0xbfc8e5c745477fd6	-0.194512280299931
104	0x3fccb751da6dd655	0.224344474463282
105	0xbfcf1f6f3dc571a5	-0.24314680591750207
106	0xbfd4605c4b74e716	-0.3183813797837599
107	0xbfe247192681d219	-0.5711789848415406
108	0x3fad561792b19e4e	0.05729745546051089
109	0xbfcb80f2131cffe9	-0.2148726075483858
110	0x3fea197a245e3c21	0.8156099996866751
111	0x3fa4f5007bd260bf	0.040931716074909634
112	0xbfd1d5ab5b4c2b57	-0.27866634288573294
113	0xbfba222c20346799	-0.10208392893073749
114	0x3fdc7884f599ea91	0.44485591873641633
115	0xbfd23bfa95cb7d95	-0.28491081837088333
116	0x3fcb1944594c139e	0.2117085872670516
117	0xbfd09d29e811eb4a	-0.2595925108250198
118	0xbfb0f16521d6499a	-0.0661833961114894
119	0x3ff29efc91fa09d3	1.163815088483365
120	0x3fc60b650af606ad	0.17222273860175133
121	0xbfd74d82a72a9c31	-0.3641058571324179
122	0xbfc80df4868ebc23	-0.18792587824052118
123	0x3fba56261c6919d0	0.10287702745072314
124	0x3fd9538c3dd05120	0.3957243541383537
125	0x3f8305c11c5f3837	0.009288319280951736
126	0x3fd9b112893e815b	0.4014326420092595
127	0x3fca52957eeeb68a	0.20564526269793176
128	0x3fa5e0b19d61848f	0.04272990270761411
129	0xbfb07a8085d30718	-0.06436923281856044
130	0x3f997731736e654c	0.024868748350489953
131	0xbfa54a9a4897af0c	-0.04158479820384117
132	0xbfaa9b499b94ee46	-0.0519659998339788
133	0x3fb89fefc0248025	0.09619043770771947
134	0x3f6a68f17c3ede9b	0.003223868990939694
135	0x3f8cbb70cf9cacde	0.014029389701667613
136	0xbf3cea6de1e1a81a	-0.00044121916460560103
137	0xbf21862068b70f18	-0.00013369699114040216
138	0x3fb5485232d6e1fd	0.0831347822303385
139	0xbfb1918d0ee8c767	-0.06862718214031603
140	0xbfb59880035aeed6	-0.08435821611322622
141	0xbfae1dd1f8c87f4e	-0.0588212600889607
142	0xbf903c83e3bd751d	-0.015855847144270564
143	0x3f9c2457c762dc5b	0.02748238710838922
144	0x3fb8b429ed3031ac	0.09649908104638055
145	0x3fb6d4b3f6bf087b	0.08918308996274675
146	0xbfa30adc0129b683	-0.03719222559162196
147	0xbfa01a2d1badce64	-0.03144970858457155
148	0xbfbb6ba17c9adfbc	-0.1071110657893532
149	0xbf93d4045b904a2d	-0.01936346825466211
150	0x3f9970efdf337d4c	0.024844882963291057
151	0x3fb189119e3f6c9f	0.06849775422544944
152	0xbf780261f63160cd	-0.005861647284369731
153	0x3f67bf494149ed2b	0.0028988295328510514
154	0x3fa03a475eb4d936	0.031694631872982645
155	0xbfb698d0b836ed63	-0.0882692765944078
156	0x3fac2813752f8dac	0.054993255667592805
157	0xbfb87dd6f06817f8	-0.09567016000082151
158	0xbfb46b39c51cc710	-0.07976113378824956
159	0xbfb04c95f7a390da	-0.06366860671875277
160	0x3fb85255851ac887	0.09500631808876579
161	0x3faac4320389f708	0.05227810185622955
162	0x3faa026d6b0cdb79	0.050799769704489024
163	0x3fb4db6b35cfb0c0	0.08147306503059593
164	0xbfa6c68f84cb41c3	-0.04448364730854195
165	0x3f6eec05b9ec2b77	0.0037746536103261913
166	0x3f99eb5038658df0	0.0253117117330372
167	0x3fa283f618af5361	0.036163034928597744
168	0xbf5ddcb1f53198d9	-0.001822637354757675
169	0x3f49ed8dfa944d96	0.0007912581687911531
170	0xbf8556b90864efc7	-0.010419316834138116
171	0x3fa9b37364ddac87	0.05019722563050615
172	0xbf90d8d4e753756f	-0.016452147120494084
173	0xbf92b15d070b1e40	-0.018254712633988257
174	0x3fa48dae129c61b7	0.040143432399591665
175	0x3fb88a3f41caef1b	0.09585948330180509
176	0x3f8f713e660e1221	0.015352714051695195
177	0xbf9aa2210e58f737	-0.026009098530486354
178	0x3fa9c013fdf39f9b	0.05029356455798891
179	0xbf7c7f91ffefd185	-0.006957598029647354
180	0xbfa065670f336ee2	-0.03202364025648109
181	0xbf5b4b3cf844b949	-0.0016658873947324618
182	0xbfa101caa7812b69	-0.03321679396375183
183	0x3fa64554fde317a1	0.04349771117408286
184	0x3fbc6454ef8455e5	0.11090594146329343
185	0xbf97e2e7f01cd1e2	-0.023326515226658524
186	0xbfaa053425dcdc3e	-0.050820951101222964
187	0x3faaa504628157a0	0.0520402307744654
188	0xbf99735e6a4c44fb	-0.02485415958205282
189	0x3f92d76ed43033dc	0.01839993639082481
190	0xbf935b3869adc1c7	-0.01890266556751088
191	0xbfb006793185cfc6	-0.06259877642679532
192	0xbfb1d06c3bc4a977	-0.06958652934250674
193	0x3faf20c984906850	0.06079702132429132
194	0xbf330c951a4a7499	-0.0002906669636020903
195	0x3f9c085874846f2c	0.02737558566251079
196	0xbf825008b10fb918	-0.008941715148435267
197	0x3fae4abff0750e25	0.059164045431796354
198	0xbfaa68390c3f1d9d	-0.05157640718931165
199	0x3fb0eff18e5efc48	0.06616124845366855
200	0xbf9d4127446cca95	-0.028568852950409413
201	0x3fb1d3e629a888a0	0.06963957325982273
202	0xbfa09dfbbf69c331	-0.03245531760774723
203	0x3fa4fa15e07de764	0.04097050061586918
204	0xbfb342060338044f	-0.0752261884554326
205	0x3f9c239458e37292	0.027479474950143308
206	0xbf831085d6c45ba0	-0.009308858505887418
207	0xbfaa342579d9aa11	-0.05117909538678956
208	0xbf9aa9391b680035	-0.026036159799332565
209	0x3fb22160215ac3a2	0.07082176985092173
210	0x3fb05b9415244b76	0.06389737621456767
211	0xbfb54653b58f77d9	-0.08310435469272139
212	0xbfa2a25d892f5d9b	-0.03639499950048305
213	0xbfb5e61d1db7892b	-0.085542506938087
214	0xbf7460d21d412196	-0.004975147971045498
215	0xbfa7a581e9c4e94d	-0.046184596811559155
216	0xbf96ffaedae1cb13	-0.022459728345391627
217	0x3fa42e4574cc5fe3	0.03941552210579837
218	0xbf491fa852407014	-0.0007667133218123312
219	0xbfa4f3a9b0e773a1	-0.04092150005792595
220	0x3fa1ce59e1a14f62	0.03477745894693275
221	0x3f917670be8f8a18	0.017053376799490122
222	0x3fbc395c124cc418	0.11025023886465168
223	0xbf924d5590b3fe1f	-0.017873131710983366
224	0x3fb582e37908982f	0.08402845101281352
225	0x3fa56edaa512b39c	0.04186137452175062
226	0x3fb73ac1854b204d	0.09074029449686911
227	0x3f997cb9c45b0580	0.02488985310515579
228	0x3f93ba5f4cbb5e20	0.019265641268104372
229	0xbf72df487be79249	-0.004607470646508968
230	0xbf9ae9d69baddd02	-0.02628264737310549
231	0xbf363bb2b320266a	-0.00033925164018509
232	0x3fb9f8159d41763c	0.10144171799898855
233	0x3f6ef3546cfe39b5	0.003778138059664838
234	0xbfbd1973aaf55bfa	-0.11366961406507406
235	0x3fb512bf8473bef8	0.08231732352919241
236	0x3fb327c86aa7d2b1	0.07482578853507495
237	0x3fb796863e406cc7	0.09214056987586892
238	0xbfa7b3cfcd414017	-0.0462937295966414
239	0x3f907cc28517dabb	0.016100921033251874
240	0xbfa8cae2f1aa6280	-0.0484229011537467
241	0x3fadaa028434ae04	0.05793769706573573
242	0xbfa7dba7345de762	-0.04659769548648175
243	0x3f5a2b3aeff9db35	0.001597220951138301
244	0x3fae45d712fc79a0	0.05912658793225778
245	0xbfb17ebe3e7c3dfc	-0.06834019685287979
246	0xbfb52cd6febc4165	-0.08271545142293275
247	0x3fb29fa4c33c3860	0.07274846807942614
248	0x3fa74fa36c66e95e	0.045529467566171475
249	0x3fa5a6ebb61f8a85	0.04228912923988041
250	0x3fa12eadba539078	0.03355925464146109
251	0xbf97b1a37b04d14e	-0.02313857496592791
252	0xbfb6f816459c6ce6	-0.08972300719726753
253	0xbfb3eeb32ca82969	-0.07786102142578034
254	0x3fb981ab6f3d294d	0.09963485208314644
255	0x3fa347b3a709d2e7	0.03765641607325226

layers.1.bias f8 [100]
0	0xbfc5c3aa3957e655	-0.1700337200161807
1	0xbfb6b773f3d7bf0e	-0.0887367697066532
2	0xbf9f86e17da0e0c4	-0.0307879670073994
3	0x3fb0a0de8ae91c8c	0.06495467082378265
4	0xbfa85562f797d04d	-0.0475264479863716
5	0xbfd59388b1b24c9b	-0.3371297583882524
6	0xbfaff35ec620f29e	-0.062403642354614805
7	0x3f5aeb6f9fe63bc6	0.0016430463871050945
8	0xbfb1c23caded85b5	-0.06937007185253814
9	0xbfa95b4708f14be2	-0.04952451690828476
10	0xbf86631c67f10eb6	-0.01093122665600475
11	0x3f9d70f8ca54609c	0.028751265858858774
12	0xbfb3deb41f011768	-0.07761693722667717
13	0x3fb1dbcf0389eb7e	0.06976026379008535
14	0x3faa1fa5b4db1500	0.05102269966804762
15	0xbfa72bb4de940828	-0.04525532929439208
16	0xbfb7b0763b274b6b	-0.0925363439958297
17	0xbfbd4de7d4ca9c13	-0.11446999497512449
18	0x3fc01db463e91baa	0.12590651396223268
19	0xbfa50c5ffbf701e4	-0.041110038287573564
20	0xbfa33b0af4ad6308	-0.03755983578475336
21	0xbfb24d1a7c172c58	-0.07148900537065239
22	0xbf984fdd7206ef3a	-0.023742160877858277
23	0x3fc91e1ce6ffd90b	0.19623147277133798
24	0x3fd1c61e369a64e2	0.27771716434797444
25	0x3fabff0d402e7f1e	0.05468026550738457
26	0xbfc1436111c1adbe	-0.13486874930400278
27	0x3f7df898e7bec3a7	0.007317158971930227
28	0xbfb2a3ed99e00455	-0.07281384474482995
29	0xbfb3b4a6b39cb567	-0.07697526822149357
30	0x3fb37121dfbc3fe1	0.07594501220978557
31	0x3f76435c1baf69f6	0.005435333058779515
32	0xbfaa25a4e0000000	-0.05106845125555992
33	0xbfa83afd72a92036	-0.047325058218632796
34	0xbf372f82f9ea7394	-0.0003537840620227381
35	0xbfa7ecf3c34d545c	-0.046729676809868365
36	0xbfab10122e3236ac	-0.05285698713224227
37	0xbfb53066faa38c86	-0.08276980990517488
38	0xbfb6c5f2c43f6285	-0.08895795146180248
39	0xbfac46c8b91d93ab	-0.05522753963194956
40	0xbfb179df0338ee59	-0.06826585606261783
41	0x3fad7b9cff42d0e4	0.057583719405927686
42	0x3f958c6469bd61af	0.021043366388171666
43	0xbf7d9d155ed686cd	-0.007229884603846504
44	0x3fb29c0a6a63b1a3	0.07269349191091705
45	0xbfbec9dc918d9ad4	-0.12026766351264523
46	0x3fc18f42202d5abd	0.1371843964686458
47	0xbfba1764dc2f1b1c	-0.1019194638784992
48	0xbfb4886f4688a378	-0.08020682785048716
49	0xbf82528966719484	-0.008946488798935677
50	0xbf9bbcef8ca5c63b	-0.027087920150228078
51	0x3f8d0b87c05bf497	0.014182148511731092
52	0x3fcadc224a52b70b	0.20984295491273772
53	0xbfbb76e11c39b7d3	-0.10728270472620176
54	0x3f749f67609b3dcc	0.005034831827017649
55	0x3fabaff1de14401a	0.054076727256074444
56	0xbfb540716d192526	-0.08301457322626912
57	0x3fe644da292163a3	0.6959048083618778
58	0x3f97dba002c9a8ce	0.02329874054923025
59	0xbf79325c88cf8749	-0.006151544058384869
60	0x3fb55d7572fa04bd	0.0834573178963351
61	0x3f892303722a8a51	0.012273814126563172
62	0xbfb214314a80e4b3	-0.07062061375553945
63	0xbfa3fd0e40000000	-0.039040036499500275
64	0xbfce32249716fb1e	-0.23590524079733027
65	0x3fb1fe8377b63a21	0.07028981850292172
66	0xbfb8a5ad02be069b	-0.09627801243734739
67	0x3fa9e44e85fdc446	0.050569967132908775
68	0x3fb5bcd0cf25e357	0.0849123483402655
69	0xbfb58d6cafdcd231	-0.08418921750564647
70	0xbf78dbf320000000	-0.006069135386496782
71	0xbf917a64e6c31e3b	-0.01706845911465236
72	0x3f64356ee2f72176	0.002466885161741479
73	0x3fd1734f5399348b	0.27266295589363015
74	0x3fb5ce3fe2ff3a58	0.08517836849134974
75	0xbf7213992faa606b	-0.0044132217250521895
76	0x3fb1c2ece7aae472	0.06938057571359638
77	0x3fa51c4fc7998d8b	0.04123162566682045
78	0x3fa153930fccf499	0.03384074752691752
79	0x3fd344ea79fdc94f	0.3010812941858107
80	0xbfa7662cd13dbc0a	-0.04570140890324843
81	0x3fa364d804383298	0.037878752245977754
82	0xbfab0c48e2fdaef8	-0.052828099926811534
83	0xbf7d9b58bb138290	-0.007228228191906397
84	0x3fa9b0b8f70dfb8b	0.05017641082576237
85	0x3f8d2f739cf684f2	0.014250663020734387
86	0xbfa7483784529ffd	-0.04547284593837728
87	0xbfa4f6b3a0000000	-0.04094468429684639
88	0x3fb07b48068c24ea	0.0643811241135556
89	0xbfc08ab651704d51	-0.1292331597947887
90	0xbfa5c685a0000000	-0.042530227452516556
91	0xbfb5fbf781550e4d	-0.08587595851445791
92	0xbfbfc9bcbaae3797	-0.12417201573972957
93	0xbfba3f74c1cac913	-0.10253076297047796
94	0xbf9b89b70f4a8803	-0.026892528827950467
95	0xbf9d326dcc6ec2f4	-0.028512683489398463
96	0x3fb29cee16d69f55	0.07270706231667863
97	0xbfa8b101c0000000	-0.04822545498609543
98	0x3f3be73b82de6f7c	0.00042576983366315164
99	0xbf90510a6d4a5daf	-0.015934145851671463

layers.3.weight f8 [100]
0	0x3ff62632be1e3685	1.3843257357106336
1	0x3fef8c3e135b687c	0.9858694437091482
2	0x3ff1f3175d4e47ec	1.1218484539754128
3	0x3fefa2ebe793ef39	0.9886378787045721
4	0x3fe13c65733f7fc8	0.5386225939691878
5	0x3ff695d2837b3677	1.411577714537456
6	0x3feefbc7ec0498a5	0.9682349786496799
7	0x3ff203b2a5dc4d8f	1.1259027937820496
8	0x3fe6afd6bd36edda	0.7089647002789505
9	0x3ff236e9372822bf	1.1384060053407408
10	0x3ff50df5ba1f830e	1.315908171695074
11	0x3ff53ed2a3d97654	1.3278376007432557
12	0x3fe50cc2c2a1922f	0.6578077126874343
13	0x3feb198cf67dbfcf	0.8468689741403014
14	0x3feed6572e597a09	0.9636646180404692
15	0x3feed49da34bff7f	0.9634540738479557
16	0x3fefa98e4d69c9d8	0.9894477378823536
17	0x3feefbd40b6140ff	0.9682407591117509
18	0x3fdfb2e8c14cab40	0.49529475094702846
19	0x3ff6f5cc6cd6df1f	1.435009408143692
20	0x3fe5698a66c11eb8	0.6691333777352702
21	0x3ff85f686b50dc17	1.523292941286632
22	0x3ff002a6c05fce01	1.0006473078364027
23	0x3ff6c15374e73d99	1.4221987310919302
24	0x3ff2dba39b294d21	1.1786228238095833
25	0x3fefb2b1a601a8c6	0.9905632250131695
26	0x3ff8b839cdef5b2c	1.5449770016036366
27	0x3feed210f812f0aa	0.9631428570933356
28	0x3ff007fe05ee6bfc	1.0019512397473127
29	0x3ff01899319fce16	1.006005472035104
30	0x3fefe2cdccb766e8	0.9964360235564671
31	0x3ffb0a51d534b23c	1.6900194481232935
32	0x3ff0000000000000	1.0
33	0x3fef95dc1cfd5cc8	0.9870434347348231
34	0x3fea6046c211cefe	0.8242524900838075
35	0x3fefe75f0d8b69ed	0.9969935669462849
36	0x3fefafeae5bcd6eb	0.9902243125022471
37	0x3fe5eef093235918	0.6854174493589964
38	0x3feeca963ef186b3	0.9622298459400639
39	0x3ff30cf44a7e0e3b	1.1906626615390354
40	0x3feefc95c2217ff1	0.9683331290834741
41	0x3ff9c6bc0632d9df	1.6110191576132065
42	0x3ff004a56ae990d3	1.0011343170418072
43	0x3ff093bfb131796d	1.0360714837657625
44	0x3fe1f2b250e438f2	0.5608760433113089
45	0x3fecf32cb7a70060	0.9046844088516188
46	0x3ff76a17310b98f3	1.4634010234672672
47	0x3feefc37d3805a8c	0.9682883387457237
48	0x3fef455cdacb7d55	0.9772171281182788
49	0x3ff1d042ae609949	1.1133448421110919
50	0x3ff09bda92c24afd	1.0380502445956943
51	0x3fe73a04dd458148	0.7258323976239263
52	0x3ff0ab7688a38a24	1.041861089463631
53	0x3fef372b224685aa	0.9754844350283538
54	0x3feed21981eacebb	0.963146928543629
55	0x3ff5430a5f0d7b3a	1.328867312716922
56	0x3fed046fd1c84004	0.9067916009244077
57	0x3ff7bb3dae43c2a5	1.4832131201948553
58	0x3feefbddf564bd50	0.9682454865305008
59	0x3ff08c689401853a	1.0342794209939954
60	0x3fdf988a07500be8	0.49368525232438154
61	0x3ff0279498448042	1.0096631954147743
62	0x3fef16c144441a5a	0.9715277036019174
63	0x3ff0000000000000	1.0
64	0x3fed25b339686559	0.9108520623441719
65	0x3ff627db3ea88d4a	1.3847305724710446
66	0x3feefbd9709fb435	0.9682433318790858
67	0x3ff3a5d3fb7c3830	1.227985365261258
68	0x3ffba1e7eb6a6b78	1.7270278163839219
69	0x3febd88aa79e5013	0.8701833032414491
70	0x3ff0000000000000	1.0
71	0x3feefc9b73453cf8	0.9683358432174876
72	0x3ff515b22f847d19	1.3177968841699281
73	0x3ff079e64ef8fd06	1.0297606549136744
74	0x3fed78d7436da5c2	0.9210010830840292
75	0x3fee256696231ec8	0.9420655186049425
76	0x3ff4466f40f77c91	1.267195943619104
77	0x3ff0803e2c25812e	1.0313092922661542
78	0x3feef608023e4519	0.9675331157506292
79	0x3ff6ebd5b9e23b94	1.4325768719752192
80	0x3feddaafaa9a56cc	0.9329450924003253
81	0x3ffb315a4543dca6	1.6995489793460279
82	0x3fef9aa48b96b8cb	0.9876272894232668
83	0x3ff11a175f3686fe	1.0688699454553325
84	0x3ff009e6ede21546	1.0024174969015163
85	0x3ff0327e79e9eada	1.0123276483779393
86	0x3ff033b89c017b9b	1.0126272291160834
87	0x3ff0000000000000	1.0
88	0x3ff0198315c36de6	1.006228528035416
89	0x3ff2af6358e962ce	1.1678193543540831
90	0x3ff0000000000000	1.0
91	0x3ff00fb5edd279a4	1.003835610382887
92	0x3ff058a0d198a395	1.021637743697487
93	0x3feaa38941aec0a6	0.8324629099716006
94	0x3feed061ed5efcb0	0.9629373203423679
95	0x3fefcecd8ba9621b	0.9939944961325325
96	0x3ff0253e0a89df85	1.0090923701918382
97	0x3ff0000000000000	1.0
98	0x3ff967b6e1204bc3	1.587820891760871
99	0x3ffb6977ca3f2c9c	1.713249006296599

layers.3.bias f8 [100]
0	0x3fa1bd57b206f063	0.03464769409353676
1	0x3f85c39ce17e212b	0.010627008086672681
2	0x3f61ed4aad028675	0.002188344813547622
3	0x3f9f42f3e7854da6	0.03052884197798069
4	0xbf4635da70caeab8	-0.0006778065304254488
5	0xbfab51856c06887c	-0.0533563322417345
6	0xbf8e535ff33d6885	-0.01480746232089226
7	0xbf85496e8d059e54	-0.010393966368339815
8	0x3f7783fe95c32ced	0.005741114113514839
9	0xbf8fda026fe32a68	-0.015552538909465244
10	0xbfcadbc9acbdae5e	-0.20983239111534407
11	0x3f8b1b1c87bc8a31	0.013235304729794258
12	0xbf842c0950bed5da	-0.009849617745071027
13	0xbf9486685ad99773	-0.020043974442521994
14	0x3fa30dd0f421f201	0.037214784432737964
15	0x3fa346a453a1752a	0.03764832993395324
16	0x3f8db115bbad3aa5	0.01449791888231051
17	0x3fb5ec0e82625ed2	0.08563318904122788
18	0xbfa3e1ee4adf0352	-0.038833090438407894
19	0xbfd05d5408d89087	-0.2556963049303324
20	0xbf2c5b457ae76993	-0.00021634314675973414
21	0xbf992b6a7123fd72	-0.02457968059115729
22	0x3f9162d77f7a1272	0.016978614001816834
23	0xbfc74443fb92b6b9	-0.1817707994827538
24	0x3f75f96d0a42c846	0.005364824235742976
25	0x3fa66c57b0b9858c	0.04379533798488486
26	0xbfd33e404c56cd54	-0.30067450957286224
27	0xbfa3f0b828fd900f	-0.03894591808673919
28	0xbfa0c66bfbeae09b	-0.03276383829273862
29	0x3f943fd4675a8535	0.019774740989878487
30	0xbfadb669f439f648	-0.058032332480234816
31	0xbfb43063737a9198	-0.07886334962183239
32	0xbfad830981515fce	-0.057640358959076474
33	0x3fb114efc66765fb	0.06672571748585902
34	0x3fb951b26373d399	0.09890284469640988
35	0xbf9f2bb7d72c8064	-0.03044020891968592
36	0xbf5045a47fe7cc14	-0.0009931665841775893
37	0xbf6b18da1c971ee8	-0.00330774879396133
38	0x3f7ac6f7dc746a8c	0.006537407119391003
39	0x3fa74531057110eb	0.04544976416994636
40	0x3fa84847f6d27bd2	0.04742646110502559
41	0xbfb0b742eeeff4e0	-0.06529634793692507
42	0x3f9bb450c6a37cba	0.027055036662997557
43	0xbf7d1e6944f48955	-0.00710908051340405
44	0x3f5a647f153efe0b	0.0016108742756698626
45	0x3fb4a3fba14672f4	0.08062718093283278
46	0x3fd1f7a71b18527c	0.28074052473065314
47	0x3f88bb0120d70d99	0.012075432600687818
48	0xbfa7d980ba5712d6	-0.046581290003393214
49	0xbfaa453943517512	-0.051309384791901405
50	0xbfa5cacc2790633a	-0.04256284697493702
51	0x3f751b164023328b	0.005152785221252852
52	0xbfb5704ef6642d4c	-0.08374494090474122
53	0xbfa6b42d35785439	-0.044343388344863795
54	0x3f928da28d1efd9a	0.01811841951689317
55	0x3f95d5a728c9f4b5	0.021322833885723386
56	0xbf9e4a786db35363	-0.0295809571224085
57	0xbfda79b5e603b94a	-0.4136786218868066
58	0x3f73048c7cf22d50	0.004643009931111067
59	0x3faf95b3573e7b61	0.06168899955741015
60	0xbf9eba27bfb80d20	-0.030007000996204458
61	0xbfa9b505d804d197	-0.050209219569669
62	0x3f8eeaf64e90eb3e	0.015096592209479117
63	0x3fb49e0d073b3f19	0.08053666521595594
64	0x3fa215111f26cedc	0.03531697755115967
65	0xbf66bad9f1bfa550	-0.0027746445393758493
66	0xbf9e322fdde8032a	-0.029488323134503926
67	0xbfb8dc9ad8de8408	-0.09711616320284133
68	0x3fd880252d7b5e22	0.3828213638457517
69	0x3f9cb3c33ef5799f	0.028029490201669224
70	0xbf8170ed58c61241	-0.008516172668131651
71	0x3f86632430916f5d	0.010931284649067835
72	0x3fac62c6d2e44f75	0.05544110607493639
73	0xbf7657a3813ea2d9	-0.005454672518603509
74	0x3f87a8e86e02c2b5	0.011552635056746178
75	0x3fa966e21a548077	0.049613061632272464
76	0x3fd42a65d98b4e05	0.31508775944277573
77	0x3fa43c7780db99e7	0.039523825149263385
78	0xbfac1f355f02102d	-0.0549256018139491
79	0xbfb165398ac4ec62	-0.06795081746979428
80	0xbf8cf3cb63f4813f	-0.014136876094710813
81	0x3fe0ab3ff823f252	0.5209045263760095
82	0xbf98170691b2234b	-0.02352533592469123
83	0x3faa074152df2a56	0.0508366025602142
84	0xbfa759b1fd57b502	-0.04560619561730485
85	0xbfaf5cc9d31002d3	-0.06125479413458881
86	0x3f9a247cebd38af9	0.02552981557245013
87	0x3f695b5c02c118e0	0.0030953213772902805
88	0x3f8540c4bd5e5a3c	0.010377442387647588
89	0x3fcb33b675e88f2d	0.21251564748046672
90	0xbfa1ed6127937ced	-0.03501418693644518
91	0x3fa8f64caf026eb6	0.04875411640497644
92	0x3f905824a9aacc39	0.015961239677107584
93	0xbf6504c1f9881c1a	-0.0025657452172285324
94	0xbf72063ee8fd8575	-0.0044004876543522935
95	0x3f9b6496fdb9abf7	0.026750907169496654
96	0x3f7e393152d048d4	0.007378761930356432
97	0xbf9d4dfe0e97de80	-0.02861782993383466
98	0xbfd17c87acb4efb0	-0.2732257067289039
99	0xbfa8282d0e858029	-0.04718151857628101

layers.3.running_mean f8 [100]
0	0x0000000000000005	2.5e-323
1	0x0000000000000005	2.5e-323
2	0x0000000000000005	2.5e-323
3	0x0000000000000005	2.5e-323
4	0x0000000000000005	2.5e-323
5	0x0000000000000005	2.5e-323
6	0x0000000000000005	2.5e-323
7	0x0000000000000005	2.5e-323
8	0x0000000000000005	2.5e-323
9	0x0000000000000005	2.5e-323
10	0x4055162a07edf7a0	84.34631536711686
11	0x0000000000000005	2.5e-323
12	0x0000000000000005	2.5e-323
13	0x0000000000000005	2.5e-323
14	0x0000000000000005	2.5e-323
15	0x0000000000000005	2.5e-323
16	0x0000000000000005	2.5e-323
17	0x0000000000000005	2.5e-323
18	0x0000000000000005	2.5e-323
19	0x4050aba2fafdecb5	66.68182253644302
20	0x0000000000000005	2.5e-323
21	0x405db352defa093a	118.80193304460127
22	0x0000000000000005	2.5e-323
23	0x404fdbd0e92c3d2e	63.71731295261485
24	0x4051e134246f3e07	71.51880751479631
25	0x0000000000000005	2.5e-323
26	0x40407e40a3dc1b69	32.98634765860954
27	0x0000000000000005	2.5e-323
28	0x0000000000000005	2.5e-323
29	0x0000000000000005	2.5e-323
30	0x0000000000000005	2.5e-323
31	0x405c4e84c7992238	113.22685422853908
32	0x0000000000000000	0.0
33	0x0000000000000005	2.5e-323
34	0x0000000000000005	2.5e-323
35	0x0000000000000005	2.5e-323
36	0x0000000000000005	2.5e-323
37	0x0000000000000005	2.5e-323
38	0x0000000000000005	2.5e-323
39	0x0000000000000005	2.5e-323
40	0x0000000000000005	2.5e-323
41	0x406bd0b8c8dab1bd	222.5225567122815
42	0x0000000000000005	2.5e-323
43	0x0000000000000005	2.5e-323
44	0x0000000000000005	2.5e-323
45	0x0000000000000005	2.5e-323
46	0x406168e1818c3d64	139.2775275935229
47	0x0000000000000005	2.5e-323
48	0x0000000000000005	2.5e-323
49	0x0000000000000005	2.5e-323
50	0x0000000000000005	2.5e-323
51	0x0000000000000005	2.5e-323
52	0x0000000000000005	2.5e-323
53	0x0000000000000005	2.5e-323
54	0x0000000000000005	2.5e-323
55	0x404dc191ffe304d1	59.512268052910834
56	0x0000000000000005	2.5e-323
57	0x4043081f75dba20b	38.06346009468333
58	0x0000000000000005	2.5e-323
59	0x0000000000000005	2.5e-323
60	0x0000000000000005	2.5e-323
61	0x0000000000000005	2.5e-323
62	0x0000000000000005	2.5e-323
63	0x0000000000000000	0.0
64	0x0000000000000005	2.5e-323
65	0x0000000000000005	2.5e-323
66	0x0000000000000005	2.5e-323
67	0x0000000000000005	2.5e-323
68	0x40524ac6f1d561e0	73.16839261854284
69	0x0000000000000005	2.5e-323
70	0x0000000000000000	0.0
71	0x0000000000000005	2.5e-323
72	0x4060bb5e7dc554a8	133.85528458157683
73	0x0000000000000005	2.5e-323
74	0x0000000000000005	2.5e-323
75	0x0000000000000005	2.5e-323
76	0x405b2f40a85cc93a	108.73832139073502
77	0x0000000000000005	2.5e-323
78	0x0000000000000005	2.5e-323
79	0x4055a452ebcf25c9	86.56756110409982
80	0x0000000000000005	2.5e-323
81	0x4061902f0cb5bbfb	140.5057433652399
82	0x0000000000000005	2.5e-323
83	0x0000000000000005	2.5e-323
84	0x0000000000000005	2.5e-323
85	0x0000000000000005	2.5e-323
86	0x0000000000000005	2.5e-323
87	0x0000000000000000	0.0
88	0x0000000000000005	2.5e-323
89	0x404e1ae5cff6395f	60.210138316370596
90	0x0000000000000000	0.0
91	0x0000000000000005	2.5e-323
92	0x0000000000000005	2.5e-323
93	0x0000000000000005	2.5e-323
94	0x0000000000000005	2.5e-323
95	0x0000000000000005	2.5e-323
96	0x0000000000000005	2.5e-323
97	0x0000000000000000	0.0
98	0x4053bceb7c6fedc5	78.95187292986436
99	0x4054e9cab1a8a664	83.65299645871852

layers.3.running_var f8 [100]
0	0x0000000000000005	2.5e-323
1	0x0000000000000005	2.5e-323
2	0x0000000000000005	2.5e-323
3	0x0000000000000005	2.5e-323
4	0x0000000000000005	2.5e-323
5	0x0000000000000005	2.5e-323
6	0x0000000000000005	2.5e-323
7	0x0000000000000005	2.5e-323
8	0x0000000000000005	2.5e-323
9	0x0000000000000005	2.5e-323
10	0x4042f41a3576f998	37.90704983052564
11	0x0000000000000005	2.5e-323
12	0x0000000000000005	2.5e-323
13	0x0000000000000005	2.5e-323
14	0x0000000000000005	2.5e-323
15	0x0000000000000005	2.5e-323
16	0x0000000000000005	2.5e-323
17	0x0000000000000005	2.5e-323
18	0x0000000000000005	2.5e-323
19	0x404e2829c7d975fe	60.31377504461487
20	0x0000000000000005	2.5e-323
21	0x404e0d9649f5e72d	60.10614895350441
22	0x0000000000000005	2.5e-323
23	0x404a9a389e996676	53.2048528908753
24	0x4044ff5019ee66b8	41.99463199749647
25	0x0000000000000005	2.5e-323
26	0x4049c9213e5017c7	51.57132700835023
27	0x0000000000000005	2.5e-323
28	0x0000000000000005	2.5e-323
29	0x0000000000000005	2.5e-323
30	0x0000000000000005	2.5e-323
31	0x404b1608fd26b2b6	54.17214931859546
32	0x0000000000000005	2.5e-323
33	0x0000000000000005	2.5e-323
34	0x0000000000000005	2.5e-323
35	0x0000000000000005	2.5e-323
36	0x0000000000000005	2.5e-323
37	0x0000000000000005	2.5e-323
38	0x0000000000000005	2.5e-323
39	0x0000000000000005	2.5e-323
40	0x0000000000000005	2.5e-323
41	0x405559b1335ecdb8	85.4014404702965
42	0x0000000000000005	2.5e-323
43	0x0000000000000005	2.5e-323
44	0x0000000000000005	2.5e-323
45	0x0000000000000005	2.5e-323
46	0x403fdc1201ca3e85	31.85964976489642
47	0x0000000000000005	2.5e-323
48	0x0000000000000005	2.5e-323
49	0x0000000000000005	2.5e-323
50	0x0000000000000005	2.5e-323
51	0x0000000000000005	2.5e-323
52	0x0000000000000005	2.5e-323
53	0x0000000000000005	2.5e-323
54	0x0000000000000005	2.5e-323
55	0x404d64401bc10a8e	58.783206433542645
56	0x0000000000000005	2.5e-323
57	0x404c9c839485d79b	57.222765508034364
58	0x0000000000000005	2.5e-323
59	0x0000000000000005	2.5e-323
60	0x0000000000000005	2.5e-323
61	0x0000000000000005	2.5e-323
62	0x0000000000000005	2.5e-323
63	0x0000000000000005	2.5e-323
64	0x0000000000000005	2.5e-323
65	0x0000000000000005	2.5e-323
66	0x0000000000000005	2.5e-323
67	0x0000000000000005	2.5e-323
68	0x405694e890a0f9a8	90.32669463844525
69	0x0000000000000005	2.5e-323
70	0x0000000000000005	2.5e-323
71	0x0000000000000005	2.5e-323
72	0x404b1a8c40f1344a	54.207405202651515
73	0x0000000000000005	2.5e-323
74	0x0000000000000005	2.5e-323
75	0x0000000000000005	2.5e-323
76	0x4044a264dd30baea	41.26870312575723
77	0x0000000000000005	2.5e-323
78	0x0000000000000005	2.5e-323
79	0x40455ffb7fe337d4	42.74986265749581
80	0x0000000000000005	2.5e-323
81	0x404c9802856476ee	57.18757693677422
82	0x0000000000000005	2.5e-323
83	0x0000000000000005	2.5e-323
84	0x0000000000000005	2.5e-323
85	0x0000000000000005	2.5e-323
86	0x0000000000000005	2.5e-323
87	0x0000000000000005	2.5e-323
88	0x0000000000000005	2.5e-323
89	0x4044968c232b05ae	41.1761516532964
90	0x0000000000000005	2.5e-323
91	0x0000000000000005	2.5e-323
92	0x0000000000000005	2.5e-323
93	0x0000000000000005	2.5e-323
94	0x0000000000000005	2.5e-323
95	0x0000000000000005	2.5e-323
96	0x0000000000000005	2.5e-323
97	0x0000000000000005	2.5e-323
98	0x4055ab37779fb242	86.67526045413345
99	0x404ad10ece9f03d0	53.63326437725448
