model_policy_epoch-40.pt (torch, 373806 bytes, 28 tensors)

layers.0.weight f8 [128, 128]
0	0xbfe62649d98a697a	-0.6921738861886262
1	0xbfbb732a6d9b3522	-0.10722603965696867
2	0x3fc03d05e5f4f085	0.12686227539404996
3	0xbfc96e6fb7081bc1	-0.19868275105565483
4	0xbfbabfdbc3109e8c	-0.10449002754523401
5	0xbfd705ae735d7551	-0.35972176805610895
6	0x3fc094d5ea0b8d0c	0.12954210212692663
7	0xbfd8afa1098a23cf	-0.38571954661943847
8	0xbfe51f6309819cf8	-0.6600814042730283
9	0xbfe7158dba7445a0	-0.7213810578997943
10	0xbfcb0e9da1a91768	-0.21138353723125225
11	0xbfeb7721abaf8595	-0.8582924226031304
12	0xbfd5eda29a2890bc	-0.3426290994123169
13	0xbfd586d4be52146f	-0.33635443292616335
14	0xbfdbc74219e5cd00	-0.43403675583904544
15	0xbfb896863eccf531	-0.09604682000368282
16	0x3fd5a4669d71fa80	0.338159230952364
17	0xbfe2353683aee8ed	-0.5689957210481943
18	0xbfd79815b422a266	-0.36865751830422366
19	0xbfd3cdf76d227cf0	-0.30944619805991547
20	0xbfe4a2b47e4a5803	-0.6448614565476877
21	0xbfe1036d2f956f93	-0.531668274819355
22	0xbfddfa813144abaa	-0.4684145909438323
23	0xbfc14f93799c3099	-0.13524096906656238
24	0x3fa4e5c585056a56	0.040815517890867056
25	0xbfa018b8572c9559	-0.03143859924447651
26	0xbfe4c75d1290ccab	-0.6493363726243805
27	0xbff24a0a962abff2	-1.1430765024088
28	0xbfe7ff885adca6c3	-0.7499429487845294
29	0xbfe18b81715c5356	-0.5482794965815667
30	0xbfdbd03c430b0559	-0.43458468005345235
31	0xbfe468d30efe2dd0	-0.6377959530668083
32	0xbf63fda41b17ba50	-0.0024402814094551042
33	0xbfc0f31c3fec208f	-0.13241913911065636
34	0xbfda5359278263c7	-0.4113371740182256
35	0xbfec4f722fe345b8	-0.8846980033214811
36	0xbfe084b54a0da068	-0.5161997267105223
37	0xbf896da9fffd9ed5	-0.012416198849407515
38	0x3fb215f05599001f	0.07064725961481642
39	0xbfa6e002a637b9e2	-0.0446778133299295
40	0xbfcd1d50db217cfd	-0.22745714854952573
41	0xbfd1b7241e13d915	-0.2768030446744814
42	0xbfede1313d6ead4a	-0.9337392997598866
43	0xbfe403119cd72812	-0.6253746093073025
44	0xbfc5250e6a4ca840	-0.16519336882021385
45	0xbfebc059fd2d6973	-0.867230410086718
46	0xbff5bc42d4a25cdf	-1.3584621721291155
47	0xbfd0635c015574f3	-0.25606441622024007
48	0xbf6e342d09ed378a	-0.0036869887984840076
49	0xbfe804f16bf0610c	-0.750603400057146
50	0xbfd737820c5fc29c	-0.36276293953327765
51	0x3fa2fb9b97225144	0.037075864981633205
52	0xbfd55ff81d154518	-0.3339824947371013
53	0x3f957602764bcb6b	0.020957983465403823
54	0xbfef0088cd79982d	-0.9688152325804872
55	0xbfdc34546c1b7502	-0.4406939559683708
56	0xbfda54431ff6ad0a	-0.41139295693820144
57	0x3fe05f6dad5eac60	0.5116489778641942
58	0xbfc39a27dfb572a5	-0.15314196036606123
59	0xbfeaa10de48c31c1	-0.8321599448986988
60	0xbfbaf14a842e26b1	-0.10524430968339506
61	0xbfb60ea8b32aa9a9	-0.08616117834268401
62	0xbfca380352538a92	-0.20483438033905493
63	0x3fd886bb3fd5131b	0.3832233546602752
64	0x3fcb8264601a07f0	0.21491675083603878
65	0x3fc5241e701405c9	0.1651647612816716
66	0x3fd96058a8fa1e76	0.39650551320708105
67	0x3fd9643ded750cdb	0.3967432803076016
68	0x3fcd92f9fda3201e	0.2310478676283773
69	0x3fbc55b750b353c2	0.11068292350985501
70	0x3fb73fe9a1f439ff	0.09081897930102655
71	0x3fd0377b48c6a577	0.25338632685687607
72	0xbfe7011f4a723695	-0.7188869909311558
73	0x3fd6eca29bc4b054	0.35819306575536314
74	0x3fbed45aab51d98b	0.12042776758776179
75	0x3fe546881ff3b98c	0.6648598312438465
76	0x3fe2306cfb650a59	0.5684113416721842
77	0xbfae614a84adc13e	-0.05933602208722498
78	0x3fe2a3434de58eee	0.5824295541210327
79	0x3fd1e5243bce63cc	0.2796106895489714
80	0xbfe36bb9bbb01986	-0.6069000879077044
81	0x3fdcce9702585d13	0.4501092455770543
82	0x3fe9aa2568a5040b	0.802019791015597
83	0x3fe8ee03186b64b6	0.779054210371348
84	0x3fd76055c13494d4	0.3652548205157704
85	0x3fe147d7c7caba35	0.5400198843179341
86	0x3fd357b8e7a3eef1	0.30222914334420553
87	0xbfe374ff401314cc	-0.6080318690734656
88	0xbfc33a409dd6687d	-0.15021522242460952
89	0x3fb9ddea1a7f760a	0.10104239603921186
90	0x3fd5a0472e114383	0.3379075956227597
91	0x3fd1d3114e3a117b	0.27850754393900673
92	0x3fefc2a59371e0b7	0.9925105933935104
93	0x3fd613902d396d56	0.34494404236257503
94	0xbfd072d9a2b050bc	-0.2570098961598537
95	0xbfa735225d41ceb7	-0.04532725704566814
96	0x3fd3645cfb8c8595	0.3030006844074589
97	0xbfe358c045c1535b	-0.6045838701635192
98	0x3fc11c0a477beeae	0.13366821756777852
99	0x3fcca6da126095ba	0.2238419141514621
100	0x3fe71ad04225ea63	0.7220231334643582
101	0x3fc825eea39353b6	0.18865759837231416
102	0xbfa1fcf5bd723247	-0.03513305604528632
103	0xbfe5e0182067a662	-0.6836052544505942
104	0xbfeca31f123c4319	-0.8949122768554815
105	0x3fe92ca83a51478f	0.7867013110173832
106	0x3ff95800e9cfcddc	1.5839852460165877
107	0x3fd1aba433f14f59	0.27610116074105445
108	0xbfc5a9eb34615367	-0.16924800927759096
109	0x3fe1ec745c1ef17d	0.5601140784488475
110	0x3fe904347e0f73c5	0.7817633115879451
111	0xbfe9f531324011d2	-0.8111806851816772
112	0x3fe02d0abb71d912	0.5054982815770777
113	0x3fed32a63f622844	0.9124327886540944
114	0x3fbccd061b0c068e	0.11250341568304575
115	0xbfa283e914fc7a3d	-0.03616264706782999
116	0xbfd19aaca7ad04cb	-0.2750655782184139
117	0xbf761385910b84dd	-0.0053897111363039015
118	0x3ff4bc3bb322a7cc	1.2959553716159347
119	0x3fd74f6024b9cb59	0.36421969973087226
120	0x3fd538024bb13abe	0.3315435160811083
121	0xbfb0dd506c72530b	-0.06587698600408147
122	0x3f929cf4fd8a5d73	0.018176868414767577
123	0x3ff2c1a5e1e1a1df	1.1722773383609064
124	0xbfa0e933405143c1	-0.03302917633175851
125	0xbfe816bef4b09e60	-0.7527766017055448
126	0x3fe285fdb6f969e7	0.5788563321796659
127	0xbfcb513f99cf4c24	-0.21341700563661548
128	0xbff08caa75802764	-1.0343422498576382
129	0xbfb1293952e48845	-0.0670352771162764
130	0x3fc5b1ce92017368	0.1694887364309594
131	0xbfd5fdeda74f1950	-0.34362355555312707
132	0x3fb240b71c33e0b8	0.07129997671643451
133	0xbfdc32f4427949a7	-0.4406099938543328
134	0x3fca8a897cf34ea7	0.20735281563849137
135	0xbfdd144db1d67ea1	-0.4543642269800135
136	0xbff139c46072eefe	-1.0766032950913877
137	0xbff7e8fd99e215cb	-1.494382477861438
138	0xbfe670d625aef216	-0.7012739883426231
139	0xbfe812404772963d	-0.7522279162846598
140	0xbfe18cffbcd45c7d	-0.5484617889477615
141	0xbfe2e0891496436f	-0.589909115036887
142	0xbfe9603ff2866cf1	-0.7929992424791675
143	0xbfd96cb98b81475e	-0.3972610342362851
144	0xbfbdcb1201719557	-0.11637985739942756
145	0xbfe51b9ddb031284	-0.6596211698129797
146	0xbfd9e3257c9a2099	-0.404488918000888
147	0xbfdaf487afa07cb8	-0.42117492819847824
148	0xbfde0055f9a142a5	-0.4687704980652064
149	0xbfe6efedd08db9bc	-0.7167882035553741
150	0xbfe493dadded7d7e	-0.6430486998105349
151	0xbfec0cee2ddaefc5	-0.8765784164056575
152	0xbfb0480f4a074ad3	-0.06359954411827155
153	0xbfe332b1095208e4	-0.5999379331626895
154	0xbfe39b53b8ac43cb	-0.6127108199017298
155	0xbfe168e325b6974a	-0.5440536247813068
156	0xbfe1f0b387f08174	-0.5606324820583226
157	0xbfd62c128dd14d3a	-0.3464399704873419
158	0xbfeaeea786bfa268	-0.8416326171691937
159	0xbfe5a0bdd503a87b	-0.6758717689929336
160	0x3fc497538f519baf	0.16086811540591614
161	0xbfe327df38766a04	-0.5986171820434838
162	0xbfe0728deae6a079	-0.5139836872013027
163	0xbfe98d0361354ff1	-0.7984635256384519
164	0xbfe0f5e7c87d1742	-0.5300177493852305
165	0xbfbef4f7e9361d7c	-0.12092542117726696
166	0xbfda83ed9540875a	-0.4143022496738148
167	0xbfdcccb2e8dd8738	-0.4499938272548323
168	0xbfe70d909fcdc04a	-0.7204058762708965
169	0xbfe08ac61a92d25d	-0.5169401663793668
170	0xbfdf3e186ed29de5	-0.488165004945101
171	0xbfd4b4f04695ca5d	-0.3235436143214992
172	0xbfde7a3ef9a64d0c	-0.47621130351872476
173	0xbfbda5bb6170fba8	-0.1158101189512154
174	0xbfe1677c3825471e	-0.5438824745744772
175	0xbff0a96cc7683745	-1.0413635053004822
176	0x3fd6a239d020832f	0.35365147900488386
177	0xbfdd17cfc87c4961	-0.4545783479562911
178	0xbfdf5dec2883cfea	-0.4901075740483508
179	0xbfd357c54109566b	-0.30223208762377024
180	0xbfd956048557aff2	-0.3958751012967233
181	0x3fb3371ea962cecc	0.07505981097602471
182	0xbfdc6dd2c55c87eb	-0.4442030837400341
183	0xbfd91c1d195c8539	-0.39234092213344557
184	0x3fd421cc26c6aa02	0.3145628336593803
185	0x3fdff42f3b35affd	0.4992788389415635
186	0x3fba920ceed93cd9	0.10379105407013202
187	0xbfef459899e69c1a	-0.9772456174731616
188	0x3fc08a4740f729a7	0.12921991989271683
189	0xbfd2959594a06348	-0.29037990106876466
190	0xbfd06ad861711d20	-0.25652131572538117
191	0x3fe0792ccc5c20c0	0.5147918692973903
192	0x3fb967e153640da2	0.09924133573445329
193	0x3fdeb6bd63c7747e	0.4799035524754983
194	0x3fe14734ec2bfcb8	0.5399422276240307
195	0x3fd96c1ae8b9e535	0.39722321250117726
196	0x3fd7c21726903b61	0.37122133985478994
197	0x3fd607d3b77c5eb2	0.34422772329842666
198	0xbfa8eef69e4e70cc	-0.04869814569903638
199	0x3fab9acd2cc268bc	0.05391541644458317
200	0xbfe8c7f304aeae55	-0.7744078723384954
201	0x3fd1968c3d4afaa1	0.27481370912202335
202	0x3fe371d04fd1ba87	0.6076432761163496
203	0x3fe024316c738749	0.5044180982770082
204	0x3fd95c26f7b63765	0.39624952498058114
205	0x3fc24fb57dd19faa	0.14305752414224787
206	0x3fda04b796ccb74a	0.40653791166811415
207	0x3fc1ea72baace1ae	0.13996729006772796
208	0xbfc640205dbc3112	-0.17383198334608402
209	0x3fcfb9eff48e5081	0.24786185685355025
210	0x3fd8e083fec1dac1	0.38870334509503485
211	0x3fe234ea2ff109ff	0.5689593254431314
212	0x3fd3b8d76d53016f	0.3081568305606401
213	0x3fd0764202637d2e	0.25721788628830466
214	0x3fd78aa4308d00a1	0.3678369974259202
215	0xbfd4d9ea2e921a04	-0.3258004622261128
216	0x3fd69683254be48d	0.3529365410063939
217	0x3fde3539e013c721	0.4719986618284669
218	0x3fdfda3630cd4be1	0.497693584116119
219	0x3fad8e1dfbe426c0	0.05772489261478375
220	0x3fdacb88af31ee87	0.418672724808609
221	0xbfb6c60ac118e111	-0.08895938123976445
222	0x3fa8c22a245186ac	0.04835635846462813
223	0xbfd36b868e3bb681	-0.3034378422733895
224	0x3fe2d7d9d2fba373	0.5888489838372223
225	0xbfd49cf68f4a7805	-0.32208026879550317
226	0x3fc6e49dfbc832c8	0.1788518409161013
227	0xbfcf05d63cd37859	-0.242365627002928
228	0x3fe1129dfe1615dc	0.5335226023313981
229	0x3fbfb4ff6d8a27af	0.12385555671985914
230	0x3fbced734828284e	0.11299820434229099
231	0x3fa1db9212f9210d	0.03487831575017895
232	0xbfc305b693822d29	-0.14861185267032198
233	0x3fe0ba95d2289056	0.5227765183121942
234	0x3ff5c2779dcbd974	1.3599773563306288
235	0x3feb53bb8b070f32	0.8539712634451233
236	0xbfca94143e76f57d	-0.20764401483567588
237	0x3fceded7890d9567	0.2411755961613082
238	0x3fde5e30cd5b36ef	0.4744989400322614
239	0xbfe09fce0e524c3e	-0.5195074348179174
240	0xbfc1557fbf083fcd	-0.13542172267670907
241	0x3fe6ab80c6f4bcb8	0.7084354291781869
242	0x3fe260d485d4c79d	0.5743200887575203
243	0x3fc85a388261f435	0.19025331846560936
244	0x3fb48cf6880ebf95	0.08027592488974584
245	0x3fa8f485420afdfa	0.04874054366291243
246	0x3fe3606b21878606	0.6055198340292811
247	0x3fc32a59defa0c7b	0.14972995173966183
248	0xbfc911c6a2941e4d	-0.19585497797401033
249	0xbfd442e682c2397f	-0.316583278364213
250	0xbfa5569bb50522d9	-0.04167639336316648
251	0x3ff01e33032428c2	1.0073728678421934
252	0xbfabd7c3efa948f9	-0.054380534177328195
253	0xbfeeee4b7cadeb32	-0.9665887293952891
254	0x3fe60a45dfa1aa2c	0.68875402143505
255	0xbfd177a551736ce9	-0.27292759851634557

layers.0.bias f8 [128]
0	0xbfefece60986ca2c	-0.9976682840409175
1	0xbff01253818dacc8	-1.0044741688423517
2	0x3feec0005c6376ed	0.9609376720870536
3	0x3fad975de1531ca2	0.05779546142144311
4	0x3fe520d663643b2f	0.6602584782830031
5	0xbff08a29ab053bd8	-1.033731143997775
6	0xbf95791d0cefb52f	-0.02096982375581041
7	0x3ff6355ae538686c	1.3880261377257979
8	0x3fc0bcc4b10b0ba1	0.13076075215039132
9	0x3fd22d604fe8cb2c	0.2840195446362255
10	0xbfb3c027e1f64831	-0.07715081469203323
11	0x3fec8ca86e30a633	0.8921701576375142
12	0xbfe8379dfc9a54c4	-0.7567892011308222
13	0xbff60ccef12f77bf	-1.3781270428948884
14	0x3fad85df6bdb50e9	0.05766199294672154
15	0x3feb89d7f8483abb	0.8605766152630488
16	0x3fdc6c527e98a0a7	0.4441114651003865
17	0xbfdcd5485fd932b7	-0.450517743684752
18	0x3ff1ae355143df91	1.1050313162249703
19	0x3fd05ff78ff14bf5	0.25585736328974856
20	0x3fee737d9c77fa5a	0.951597982027873
21	0xbfd5906a2137e909	-0.3369393658064302
22	0x3fd68e57d77e2aef	0.35243793529723083
23	0x3e9c1e82a2f8ec80	4.19008446581478e-07
24	0x3fd67b7acf7bb8ad	0.35128660451926913
25	0xbff192ba89a157d0	-1.0983224273854724
26	0xbfb4d2fb90f1a241	-0.08134434021634097
27	0x3fd27da719fe2b52	0.28891923464168656
28	0xbfe10f2f2d8f668b	-0.5331035508963436
29	0xbff154b49cd33b49	-1.0831800580960638
30	0x3fd0355af0ae7cfe	0.2532565451055716
31	0x3fec6d02ff38e6cb	0.8883070931253426
32	0x3fcbe06ec6179cc4	0.21778664276573612
33	0xbfd40f5292f113d7	-0.31343521451736706
34	0x3fcddbc2bf6d3278	0.23326906535148217
35	0x3fe569afaa56eb8b	0.6691511465972878
36	0x3ff01832f654025b	1.0059079763597285
37	0xbff989b28f3f9fa1	-1.5961175532956775
38	0xbff0eb0728f18133	-1.0573798751211825
39	0xbfdeabe7ff92f7fd	-0.479242324432448
40	0x3f9b56b8de20b006	0.02669800620803644
41	0x3fd949104d9945be	0.3950844533729557
42	0xbfd46f42731944da	-0.3192907451639947
43	0xbfd5b15849c7ce28	-0.3389492722046463
44	0xbff3ef8ef2a09e60	-1.245985934985491
45	0x3fd430b58231a816	0.3154729625154017
46	0xbfc1ae6305fd0704	-0.13813436310197613
47	0xbfe5d1d9db3b4d57	-0.6818665773265974
48	0xbfca723765582877	-0.2066106076093239
49	0xbfe4ada5ce1445a0	-0.6461972260460023
50	0xbff4477e1af6ae03	-1.2674542477860775
51	0x3fd692a8f76fed09	0.3527014175776491
52	0x3fda5046e79082f4	0.41114971746178175
53	0x3fe8bd4ae335a204	0.7731069982228864
54	0xbfe099914c94f2c9	-0.5187460418452129
55	0x3ff526b12b04c570	1.3219463043609174
56	0x3fec3fd49a1d882b	0.8827918062272649
57	0x3fda87ad98602d8b	0.4145311344188591
58	0xbfd5d4b130398d3a	-0.3411066981263563
59	0x3fdedd0d72d6a680	0.4822419759244454
60	0xbfb8d2eed2e8be92	-0.09696858071469652
61	0x3ff20e1a699c0e55	1.1284431577086214
62	0x3ff37d0e0bf3e605	1.2180309740928135
63	0x3fe5e97694c8b149	0.6847489267288803
64	0xbfd40a4aaa3f4537	-0.31312815309236747
65	0x3fb2553cc49c74bd	0.07161311912610109
66	0xbfda3d75da218c22	-0.41000124265537086
67	0x3fa8b9d44d2f17cb	0.04829276506602261
68	0x3fe1ff1bbcb1fe48	0.5623911557631311
69	0x3fe6157ad22af0f1	0.6901220421637203
70	0xbfde4fb5c5edb221	-0.4736151154418469
71	0x3f7abc5128771d6b	0.0065272493588460585
72	0xbff0e142a7606c97	-1.0549952066565191
73	0xbfea0a17f614675e	-0.8137321287388024
74	0xbfedcc5f1eb4dd92	-0.9311977004753536
75	0x3fe0e725d83d800a	0.5282162879411783
76	0x3fcb91f507fc9a4a	0.21539175882317557
77	0xbfdc53dee996d6ae	-0.44261906444021804
78	0xbfe2e9bc8f0f484b	-0.5910322946676926
79	0x3ff03f0c33decb2b	1.015392496698676
80	0x3fd518c719b9a261	0.3296373130056392
81	0xbfc20f1f6b4fb3ae	-0.14108650913058568
82	0x3fe9811ed2df2ad1	0.7970117682064829
83	0x3ff0c792b74e6a4c	1.0487239036944116
84	0x3fe066e167f3c8c0	0.5125586538618094
85	0xbfd0bb1724e4fbdc	-0.2614190922067203
86	0xbfb22b913916805e	-0.07097728389499156
87	0xbff3669d51ff0b10	-1.2125523760775572
88	0x3fddd8ce270af028	0.46635774433866795
89	0x3fc9be5974ac4deb	0.20112150380064917
90	0xbfd706b6eebc9ac3	-0.35978482545980855
91	0xbfe05cee0c13495e	-0.5113439784857226
92	0xbfdd76af527aa52d	-0.4603689485034746
93	0xbfdc2c8c56666dc9	-0.4402190059424496
94	0xbfe28863146c9b8a	-0.5791488074217892
95	0xbfe57a2b579d0981	-0.6711632453155262
96	0xbfe200d1920bd648	-0.562599930998382
97	0xbfc05f7cc6970cf9	-0.12791404434947376
98	0x3ff666c7b2bdf55c	1.400092790804897
99	0xbfc17ccdd0ca0dde	-0.13662121481694006
100	0x3fef22f74d14159e	0.9730183129728862
101	0xbff47384cd1660f1	-1.2782028208949294
102	0x3fd56b345dbb2107	0.3346682467786341
103	0x3fd6733058592c76	0.3507805693413454
104	0x3ff0e26aa28741f5	1.0552774761928252
105	0xbfd1da3ded639dc7	-0.27894542868167743
106	0xbff5ac491637e180	-1.3545618884946578
107	0xbf7e813383911830	-0.007447434641170189
108	0xbfeb38c0bd9d58dd	-0.8506778434191592
109	0x3fe1a1b5faf79343	0.550990095300769
110	0x3fe68f8f89ed0bc4	0.7050244993082448
111	0xbfc596145df8cd8f	-0.1686425646636107
112	0x3fe50a61cbdfeb4c	0.6575173360755371
113	0xbfdae1ab36794376	-0.4200237304658495
114	0xbfe68c116821bc31	-0.7045981439422403
115	0x3fdd2f068742efef	0.45599520882728845
116	0xbfefb325b68e2a55	-0.9906185689481598
117	0xbfda10a0abe6f9b8	-0.40726486956910035
118	0xbfc900c037092239	-0.19533541381157862
119	0x3fce4c4c33452100	0.23670341971797626
120	0xbfd612f4816acc66	-0.34490692747494334
121	0x3fefa349b4275c46	0.9886826056125606
122	0x3fe2e31da7a911de	0.5902241015069725
123	0x3ff314e1dc34ec8e	1.1925982095552032
124	0x3fe62d9f73104cbf	0.693069195493443
125	0x3fef4c3d514b7d46	0.9780565822401648
126	0x3fe1479f70342fa2	0.5399930182916146
127	0x3fb576cc0ab6525a	0.08384394895103622

layers.1.weight f8 [100, 128]
0	0xbfaaefe999d0351d	-0.05261163714031112
1	0x3fa6744f407b26ed	0.043856121655677295
2	0xbf9ea51e9bc97974	-0.029926756151661363
3	0xbfb9cc284da60b11	-0.10077144523351601
4	0x3fbe224e630da779	0.11771097105306962
5	0x3f87c6bcc8b6e513	0.011609530330007922
6	0xbfb3fc7c810a69d5	-0.07807138586432612
7	0xbfbdd852f0a84e3d	-0.11658209205079913
8	0x3fbb81ed65487c0e	0.10745128367169363
9	0xbf965391acd8db64	-0.021803165602445232
10	0xbf9dafa28b17e112	-0.028990306605892142
11	0x3fb16167d0690079	0.06789254034174687
12	0x3fa2854539785259	0.036173022523290306
13	0x3fb28eb700d7c0a2	0.07249015589309463
14	0x3fa52b3d5683cc42	0.041345516978161814
15	0x3fa46a47d76e808e	0.03987335686474679
16	0xbfab97e1838dfd32	-0.05389313441173228
17	0x3fadd7a61f74ed4b	0.058285895671782294
18	0xbf968a9883e94a45	-0.022013075877405325
19	0xbfcb4374b605e98f	-0.21299609077307166
20	0xbfa6e225f4d5623a	-0.04469412435236504
21	0xbfa2e34cba49e153	-0.03689040922194189
22	0xbfbd8c8be868c944	-0.1154258196263856
23	0x3fc0824420d33263	0.12897540667326543
24	0x3fb89ad1edfa94c8	0.09611236629514786
25	0xbf4917535c0cd7f5	-0.0007657200841097988
26	0x3fc1c50de6773bf0	0.13882611993037086
27	0x3faedc9097bb26ab	0.06027652599511887
28	0xbf8b0c79e8e09afd	-0.013207390231469324
29	0xbfbe7ce985beaf48	-0.11909350886588499
30	0xbfb36fbcbf192488	-0.07592372575267536
31	0xbfb702dfd78d5b41	-0.08988760960106125
32	0xbfb0a26d4b45c728	-0.06497843826016647
33	0x3f7b1a989fdb8e3e	0.006617160977586743
34	0x3fbad7bd731eeca7	0.10485443172994967
35	0x3fc4cf05717ce6b7	0.16256778756524223
36	0x3f8a5b360826a323	0.012869283794161362
37	0x3f94ba9d6851a086	0.02024312924587026
38	0x3fb010ad6e11d932	0.06275447785614999
39	0xbf8c4906288c5207	-0.013811157333784697
40	0xbfb1b3b0e83d0d29	-0.06914811773190323
41	0x3fc98bcd2674f770	0.19957889917162275
42	0xbfc44b42239e7ee9	-0.15854670275893248
43	0xbf723e3d92a849ee	-0.004453888434471127
44	0xbfb32e7c0f29f768	-0.07492804880345505
45	0x3fcf724dac305160	0.24567576320317652
46	0xbfb0638177873d54	-0.06401833694620979
47	0x3fd03f3617e0af98	0.2538581116848433
48	0xbfc49097fa5a9e16	-0.1606626484328763
49	0x3fa741cb8e146283	0.04542385205622159
50	0x3f70c9d727d7aacb	0.004098740054795778
51	0x3fb0d12368e1da75	0.065691197496429
52	0xbfaaf14a23ef2d9d	-0.052622143637189846
53	0x3f96d9478bfc52ef	0.02231323043732208
54	0xbfa42a06e2f96de3	-0.03938313980753685
55	0xbf999853d979c2ec	-0.024995145939501848
56	0x3f587c0a93edf706	0.0014944175051989097
57	0xbfbb73bc2261f5e8	-0.10723472442074178
58	0x3fad67a5f26a69b5	0.057431398240811594
59	0xbfb1248e5118f023	-0.06696404914777125
60	0x3fbfe30afd7d92fb	0.12455815018399712
61	0xbf8539803b6a74dd	-0.010363580525615418
62	0xbfba71449b0d1102	-0.10329083238054085
63	0x3fa151fceae51268	0.033828643487628096
64	0xbfb0fd90f14fcaee	-0.06636911288641631
65	0x3f6f890a7061ce08	0.003849525822312353
66	0xbf94e0fc8f7f2f7a	-0.020389505632734985
67	0x3fb19d46f50d1a3f	0.06880610926337115
68	0x3f9e3600820237e7	0.029502876219844067
69	0xbfbf9b9487bb7974	-0.12346771539475815
70	0xbfc95aad72f71d36	-0.19807975877322698
71	0x3fc03a066f6349d7	0.1267707866559948
72	0x3fb23c858f0d4e95	0.07123598806838978
73	0x3fb332f55a207d77	0.07499631357540247
74	0x3f8efb29ff16817a	0.015127494904675787
75	0x3f9a4e5ec94cace0	0.02568958381304476
76	0xbf94496c0d0c9e86	-0.019811332985368434
77	0x3fb7ebbccf621cbb	0.09344081938808106
78	0x3f851ebdc1c1d8e8	0.010312540507794357
79	0xbfa9b2eae2b3ef27	-0.05019315736168855
80	0xbfbe89e183f1964f	-0.11929139586717351
81	0xbfc4ba7e0e474f5a	-0.1619412965507035
82	0xbfc035b6d09bf168	-0.12663922487252965
83	0xbfb0401f843df3fe	-0.06347844103397901
84	0x3fc4c4381f008a90	0.1622381354691993
85	0xbfb38c3d8015ed44	-0.07635864617434601
86	0x3fca2c84cfb8ce57	0.20448360579176736
87	0xbf966c46419de1dd	-0.021897409205367303
88	0x3fb662013aba1421	0.08743293460618463
89	0xbfc231daee93b6fd	-0.1421464600493251
90	0x3fb17c1ab9e3552e	0.06829993284494115
91	0xbf9d19b0b4702900	-0.028418313038891974
92	0xbfb04c0ae136ebb1	-0.06366031645204263
93	0x3f968590f33eeaf3	0.021993889662307486
94	0xbfb5c74823c3c203	-0.08507204888497459
95	0xbf949e2b261fdee7	-0.02013461513703776
96	0x3f7701aede8505bf	0.00561683948791497
97	0xbfb11b8997ec8079	-0.0668264385135461
98	0x3f05a963a664b5c5	4.1316369605897146e-05
99	0xbfb2ed663fc9f9d0	-0.07393492753360609
100	0xbfb15d8a32992962	-0.0678335546046234
101	0x3fb4def76b30dc91	0.08152719847645275
102	0xbfc1bd54a5c6166b	-0.13859041304037886
103	0xbf97fb326e80c277	-0.023419178003850818
104	0x3f88d29d9139c2fb	0.012120467180666497
105	0xbfbaa65742b0ee31	-0.10410066011621023
106	0xbf89e2b02407b786	-0.012639404391815889
107	0x3f9ec108b4b313d6	0.030033241299651646
108	0x3fc2d960f0629e11	0.14725887048301492
109	0x3fb17a606bdc9a8f	0.06827356942504025
110	0xbf987787542f5676	-0.023893465531577417
111	0x3f995244671d073f	0.024727886956731778
112	0x3f9740d360a9baad	0.022708227896539302
113	0xbfa185aa98a41536	-0.03422291863720732
114	0xbfb26312844aefb6	-0.07182422380259265
115	0xbf95d748f43c9568	-0.021329059512159715
116	0xbfb23e16481eacb0	-0.07125987301576475
117	0xbfb0059ef463702b	-0.06258576838030254
118	0x3fa9aa669e53fb62	0.05012818033900747
119	0xbfb3f42367e55733	-0.07794400488395752
120	0xbf96d550e07679f9	-0.022298110675928105
121	0xbf9da47ca9c9e770	-0.028947780478552898
122	0x3fc24afee27fb90a	0.14291368541257327
123	0x3fa1a67966c1f6cd	0.03447322253576388
124	0xbfbdd3cb7f6924d8	-0.11651298390019649
125	0xbfa33870f1db100c	-0.03753998710956816
126	0x3fbf89390f0beba0	0.1231876050696159
127	0x3fc22a77791bbf6e	0.1419209805821952
128	0x3fb0ef4b085c7345	0.06615132288102384
129	0x3fe058a85353d0d5	0.5108224513519654
130	0xbf8e789035aed98f	-0.014878393781924596
131	0x3fe04fd78930cbd9	0.5097463302139388
132	0xbfef8ea732baaa30	-0.9861637106708425
133	0x3fc617d81a0f4c11	0.17260266563843676
134	0xbfe31669035c17bf	-0.5964856210346098
135	0xbfe1a027801a081d	-0.5508000852571545
136	0x3fd21e16158909fc	0.2830863199525593
137	0xbfd291835f87fed7	-0.2901314194605055
138	0x3fbf63665a39afce	0.1226104707981783
139	0x3fceca7e9a7a1aba	0.24055464308567825
140	0x3fe57e9dd4146b38	0.671706117838176
141	0x3fca53e20e3c7ea3	0.20568490691311067
142	0x3fd4064da197f677	0.3128847196638626
143	0xbfc602ce2b1284e6	-0.17196061232701892
144	0x3fc604227e2a7505	0.17200118217889596
145	0x3fe6ea49c0aca965	0.7160996211216967
146	0xbfe0ca0a46e18a18	-0.5246631035227578
147	0xbfd060715261416a	-0.25588639302170313
148	0xbfe02a1403210215	-0.5051364956962653
149	0x3fc29118ebae6479	0.1450530195986948
150	0xbfb4772a465e4f54	-0.07994331567743745
151	0xbfe288775e353473	-0.5791584815975866
152	0xbfd40b2b59505540	-0.3131817218976103
153	0x3feb9d5ef465c67f	0.8629603169813008
154	0x3fc40e0881b9c6a1	0.15667826017629685
155	0xbf95544a549ef092	-0.02082935468182307
156	0x3fd97f3b951de2ef	0.3983906704157069
157	0x3fe15b25419f6e16	0.5423761636442943
158	0xbfd7dfd7b51bb01c	-0.37303726850837093
159	0xbfce59c6d2bd6cd8	-0.23711476602588877
160	0xbfe717bae682a179	-0.7216467382577739
161	0xbfc0d21631b3aa2d	-0.13141133715483147
162	0x3fdf2bedb731d63d	0.4870561875353337
163	0x3fbf8fa4a3910c04	0.123285570080995
164	0xbfdfb70cac401508	-0.49554745503731157
165	0x3fdc0f68c9ab8440	0.4384405106957878
166	0x3ff82097519a8247	1.5079568088186919
167	0x3fdf75508c42777c	0.49153531739454315
168	0xbfd99a3afbcf5b94	-0.40003847685641714
169	0xbfb5f2c7e270231d	-0.08573579099914892
170	0x3fa1b151d931cb62	0.03455596710491339
171	0xbfbd16e7e68bdc0d	-0.1136307657105677
172	0x3fefae878612411c	0.9900548571186252
173	0xbfd3cea301e247ba	-0.30948710617041864
174	0xbfd44e930ca5149f	-0.31729580149505837
175	0x3fd352abfbacf9cb	0.3019208867807747
176	0x3fef7eb0c0152f2b	0.9842151404968481
177	0x3fda529b41c756cc	0.41129189895341933
178	0x3fe7299603711416	0.72382641479692
179	0xbfe68d70317e120d	-0.7047654120111148
180	0xbfd50f9aaf56d400	-0.3290774071022611
181	0x3f688621a5754bfd	0.002993646350355926
182	0xbfd562913985efa2	-0.33414106957911305
183	0xbfe1a9ea59e257ca	-0.5519916301297993
184	0xbfe4e9b0af2fb74a	-0.6535266324624243
185	0x3fd094e91ce59092	0.25908878156611437
186	0x3fe9db5945acfc85	0.8080259667257371
187	0xbfe5f5e53e2f549c	-0.6862665381001025
188	0xbfbe02d8c76b4686	-0.11723093861226105
189	0xbfe00663b868c933	-0.5007799722427876
190	0xbfe86cffa30b01df	-0.7633054909165898
191	0x3fc4961022f8cd23	0.16082956035243354
192	0x3fe0b2128b4f79e9	0.521737358179789
193	0x3fe4d24208abbea9	0.6506662530282102
194	0x3fd27483e6a7d9c7	0.28836152577369173
195	0x3f9aee907468b510	0.026300675492327008
196	0x3feb95c71f679242	0.8620334256525626
197	0x3fabad13a7884989	0.054054846001366626
198	0x3fcc5d778c23a6b5	0.22160238592851092
199	0x3fc8e43008972758	0.1944637338586357
200	0x3fc5a755e385de33	0.16916917428510345
201	0x3fe338ca2e09ffb7	0.6006823443603854
202	0x3fd8520c776dbcf7	0.38000785506206064
203	0xbf9ac22d54a12ccc	-0.02613135174787544
204	0x3f7c0b67051f0447	0.006846811696903882
205	0xbfbf077be9c2f510	-0.12120794732159745
206	0xbfe18f3c059aac71	-0.5487346753556165
207	0xbfca9479bc345f2c	-0.20765611352612134
208	0xbfcb04e0c4f3c451	-0.21108636490638102
209	0x3fe6ecfc266eb394	0.7164288282998421
210	0x3fd1a80142e6efa1	0.2758792069760095
211	0xbff4d05eb9a965ab	-1.3008715870295002
212	0xbfe4e6c5de27dcf7	-0.6531705225924317
213	0xbfdde836bf91974e	-0.46729820926554033
214	0xbfc70f62bf1a8347	-0.18015703517178336
215	0x3fd4a09f87db55b1	0.32230366008055983
216	0xbfd283cb3973ae85	-0.289294057946542
217	0xbfd30ad87d0ec896	-0.29753696644468997
218	0x3fe2db5298c1e6e2	0.5892727836173572
219	0x3fc54fb017a2af29	0.16649438051296642
220	0xbfd232034896992f	-0.28430254067133637
221	0x3ff6eae57bb8255c	1.4323477585588398
222	0x3fc0ad8ecbb88aba	0.1302965635996623
223	0x3fe3f0b0d09e40ca	0.6231311869214775
224	0x3fe371c5b95baabe	0.6076382274889836
225	0xbfaa9557ffcb01b5	-0.05192065236542779
226	0xbfe1112b712c9ce7	-0.5333459101138062
227	0x3fd51406fe45e0be	0.3293473704466229
228	0xbfe473a4ea7dd9da	-0.6391167240060966
229	0x3fd290c841726bd3	0.2900868071680495
230	0x3fd5c95f3e62b6bb	0.34041577427238295
231	0xbfbb47f4c51b1a84	-0.10656671344905005
232	0xbfc572f5cfec408e	-0.1675708070038166
233	0x3fcac488e2485d45	0.2091227631469598
234	0x3ff2cea361142b3d	1.1754487793102293
235	0xbfd0d6720aaa1ec4	-0.2630887130876369
236	0x3fefa506d54a0aca	0.9888948598675935
237	0xbfe1e47991467ca2	-0.5591399991425485
238	0xbff77b1c84c4a593	-1.467556494355766
239	0xbfd623e39bcd87c8	-0.34594049658892034
240	0xbfe5fe7ee11cd4ee	-0.6873163601618708
241	0x3fa5c42266cc60a7	0.04251201157438916
242	0x3fdc301f4457865c	0.44043714212430074
243	0xbfded1a8f7c0fb75	-0.48154663271628034
244	0x3fda1757874fff5e	0.4076746770297087
245	0x3fca7f711cf39768	0.20701421655320051
246	0x3fc60ffc540f5034	0.17236284355624465
247	0xbfbeea650bb27b11	-0.12076407943321167
248	0xbfb115bd01e00cae	-0.06673795028477755
249	0xbfe2f6fa3aa75c46	-0.5926486154156769
250	0xbfd5c81561dbfd8e	-0.34033712917877146
251	0xbfe7dbbd7a8146e4	-0.745573748843722
252	0xbfc1330db95c6e0e	-0.13437053252060632
253	0xbff3bcd3fa8c13b0	-1.2336005961417236
254	0xbfd3fee683beeeb9	-0.31243288865855906
255	0xbff0cd004fdcf2f2	-1.0500491256381648

layers.1.bias f8 [100]
0	0xbfa29e47f88d70c6	-0.03636383923614654
1	0x3f8550b639071aa8	0.010407851806019622
2	0x3f86fdcb4400fce4	0.011226261151135515
3	0xbfb97a4aef683507	-0.09952228875063805
4	0xbf86e89dde11e6a1	-0.011185868587051674
5	0x3fe1055619053eb4	0.5319014061623961
6	0xbfa0eac6dc7951d6	-0.033041204846685865
7	0xbfabdaf1af1afc96	-0.05440478575246137
8	0x3fba44884f67c98f	0.10260822237595434
9	0x3fb16435f9806126	0.06793534604401383
10	0x3f94c10e87e0f089	0.020267703097701904
11	0xbfc371d402eafcb0	-0.1519112600562713
12	0xbfa71448afd0303d	-0.04507662912519137
13	0x3f9eab8ade7c9411	0.029951257543093194
14	0xbfb8731660db4412	-0.09550609459553552
15	0xbfa0a210f1466bfb	-0.03248646683933739
16	0x3fa35f7b07d78468	0.03783783407903557
17	0xbfcb8fc3f2fd1556	-0.21532487263372485
18	0x3f6ad6f6a6313199	0.0032763306967693137
19	0xbfb2fab514a110c1	-0.07413799050943039
20	0x3f9f7ff96c1656a6	0.030761620733378202
21	0xbfc2f51497a1d8ed	-0.14810426143566904
22	0x3fc2811fc53640bc	0.14456555490006007
23	0x3fb223098df40812	0.07084712711005661
24	0x3f555937741c040c	0.0013030091799353131
25	0x3f88522a6f11aedd	0.011875468744811208
26	0xbfc3172388a795c9	-0.14914364025677987
27	0x3f9a5e2fad1fabdd	0.025749916974671428
28	0x3fa6e03795b2d9b6	0.044679390929946036
29	0x3fc232a88be0ddaf	0.14217097120284225
30	0x3faaf5345c66be8b	0.05265201213785272
31	0xbf9b061ecca64cd8	-0.026390534630604673
32	0xbfa0445e7fd6585c	-0.031771615128648206
33	0x3fa95771ef03bae8	0.04949527781160673
34	0x3f9dcbee625f4fa6	0.02909824824730802
35	0xbfc4c2f626eb5332	-0.16219975376466206
36	0xbfb6d7fbd716b55c	-0.08923315049351771
37	0xbfbdf17ceabe77fc	-0.11696606379561553
38	0x3fbcca2f3c7d497c	0.11246009089271597
39	0xbfd7524f3373a673	-0.3643987657984333
40	0xbf855d8f8e6aefd1	-0.010432359250778152
41	0x3f967d7741070e48	0.021962989181487452
42	0x3fa07a1a9d087b8a	0.032181579274257535
43	0xbf92c70cb1eec040	-0.01833743892683537
44	0xbfb6f9747731e618	-0.08974388036758574
45	0xbfbf5648de83c0e6	-0.12241034920203084
46	0x3fa027fd0d700b4e	0.031555087938633805
47	0xbfbec7678fbb1830	-0.12023017176679285
48	0x3fa36b9c507de9f5	0.03793037874762099
49	0xbfb158089cd540e3	-0.06774953679019151
50	0x3fa6ea1a7e541001	0.044754817887252336
51	0xbf539b0e4ac9232e	-0.0011966361590955532
52	0xbf8c7a2a5dcf8310	-0.013904887187835807
53	0x3f9682759764b291	0.021982037892643694
54	0xbfa1e01f41c9f1d3	-0.03491304090582372
55	0xbf845196e8144e90	-0.009921244580744643
56	0x3fd140977b4615c2	0.2695673660130887
57	0x3fb069fc156accf0	0.06411719820862394
58	0xbfbdbb8dc57df168	-0.11614309379178211
59	0x3f9d58de064cf66f	0.028659314283905276
60	0xbf9756f9e8a12c2d	-0.022792725394804748
61	0xbfb4cb8d54f30f79	-0.08123095821343708
62	0x3f99423e59b569f9	0.024666761613255848
63	0x3f9ca38068e5a483	0.02796745910874111
64	0x3fc30260cadbf93b	0.14851007371175648
65	0xbf7dd8aa8d5eeaf2	-0.0072867071339099854
66	0x3fa67f4cb1b7bf93	0.04393996877104125
67	0x3fd94551652756ec	0.39485583189285367
68	0x3fbb2657c16753f7	0.10605381461876094
69	0xbfc49e4874935090	-0.16108041469727086
70	0x3fc08e55a26f9d6a	0.12934370452351668
71	0xbfb743fb8ffdcc27	-0.09088108315863562
72	0xbf871ebac291893a	-0.011289080679664044
73	0xbfa70957a0000000	-0.04499315097928047
74	0xbfd1c10025e39132	-0.2774048204430698
75	0x3fc76585c1ba94b2	0.18278572043815228
76	0x3fc56fc6876d8dd6	0.1674736176747575
77	0x3fa9d7e3c8a071ee	0.05047523330742708
78	0xbfa95a9115fee607	-0.04951909440519491
79	0xbf74a819151a9c46	-0.00504312322451656
80	0x3fac30cd9fa33c26	0.05505983899785631
81	0xbfad914748fcd959	-0.05774901166880637
82	0x3fc8f4a95a20a1e5	0.19496647740130793
83	0x3fd84cb3b499bd13	0.3796815169980203
84	0xbfc0cca348a85707	-0.13124505088551805
85	0xbfb38e3d5857481f	-0.0763891544986852
86	0xbfb9d60078715558	-0.10092165890212834
87	0x3fc60b2298f1c07a	0.17221481769547947
88	0xbfa81b1b4367408a	-0.0470818061618284
89	0x3fcc98f7fd36f8c7	0.22341823448181783
90	0xbfbaed495ac1d0cd	-0.10518320527791332
91	0xbfa7a3a8e8c28948	-0.04617050019557439
92	0x3fd1549d3bc6ef48	0.27078944051367104
93	0x3f97726d4977730b	0.022897441491170272
94	0x3fc76c3202098e8d	0.1829893598506839
95	0x3f5fdcbfb7939db2	0.0019447204816119665
96	0xbfbc7fe0ccd8640b	-0.11132626534562477
97	0x3f8ca454661e00c4	0.013985308996553043
98	0xbf71606615e5f023	-0.004242323657646127
99	0x3fb03faa04f91f3f	0.06347143765844708

layers.3.weight f8 [100]
0	0x3feeacae1f71a241	0.9585791219843217
1	0x3ff292505f820c1f	1.1607211809903288
2	0x3fef105f25e6acc0	0.9707484951262799
3	0x3fee88074f8d1350	0.9541050485355331
4	0x3fefc4b871c00a41	0.9927637311632865
5	0x3fe56d7fbc543603	0.6696165731715954
6	0x3ff0dab01876a383	1.0533905940630752
7	0x3fe420ebd48843a1	0.6290187026044017
8	0x3fe99bc663d4dca8	0.8002654981454684
9	0x3fed409092701af8	0.9141314373126468
10	0x3ff012088ecc2a54	1.0044026926067504
11	0x3ff4129e02671edc	1.2545452207431742
12	0x3fef254a8a9462f0	0.9733021456368913
13	0x3fef31dbd81e3033	0.9748362752011474
14	0x3feed0bd04ce0344	0.9629807561724211
15	0x3fedb016fa21b591	0.9277453313240348
16	0x3fef10269f3d436a	0.9707215414183399
17	0x3ff1a46c9b182623	1.102642637097582
18	0x3fec8e101cd37208	0.8923416674620634
19	0x3ff13acc355baf27	1.0768549045851132
20	0x3fee2e42b44b5a0e	0.9431470414518246
21	0x3fdd7806af036024	0.46045081225520534
22	0x3fe5f0043d73034b	0.6855488968068156
23	0x3fef8e5b74a7a759	0.986127593843075
24	0x3fef4a970112f98f	0.9778552075365939
25	0x3feddb709b3a45ae	0.9330370933332028
26	0x3feb45df625d0874	0.8522793694649082
27	0x3ff32b2bf4d55a4d	1.1980399669461292
28	0x3fee8ef37133e0c5	0.9549500666608074
29	0x3fe5397dccedb22c	0.6632679941663517
30	0x3feeef5f341f200d	0.9667202013015427
31	0x3fe61d7f659df4fa	0.6911007866580399
32	0x3fed69b38a972f63	0.9191529948088654
33	0x3fe6e79c34f5760f	0.7157727274276925
34	0x3feda9f95173266a	0.9269987669769766
35	0x3feeeb8ebbfd0567	0.9662545844695786
36	0x3ff24b79e664a6e6	1.1434267997487324
37	0x3feecf0ecbeb2033	0.9627756102354453
38	0x3ff0390af5d3c696	1.0139264681460296
39	0x3ff692c44b1a739e	1.4108317311977099
40	0x3fea30b899cba458	0.8184473995035075
41	0x3feec8b74dbba8e6	0.9620014684890321
42	0x3ff01fe11b325822	1.007783037411635
43	0x3fee8bbd1171a3b0	0.9545579281522034
44	0x3ff0bbd73dbfb35c	1.0458595668853468
45	0x3fe65aa5ee8e993d	0.6985654506031903
46	0x3feefbf52af22928	0.9682565535343075
47	0x3fc579265d2c93d6	0.16775970029371362
48	0x3feff933b8dfdbb2	0.9991701708630585
49	0x3fefbc659873f9de	0.991747663268878
50	0x3fec5495435e8ec7	0.8853250804717953
51	0x3ff0798932164eb4	1.0296718555954785
52	0x3ff0ad08ef8e0424	1.04224484993052
53	0x3fee840c77385f3a	0.9536192253608313
54	0x3fef7bf29651d130	0.9838803230218556
55	0x3ff0bdb39419cf38	1.0463138375461778
56	0x3ff5296d4facac0f	1.3226140129361317
57	0x3ff01104d3977fba	1.0041549935631182
58	0x3feb6889326e2430	0.8565107331243151
59	0x3feb24155d539df6	0.8481547186647151
60	0x3ff1697f148dc443	1.0882559588319658
61	0x3fef12a1b099d2db	0.9710243653522314
62	0x3feee931e81cd354	0.9659661801766597
63	0x3feef2d971955c31	0.9671447008539699
64	0x3fef2a97865b49e0	0.9739492057945505
65	0x3fe34d1810fb9c02	0.6031608897873186
66	0x3fe38d2aed35d309	0.6109823830616686
67	0x3ff3c0ea382b798b	1.234598369038937
68	0x3ff20dec88b56907	1.1283994045430192
69	0x3ff6144cf7820b1d	1.3799562137871313
70	0x3fe0f53700ad6d9d	0.5299334538680572
71	0x3ff091f2e089316f	1.0356320162710195
72	0x3fedaf5eba4a4cc6	0.9276574743729717
73	0x3ff0000000000000	1.0
74	0x3ff0c3c46fe097ee	1.047794758816504
75	0x3fe60823c756d6e0	0.6884936230987613
76	0x3ff2bdb6f3c5f9fb	1.1713170549770655
77	0x3fddc1c563295c10	0.4649518459677333
78	0x3feefd13cd5bc17a	0.9683932314783725
79	0x3feda146c27b8e84	0.9259370611657265
80	0x3fe42c251dcac3ec	0.6303887922168747
81	0x3ff0228b633108d4	1.0084337114972657
82	0x3ff3fe6b3bbafcc6	1.2496139844150078
83	0x3ff119e8f3493ce7	1.0688256743777005
84	0x3feea15240cb6d0b	0.9571925416488808
85	0x3fec21d1a8a9ee08	0.8791282934393516
86	0x3ff1a183d9cb5187	1.101932383307117
87	0x3fe82acb03ca0394	0.7552237581258958
88	0x3fe8c93b1f1927b6	0.7745643241298612
89	0x3ff61ac3521d53b0	1.3815339286422663
90	0x3ff0278ac24b3803	1.0096538152315595
91	0x3ff01ccd80c3a6f1	1.0070319204191345
92	0x3feef9089c99c4bb	0.9678996142012218
93	0x3fee8f3ecb4865e4	0.9549859972350387
94	0x3fe9ec1caaf921e8	0.8100722636527822
95	0x3fee3198d6ad2cf6	0.9435543244266273
96	0x3ff2d6fef37b9ec3	1.1774892340708198
97	0x3fd1e31c62f2f59b	0.2794867483424583
98	0x3fee272372bc93bb	0.9422776452016629
99	0x3fed189bec8523b7	0.9092540378124941

layers.3.bias f8 [100]
0	0xbfcd7dbb205dcabb	-0.2303995044745387
1	0x3fefc9e3ae1e6825	0.9933946991689068
2	0xbfd04dabe797bb73	-0.2547406922957897
3	0x3fd458753f6794a3	0.31789904777390116
4	0x3fbe76a256a6c580	0.11899771323694175
5	0xbfe6b4d31a5c4e40	-0.7095733179907668
6	0xbfa4ef0ffe7086c3	-0.0408864019484674
7	0xbf9c45172f879879	-0.027607309604626516
8	0xbfade909a9d4f795	-0.05841856191771836
9	0x3fb40dc62d6d6ee2	0.07833517655438585
10	0xbfd7ef81c088f525	-0.37399333765263726
11	0x3fc64f7ae0d1689c	0.17430053689424063
12	0xbf9ca4caf8ff5ad3	-0.02797238487968452
13	0x3fc8580b3bbc1bc0	0.1901868859933682
14	0xbfbadb481a214a15	-0.10490847242298458
15	0x3fe4a7eb00b051d6	0.6454978002025722
16	0xbfc45b3ba3f131b3	-0.1590342092989779
17	0xbfd7008cd7b116e9	-0.3594085794796756
18	0x3fe0aeb84bb3f1e1	0.5213281134197666
19	0xbfd8f089715aa6b2	-0.3896812064145748
20	0xbfe32174cfe1d819	-0.5978340206336298
21	0xbfe86e50fac8e049	-0.7634663484705096
22	0xbfd1b9726365061c	-0.27694377619272514
23	0x3fd173458536f432	0.2726606179165315
24	0x3fd22fc44c9ba995	0.2841654537320662
25	0x3fc88642d80452b5	0.19159732387256204
26	0xbfd0f69a1f01940b	-0.26505139377542325
27	0x3fe2b47e1cb9d5d2	0.5845327912381271
28	0x3fe4b9b4c06d4d87	0.647669196924128
29	0x3fc83ee3d4616de4	0.18941924924989373
30	0xbfcf1c8f8be3133c	-0.24305910425587196
31	0x3fe658a88c309c49	0.6983225572665869
32	0xbfcc6b55435de55b	-0.22202554501908875
33	0xbfdaf1b44023573f	-0.42100244773370216
34	0xbfc5d54337436a56	-0.17057075689702356
35	0xbfde6a6a39239773	-0.475245052146753
36	0x3fe13e266f5788a9	0.5388366865775157
37	0x3fdcab3f2937f73c	0.4479520704770612
38	0xbf98cdcb13109ec5	-0.024222538984900028
39	0x3fd230a92a6bb902	0.28422001974730915
40	0xbfc18f033145a959	-0.1371768942438603
41	0xbfda9160eadf692f	-0.41512320458209023
42	0xbfc155195afb77df	-0.1354095167397977
43	0x3fc0ffadb7272828	0.13280269091620878
44	0xbfdbd7af34118f61	-0.43503933033774983
45	0xbfde54f550a8e337	-0.4739354407970952
46	0xbfd2b052dde29370	-0.29201194447005374
47	0xbfe39a0581126f8d	-0.612551452726153
48	0xbfc58392826ac037	-0.1680777680207954
49	0xbfc516ad00e793f1	-0.16475451034708002
50	0x3fd9700d5c2f0c75	0.3974641227943672
51	0xbfdf587738bef1ec	-0.48977451840963115
52	0x3fd046701a3c2b60	0.25429918825164144
53	0xbfd0ffea47a201e7	-0.26561982150454216
54	0x3fcd6fc400d23fc2	0.22997331657506775
55	0x3fceb49a8be351d5	0.2398865874335018
56	0x3fcfdd09d6c82e33	0.2489330576648726
57	0xbfd5a3ae869c84ca	-0.3381153406681504
58	0xbfd05dfc3c5571a0	-0.255736407203381
59	0xbfa3dc2b2cdb411d	-0.038789128518717166
60	0xbfdd6627fb3943f7	-0.4593601182323818
61	0xbfc2a412118d1846	-0.14563203675260378
62	0x3fc62598c2e38d13	0.17302236095483944
63	0xbfd9c1159f374eec	-0.4024099402279109
64	0xbfdcff7825509f71	-0.45309260982548155
65	0x3fc6be29126baa30	0.17767823600236587
66	0xbfc0dfdb3f3d1577	-0.1318315562040586
67	0x3feac2fcb052502c	0.8363021320133206
68	0xbfdefdc4fe6de0b7	-0.48423886152842094
69	0x3fd2ee89f39e3468	0.29580925741976793
70	0xbfcfe895efb6ba11	-0.24928545193456889
71	0xbfd4e58687249bd2	-0.32650912473257876
72	0x3fd4c50a531cfcb0	0.324526387372269
73	0xbfd6ca651978355d	-0.3561032055593694
74	0xbfe05fe859e0663f	-0.5117074733163419
75	0x3fca8dec5d1b2bc2	0.20745615526388234
76	0xbfe8da2b15fd0872	-0.7766318730794082
77	0xbfe4874f8207cfe5	-0.6415174045237079
78	0xbfcb473ec65682bb	-0.21311173138112402
79	0xbfb70f7fa1c461b9	-0.09008023929016575
80	0x3fc7963502a945b2	0.1842714560503232
81	0xbfd86e071867941c	-0.3817155588461121
82	0x3fd26baeaeb5f3b0	0.2878224092635788
83	0xbfe8c5f93cdb14fa	-0.7741666973676324
84	0x3fcf0e115a75ee37	0.2426168147757026
85	0x3fcd27bba051c6ac	0.22777505233857676
86	0xbfc3fd72ad3fb946	-0.15617211779994927
87	0x3fdef56e63986cb3	0.48372993208040355
88	0xbfda6342b1f6b774	-0.4123083818366162
89	0xbfca6c8640b06423	-0.20643690260547584
90	0xbfc6b39b823e0531	-0.17735618457303695
91	0xbfd9f3b1d6f3905d	-0.4054989432463623
92	0xbfd9a3cadb75a4e5	-0.40062209540935917
93	0xbfd4e8cbc35e0e52	-0.3267087371716332
94	0xbfe721b2b1c47caa	-0.7228635284444824
95	0x3fcd23b833c933d8	0.22765257385836324
96	0xbfdf55c99ecd84ad	-0.4896110583122873
97	0x3fe510befc61d5fc	0.6582941941584859
98	0xbfa7d905d14f6405	-0.04657762699179816
99	0x3fc7d54fce4257c5	0.18619725772140164

layers.3.running_mean f8 [100]
0	0x0000000000000005	2.5e-323
1	0x0000000000000005	2.5e-323
2	0x0000000000000005	2.5e-323
3	0x0000000000000005	2.5e-323
4	0x0000000000000005	2.5e-323
5	0x40530eb65c847ff0	76.22988045634679
6	0x0000000000000005	2.5e-323
7	0x0000000000000005	2.5e-323
8	0x406b5a512c153778	218.8224087156666
9	0x0000000000000005	2.5e-323
10	0x0000000000000005	2.5e-323
11	0x0000000000000005	2.5e-323
12	0x0000000000000005	2.5e-323
13	0x0000000000000005	2.5e-323
14	0x0000000000000005	2.5e-323
15	0x4067dbff3f74a220	190.87490818767492
16	0x0000000000000005	2.5e-323
17	0x0000000000000005	2.5e-323
18	0x0000000000000005	2.5e-323
19	0x0000000000000005	2.5e-323
20	0x0000000000000005	2.5e-323
21	0x0000000000000005	2.5e-323
22	0x0000000000000005	2.5e-323
23	0x0000000000000005	2.5e-323
24	0x0000000000000005	2.5e-323
25	0x0000000000000005	2.5e-323
26	0x0000000000000005	2.5e-323
27	0x406399bc8074a526	156.8042604711747
28	0x40596fc64c9482fe	101.7464782190618
29	0x405ce3d0042f2994	115.55957131009774
30	0x0000000000000005	2.5e-323
31	0x0000000000000005	2.5e-323
32	0x0000000000000005	2.5e-323
33	0x0000000000000005	2.5e-323
34	0x0000000000000005	2.5e-323
35	0x0000000000000005	2.5e-323
36	0x0000000000000005	2.5e-323
37	0x0000000000000005	2.5e-323
38	0x0000000000000005	2.5e-323
39	0x0000000000000005	2.5e-323
40	0x0000000000000005	2.5e-323
41	0x0000000000000005	2.5e-323
42	0x0000000000000005	2.5e-323
43	0x0000000000000005	2.5e-323
44	0x0000000000000005	2.5e-323
45	0x0000000000000005	2.5e-323
46	0x0000000000000005	2.5e-323
47	0x0000000000000005	2.5e-323
48	0x0000000000000005	2.5e-323
49	0x0000000000000005	2.5e-323
50	0x0000000000000005	2.5e-323
51	0x0000000000000005	2.5e-323
52	0x0000000000000005	2.5e-323
53	0x0000000000000005	2.5e-323
54	0x0000000000000005	2.5e-323
55	0x0000000000000005	2.5e-323
56	0x405cdc22fbbea782	115.43963521593653
57	0x0000000000000005	2.5e-323
58	0x0000000000000005	2.5e-323
59	0x0000000000000005	2.5e-323
60	0x0000000000000005	2.5e-323
61	0x0000000000000005	2.5e-323
62	0x0000000000000005	2.5e-323
63	0x0000000000000005	2.5e-323
64	0x405b30731774a1cf	108.75702463521814
65	0x4065dc52a1acac3c	174.8850868580356
66	0x406864638e0029b5	195.13715267211742
67	0x405e191edda3330f	120.39250889718481
68	0x0000000000000005	2.5e-323
69	0x0000000000000005	2.5e-323
70	0x403a6367e61ff9ca	26.388304121786668
71	0x0000000000000005	2.5e-323
72	0x0000000000000005	2.5e-323
73	0x0000000000000000	0.0
74	0x0000000000000005	2.5e-323
75	0x0000000000000005	2.5e-323
76	0x405ab0e6084a159e	106.76404006228265
77	0x0000000000000005	2.5e-323
78	0x0000000000000005	2.5e-323
79	0x0000000000000005	2.5e-323
80	0x406239d07f94518c	145.8067014595839
81	0x0000000000000005	2.5e-323
82	0x40510eb57f6f87ad	68.22982774631119
83	0x406015436380a132	128.6644761574076
84	0x0000000000000005	2.5e-323
85	0x0000000000000005	2.5e-323
86	0x0000000000000005	2.5e-323
87	0x0000000000000005	2.5e-323
88	0x0000000000000005	2.5e-323
89	0x40555c40b72734b9	85.44144991711336
90	0x0000000000000005	2.5e-323
91	0x0000000000000005	2.5e-323
92	0x4052553727ec273c	73.3314914518532
93	0x0000000000000005	2.5e-323
94	0x4041420b4500a1ea	34.515968919094874
95	0x0000000000000005	2.5e-323
96	0x0000000000000005	2.5e-323
97	0x10515e41aa026868	4.474843685435191e-230
98	0x406bc582ef7441be	222.17223332125099
99	0x0000000000000005	2.5e-323

layers.3.running_var f8 [100]
0	0x0000000000000005	2.5e-323
1	0x0000000000000005	2.5e-323
2	0x0000000000000005	2.5e-323
3	0x0000000000000005	2.5e-323
4	0x0000000000000005	2.5e-323
5	0x4070cc87bdfae602	268.78314016349043
6	0x0000000000000005	2.5e-323
7	0x0000000000000005	2.5e-323
8	0x405daf105149df6e	118.73537094320429
9	0x0000000000000005	2.5e-323
10	0x0000000000000005	2.5e-323
11	0x0000000000000005	2.5e-323
12	0x0000000000000005	2.5e-323
13	0x0000000000000005	2.5e-323
14	0x0000000000000005	2.5e-323
15	0x405a152820beb7b1	104.33057421326409
16	0x0000000000000005	2.5e-323
17	0x0000000000000005	2.5e-323
18	0x0000000000000005	2.5e-323
19	0x0000000000000005	2.5e-323
20	0x0000000000000005	2.5e-323
21	0x0000000000000005	2.5e-323
22	0x0000000000000005	2.5e-323
23	0x0000000000000005	2.5e-323
24	0x0000000000000005	2.5e-323
25	0x0000000000000005	2.5e-323
26	0x0000000000000005	2.5e-323
27	0x405095a6d8d567c9	66.33830853309986
28	0x40590dd85fbaa82d	100.21633141735283
29	0x4074273675519da7	322.4507954776877
30	0x0000000000000005	2.5e-323
31	0x0000000000000005	2.5e-323
32	0x0000000000000005	2.5e-323
33	0x0000000000000005	2.5e-323
34	0x0000000000000005	2.5e-323
35	0x0000000000000005	2.5e-323
36	0x0000000000000005	2.5e-323
37	0x0000000000000005	2.5e-323
38	0x0000000000000005	2.5e-323
39	0x0000000000000005	2.5e-323
40	0x0000000000000005	2.5e-323
41	0x0000000000000005	2.5e-323
42	0x0000000000000005	2.5e-323
43	0x0000000000000005	2.5e-323
44	0x0000000000000005	2.5e-323
45	0x0000000000000005	2.5e-323
46	0x0000000000000005	2.5e-323
47	0x0000000000000005	2.5e-323
48	0x0000000000000005	2.5e-323
49	0x0000000000000005	2.5e-323
50	0x0000000000000005	2.5e-323
51	0x0000000000000005	2.5e-323
52	0x0000000000000005	2.5e-323
53	0x0000000000000005	2.5e-323
54	0x0000000000000005	2.5e-323
55	0x0000000000000005	2.5e-323
56	0x40525d1ce25e5e8b	73.45488795486214
57	0x0000000000000005	2.5e-323
58	0x0000000000000005	2.5e-323
59	0x0000000000000005	2.5e-323
60	0x0000000000000005	2.5e-323
61	0x0000000000000005	2.5e-323
62	0x0000000000000005	2.5e-323
63	0x0000000000000005	2.5e-323
64	0x404c5bf611c0e0ba	56.718446940592415
65	0x40653f01e4b42bbe	169.96898112477896
66	0x405fb6027685ac92	126.84390032819854
67	0x40522fb102aade50	72.74517885862701
68	0x0000000000000005	2.5e-323
69	0x0000000000000005	2.5e-323
70	0x403921d3fe13cace	25.132140998680192
71	0x0000000000000005	2.5e-323
72	0x0000000000000005	2.5e-323
73	0x0000000000000005	2.5e-323
74	0x0000000000000005	2.5e-323
75	0x0000000000000005	2.5e-323
76	0x406e334d987c4dc6	241.60322212484442
77	0x0000000000000005	2.5e-323
78	0x0000000000000005	2.5e-323
79	0x0000000000000005	2.5e-323
80	0x407437d6510db8bb	323.4898233924866
81	0x0000000000000005	2.5e-323
82	0x407401de90e9962c	320.1168374180295
83	0x406371a76856ebd7	155.5516854951554
84	0x0000000000000005	2.5e-323
85	0x0000000000000005	2.5e-323
86	0x0000000000000005	2.5e-323
87	0x0000000000000005	2.5e-323
88	0x0000000000000005	2.5e-323
89	0x4050498c9f2a8e84	65.1492078700631
90	0x0000000000000005	2.5e-323
91	0x0000000000000005	2.5e-323
92	0x40754c12350c33ee	340.75444512144793
93	0x0000000000000005	2.5e-323
94	0x4070a1df61834735	266.1170363548329
95	0x0000000000000005	2.5e-323
96	0x0000000000000005	2.5e-323
97	0x1084143f3cbc0e90	4.138636971428919e-229
98	0x4070d43600132ae8	269.2631836651549
99	0x0000000000000005	2.5e-323
