model_policy_epoch-230.pt (torch, 373906 bytes, 28 tensors)

layers.0.weight f8 [128, 128]
0	0xbff6259c60ba6001	-1.3841823366583415
1	0xbfd64835976dc558	-0.34815730846374526
2	0x3fb1bcdb86945066	0.06928798709515291
3	0xbfda943fe9dad8d8	-0.4152984412898042
4	0xbfc6405d30d91224	-0.1738392342105196
5	0xbfe2d6ecd42419c8	-0.5887359755877748
6	0xbfd759746792df0b	-0.3648348819219655
7	0xbff6f2e8c81427e7	-1.4343040290427724
8	0xbfeeb0c305ff3079	-0.9590773694158222
9	0xbff7d04113ed8bc7	-1.4883433130678314
10	0x3fca52c5befa734d	0.2056510145675027
11	0xbff8970d10ce1e52	-1.536877694745176
12	0xbfdbf31272019eb6	-0.43671094067984073
13	0xbfc7dbcc4b9b0494	-0.1863952035110158
14	0xbfeb9a15817aa5cc	-0.8625590828789256
15	0xbfd20bc735c4a69f	-0.28196888209149934
16	0x3fe17fc31d876ba1	0.5468459679353722
17	0xbfe6f6c4ca28f5f9	-0.7176231335103572
18	0xbff4e2d2e9826e4d	-1.3053769227471037
19	0xbfc27db646f4abc2	-0.14446142639766718
20	0x3f913e9282b6e8c9	0.016840256908587734
21	0xbff1bc21f33699c3	-1.1084308147925277
22	0xbfdba890c453c47a	-0.4321634213693596
23	0x3fe98bc23ed4faaf	0.7983103968798185
24	0xbff2a9e2f93dc2dd	-1.1664762245165357
25	0xc00680e5dd4efcda	-2.8129384317140707
26	0xbff4dc6803172e2e	-1.3038101311420962
27	0xbff13e343ec1deee	-1.0776865436036434
28	0xc0034cf8a792b726	-2.412583645977878
29	0xbfcc850a8bdb4d33	-0.22281009510934666
30	0xbff8c982a72a0108	-1.5491968660208517
31	0xbff0c4f397320193	-1.048083868605407
32	0xbff9038ef361d889	-1.5633687502973166
33	0x3fc61a5e1bbc582b	0.172679675619919
34	0xbfd32eff2236b422	-0.29974344578914913
35	0xbff168b46736faba	-1.0880626708819094
36	0x3fcfb576c00513ee	0.2477253377529957
37	0xbfda4f5edf1d4469	-0.41109439648159324
38	0xbfe53c2f77996ced	-0.6635968528675257
39	0x3ff1b5025757ab4e	1.106691685849643
40	0x3fe928cd32e39230	0.7862306589054864
41	0xbff8bad6e4353aea	-1.5456150926944994
42	0xbff4ae4575f6b906	-1.2925467117270855
43	0xbfe7c8a9c640f499	-0.743245017256089
44	0x3fe2c6cb81324f59	0.5867669604653926
45	0xbffad9eab676620b	-1.6782023551405725
46	0xc00185bd903aa8fd	-2.1903029697324414
47	0xbf827e8a9c4d83bf	-0.009030421156866695
48	0xbff403ab72764d6a	-1.250895926587726
49	0xbfe098d55c520528	-0.5186564257748261
50	0xc010483b932ddbc6	-4.070539760278683
51	0xbffee769c3f8c323	-1.931497350229798
52	0xbfddb2534b195839	-0.4640091164959617
53	0xbfe420ef345a548d	-0.6290203115955976
54	0xbfe6302eed2eff71	-0.6933817512981318
55	0xc00206ab0be6adbb	-2.2532559327862294
56	0xbffcaf438e52a1de	-1.7927890357478797
57	0xbff7d35786ab979b	-1.4890971432264226
58	0xc0029cce0192eb72	-2.3265648005448663
59	0xbffdabaf777a2284	-1.8544153849672123
60	0xbff72a6a20e025e2	-1.447855118198611
61	0xbfe016a868716fe1	-0.5027658500580366
62	0xc001a2642fa32c1b	-2.204292652289508
63	0x3fcdae1539b16b64	0.23187508885424812
64	0x40019febdf595c3c	2.203086609758911
65	0x3fdddf4f77a3c2f0	0.4667547863346462
66	0x3fcda4bd4939d09f	0.2315899474666638
67	0x3ff2313f7219ff7f	1.1370233971683488
68	0x3ff0c3d8b1e55e6b	1.0478140782414822
69	0x3fef6b5134b0870f	0.9818502453892693
70	0x3fed46ab7273a389	0.9148766742119828
71	0x3f9d0396e302a686	0.02833400497971763
72	0xbfe0ee812e6ebe9a	-0.5291143328558576
73	0x3ff1ced92d80d834	1.1130000855896585
74	0x3ff2c1cc93228aa5	1.172314238305867
75	0x40001f9e5ae94b68	2.0154387571760033
76	0x40030a53c4923e8d	2.380042587006591
77	0xbfe15a7d6976ad74	-0.5422961292110089
78	0x3ffea36a72457c93	1.9148964370467965
79	0x3ff1fe49bf7b4820	1.12458205029953
80	0x3fc193fe40b6fd50	0.13732889327909925
81	0x3ff8895b902c4940	1.533534587074044
82	0x3ffbbe6cba56b7f3	1.7339904097420884
83	0x3fda74689efbe1e2	0.413355021722536
84	0x3feace69229cf8c4	0.8376966167486661
85	0x3fd8652e8bf47b12	0.3811756483791423
86	0x3fe9f536bcb0f4b9	0.811183327233855
87	0xbfdee1a47af2f788	-0.48252212530848526
88	0x3fe221e177db7c1b	0.5666358319248305
89	0x3fe830ccb18d2878	0.7559569804955251
90	0x3ffc581f8170c118	1.7715144211070477
91	0xbfd2b417440e1359	-0.29224187513346106
92	0x3ffaf3523c1fadc9	1.6844045971473511
93	0xbfcde96a5e0c1244	-0.23368577568193605
94	0x4001a6e8db2f867a	2.2064988254431315
95	0x3fd1051e701e40d2	0.2659374327568119
96	0x4004b61607bafddc	2.588909206766159
97	0x3fb975d989bac9e5	0.09945449459591023
98	0xbfb30d875949a55c	-0.07442518167376505
99	0x3ffc8a1b21cc8722	1.783717281367395
100	0xbfbe138be01810d7	-0.11748575421376316
101	0xbfc082b8073bae1c	-0.12898922303371385
102	0xbfc6e6ef0f4c2654	-0.17892254111238748
103	0xc003d9d3128da8b6	-2.4813596200447945
104	0xbfe12bd92331485c	-0.5366025626519888
105	0x3ffd9d8103521b8c	1.8509531144825102
106	0x4004623694cee5d9	2.54795566803362
107	0xbfd25ec1a3332867	-0.28703347146495733
108	0xbfb5e8b7f0ac8cbf	-0.08558225274878149
109	0x3ffabe505a80d845	1.671463349846378
110	0xbfe64e393d7f42ad	-0.6970487786403133
111	0xbfd2c7fc1d88b7c7	-0.293456105081415
112	0x3fdb1904f9e40d01	0.42340206530953145
113	0x3ff1b82eec25d3c7	1.1074666237375241
114	0xbfd538b133c66612	-0.3315852170577226
115	0xbfb7e731407b0dc8	-0.0933714659141095
116	0xbfea2a58a7f21a34	-0.8176692276181883
117	0x3fd465aad1eececc	0.3187052774548931
118	0x3fe802db86e91559	0.7503488192530013
119	0x3fd6e0b712fefcdb	0.35746552329142184
120	0x4001014641688605	2.1256222829840703
121	0x3fef0e60f92f7481	0.9705052248861109
122	0x3ff205a255eecde9	1.1263755184889936
123	0x400600b2f8ce6c44	2.750341361808326
124	0x4001a1bdc7fc4295	2.203975260148875
125	0xbff6d1a8aa485c3a	-1.4261862422624874
126	0x3fe25498c1e529fd	0.5728267466559483
127	0xbffa21d4455e0c27	-1.6332590779936795
128	0xbff9d0b04995e532	-1.613449370807143
129	0xbff1ac6bf4931f01	-1.1045951417635822
130	0xbfdfaad5fc3bef9c	-0.49480199463118324
131	0xbfe3e3a3589cac35	-0.621537850447004
132	0xbfe3d834671df198	-0.6201421751025462
133	0xbff9cad24dfe5ee6	-1.6120169684053791
134	0xbfe300465820db3d	-0.5937835427529091
135	0xbfefd108087fac71	-0.9942665258398745
136	0xbfe97589143cabe1	-0.7955975909475194
137	0xc000caadcbfff0c3	-2.098964303730186
138	0xbff69779d640f6c1	-1.411981427124758
139	0xbff40d91d378cad1	-1.2533128986948905
140	0xbff423b9fcf4cafb	-1.2587222939588958
141	0xbfe259de80ddff68	-0.5734703556954459
142	0xbff3ba74b8502eed	-1.2330214690909387
143	0xbfe6739a8a2d768b	-0.7016117762356812
144	0xbfd50f15273e00cd	-0.3290455706810576
145	0xbff41c040dcfd653	-1.2568398036504689
146	0xbffa19823177a4c0	-1.6312276775664003
147	0xbfe92a2571da4cb6	-0.7863948081670944
148	0xbfdab379c743205e	-0.4172043271942182
149	0xbff212762452f06e	-1.1295072001367106
150	0xbfdbcab9bf319a81	-0.43424838706270213
151	0xbfee1587d65cb678	-0.9401282488594935
152	0xbffa7c68e58473c4	-1.655373474647818
153	0xc0041d17f0bdbbb3	-2.514205818929861
154	0xbff4fd4ec6c9d22a	-1.3118427052660402
155	0xbfd79effb0acab75	-0.36907951596611294
156	0xc00089d9bffb7e90	-2.0673098562836643
157	0xbfb848ffaa8e6581	-0.09486387170763601
158	0xbffb2f7d50e3fcab	-1.699094120005422
159	0xbfe06673fab6cf2e	-0.5125064751395934
160	0xbffaaf126d8fc87f	-1.6677421836616586
161	0xbfe8a78d101ec8a0	-0.7704530062531099
162	0xbfdcf41d0bf14d96	-0.4523995033861977
163	0xbff01e5eb02dd8d9	-1.0074145204539973
164	0xbfdbd50a9f9c4979	-0.4348780211158992
165	0xbfde7b496faa0cea	-0.4762748327704701
166	0xbff159a59445c456	-1.0843864242454138
167	0x3fbc4df6121df6da	0.11056459371863117
168	0x3fb18d2c52cb0f20	0.06856038113897656
169	0xbff767e714707376	-1.4628668592842735
170	0xbfee4f02a7e2f3a1	-0.9471448210748471
171	0xbfeb5ad10b5d952c	-0.8548360082610649
172	0x3fb5c8155f470009	0.08508428169352568
173	0xbff4ae24bc0eb1d3	-1.2925155015938017
174	0xbfe4aed7fb274951	-0.6463432221737923
175	0xbfed990ea2d419c1	-0.924933736824464
176	0xbfe40c6e8e0a8828	-0.6265175604096429
177	0xbff004006ee45ffe	-1.000976975605226
178	0xc010ddcc73acc4b8	-4.216600234432171
179	0xbffcff0f6f8210d7	-1.8122705798896754
180	0xbfece71ab87847b4	-0.9032109835554736
181	0xbff2b6f96d0ca2a0	-1.1696714648952948
182	0xbfcfc2d5bd5ba14c	-0.24813338991158174
183	0xc001f33ba7b0d538	-2.24376612671281
184	0xbfe971f5119e179e	-0.7951608032314998
185	0xbff17336f854efb4	-1.0906285953960664
186	0xbffafde7d3c7e03b	-1.68698866583692
187	0xbffb5547077974ab	-1.7083196918459105
188	0xbff94099476bc415	-1.5782711782342222
189	0xbfc2e27b220154e5	-0.14753665123377072
190	0xc0030619bbef51bd	-2.3779787714395
191	0x3fd848b238c14de5	0.3794370226143811
192	0x3ffdc257cf9874b7	1.8599470242691447
193	0x3fd7e1aeba7a0922	0.37314956865897575
194	0x3fc7c7bce0e72b19	0.18578301412193168
195	0x3fefa205b74302ab	0.9885281161624183
196	0x3fe4c0ebe6241b56	0.6485499854032735
197	0x3fef10a486bdc87f	0.9707815772692497
198	0x3fd0663ad200790e	0.25623960979454885
199	0xbfccad745d82a738	-0.2240434128373694
200	0xbfc88935900ef222	-0.19168729337788287
201	0x3ffb0da35e6dbb31	1.6908296288126616
202	0x3ff76e5e7de9d9ad	1.4644455831999992
203	0x3ffae6ba24518b3d	1.6813298624699222
204	0x3ffaa4e7d31d2f5b	1.6652601477280402
205	0x3fbc326ae0c235e2	0.11014430987616877
206	0x3ffa85f942e4824c	1.657708417224188
207	0x3feae348ed95cd50	0.840244735749744
208	0x3fd8200dc47c3635	0.37695640743263265
209	0x3ff2d71c08ef104b	1.1775169705370157
210	0x3fe735c8f089cd0a	0.7253155420316102
211	0x3fc7a2147722d164	0.18463378731906765
212	0x3fea29424542f8db	0.8175364830747428
213	0x3fe8c9bdcd0ab04a	0.774626636955426
214	0x3fdfca35187ac349	0.49671676054554276
215	0xbfaab50d532d4b58	-0.05216256752341647
216	0x3ff7f920ede2f6ec	1.4983224193996945
217	0x3feebe59af8c29b3	0.9607361248648004
218	0x3ff3cdc233932edd	1.2377340330739834
219	0xbfd0780473dc3031	-0.25732528032745267
220	0x3feee559c0a14241	0.965496898870761
221	0xbfde160b7b20c9b2	-0.4700955107138284
222	0x4002032016003638	2.251526042825187
223	0x3fcb5c9afac782c9	0.21376359219632082
224	0x4003e7a1f97a363d	2.488101910631285
225	0x3fea163989c30bc9	0.8152129831945497
226	0xbfbd6399b154034f	-0.11480103091527137
227	0x3fe892d835698725	0.7679253619391814
228	0xbfd06291b7782e48	-0.25601618687571603
229	0xbf4f2adc3f0ef9a7	-0.0009511542722220782
230	0xbfd0e4072505d162	-0.2639177190351544
231	0xbff3fa6fc0140bc8	-1.2486417296465664
232	0xbfd88cee302e0996	-0.383601710367793
233	0x3ff8290990670083	1.510018886634527
234	0x3ff974d085b0640f	1.591019174788247
235	0x3fd85cf0f3206f7b	0.38067268126336956
236	0xbfe01bf0358cdf87	-0.5034104391006488
237	0x3ff600ec8d2178c4	1.375225592891682
238	0xbff3879c6b1c2abb	-1.2206081565843039
239	0x3fd5ba5d70065378	0.33949981632149884
240	0xbff58c0ff56c2997	-1.3466949068848402
241	0x3fee92dd72d8207d	0.9554278605510401
242	0x3fe98ae2a3ea8c8f	0.7982037736404822
243	0x3fd3df64e8b176e9	0.31050989841410953
244	0xbfa24d5bad5cae2d	-0.03574644557224036
245	0xbfe13993b7c269d4	-0.5382784451533618
246	0x3fd4190361db279e	0.3140266852975574
247	0x3fc14b19cbb833d0	0.1351043934559173
248	0xbfc1677fbac56718	-0.13597103709872083
249	0x3fd678e187f2102d	0.35112798953946617
250	0x3fed18c8644931b0	0.9092752417287127
251	0x400157c38708643e	2.167853407806006
252	0x3ffbd9387725443d	1.740532365238564
253	0xbfeefd3f9dbfe38c	-0.9684141236349304
254	0x3ff239fbf4245127	1.1391562973777327
255	0xc000d4ad2556c5aa	-2.10384587451036

layers.0.bias f8 [128]
0	0xc006f13f25f9d22d	-2.8677962271560973
1	0xc00632787015fcd2	-2.774643779440887
2	0x400418ec5fcd8bd7	2.5121695980646837
3	0x3fd573c3f9db31e5	0.3351907672884223
4	0x3fde2b6906a64fa6	0.47139955186252747
5	0xc002726879c241d6	-2.3058633339316925
6	0x3ff3222ad53c5da8	1.1958416299365613
7	0x4002ddae8bf2d311	2.358243077609935
8	0xbfcb49beb2082c81	-0.21318801587071692
9	0x3fd3af85215dcdf2	0.30758789308967416
10	0x3ff2c2ae0536a91c	1.1725292400029224
11	0x3ffdc182775d63f6	1.8597435629546886
12	0xc00e45fab2f04dbf	-3.7841695766053074
13	0xc003071c7a8279fa	-2.3784722872799167
14	0xbfe5a80d4c24e089	-0.6767641532124041
15	0x40096dbc4d994670	3.1785818159485686
16	0x3ffe54227102ad97	1.8955406584235328
17	0xbfd8bc3d384afea0	-0.38648920533521824
18	0x4003e466001a3f91	2.486522675324473
19	0xbfeb13118e2fca44	-0.8460777070125194
20	0x3ff2fdc760974de1	1.1869577191435996
21	0xbff37e4e97358e53	-1.2183366686448565
22	0x3f95a5b58702da54	0.021139942517687096
23	0xbfc1a2d5412e597a	-0.13778176958721727
24	0x3ff3068de9184918	1.1891001801746537
25	0xc008949a184b5da0	-3.0725595376968187
26	0x3fe5b0ee4081fed1	0.6778479823987827
27	0x3fffc7a483eba8e9	1.9862408784052212
28	0xbff6ed6361532bfc	-1.4329561044457924
29	0xbff763780a0a29c1	-1.4617844001937643
30	0xbffe77f2f98f1611	-1.9042844532390328
31	0x3ff34ab1764af26d	1.2057356472788812
32	0x3fe40868d3e6b07e	0.6260265482610661
33	0x3fe15c4e77bbe305	0.542517885070169
34	0x3fead6ddce8ad011	0.8387288126018594
35	0x3fe0cf45f23c778d	0.5253019076514974
36	0x400328f230f7dfc6	2.3949931932110955
37	0xc007f4e12540c9de	-2.9945700559994597
38	0xbff175fae8889233	-1.0913037379588217
39	0xbff7cf84e86c2b2b	-1.4881638602261755
40	0xbfc96fdbdd45e703	-0.19872616104458282
41	0x3ffe9ed579311cab	1.913777802854194
42	0xbffd68ea6c4236c9	-1.8381141880849319
43	0xbfe01188ab02ac1c	-0.5021403636977797
44	0xc004d10d7872e63a	-2.6020764741959086
45	0x3fcb52d5d40f0d70	0.21346543173249755
46	0xbf53bfa5168c9598	-0.0012053596676165675
47	0x3fe30f9f3f0bcd00	0.5956569892281607
48	0xbfc51e76c7140cfe	-0.16499218674298527
49	0x3fc919440a50a229	0.1960835504880987
50	0xc007e990fc671a41	-2.9890460700001147
51	0x3fe070f817ba50b4	0.5137901748116946
52	0x3ffc3516cf0fb142	1.7629612053234074
53	0x40040b4a9c5c3de1	2.5055134025239885
54	0xbfefb99830c5d170	-0.9914055779068303
55	0x3ff498152538f1e1	1.287129540825042
56	0x3fff5f6222dfd903	1.9607869493752907
57	0x3fe0179d0c8f3e6f	0.5028825040153161
58	0xbfbf80875f17863f	-0.12305494376735114
59	0xbfd529f94c120827	-0.33068687847856143
60	0xbffb7d94c27a259d	-1.7181594464076178
61	0x40022b01c0a9484b	2.2709994365368735
62	0x3ff7e3acb79b23de	1.4930846378431322
63	0x3fe386eca0c9401d	0.6102202549318495
64	0xbff2ea1edca295a3	-1.182158338409274
65	0x3fb395e50abec580	0.07650596153577816
66	0xbfedc690eb168788	-0.9304890243113144
67	0x3ff6d209d41e93ec	1.4262789045253568
68	0x3fe35b2a871640dd	0.6048786772171543
69	0x3fff49708f674b7f	1.955429611368089
70	0xc0049433a64a0554	-2.5723641387309417
71	0x3ff7339f0a965b12	1.4501028455321756
72	0xbffaabb90bb4412a	-1.6669245202247773
73	0xbfe5e4d49c673b28	-0.6841834120512873
74	0xc002215143185c55	-2.2662682763871467
75	0x3ffea708f145fd97	1.9157800125829902
76	0xbfe55a4dd71b36d6	-0.6672734452528981
77	0xbfd695d6b4324985	-0.3528954276781849
78	0xbff60c8bd92f657a	-1.3780630573076835
79	0x400078545bbe0904	2.0587546508187433
80	0x3fd270b3b15c9474	0.2881287796065586
81	0xbfe6e49dcbc7e0ed	-0.7154072742551115
82	0x4000b0f611bfa71a	2.086406840001371
83	0x3ff4c0c14674c511	1.2970593216126114
84	0x3ff2686ee67ce9d1	1.1504963878093017
85	0xbfe5e5fc9848c5fe	-0.6843245481779261
86	0xbff00b938c9c66e8	-1.0028262608161018
87	0xc001c6115910355b	-2.221712776000158
88	0x4002d6649a2a39bd	2.354684070981618
89	0xc00242199d4fb666	-2.282275418276913
90	0xc0047dc04d201e0c	-2.5614019418169445
91	0xc003f549feac7da8	-2.4947700401678112
92	0xc0026920e32e2732	-2.3013322590312777
93	0xbfe33b0ae951373f	-0.6009573513963246
94	0xc005edea648dada0	-2.741169725011517
95	0xbfec76bd4833389f	-0.8894945535810342
96	0xbffaca68cf237e9b	-1.6744163600305118
97	0x3feaa32c6eb07ede	0.8324186479476017
98	0x400276afd957ffaa	2.3079525928478306
99	0x3fe4f4f7797fe834	0.6549031613387855
100	0x3fe98f170664c198	0.7987170338511076
101	0xc00dfd94cd2ceaaa	-3.7488189725239254
102	0x3fe6746b7da3d240	0.7017114118485281
103	0xbff31a9bf39ee652	-1.1939963833268803
104	0x4001292c5caa9aba	2.1451041450085
105	0xbfe6a783baeac740	-0.7079485560154595
106	0xc00297e8be1ed640	-2.3241743901405982
107	0xbfe5f6a6e4126a88	-0.6863588766603508
108	0xbfe0484d0f1dd661	-0.5088258071179547
109	0x4003780bd33d125c	2.4336163046848878
110	0x4001adbb2ec8e01e	2.2098296790172887
111	0xbffc8977b6f3ff92	-1.7835614344221296
112	0x3fe193fd1e2deb32	0.5493150319519826
113	0xbff84c16581e2289	-1.5185759965990278
114	0xbff268b8df71da7d	-1.1505669334707413
115	0x3fd6ae05acc6415f	0.3543714701891271
116	0xbfcb6df32271020a	-0.2142928999110299
117	0xbff792e6ce5b71c7	-1.4733646450832667
118	0x3ff9b369b20cfc71	1.6063019709688684
119	0xbfc2d705f0a027e0	-0.14718698739335334
120	0xbffcda0a6e2cf40b	-1.8032326034292534
121	0x3feb669c8b5cf0e7	0.8562758180555904
122	0x3ff745b126476a15	1.4545146460792513
123	0xbfe657a433490a39	-0.6981984140077834
124	0x3fd1ed844f5d2798	0.2801218771970695
125	0x3ff263e718342055	1.1493903108075945
126	0xbfd074cb58d142e7	-0.2571285598142325
127	0x3fe1136aaaf7834b	0.533620199126838

layers.1.weight f8 [100, 128]
0	0xbfaaefe999d0351d	-0.05261163714031112
1	0x3fa6744f407b26ed	0.043856121655677295
2	0xbf9ea51e9bc97974	-0.029926756151661363
3	0xbfb9cc284da60b11	-0.10077144523351601
4	0x3fbe224e630da779	0.11771097105306962
5	0x3f87c6bcc8b6e513	0.011609530330007922
6	0xbfb3fc7c810a69d5	-0.07807138586432612
7	0xbfbdd852f0a84e3d	-0.11658209205079913
8	0x3fbb81ed65487c0e	0.10745128367169363
9	0xbf965391acd8db64	-0.021803165602445232
10	0xbf9dafa28b17e112	-0.028990306605892142
11	0x3fb16167d0690079	0.06789254034174687
12	0x3fa2854539785259	0.036173022523290306
13	0x3fb28eb700d7c0a2	0.07249015589309463
14	0x3fa52b3d5683cc42	0.041345516978161814
15	0x3fa46a47d76e808e	0.03987335686474679
16	0xbfab97e1838dfd32	-0.05389313441173228
17	0x3fadd7a61f74ed4b	0.058285895671782294
18	0xbf968a9883e94a45	-0.022013075877405325
19	0xbfcb4374b605e98f	-0.21299609077307166
20	0xbfa6e225f4d5623a	-0.04469412435236504
21	0xbfa2e34cba49e153	-0.03689040922194189
22	0xbfbd8c8be868c944	-0.1154258196263856
23	0x3fc0824420d33263	0.12897540667326543
24	0x3fb89ad1edfa94c8	0.09611236629514786
25	0xbf4917535c0cd7f5	-0.0007657200841097988
26	0x3fc1c50de6773bf0	0.13882611993037086
27	0x3faedc9097bb26ab	0.06027652599511887
28	0xbf8b0c79e8e09afd	-0.013207390231469324
29	0xbfbe7ce985beaf48	-0.11909350886588499
30	0xbfb36fbcbf192488	-0.07592372575267536
31	0xbfb702dfd78d5b41	-0.08988760960106125
32	0xbfb0a26d4b45c728	-0.06497843826016647
33	0x3f7b1a989fdb8e3e	0.006617160977586743
34	0x3fbad7bd731eeca7	0.10485443172994967
35	0x3fc4cf05717ce6b7	0.16256778756524223
36	0x3f8a5b360826a323	0.012869283794161362
37	0x3f94ba9d6851a086	0.02024312924587026
38	0x3fb010ad6e11d932	0.06275447785614999
39	0xbf8c4906288c5207	-0.013811157333784697
40	0xbfb1b3b0e83d0d29	-0.06914811773190323
41	0x3fc98bcd2674f770	0.19957889917162275
42	0xbfc44b42239e7ee9	-0.15854670275893248
43	0xbf723e3d92a849ee	-0.004453888434471127
44	0xbfb32e7c0f29f768	-0.07492804880345505
45	0x3fcf724dac305160	0.24567576320317652
46	0xbfb0638177873d54	-0.06401833694620979
47	0x3fd03f3617e0af98	0.2538581116848433
48	0xbfc49097fa5a9e16	-0.1606626484328763
49	0x3fa741cb8e146283	0.04542385205622159
50	0x3f70c9d727d7aacb	0.004098740054795778
51	0x3fb0d12368e1da75	0.065691197496429
52	0xbfaaf14a23ef2d9d	-0.052622143637189846
53	0x3f96d9478bfc52ef	0.02231323043732208
54	0xbfa42a06e2f96de3	-0.03938313980753685
55	0xbf999853d979c2ec	-0.024995145939501848
56	0x3f587c0a93edf706	0.0014944175051989097
57	0xbfbb73bc2261f5e8	-0.10723472442074178
58	0x3fad67a5f26a69b5	0.057431398240811594
59	0xbfb1248e5118f023	-0.06696404914777125
60	0x3fbfe30afd7d92fb	0.12455815018399712
61	0xbf8539803b6a74dd	-0.010363580525615418
62	0xbfba71449b0d1102	-0.10329083238054085
63	0x3fa151fceae51268	0.033828643487628096
64	0xbfb0fd90f14fcaee	-0.06636911288641631
65	0x3f6f890a7061ce08	0.003849525822312353
66	0xbf94e0fc8f7f2f7a	-0.020389505632734985
67	0x3fb19d46f50d1a3f	0.06880610926337115
68	0x3f9e3600820237e7	0.029502876219844067
69	0xbfbf9b9487bb7974	-0.12346771539475815
70	0xbfc95aad72f71d36	-0.19807975877322698
71	0x3fc03a066f6349d7	0.1267707866559948
72	0x3fb23c858f0d4e95	0.07123598806838978
73	0x3fb332f55a207d77	0.07499631357540247
74	0x3f8efb29ff16817a	0.015127494904675787
75	0x3f9a4e5ec94cace0	0.02568958381304476
76	0xbf94496c0d0c9e86	-0.019811332985368434
77	0x3fb7ebbccf621cbb	0.09344081938808106
78	0x3f851ebdc1c1d8e8	0.010312540507794357
79	0xbfa9b2eae2b3ef27	-0.05019315736168855
80	0xbfbe89e183f1964f	-0.11929139586717351
81	0xbfc4ba7e0e474f5a	-0.1619412965507035
82	0xbfc035b6d09bf168	-0.12663922487252965
83	0xbfb0401f843df3fe	-0.06347844103397901
84	0x3fc4c4381f008a90	0.1622381354691993
85	0xbfb38c3d8015ed44	-0.07635864617434601
86	0x3fca2c84cfb8ce57	0.20448360579176736
87	0xbf966c46419de1dd	-0.021897409205367303
88	0x3fb662013aba1421	0.08743293460618463
89	0xbfc231daee93b6fd	-0.1421464600493251
90	0x3fb17c1ab9e3552e	0.06829993284494115
91	0xbf9d19b0b4702900	-0.028418313038891974
92	0xbfb04c0ae136ebb1	-0.06366031645204263
93	0x3f968590f33eeaf3	0.021993889662307486
94	0xbfb5c74823c3c203	-0.08507204888497459
95	0xbf949e2b261fdee7	-0.02013461513703776
96	0x3f7701aede8505bf	0.00561683948791497
97	0xbfb11b8997ec8079	-0.0668264385135461
98	0x3f05a963a664b5c5	4.1316369605897146e-05
99	0xbfb2ed663fc9f9d0	-0.07393492753360609
100	0xbfb15d8a32992962	-0.0678335546046234
101	0x3fb4def76b30dc91	0.08152719847645275
102	0xbfc1bd54a5c6166b	-0.13859041304037886
103	0xbf97fb326e80c277	-0.023419178003850818
104	0x3f88d29d9139c2fb	0.012120467180666497
105	0xbfbaa65742b0ee31	-0.10410066011621023
106	0xbf89e2b02407b786	-0.012639404391815889
107	0x3f9ec108b4b313d6	0.030033241299651646
108	0x3fc2d960f0629e11	0.14725887048301492
109	0x3fb17a606bdc9a8f	0.06827356942504025
110	0xbf987787542f5676	-0.023893465531577417
111	0x3f995244671d073f	0.024727886956731778
112	0x3f9740d360a9baad	0.022708227896539302
113	0xbfa185aa98a41536	-0.03422291863720732
114	0xbfb26312844aefb6	-0.07182422380259265
115	0xbf95d748f43c9568	-0.021329059512159715
116	0xbfb23e16481eacb0	-0.07125987301576475
117	0xbfb0059ef463702b	-0.06258576838030254
118	0x3fa9aa669e53fb62	0.05012818033900747
119	0xbfb3f42367e55733	-0.07794400488395752
120	0xbf96d550e07679f9	-0.022298110675928105
121	0xbf9da47ca9c9e770	-0.028947780478552898
122	0x3fc24afee27fb90a	0.14291368541257327
123	0x3fa1a67966c1f6cd	0.03447322253576388
124	0xbfbdd3cb7f6924d8	-0.11651298390019649
125	0xbfa33870f1db100c	-0.03753998710956816
126	0x3fbf89390f0beba0	0.1231876050696159
127	0x3fc22a77791bbf6e	0.1419209805821952
128	0x3fc5d3d9acde056d	0.17052765789780314
129	0x3feb3e411f0b40f7	0.8513494116141648
130	0xbfc95aa89ec7f028	-0.19807918313006323
131	0x3fdba4ca562f4e88	0.43193300644382093
132	0xbfe49ae438521b90	-0.6439076519026106
133	0x3fe12d7b616d7f82	0.5368019965062418
134	0xbfe6512d08d49bed	-0.697409169432715
135	0xbfec28aea23f0e45	-0.8799660843728324
136	0x3fada0e1f3399805	0.057868061962651075
137	0xbfd514828da39447	-0.3293768294518639
138	0xbfd1b5cb0e5c849a	-0.2767207756279021
139	0xbfc1be268e9ff14e	-0.13861543621158962
140	0x3fef19cf2b979434	0.9719005443008712
141	0x3fd2d3c7d25a6ea9	0.29417605917272255
142	0x3fa7ff57cff1288f	0.046869987615154256
143	0xbfd383261c5d7b2f	-0.3048796917918705
144	0x3fb201d3f9457564	0.07034039340711257
145	0x3fdc4cf32f391c49	0.44219665156964943
146	0xbfdd492b3dcebf20	-0.4575908759679681
147	0xbfd2f43062d4f48c	-0.2961541142611359
148	0xbfe5a4a1192ac608	-0.676346348909818
149	0xbf9048a7d7fc5ac5	-0.015902159269070255
150	0xbfc6fe2e813ef378	-0.1796320086558827
151	0xbfdf56f16d1d1e18	-0.48968158393515315
152	0xbfc618b7be24215a	-0.17262932571635298
153	0x3fe8076ad25033d3	0.7509054286653004
154	0x3fd5312f73c1e103	0.3311270361368914
155	0x3fa7e363df5caf22	0.046656723991274754
156	0x3fd3db1cbd04a6c5	0.3102485509758533
157	0x3fcb12bc3c2eb480	0.21150925577731883
158	0xbfb9e8c878a02d19	-0.10120823807681169
159	0xbfe009573186646e	-0.5011402098927087
160	0xbfefe69f6e0b0ba1	-0.9969021939544868
161	0x3fb9e7356c07172b	0.10118421447176888
162	0x3fd9a840c2bd2ebc	0.4008943464038841
163	0x3fc5ed48e1f35016	0.17130385430084577
164	0xbfeb83e74ff9d621	-0.8598515092878111
165	0x3fe748b11368da5e	0.7276234988301657
166	0x3ffbe28566dbba4a	1.7428030031111512
167	0x3fd5ae2673fc6a6f	0.3387542851138851
168	0xbfd4af59a54572db	-0.3232025255181676
169	0xbf994669a7c031f2	-0.024682665694898583
170	0x3f81f958af3aa58d	0.008776371810500528
171	0x3fb9159f62965aaa	0.09798618466298117
172	0x3ff322a7247593dc	1.1959601806822695
173	0xbfb746413f881881	-0.09091575432839429
174	0xbfdbe1bc6b116edb	-0.43565283256405757
175	0x3fd2564c60caf686	0.2865172333948539
176	0x3fe64a44a3b8499d	0.6965659330037856
177	0x3fd5e52a49a528a7	0.3421121329489644
178	0x3ff2696a0f4114ed	1.1507359119289575
179	0xbfeb609d74c0af6a	-0.8555438309026446
180	0xbfe90f8138e9fe82	-0.7831426726915682
181	0x3fd44768b92e0484	0.31685846408806406
182	0xbfb13745745f5dc6	-0.06724962321401681
183	0xbfe7a5101ed0be1e	-0.7388992883551884
184	0xbfecbffe93d7b9b0	-0.898436821704129
185	0x3fc493304e3288cb	0.1607418424437753
186	0x3fed3b7eed2fc5fb	0.9135126717139309
187	0xbfd0daff4cb44cd8	-0.26336653223661477
188	0xbfa8ae71160c3060	-0.04820588487754729
189	0xbfef5c41e120768d	-0.9800118824966418
190	0xbff0ee9a8c76383b	-1.0582528578556907
191	0x3f75b8bd0d35dcaa	0.005303133471321756
192	0x3fddfc9961098309	0.4685424277904962
193	0x3fe23448a93de89c	0.5688823037628654
194	0x3fb75fe339bc63a9	0.09130687865798727
195	0x3fa6444947271f01	0.04348973268093737
196	0x3fe1ff6b14b0123b	0.5624289897974174
197	0xbfc8b1b4c2475693	-0.19292315946829727
198	0x3fddaf8d4cd351e9	0.46383984091269653
199	0x3fd1fd0d4ab5f250	0.2810700635525665
200	0x3fd738d684c6572e	0.3628441139820663
201	0x3fd753eac595519c	0.36449689193002555
202	0x3fe9ae21b47adb6e	0.802506306171251
203	0x3fbdf2c72b2b528c	0.11698574832855452
204	0xbfbff851058d59d1	-0.12488275895643787
205	0xbfc279e163424d91	-0.1443444952643458
206	0xbfe363a5a2774495	-0.6059139416849059
207	0xbfe233a23ddb8937	-0.5688029487758176
208	0x3fb6e0649a4da556	0.08936146514101515
209	0x3fe12e89774cef36	0.5369307832802181
210	0x3fd122390dc9db70	0.2677137980130544
211	0xbff904185517c8fc	-1.5634997676793878
212	0xbfdb5304c3d7676c	-0.4269420540346036
213	0xbfaa70e548dd1f30	-0.05164257540178452
214	0x3fbf9175e8146c1d	0.12331330219278454
215	0x3fb1629e50251f19	0.06791104752221279
216	0xbfcfaac88c0c8433	-0.24739939535450758
217	0xbfd5ab6b6bc02ade	-0.33858762285733046
218	0x3fe08acd651ad598	0.5169436430648373
219	0x3fdad9d7b65e333f	0.4195460587441637
220	0xbfd12dbe5132cf38	-0.26841695718325154
221	0x3ff189e4002cf496	1.096164704023328
222	0x3fcdd25b7affa719	0.23298209672730577
223	0x3fe139ffc3574dbe	0.5383299651388638
224	0x3fe08e5dcde0aace	0.5173787137076375
225	0x3fb8bc3119f6dbb1	0.09662157901662628
226	0xbfd4809ea3f15432	-0.3203503228190271
227	0xbfc1665d884a53f9	-0.13593644289781517
228	0xbfecd6c5752928f7	-0.901217202024127
229	0x3fe530f8d78bee3e	0.6622280321020708
230	0x3fd14868201701c9	0.27004435666824783
231	0xbfdcc5dd5f806b96	-0.4495767052300662
232	0xbfddecc4adddbfab	-0.4675761888420264
233	0xbfc521cf88be89b4	-0.1650943200775835
234	0x3ff91777ca1785ac	1.568229474469585
235	0xbfdc9d4f5d71eade	-0.44710144162642773
236	0x3ff3816df6384d75	1.2190990083662119
237	0xbfdd0d290f8976a4	-0.45392824666292086
238	0xbfff6f3c182afd50	-1.9646569198665311
239	0xbfe5032782bb01d8	-0.6566350510911958
240	0xbfd66eec06458f6d	-0.35052013981316216
241	0x3fe084ae6b59a6e2	0.5161964508708616
242	0x3fd4808b13efec62	0.32034565875046017
243	0xbfd0c1c320dd9977	-0.2618263073876714
244	0x3fe208e1c707a2a1	0.5635842215825343
245	0x3fa49a48c4e660ab	0.0402395954471911
246	0x3fc8bfe869134cf2	0.19335656290659348
247	0x3fc49bc37749fa0a	0.16100352596909345
248	0x3fd33069cecd22fc	0.29982991404953885
249	0xbfe8478df838d188	-0.7587346885762125
250	0xbfc8e0c6a1fca747	-0.19435961637037222
251	0xbfe9afe4738b0f65	-0.8027212387755581
252	0xbfb898529f858b71	-0.09607426065990211
253	0xbff85e1a5b6f5f53	-1.5229743549043249
254	0xbfc71f51420f8bf5	-0.18064323163625287
255	0xbfe9b8f3a9c6815f	-0.8038271251607901

layers.1.bias f8 [100]
0	0xbfa29e47f88d70c6	-0.03636383923614654
1	0xbfd1ee2ad85135d9	-0.2801615822289399
2	0x3f86fdcb4400fce4	0.011226261151135515
3	0xbfb97a4aef683507	-0.09952228875063805
4	0xbf86e89dde11e6a1	-0.011185868587051674
5	0x3fe23b2098ecea83	0.5697176920724164
6	0xbfa0eac6dc7951d6	-0.033041204846685865
7	0x3fcfe147a4765e2c	0.2490624955214441
8	0x3fb6397889606889	0.0868144355194166
9	0x3fb16435f9806126	0.06793534604401383
10	0x3f94c10e87e0f089	0.020267703097701904
11	0xbfb0b7ee4baf3e9c	-0.06530656192557632
12	0xbfb3a303ee2c91ee	-0.07670616688535123
13	0x3f9eab8ade7c9411	0.029951257543093194
14	0xbfb8731660db4412	-0.09550609459553552
15	0xbfd75c24a957b597	-0.36499897515644747
16	0x3fa35f7b07d78468	0.03783783407903557
17	0xbfcb8fc3f2fd1556	-0.21532487263372485
18	0x3f6ad6f6a6313199	0.0032763306967693137
19	0xbfb2fab514a110c1	-0.07413799050943039
20	0x3f9f7ff96c1656a6	0.030761620733378202
21	0xbfc2f51497a1d8ed	-0.14810426143566904
22	0x3fc2811fc53640bc	0.14456555490006007
23	0x3fa416ce1aa57b6d	0.039236489060150294
24	0x3f555937741c040c	0.0013030091799353131
25	0x3f88522a6f11aedd	0.011875468744811208
26	0xbfc3172388a795c9	-0.14914364025677987
27	0x3facea58088e81bb	0.05647540192080976
28	0xbfb13cd56f7cd3e5	-0.06733449909081875
29	0xbfd4599cda815f2a	-0.31796952570356274
30	0x3faaf5345c66be8b	0.05265201213785272
31	0x3fcecc4937c031b5	0.24060931417660716
32	0xbfa0445e7fd6585c	-0.031771615128648206
33	0xbf4ab72ed4fbc034	-0.0008152941390715597
34	0x3f9dcbee625f4fa6	0.02909824824730802
35	0xbfc4c2f626eb5332	-0.16219975376466206
36	0xbfb6d7fbd716b55c	-0.08923315049351771
37	0xbfbdf17ceabe77fc	-0.11696606379561553
38	0x3fae1f2620d03f40	0.058831397538709584
39	0xbfdae57d69e4dc3d	-0.42025695172509697
40	0xbf9c43d93fe8bc0e	-0.027602571988776296
41	0x3f967d7741070e48	0.021962989181487452
42	0x3f62657e6d930bb1	0.002245661668525988
43	0xbfc304d5054b601f	-0.14858496435658794
44	0xbfb6f9747731e618	-0.08974388036758574
45	0xbfac3ea4053259f3	-0.05516541064678284
46	0x3fa027fd0d700b4e	0.031555087938633805
47	0xbfe61937b78889c2	-0.690578325713709
48	0x3fa36b9c507de9f5	0.03793037874762099
49	0xbfb979c788fc91d1	-0.09951445669555105
50	0xbfc9ca8c852f2412	-0.20149380210048712
51	0xbf539b0e4ac9232e	-0.0011966361590955532
52	0xbf8c7a2a5dcf8310	-0.013904887187835807
53	0x3f9682759764b291	0.021982037892643694
54	0xbfa1e01f41c9f1d3	-0.03491304090582372
55	0xbf845196e8144e90	-0.009921244580744643
56	0x3fd8310ad5ec0eb4	0.37799330607252135
57	0x3fa0b341c9eba691	0.032617622278690146
58	0xbfbdbb8dc57df168	-0.11614309379178211
59	0xbfa38a68ef0f056f	-0.0381653587169336
60	0xbfe3d461ed9cb0f3	-0.6196756020413247
61	0xbfb4cb8d54f30f79	-0.08123095821343708
62	0x3f99423e59b569f9	0.024666761613255848
63	0x3f9ca38068e5a483	0.02796745910874111
64	0x3fc30260caeda02d	0.14851007374386552
65	0xbfc20fa1e2d994eb	-0.14110206200272243
66	0x3fc1f2f17e0dcf00	0.14022654204347162
67	0x3fd94551645c69b0	0.39485583115461065
68	0x3fbb2657c16753f7	0.10605381461876094
69	0xbfcb7024ecde4935	-0.21435987058482345
70	0x3fedbc4a98415b1b	0.9292347882972963
71	0xbfcca50693a5d113	-0.22378618440019035
72	0xbf871ebac291893a	-0.011289080679664044
73	0xbfa70957a0000000	-0.04499315097928047
74	0xbfd1c10025e39132	-0.2774048204430698
75	0xbfcbd35d5338cb69	-0.2173878342014988
76	0x3fbef31a5e29de55	0.12089695738711133
77	0x3fcee6acd4a978d8	0.2414146459950135
78	0xbfa95a9115fee607	-0.04951909440519491
79	0xbf8e7d5ecfa3bc1a	-0.014887562476785066
80	0xbfc6d91de8f97922	-0.1785008800097297
81	0xbfad914748fcd959	-0.05774901166880637
82	0xbfbf6375bde1e281	-0.12261138807105888
83	0xbf62b16f19ea9fb3	-0.0022818727441808683
84	0xbfc0cca348a85707	-0.13124505088551805
85	0xbfb38e3d5857481f	-0.0763891544986852
86	0xbfc0dc537d4456da	-0.13172381989050203
87	0x3fd2e4c4f3776089	0.29521297241218086
88	0xbfb42b7517fada34	-0.07878810725637991
89	0x3fb5fcf5eee4c100	0.08589112360346363
90	0xbfbaed495ac1d0cd	-0.10518320527791332
91	0xbfa7a3a8e8c28948	-0.04617050019557439
92	0x3fd03752a9f6c1c6	0.2533766422084479
93	0x3f97726d4977730b	0.022897441491170272
94	0xbfde92d2e1bea338	-0.47771141095522607
95	0x3f5fdcbfb7939db2	0.0019447204816119665
96	0xbfbc7fe0ccd8640b	-0.11132626534562477
97	0x3fcefd2337c52d10	0.24210014556079118
98	0xbf7160666c5ad599	-0.004242324915755624
99	0x3fb03faa04f91f3f	0.06347143765844708

layers.3.weight f8 [100]
0	0x3feeacae1f71a241	0.9585791219843217
1	0x3fedcf7f39431fd4	0.9315792196657591
2	0x3fef105f25e6acc0	0.9707484951262799
3	0x3fee88074f8d1350	0.9541050485355331
4	0x3fefc4b871c00a41	0.9927637311632865
5	0x3ff6ae2a5d7ed3c2	1.4175208713688652
6	0x3ff0dab01876a383	1.0533905940630752
7	0x4005b326f2b2a9eb	2.7124766312383506
8	0x3ff762b75d80de69	1.4616006519771878
9	0x3fed409092701af8	0.9141314373126468
10	0x3ff012088ecc2a54	1.0044026926067504
11	0x3fd1ad7d47e94099	0.27621395132610754
12	0x3fee213d819e51f6	0.9415576488123054
13	0x3fef31dbd81e3033	0.9748362752011474
14	0x3feed0bd04ce0344	0.9629807561724211
15	0x3ffa3352953dbcca	1.637529929135598
16	0x3fef10269f3d436a	0.9707215414183399
17	0x3ff1a46c9b182623	1.102642637097582
18	0x3fec8e101cd37208	0.8923416674620634
19	0x3ff13acc355baf27	1.0768549045851132
20	0x3fee2e42b44b5a0e	0.9431470414518246
21	0x3fdd7806af036024	0.46045081225520534
22	0x3fe5f0043d73034b	0.6855488968068156
23	0x3fee8b2c10471253	0.9544887845918971
24	0x3fef4a970112f98f	0.9778552075365939
25	0x3feddb709b3a45ae	0.9330370933332028
26	0x3feb45df625d0874	0.8522793694649082
27	0x40073f280d71b2e8	2.9058381128619324
28	0x40001e0682b5a1be	2.0146608554534557
29	0x3fe477febee68345	0.6396478394054631
30	0x3feeef5f341f200d	0.9667202013015427
31	0x3fe172922a51b284	0.5452357126756202
32	0x3fed69b38a972f63	0.9191529948088654
33	0x3fe240a19640d70a	0.5703895506510162
34	0x3feda9f95173266a	0.9269987669769766
35	0x3feeeb8ebbfd0567	0.9662545844695786
36	0x3ff24b79e664a6e6	1.1434267997487324
37	0x3feecf0ecbeb2033	0.9627756102354453
38	0x3fe605d84f022a8d	0.6882134955534
39	0x3ff4b79b7d479d54	1.2948260205974593
40	0x3fe92cc322a57577	0.7867141415296562
41	0x3feec8b74dbba8e6	0.9620014684890321
42	0x3fef3b94380ed2ec	0.9760228247529006
43	0x3fe8fdd1c9bce885	0.7809838237947281
44	0x3ff0bbd73dbfb35c	1.0458595668853468
45	0x3fecc974ad8639cf	0.8995917691370837
46	0x3feefbf52af22928	0.9682565535343075
47	0x3fc95152f2acf353	0.1977943119944948
48	0x3feff933b8dfdbb2	0.9991701708630585
49	0x3feeb82dce06aea1	0.9599827789256389
50	0x3fe98e7a7747df92	0.7986423806860208
51	0x3ff0798932164eb4	1.0296718555954785
52	0x3ff0ad08ef8e0424	1.04224484993052
53	0x3fee840c77385f3a	0.9536192253608313
54	0x3fef7bf29651d130	0.9838803230218556
55	0x3ff0bdb39419cf38	1.0463138375461778
56	0x3ffc528b49e6305b	1.7701523672758614
57	0x3fef1e4e4d7da01d	0.9724494470110617
58	0x3feb6889326e2430	0.8565107331243151
59	0x3fee42b22ef1f0d1	0.9456416050811872
60	0x3feb9ea0b95e5576	0.8631137485960341
61	0x3fef12a1b099d2db	0.9710243653522314
62	0x3feee931e81cd354	0.9659661801766597
63	0x3feef2d971955c31	0.9671447008539699
64	0x400388c879b74ee4	2.4417886265817845
65	0x3ff178589ad0e4cb	1.0918813750743535
66	0x3ff807795c9986eb	1.5018247239281048
67	0x4006511eac462540	2.78960928525035
68	0x3ff20dec88b56907	1.1283994045430192
69	0x3ff510cc3c8fa4a5	1.3166010251682476
70	0x3ffb94b43cb7b820	1.7238047000678378
71	0x3fe40960f89d09d3	0.6261448722582891
72	0x3fedaf5eba4a4cc6	0.9276574743729717
73	0x3ff0000000000000	1.0
74	0x3ff0c3c46fe097ee	1.047794758816504
75	0xbfaab0bf74e6edec	-0.05212972929026791
76	0x3ff789c6eb776a93	1.4711369703206045
77	0x3feb5a812162a5e9	0.8547979023034574
78	0x3feefd13cd5bc17a	0.9683932314783725
79	0x3fec9d17cb0b0f68	0.8941763845145774
80	0x3fc3a332ab0c32b2	0.15341790534912075
81	0x3ff0228b633108d4	1.0084337114972657
82	0x3ff92a7b60aa5825	1.5728715682976226
83	0x3fdc47e74682fe12	0.4418886364546505
84	0x3feea15240cb6d0b	0.9571925416488808
85	0x3fec21d1a8a9ee08	0.8791282934393516
86	0x3ff11fb84734e275	1.0702441007144021
87	0x3fe8691307adc593	0.762826457021378
88	0x3fe7c5021f4c15bd	0.7427988635324067
89	0x4005c7c4ca8e7806	2.722543318245701
90	0x3ff0278ac24b3803	1.0096538152315595
91	0x3ff01ccd80c3a6f1	1.0070319204191345
92	0x3ffff96940e8cf6a	1.9983913932346362
93	0x3fee8f3ecb4865e4	0.9549859972350387
94	0x3ff8e630c299755c	1.5561988450566195
95	0x3fee3198d6ad2cf6	0.9435543244266273
96	0x3ff2d6fef37b9ec3	1.1774892340708198
97	0x3fe8323c7afc0cca	0.7561323549311052
98	0x400500055a836afb	2.625010211120182
99	0x3fed189bec8523b7	0.9092540378124941

layers.3.bias f8 [100]
0	0x3fa865191b3d2618	0.04764631707673689
1	0xbfbdca6cce4b0775	-0.11637001072361193
2	0xbfa6b4bf3ec92c7f	-0.04434774056843426
3	0x3fadde487a4ae3bb	0.05833651058987451
4	0xbfaaec6ff92471f3	-0.05258512417114849
5	0xbfed238a1a5ae9ec	-0.9105883135555906
6	0x3f9d10fbb13347c7	0.028385098162125446
7	0x3fe8eaf475403006	0.7786810197881102
8	0x3fee5cc60d989bce	0.948824907832085
9	0xbfbd9c89d4dc1038	-0.11566983649032714
10	0xbfb592bac69b1ece	-0.08427016590860179
11	0xbfdd5eba84107c71	-0.4589067735377688
12	0x3fdd68e317432c9c	0.4595267989322538
13	0x3fe12463c70394fd	0.5356921088211092
14	0x3faa5fb91da11b17	0.05151155935941725
15	0xbf9a2229c1a562ca	-0.025520946926323153
16	0xbfcf98b6cee475d1	-0.24684796430749015
17	0xbfc318ff0c632e43	-0.14920032601217956
18	0x3f885877f726dd3f	0.01188749049184301
19	0xbfa78c37398907e9	-0.045991636060094106
20	0xbfceddd581d6c87f	-0.24114483680529372
21	0xbfb9d0ee4e5d195a	-0.10084428227591982
22	0xbfc4bc7496695f1f	-0.16200120300595075
23	0x3fb13fe86ce78401	0.06738140734479715
24	0x3fc05fc2d6e1a32d	0.12792239658599538
25	0x3fab3b09de639e0f	0.05318480338774744
26	0x3f928c4db4a3019c	0.01811334052104173
27	0x3ff87c470ba77bfd	1.5303411917918759
28	0xbfe73e6574c69db0	-0.7263667374399372
29	0xbfe065594c57ec8a	-0.5123716822703426
30	0xbfb3903b978b18d3	-0.0764195675829769
31	0x3fd81586700f6ebb	0.3763137907351212
32	0xbfe099178a843e45	-0.5186879830743655
33	0x3fc8e84faed2ecc3	0.19458957706760857
34	0x3fb8c494dad6661f	0.09674959509575175
35	0xbfbbbf3733408e69	-0.10838646889947658
36	0x3fb8fe72276fbb69	0.09763253653339422
37	0x3fb26e12a8a87ac5	0.07199207894926037
38	0xbfc3b02a965e771a	-0.1538136705611855
39	0x3fe5163879719134	0.6589624759622326
40	0x3f8a1495977cb1b8	0.012734574018019681
41	0xbfa954e48469175d	-0.04947580448474185
42	0x3fa0b535657f9562	0.03263251174920857
43	0x3fc25f6f7153c5d7	0.14353745492512246
44	0xbfc2d1e3b0faf2d5	-0.14703031674971237
45	0xbff38639b39f63d8	-1.2202698723324286
46	0x3fb992bd92277447	0.09989533251014492
47	0x3fae91848127bbac	0.05970396114923146
48	0xbf920a70ffec7281	-0.01761795579942538
49	0x3fc1072a00ccc4fb	0.1330311302095096
50	0x3fbab962612bf471	0.10439123985629963
51	0xbfba656d335698fb	-0.10311014655471588
52	0xbfc17ae2df1ea3df	-0.1365626897288896
53	0x3fb98479858147d5	0.09967765340232344
54	0xbfa840061ba31e7c	-0.047363463281325985
55	0x3f81fda6c6fbb6e5	0.0087845830416557
56	0x3fed5017943e49ae	0.9160268683793242
57	0x3fbf8e330865ebfd	0.12326353983910106
58	0xbfa133f2211edfe7	-0.033599440138857344
59	0xbf8e6e63734a079d	-0.01485898681244518
60	0xbfe53bc39d65bee7	-0.6635454248589355
61	0x3f95983b8f63f8ac	0.021088533999311806
62	0xbfa5ef7540a2a1fb	-0.04284254468922551
63	0xbfab61b7d77ffebb	-0.0534799051820278
64	0x3fd123d6b14be3b7	0.2678124171648579
65	0x3fd92ad1869abd6c	0.3932384314056978
66	0x3fc28caa921687ce	0.1449177945442543
67	0x3ff6b9112fc117a4	1.4201824059868864
68	0x3fbaf5af93600fb0	0.10531136844662004
69	0x3fcfd9d86a0981e7	0.24883561303705834
70	0xbfb909c659e884d3	-0.09780540175462997
71	0xbfe92075d4d3fa27	-0.7852124363706182
72	0x3fea0b455035ec81	0.8138758246053756
73	0xbfc307523a12b506	-0.14866092525100089
74	0xbfd61af1bea99b7a	-0.3453945505083805
75	0xbfcd6eb611ca5f0c	-0.22994113796880133
76	0xbff785f8ae802955	-1.4702078644209753
77	0x3fc16e42fcaf914c	0.1361774190728603
78	0x3fb8a48f4fa21980	0.09626098341150247
79	0xbfb36837a5b4c655	-0.07580898089943251
80	0xbf8751bddf7f0db6	-0.01138637865358914
81	0xbfac181aac772181	-0.054871400406741884
82	0xbfe5ed3de39e1e81	-0.6852101751000675
83	0x3f6877bac319a5c3	0.0029867789933646096
84	0x3fc65ca40132af6e	0.1747021680688436
85	0xbfa3ecccd8c7a0fb	-0.038916017019632286
86	0x3fc54baaca05282c	0.16637167801155905
87	0x3fdafdcd832a70e8	0.4217408924976227
88	0x3f80ac58c42f2e1e	0.00814122532565081
89	0x3fddae531ca3faa6	0.46376493260315
90	0x3fcbc5dd4ead3388	0.21697584478024745
91	0xbfcce08fe4d21d54	-0.22560309098137543
92	0xbfeb62156c992e77	-0.8557231064855405
93	0xbfc8a9dc7199aade	-0.1926837496460711
94	0xbff01366e2764041	-1.0047367902916593
95	0x3fb0889ddc0ede27	0.06458460447799351
96	0xbfe48283b59b035b	-0.6409319445593654
97	0xbfbc5be4d40b4011	-0.1107771890340248
98	0xbfe024b279877ba6	-0.5044796346299918
99	0x3fc6b8ce8137d0ed	0.17751485166048245

layers.3.running_mean f8 [100]
0	0x0000000000000005	2.5e-323
1	0x0000000000000005	2.5e-323
2	0x0000000000000005	2.5e-323
3	0x0000000000000005	2.5e-323
4	0x0000000000000005	2.5e-323
5	0x406c958ecfc8a57d	228.67368306339986
6	0x0000000000000005	2.5e-323
7	0x4078f420e5c2002b	399.2580316141272
8	0x0000000000000005	2.5e-323
9	0x0000000000000005	2.5e-323
10	0x0000000000000005	2.5e-323
11	0x0000000000000005	2.5e-323
12	0x0000000000000005	2.5e-323
13	0x0000000000000005	2.5e-323
14	0x0000000000000005	2.5e-323
15	0x0000000000000005	2.5e-323
16	0x0000000000000005	2.5e-323
17	0x0000000000000005	2.5e-323
18	0x0000000000000005	2.5e-323
19	0x0000000000000005	2.5e-323
20	0x0000000000000005	2.5e-323
21	0x0000000000000005	2.5e-323
22	0x0000000000000005	2.5e-323
23	0x0000000000000005	2.5e-323
24	0x0000000000000005	2.5e-323
25	0x0000000000000005	2.5e-323
26	0x0000000000000005	2.5e-323
27	0x406ab0597d4ec08f	213.51092400914465
28	0x4067d46dac507cd4	190.63838782997357
29	0x0000000000000005	2.5e-323
30	0x0000000000000005	2.5e-323
31	0x4062c1f23ebefb0b	150.06082093525796
32	0x0000000000000005	2.5e-323
33	0x0000000000000005	2.5e-323
34	0x0000000000000005	2.5e-323
35	0x0000000000000005	2.5e-323
36	0x0000000000000005	2.5e-323
37	0x0000000000000005	2.5e-323
38	0x0000000000000005	2.5e-323
39	0x0000000000000005	2.5e-323
40	0x0000000000000005	2.5e-323
41	0x0000000000000005	2.5e-323
42	0x0000000000000005	2.5e-323
43	0x0000000000000005	2.5e-323
44	0x0000000000000005	2.5e-323
45	0x0000000000000005	2.5e-323
46	0x0000000000000005	2.5e-323
47	0x0000000000000005	2.5e-323
48	0x0000000000000005	2.5e-323
49	0x0000000000000005	2.5e-323
50	0x0000000000000005	2.5e-323
51	0x0000000000000005	2.5e-323
52	0x0000000000000005	2.5e-323
53	0x0000000000000005	2.5e-323
54	0x0000000000000005	2.5e-323
55	0x0000000000000005	2.5e-323
56	0x0000000000000005	2.5e-323
57	0x0000000000000005	2.5e-323
58	0x0000000000000005	2.5e-323
59	0x0000000000000005	2.5e-323
60	0x1727f934d44936ed	4.008885111185034e-197
61	0x0000000000000005	2.5e-323
62	0x0000000000000005	2.5e-323
63	0x0000000000000005	2.5e-323
64	0x40868b9eef861fa7	721.4526052931222
65	0x0000000000000005	2.5e-323
66	0x405653deef6d783d	89.31048188867949
67	0x407f99ac147d0341	505.60451172669497
68	0x0000000000000005	2.5e-323
69	0x0000000000000005	2.5e-323
70	0x406b8ffd0b0689b4	220.49963904644903
71	0x0000000000000005	2.5e-323
72	0x0000000000000005	2.5e-323
73	0x0000000000000000	0.0
74	0x0000000000000005	2.5e-323
75	0x0000000000000005	2.5e-323
76	0x4061833495916c9e	140.1001689758604
77	0x404bece8f6b220ab	55.85085948655736
78	0x0000000000000005	2.5e-323
79	0x0000000000000005	2.5e-323
80	0x0000000000000005	2.5e-323
81	0x0000000000000005	2.5e-323
82	0x0000000000000005	2.5e-323
83	0x0000000000000005	2.5e-323
84	0x0000000000000005	2.5e-323
85	0x0000000000000005	2.5e-323
86	0x0000000000000005	2.5e-323
87	0x0000000000000005	2.5e-323
88	0x0000000000000005	2.5e-323
89	0x40747037bd3bdbc3	327.0136082018109
90	0x0000000000000005	2.5e-323
91	0x0000000000000005	2.5e-323
92	0x40735122f6e8d9b6	309.0710362525673
93	0x0000000000000005	2.5e-323
94	0x0000000000000005	2.5e-323
95	0x0000000000000005	2.5e-323
96	0x0000000000000005	2.5e-323
97	0x404616cdbd2310db	44.178153650400155
98	0x4081acdd07323032	565.6079238816221
99	0x0000000000000005	2.5e-323

layers.3.running_var f8 [100]
0	0x0000000000000005	2.5e-323
1	0x0000000000000005	2.5e-323
2	0x0000000000000005	2.5e-323
3	0x0000000000000005	2.5e-323
4	0x0000000000000005	2.5e-323
5	0x40924bfef7d1b86c	1170.998992230302
6	0x0000000000000005	2.5e-323
7	0x408b61a829487912	876.2071099912594
8	0x0000000000000005	2.5e-323
9	0x0000000000000005	2.5e-323
10	0x0000000000000005	2.5e-323
11	0x0000000000000005	2.5e-323
12	0x0000000000000005	2.5e-323
13	0x0000000000000005	2.5e-323
14	0x0000000000000005	2.5e-323
15	0x0000000000000005	2.5e-323
16	0x0000000000000005	2.5e-323
17	0x0000000000000005	2.5e-323
18	0x0000000000000005	2.5e-323
19	0x0000000000000005	2.5e-323
20	0x0000000000000005	2.5e-323
21	0x0000000000000005	2.5e-323
22	0x0000000000000005	2.5e-323
23	0x0000000000000005	2.5e-323
24	0x0000000000000005	2.5e-323
25	0x0000000000000005	2.5e-323
26	0x0000000000000005	2.5e-323
27	0x409359d46ca4f81d	1238.4574456955372
28	0x408c071cfd7583e8	896.889155309761
29	0x0000000000000005	2.5e-323
30	0x0000000000000005	2.5e-323
31	0x406b4d9cc0bc11b5	218.4253848717905
32	0x0000000000000005	2.5e-323
33	0x0000000000000005	2.5e-323
34	0x0000000000000005	2.5e-323
35	0x0000000000000005	2.5e-323
36	0x0000000000000005	2.5e-323
37	0x0000000000000005	2.5e-323
38	0x0000000000000005	2.5e-323
39	0x0000000000000005	2.5e-323
40	0x0000000000000005	2.5e-323
41	0x0000000000000005	2.5e-323
42	0x0000000000000005	2.5e-323
43	0x0000000000000005	2.5e-323
44	0x0000000000000005	2.5e-323
45	0x0000000000000005	2.5e-323
46	0x0000000000000005	2.5e-323
47	0x0000000000000005	2.5e-323
48	0x0000000000000005	2.5e-323
49	0x0000000000000005	2.5e-323
50	0x0000000000000005	2.5e-323
51	0x0000000000000005	2.5e-323
52	0x0000000000000005	2.5e-323
53	0x0000000000000005	2.5e-323
54	0x0000000000000005	2.5e-323
55	0x0000000000000005	2.5e-323
56	0x0000000000000005	2.5e-323
57	0x0000000000000005	2.5e-323
58	0x0000000000000005	2.5e-323
59	0x0000000000000005	2.5e-323
60	0x174143f7ef035cfd	1.1548672032904987e-196
61	0x0000000000000005	2.5e-323
62	0x0000000000000005	2.5e-323
63	0x0000000000000005	2.5e-323
64	0x4092c79cf7bf4a5d	1201.903288830675
65	0x0000000000000005	2.5e-323
66	0x408a3a1c868313ec	839.2639284363227
67	0x408a107b7cfe0a26	834.0602969977233
68	0x0000000000000005	2.5e-323
69	0x0000000000000005	2.5e-323
70	0x4077b07520edc4db	379.02859585646155
71	0x0000000000000005	2.5e-323
72	0x0000000000000005	2.5e-323
73	0x0000000000000005	2.5e-323
74	0x0000000000000005	2.5e-323
75	0x0000000000000005	2.5e-323
76	0x409a916a36635b4a	1700.353723099181
77	0x4087cb565907a514	761.4171619984868
78	0x0000000000000005	2.5e-323
79	0x0000000000000005	2.5e-323
80	0x0000000000000005	2.5e-323
81	0x0000000000000005	2.5e-323
82	0x0000000000000005	2.5e-323
83	0x0000000000000005	2.5e-323
84	0x0000000000000005	2.5e-323
85	0x0000000000000005	2.5e-323
86	0x0000000000000005	2.5e-323
87	0x0000000000000005	2.5e-323
88	0x0000000000000005	2.5e-323
89	0x4091babd7e4cb999	1134.685052107647
90	0x0000000000000005	2.5e-323
91	0x0000000000000005	2.5e-323
92	0x409261059147e5f0	1176.25543701497
93	0x0000000000000005	2.5e-323
94	0x0000000000000005	2.5e-323
95	0x0000000000000005	2.5e-323
96	0x0000000000000005	2.5e-323
97	0x4072a5938ff4be4f	298.34852595904243
98	0x408b9b151a69aaf2	883.3853042846006
99	0x0000000000000005	2.5e-323
