model_policy_epoch-20.pt (torch, 373806 bytes, 28 tensors)

layers.0.weight f8 [128, 128]
00000000: 596a de04 2d54 75bf 04b9 a753 e990 bcbf
00000010: 7d48 1607 24d8 a03f 3d80 4227 ac62 aabf
00000020: 983f 6cae 6a3c b5bf 6329 47e8 6f81 c3bf
00000030: a2db 5cc0 0cbf a03f cd20 98cd 4187 c1bf
00000040: ed77 371e e2bc d6bf 4858 7555 6839 adbf
00000050: bff2 7607 44f3 cfbf dfe3 7862 da28 e2bf
00000060: 9391 d17f 8fe7 d2bf 2ba7 c7df 376e cebf
00000070: d2da 24ad 73c3 c2bf 896b bef3 2ba0 abbf
00000080: 522d 2544 914f d23f 2e3e b748 351b c7bf
00000090: b11d 6893 6846 c4bf f33a bcf4 1239 cebf
000000a0: cb82 bad3 4b8a ccbf d006 926a 5fa5 d6bf
000000b0: 5fcb 30f3 fda5 c0bf e430 40de cf48 c9bf
000000c0: eb37 8541 6e1b 5b3f 0d89 a089 7164 c9bf
000000d0: 89d6 07d5 d993 dfbf ff14 7e9b 3d35 e3bf
000000e0: 3b81 4cf5 00df dfbf 1f4a 9fb9 2553 d9bf
000000f0: d106 b6aa c7cd dfbf 2103 0a30 7ae1 dbbf
00000100: 5682 ff39 90f2 c73f 7a0c 628b fbd9 a6bf
00000110: b680 b200 0f68 d7bf f8ad 2267 af28 e4bf
00000120: 2620 7c12 10b0 c1bf f404 d178 5fb7 8b3f
00000130: 8563 f9d3 efc2 d83f f994 f70e 2e09 d03f
00000140: dc5f 470a 46b9 dc3f e27d e775 bb46 93bf
00000150: df13 1172 6f5a e4bf cc94 db85 dc6f ddbf
00000160: 27b2 9c6a d20e b4bf 23d4 e780 3d5b eabf
00000170: 8afb 6f21 ce7d ddbf 5390 167f f8ac cd3f
00000180: a3fa 156e 95ef b33f 5546 554b 645b 8ebf
00000190: 1734 f28f 02c0 95bf 7d4d f803 3d08 dd3f
000001a0: 09cc fc07 8d9d a5bf a96e 0f4a 1adf 933f
000001b0: 4045 1d2b 577f e2bf d0c1 363e 312d 88bf
000001c0: 9e50 0a1e f226 bdbf 0021 7647 cdc4 e33f
000001d0: 9fda cd4a 5ff6 bd3f 5da8 0dae 187c c4bf
000001e0: 2a7e 86bc 98e5 893f 0395 2e60 db6b cb3f
000001f0: ec70 56cb 6c47 b63f e1a9 9787 c2f5 d23f
00000200: 2a01 1adf c312 d33f 745a 3efc 3cf9 a83f
00000210: 9fdd 8e6c 1e24 cc3f d991 ad62 1220 d33f
00000220: 391a 1b36 43ca ad3f 1726 3028 4e37 c03f
00000230: 1857 5b68 2ae5 6dbf 3c4b 9936 7934 aa3f
00000240: 1751 e3c8 50fe c9bf 44d3 1735 407e e43f
00000250: 543f 345a 7eb9 bf3f 4f21 3f04 06e7 cd3f
00000260: d2a3 c3ad 4d26 b73f 3431 9cdc 06c2 903f
00000270: 5838 858a 7bc5 da3f b69c 6dda d6a7 b33f
00000280: f554 3190 8345 eabf 4d4b 1a02 cdaa d93f
00000290: d225 d288 2da1 e33f 10fa c8e3 7310 e03f
000002a0: 0274 12b2 f38c d83f ccf1 0d86 ed01 da3f
000002b0: 06ce ed7a 4472 d43f 3546 2988 d3fa ddbf
000002c0: a1ec e446 a696 d6bf 98e2 3aed ecf4 d0bf
000002d0: d411 d174 7988 b53f 45e5 6de5 d651 e03f
000002e0: 4c93 6727 f45b e73f 2276 282b 25e9 d93f
000002f0: abc4 629d 8881 d6bf 4aa0 69a4 913f dcbf
00000300: d471 2f0d da2c dbbf 0864 3167 a423 d6bf
00000310: 8382 106c 332c c0bf fcc5 683a 2d01 d13f
00000320: 90c0 ad64 3b19 e43f 2499 b9ab 98ed c03f
00000330: 929d 8257 446d 58bf 6b69 5614 c4cd e6bf
00000340: 2a48 8176 a44a e1bf 5d60 fdcb c97e e03f
00000350: af75 61fd 3513 f33f d0ed bb0f e5db d33f
00000360: 4688 cc1e 1c7c 583f 985d a200 5b6d e03f
00000370: d778 7851 519c e13f ea85 eb00 23e3 e7bf
00000380: 78e0 743e 33b5 83bf cca9 cb65 8375 eb3f
00000390: 9588 4155 56f4 c03f 3d7f 80f3 6ab3 bd3f
000003a0: 45ac 37c4 bfe4 b13f b0d9 f1ef 41a0 863f
000003b0: 5f3e 43eb 6133 ea3f bede c972 fc04 d83f
000003c0: 8dc5 7815 ecd2 b5bf d297 ddc5 3139 dabf
000003d0: a436 35ce fe9f c3bf bf86 a383 332d e73f
000003e0: 917c aed0 992c bbbf 07c0 1504 172e e3bf
000003f0: 3209 3079 b367 d73f 035f 9fed 6a48 e1bf
00000400: 836b 35b7 ce89 d4bf 3383 93a1 8694 b7bf
00000410: 625b 5423 ebec d03f b296 cb9b b6c4 b4bf
00000420: 7a32 5b90 e784 8b3f 60ab 95f3 d54f d4bf
00000430: 73da 15b6 3ef2 a33f 5bd3 fb9b c98e d3bf
00000440: 8ec2 b88e b0c5 d9bf 4664 5ed6 e32a e4bf
00000450: 4b74 e635 5385 e3bf e761 d5e6 f172 dabf
00000460: cee9 84cc ddaf d0bf f45c b94c f03b e0bf
00000470: ca61 0e47 494a d8bf 0bfe 1ce3 d31f bcbf
00000480: ed92 e19d da62 bcbf 1a97 1518 6e27 d2bf
00000490: 0b1c 80a8 faa6 d4bf f015 1ecd 289c d1bf
000004a0: d1dd c09c a11f c0bf 4ffd ce06 f112 e0bf
000004b0: f7ea e2b8 0e82 d1bf c9f8 6f90 4e45 e6bf
000004c0: 0fef f46f 4947 b33f 37a8 5818 7994 dbbf
000004d0: f10c a35b 3b5c e2bf cf4b 281d a7ee c4bf
000004e0: ea9f 1638 a1fd d4bf cc0f 339b 94a4 b1bf
000004f0: f568 df59 03c0 e3bf a676 87f1 9845 e2bf
00000500: a2c5 6681 c91d dd3f 6274 c4d4 ff32 d0bf
00000510: 0aac 4761 7581 a6bf 4919 6778 224a e7bf
00000520: 2198 ca1e 5c74 b4bf 87ae 2222 ff50 be3f
00000530: a1b5 6904 3df0 d33f 87dc 52b5 d3fd 79bf
00000540: ada0 d69a 31de cabf ce63 b425 05de a3bf
00000550: 898c 9cab 32a0 a8bf 6523 ff3e cefb d1bf
00000560: 32c7 b748 4b20 c4bf dceb 7f9c d0c3 d0bf
00000570: 2415 2489 58c3 b33f a5bd f66c eb33 ccbf
00000580: e2fc 748a 2bc1 d03f 277a b32c cbf0 cb3f
00000590: 688f 6765 5141 cdbf 842c 6191 c457 99bf
000005a0: cee3 d8d0 66bc c2bf 1d27 5d88 af21 7abf
000005b0: 8ad7 52f6 0cb2 c5bf ebd8 fff8 6367 b73f
000005c0: 5274 ab5a 8a71 b23f fedd 2462 59cf de3f
000005d0: 6943 e240 a0b6 d23f 41f8 ecdb f552 cdbf
000005e0: d8c7 4553 7e41 ac3f 155d 9f81 37e7 903f
000005f0: ab4c e6e9 f575 bf3f 182f 0990 c288 db3f
00000600: 48f6 b5ef 591a d03f 63f8 286e 046f c43f
00000610: a503 fa19 fff9 db3f 1ff3 27f2 f252 d03f
00000620: f888 934c 8096 b43f 3062 4fea 06a8 c23f
00000630: 9812 56be 3883 cabf d64e 511f 8eae c7bf
00000640: 2240 bbc0 bc9a c2bf 327f acea 618a db3f
00000650: 9c41 0aa4 1e26 d03f 6276 d8d7 18b0 c93f
00000660: c4c7 c6fb bd5f bd3f f49d 5981 2e2a 95bf
00000670: 36f5 96c8 2ec8 c93f e9e8 facc db77 a0bf
00000680: 3ede df24 87ae ddbf bd3c b8f2 7b7b d03f
00000690: f8db 1c64 5fa9 c93f 1d61 dfc8 93f1 d63f
000006a0: b3e8 9e07 1b43 cd3f 9696 7118 ea0c bc3f
000006b0: 89aa 6d4d 93f1 da3f 6420 5786 4a77 ccbf
000006c0: 6e30 bff5 cb02 893f f8a8 73ea 6859 c43f
000006d0: 8e96 2ae5 120e b43f a5a1 53bd bb02 e33f
000006e0: 94b9 d8a1 557c da3f a910 c98a 4714 c53f
000006f0: a19e 517f d365 c3bf 9fdc 3eeb d330 e4bf
00000700: c6ce 5818 f46a c3bf 3977 ce34 d118 c5bf
00000710: 52bb ac33 fa90 93bf c574 2bcd 945a ad3f
00000720: 7f62 193e b408 e33f 7835 3058 571a da3f
00000730: c548 f0ba 551e e23f c21a 6ded cf58 c1bf
00000740: 3fc7 1e50 2356 cfbf c5c3 9d4d a716 dc3f
00000750: ce20 363f 5c4f ee3f 4dc6 b279 bfaf e53f
00000760: c4b2 2d7d c3a3 b73f 8bdf 4a9f 7cd6 c43f
00000770: 2ad0 504a 601a da3f aa3b 562a 2636 e6bf
00000780: 037e f423 0924 ccbf 3273 2661 21ca e83f
00000790: e602 4a22 4d7d da3f a1ac a2f6 1851 c83f
000007a0: 2306 2b1e acbf ce3f a801 6061 21b6 92bf
000007b0: c4b7 2ba8 c1fb d53f 8b1a 6da3 43ba d83f
000007c0: 7567 4c96 a469 e4bf 1faf 931e 2a2e d6bf
000007d0: 3c01 f881 c41e ccbf abb1 52f3 1215 db3f
000007e0: 7ba9 ff1c 6a76 c9bf c51a d2ce 1d51 edbf
000007f0: 4271 844c 4a4f c73f a7e9 b3f2 66f8 cfbf
-0.00520722947649207 -0.11158617298471901 0.03289902292739642 -0.05153406123395186 -0.08295313604707955 -0.1523876079721261 0.032707594377306096 -0.13694021738797915
-0.3552785201153473 -0.057078609878474185 -0.24961138119205903 -0.5674869464193043 -0.2953833339909348 -0.23773859431030905 -0.14658971742911447 -0.05395638800037889
0.28610641150290406 -0.18051782656265075 -0.15839869687645838 -0.23611676168407988 -0.2229704650717593 -0.3538435497976993 -0.1300656735853307 -0.1975345454415055
0.00165448920423072 -0.1983777925498277 -0.493399103200638 -0.6002491032565159 -0.49798606829610365 -0.395699912330345 -0.4969348113155379 -0.4356370419628082
0.18708994705140708 -0.0446318252225177 -0.36572623317807584 -0.629966451107463 -0.1381855097063191 0.013533349871183799 0.3868979997692395 0.2505602976001025
0.4488082027796716 -0.018824509688668452 -0.6360394695153636 -0.45995247909588666 -0.07835116484484016 -0.823637725609505 -0.4608035398995801 0.23184114652133533
0.07787450730936966 -0.014822753476127529 -0.021240272556088593 0.45362782848061284 -0.04221764299872894 0.019405756731301214 -0.5780444948269761 -0.01180494757758846
-0.11387551530271131 0.6177736659747382 0.1170405919673194 -0.16003712176035637 0.012644952061974985 0.2142290324820025 0.08702735866831163 0.2962499927658922
0.29802033221496294 0.048776536742640625 0.21985225964247676 0.2988325084354791 0.058183765749664614 0.1266877838354936 -0.00364931376212042 0.05118159095277128
-0.2030735951326583 0.6404114758466695 0.12392415716408084 0.23361277778009046 0.09042821399965753 0.01636515351769781 0.41830338027364666 0.07677977402419142
-0.8209855858100626 0.4010498543295185 0.6134250328333855 0.502008385555941 0.38360302343227215 0.40636766520745193 0.31947433476236176 -0.4684342221927154
-0.35294491694703295 -0.264949065847341 0.08411368467302022 0.5099901658096903 0.7299748201008724 0.4048550530877454 -0.35165610665996877 -0.4413799386588876
-0.4246125344050402 -0.34592542722163033 -0.1263489034327173 0.2656968183901822 0.6280800787335625 0.13225086579331802 -0.0014908950234174584 -0.7126179120271393
-0.5403616251517225 0.5154770836043202 1.1921901605304404 0.31029631172688443 0.0014944338428866263 0.5133490574252617 0.5503317443106209 -0.7464766519516932
-0.009622955649874351 0.85809488183923 0.13245658076181557 0.11601894802924746 0.06989668407884249 0.01104785455229948 0.8187722773527176 0.3753043290121062
-0.08524966739857671 -0.409740870693324 -0.15332017010444077 0.7242677279538937 -0.10614930481686914 -0.5993762092384721 0.36570441088419436 -0.5400900498452476
-0.3209111012599168 -0.09211007542354537 0.2644603581442678 -0.08112660697551169 0.013437089054968644 -0.3173727873569785 0.03895755741807685 -0.3055900595930347
-0.40269102037113036 -0.630235594452764 -0.6100250294435993 -0.4132656816705364 -0.26073403332307243 -0.5073167322651941 -0.3795340722949986 -0.10986065191990961
-0.11088339190025538 -0.2836566195677378 -0.32269159751052773 -0.275156212148743 -0.12596531061147556 -0.5023121960620446 -0.2735630803614834 -0.6959603138964435
0.07530650122947356 -0.4309370744473457 -0.5737587728293915 -0.16353310512258054 -0.3279803321588576 -0.06891754902886688 -0.6171890979124145 -0.5709957806936543
0.4549430621801439 -0.25311275270525446 -0.04395644009112949 -0.7277996398559391 -0.07990051032774705 0.11842341025720247 0.31153798514318437 -0.00634558390191054
-0.20990581570118164 -0.03880325398694816 -0.048097213219329644 -0.28099399711623213 -0.15723553705861942 -0.26195159228489984 0.07719949100654283 -0.22033446140765736
0.2617901661032659 0.2182859390513425 -0.2285558457507435 -0.024748870251908986 -0.1463745612871023 -0.006379781412599231 -0.16949617412108992 0.09142136410796169
0.07204498971573628 0.4814055880010243 0.2923966058379422 -0.2290942500930573 0.05518717543135637 0.016507022177248382 0.1228936859172786 0.4302221685982075
0.2516083565641094 0.15963797930629928 0.43713357483653176 0.25506280563404177 0.0804214655832175 0.14575277748987636 -0.20712956708679964 -0.18501450089626442
-0.14534720812525942 0.4303211967216952 0.25232664126908744 0.20068655528386886 0.11474215886008127 -0.020668722767735973 0.20142159265916754 -0.03216444852064788
-0.4637773380377189 0.2575368757542938 0.20048134220425573 0.3584947072645422 0.22861039993387564 0.10957205864687078 0.4209945922981793 -0.22239047584139648
0.012212365567300956 0.1589785713943639 0.07833974928743201 0.5940836618220159 0.4138387756855988 0.164681380049051 -0.15154498783816897 -0.6309604258193707
-0.15170146168531157 -0.164819861206462 -0.019107732204413815 0.057331705136428414 0.5948125088571742 0.4078577386106512 0.5662029887337431 -0.13552283375812207
-0.24481622135277267 0.43888266162599293 0.9471875414465332 0.6777036072655364 0.09234258466831152 0.16279561784699256 0.40785987145796077 -0.6941099955455361
-0.2198497224389798 0.7746741197075606 0.41389778469606 0.18997489969965378 0.2402243754677765 -0.0182728973086356 0.3434909956257537 0.38636866530979636
-0.6378958640591309 -0.346567659244771 -0.21968895288592616 0.42316125642789854 -0.19892622390700496 -0.9161519088237006 0.18210724579047094 -0.249768131739825

layers.0.bias f8 [128]
00000000: a9dd 015b a987 c0bf 4542 6c01 1ef9 d7bf
00000010: 68b7 0f34 2415 da3f f08e 7309 165b ca3f
00000020: a419 a248 ea02 b23f 2068 c724 cec1 d7bf
00000030: b55b e5ec b499 a5bf b20c e5ce f751 e13f
00000040: 3165 2b9c 2207 a13f bf1d 8f46 4df5 cb3f
00000050: b6a6 7c7b 79cc c63f 173d b247 da4b b03f
00000060: 9379 1cec 8c85 debf eb5f b930 e4d5 e1bf
00000070: 8b59 216c 201e c93f eac4 0451 f915 c43f
00000080: 99cc cd43 4f09 c83f 5b32 a11b 996b ad3f
00000090: 68ed 9445 4ee4 ce3f 37e5 44a7 4ae0 b03f
000000a0: 50d2 1857 36fa e23f 4ba9 9824 3d23 d1bf
000000b0: eb3f c480 ec97 c83f 6cf6 ca8c 8987 d3bf
000000c0: 1f46 0421 4322 c2bf 14e4 1db2 df0f dabf
000000d0: 63d0 7e69 addc a43f c830 386e 8dc1 c9bf
000000e0: 4c8a 384d 64f4 c2bf 0377 9b66 eaa8 d1bf
000000f0: a3ca e01a 35c0 d03f 3dbf 5207 3696 713f
00000100: b94e 9bb7 2f0b cebf 9008 f328 56ab c4bf
00000110: 8121 10bc 4046 c73f 5582 a3c5 fb8c b93f
00000120: 01e5 ef7d 0ca4 d73f 8acb 3003 3aa6 e4bf
00000130: 297f fb85 1742 debf 780d ad2e 94d5 ccbf
00000140: 3537 6a6d 2f39 c2bf 0ad1 8cab 8559 aa3f
00000150: 8e26 ec15 0b6c c9bf b5a0 715f 7884 c9bf
00000160: 0229 c2b9 6849 e2bf 08c7 f79d cf97 d0bf
00000170: bfc2 e054 6194 b2bf d29b e6be 562f debf
00000180: 54c0 7735 001c d53f 05b4 02e4 b55d d6bf
00000190: 1610 b229 f0aa e1bf c0a1 4068 b37b b3bf
000001a0: 17d8 a869 cc04 d73f 706a 0966 bdd9 d63f
000001b0: 5d46 0ff1 4a64 b6bf 58df 5632 7aef e63f
000001c0: 5bb7 02ac 7ccd e83f 527c 28de b3ba d13f
000001d0: 96de 5d64 e0b2 943f 5647 3b71 7696 84bf
000001e0: 9d60 7bd4 1f9f adbf 72ae 28de dfd9 e23f
000001f0: e230 fea6 9a9c de3f 9491 2910 3435 c53f
00000200: 48f6 95a2 62e2 813f 4f10 0af6 ca98 bd3f
00000210: 5fb5 e505 6f7b d63f 6714 8003 99aa c2bf
00000220: 7ccc 2dcd b34b df3f 9267 e4b0 f580 da3f
00000230: 8fcf 9e4b fb3a b7bf 7321 6313 38b0 c43f
00000240: 359b 43bc b5a1 c5bf 444e 3be9 eebe cbbf
00000250: 7e5a 6b06 9217 b0bf 62ae 4767 c404 c9bf
00000260: a9b1 533a 33bf d53f e123 750d aff4 b8bf
00000270: 9591 b9ef fa1b e7bf d424 8f80 99dd cb3f
00000280: c585 dc55 fe85 a5bf 2ddb e6c0 4d14 dc3f
00000290: 08ec 35c3 8241 c43f 0fa0 8a00 285f d43f
000002a0: 6c95 2dfe 87b3 b13f f889 98ce 790a dcbf
000002b0: dd29 195e 869c c5bf 4902 3391 1510 e8bf
000002c0: a2d2 6aca 6f45 903f 5189 cc82 9ef4 cb3f
000002d0: 41f0 29c6 5fa4 c93f 1a92 b60d bb86 c13f
000002e0: 8eb3 c5e2 ebc0 c1bf c750 64b6 161b c93f
000002f0: bb04 a1ed 95d8 cdbf bb5f 47a1 b21f adbf
00000300: 869a ebee bfe0 b2bf b801 9bbe 84c5 c03f
00000310: 45a1 8d19 a0c8 e03f 5af6 c9db 843c d93f
00000320: 2196 79d3 4d6e da3f 377a 5334 206a e6bf
00000330: 7b38 37bf a5e3 ca3f 6509 b526 9caf da3f
00000340: 48db 9906 cd5f e03f d21a 5449 8c3d d83f
00000350: bf9f cc9c c183 debf b2d9 8225 2988 c03f
00000360: cd07 f91e bb27 e0bf 9176 8bcc 6218 cabf
00000370: 4712 b1e4 41b5 b9bf fe6d 6d18 06d4 843f
00000380: 376f 6ccb b53a c53f 07f3 170c a2f4 dfbf
00000390: 0cde 9c57 9157 c8bf 162e 79d9 d1ae b23f
000003a0: f5c9 693e 0261 d9bf c588 b3bf 86e0 d2bf
000003b0: 8d9c b3ef 9dd5 603f bbea 3b1a 1e6c b53f
000003c0: c6d3 aa4f 616b b43f 05e1 36f5 0d0f d53f
000003d0: 296f 2271 14f9 b13f 4176 19ed 9ed4 d83f
000003e0: 063f 5152 5c5f c93f 9c4f bcda 8495 d73f
000003f0: 19be 45a3 097e b93f e078 a8d5 d855 e0bf
-0.1291400617953802 -0.3745799077887891 0.4075403698360476 0.20590472661489612 0.07035698197623802 -0.3712039336365951 -0.042188314359627034 0.541255859462032
0.033257562221204025 0.21842351861253737 0.17811506776461322 0.06365741968533133 -0.4769012742780429 -0.5573597861903158 0.19623189239309755 0.15692058998096253
0.18778410731065234 0.05746153318668653 0.2413423385386111 0.06592241843909084 0.5930434895622714 -0.26777580808506646 0.19213634765082985 -0.30514754056262094
-0.14167060005324658 -0.4072188605710505 0.0407461348799252 -0.20121925241290328 -0.14808324595022027 -0.27593479175799035 0.2617314112168662 0.004293643044704085
-0.23471638169450218 -0.16147877692680312 0.18183144743694515 0.09980748725093609 0.3693877439360023 -0.6452913343731421 -0.4727839287206615 -0.2252679088506786
-0.14237015574001935 0.0514642497932148 -0.19860971994812754 -0.19935516987175608 -0.571461069879007 -0.2592658083586774 -0.07257660219398597 -0.4716393341317914
0.3298340341707491 -0.3494696356454486 -0.5521164717069975 -0.07610627455927155 0.3596678764182583 0.3570397850468572 -0.0874678457760409 0.7167330725851384
0.775083862264846 0.2770204228890566 0.02021360981549821 -0.010052609758904357 -0.05785464733861654 0.5890960063019988 0.4783083563604703 0.1656861380498752
0.008732576929783367 0.11561268336123585 0.35128379417331773 -0.14583122893251074 0.4889955047321519 0.414121077295584 -0.09074373813819946 0.16162777849809692
-0.1689974946268308 -0.21676432026161951 -0.062859655921196 -0.19545798342675186 0.33979492851247045 -0.09748357847742241 -0.7221655542494313 0.2177001836519482
-0.04203791425812712 0.43873924100937495 0.15824923068780117 0.3183078770912297 0.06914567904967378 -0.4381393926179551 -0.168839260050233 -0.7519634090350077
0.015889879922456836 0.2184026850382659 0.20032879997222788 0.13692415399158692 -0.1386999947821121 0.1961391821465723 -0.23317216971375906 -0.05688245981917769
-0.07374190886512552 0.13102778727444586 0.5244904040419348 0.39431878532181985 0.41298242236948296 -0.7004548093789883 0.2100722488089025 0.41696838169095535
0.5116944436002564 0.3787565914248435 -0.47679176628525605 0.12915529567335465 -0.5048499684273736 -0.20386919963396058 -0.10042201836865515 0.010170028324572474
0.1658541911391411 -0.4993062131978125 -0.19017235544173194 0.07298003730209532 -0.3965459451202656 -0.2949540016253532 0.0020549854940444313 0.08368099346618411
0.07976349062921803 0.3290438551589577 0.07020690691063848 0.3879773440765782 0.19822267550852518 0.368500913247084 0.09957943187850339 -0.510479371357885

layers.1.weight f8 [100, 128]
00000000: 1d35 d099 e9ef aabf ed26 7b40 4f74 a63f
00000010: 7479 c99b 1ea5 9ebf 110b a64d 28cc b9bf
00000020: 79a7 0d63 4e22 be3f 13e5 b6c8 bcc6 873f
00000030: d569 0a81 7cfc b3bf 3d4e a8f0 52d8 bdbf
00000040: 0e7c 4865 ed81 bb3f 64db d8ac 9153 96bf
00000050: 12e1 178b a2af 9dbf 7900 69d0 6761 b13f
00000060: 5952 7839 4585 a23f a2c0 d700 b78e b23f
00000070: 42cc 8356 3d2b a53f 8e80 6ed7 476a a43f
00000080: 32fd 8d83 e197 abbf 4bed 741f a6d7 ad3f
00000090: 454a e983 988a 96bf 8fe9 05b6 7443 cbbf
000000a0: 3a62 d5f4 25e2 a6bf 53e1 49ba 4ce3 a2bf
000000b0: 44c9 68e8 8b8c bdbf 6332 d320 4482 c03f
000000c0: c894 faed d19a b83f f5d7 0c5c 5317 49bf
000000d0: f03b 77e6 0dc5 c13f ab26 bb97 90dc ae3f
000000e0: fd9a e0e8 790c 8bbf 48af be85 e97c bebf
000000f0: 8824 19bf bc6f b3bf 415b 8dd7 df02 b7bf
00000100: 28c7 454b 6da2 b0bf 3e8e db9f 981a 7b3f
00000110: a7ec 1e73 bdd7 ba3f b7e6 7c71 05cf c43f
00000120: 23a3 2608 365b 8a3f 86a0 5168 9dba 943f
00000130: 32d9 116e ad10 b03f 0752 8c28 0649 8cbf
00000140: 290d 3de8 b0b3 b1bf 70f7 7426 cd8b c93f
00000150: e97e 9e23 424b c4bf ee49 a892 3d3e 72bf
00000160: 68f7 290f 7c2e b3bf 6051 30ac 4d72 cf3f
00000170: 543d 8777 8163 b0bf 98af e017 363f d03f
00000180: 169e 5afa 9790 c4bf 8362 148e cb41 a73f
00000190: cbaa d727 d7c9 703f 75da e168 23d1 b03f
000001a0: 9d2d ef23 4af1 aabf ef52 fc8b 47d9 963f
000001b0: e36d f9e2 062a a4bf ecc2 79d9 5398 99bf
000001c0: 06f7 ed93 0a7c 583f e8f5 6122 bc73 bbbf
000001d0: b569 6af2 a567 ad3f 23f0 1851 8e24 b1bf
000001e0: fb92 7dfd 0ae3 bf3f dd74 6a3b 8039 85bf
000001f0: 0211 0d9b 4471 babf 6812 e5ea fc51 a13f
00000200: eeca 4ff1 90fd b0bf 08ce 6170 0a89 6f3f
00000210: 7a2f 7f8f fce0 94bf 3f1a 0df5 469d b13f
00000220: e737 0282 0036 9e3f 7479 bb87 949b bfbf
00000230: 361d f772 ad5a c9bf d749 636f 063a c03f
00000240: 954e 0d8f 853c b23f 777d 205a f532 b33f
00000250: 7a81 16ff 29fb 8e3f e0ac 4cc9 5e4e 9a3f
00000260: 869e 0c0d 6c49 94bf bb1c 62cf bceb b73f
00000270: e8d8 c1c1 bd1e 853f 27ef b3e2 eab2 a9bf
00000280: 4f96 f183 e189 bebf 5a4f 470e 7eba c4bf
00000290: 68f1 9bd0 b635 c0bf fef3 3d84 1f40 b0bf
000002a0: 908a 001f 38c4 c43f 44ed 1580 3d8c b3bf
000002b0: 57ce b8cf 842c ca3f dde1 9d41 466c 96bf
000002c0: 2114 ba3a 0162 b63f fdb6 93ee da31 c2bf
000002d0: 2e55 e3b9 1a7c b13f 0029 70b4 b019 9dbf
000002e0: b1eb 36e1 0a4c b0bf f3ea 3ef3 9085 963f
000002f0: 03c2 c323 48c7 b5bf e7de 1f26 2b9e 94bf
00000300: bf05 85de ae01 773f 7980 ec97 891b b1bf
00000310: c5b5 64a6 63a9 053f d0f9 c93f 66ed b2bf
00000320: 6229 9932 8a5d b1bf 91dc 306b f7de b43f
00000330: 6b16 c6a5 54bd c1bf 77c2 806e 32fb 97bf
00000340: fbc2 3991 9dd2 883f 31ee b042 57a6 babf
00000350: 86b7 0724 b0e2 89bf d613 b3b4 08c1 9e3f
00000360: 119e 62f0 60d9 c23f 8f9a dc6b 607a b13f
00000370: 7656 2f54 8777 98bf 3f07 1d67 4452 993f
00000380: adba a960 d340 973f 3615 a498 aa85 a1bf
00000390: b6ef 4a84 1263 b2bf 6895 3cf4 48d7 95bf
000003a0: b0ac 1e48 163e b2bf 2b70 63f4 9e05 b0bf
000003b0: 62fb 539e 66aa a93f 3357 e567 23f4 b3bf
000003c0: f979 76e0 50d5 96bf 70e7 c9a9 7ca4 9dbf
000003d0: 0ab9 7fe2 fe4a c23f cdf6 c166 79a6 a13f
000003e0: d824 697f cbd3 bdbf 0c10 dbf1 7038 a3bf
000003f0: a0eb 0b0f 3989 bf3f 6ebf 1b79 772a c23f
00000400: c537 bf37 9d76 c83f 0340 cd49 cc36 d73f
00000410: 0cf8 61ba 97f2 b4bf b739 cd95 1ed3 d03f
00000420: 6e89 727c 655d edbf 5248 3512 0e03 ae3f
00000430: e66a c161 0514 b0bf a88a 0a56 20d1 e5bf
00000440: 9ec2 6317 ca44 b93f 2233 919c 1a62 bbbf
00000450: eb48 1aa7 c5cf d13f bf19 831c ad35 b03f
00000460: d1d6 54a6 73ed b13f 4717 e7d5 34d8 c83f
00000470: 60b2 b76f f03b d23f 1bb9 b7fe 122a a5bf
00000480: 39e3 8321 99de abbf 3bd0 19d8 4cd5 e23f
00000490: c68e d8c4 19f1 e4bf 35a7 2d64 df58 cebf
000004a0: 27b6 65ae b51d dabf 62c1 aac3 ed32 b23f
000004b0: 1542 1f52 e7df afbf 1389 46b4 0f64 d8bf
000004c0: 0de2 39f4 586c bdbf 4650 bac9 ffa3 ea3f
000004d0: a3c8 3c32 89c3 bb3f caea 0e45 e0b6 b8bf
000004e0: f8df ef2c bffa d13f d3c6 d6bb dcbc e23f
000004f0: af2e 1a18 8464 c2bf 862f a460 9098 c5bf
00000500: 9fcb 2158 1c2e d6bf fb10 df88 90a2 bebf
00000510: 6320 e193 7a8c c13f 76b6 61e0 8bc2 c9bf
00000520: bd16 bcff 3817 d2bf 56c1 835f ec97 cc3f
00000530: 6222 4ff3 f8b1 f63f 8158 9cb5 0199 c53f
00000540: 0931 5fa8 4a3b c3bf abb2 fdcc f5a5 c1bf
00000550: b512 da03 aed7 9abf a418 b3b9 4aa9 a2bf
00000560: 6241 6785 fcbe e43f 9233 9e7c 4a46 d3bf
00000570: d207 49a6 e031 a2bf 8fa1 1f3d db1a d53f
00000580: 25df fd8d ff87 e83f e746 0f41 9890 da3f
00000590: b820 468c c5e6 e23f c574 276f 3c22 d5bf
000005a0: 0357 c10a 3a50 7abf 9580 62a9 4cc6 b6bf
000005b0: fb6a ad67 a497 cabf ab3f 97d5 e04b d8bf
000005c0: 8ade 3f87 3e2f c9bf 6d8d 5f4c ec3d c23f
000005d0: e443 d41a efa6 dc3f 0ab2 81d6 b6a2 e5bf
000005e0: 4403 70f8 ec26 a9bf 8419 d3a0 b8cd b5bf
000005f0: 704f 047e 4a7a ebbf fac7 4aa0 78dc bdbf
00000600: fe32 003e 2041 d53f 6687 5694 617e de3f
00000610: 3e8e 6456 8361 c63f 7a5a 246d cbb0 b2bf
00000620: 97fa 8ed6 d390 e03f 3a92 a9d2 dffb 9abf
00000630: 065e 10c7 0a79 92bf 5327 b584 a540 d23f
00000640: 225a d393 42b2 cb3f 7676 14ac 11b2 e13f
00000650: 8d9f 4f07 f2b2 d63f f412 3347 df97 aebf
00000660: 9a7c a58a 4d54 9b3f 35ab 2f5d f1a5 c93f
00000670: 1ca0 b669 1795 c4bf e291 c51c 0ae5 9bbf
00000680: 7f5e 9ab8 694c d1bf a062 06a1 07a4 de3f
00000690: 59d6 011f 416f a5bf 03e6 5887 cefe f0bf
000006a0: ef41 df0f 5411 dfbf b971 8330 f2e8 e0bf
000006b0: 9ef6 2563 8ed2 c3bf 0c94 bebb e749 d33f
000006c0: 0fa3 562c 4e71 b7bf c751 da20 fe9a b3bf
000006d0: 5950 d56c 8067 cb3f 0b45 1686 c1e4 c03f
000006e0: 0b66 2aad 8442 c8bf e008 3e7c 3867 f83f
000006f0: bfd7 a98b c896 b03f 05aa 0fcb fc7d d33f
00000700: acce 2737 e927 dc3f 1043 c7de f85c c33f
00000710: 9bb3 67b7 867f debf 1e1e a611 5b66 d53f
00000720: 1894 5928 548f dbbf 1ff9 bc11 46b1 ba3f
00000730: dccb de8f 71c4 be3f 610d a0c2 c65d 903f
00000740: 1b5a f74b 366b d1bf 2e3c 5002 7695 c53f
00000750: 2caa ba17 985a e83f 5ea2 09da 1299 c5bf
00000760: 1e70 7460 4aea e63f e4ba 3caa 8399 d9bf
00000770: 7ee6 1f27 daca e4bf 6a07 44ed ad11 c9bf
00000780: d24d d563 d9df ecbf d97c 52bd 42c1 bcbf
00000790: 4b16 fd23 2484 d23f 37b9 4997 27ea dabf
000007a0: 2ba9 da60 9977 df3f 6f19 570f 9052 b93f
000007b0: d096 8cb8 d86b c43f c720 27d6 eacc c3bf
000007c0: 92e9 52b4 c519 98bf b46c 0063 252b ddbf
000007d0: 8949 befc 992b d5bf 9e7e f627 2b68 dbbf
000007e0: da92 064a f1b0 d7bf 09a6 dceb 2cee edbf
000007f0: 5649 b946 4cd4 e0bf 19f7 00d9 f471 ebbf
-0.05261163714031112 0.043856121655677295 -0.029926756151661363 -0.10077144523351601 0.11771097105306962 0.011609530330007922 -0.07807138586432612 -0.11658209205079913
0.10745128367169363 -0.021803165602445232 -0.028990306605892142 0.06789254034174687 0.036173022523290306 0.07249015589309463 0.041345516978161814 0.03987335686474679
-0.05389313441173228 0.058285895671782294 -0.022013075877405325 -0.21299609077307166 -0.04469412435236504 -0.03689040922194189 -0.1154258196263856 0.12897540667326543
0.09611236629514786 -0.0007657200841097988 0.13882611993037086 0.06027652599511887 -0.013207390231469324 -0.11909350886588499 -0.07592372575267536 -0.08988760960106125
-0.06497843826016647 0.006617160977586743 0.10485443172994967 0.16256778756524223 0.012869283794161362 0.02024312924587026 0.06275447785614999 -0.013811157333784697
-0.06914811773190323 0.19957889917162275 -0.15854670275893248 -0.004453888434471127 -0.07492804880345505 0.24567576320317652 -0.06401833694620979 0.2538581116848433
-0.1606626484328763 0.04542385205622159 0.004098740054795778 0.065691197496429 -0.052622143637189846 0.02231323043732208 -0.03938313980753685 -0.024995145939501848
0.0014944175051989097 -0.10723472442074178 0.057431398240811594 -0.06696404914777125 0.12455815018399712 -0.010363580525615418 -0.10329083238054085 0.033828643487628096
-0.06636911288641631 0.003849525822312353 -0.020389505632734985 0.06880610926337115 0.029502876219844067 -0.12346771539475815 -0.19807975877322698 0.1267707866559948
0.07123598806838978 0.07499631357540247 0.015127494904675787 0.02568958381304476 -0.019811332985368434 0.09344081938808106 0.010312540507794357 -0.05019315736168855
-0.11929139586717351 -0.1619412965507035 -0.12663922487252965 -0.06347844103397901 0.1622381354691993 -0.07635864617434601 0.20448360579176736 -0.021897409205367303
0.08743293460618463 -0.1421464600493251 0.06829993284494115 -0.028418313038891974 -0.06366031645204263 0.021993889662307486 -0.08507204888497459 -0.02013461513703776
0.00561683948791497 -0.0668264385135461 4.1316369605897146e-05 -0.07393492753360609 -0.0678335546046234 0.08152719847645275 -0.13859041304037886 -0.023419178003850818
0.012120467180666497 -0.10410066011621023 -0.012639404391815889 0.030033241299651646 0.14725887048301492 0.06827356942504025 -0.023893465531577417 0.024727886956731778
0.022708227896539302 -0.03422291863720732 -0.07182422380259265 -0.021329059512159715 -0.07125987301576475 -0.06258576838030254 0.05012818033900747 -0.07794400488395752
-0.022298110675928105 -0.028947780478552898 0.14291368541257327 0.03447322253576388 -0.11651298390019649 -0.03753998710956816 0.1231876050696159 0.1419209805821952
0.19111981603640352 0.36271960456088 -0.08182667065008803 0.2628857100397925 -0.9176509314168422 0.05861705753581305 -0.06280549656495857 -0.6817781143657458
0.09870589324033083 -0.10696569750252796 0.27830640143032664 0.06331903406235194 0.07002947626900925 0.19409809536426278 0.28490839872282514 -0.0413366256651548
-0.05443266424294397 0.5885376187056929 -0.654431232895569 -0.23708717719574116 -0.40806333571421977 0.07108961131121341 -0.06225512387721125 -0.3811072597983564
-0.11493450129081158 0.8325194301601264 0.1084523914003364 -0.09654046712868616 0.2809293688619614 0.5855544728021534 -0.14369250466221703 -0.16871838301483083
-0.34656437498704834 -0.11966803876481784 0.13709957333253717 -0.20124958473336435 -0.28266739820569936 0.22338633216669262 1.418450308252567 0.16873189323149876
-0.15024693700105043 -0.13787720212294138 -0.026213377938364164 -0.036447844665916024 0.648313770821954 -0.3011652199718863 -0.035536785410399965 0.3297641846570735
0.7666013501429673 0.41507536271556805 0.5906703700757339 -0.33021460394759244 -0.006424166418659063 -0.088963309625344 -0.20775275289891923 -0.3796312414024167
-0.1967542801282785 0.1425147412220257 0.4476888429645085 -0.6761125745375136 -0.04912510426220831 -0.08517030645734819 -0.8586780987993574 -0.1166453734720391
0.3320999722935055 0.4764636944402042 0.1748508617248365 -0.07301017202949281 0.517679137286751 -0.02635144923478292 -0.018039863967798574 0.2851957126591646
0.21637756555601678 0.5529869423805411 0.3546719619175683 -0.05975244278082484 0.026688777530008957 0.20037667322261546 -0.16079991018091355 -0.027240903860176753
-0.270288877750751 0.47876158452121764 -0.04186442855363443 -1.0622086798670132 -0.4854326395989394 -0.528435797455635 -0.15486316529488858 0.30138581594866376
-0.09157265264969915 -0.07658375074453892 0.21409612001537218 0.13198107764450415 -0.18952997641899602 1.525200352975439 0.06480077180626063 0.30456466512865205
0.4399359739902404 0.15127478483056978 -0.47653358374264493 0.3343722984650145 -0.43062309208318217 0.10426748211918778 0.12018499147852374 0.015982728604297395
-0.2721687070710758 0.16862368691406132 0.76105885157205 -0.16873393675202214 0.716099918735839 -0.3999947702858846 -0.6497622265007548 -0.19585203252068634
-0.9023253393046906 -0.11232392427563144 0.2893152572108632 -0.42054166578499824 0.4916747518388031 0.09891605734364871 0.15954121600332494 -0.15469108063394385
-0.02353581345662687 -0.4557584254086564 -0.3307862251469023 -0.4282329454672239 -0.37017471531934876 -0.9353241545370007 -0.5259152776073204 -0.8576606977801219

layers.1.bias f8 [100]
00000000: c670 8df8 479e a2bf b47b f333 9614 b23f
00000010: e4fc 0044 cbfd 863f 0735 68ef 4a7a b9bf
00000020: a1e6 11de 9de8 86bf 6525 019e a617 c93f
00000030: d651 79dc c6ea a0bf 6dd5 ab2c cfa6 943f
00000040: 8324 654f 8844 ba3f 2661 80f9 3564 b13f
00000050: 89f0 e087 0ec1 943f 7c27 7e8e 3e7e b0bf
00000060: 3d30 d0af 4814 a7bf 1194 7cde 8aab 9e3f
00000070: 1244 db60 1673 b8bf d93a 09f1 10a2 a0bf
00000080: 6884 d707 7b5f a33f 5615 fdf2 c38f cbbf
00000090: 9931 31a6 f6d6 6a3f c110 a114 b5fa b2bf
000000a0: a656 166c f97f 9f3f 9686 0e82 1683 b03f
000000b0: b118 9e17 53e0 d13f 1208 f48d 0923 b23f
000000c0: 0137 b709 92b3 a03f ddae 116f 2a52 883f
000000d0: c995 a788 2317 c3bf c329 81ad 2f5e 9a3f
000000e0: eb54 b195 37e0 a63f 0c63 ea8b a832 c23f
000000f0: c38e 0439 d7ad c93f e258 15ae 997e c13f
00000100: 5c58 d67f 5e44 a0bf 41af baae e7d8 a23f
00000110: 5980 7751 d0e4 ae3f 7d49 59f3 e8b8 c0bf
00000120: 5cb5 16d7 fbd7 b6bf 89cb ae3e b8cf b5bf
00000130: 7c49 7d3c 2fca bc3f 8357 fc41 7ccf ccbf
00000140: d1ef 6a8e 8f5d 85bf 480e 0741 777d 963f
00000150: 8a7b 089d 1a7a a03f 40c0 eeb1 0cc7 92bf
00000160: 18e6 3177 74f9 b6bf c1d1 024c 99fc b93f
00000170: 0000 0000 ba35 b03f 129d f8a3 0983 a9bf
00000180: f5e9 7d50 9c6b a33f e340 d59c 0858 b1bf
00000190: 3cf6 398d 1ddf b43f 2e23 c94a 0e9b 53bf
000001a0: 1083 cf5d 2a7a 8cbf 97c3 c192 2283 ab3f
000001b0: d3f1 c941 1fe0 a1bf 7d52 1c08 13a6 923f
000001c0: 1e33 332d e67f cc3f f0cc 6a15 fc69 b03f
000001d0: 68f1 7dc5 8dbb bdbf 6ff6 4c06 de58 9d3f
000001e0: 2d2c a1e8 f956 97bf 0517 ddb8 01c1 afbf
000001f0: 819c 1f82 49a2 ac3f 83a4 e568 80a3 9c3f
00000200: 9334 1c57 f8de b73f 2dfb 6c8a aad8 7dbf
00000210: 1143 44b1 4c7f a63f 8dd4 651c d24a d23f
00000220: f753 67c1 5726 bb3f 69b7 6a38 0b49 a03f
00000230: e63f af6b a0a4 593f 27cc fd8f fb43 b7bf
00000240: 11f0 8852 2fdb 943f 0000 00a0 5709 a7bf
00000250: 796d 6ecd a237 c0bf 4d62 8839 67b3 c03f
00000260: 841d b78e 2f59 ca3f ea31 dbb0 626f b03f
00000270: 07e6 fe15 915a a9bf 469c 1a15 19a8 74bf
00000280: e367 de9f cd30 ac3f 59d9 fc48 4791 adbf
00000290: 89b7 7f62 ad1f bb3f efc0 ea30 d901 d33f
000002a0: 0757 a848 a3cc c0bf 22d7 ad79 1365 b1bf
000002b0: 5855 7178 00d6 b9bf 2d51 51e9 af94 a73f
000002c0: 8a40 6743 1b1b a8bf 4d5a 52c8 94c9 ca3f
000002d0: cdd0 c15a 49ed babf 4889 c2e8 a8a3 a7bf
000002e0: efbc 83c9 701d aa3f f75c dd37 0bfb ab3f
000002f0: 1184 0b62 2cfc 79bf b29d 93b7 bfdc 5f3f
00000300: 8391 cffc 3ccf 84bf 98b4 635d 168c 863f
00000310: d6dc 1e16 6660 71bf 3f1f f904 aa3f b03f
-0.03636383923614654 0.07062662857377583 0.011226261151135515 -0.09952228875063805 -0.011185868587051674 0.19603426661550852 -0.033041204846685865 0.020167576886668415
0.10260822237354898 0.06793534604401383 0.020267703097701904 -0.06442633608653908 -0.04507662912519137 0.029951257543093194 -0.09550609459553552 -0.032486466811510524
0.03783783407903557 -0.21532487263372485 0.0032763306967693137 -0.07413799050943039 0.030761620733378202 0.0645002429505673 0.2793166857376362 0.07084712711005661
0.03262001389121672 0.011875468744811208 -0.14914364025677987 0.025749916996838495 0.0446793909292554 0.14217097122016076 0.20061769756386214 0.1366760349289456
-0.031771615128648206 0.036811103896381876 0.060339460320165635 -0.13064300424828082 -0.08923315049351771 -0.08520080118505126 0.11246009089271597 -0.2250819513507701
-0.010432359250778152 0.021962989181487452 0.032181579274257535 -0.01833743892683537 -0.08974388036758574 0.10151060205209374 0.06331980228424072 -0.04982786299324905
0.03793037874762099 -0.06774953679019151 0.08152947137747274 -0.0011966361590955532 -0.013904887187835807 0.053734856047305594 -0.03491304090582372 0.018211648340257448
0.22265317160636128 0.06411719820862394 -0.11614309379178211 0.028659314283905276 -0.022792725394804748 -0.06201939946781291 0.055925652631963814 0.02796745910874111
0.09324600340569793 -0.0072867070910536515 0.04393996871852413 0.2858166959115998 0.10605381461876094 0.03180728019411456 0.0015651289565887737 -0.09088108315863562
0.020367373859912222 -0.04499315097928047 -0.1266978743632128 0.13047495183197313 0.20584673374672147 0.06419960801867544 -0.04951909440519491 -0.00504312322451656
0.0550598390247641 -0.05774901166880637 0.1059521069980446 0.2969878175454274 -0.13124505088551805 -0.067948548514178 -0.10092165890212834 0.046056267958791565
-0.0470818061618284 0.20927676946003473 -0.10518320527791332 -0.04617050019557439 0.051005863760900876 0.05464968735639702 -0.006344006892249802 0.0019447204816119665
-0.010160900559591074 0.011009382939358311 -0.004242323660881916 0.06347143765844708

layers.3.weight f8 [100]
00000000: 41a2 711f aeac ee3f 4b24 4ec7 9b62 eb3f
00000010: c0ac e625 5f10 ef3f 5013 8d4f 0788 ee3f
00000020: 410a c071 b8c4 ef3f 1d6b 4663 67a5 e83f
00000030: 83a3 7618 b0da f03f 8b20 1648 2bcc e33f
00000040: cdf9 1bf1 b650 f03f f81a 7092 9040 ed3f
00000050: 542a cc8e 0812 f03f c02b 8eb9 1190 f63f
00000060: f062 948a 4a25 ef3f 3330 1ed8 db31 ef3f
00000070: 4403 ce04 bdd0 ee3f 675f 86c6 c389 f13f
00000080: 6a43 3d9f 2610 ef3f 2326 189b 6ca4 f13f
00000090: 0872 d31c 108e ec3f 27af 5b35 cc3a f13f
000000a0: 0e5a 4bb4 422e ee3f c21a 00e4 136c e43f
000000b0: 4b4b ee7f 4784 e83f 59a7 a774 5b8e ef3f
000000c0: 4f24 b088 5027 f03f ae45 3a9b 70db ed3f
000000d0: 7408 5d62 df45 eb3f fd33 935d 2336 f13f
000000e0: dd65 1822 8b27 f13f 436d 7361 9944 ef3f
000000f0: fcde 1e88 adea ef3f 18aa cdce ad9a e63f
00000100: 632f 978a b369 ed3f 7516 edd2 fd9e f03f
00000110: d446 4d50 2bae ee3f e985 b4d7 84ef ef3f
00000120: e6a6 64e6 794b f23f 6224 1f30 cad2 ef3f
00000130: 96c6 d3f5 0a39 f03f 06d6 1383 e8a9 f43f
00000140: 58a4 cb99 b830 ea3f e6a8 bb4d b7c8 ee3f
00000150: 2258 321b e11f f03f b0a3 7111 bd8b ee3f
00000160: 5cb3 bf3d d7bb f03f a841 11dd 1518 f23f
00000170: 0000 0000 0000 f03f d324 e78d a62e e43f
00000180: b2db dfb8 33f9 ef3f def9 7398 65bc ef3f
00000190: dca2 fc8b ee5c ee3f b44e 1632 8979 f03f
000001a0: 2404 8eef 08ad f03f ae21 0d7a 0588 ef3f
000001b0: 30d1 5196 f27b ef3f b6bf 4ad3 474e f03f
000001c0: 78dd 62b5 993c f03f ba7f 97d3 0411 f03f
000001d0: 3024 6e32 8968 eb3f f69d 535d 1524 eb3f
000001e0: 43c4 8d14 7f69 f13f 3480 e55f 00cd ef3f
000001f0: 411c 45ff 64ed ef3f 315c 9571 d9f2 ee3f
00000200: 9e78 05cc 548a e23f 6b55 cec7 dc75 e83f
00000210: 5e5b 2621 7509 ec3f 6272 88e1 4257 ec3f
00000220: 0769 b588 ec0d f23f 249d a6c9 ba4e f03f
00000230: 0309 e722 e28d ee3f 6f31 89e0 f291 f03f
00000240: ba17 b53d 1fb3 ee3f 0000 0000 0000 f03f
00000250: f6db 11c7 b847 f13f b9ab 4ac7 57c8 ea3f
00000260: 5d4f 5284 5ed0 ea3f ca82 315a 7dae ec3f
00000270: 7ac1 5bcd 13fd ee3f 848e 7bc2 46a1 ed3f
00000280: 9c37 a694 e83d ec3f d408 3163 8b22 f03f
00000290: b0dc a48c ae4f f83f d1b7 0d0a 5ef7 ef3f
000002a0: 0b6d cb40 52a1 ee3f 38e0 89f0 7855 f03f
000002b0: 8751 cbd9 83a1 f13f 8057 d2a4 f241 ef3f
000002c0: b627 191f 3bc9 e83f 1489 bec3 3f2a ee3f
000002d0: 0338 4bc2 8a27 f03f f1a6 c380 cd1c f03f
000002e0: 1c92 a30d 69b5 f03f 6d07 96c4 6c93 ef3f
000002f0: 8bda 631f eb63 e93f f62c add6 9831 ee3f
00000300: 195f 52ed 4e57 f33f 0a60 1a84 2b7a e43f
00000310: 643e e42b 42c1 f53f b723 85ec 9b18 ed3f
0.9585791219843217 0.8557871716194624 0.9707484951262799 0.9541050485355331 0.9927637311632865 0.7701909007040261 1.0533905940630752 0.6186729820192495
1.019705716927649 0.9141314373126468 1.0044026926067504 1.410173153710943 0.9733021456368913 0.9748362752011474 0.9629807561724211 1.096133971679558
0.9707215414183399 1.102642637097582 0.8923416674620634 1.0768549045851132 0.9431470414518246 0.6381930783398604 0.7661473749779842 0.986127593843075
1.009598287522994 0.9330370933332028 0.8522793694649082 1.0757173209451587 1.0721541721198868 0.9771239188516251 0.9973971994977258 0.7063817061546755
0.9191529948088654 1.038816284113094 0.9587608879466765 0.9979881489745682 1.1434267997487324 0.9944811763645129 1.0139264681460296 1.2914815063680876
0.8184473995035075 0.9620014684890321 1.007783037411635 0.9545579281522034 1.0458595668853468 1.1308802257009152 1.0 0.6306946536580206
0.9991701708630585 0.991747663268878 0.9488442167394981 1.0296718555954785 1.04224484993052 0.9853541740240439 0.9838803230218556 1.019111466750457
1.014795025386631 1.0041549935631182 0.8565107331243151 0.8481547186647151 1.0882559588319658 0.9937745926836272 0.9977288232556775 0.9671447008539699
0.5793861374657074 0.7643875029049644 0.8761544845063829 0.8856520085278812 1.1283994045430192 1.019221103380752 0.9548197442711913 1.0356320162710195
0.9593654828283811 1.0 1.080010202041874 0.8369559185424499 0.837935694160915 0.896300007018078 0.9683932314783725 0.9259370611657265
0.8825571921640747 1.0084337114972657 1.5194535726457552 0.9989462086066344 0.9571925416488808 1.0208672901189981 1.101932383307117 0.9768002719090276
0.7745643241298612 0.9426573584680988 1.0096538152315595 1.0070319204191345 1.044289639737264 0.9867462005206399 0.7934470761382085 0.9435543244266273
1.2088155050641431 0.6399133281838669 1.3596822466387488 0.9092540378124941

layers.3.bias f8 [100]
00000000: 1e82 2655 30fe d0bf c285 3f1e 0bcd e73f
00000010: 8180 4c0b d879 cfbf bee6 b698 d3f8 d73f
00000020: 0a57 e18a 3769 c93f 65fc bc09 1eb6 d7bf
00000030: 8729 8d28 1082 cabf 93ef 9f35 f3a2 b43f
00000040: de8a 698d de08 bd3f 163e 489b c125 b53f
00000050: e587 02a9 f21e ddbf 6667 da0f 4de7 d03f
00000060: 4c37 421c 232c bc3f 7729 64a0 a22e c03f
00000070: f664 7245 2009 cdbf 728a 0f33 4d90 cd3f
00000080: d551 7db3 1b9d cebf 384b c140 beba b1bf
00000090: 4108 7b7a dcba ca3f 174f db6a c0b0 d3bf
000000a0: a09c 40b5 58d9 d3bf 12af f54c 07bc e2bf
000000b0: 2673 4034 9bad c8bf 8091 c50e e756 d53f
000000c0: b944 50d0 7ef9 d03f be9d a7f7 dfe7 d23f
000000d0: ae52 f9fc 0086 d5bf 5959 add2 017f ce3f
000000e0: b715 d276 e2d9 e03f 25b6 6dba abd8 d83f
000000f0: 1153 f523 9639 c6bf 0e7d 172e 6e16 de3f
00000100: fb55 5b2d 4ca6 d1bf 333e 2b36 6c52 acbf
00000110: 686e d820 860d d7bf 077d b37a 11c3 a53f
00000120: 791a 968a 0090 dc3f fadf 5428 1219 d73f
00000130: a287 43c6 8e09 b13f be80 b146 19a8 e33f
00000140: e07f 09a5 9dd0 cabf 6800 fed4 b747 ddbf
00000150: 1164 50d2 a2c6 d5bf f3ad 62de b45a c93f
00000160: f799 fb09 c01f e0bf 8c7f dcc3 d1e9 cabf
00000170: 836b 646b ce66 d7bf 656f 010e cdb7 d3bf
00000180: 287d 6075 287d d2bf b62b a29a f013 cbbf
00000190: 1d77 2f5e e6e9 a0bf 1221 19b6 5c33 d4bf
000001a0: 8f52 3dac 7ebc d63f f159 35ae 224c d7bf
000001b0: 9d73 8719 18ae d23f f779 ae5c 5342 d63f
000001c0: 9b2c a3e6 24a7 c93f 20eb b21d 5c59 ddbf
000001d0: 5f17 b31c 38d4 d6bf c52a e21a 8a97 b33f
000001e0: 6522 9cf1 9c9b d7bf b37c 5f88 badc d5bf
000001f0: c4ba 79aa dcb9 cb3f 9ed5 9cb6 0165 d7bf
00000200: c3d5 5739 696b d1bf 7ec0 32c6 964d d63f
00000210: 5f7d f792 8fd5 ba3f 263a f4ab f17d dd3f
00000220: e4f9 3947 1a4b 9c3f b4de 2509 c1b1 cb3f
00000230: aff2 a892 2867 c7bf c1fc ab6a 2b60 d4bf
00000240: 8668 96c8 6ac6 da3f 3cf2 06d0 7a5a dabf
00000250: 14c2 e6ea c9c3 c0bf 7812 16cb 05a0 de3f
00000260: e076 d55e 8d1e dcbf 5894 a457 464e cbbf
00000270: 4de6 5639 dda4 d4bf 5f8e ed03 546f d9bf
00000280: b9d1 d102 a996 c93f 9ec0 8574 9c98 d9bf
00000290: 682f ce7c 0ced d83f 6c58 a604 752b dfbf
000002a0: f92a 1113 19cc cb3f 7f4c bdca b489 d23f
000002b0: a51c 0359 bec0 c8bf a504 b9c5 3bf0 d83f
000002c0: 91fb d0fc 5649 e3bf 4332 3896 15d4 cabf
000002d0: 5cc4 4239 0180 8f3f 36d5 4f46 0f77 d8bf
000002e0: b1f6 11e9 d9c8 c7bf 4c04 7fd7 8528 d7bf
000002f0: 5a37 4c45 2509 d5bf 9b39 1c7a ecbe d03f
00000300: bed2 d8c5 587c a6bf d722 41e6 58bb e23f
00000310: 98b3 3e31 b6b7 d23f add9 5a89 1a15 d13f
-0.265514453081808 0.7437797156127817 -0.2459058814210984 0.37456216729661296 0.198523466885199 -0.370490560064303 -0.20709421138810688 0.08061142024229033
0.11341658546875119 0.08260736504620811 -0.4550139093863648 0.2641174940887282 0.11004847946079827 0.12642319518665676 -0.2268410052391016 0.23096623414228962
-0.23916956199776843 -0.06925572472509323 0.20882755260942257 -0.3076630633852217 -0.31014077854565336 -0.5854526999587242 -0.1927980427871258 0.333429111886538
0.26522798865432723 0.2954025190833497 -0.3363039465378205 0.2382509497353549 0.5265972443309498 0.38822453695215337 -0.1736324000909453 0.47011904240749025
-0.2757749979913055 -0.055316335308472374 -0.3602004357105444 0.04250387785736547 0.4462891915685883 0.36090520800234993 0.06655208912300606 0.6142698651056191
-0.2094914489598514 -0.4575023250581638 -0.34024878061751546 0.19808064325967187 -0.5038757510163226 -0.21026060164967608 -0.3656498001816361 -0.30809332244620286
-0.28888904059017984 -0.2115460162206923 -0.033034514424555385 -0.31563489707015535 0.35525481052653957 -0.36402194035090846 0.2918758630092329 0.34779819537098383
0.20041333448020712 -0.45857909107478356 -0.3567028312939921 0.07653105884871099 -0.3688728675338438 -0.3415972072379631 0.21660955738066978 -0.36553995927109806
-0.2721808490744843 0.3484856544046194 0.10482117975287995 0.4608120135534669 0.027630243871039087 0.2163621229808449 -0.18283564721231957 -0.3183697263447805
0.4183604201185819 -0.41177244486951614 -0.1309749981860625 0.47851700623167615 -0.43936476002805414 -0.21332625655591886 -0.32256250953250715 -0.39741993316258645
0.1999102844016656 -0.39993964556834694 0.3894683092882958 -0.4870274110229562 0.2171660750485314 0.2896549205663134 -0.19338206621452972 0.3896626883398063
-0.6027026117152322 -0.2095972999089942 0.015380868492089465 -0.382266825355447 -0.18581699257258813 -0.3618483166174584 -0.3286832024322074 0.2616530601962041
-0.0439174405586633 0.5853695389897337 0.2924628716380595 0.2669130650860108

layers.3.running_mean f8 [100]
00000000: 0500 0000 0000 0000 7a1f 2b1c bcac 5040
00000010: 0500 0000 0000 0000 0500 0000 0000 0000
00000020: 0500 0000 0000 0000 8aa8 4c7b 6068 5540
00000030: 0500 0000 0000 0000 c656 f0d3 aa1e 4640
00000040: a11d 082c 44be 5840 0500 0000 0000 0000
00000050: 0500 0000 0000 0000 e707 3bae b6f2 5440
00000060: 0500 0000 0000 0000 0500 0000 0000 0000
00000070: 0500 0000 0000 0000 2058 05c2 f43a 5c40
00000080: 0500 0000 0000 0000 0500 0000 0000 0000
00000090: 0500 0000 0000 0000 0500 0000 0000 0000
000000a0: 0500 0000 0000 0000 161c 8f19 7a75 5240
000000b0: 8acb 695d 4a67 4040 0500 0000 0000 0000
000000c0: 0500 0000 0000 0000 0500 0000 0000 0000
000000d0: 0500 0000 0000 0000 ae66 dc9e a12d 5740
000000e0: 86bb 7753 05d4 5d40 b1b0 57b5 2dcb 6140
000000f0: f466 f3ed 8cfd 3e40 f91a 9459 5082 4040
00000100: 0500 0000 0000 0000 2b23 8a4e 0245 5540
00000110: 0500 0000 0000 0000 0500 0000 0000 0000
00000120: 0500 0000 0000 0000 0500 0000 0000 0000
00000130: 0500 0000 0000 0000 7364 9b2f 532b 4040
00000140: 0500 0000 0000 0000 0500 0000 0000 0000
00000150: 0500 0000 0000 0000 0500 0000 0000 0000
00000160: 0500 0000 0000 0000 d029 adeb aab1 5a40
00000170: 0000 0000 0000 0000 2750 7524 8657 5440
00000180: 0500 0000 0000 0000 0500 0000 0000 0000
00000190: 0500 0000 0000 0000 0500 0000 0000 0000
000001a0: 0500 0000 0000 0000 0500 0000 0000 0000
000001b0: 0500 0000 0000 0000 0500 0000 0000 0000
000001c0: 8977 1883 4f5c 4d40 0500 0000 0000 0000
000001d0: 0500 0000 0000 0000 0500 0000 0000 0000
000001e0: 0500 0000 0000 0000 0500 0000 0000 0000
000001f0: 0500 0000 0000 0000 0500 0000 0000 0000
00000200: 8851 f7d8 bb77 4c40 5187 817b 460f 5840
00000210: 0361 a54f 51e7 5640 b695 3469 d442 3a40
00000220: 0500 0000 0000 0000 3bd5 bc3f 442d 4740
00000230: 0500 0000 0000 0000 0500 0000 0000 0000
00000240: 0500 0000 0000 0000 0000 0000 0000 0000
00000250: 632b db32 59fc 4840 98bd 024c 9921 5940
00000260: 7e76 0c7b 91d2 4740 752f 8f9e 9ea9 5e40
00000270: 0500 0000 0000 0000 0500 0000 0000 0000
00000280: 6f65 da14 bad2 5f40 0500 0000 0000 0000
00000290: c971 81fd 1f31 5f40 b866 9e55 e8b6 4c40
000002a0: 0500 0000 0000 0000 0500 0000 0000 0000
000002b0: 0500 0000 0000 0000 0500 0000 0000 0000
000002c0: 0500 0000 0000 0000 a720 bddc 88b6 4a40
000002d0: 0500 0000 0000 0000 0500 0000 0000 0000
000002e0: b1b5 3c4b 5115 4940 0500 0000 0000 0000
000002f0: b7ec af20 12dc 5040 0500 0000 0000 0000
00000300: 0500 0000 0000 0000 f0a0 396a d950 3e40
00000310: 1610 a493 8d85 6140 0500 0000 0000 0000
2.5e-323 66.6989813252566 2.5e-323 2.5e-323 2.5e-323 85.63088877187889 2.5e-323 44.239588253357894
98.97291088860085 2.5e-323 2.5e-323 83.79239993824704 2.5e-323 2.5e-323 2.5e-323 112.92118883630656
2.5e-323 2.5e-323 2.5e-323 2.5e-323 2.5e-323 73.83557738280828 32.80695693650985 2.5e-323
2.5e-323 2.5e-323 2.5e-323 92.71298953555626 119.31282507603291 142.34932963492386 30.990431663441043 33.0180770848437
2.5e-323 85.07826579561213 2.5e-323 2.5e-323 2.5e-323 2.5e-323 2.5e-323 32.3384761341812
2.5e-323 2.5e-323 2.5e-323 2.5e-323 2.5e-323 106.77605716619951 0.0 81.36756240326268
2.5e-323 2.5e-323 2.5e-323 2.5e-323 2.5e-323 2.5e-323 2.5e-323 2.5e-323
58.72117651648211 2.5e-323 2.5e-323 2.5e-323 2.5e-323 2.5e-323 2.5e-323 2.5e-323
56.93542015148256 96.23867690705562 91.61433783674515 26.261053634012306 2.5e-323 46.35364529342993 2.5e-323 2.5e-323
2.5e-323 0.0 49.971472126976344 100.52498150127064 47.64506471737421 122.65030635817477 2.5e-323 2.5e-323
127.29260751083142 2.5e-323 124.76757753029882 57.42896528467594 2.5e-323 2.5e-323 2.5e-323 2.5e-323
2.5e-323 53.42605170473808 2.5e-323 2.5e-323 50.16654339279501 2.5e-323 67.43860642604965 2.5e-323
2.5e-323 30.315817488736627 140.1735323147156 2.5e-323

layers.3.running_var f8 [100]
00000000: 0500 0000 0000 0000 1a5a a56a f362 3440
00000010: 0500 0000 0000 0000 0500 0000 0000 0000
00000020: 0500 0000 0000 0000 43a1 53d8 2b20 6a40
00000030: 0500 0000 0000 0000 a588 7a68 a52e 4440
00000040: 1f5e f783 dedc 5340 0500 0000 0000 0000
00000050: 0500 0000 0000 0000 2fbb df01 a113 4f40
00000060: 0500 0000 0000 0000 0500 0000 0000 0000
00000070: 0500 0000 0000 0000 471a bb11 29ad 4b40
00000080: 0500 0000 0000 0000 0500 0000 0000 0000
00000090: 0500 0000 0000 0000 0500 0000 0000 0000
000000a0: 0500 0000 0000 0000 7506 62a1 1798 6b40
000000b0: 1c34 5c6c a97a 4540 0500 0000 0000 0000
000000c0: 0500 0000 0000 0000 0500 0000 0000 0000
000000d0: 0500 0000 0000 0000 ec27 fb27 fc71 4340
000000e0: 9d50 4749 1ba9 4440 194b 0278 8b24 5f40
000000f0: f02e 1ebf 3ac1 4340 a04a 3f82 31be 5940
00000100: 0500 0000 0000 0000 a453 68eb c2ef 5040
00000110: 0500 0000 0000 0000 0500 0000 0000 0000
00000120: 0500 0000 0000 0000 0500 0000 0000 0000
00000130: 0500 0000 0000 0000 272a 367d e49a 4340
00000140: 0500 0000 0000 0000 0500 0000 0000 0000
00000150: 0500 0000 0000 0000 0500 0000 0000 0000
00000160: 0500 0000 0000 0000 0c1f d1ff c3ea 5940
00000170: 0500 0000 0000 0000 e323 e00f ed9c 6640
00000180: 0500 0000 0000 0000 0500 0000 0000 0000
00000190: 0500 0000 0000 0000 0500 0000 0000 0000
000001a0: 0500 0000 0000 0000 0500 0000 0000 0000
000001b0: 0500 0000 0000 0000 0500 0000 0000 0000
000001c0: 880b 23c5 660b 4840 0500 0000 0000 0000
000001d0: 0500 0000 0000 0000 0500 0000 0000 0000
000001e0: 0500 0000 0000 0000 0500 0000 0000 0000
000001f0: 0500 0000 0000 0000 0500 0000 0000 0000
00000200: 6b3d 5f51 652d 3040 ee3a 4f2d 081e 5740
00000210: fee7 9bb6 d963 5340 4f49 6da7 210a 5240
00000220: 0500 0000 0000 0000 dd8a ada9 ba6f 4940
00000230: 0500 0000 0000 0000 0500 0000 0000 0000
00000240: 0500 0000 0000 0000 0500 0000 0000 0000
00000250: 230a 2681 f750 5440 ca90 d9b1 27b0 5f40
00000260: fe55 b502 1f6a 5c40 a7a0 6dcb 07b9 5640
00000270: 0500 0000 0000 0000 0500 0000 0000 0000
00000280: 02d4 6f7a 818e 5940 0500 0000 0000 0000
00000290: 1842 e16c f7eb 5c40 9af4 695d 4007 6440
000002a0: 0500 0000 0000 0000 0500 0000 0000 0000
000002b0: 0500 0000 0000 0000 0500 0000 0000 0000
000002c0: 0500 0000 0000 0000 85fe ab1a 2e2b 3940
000002d0: 0500 0000 0000 0000 0500 0000 0000 0000
000002e0: f03e b58a 8aea 6840 0500 0000 0000 0000
000002f0: 3d83 02a3 4099 6540 0500 0000 0000 0000
00000300: 0500 0000 0000 0000 9010 b7e2 37c9 5d40
00000310: dfa8 1017 c5a5 5a40 0500 0000 0000 0000
2.5e-323 20.386526742333537 2.5e-323 2.5e-323 2.5e-323 209.00535217603655 2.5e-323 40.36442285521597
79.45108126790045 2.5e-323 2.5e-323 62.15335105347037 2.5e-323 2.5e-323 2.5e-323 55.352815834387506
2.5e-323 2.5e-323 2.5e-323 2.5e-323 2.5e-323 220.75288457055618 42.95829538824202 2.5e-323
2.5e-323 2.5e-323 2.5e-323 38.89050769580339 41.3211452100961 124.57101249908409 39.50960530256077 102.97177177601634
2.5e-323 67.74627194584042 2.5e-323 2.5e-323 2.5e-323 2.5e-323 2.5e-323 39.21009793419608
2.5e-323 2.5e-323 2.5e-323 2.5e-323 2.5e-323 103.66821284696579 2.5e-323 180.9039382341135
2.5e-323 2.5e-323 2.5e-323 2.5e-323 2.5e-323 2.5e-323 2.5e-323 2.5e-323
48.08907379351791 2.5e-323 2.5e-323 2.5e-323 2.5e-323 2.5e-323 2.5e-323 2.5e-323
16.17732723784631 92.46924908387493 77.56016316628663 72.15830407783982 2.5e-323 50.87288399671318 2.5e-323 2.5e-323
2.5e-323 2.5e-323 81.26510647501759 126.75242277380599 113.65814273556313 90.89110074716392 2.5e-323 2.5e-323
102.22665272637099 2.5e-323 115.68697664258832 160.22660704321316 2.5e-323 2.5e-323 2.5e-323 2.5e-323
2.5e-323 25.168672244063163 2.5e-323 2.5e-323 199.32941184424953 2.5e-323 172.78914022913696 2.5e-323
2.5e-323 119.14403598668491 106.59015442492408 2.5e-323
