model_policy_epoch-240.pt (torch, 373906 bytes, 28 tensors)

layers.0.weight f8 [128, 128]
0	0xbffa333eac25eacf	-1.6375109409843167
1	0xbfddf06f6d6bceca	-0.4678000038686433
2	0x3fbdc9f2055ae352	0.11636269217241349
3	0xbfcfd8977a82d7df	-0.2487973545264017
4	0xbfca997595dc311e	-0.20780820672406092
5	0xbfe1de5f49746631	-0.5583950457250407
6	0xbfd8802a97f27b8c	-0.3828226550921776
7	0xbff6db54a74a7cce	-1.428547528724994
8	0xbff1b87ac7fe8c13	-1.1075389683035197
9	0xbffc8a59447c63b8	-1.7837765383940063
10	0x3fa1b49195be0587	0.03458075478466598
11	0xbff7858f3876cdbc	-1.4701072888973234
12	0xbfe0d5335603ac25	-0.5260254554717717
13	0xbfd256f752d6aa59	-0.28655798997593745
14	0xbfecfa69705b758c	-0.9055678553083211
15	0xbfc085d325ae07e4	-0.12908400859674807
16	0x3fd2cd06ca1c8012	0.2937638257735681
17	0xbfe08cc7b4b844e2	-0.5171850709613433
18	0xbff28b5b3c4939c9	-1.1590225558207854
19	0xbfbf20c13c066f2e	-0.12159354892213223
20	0xbfb637d4b69f3a94	-0.0867894121031248
21	0xbff05577c30e9d6c	-1.0208661670129358
22	0xbfd0c1f57a990b4d	-0.26183831188625534
23	0x3fe95eb49357f224	0.7928107145122039
24	0xbff1c88b71556ede	-1.111461107930999
25	0xc006edd095409c8e	-2.8661204967825773
26	0xbff3ef707981e0c3	-1.245956873548537
27	0xbfee7369eae6fb85	-0.9515885913786951
28	0xc00292587f3bbecf	-2.3214578571422417
29	0xbf802ef72c45a15d	-0.007902079619001407
30	0xbff8480e78e262aa	-1.5175919267696067
31	0xbff04b7f3e864588	-1.0184318964350911
32	0xbff6623270e84fd9	-1.3989738855789169
33	0x3fb0c0443471a49e	0.06543375282639594
34	0xbfe0961711a01814	-0.5183215469594438
35	0xbff0ef55074f4d3d	-1.0584306989229184
36	0x3fd158ac07f8f304	0.2710371091705357
37	0xbfe0e734d7e246e2	-0.5282234398348147
38	0xbfed28ad00fcef91	-0.9112153071687193
39	0x3ff456dc35138da5	1.2712060998245331
40	0x3fe9355b067ba8b1	0.7877631308195047
41	0xbffb8c65cf5d284e	-1.721776781096668
42	0xbff4410930bcf055	-1.2658779052572033
43	0xbfd94a215847d924	-0.39514955159337917
44	0x3fedd8bd5f907886	0.932707487725353
45	0xbffb63c6ea954eac	-1.7118596232802856
46	0xc001798eb67448a4	-2.1843542341458306
47	0xbfb415de3682ad89	-0.07845867949315823
48	0xbff1e606a1035ba2	-1.118658665616501
49	0xbfe46c574ede2126	-0.63822522548529
50	0xc0106ca6efea801b	-4.1061055647733395
51	0xbffebca7c8d1a995	-1.9210584492198894
52	0xbfd1177aeb7c0a31	-0.2670581149724596
53	0xbfe2d7f80b559150	-0.5888633939144174
54	0xbfeb5b9f0e7bee45	-0.8549342425244012
55	0xc003f4b92a9a351a	-2.4944938019094822
56	0xbff7795a8433f3aa	-1.4671273388077943
57	0xbffba8c54c7b46ea	-1.7287037837563113
58	0xc002f4bf0dc60b55	-2.3695050312102617
59	0xbfff90bbd32843ca	-1.972835373719351
60	0xbff9843d692dd010	-1.5947851284554453
61	0xbfe6c70724115b3e	-0.7117953972291173
62	0xc0011ffe565ee0c7	-2.14062182881398
63	0x3fd453f20ac7aaeb	0.317623625304505
64	0x4000a66d474cacd1	2.081263119723737
65	0x3fd8f7e62702e5e0	0.39013055619906645
66	0x3fcbc89a4e0fabd0	0.21705941020567687
67	0x3ff4c522fa92d482	1.2981290615109917
68	0x3ff04938b71c2454	1.017876353524362
69	0x3ff235a5a3233f78	1.1380974171224505
70	0x3feca8ce5faf9e66	0.8956062191836736
71	0x3fb3d82d7b18bf02	0.07751735930719053
72	0xbfe08f84348a57af	-0.5175190950565048
73	0x3fee26f641d5e949	0.942256096444262
74	0x3febb6826c3523e4	0.8660289872578883
75	0x4000d11bdea53324	2.1021039384999245
76	0x400329dadfbbd025	2.395437000197506
77	0xbfe7300e68cf691d	-0.7246162459444211
78	0x3ffe3341aa347427	1.8875137947682192
79	0x3ff60e9d9b0242ea	1.3785682730705795
80	0xbfd04a48d6361ea2	-0.25453396720011245
81	0x3ffddd81c1d4c6d3	1.8665788241891519
82	0x3ffe6de90924f85b	1.9018335683063217
83	0x3fdf08a7fa261e64	0.4849033301220287
84	0x3fe6674745d1b6fd	0.7001072276741237
85	0x3fd86f15ff8f3869	0.38178014714220027
86	0x3fea062947a84514	0.8132521056706161
87	0xbfe260e902d57f53	-0.5743298583365494
88	0x3fe52cae836cb6dd	0.6617043082130426
89	0x3fe4b699a8a9b811	0.6472900671194585
90	0x3ffde4ccc52a9e8b	1.8683593465629282
91	0xbfd42d510e1311ff	-0.3152659070440506
92	0x3ffc535099937fe4	1.7703405379361294
93	0x3fb04da331513bc7	0.06368465379749387
94	0x4001e353d8f734fe	2.235999770206603
95	0x3fcb128dbdbba354	0.2115037132673715
96	0x400649e4c4c463ee	2.7860808727677897
97	0x3f9850c89c867ca1	0.023745665124462637
98	0xbfcb9438d84df080	-0.21546087800732394
99	0x3ffcdf4590ade24f	1.8045097018749805
100	0xbfba08c660e218d2	-0.1016963945895413
101	0xbfbab96e9d90cdf9	-0.10439196917359785
102	0xbfd79537b731a49f	-0.3684825219157321
103	0xc003a2774f683f71	-2.4543291286171827
104	0xbfe2e70b288e33bf	-0.5907035629367029
105	0x40005a7d81b645d7	2.0441846975088356
106	0x40046ce01146abc9	2.553161749810418
107	0xbfbd7f476adf1578	-0.11522337302365837
108	0xbf58d8850ee0f117	-0.0015164660831166793
109	0x3ffd59e9b1387705	1.8344513819387782
110	0xbfe6cb0d27d133d9	-0.7122865464858662
111	0xbfd668cc026e1a38	-0.3501462959033321
112	0x3fe36590f1104e3c	0.6061482151294011
113	0x3fef5e70c1713e5e	0.9802783754511883
114	0xbfd417e99270e801	-0.31395949650652716
115	0xbfc8b4392817eaa3	-0.19299997766195984
116	0xbfead93ac3d80979	-0.839017279155356
117	0x3fe01acda8863108	0.5032718936431886
118	0x3fdd99ee8ddecdfb	0.46252025465511765
119	0x3fc38a2b94a564d8	0.152654120999421
120	0x400227f4cd9e198a	2.2695098937867373
121	0x3fea6a7e57f881bf	0.8254996984651867
122	0x3ff394cd8055af95	1.223828793818915
123	0x4006a7d7e56729b8	2.831954757891449
124	0x400018133b1df175	2.0117554300797402
125	0xbff9cba7a47ccfd1	-1.6122204232496993
126	0x3fe4a86f2ba0f8fd	0.6455608226895319
127	0xbffcd68a6c4b5d5a	-1.8023781042337164
128	0xc0006b9545e0f4e1	-2.052530809333448
129	0xbff20515a9d86dbf	-1.126241363009157
130	0xbfdca06d5842a6bf	-0.44729169482398484
131	0xbfdb0770b72c6239	-0.4223291195681074
132	0xbfe2c881be368685	-0.5869759287927115
133	0xbff797b50f31d69e	-1.4745379060308674
134	0xbfe4b8d3825859a3	-0.6475617929270822
135	0xbfee2ebd8b55b2ab	-0.9432056161291106
136	0xbff054127558915e	-1.020525415785492
137	0xc002d7eda13faa43	-2.3554337117723505
138	0xbff6692132ad7e76	-1.4006664256666261
139	0xbff1c341fdafbc33	-1.110170355761295
140	0xbff576cfd012d8f7	-1.3415067794681457
141	0xbfe34fdaa6068b38	-0.6034978144346956
142	0xbff5d225d3292091	-1.3638056038344397
143	0xbfe051bd1a414588	-0.5099778664390877
144	0xbfe98371a30d1a73	-0.7972953972428755
145	0xbff08d474004adc4	-1.034491777488129
146	0xbff4ee52ed55d149	-1.3081845541865553
147	0xbfe50495571c9f84	-0.6568094922449608
148	0xbfde765ca5f5f219	-0.4759742375097474
149	0xbff060af5dc581ad	-1.0236047423314674
150	0xbfd901dc2c8aad43	-0.3907385287263489
151	0xbfea9032855455a1	-0.8301022152033292
152	0xbff9083fa7ac16bb	-1.564513831109635
153	0xc003ac427ab755c0	-2.459111174316348
154	0xbff4ee5407890cbb	-1.3081856054639462
155	0xbfcbf662d3453254	-0.21845660510952547
156	0xbffda853fbcef26a	-1.8535957180276008
157	0xbf7b23653298949e	-0.006625552466663324
158	0xbffb96edd7998d16	-1.7243479177348653
159	0xbfe0b35e4b6a7ad5	-0.5218955491034999
160	0xbff7600179df053d	-1.4609389076798174
161	0xbfeadb0ec62dbcdb	-0.8392404432942401
162	0xbfe7c1096ff228b0	-0.7423140703624735
163	0xbfedd7a6ef6ea8a2	-0.9325747181331006
164	0xbfe24593ed5a296d	-0.5709933887276698
165	0xbfe19e1541e97713	-0.5505472457259394
166	0xbff3d42d24f09894	-1.2393008654558217
167	0x3fd360815b8878cc	0.30276521624354014
168	0x3fa076c5ef2f1687	0.032156167456872935
169	0xbffaae7cf0c99a74	-1.6675996213686206
170	0xbfed800f48156948	-0.9218822868236112
171	0xbfe677b23bea13b4	-0.702111355800858
172	0x3fd64cf4e0526168	0.348447054924256
173	0xbff6bbab93f6ab2a	-1.42081792639028
174	0xbfe3ccc2c605a02c	-0.6187452190033631
175	0xbff0423055b5cffd	-1.0161593769125823
176	0xbfd8bf94ede3eb93	-0.3866932223460761
177	0xbff35a52043271e1	-1.2095508731791755
178	0xc01176f7953928a7	-4.366178828824707
179	0xbffcbd327ed1ac72	-1.7961907342785506
180	0xbfe49f269d585c00	-0.6444275925776992
181	0xbff1f0b97bc325d6	-1.121270640799016
182	0xbfd85d41f822e8e0	-0.38069199783389074
183	0xc003baaa8853c56e	-2.4661455774846024
184	0xbfdc76095d60c57e	-0.44470438116976385
185	0xbff4c7353db91df3	-1.2986347590502845
186	0xbffbad075a3529b9	-1.7297433398949649
187	0xbffcbe107112e7e5	-1.7964023987719824
188	0xbffc1cab117a8a6b	-1.7569990809212424
189	0xbfd5f0e2647e170f	-0.3428274136898474
190	0xc003758259e3c092	-2.432377531302401
191	0x3fe1f18e2f9ebea3	0.5607367448883064
192	0x3ff98f109bc8e140	1.5974279485072458
193	0x3fdabd212080c0d8	0.4177935426150845
194	0x3fc85dcb788a9e4a	0.19036239038290353
195	0x3ff30fb292437d52	1.1913324082778058
196	0x3fe646e712c5bfef	0.6961551062249763
197	0x3ff47c160439a552	1.2802944340749787
198	0x3fc345e2e9cd5dbb	0.15057026306270224
199	0xbfc6041ca150ee7d	-0.1720004832912884
200	0xbfd06e52f6fb486a	-0.25673364753050143
201	0x3ff71c681a25e5f4	1.4444352170379462
202	0x3ff3c85d4b66483e	1.2364170975966
203	0x3ffe505ef1b7b9e7	1.894621795854272
204	0x3ffa990f49cab1db	1.6623680956355347
205	0x3fb26a81c32503b3	0.07193766607544098
206	0x3ff929011e26a416	1.5725108316203253
207	0x3ff236c21cb78de3	1.138368713546577
208	0xbfd7360cf9fb264e	-0.3626739922734473
209	0x3ff7c0a6a6ea5347	1.484533931744595
210	0x3fef77b21cfe7dce	0.9833612982073932
211	0x3fd793a95679c50e	0.36838754124535533
212	0x3fe7a6e8c6ec70a5	0.7391246686197702
213	0x3fea2c7531705b54	0.817926975784625
214	0x3fd96490c2e5d05f	0.3967630294130284
215	0xbf7e4af5405b98f2	-0.007395704282066472
216	0x3ffa7a83e831f424	1.65491095257972
217	0x3fe9dfebb08da852	0.808584065275918
218	0x3ff490ed8f4f2daf	1.285382804681699
219	0xbfd83f31670970bb	-0.37885699331469497
220	0x3ff3157c2ba22eb8	1.1927453712877831
221	0xbfc000bbacf0b550	-0.12502237266873317
222	0x40012b8b84ac7c13	2.146262203706564
223	0x3fcd66f6bb979567	0.2297047058083692
224	0x40044280cdcd5432	2.5324722364698795
225	0x3fea9e93dfa49517	0.8318576210046186
226	0xbfd0e82f09b2eea0	-0.26417137095607224
227	0x3fe4a9594ece8618	0.6456724681085602
228	0xbfd6c096ca2f8bb9	-0.3555047010869959
229	0x3fb11ad2c416203b	0.06681554114595738
230	0xbfd5326240b6bf3a	-0.33120018310272636
231	0xbff3dee885e9b4ff	-1.2419209700559006
232	0xbfe25bac9209fc36	-0.5736906864475546
233	0x3ffc20fba872cfde	1.7580524997729223
234	0x3ff80bf88d900514	1.5029225854671653
235	0x3fdc675f68d27a7a	0.44380936848202845
236	0xbfdc92b9119c7300	-0.4464552566512765
237	0x3ff6b69f20011a4b	1.4195853471916446
238	0xbff433138f521a7b	-1.2624698255982867
239	0x3fd052fe698f67c1	0.25506553944216753
240	0xbff2654bc1fb3380	-1.1497304513352162
241	0x3fe8e01142608999	0.777351979868672
242	0x3fe69ffe8b340b97	0.7070305556120385
243	0x3fcec01a98014d3e	0.24023754522441182
244	0x3fb260c2c881e5b6	0.07178895373535607
245	0xbfd450d094f4d953	-0.31743254229094936
246	0x3fad1681bf52ee6e	0.0568123384523148
247	0x3f85dfdf8128068a	0.010680910233534808
248	0xbf88e111ad4e1096	-0.012148035146090568
249	0x3fd020d1ef024cbe	0.2520031770774941
250	0x3ff0344810403e86	1.0127640375903026
251	0x40014c6616fc8bfd	2.1623040958234
252	0x3ff8c7c86f8e19fb	1.5487751348133532
253	0xbff2b29d0583903c	-1.168606778658627
254	0x3ff3912c4c1a0015	1.222942635795339
255	0xc00236a7ff00114d	-2.2766876146216988

layers.0.bias f8 [128]
0	0xc006af554bf52eef	-2.835611909313108
1	0xc00794bd8e0f5a67	-2.9476271723208813
2	0x4002b40db6c0e394	2.3379167821517033
3	0x3fdd7eedddd34606	0.4608721414816447
4	0x3fe57cf05a648b0d	0.67150132803758
5	0xc0003360ac9c8d10	-2.025086735274847
6	0x3fef77b116433194	0.9833608088315935
7	0x40023536d179f35b	2.2759834637967464
8	0xbfdc11471a681bb9	-0.4385545499684969
9	0x3fb6a37a6a059f58	0.0884319790690119
10	0x3febf7a443942193	0.8739796943564663
11	0x3ff8bcc65ecb508b	1.5460876181505536
12	0xc00b9fa47be2f2b9	-3.4529504469522547
13	0xc00013a3d3f124ae	-2.0095898206678475
14	0xbfe46a6f70d2fb38	-0.6379925922009084
15	0x4008661c29a5e16b	3.0498584035632823
16	0x3ffe1d635c71b4ed	1.8821748362636825
17	0xbfd2ab8d0828c0d6	-0.29172063633724343
18	0x4003bbe0a9bc33f2	2.4667371044692965
19	0xbfe282945e909ed7	-0.5784398886653105
20	0x3ff22a217fe94ad2	1.1352858540091586
21	0xbfea7db233720427	-0.82784376190114
22	0x3fd0cbfa7dbb5e51	0.26244985846048957
23	0xbfba751d9c61ae03	-0.1033495432654306
24	0x3ff5c27543577ca0	1.3599751120125703
25	0xc006237211281940	-2.7673074093210346
26	0x3fec65ac473d127a	0.8874112502458751
27	0x3ffc599211bfd475	1.771867818196623
28	0xbff357c3f6ca9b96	-1.2089271202364436
29	0xbff5b4182378c03c	-1.3564683328259113
30	0xbff9f1629d2c0a94	-1.6214319362194702
31	0x3ff4073ba4877812	1.2517658640786107
32	0x3fe378160a8f7794	0.6084089475877925
33	0x3fc76720ff503218	0.18283474413364398
34	0x3fe8131ae84feea1	0.7523321664188708
35	0x3fcbb1253f6c2788	0.21634355160523122
36	0x4002595a0c2e3e0b	2.29362878337975
37	0xc00b08577a9b0e4d	-3.379073102814607
38	0xbff01b08653391e8	-1.0065998032742929
39	0xbffa9b62acfb44fa	-1.6629359013643907
40	0xbf653b35794ca714	-0.0025917095575963642
41	0x3ffac9d3fcc52707	1.6742744325478627
42	0xbff94316825cbfe0	-1.5788788883473828
43	0xbfea1c8ca3eb0218	-0.8159850312732173
44	0xc003116db83a693e	-2.383510054857793
45	0x3fc10d9ed40b96f4	0.1332281623246484
46	0xbfcbd08ce87ba58a	-0.2173019538088677
47	0x3fd5bc93a7b0bdab	0.3396348130799775
48	0xbfcd97bd693558f8	-0.23119323384407386
49	0xbf8d5db4128a841b	-0.014338881316975407
50	0xc007d195787097eb	-2.977335873542861
51	0x3fdbeae7d74eb35a	0.4362125017749371
52	0x3ff777354ff58934	1.4666035769847214
53	0x4001eb91315d3efb	2.2400230270940233
54	0xbfebd96864c92adc	-0.8702890366051537
55	0x3ff343fbbc9afddf	1.20409749673842
56	0x400019b3f18cf700	2.012550246347814
57	0x3fdf2dc526a043b0	0.48716858646462935
58	0x3fa4e14a0a53d8f0	0.040781320343670546
59	0xbfb5bba82fdfa866	-0.08489466828146561
60	0xbff96892d6bab013	-1.588030661378984
61	0x400043968162af3f	2.0330019100419174
62	0x3ff625d6e381fc69	1.3842381369611536
63	0x3fe9b82bca8b9d50	0.8037318187679521
64	0xbff0531b8d50b3ec	-1.0202899475218556
65	0x3fc5968105fd2e66	0.1686555175059425
66	0xbff2908131d49bd3	-1.1602794596199046
67	0x3ff61e55be185ca0	1.3824059892265623
68	0x3fe1f8f2bcb7fcd9	0.5616391836082598
69	0x400280ed3fa99525	2.3129525159480573
70	0xc002d018a5662814	-2.351609508686133
71	0x3ff4da032ed704e7	1.3032256917652434
72	0xbff983fdc3953370	-1.5947244300798182
73	0xbfecf825358f9aea	-0.9052911802399113
74	0xc0019cf43ea1b58e	-2.2016377347087603
75	0x40011e048383529a	2.139657046742582
76	0xbfd6631f717388ac	-0.34979997710446287
77	0xbfd3156595249079	-0.2981809574578232
78	0xbff55b15f9ef0aef	-1.334737755111458
79	0x400077e0ac4d74e1	2.058533998597895
80	0x3fe42c5c2ff947d2	0.6304150521266314
81	0xbfe57023a329f57a	-0.6699388682169876
82	0x40000e8eb548e49c	2.007108131682413
83	0x3ff3aba727eab674	1.229407459187681
84	0x3ff1dd1325beb803	1.1164733385480765
85	0xbfdb3e2459d0905a	-0.42566784640280775
86	0xbff4ab188432a9e4	-1.291771427534166
87	0xbfff53efe5fd13a3	-1.9579924568108502
88	0x40000bddef2ed408	2.0057943998494956
89	0xbffdeac3fea44a85	-1.869815821356185
90	0xc002c65c8d1c9ae5	-2.3468562149385996
91	0xc0017cc776aeda2e	-2.185927321635311
92	0xc0032040220c4760	-2.3907473239896007
93	0xbfdfe4f44b72f765	-0.49834926002573915
94	0xc0037168b05ed2d9	-2.4303754595697282
95	0xbfe71aaf2de71d5b	-0.7220073601282978
96	0xbff71c0cf6bff32a	-1.4443483008064484
97	0x3fe1c6b7eede3ee8	0.5555076280015472
98	0x40013b3fb5a09db0	2.153930109943495
99	0x3fdaaa39ca576210	0.41663975486656657
100	0x3fe6d4df2e9ed532	0.7134853277736168
101	0xc00e21b8ed9a569a	-3.7664660036778743
102	0x3fead8db4f2d0ecf	0.8389717623144523
103	0xbfec9cb382371402	-0.8941285651459341
104	0x4000a4194edfa093	2.0801263963695162
105	0xbfe46ed5ade86657	-0.6385296246182389
106	0xc0024a2993373bfb	-2.2862121106368227
107	0xbfe13e57e4841c4d	-0.5388602698520885
108	0xbfd99ae87e5a79a8	-0.4000798448486429
109	0x4000ef8c572f001d	2.1169668971269986
110	0x3ffe154b7106a8df	1.880198899753445
111	0xbffa9655c985e997	-1.6617029067989273
112	0x3fde61d5be518372	0.47472137056143204
113	0xbff3c196a84b8d78	-1.2347628187206663
114	0xbfeb24957ae77065	-0.8482158089132211
115	0x3fe3d97a3a614b31	0.6202975406871244
116	0xbfdd8160a160820f	-0.4610215736338725
117	0xbff2abe73fb60c4c	-1.1669685829845262
118	0x3ff7357394ab8ba9	1.4505496795106672
119	0xbfc24254a262b848	-0.14264924935327117
120	0xbff89ded98740cda	-1.5385566668708663
121	0x3fe8363a1a31ec82	0.7566195022221935
122	0x3ff3b1426a2b821f	1.2307762286437833
123	0xbfdcc7b65f548b0a	-0.44968947705835716
124	0x3fd4e1bf89b677b2	0.32627857635986424
125	0x3ff16b203557d2a9	1.088653763171502
126	0xbfd3602db09a9b6d	-0.30274526831129017
127	0x3fdd1b3ee002782f	0.4547879397958949

layers.1.weight f8 [100, 128]
0	0xbfaaefe999d0351d	-0.05261163714031112
1	0x3fa6744f407b26ed	0.043856121655677295
2	0xbf9ea51e9bc97974	-0.029926756151661363
3	0xbfb9cc284da60b11	-0.10077144523351601
4	0x3fbe224e630da779	0.11771097105306962
5	0x3f87c6bcc8b6e513	0.011609530330007922
6	0xbfb3fc7c810a69d5	-0.07807138586432612
7	0xbfbdd852f0a84e3d	-0.11658209205079913
8	0x3fbb81ed65487c0e	0.10745128367169363
9	0xbf965391acd8db64	-0.021803165602445232
10	0xbf9dafa28b17e112	-0.028990306605892142
11	0x3fb16167d0690079	0.06789254034174687
12	0x3fa2854539785259	0.036173022523290306
13	0x3fb28eb700d7c0a2	0.07249015589309463
14	0x3fa52b3d5683cc42	0.041345516978161814
15	0x3fa46a47d76e808e	0.03987335686474679
16	0xbfab97e1838dfd32	-0.05389313441173228
17	0x3fadd7a61f74ed4b	0.058285895671782294
18	0xbf968a9883e94a45	-0.022013075877405325
19	0xbfcb4374b605e98f	-0.21299609077307166
20	0xbfa6e225f4d5623a	-0.04469412435236504
21	0xbfa2e34cba49e153	-0.03689040922194189
22	0xbfbd8c8be868c944	-0.1154258196263856
23	0x3fc0824420d33263	0.12897540667326543
24	0x3fb89ad1edfa94c8	0.09611236629514786
25	0xbf4917535c0cd7f5	-0.0007657200841097988
26	0x3fc1c50de6773bf0	0.13882611993037086
27	0x3faedc9097bb26ab	0.06027652599511887
28	0xbf8b0c79e8e09afd	-0.013207390231469324
29	0xbfbe7ce985beaf48	-0.11909350886588499
30	0xbfb36fbcbf192488	-0.07592372575267536
31	0xbfb702dfd78d5b41	-0.08988760960106125
32	0xbfb0a26d4b45c728	-0.06497843826016647
33	0x3f7b1a989fdb8e3e	0.006617160977586743
34	0x3fbad7bd731eeca7	0.10485443172994967
35	0x3fc4cf05717ce6b7	0.16256778756524223
36	0x3f8a5b360826a323	0.012869283794161362
37	0x3f94ba9d6851a086	0.02024312924587026
38	0x3fb010ad6e11d932	0.06275447785614999
39	0xbf8c4906288c5207	-0.013811157333784697
40	0xbfb1b3b0e83d0d29	-0.06914811773190323
41	0x3fc98bcd2674f770	0.19957889917162275
42	0xbfc44b42239e7ee9	-0.15854670275893248
43	0xbf723e3d92a849ee	-0.004453888434471127
44	0xbfb32e7c0f29f768	-0.07492804880345505
45	0x3fcf724dac305160	0.24567576320317652
46	0xbfb0638177873d54	-0.06401833694620979
47	0x3fd03f3617e0af98	0.2538581116848433
48	0xbfc49097fa5a9e16	-0.1606626484328763
49	0x3fa741cb8e146283	0.04542385205622159
50	0x3f70c9d727d7aacb	0.004098740054795778
51	0x3fb0d12368e1da75	0.065691197496429
52	0xbfaaf14a23ef2d9d	-0.052622143637189846
53	0x3f96d9478bfc52ef	0.02231323043732208
54	0xbfa42a06e2f96de3	-0.03938313980753685
55	0xbf999853d979c2ec	-0.024995145939501848
56	0x3f587c0a93edf706	0.0014944175051989097
57	0xbfbb73bc2261f5e8	-0.10723472442074178
58	0x3fad67a5f26a69b5	0.057431398240811594
59	0xbfb1248e5118f023	-0.06696404914777125
60	0x3fbfe30afd7d92fb	0.12455815018399712
61	0xbf8539803b6a74dd	-0.010363580525615418
62	0xbfba71449b0d1102	-0.10329083238054085
63	0x3fa151fceae51268	0.033828643487628096
64	0xbfb0fd90f14fcaee	-0.06636911288641631
65	0x3f6f890a7061ce08	0.003849525822312353
66	0xbf94e0fc8f7f2f7a	-0.020389505632734985
67	0x3fb19d46f50d1a3f	0.06880610926337115
68	0x3f9e3600820237e7	0.029502876219844067
69	0xbfbf9b9487bb7974	-0.12346771539475815
70	0xbfc95aad72f71d36	-0.19807975877322698
71	0x3fc03a066f6349d7	0.1267707866559948
72	0x3fb23c858f0d4e95	0.07123598806838978
73	0x3fb332f55a207d77	0.07499631357540247
74	0x3f8efb29ff16817a	0.015127494904675787
75	0x3f9a4e5ec94cace0	0.02568958381304476
76	0xbf94496c0d0c9e86	-0.019811332985368434
77	0x3fb7ebbccf621cbb	0.09344081938808106
78	0x3f851ebdc1c1d8e8	0.010312540507794357
79	0xbfa9b2eae2b3ef27	-0.05019315736168855
80	0xbfbe89e183f1964f	-0.11929139586717351
81	0xbfc4ba7e0e474f5a	-0.1619412965507035
82	0xbfc035b6d09bf168	-0.12663922487252965
83	0xbfb0401f843df3fe	-0.06347844103397901
84	0x3fc4c4381f008a90	0.1622381354691993
85	0xbfb38c3d8015ed44	-0.07635864617434601
86	0x3fca2c84cfb8ce57	0.20448360579176736
87	0xbf966c46419de1dd	-0.021897409205367303
88	0x3fb662013aba1421	0.08743293460618463
89	0xbfc231daee93b6fd	-0.1421464600493251
90	0x3fb17c1ab9e3552e	0.06829993284494115
91	0xbf9d19b0b4702900	-0.028418313038891974
92	0xbfb04c0ae136ebb1	-0.06366031645204263
93	0x3f968590f33eeaf3	0.021993889662307486
94	0xbfb5c74823c3c203	-0.08507204888497459
95	0xbf949e2b261fdee7	-0.02013461513703776
96	0x3f7701aede8505bf	0.00561683948791497
97	0xbfb11b8997ec8079	-0.0668264385135461
98	0x3f05a963a664b5c5	4.1316369605897146e-05
99	0xbfb2ed663fc9f9d0	-0.07393492753360609
100	0xbfb15d8a32992962	-0.0678335546046234
101	0x3fb4def76b30dc91	0.08152719847645275
102	0xbfc1bd54a5c6166b	-0.13859041304037886
103	0xbf97fb326e80c277	-0.023419178003850818
104	0x3f88d29d9139c2fb	0.012120467180666497
105	0xbfbaa65742b0ee31	-0.10410066011621023
106	0xbf89e2b02407b786	-0.012639404391815889
107	0x3f9ec108b4b313d6	0.030033241299651646
108	0x3fc2d960f0629e11	0.14725887048301492
109	0x3fb17a606bdc9a8f	0.06827356942504025
110	0xbf987787542f5676	-0.023893465531577417
111	0x3f995244671d073f	0.024727886956731778
112	0x3f9740d360a9baad	0.022708227896539302
113	0xbfa185aa98a41536	-0.03422291863720732
114	0xbfb26312844aefb6	-0.07182422380259265
115	0xbf95d748f43c9568	-0.021329059512159715
116	0xbfb23e16481eacb0	-0.07125987301576475
117	0xbfb0059ef463702b	-0.06258576838030254
118	0x3fa9aa669e53fb62	0.05012818033900747
119	0xbfb3f42367e55733	-0.07794400488395752
120	0xbf96d550e07679f9	-0.022298110675928105
121	0xbf9da47ca9c9e770	-0.028947780478552898
122	0x3fc24afee27fb90a	0.14291368541257327
123	0x3fa1a67966c1f6cd	0.03447322253576388
124	0xbfbdd3cb7f6924d8	-0.11651298390019649
125	0xbfa33870f1db100c	-0.03753998710956816
126	0x3fbf89390f0beba0	0.1231876050696159
127	0x3fc22a77791bbf6e	0.1419209805821952
128	0x3fc5d3d9acde056d	0.17052765789780314
129	0x3feb3e411f0b40f7	0.8513494116141648
130	0xbfc95aa89ec7f028	-0.19807918313006323
131	0x3fdba4ca562f4e88	0.43193300644382093
132	0xbfe49ae438521b90	-0.6439076519026106
133	0x3fe12d7b616d7f82	0.5368019965062418
134	0xbfe6512d08d49bed	-0.697409169432715
135	0xbfec28aea23f0e45	-0.8799660843728324
136	0x3fada0e1f3399805	0.057868061962651075
137	0xbfd514828da39447	-0.3293768294518639
138	0xbfd1b5cb0e5c849a	-0.2767207756279021
139	0xbfc1be268e9ff14e	-0.13861543621158962
140	0x3fef19cf2b979434	0.9719005443008712
141	0x3fd2d3c7d25a6ea9	0.29417605917272255
142	0x3fa7ff57cff1288f	0.046869987615154256
143	0xbfd383261c5d7b2f	-0.3048796917918705
144	0x3fb201d3f9457564	0.07034039340711257
145	0x3fdc4cf32f391c49	0.44219665156964943
146	0xbfdd492b3dcebf20	-0.4575908759679681
147	0xbfd2f43062d4f48c	-0.2961541142611359
148	0xbfe5a4a1192ac608	-0.676346348909818
149	0xbf9048a7d7fc5ac5	-0.015902159269070255
150	0xbfc6fe2e813ef378	-0.1796320086558827
151	0xbfdf56f16d1d1e18	-0.48968158393515315
152	0xbfc618b7be24215a	-0.17262932571635298
153	0x3fe8076ad25033d3	0.7509054286653004
154	0x3fd5312f73c1e103	0.3311270361368914
155	0x3fa7e363df5caf22	0.046656723991274754
156	0x3fd3db1cbd04a6c5	0.3102485509758533
157	0x3fcb12bc3c2eb480	0.21150925577731883
158	0xbfb9e8c878a02d19	-0.10120823807681169
159	0xbfe009573186646e	-0.5011402098927087
160	0xbfefe69f6e0b0ba1	-0.9969021939544868
161	0x3fb9e7356c07172b	0.10118421447176888
162	0x3fd9a840c2bd2ebc	0.4008943464038841
163	0x3fc5ed48e1f35016	0.17130385430084577
164	0xbfeb83e74ff9d621	-0.8598515092878111
165	0x3fe748b11368da5e	0.7276234988301657
166	0x3ffbe28566dbba4a	1.7428030031111512
167	0x3fd5ae2673fc6a6f	0.3387542851138851
168	0xbfd4af59a54572db	-0.3232025255181676
169	0xbf994669a7c031f2	-0.024682665694898583
170	0x3f81f958af3aa58d	0.008776371810500528
171	0x3fb9159f62965aaa	0.09798618466298117
172	0x3ff322a7247593dc	1.1959601806822695
173	0xbfb746413f881881	-0.09091575432839429
174	0xbfdbe1bc6b116edb	-0.43565283256405757
175	0x3fd2564c60caf686	0.2865172333948539
176	0x3fe64a44a3b8499d	0.6965659330037856
177	0x3fd5e52a49a528a7	0.3421121329489644
178	0x3ff2696a0f4114ed	1.1507359119289575
179	0xbfeb609d74c0af6a	-0.8555438309026446
180	0xbfe90f8138e9fe82	-0.7831426726915682
181	0x3fd44768b92e0484	0.31685846408806406
182	0xbfb13745745f5dc6	-0.06724962321401681
183	0xbfe7a5101ed0be1e	-0.7388992883551884
184	0xbfecbffe93d7b9b0	-0.898436821704129
185	0x3fc493304e3288cb	0.1607418424437753
186	0x3fed3b7eed2fc5fb	0.9135126717139309
187	0xbfd0daff4cb44cd8	-0.26336653223661477
188	0xbfa8ae71160c3060	-0.04820588487754729
189	0xbfef5c41e120768d	-0.9800118824966418
190	0xbff0ee9a8c76383b	-1.0582528578556907
191	0x3f75b8bd0d35dcaa	0.005303133471321756
192	0x3fddfc9961098309	0.4685424277904962
193	0x3fe23448a93de89c	0.5688823037628654
194	0x3fb75fe339bc63a9	0.09130687865798727
195	0x3fa6444947271f01	0.04348973268093737
196	0x3fe1ff6b14b0123b	0.5624289897974174
197	0xbfc8b1b4c2475693	-0.19292315946829727
198	0x3fddaf8d4cd351e9	0.46383984091269653
199	0x3fd1fd0d4ab5f250	0.2810700635525665
200	0x3fd738d684c6572e	0.3628441139820663
201	0x3fd753eac595519c	0.36449689193002555
202	0x3fe9ae21b47adb6e	0.802506306171251
203	0x3fbdf2c72b2b528c	0.11698574832855452
204	0xbfbff851058d59d1	-0.12488275895643787
205	0xbfc279e163424d91	-0.1443444952643458
206	0xbfe363a5a2774495	-0.6059139416849059
207	0xbfe233a23ddb8937	-0.5688029487758176
208	0x3fb6e0649a4da556	0.08936146514101515
209	0x3fe12e89774cef36	0.5369307832802181
210	0x3fd122390dc9db70	0.2677137980130544
211	0xbff904185517c8fc	-1.5634997676793878
212	0xbfdb5304c3d7676c	-0.4269420540346036
213	0xbfaa70e548dd1f30	-0.05164257540178452
214	0x3fbf9175e8146c1d	0.12331330219278454
215	0x3fb1629e50251f19	0.06791104752221279
216	0xbfcfaac88c0c8433	-0.24739939535450758
217	0xbfd5ab6b6bc02ade	-0.33858762285733046
218	0x3fe08acd651ad598	0.5169436430648373
219	0x3fdad9d7b65e333f	0.4195460587441637
220	0xbfd12dbe5132cf38	-0.26841695718325154
221	0x3ff189e4002cf496	1.096164704023328
222	0x3fcdd25b7affa719	0.23298209672730577
223	0x3fe139ffc3574dbe	0.5383299651388638
224	0x3fe08e5dcde0aace	0.5173787137076375
225	0x3fb8bc3119f6dbb1	0.09662157901662628
226	0xbfd4809ea3f15432	-0.3203503228190271
227	0xbfc1665d884a53f9	-0.13593644289781517
228	0xbfecd6c5752928f7	-0.901217202024127
229	0x3fe530f8d78bee3e	0.6622280321020708
230	0x3fd14868201701c9	0.27004435666824783
231	0xbfdcc5dd5f806b96	-0.4495767052300662
232	0xbfddecc4adddbfab	-0.4675761888420264
233	0xbfc521cf88be89b4	-0.1650943200775835
234	0x3ff91777ca1785ac	1.568229474469585
235	0xbfdc9d4f5d71eade	-0.44710144162642773
236	0x3ff3816df6384d75	1.2190990083662119
237	0xbfdd0d290f8976a4	-0.45392824666292086
238	0xbfff6f3c182afd50	-1.9646569198665311
239	0xbfe5032782bb01d8	-0.6566350510911958
240	0xbfd66eec06458f6d	-0.35052013981316216
241	0x3fe084ae6b59a6e2	0.5161964508708616
242	0x3fd4808b13efec62	0.32034565875046017
243	0xbfd0c1c320dd9977	-0.2618263073876714
244	0x3fe208e1c707a2a1	0.5635842215825343
245	0x3fa49a48c4e660ab	0.0402395954471911
246	0x3fc8bfe869134cf2	0.19335656290659348
247	0x3fc49bc37749fa0a	0.16100352596909345
248	0x3fd33069cecd22fc	0.29982991404953885
249	0xbfe8478df838d188	-0.7587346885762125
250	0xbfc8e0c6a1fca747	-0.19435961637037222
251	0xbfe9afe4738b0f65	-0.8027212387755581
252	0xbfb898529f858b71	-0.09607426065990211
253	0xbff85e1a5b6f5f53	-1.5229743549043249
254	0xbfc71f51420f8bf5	-0.18064323163625287
255	0xbfe9b8f3a9c6815f	-0.8038271251607901

layers.1.bias f8 [100]
0	0xbfa29e47f88d70c6	-0.03636383923614654
1	0xbfd1ee2ad85135d9	-0.2801615822289399
2	0x3f86fdcb4400fce4	0.011226261151135515
3	0xbfb97a4aef683507	-0.09952228875063805
4	0xbf86e89dde11e6a1	-0.011185868587051674
5	0x3fe23b2098fac0a2	0.5697176921730895
6	0xbfa0eac6dc7951d6	-0.033041204846685865
7	0x3fcfe147a47bd9e8	0.24906249553141824
8	0x3fb6397889606889	0.0868144355194166
9	0x3fb16435f9806126	0.06793534604401383
10	0x3f94c10e87e0f089	0.020267703097701904
11	0xbfb0b7ee4baf3e9c	-0.06530656192557632
12	0xbfb3a303ee2c91ee	-0.07670616688535123
13	0x3f9eab8ade7c9411	0.029951257543093194
14	0xbfb8731660db4412	-0.09550609459553552
15	0xbfd75c24a957b597	-0.36499897515644747
16	0x3fa35f7b07d78468	0.03783783407903557
17	0xbfcb8fc3f2fd1556	-0.21532487263372485
18	0x3f6ad6f6a6313199	0.0032763306967693137
19	0xbfb2fab514a110c1	-0.07413799050943039
20	0x3f9f7ff96c1656a6	0.030761620733378202
21	0xbfc2f51497a1d8ed	-0.14810426143566904
22	0x3fc2811fc53640bc	0.14456555490006007
23	0x3fa416ce1aa57b6d	0.039236489060150294
24	0x3f555937741c040c	0.0013030091799353131
25	0x3f88522a6f11aedd	0.011875468744811208
26	0xbfc3172388a795c9	-0.14914364025677987
27	0x3fb550cef75fcbad	0.08326428927811831
28	0xbfb13cd56f814886	-0.06733449909487108
29	0xbfd4599cda815f2a	-0.31796952570356274
30	0x3faaf5345c66be8b	0.05265201213785272
31	0x3fcecc4937cc39e4	0.24060931419849318
32	0xbfa0445e7fd6585c	-0.031771615128648206
33	0xbf4ab72ed4fbc034	-0.0008152941390715597
34	0x3f9dcbee625f4fa6	0.02909824824730802
35	0xbfc4c2f626eb5332	-0.16219975376466206
36	0xbfb6d7fbd716b55c	-0.08923315049351771
37	0xbfbdf17ceabe77fc	-0.11696606379561553
38	0x3fae1f2620d03f40	0.058831397538709584
39	0xbfdae57d69e4dc3d	-0.42025695172509697
40	0xbf9c43d93fe8bc0e	-0.027602571988776296
41	0x3f967d7741070e48	0.021962989181487452
42	0x3f62657e6d930bb1	0.002245661668525988
43	0xbfc304d5054b601f	-0.14858496435658794
44	0xbfb6f9747731e618	-0.08974388036758574
45	0xbfac3ea4053259f3	-0.05516541064678284
46	0x3fa027fd0d700b4e	0.031555087938633805
47	0xbfe61937b78889c2	-0.690578325713709
48	0x3fa36b9c507de9f5	0.03793037874762099
49	0xbfb979c788fc91d1	-0.09951445669555105
50	0xbfc9ca8c852f2412	-0.20149380210048712
51	0xbf539b0e4ac9232e	-0.0011966361590955532
52	0xbf8c7a2a5dcf8310	-0.013904887187835807
53	0x3f9682759764b291	0.021982037892643694
54	0xbfa1e01f41c9f1d3	-0.03491304090582372
55	0xbf845196e8144e90	-0.009921244580744643
56	0x3fd8310ad5ec0eb4	0.37799330607252135
57	0x3fa0b341c9eba691	0.032617622278690146
58	0xbfbdbb8dc57df168	-0.11614309379178211
59	0xbfa38a68ef0f056f	-0.0381653587169336
60	0xbfe3d461ed9cb0f3	-0.6196756020413247
61	0xbfb4cb8d54f30f79	-0.08123095821343708
62	0x3f99423e59b569f9	0.024666761613255848
63	0x3f9ca38068e5a483	0.02796745910874111
64	0x3fc30260cb2eefb6	0.14851007386266496
65	0xbfc20fa1e2d994eb	-0.14110206200272243
66	0x3fd130d66a75f37b	0.26860580822522423
67	0x3fd945516425cde6	0.3948558309559459
68	0x3fbb2657c16753f7	0.10605381461876094
69	0xbfcb7024ecde4935	-0.21435987058482345
70	0x3fedbc4a9833bd5d	0.9292347881982256
71	0xbfcca50693a5d113	-0.22378618440019035
72	0xbf871ebac291893a	-0.011289080679664044
73	0xbfa70957a0000000	-0.04499315097928047
74	0xbfd1c10025e39132	-0.2774048204430698
75	0xbfcbd35d5338cb69	-0.2173878342014988
76	0x3fc13c126e3c310e	0.13464575178694144
77	0x3fdbb057aa91f4f6	0.43263808877220755
78	0xbfa95a9115fee607	-0.04951909440519491
79	0xbf8e7d5ecfa3bc1a	-0.014887562476785066
80	0xbfc6d91de8f97922	-0.1785008800097297
81	0xbfad914748fcd959	-0.05774901166880637
82	0xbfbf6375bde1e281	-0.12261138807105888
83	0xbf62b16f19ea9fb3	-0.0022818727441808683
84	0xbfc0cca348a85707	-0.13124505088551805
85	0xbfb38e3d5857481f	-0.0763891544986852
86	0xbfc0dc537d4456da	-0.13172381989050203
87	0x3fd2e4c4f3776089	0.29521297241218086
88	0xbfb42b7517fada34	-0.07878810725637991
89	0x3fb5fcf5eef8e4cd	0.08589112362178071
90	0xbfbaed495ac1d0cd	-0.10518320527791332
91	0xbfa7a3a8e8c28948	-0.04617050019557439
92	0x3fd03752a9edd50e	0.2533766421759801
93	0x3f97726d4977730b	0.022897441491170272
94	0xbfdf3c89521b4e22	-0.4880698491881238
95	0x3f5fdcbfb7939db2	0.0019447204816119665
96	0xbfbc7fe0ccd8640b	-0.11132626534562477
97	0x3fd46bc32f5b2129	0.3190772974453631
98	0xbf7160666e5a2e77	-0.004242324944822343
99	0x3fb03faa04f91f3f	0.06347143765844708

layers.3.weight f8 [100]
0	0x3feeacae1f71a241	0.9585791219843217
1	0x3fedcf7f39431fd4	0.9315792196657591
2	0x3fef105f25e6acc0	0.9707484951262799
3	0x3fee88074f8d1350	0.9541050485355331
4	0x3fefc4b871c00a41	0.9927637311632865
5	0x3ff935ca271c3046	1.5756322410334334
6	0x3ff0dab01876a383	1.0533905940630752
7	0x4005858ace98a7c3	2.6902061596237856
8	0x3ff762b75d80de69	1.4616006519771878
9	0x3fed409092701af8	0.9141314373126468
10	0x3ff012088ecc2a54	1.0044026926067504
11	0x3fd1ad7d47e94099	0.27621395132610754
12	0x3fee213d819e51f6	0.9415576488123054
13	0x3fef31dbd81e3033	0.9748362752011474
14	0x3feed0bd04ce0344	0.9629807561724211
15	0x3ffa3352953dbcca	1.637529929135598
16	0x3fef10269f3d436a	0.9707215414183399
17	0x3ff1a46c9b182623	1.102642637097582
18	0x3fec8e101cd37208	0.8923416674620634
19	0x3ff13acc355baf27	1.0768549045851132
20	0x3fee2e42b44b5a0e	0.9431470414518246
21	0x3fdd7806af036024	0.46045081225520534
22	0x3fe5f0043d73034b	0.6855488968068156
23	0x3fee8b2c10471253	0.9544887845918971
24	0x3fef4a970112f98f	0.9778552075365939
25	0x3feddb709b3a45ae	0.9330370933332028
26	0x3feb45df625d0874	0.8522793694649082
27	0x4005b0ec55a6b417	2.711388272428404
28	0x4002b16628271029	2.3366206299706573
29	0x3fe477febee68345	0.6396478394054631
30	0x3feeef5f341f200d	0.9667202013015427
31	0x3fe51f80f0cb4647	0.6600956633576026
32	0x3fed69b38a972f63	0.9191529948088654
33	0x3fe240a19640d70a	0.5703895506510162
34	0x3feda9f95173266a	0.9269987669769766
35	0x3feeeb8ebbfd0567	0.9662545844695786
36	0x3ff24b79e664a6e6	1.1434267997487324
37	0x3feecf0ecbeb2033	0.9627756102354453
38	0x3fe605d84f022a8d	0.6882134955534
39	0x3ff4b79b7d479d54	1.2948260205974593
40	0x3fe92cc322a57577	0.7867141415296562
41	0x3feec8b74dbba8e6	0.9620014684890321
42	0x3fef3b94380ed2ec	0.9760228247529006
43	0x3fe8fdd1c9bce885	0.7809838237947281
44	0x3ff0bbd73dbfb35c	1.0458595668853468
45	0x3fecc974ad8639cf	0.8995917691370837
46	0x3feefbf52af22928	0.9682565535343075
47	0x3fc95152f2acf353	0.1977943119944948
48	0x3feff933b8dfdbb2	0.9991701708630585
49	0x3feeb82dce06aea1	0.9599827789256389
50	0x3fe98e7a7747df92	0.7986423806860208
51	0x3ff0798932164eb4	1.0296718555954785
52	0x3ff0ad08ef8e0424	1.04224484993052
53	0x3fee840c77385f3a	0.9536192253608313
54	0x3fef7bf29651d130	0.9838803230218556
55	0x3ff0bdb39419cf38	1.0463138375461778
56	0x3ffc528b49e6305b	1.7701523672758614
57	0x3fef1e4e4d7da01d	0.9724494470110617
58	0x3feb6889326e2430	0.8565107331243151
59	0x3fee42b22ef1f0d1	0.9456416050811872
60	0x3feb9ea0b95e5576	0.8631137485960341
61	0x3fef12a1b099d2db	0.9710243653522314
62	0x3feee931e81cd354	0.9659661801766597
63	0x3feef2d971955c31	0.9671447008539699
64	0x400411357a16e891	2.508402780365096
65	0x3ff178589ad0e4cb	1.0918813750743535
66	0x3ff8532e8f547fbb	1.5203080748396889
67	0x40082e12875bcd7b	3.02249627827558
68	0x3ff20dec88b56907	1.1283994045430192
69	0x3ff510cc3c8fa4a5	1.3166010251682476
70	0x3ffd177843b0bed7	1.8182299274594038
71	0x3fe40960f89d09d3	0.6261448722582891
72	0x3fedaf5eba4a4cc6	0.9276574743729717
73	0x3ff0000000000000	1.0
74	0x3ff0c3c46fe097ee	1.047794758816504
75	0xbfaab0bf74e6edec	-0.05212972929026791
76	0x3ff69bf3ebad2ed6	1.4130744176972505
77	0x3fe3679e5635e0aa	0.60639874303799
78	0x3feefd13cd5bc17a	0.9683932314783725
79	0x3fec9d17cb0b0f68	0.8941763845145774
80	0x3fc3a332ab0c32b2	0.15341790534912075
81	0x3ff0228b633108d4	1.0084337114972657
82	0x3ff92a7b60aa5825	1.5728715682976226
83	0x3fdc47e74682fe12	0.4418886364546505
84	0x3feea15240cb6d0b	0.9571925416488808
85	0x3fec21d1a8a9ee08	0.8791282934393516
86	0x3ff11fb84734e275	1.0702441007144021
87	0x3fe8691307adc593	0.762826457021378
88	0x3fe7c5021f4c15bd	0.7427988635324067
89	0x40048992cf07c173	2.5671745466462936
90	0x3ff0278ac24b3803	1.0096538152315595
91	0x3ff01ccd80c3a6f1	1.0070319204191345
92	0x3ffcd16f7eca208e	1.801131720802036
93	0x3fee8f3ecb4865e4	0.9549859972350387
94	0x3ff8363e5f0d8a32	1.513243075657226
95	0x3fee3198d6ad2cf6	0.9435543244266273
96	0x3ff2d6fef37b9ec3	1.1774892340708198
97	0x3fe5523efb435885	0.6662897975427461
98	0x40044a93dba0ff4b	2.5364148291118105
99	0x3fed189bec8523b7	0.9092540378124941

layers.3.bias f8 [100]
0	0xbfae894f86e11716	-0.059641347136262166
1	0xbfbb6058ab6c4ac5	-0.10693887887127136
2	0xbfb5b35d80f1d5db	-0.08476814649642199
3	0x3fc9ad5c2d232821	0.20060302928897136
4	0x3fb739a297a7b4ec	0.09072319223897168
5	0xbfedad52b9bd75c5	-0.9274076106773285
6	0x3f99c4aff0f52ed8	0.0251643648928582
7	0x3fe5b85bd471ecc8	0.6787547253910811
8	0x3fe523f8ad6c1c9e	0.660641039576962
9	0xbfd130d2ffa718c9	-0.26860499349676253
10	0xbf9cead8c99fde99	-0.028239619547064086
11	0xbfdf85b98e3dd544	-0.4925369156911368
12	0x3fe53864944bb8f1	0.6631338974382556
13	0x3fe59220cfb1303a	0.6740879112708236
14	0xbfa897fd52a90d3a	-0.048034588184715024
15	0xbfd406a5c0ebaf5a	-0.312905729674403
16	0xbf9ce2dc921891f9	-0.028209158341399008
17	0xbfd0eabc5c0bc68c	-0.26432713497988725
18	0xbfcd24a6554d77ba	-0.22768096127668774
19	0xbfb15431770d2862	-0.06769093662765749
20	0xbfd3dc9d9cb501f8	-0.3103403120367427
21	0xbfc1133e69eb58b9	-0.13339977428285524
22	0xbfcf027a9ef508f3	-0.24226315270977458
23	0x3fc6bd087ad23067	0.17764383313295015
24	0x3fc329ae5cc02973	0.14970950630988575
25	0x3fc0e6ac011b9d1e	0.13203954748244312
26	0x3fc55361e770d429	0.1666071300584531
27	0x3ff6539cc6171b78	1.395413183012094
28	0xbfee02de94082dab	-0.9378502742051088
29	0xbfe4c8abf8b82c7e	-0.6494960649300905
30	0xbfbf606d093cb780	-0.12256509280697792
31	0x3fe2b5aac4a4024a	0.5846761551511659
32	0xbfe2b7548ad6eb7a	-0.5848791801175672
33	0xbfb86668712f0320	-0.09531262172005173
34	0x3fd10443c4c4a6ef	0.26588529792444054
35	0xbfc047c4f91190b4	-0.1271902290492385
36	0xbfb5f93df4419e08	-0.08583438123024945
37	0xbfad2f89c0303800	-0.057003311834805004
38	0xbfcfa7014b2693a9	-0.24728408975093188
39	0x3feb615923f355b6	0.855633325782654
40	0x3fd4856e4ef6c2a7	0.32064397536582095
41	0x3faa7f2feb491da4	0.05175161120547081
42	0x3fbf74c13194bdce	0.12287528477167273
43	0x3fb85bf07194ae83	0.09515288136452153
44	0xbfc9121d6045e02a	-0.1958653183062336
45	0xbff1a470aacde7c3	-1.102646510319105
46	0x3fbcf15a4e18d864	0.11305775076547914
47	0x3fab6cb2092df4fa	0.0535636554913967
48	0x3fb7e09b8661e775	0.09327098875828972
49	0x3fc43cec7336481a	0.15810924172961976
50	0x3fb3cfd73d3b68ab	0.07739014859126551
51	0xbfc44d848a53b4a9	-0.15861565355536314
52	0x3fc29bcf3c568c82	0.1453799290294207
53	0xbfb5b4f742b62218	-0.08479256991098116
54	0xbfb0bb4afe49886b	-0.06535786350426213
55	0x3fa963b249cbfd36	0.04958874846306076
56	0x3feafe4db3451bad	0.843542909752491
57	0x3fc2671360b23f0c	0.14377062055108814
58	0x3fc48bfd27bcf58d	0.1605221218141363
59	0x3f7c47b6adbc602d	0.006904328907488416
60	0xbfe56a36286df081	-0.6692152776372639
61	0xbf60e979634778bc	-0.0020644541602755345
62	0xbfb6c1fbb8a73ca4	-0.08889745004784061
63	0xbfb79df4829058d0	-0.09225395381540413
64	0x3f92275494e799ff	0.01772815855829357
65	0x3fd72c3bf20bdeaa	0.36207483899441206
66	0x3fb667cf64dbec3d	0.087521516917989
67	0x3ff64975e51f8b37	1.3929346990705207
68	0xbfb18fef437a1e37	-0.06860251805675764
69	0x3fd12a767f62f64d	0.26821672859282303
70	0x3fb1e7be249db706	0.0699423636812889
71	0xbfeda4e48545f513	-0.9263784983628817
72	0x3fee4ca72c00494f	0.94685705751389
73	0xbfb6a2105dbe2b76	-0.08841039932864966
74	0xbfda50df241a22cd	-0.41118601346583433
75	0xbfd79253ce4e040f	-0.3683061136908358
76	0xbff8fbd2150e4654	-1.561479646920266
77	0x3f94e11dee427d7b	0.020390002886981656
78	0x3fc600f599710392	0.17190427772768807
79	0x3fb50d485ad3a26d	0.08223392693947469
80	0xbfad509b754d94b4	-0.05725560957834244
81	0x3fbf3139be9a009c	0.12184487250670134
82	0xbfe2566d1b088291	-0.5730500724785818
83	0x3fd1f192b0b86530	0.280369446352398
84	0xbfb588d379be84ad	-0.08411905023833084
85	0xbfb543aa57de060f	-0.08306374211499466
86	0x3fc611b49a612c7c	0.17241532838884044
87	0x3fe2a73a1fe826d6	0.5829134581738014
88	0xbfa36ba03cf7a77c	-0.0379304956839652
89	0x3fe4de57c50a9b6e	0.6521414612260352
90	0x3f9d65dbedcc9913	0.0287088741198654
91	0xbfd38453bba64bf3	-0.30495160412937067
92	0xbfebf8b6da68b3bd	-0.8741106286812436
93	0xbfbd327cd46a9948	-0.1140516298861246
94	0xbff25c3238103def	-1.1475088300684282
95	0x3fa27642411d6ae2	0.03605849308833854
96	0xbfe5f3385f2e00a1	-0.6859399661043605
97	0xbfaefd2562b106bd	-0.060525100991538384
98	0xbfe4eeee5371e579	-0.654166377046905
99	0x3fd264431c488290	0.2873695160106218

layers.3.running_mean f8 [100]
0	0x0000000000000005	2.5e-323
1	0x0000000000000005	2.5e-323
2	0x0000000000000005	2.5e-323
3	0x0000000000000005	2.5e-323
4	0x0000000000000005	2.5e-323
5	0x4073d0b116170dd6	317.043233957343
6	0x0000000000000005	2.5e-323
7	0x407fa3e183d89fa2	506.2425573789461
8	0x0000000000000005	2.5e-323
9	0x0000000000000005	2.5e-323
10	0x0000000000000005	2.5e-323
11	0x0000000000000005	2.5e-323
12	0x0000000000000005	2.5e-323
13	0x0000000000000005	2.5e-323
14	0x0000000000000005	2.5e-323
15	0x0000000000000005	2.5e-323
16	0x0000000000000005	2.5e-323
17	0x0000000000000005	2.5e-323
18	0x0000000000000005	2.5e-323
19	0x0000000000000005	2.5e-323
20	0x0000000000000005	2.5e-323
21	0x0000000000000005	2.5e-323
22	0x0000000000000005	2.5e-323
23	0x0000000000000005	2.5e-323
24	0x0000000000000005	2.5e-323
25	0x0000000000000005	2.5e-323
26	0x0000000000000005	2.5e-323
27	0x4073923e3856ea1a	313.1401904482933
28	0x406da1a132945d3c	237.05092743852026
29	0x0000000000000005	2.5e-323
30	0x0000000000000005	2.5e-323
31	0x4061986b73524d08	140.76311651300807
32	0x0000000000000005	2.5e-323
33	0x0000000000000005	2.5e-323
34	0x0000000000000005	2.5e-323
35	0x0000000000000005	2.5e-323
36	0x0000000000000005	2.5e-323
37	0x0000000000000005	2.5e-323
38	0x0000000000000005	2.5e-323
39	0x0000000000000005	2.5e-323
40	0x0000000000000005	2.5e-323
41	0x0000000000000005	2.5e-323
42	0x0000000000000005	2.5e-323
43	0x0000000000000005	2.5e-323
44	0x0000000000000005	2.5e-323
45	0x0000000000000005	2.5e-323
46	0x0000000000000005	2.5e-323
47	0x0000000000000005	2.5e-323
48	0x0000000000000005	2.5e-323
49	0x0000000000000005	2.5e-323
50	0x0000000000000005	2.5e-323
51	0x0000000000000005	2.5e-323
52	0x0000000000000005	2.5e-323
53	0x0000000000000005	2.5e-323
54	0x0000000000000005	2.5e-323
55	0x0000000000000005	2.5e-323
56	0x0000000000000005	2.5e-323
57	0x0000000000000005	2.5e-323
58	0x0000000000000005	2.5e-323
59	0x0000000000000005	2.5e-323
60	0x0000000000000005	2.5e-323
61	0x0000000000000005	2.5e-323
62	0x0000000000000005	2.5e-323
63	0x0000000000000005	2.5e-323
64	0x408415974138cbb2	642.698854869572
65	0x0000000000000005	2.5e-323
66	0x4061e101eacdea6c	143.03148403375542
67	0x407fe4ba41fab6c6	510.29547307906284
68	0x0000000000000005	2.5e-323
69	0x0000000000000005	2.5e-323
70	0x406190a76e5ba0d4	140.5204383649458
71	0x0000000000000005	2.5e-323
72	0x0000000000000005	2.5e-323
73	0x0000000000000000	0.0
74	0x0000000000000005	2.5e-323
75	0x0000000000000005	2.5e-323
76	0x405fae9039774478	126.72755276343548
77	0x406cf220fbda21a6	231.56652634242818
78	0x0000000000000005	2.5e-323
79	0x0000000000000005	2.5e-323
80	0x0000000000000005	2.5e-323
81	0x0000000000000005	2.5e-323
82	0x0000000000000005	2.5e-323
83	0x0000000000000005	2.5e-323
84	0x0000000000000005	2.5e-323
85	0x0000000000000005	2.5e-323
86	0x0000000000000005	2.5e-323
87	0x0000000000000005	2.5e-323
88	0x0000000000000005	2.5e-323
89	0x406ff58c752a1be4	255.67339571213154
90	0x0000000000000005	2.5e-323
91	0x0000000000000005	2.5e-323
92	0x40716f45c8fd3c32	278.9545373813627
93	0x0000000000000005	2.5e-323
94	0x0000000000000005	2.5e-323
95	0x0000000000000005	2.5e-323
96	0x0000000000000005	2.5e-323
97	0x406a9aa8b601ed27	212.83309460045095
98	0x4086abf47be356a8	725.4943769226857
99	0x0000000000000005	2.5e-323

layers.3.running_var f8 [100]
0	0x0000000000000005	2.5e-323
1	0x0000000000000005	2.5e-323
2	0x0000000000000005	2.5e-323
3	0x0000000000000005	2.5e-323
4	0x0000000000000005	2.5e-323
5	0x4089c007a5a0160f	824.0037338740093
6	0x0000000000000005	2.5e-323
7	0x40916f7474b0b35d	1115.8637263879275
8	0x0000000000000005	2.5e-323
9	0x0000000000000005	2.5e-323
10	0x0000000000000005	2.5e-323
11	0x0000000000000005	2.5e-323
12	0x0000000000000005	2.5e-323
13	0x0000000000000005	2.5e-323
14	0x0000000000000005	2.5e-323
15	0x0000000000000005	2.5e-323
16	0x0000000000000005	2.5e-323
17	0x0000000000000005	2.5e-323
18	0x0000000000000005	2.5e-323
19	0x0000000000000005	2.5e-323
20	0x0000000000000005	2.5e-323
21	0x0000000000000005	2.5e-323
22	0x0000000000000005	2.5e-323
23	0x0000000000000005	2.5e-323
24	0x0000000000000005	2.5e-323
25	0x0000000000000005	2.5e-323
26	0x0000000000000005	2.5e-323
27	0x409889a709844665	1570.4131222408262
28	0x409dfb8276efaf1c	1918.8774068308476
29	0x0000000000000005	2.5e-323
30	0x0000000000000005	2.5e-323
31	0x4073a8eff756d6db	314.5585854904327
32	0x0000000000000005	2.5e-323
33	0x0000000000000005	2.5e-323
34	0x0000000000000005	2.5e-323
35	0x0000000000000005	2.5e-323
36	0x0000000000000005	2.5e-323
37	0x0000000000000005	2.5e-323
38	0x0000000000000005	2.5e-323
39	0x0000000000000005	2.5e-323
40	0x0000000000000005	2.5e-323
41	0x0000000000000005	2.5e-323
42	0x0000000000000005	2.5e-323
43	0x0000000000000005	2.5e-323
44	0x0000000000000005	2.5e-323
45	0x0000000000000005	2.5e-323
46	0x0000000000000005	2.5e-323
47	0x0000000000000005	2.5e-323
48	0x0000000000000005	2.5e-323
49	0x0000000000000005	2.5e-323
50	0x0000000000000005	2.5e-323
51	0x0000000000000005	2.5e-323
52	0x0000000000000005	2.5e-323
53	0x0000000000000005	2.5e-323
54	0x0000000000000005	2.5e-323
55	0x0000000000000005	2.5e-323
56	0x0000000000000005	2.5e-323
57	0x0000000000000005	2.5e-323
58	0x0000000000000005	2.5e-323
59	0x0000000000000005	2.5e-323
60	0x0000000000000005	2.5e-323
61	0x0000000000000005	2.5e-323
62	0x0000000000000005	2.5e-323
63	0x0000000000000005	2.5e-323
64	0x409140a274aac052	1104.1586481742747
65	0x0000000000000005	2.5e-323
66	0x4090ccb9553d0804	1075.180989221205
67	0x40943e15c89a106f	1295.5212730476885
68	0x0000000000000005	2.5e-323
69	0x0000000000000005	2.5e-323
70	0x407c2f7837ec116f	450.9668502065096
71	0x0000000000000005	2.5e-323
72	0x0000000000000005	2.5e-323
73	0x0000000000000005	2.5e-323
74	0x0000000000000005	2.5e-323
75	0x0000000000000005	2.5e-323
76	0x409ec7ce8832c555	1969.9516914303724
77	0x4092fea541c20d4c	1215.6613836594215
78	0x0000000000000005	2.5e-323
79	0x0000000000000005	2.5e-323
80	0x0000000000000005	2.5e-323
81	0x0000000000000005	2.5e-323
82	0x0000000000000005	2.5e-323
83	0x0000000000000005	2.5e-323
84	0x0000000000000005	2.5e-323
85	0x0000000000000005	2.5e-323
86	0x0000000000000005	2.5e-323
87	0x0000000000000005	2.5e-323
88	0x0000000000000005	2.5e-323
89	0x40905dd858779fa9	1047.461274975891
90	0x0000000000000005	2.5e-323
91	0x0000000000000005	2.5e-323
92	0x409338ea4e83a84a	1230.2288151332345
93	0x0000000000000005	2.5e-323
94	0x0000000000000005	2.5e-323
95	0x0000000000000005	2.5e-323
96	0x0000000000000005	2.5e-323
97	0x406b7514a3f1b38a	219.6587695809106
98	0x409871cbaecb7a57	1564.448908976881
99	0x0000000000000005	2.5e-323
