model_policy2_epoch-80.pt (torch, 373906 bytes, 28 tensors)

layers.0.weight f8 [128, 128]
0.006465063909043461 -0.09402059615864085 -0.1445794780433324 0.029901552387771965 -0.07603784244388208 -0.058933820259753314 -0.0007160042654781124 -0.00034016136942385014
0.1780971138018538 0.07108136046616538 0.07530737367517926 0.20143852581139957 -0.15904945518548314 -0.24638991968177307 -0.24209503926239886 -0.3987663759307726
-0.2839291018132183 -0.10171406015301367 0.16651926073779824 -0.05904112773756481 -0.06821126417523038 0.061564330634825214 0.13082381265872614 -0.4560014381205466
0.349393657421189 -0.2867447522663893 -0.04815338934246713 -0.35239131602431684 -0.19883756401633468 -0.022265077470020926 0.32909518387035364 -0.02869975831308419
-1.3749771411417733 0.26688885243564026 -0.05943820532338944 0.11179887527197648 0.27133267383941734 -0.09567742670662295 -0.38712999726789615 -1.2294122674544405
-0.5404952800432278 -0.10280330031752428 -0.3170819012717739 0.11470130620746516 -0.009248086714529518 -0.28119096733616267 -0.18996803178229463 -0.3943720304088806
0.7219999372317314 -0.5940980193758244 -0.7821521840931275 -0.3784037318632729 -0.3439908973545114 0.14561422136151914 -0.7591912314589112 -0.2768364153147537
0.023589680328944655 0.614373199747803 0.16167528654903499 -0.007888638557455235 -0.4334589444590371 -0.13702784498618303 -0.4059810010289725 0.6120594802303698
0.22374613521446357 -0.03480624747620994 -0.0010590892546262507 -0.027751647497152535 0.31493925674851864 0.27605274110532674 0.23077975216148763 0.34350242495024935
0.1486291233398433 0.00575521679944644 0.05272784965297197 0.055584824464074735 0.22845224501304767 -0.01582409129167679 0.14863143762462255 0.103254567946607
0.26586927153483114 -0.09069534370643836 0.0919863994293376 0.31626138115458097 0.4047003608133221 0.024484880181493543 0.24589446367081133 0.5512355708256529
0.05746238795242865 0.24130517269485793 0.09407963674396554 0.3918326066305117 0.007149594561223354 0.049863302113481764 0.03660960866285147 0.48554777391401366
0.9662977692039795 0.699645825761499 0.05533305948422717 0.12234197669945962 0.11977445403841226 0.1781979867586838 0.7819817227446842 0.587555788881375
-0.04257197812006441 -0.14396383766679755 0.909193807670264 -0.10867855685100256 -0.5435031285779446 0.4148069285079142 0.6920757235805494 0.6045787008691414
-0.6283317132000473 0.8361388579888459 1.0601440161464923 0.3303390080709467 0.318773017440758 -0.3076130742366013 0.5637719878752325 0.09381550825089763
-0.737420157029551 0.022026829030765246 0.07930469345480864 0.17132675479496415 0.5265157423077305 -0.04441855600838009 0.2783838850423205 -0.25740035236948944
-0.3562702881477481 -0.2692691313015126 -0.3678776791576127 -0.4151976798184517 -0.3868795640439296 -0.3900824185326042 -0.07774276014052788 -0.31836022882216264
-0.4774864890989875 -0.3483651210179244 -0.4203624376503182 -0.335200499499666 -0.3835795499914148 -0.26055694161733906 -0.29262883631657866 -0.35074867451328123
-0.5911610796900366 -0.38505897001802647 -0.31066395607370145 -0.3730692294734677 -0.48563045924986453 -0.31739308448153286 -0.3903042822195871 -0.4392414149222682
-0.23212005230696703 -0.320384951220627 -0.32317278032568203 -0.24046592065519376 -0.3249920789067778 -0.3743468058030981 -0.4431801863514862 -0.33470776281679354
-0.4238532823222808 -0.3654000514407238 -0.4717610128894747 -0.3897373575530072 -0.4883102454613816 -0.5163265874925305 -0.38816121668702863 -0.40656042818602045
-0.17464776848326552 -0.33108724967033576 -0.11804386926232487 -0.4380420064002617 -0.27124787503105646 -0.24556296708927688 -0.04124987685432261 -0.4651713560205293
0.03834594468316983 -0.36121985268345025 -0.4658430151042305 -0.37908849534464817 -0.4192662755966233 -0.2087232855135817 -0.41946479727127367 -0.3278836014074953
0.1279701052447811 0.14842068186786414 -0.3340729451963889 -0.2732195272272673 -0.059693780058063806 -0.3739122403113465 -0.29720329423395697 -0.12745141430139015
0.2866954530311379 0.3282379215060302 0.44521433404841226 0.5305422921701015 0.4982915007526935 0.4784964367224373 0.15148014548899333 0.39238389720284694
0.32257946573615637 0.47319473135281426 0.5507801568432487 0.5012861518898458 0.5027134581624495 0.39062064397000373 0.3713865691923605 0.4428207758940728
0.35315974911650927 0.2987339727937994 0.33303495194616667 0.38800194398026466 0.4670305357871329 0.3976213953896347 0.37544343315631623 0.45374276826269705
0.3738859662959457 0.3236548227351367 0.38554412238872726 0.3053864482770203 0.48852134471662295 0.4610131686573145 0.4089649664298684 0.43469098791225863
0.5935121714073284 0.5406376485614298 0.4530830474783976 0.398084787305504 0.4480705004054065 0.47137548630478093 0.387437444715646 0.5666450754215472
0.2069434976377516 0.2584867999505439 0.355544365240619 0.3716326388641986 0.3018476099903551 0.3659867786343616 0.2764981707373168 0.5022368013500844
0.06982853099332789 0.3761749139518722 0.38927909643673625 0.4199148088182204 0.40280136108580067 0.0977659526161814 0.40500856328101353 0.1576259339737729
0.08171272146262545 0.049389692249135975 0.32830361368628075 0.3061486042783368 0.20810365307846942 0.3921256504573369 0.399082948068777 0.07515143865480069
00000000: 93ee e460 1c7b 7a3f 6ddb a6d9 bb11 b8bf
00000010: e536 ef90 9481 c2bf 4ca2 6b36 839e 9e3f
00000020: 3d0c 8e4e 3777 b3bf 1ab8 49dd 922c aebf
00000030: 4d17 b773 4776 47bf 6d71 00f5 f54a 36bf
00000040: ed3d a5df e2cb c63f a5af 8e56 6332 b23f
00000050: c021 1513 5847 b33f 49d8 41d4 bcc8 c93f
00000060: 32f0 3b88 bb5b c4bf bd73 8c73 b489 cfbf
00000070: 89f2 1362 f8fc cebf ba7e d767 6385 d9bf
00000080: 46e8 aaf7 e42b d2bf c98b e6c1 ee09 babf
00000090: b5ef 82cd 8050 c53f d7eb 8081 a33a aebf
000000a0: 60f7 d91c 4b76 b1bf 1b79 5a25 5c85 af3f
000000b0: 1521 74ae d5be c03f a007 eaa7 202f ddbf
000000c0: 0672 0337 775c d63f 3029 52a9 065a d2bf
000000d0: 2cbc d5a0 8fa7 a8bf 8001 6e4e 948d d6bf
000000e0: b04e 5561 8273 c9bf 5e7c 4e0e a8cc 96bf
000000f0: 36a2 ff3e e50f d53f 5063 6e2d 7863 9dbf
00000100: 5039 df07 e8ff f5bf e331 38fb b414 d13f
00000110: 7768 fe37 af6e aebf 1dd1 05e1 d99e bc3f
00000120: 817f 1eb8 835d d13f 319e abda 507e b8bf
00000130: 593c 64e5 bcc6 d8bf d749 a032 acab f3bf
00000140: 61b2 edc1 bc4b e1bf b9dd c82c 5151 babf
00000150: c568 07e3 114b d4bf 1434 f896 105d bd3f
00000160: 9672 ea2f a9f0 82bf 4eec 2866 08ff d1bf
00000170: 452d e559 df50 c8bf 720c 442f 643d d9bf
00000180: 96fa c39c 9f1a e73f 21cd 7ad9 d902 e3bf
00000190: 3999 6504 6407 e9bf 0460 4249 c437 d8bf
000001a0: b098 9065 f203 d6bf f444 4a9f 7ca3 c23f
000001b0: e9d4 d068 4b4b e8bf 7399 8715 b0b7 d1bf
000001c0: 11c6 24a6 e427 983f 0295 0efc f1a8 e33f
000001d0: 2157 269a c6b1 c43f f6f3 e924 eb27 80bf
000001e0: 400e a795 cabd dbbf a0b2 6de0 208a c1bf
000001f0: b6df 8dbc 97fb d9bf 727a 59c3 fd95 e33f
00000200: 361f ad9e b6a3 cc3f 0baf 36dd 1fd2 a1bf
00000210: 841b 946d 245a 51bf 613d a489 ed6a 9cbf
00000220: 2688 fdfb f627 d43f a62f c11d d9aa d13f
00000230: d968 0ee0 308a cd3f 5383 5098 f1fb d53f
00000240: ce27 fd73 4706 c33f 68cf f53e c892 773f
00000250: 8322 b20b 25ff aa3f ad46 7436 9d75 ac3f
00000260: 56b0 8354 ec3d cd3f 13c0 58ca 3034 90bf
00000270: faaa e0dd 5a06 c33f 0e48 7e30 e46e ba3f
00000280: 6b38 908c 0004 d13f ae5e 1e5f cf37 b7bf
00000290: e7cd 39b1 6b8c b73f 65fd 4260 a03d d43f
000002a0: fbd8 9757 9ce6 d93f 6404 817e 9012 993f
000002b0: 6fe6 dd43 7879 cf3f 7ad1 a2c7 b8a3 e13f
000002c0: 11f1 02ca b56b ad3f fb3e 8a80 16e3 ce3f
000002d0: adee 0863 9a15 b83f bb01 bf11 c913 d93f
000002e0: 9f2f 1fad e448 7d3f 5e29 b2c7 ae87 a93f
000002f0: b244 da9f 7ebe a23f 77cd 66f8 3613 df3f
00000300: 1fb9 9d4c e9eb ee3f b4b6 8da4 7f63 e63f
00000310: 5fa8 be61 9d54 ac3f 0428 dac4 cd51 bf3f
00000320: a1c1 fde2 89a9 be3f 28b9 ab0e 31cf c63f
00000330: d542 a888 fe05 e93f 8545 3acc 41cd e23f
00000340: 60df 808b fecb a5bf 40f3 4a33 686d c2bf
00000350: 876c b59c 1d18 ed3f a697 739f 5bd2 bbbf
00000360: b482 50ac 6064 e1bf f91f 065c 328c da3f
00000370: b149 e4fc 7b25 e63f 88ea 826e b558 e33f
00000380: bd7b e71b 4b1b e4bf 9d42 3f47 a6c1 ea3f
00000390: 7463 6692 59f6 f03f bb7f 1039 4624 d53f
000003a0: b956 30f1 c666 d43f 29c4 6abf eeaf d3bf
000003b0: aa66 4a8d 6b0a e23f c493 cb0b 4b04 b83f
000003c0: a54c 3b28 f298 e7bf ff70 4979 338e 963f
000003d0: fac5 cef8 4f4d b43f 6718 63fc 08ee c53f
000003e0: c64e c18a 37d9 e03f 8377 c86a 07be a6bf
000003f0: 465f 7fa4 0ad1 d13f 2cf9 d953 3f79 d0bf
00000400: 8663 08e5 21cd d6bf f5c9 3098 b43b d1bf
00000410: ce42 3ad2 4e8b d7bf 4680 0c4a 9992 dabf
00000420: 75cd c380 a2c2 d8bf 49e5 953f 1cf7 d8bf
00000430: 33e9 4d14 f3e6 b3bf 56d9 c894 0360 d4bf
00000440: 9a91 bd7d 238f debf 48b3 7538 9d4b d6bf
00000450: 7a32 8bda 37e7 dabf 300d bdcb ec73 d5bf
00000460: 5929 a83d 918c d8bf 1181 bf05 f7ac d0bf
00000470: d628 764c 6eba d2bf d397 8991 aa72 d6bf
00000480: eaf9 fda3 caea e2bf 4c91 d060 cea4 d8bf
00000490: 587b d812 ebe1 d3bf ade0 eec2 5de0 d7bf
000004a0: 33db 1ac7 9114 dfbf afc8 7415 2b50 d4bf
000004b0: e5cc e7cf befa d8bf 42f4 0806 881c dcbf
000004c0: e6bd b320 1cb6 cdbf a9e1 e7e1 2f81 d4bf
000004d0: 5332 9de2 dcae d4bf 8f1f 8258 96c7 cebf
000004e0: 3d46 9793 abcc d4bf e053 124e 4cf5 d7bf
000004f0: 3159 a76d 105d dcbf 2ffd c01b da6b d5bf
00000500: c617 7884 6920 dbbf 8f41 b9e5 b662 d7bf
00000510: 18d7 781a 5531 debf 540e 2ef5 74f1 d8bf
00000520: 46bc a39d 7940 dfbf 10be ea55 bf85 e0bf
00000530: 52c4 cf24 a2d7 d8bf 9c07 ba07 1605 dabf
00000540: 9a3d faaa db5a c6bf 3a3a 5d93 8830 d5bf
00000550: 9d98 f97d 1f38 bebf acda f056 e108 dcbf
00000560: 638b 170c 205c d1bf e6ea 6078 9b6e cfbf
00000570: c54f 1b30 b41e a5bf b039 4914 5ec5 ddbf
00000580: aa66 b264 14a2 a33f 303f 7cdf 391e d7bf
00000590: 4355 bc38 5fd0 ddbf 1ee3 7264 fc42 d8bf
000005a0: c134 8037 42d5 dabf 82e5 98d2 71b7 cabf
000005b0: f39d 86e0 82d8 dabf 3027 3c80 0bfc d4bf
000005c0: 7b2d 720c 5361 c03f 5f14 56eb 72ff c23f
000005d0: 7533 867d 7361 d5bf e075 84c1 6d7c d1bf
000005e0: 107d 3fe2 2e90 aebf 5e86 ed9a 2dee d7bf
000005f0: 52e4 3ff7 6005 d3bf fb6f 20f4 5350 c0bf
00000600: a18f abe2 3759 d23f ff39 8ba0 d901 d53f
00000610: c4b1 1c43 647e dc3f ac7e 40d4 33fa e03f
00000620: 8fe2 e608 02e4 df3f fb6c be84 af9f de3f
00000630: 972c 6f8f b363 c33f f2a5 7d59 d11c d93f
00000640: 1eab ec57 24a5 d43f a130 f38d d248 de3f
00000650: 1cae 1db5 fd9f e13f 17bf 8941 890a e03f
00000660: 1a23 c288 3a16 e03f 9097 bfba edff d83f
00000670: 87b5 362c ccc4 d73f b114 9df3 2c57 dc3f
00000680: a403 2e59 2b9a d63f 1ba0 d618 751e d33f
00000690: 6d28 c2d4 7150 d53f 907f 0b1b 06d5 d83f
000006a0: 1b1a 5c0b d4e3 dd3f feda 5802 a172 d93f
000006b0: b6e0 b9e4 4307 d83f cf06 9f1b 1f0a dd3f
000006c0: 1c2a 6b67 bfed d73f 06c4 b5b7 c2b6 d43f
000006d0: 54c6 3441 c1ac d83f 0f73 ff99 738b d33f
000006e0: 732c bd07 ef43 df3f d524 9a60 3d81 dd3f
000006f0: 5baa 0165 7b2c da3f c3bd 3c26 fad1 db3f
00000700: 141e bf3c 0dfe e23f 89d8 7153 e74c e13f
00000710: c1ab d209 50ff dc3f ccc8 a09d 387a d93f
00000720: f2c9 62e4 2fad dc3f 172b 7416 042b de3f
00000730: 222b 936c c6cb d83f fdff 6bda f421 e23f
00000740: eaab 3ce1 1f7d ca3f d60e 0f38 0c8b d03f
00000750: 0d13 3f27 3dc1 d63f fc10 8343 d4c8 d73f
00000760: 9832 52a3 7851 d33f bc30 40cf 536c d73f
00000770: 4f1e 2e62 25b2 d13f 2cae 94e9 5212 e03f
00000780: 4aae f158 48e0 b13f 10ee 3ff2 3f13 d83f
00000790: e394 0ddf f2e9 d83f 0abe be5c e2df da3f
000007a0: 9275 295c 7fc7 d93f c216 2681 3007 b93f
000007b0: e214 7909 a9eb d93f 909b b52b 162d c43f
000007c0: d260 59fa 1feb b43f 0868 f011 9b49 a93f
000007d0: 853c fc28 ed02 d53f 2cdb c550 f097 d33f
000007e0: 4f38 13f8 23a3 ca3f 6fc4 282f 9618 d93f
000007f0: bc2f 9634 938a d93f 510c 45eb 1f3d b33f

layers.0.bias f8 [128]
-0.19946793396440105 0.2782662199539178 0.1816296619224671 -0.11062677400269236 -0.0031665213706880205 -0.16553955944264576 -0.2085371258662338 -0.22912382589247193
-0.31546866631060616 0.10914442383302804 -0.4998337625295434 0.44494855375549985 0.11183786633035069 0.015922799095661386 -0.09130985341665454 0.06219744807332956
-0.12390607850707883 0.16268097991888544 -0.0372225862905419 0.12916304338962098 0.020277659599378883 0.18275575566413446 0.08255026030535427 -0.23462468644975826
-0.21852699737789888 0.021793050784917698 0.19075087953172276 0.10799392981915822 -0.0023965617642595 -0.32946946409724387 -0.10966729055816207 -0.2836773891490731
-0.03841317639195218 0.2955420923871228 0.3226688111383768 -0.36922402468536025 -0.055956986599148224 0.44577004278027976 0.23456341223682928 0.17424692513913653
0.0445930268657753 -0.11336415553598063 0.0960723749239266 0.002692772700851033 -0.15559214356257595 -0.0893162584958827 0.358755453301798 -0.013932875083225058
0.15228491900372934 -0.3698594884439718 -0.01132608058698751 -0.20969728049640401 0.1992067163415912 -0.33760451152165294 -0.049171904464364376 -0.4465242541728396
-0.27860562011192247 0.3934887319446581 0.08138889571052844 -0.12337295647069652 0.21966456563912898 -0.013341449902566655 -0.1015050381556467 0.19972833274314225
-0.2945821104380241 0.40774693390038497 0.16596526009230236 0.10694690235046637 -0.21240550656694854 0.3193469814446918 -0.17044261212713432 0.31358229660392006
-0.1582095875400779 -0.22820969699118193 -0.3559830240980546 0.10119412694772811 0.12239325957491068 -0.01189618541582875 0.08564736236041522 -0.34869563262301245
0.20718452552902467 -0.38511408588838236 -0.28687152238935215 0.0966768159943553 0.1984772652608697 0.37534527541043883 0.040633201749356036 0.18215268015754227
-6.14324059714579e-05 0.007972757656719903 0.1235903463845091 -0.17366358920921673 -0.24506555833356397 0.15054923115663416 -0.28859975949339334 -0.24651899899595642
-0.4291002053650055 0.11038604312069754 0.4024542885668678 -0.35622797267214723 0.45323833523381746 -0.16689918956550512 -0.1879029471190613 0.10316912883577603
-0.5139235944236608 0.42909527593143326 0.022817897027925735 0.00022269706080117407 -0.22286573991451394 0.3507715558896837 0.305019611051002 -0.343276874277694
0.11729283051826947 -0.1814281368064968 -0.3939588087586706 0.019756532931422464 0.19886844824556613 0.1360725663041521 -0.06133501078612296 0.00274038053180312
0.037310359781954926 0.23398673542443624 -0.27510003636335645 -0.20348295023610216 -0.22905945104302683 -0.19783007847559164 -0.057528745346010546 0.1121018372894548
00000000: 3a28 7d4e 2a88 c9bf d326 921e 1dcf d13f
00000010: 6063 f808 a43f c73f d64e 6748 0952 bcbf
00000020: 9086 5537 adf0 69bf 7c0d 0079 6630 c5bf
00000030: a674 cc33 58b1 cabf f8a5 78f5 ed53 cdbf
00000040: e5df 2d7d a330 d4bf 8953 e792 e3f0 bb3f
00000050: b310 e0bf 46fd dfbf 5912 b27f 097a dc3f
00000060: ebe0 570a 68a1 bc3f f9ae 81f5 104e 903f
00000070: 4022 3a22 1560 b7bf 593d bd0a 58d8 af3f
00000080: baa8 f60a 4fb8 bfbf 7d67 37f8 bad2 c43f
00000090: 54b1 94bd d60e a3bf 82e9 9a23 6a88 c03f
000000a0: 2067 46b3 aac3 943f 4bda dd64 8a64 c73f
000000b0: 2fac 498c 0322 b53f 5667 9185 2e08 cebf
000000c0: d6fc 8351 b1f8 cbbf 69eb 9ae1 ea50 963f
000000d0: 68d0 a25a 866a c83f c763 bd7c 7da5 bb3f
000000e0: ed92 cf4c f4a1 63bf 0203 5517 0716 d5bf
000000f0: 6a63 63d2 2713 bcbf c3a2 4035 c527 d2bf
00000100: 1f86 ad50 e4aa a3bf fc38 5961 29ea d23f
00000110: 6bd3 d115 9ba6 d43f 9df3 bacd 5da1 d7bf
00000120: 7923 dae6 64a6 acbf d8c7 d112 7f87 dc3f
00000130: c39a 3284 2c06 ce3f f058 7326 b94d c63f
00000140: 854b 09b0 e5d4 a63f 55d1 90ec 6e05 bdbf
00000150: a7e9 58fc 3298 b83f 5064 f155 270f 663f
00000160: 8ed2 0e80 71ea c3bf 84ab 3d29 6edd b6bf
00000170: 1b58 cc6e d9f5 d63f 05da 92d6 d688 8cbf
00000180: 6dc3 657d 127e c33f 87db be21 c7ab d7bf
00000190: 942a b4cd 2032 87bf 9c66 e548 5cd7 cabf
000001a0: d253 ea0d 9b7f c93f 6aec fdf3 4f9b d5bf
000001b0: 21eb 1c53 0f2d a9bf c4c2 2277 da93 dcbf
000001c0: 5033 b7aa acd4 d1bf 0dff c25c eb2e d93f
000001d0: 0193 5515 e7d5 b43f 14a2 40bd 5e95 bfbf
000001e0: 194b c1ee f71d cc3f aa1a 1a18 c352 8bbf
000001f0: e7fa 41f3 3bfc b9bf 0fb3 9bb0 b290 c93f
00000200: af59 94ec 6eda d2bf 105f 8998 8618 da3f
00000210: 632d 2f82 593e c53f 53f6 0048 df60 bb3f
00000220: 7701 1988 1a30 cbbf bb66 5852 2e70 d43f
00000230: 4126 7742 10d1 c5bf 9b2d 217b bb11 d43f
00000240: f6fa 3236 3640 c4bf 6685 9ab0 f935 cdbf
00000250: 34ab 9b05 6dc8 d6bf f0aa c9b9 dbe7 b93f
00000260: 4205 2027 2a55 bf3f 5810 77fa 065d 88bf
00000270: fd9e 534c fcec b53f 79ed 977c 0751 d6bf
00000280: 4435 b1c4 0585 ca3f 80a6 078d b5a5 d8bf
00000290: 5539 b45f 1a5c d2bf 8927 fad2 cfbf b83f
000002a0: ffc0 a5f9 b367 c93f 0224 a630 a805 d83f
000002b0: c15e 4a01 e0cd a43f e4e3 136e c750 c73f
000002c0: f961 c0b2 a81a 10bf 8307 286b 0554 803f
000002d0: 9ba1 d2ef 9da3 bf3f 9b6c 14c6 9b3a c6bf
000002e0: ea95 35e7 4e5e cfbf 62ba 207c 3245 c33f
000002f0: f415 2a20 6b78 d2bf 88e0 433f ef8d cfbf
00000300: 28f9 2fb5 6076 dbbf cf63 237d 4242 bc3f
00000310: b0e5 e1a1 cfc1 d93f 3606 2369 70cc d6bf
00000320: d1da c75c db01 dd3f f5d4 74e0 f35c c5bf
00000330: b464 592a 340d c8bf ba74 4ec2 4a69 ba3f
00000340: 1128 d6e4 0f72 e0bf 2c97 3f08 4c76 db3f
00000350: 2c66 fe25 935d 973f 8315 a52f 7930 2d3f
00000360: 7774 2a54 dd86 ccbf 5272 3a8a 0a73 d63f
00000370: 8992 86f9 7085 d33f 2dbb 1f91 3ff8 d5bf
00000380: d298 2127 e706 be3f 333d 1485 0939 c7bf
00000390: 26bc e501 9f36 d9bf c98d 4a7b 0e3b 943f
000003a0: 83e2 b574 8574 c93f 345e 146b d36a c13f
000003b0: 9737 da72 4d67 afbf c9f3 6798 fe72 663f
000003c0: eb87 21ee 571a a33f cf41 2c00 47f3 cd3f
000003d0: 18c7 d32e 3d9b d1bf 3761 47b4 ba0b cabf
000003e0: d0e5 88f1 d151 cdbf 34e0 9bfa 7e52 c9bf
000003f0: 289b ae5f 6874 adbf 0acf fabc b4b2 bc3f

layers.1.weight f8 [100, 128]
-0.5325342135952058 0.012950006306435335 -0.26237449046276545 0.03546010109198693 -0.3420230536828823 -0.2804448508090952 0.24225360677389712 0.1374046699098799
0.2375130007452462 -0.18346327069544094 -0.227764561032798 -0.20418366709163077 -0.1229428661802805 0.2555577117661313 0.10199612236755529 0.1926512661630786
0.2834890037687154 -0.1932724749937864 0.061691325522143514 0.16486197928140928 0.1554392898740491 0.061068522219060825 0.11461948040929416 0.17645574436781045
-0.4654723343568781 -0.25309543912666105 -0.06107555049036456 0.35886252078883385 0.22728573339412386 0.014805611101916132 0.5202240559614164 0.2666410462797099
0.13125394912923177 -0.0092119061088018 -0.18727756757364564 -0.027434970386123338 0.3031884067873349 -0.032892556260543625 0.4088271451188288 -0.17708174377580263
-0.0025267198813490764 -0.48020616802120364 -0.1315843599998188 -0.11344289790629065 0.014175676061815193 -0.07601644542377245 -0.15354093317008374 -0.6736233754162333
-0.12853480802868167 0.11583944703210666 0.060620461916537756 0.5000701798659479 0.17658779398975866 0.18825257235791573 -0.1346854310044332 0.36482041948345617
0.2839602512586937 0.005557327482894659 -0.043087154717219925 0.010013968242751326 0.2975674151133614 -0.4958725973734376 -0.4956974632739103 -0.14644554771193283
0.37777360746159344 0.019431007651970665 0.12889305818119542 -0.12379641283449942 0.3481188355950509 0.09477215047517293 0.02266930187455884 0.24213735779207154
0.0682031674402053 0.039001133440203006 0.12658466300074406 0.10465864182313916 0.10608480515522528 0.3866276069089324 0.15604417916075544 0.03501177370802656
0.0027011030331636674 -0.030022952574007465 -0.3912990599875803 -0.01898323622234776 -0.19411823995021227 0.1418362017621452 -0.09047965105018796 0.5989632010224898
0.9958011313825427 0.1146595467450291 -0.11254753893274413 0.1206484327193421 -0.0862573627184057 -0.048362516403305106 -0.485142739037371 -0.07405109309603844
-0.18763898828455466 0.2690831322894935 -0.10352490177225786 -0.017532527624670877 0.2780808105763432 0.31351734907763784 -0.16040299940994482 -0.15293893520771265
0.20108621475658076 -0.20757581862366428 -0.2974048880473578 -0.5520398817537739 0.0525432506222879 -0.20005052503159118 0.7943966648511788 0.06251371523870305
-0.24287382699894544 -0.11999333147233604 0.4225499560807026 -0.2665569687487686 0.20021355842911176 -0.23895039491186731 -0.030530174490194514 1.1243020570690458
0.14951922824536412 -0.34053318100080054 -0.16873185487215706 0.08795358046026973 0.37302482006448484 -0.07824670780180976 0.3691764761025583 0.23976649698742064
0.04272990270761411 -0.06436923281856044 0.024868748350489953 -0.04158479820384117 -0.0519659998339788 0.09619043770771947 0.003223868990939694 0.014029389701667613
-0.00044121916460560103 -0.00013369699114040216 0.0831347822303385 -0.06862718214031603 -0.08435821611322622 -0.0588212600889607 -0.015855847144270564 0.02748238710838922
0.09649908104638055 0.08918308996274675 -0.03719222559162196 -0.03144970858457155 -0.1071110657893532 -0.01936346825466211 0.024844882963291057 0.06849775422544944
-0.005861647284369731 0.0028988295328510514 0.031694631872982645 -0.0882692765944078 0.054993255667592805 -0.09567016000082151 -0.07976113378824956 -0.06366860671875277
0.09500631808876579 0.05227810185622955 0.050799769704489024 0.08147306503059593 -0.04448364730854195 0.0037746536103261913 0.0253117117330372 0.036163034928597744
-0.001822637354757675 0.0007912581687911531 -0.010419316834138116 0.05019722563050615 -0.016452147120494084 -0.018254712633988257 0.040143432399591665 0.09585948330180509
0.015352714051695195 -0.026009098530486354 0.05029356455798891 -0.006957598029647354 -0.03202364025648109 -0.0016658873947324618 -0.03321679396375183 0.04349771117408286
0.11090594146329343 -0.023326515226658524 -0.050820951101222964 0.0520402307744654 -0.02485415958205282 0.01839993639082481 -0.01890266556751088 -0.06259877642679532
-0.06958652934250674 0.06079702132429132 -0.0002906669636020903 0.02737558566251079 -0.008941715148435267 0.059164045431796354 -0.05157640718931165 0.06616124845366855
-0.028568852950409413 0.06963957325982273 -0.03245531760774723 0.04097050061586918 -0.0752261884554326 0.027479474950143308 -0.009308858505887418 -0.05117909538678956
-0.026036159799332565 0.07082176985092173 0.06389737621456767 -0.08310435469272139 -0.03639499950048305 -0.085542506938087 -0.004975147971045498 -0.046184596811559155
-0.022459728345391627 0.03941552210579837 -0.0007667133218123312 -0.04092150005792595 0.03477745894693275 0.017053376799490122 0.11025023886465168 -0.017873131710983366
0.08402845101281352 0.04186137452175062 0.09074029449686911 0.02488985310515579 0.019265641268104372 -0.004607470646508968 -0.02628264737310549 -0.00033925164018509
0.10144171799898855 0.003778138059664838 -0.11366961406507406 0.08231732352919241 0.07482578853507495 0.09214056987586892 -0.0462937295966414 0.016100921033251874
-0.0484229011537467 0.05793769706573573 -0.04659769548648175 0.001597220951138301 0.05912658793225778 -0.06834019685287979 -0.08271545142293275 0.07274846807942614
0.045529467566171475 0.04228912923988041 0.03355925464146109 -0.02313857496592791 -0.08972300719726753 -0.07786102142578034 0.09963485208314644 0.03765641607325226
00000000: 428f ec30 850a e1bf e095 8d6c 8885 8a3f
00000010: 49e7 f55f beca d0bf 0f81 018d d327 a23f
00000020: 30f2 82a9 b4e3 d5bf 5ea0 a3f5 cef2 d1bf
00000030: 8e49 378b 2a02 cf3f 6951 cae9 7996 c13f
00000040: 19af 4975 d366 ce3f 02ba d375 b97b c7bf
00000050: cd6d 699e 6327 cdbf 8e98 44be b022 cabf
00000060: c053 8505 2f79 bfbf 16ac 91bb 0e5b d03f
00000070: d830 e3f9 6a1c ba3f 7809 daf3 cba8 c83f
00000080: 8f95 fd0f af24 d23f 6f5b a807 27bd c8bf
00000090: b005 2163 0196 af3f aa09 af84 321a c53f
000000a0: 70e1 4245 6fe5 c33f a6e8 7d93 5f44 af3f
000000b0: 91a9 d7c7 b357 bd3f 7523 a011 1a96 c63f
000000c0: 3d5b 5079 4cca ddbf 8b35 7436 b732 d0bf
000000d0: b8f3 e167 4b45 afbf 1415 a381 9af7 d63f
000000e0: b137 e3eb b217 cd3f fc16 d77b 6752 8e3f
000000f0: d64b 5eeb aca5 e03f 93b9 629b a510 d13f
00000100: 128e 7ded edcc c03f e4dd c41b b1dd 82bf
00000110: 1b6a 001a b6f8 c7bf 6aee 4cb2 e917 9cbf
00000120: 7f63 eb58 7067 d33f eb7c d70a 4bd7 a0bf
00000130: 9427 8054 392a da3f 332c 1e55 9daa c6bf
00000140: a6a2 3568 eab2 64bf 6a44 bfa6 b2bb debf
00000150: c9a1 6e9d c1d7 c0bf 7d92 7800 980a bdbf
00000160: e269 ac08 2308 8d3f 34a3 0d53 d075 b3bf
00000170: db0a 48b3 3aa7 c3bf b87b e79b 528e e5bf
00000180: e8be 701e d473 c0bf 7ef1 966c a7a7 bd3f
00000190: 59c5 cc2a a509 af3f a854 872d 9300 e03f
000001a0: b886 07c8 6d9a c63f b522 d508 a918 c83f
000001b0: c0b2 b448 5f3d c1bf 650b a6be 3759 d73f
000001c0: 3548 219e 672c d23f 34d4 acbc 47c3 763f
000001d0: d2bb c600 850f a6bf 6dad d810 3482 843f
000001e0: e018 1133 580b d33f 36e5 2c6b 60bc dfbf
000001f0: ca2e 5eda 81b9 dfbf c7a5 084b babe c2bf
00000200: 21ba 555a 712d d83f 16fc 92d9 b8e5 933f
00000210: 9bea c856 917f c03f 7b7d 7c28 1fb1 bfbf
00000220: 6926 8039 9447 d63f 16ca dcd6 fc42 b83f
00000230: 1f91 b218 9f36 973f 8fab 6d60 5bfe ce3f
00000240: c2a8 a345 c375 b13f a8e4 43e1 f4f7 a33f
00000250: 56b6 e11d ed33 c03f fcc8 dfa3 e8ca ba3f
00000260: 8485 beb0 5f28 bb3f 1ae5 d9b7 81be d83f
00000270: 8901 1d73 41f9 c33f 1113 1a2e 10ed a13f
00000280: 6b1a 19a6 9f20 663f 8627 bd3d 56be 9ebf
00000290: 708a 6636 0b0b d9bf de28 fd6a 5770 93bf
000002a0: c455 12d2 ddd8 c8bf dd87 fa4b b027 c23f
000002b0: f0cb 36a6 ac29 b7bf 29c5 fcdf b42a e33f
000002c0: 4373 9355 9add ef3f 70af 71fb 535a bd3f
000002d0: ce1f f65e eacf bcbf f7dd d7d0 d0e2 be3f
000002e0: da2d ea67 f614 b6bf 0ce2 9bc4 f8c2 a8bf
000002f0: f7ab 8321 940c dfbf 0a9e 142f 03f5 b2bf
00000300: 0a7f 11eb 8d04 c8bf e3ab 4575 a838 d13f
00000310: 3bf7 6ea3 9b80 babf ac84 0e03 0cf4 91bf
00000320: 2384 c474 13cc d13f ae17 4112 ab10 d43f
00000330: cbb0 52e2 1588 c4bf b947 80c6 8093 c3bf
00000340: 4529 076e 31bd c93f a1eb 362c d891 cabf
00000350: 535f f582 ae08 d3bf 9a0b c78a 4faa e1bf
00000360: 4cb5 18ee f2e6 aa3f d176 476f 419b c9bf
00000370: 0bcb f28d b26b e93f 866e 801a e600 b03f
00000380: 08e6 0154 7d16 cfbf d069 690a e2b7 bebf
00000390: 1fbe 92f8 0e0b db3f adff d2f5 440f d1bf
000003a0: e69b d50e 99a0 c93f f4a1 c131 ed95 cebf
000003b0: 0fff e753 4d43 9fbf 45fe 5e27 24fd f13f
000003c0: 90ef b731 7223 c33f 7c7b e6ae 4bcb d5bf
000003d0: 1913 3c63 0199 c5bf 3b99 a437 2084 b63f
000003e0: e17c b17e a3df d73f e847 07eb f907 b4bf
000003f0: 6a08 d45e 96a0 d73f e664 9e27 abb0 ce3f
00000400: 8f84 619d b1e0 a53f 1807 d385 807a b0bf
00000410: 4c65 6e73 3177 993f 0caf 9748 9a4a a5bf
00000420: 46ee 949b 499b aabf 2580 24c0 ef9f b83f
00000430: 9bde 3e7c f168 6a3f deac 9ccf 70bb 8c3f
00000440: 1aa8 e1e1 6dea 3cbf 180f b768 2086 21bf
00000450: fde1 d632 5248 b53f 67c7 e80e 8d91 b1bf
00000460: d6ee 5a03 8098 b5bf 4e7f c8f8 d11d aebf
00000470: 1d75 bde3 833c 90bf 5bdc 62c7 5724 9c3f
00000480: ac31 30ed 29b4 b83f 7b08 bff6 b3d4 b63f
00000490: 83b6 2901 dc0a a3bf 64ce ad1b 2d1a a0bf
000004a0: bcdf 9a7c a16b bbbf 2d4a 905b 04d4 93bf
000004b0: 4c7d 33df ef70 993f 9f6c 3f9e 1189 b13f
000004c0: cd60 31f6 6102 78bf 2bed 4941 49bf 673f
000004d0: 36d9 b45e 473a a03f 63ed 36b8 d098 b6bf
000004e0: ac8d 2f75 1328 ac3f f817 68f0 d67d b8bf
000004f0: 10c7 1cc5 396b b4bf da90 a3f7 954c b0bf
00000500: 87c8 1a85 5552 b83f 08f7 8903 32c4 aa3f
00000510: 79db 0c6b 6d02 aa3f c0b0 cf35 6bdb b43f
00000520: c341 cb84 8fc6 a6bf 772b ecb9 05ec 6e3f
00000530: f08d 6538 50eb 993f 6153 af18 f683 a23f
00000540: d998 31f5 b1dc 5dbf 964d 94fa 8ded 493f
00000550: c7ef 6408 b956 85bf 87ac dd64 73b3 a93f
00000560: 6f75 53e7 d4d8 90bf 401e 0b07 5db1 92bf
00000570: b761 9c12 ae8d a43f 1bef ca41 3f8a b83f
00000580: 2112 0e66 3e71 8f3f 37f7 580e 21a2 9abf
00000590: 9b9f f3fd 13c0 a93f 85d1 efff 917f 7cbf
000005a0: e26e 330f 6765 a0bf 49b9 44f8 3c4b 5bbf
000005b0: 692b 81a7 ca01 a1bf a117 e3fd 5445 a63f
000005c0: e555 84ef 5464 bc3f e2d1 1cf0 e7e2 97bf
000005d0: 3edc dc25 3405 aabf a057 8162 04a5 aa3f
000005e0: fb44 4c6a 5e73 99bf dc33 30d4 6ed7 923f
000005f0: c7c1 ad69 385b 93bf c6cf 8531 7906 b0bf
00000600: 77a9 c43b 6cd0 b1bf 5068 9084 c920 af3f
00000610: 9974 4a1a 950c 33bf 2c6f 8474 5808 9c3f
00000620: 18b9 0fb1 0850 82bf 250e 75f0 bf4a ae3f
00000630: 9d1d 3f0c 3968 aabf 48fc 5e8e f1ef b03f
00000640: 95ca 6c44 2741 9dbf a088 a829 e6d3 b13f
00000650: 31c3 69bf fb9d a0bf 64e7 7de0 15fa a43f
00000660: 4f04 3803 0642 b3bf 9272 e358 9423 9c3f
00000670: a05b c4d6 8510 83bf 11aa d979 2534 aabf
00000680: 3500 681b 39a9 9abf a2c3 5a21 6021 b23f
00000690: 764b 2415 945b b03f d977 8fb5 5346 b5bf
000006a0: 9b5d 2f89 5da2 a2bf 2b89 b71d 1de6 b5bf
000006b0: 9621 411d d260 74bf 4de9 c4e9 81a5 a7bf
000006c0: 13cb e1da aeff 96bf e35f cc74 452e a43f
000006d0: 1470 4052 a81f 49bf a173 e7b0 a9f3 a4bf
000006e0: 624f a1e1 59ce a13f 188a 8fbe 7076 913f
000006f0: 18c4 4c12 5c39 bc3f 1ffe b390 554d 92bf
00000700: 2f98 0879 e382 b53f 9cb3 12a5 da6e a53f
00000710: 4d20 4b85 c13a b73f 8005 5bc4 b97c 993f
00000720: 205e bb4c 5fba 933f 4992 e77b 48df 72bf
00000730: 02dd ad9b d6e9 9abf 6a26 20b3 b23b 36bf
00000740: 3c76 419d 15f8 b93f b539 fe6c 54f3 6e3f
00000750: fa5b f5aa 7319 bdbf f8be 7384 bf12 b53f
00000760: b1d2 a76a c827 b33f c76c 403e 8696 b73f
00000770: 1740 41cd cfb3 a7bf bbda 1785 c27c 903f
00000780: 8062 aaf1 e2ca a8bf 04ae 3484 02aa ad3f
00000790: 62e7 5d34 a7db a7bf 35db f9ef 3a2b 5a3f
000007a0: a079 fc12 d745 ae3f fc3d 7c3e be7e b1bf
000007b0: 6541 bcfe d62c b5bf 6038 3cc3 a49f b23f
000007c0: 5ee9 666c a34f a73f 858a 1fb6 eba6 a53f
000007d0: 7890 53ba ad2e a13f 4ed1 047b a3b1 97bf
000007e0: e66c 9c45 16f8 b6bf 6929 a82c b3ee b3bf
000007f0: 4d29 3d6f ab81 b93f e7d2 09a7 b347 a33f

layers.1.bias f8 [100]
-0.14867549411616807 -0.0887367697066532 -0.0307879670073994 0.06495467082378265 -0.0475264479863716 0.014527865422748771 -0.030640684068202972 0.0016430463871050945
-0.06937007185253814 -0.04952451690828476 -0.01093122744263465 0.04864102538194337 -0.07761693722667717 0.06976026379008535 0.08252168597362967 -0.04525532929439208
-0.0925363439958297 -0.11446999497512449 0.12590651396223268 -0.04111003861755968 -0.005794635162051704 -0.07148900542621428 -0.023742160877858277 0.19623147288188325
0.1697287473071468 0.05468026550738457 -0.016984792621023412 0.007317158971930227 -0.07281384474482995 -0.07697526822149357 0.07594501220978557 0.005435332388783402
-0.05106845125555992 -0.047325058218632796 -0.0003537840620227381 -0.046729676809868365 -0.05285698713224227 -0.08276980990517488 -0.08895795146180248 0.10349624027475644
-0.06826585606261783 0.057583719681281335 0.021043366388171666 -0.007229884603846504 0.10445346378399899 -0.12026766351264523 0.13718439691559978 -0.1019194638784992
-0.08020682785048716 0.09458152971352596 -0.027087920150228078 0.014182148511731092 0.057218939568406 -0.10728270472620176 0.005034831827017649 -0.022855787008292088
-0.08301457322626912 0.33956897690186066 0.02329874054923025 -0.006151544058384869 0.18888452704824277 0.03337048256588836 -0.07062061375553945 -0.039040036499500275
-0.23590524079733027 0.07028981850292172 -0.09627801243734739 0.050569967132908775 0.02837058204527517 -0.05257337846058607 -0.006069135386496782 -0.01706845911465236
0.002466885689246513 0.30373970991955934 0.08517836849134974 -0.0044132217250521895 0.06938057559407816 0.04123162566682045 0.03384074752691752 0.3010812935722699
-0.04570140890324843 0.037878752378519086 -0.052828099926811534 -0.007228228191906397 0.05017641082576237 0.014250663020734387 -0.04547284593837728 -0.04094468429684639
0.0643811241135556 -0.1292331593243505 -0.042530227452516556 -0.08587595851445791 -0.12417201573972957 -0.10253076297047796 -0.026892528827950467 -0.028512683489398463
0.07270706231667863 -0.04822545498609543 0.0004257693222609481 -0.015934146072670956
00000000: d708 7970 cc07 c3bf 0ebf d7f3 73b7 b6bf
00000010: c4e0 a07d e186 9fbf 8c1c e98a dea0 b03f
00000020: 4dd0 97f7 6255 a8bf 0a9e f816 c9c0 8d3f
00000030: 0000 0080 4560 9fbf c63b e69f 6feb 5a3f
00000040: b585 edad 3cc2 b1bf e24b f108 475b a9bf
00000050: c653 f882 1c63 86bf e0c9 84fa 79e7 a83f
00000060: 6817 011f b4de b3bf 7eeb 8903 cfdb b13f
00000070: 7baf 7726 2420 b53f 2808 94de b42b a7bf
00000080: 6b4b 273b 76b0 b7bf 139c cad4 e74d bdbf
00000090: aa1b e963 b41d c03f 8fa7 ccfe 5f0c a5bf
000000a0: 0754 3688 1dbc 77bf a043 547c 1a4d b2bf
000000b0: 3aef 0672 dd4f 98bf e89e 3ce7 1c1e c93f
000000c0: fb07 70ed abb9 c53f 1e7f 2e40 0dff ab3f
000000d0: 8cb7 5823 7664 91bf a7c3 bee7 98f8 7d3f
000000e0: 5504 e099 eda3 b2bf 67b5 9cb3 a6b4 b3bf
000000f0: e13f bcdf 2171 b33f b8b7 a4ed 5b43 763f
00000100: 0000 00e0 a425 aabf 3620 a972 fd3a a8bf
00000110: 9473 eaf9 822f 37bf 5c54 4dc3 f3ec a7bf
00000120: ac36 322e 1210 abbf 868c a3fa 6630 b5bf
00000130: 8562 3fc4 f2c5 b6bf 8731 3dc7 ba7e ba3f
00000140: 59ee 3803 df79 b1bf 3753 a001 9d7b ad3f
00000150: af61 bd69 648c 953f cd86 d65e 159d 7dbf
00000160: 77fc e752 76bd ba3f d49a 8d91 dcc9 bebf
00000170: eb11 2321 428f c13f 1c1b 2fdc 6417 babf
00000180: 78a3 8846 6f88 b4bf f0dc ecc0 7e36 b83f
00000190: 3bc6 a58c efbc 9bbf 97f4 5bc0 870b 8d3f
000001a0: 06f3 5004 cd4b ad3f d3b7 391c e176 bbbf
000001b0: cc3d 9b60 679f 743f eb5a e6e6 8167 97bf
000001c0: 2625 196d 7140 b5bf 21e6 a184 7fbb d53f
000001d0: cea8 c902 a0db 973f 4987 cf88 5c32 79bf
000001e0: b441 3241 5e2d c83f 8e61 8b96 ef15 a13f
000001f0: b3e4 804a 3114 b2bf 0000 0040 0efd a3bf
00000200: 1efb 1697 2432 cebf 213a b677 83fe b13f
00000210: 9b06 be02 ada5 b8bf 46c4 fd85 4ee4 a93f
00000220: 5636 3688 2d0d 9d3f f0c3 41da e5ea aabf
00000230: 0000 0020 f3db 78bf 3b1e c3e6 647a 91bf
00000240: 6910 772b 6f35 643f 5877 26ae 7870 d33f
00000250: 583a ffe2 3fce b53f 6b60 aa2f 9913 72bf
00000260: 0f7b 27e7 ecc2 b13f 8b8d 99c7 4f1c a53f
00000270: 99f4 cc0f 9353 a13f 3723 5579 ea44 d33f
00000280: 0abc 3dd1 2c66 a7bf bba8 5b05 d864 a33f
00000290: f8ae fde2 480c abbf 9082 13bb 589b 7dbf
000002a0: 8bfb 0df7 b8b0 a93f f284 f69c 732f 8d3f
000002b0: fd9f 5284 3748 a7bf 0000 00a0 b3f6 a4bf
000002c0: ea24 8c06 487b b03f 07ad 6d50 b68a c0bf
000002d0: 0000 00a0 85c6 a5bf 4d0e 5581 f7fb b5bf
000002e0: 9737 aeba bcc9 bfbf 13c9 cac1 743f babf
000002f0: 0388 4a0f b789 9bbf f4c2 6ecc 6d32 9dbf
00000300: 559f d616 ee9c b23f 0000 00c0 01b1 a8bf
00000310: 1d83 9350 39e7 3b3f fe54 1671 0a51 90bf

layers.3.weight f8 [100]
1.2462241870999633 0.9858694437091482 1.1218484539754128 0.9886378787045721 0.5386225939691878 1.5950237917404644 1.0 1.1259027937820496
0.7089647002789505 1.1384060053407408 0.892675822910887 1.2872393807788893 0.6578077126874343 0.8468689741403014 0.9954282845878395 0.9634540738479557
0.9894477378823536 0.9682407591117509 0.49529475094702846 0.9894960982470381 0.700897029198577 1.3310059242210597 1.0006473078364027 1.3036613104392933
0.6055042931089712 0.9905632250131695 0.9730461445734755 0.9631428570933356 1.0019512397473127 1.006005472035104 0.9964360235564671 1.3075065121150955
1.0 0.9870434347348231 0.8242524900838075 0.9969935669462849 0.9902243125022471 0.6854174493589964 0.9622298459400639 1.0880490917472108
0.9683331290834741 1.0460214694278174 1.0011343170418072 1.0360714837657625 0.5926397502615154 0.9046844088516188 1.3787917949708022 0.9682883387457237
0.9772171281182788 0.6382373539110627 1.0380502445956943 0.7258323976239263 0.6950420478225985 0.9754844350283538 0.963146928543629 0.9261914360365543
0.9067916009244077 1.0929165952380593 0.9682454865305008 1.0342794209939954 0.4792761577108999 0.9587572707234403 0.9715277036019174 1.0
0.9108520623441719 1.3847305724710446 0.9682433318790858 1.227985365261258 1.50716308299437 0.9019485720078787 1.0 0.9683358432174876
1.1213074953702977 1.061523769245194 0.9210010830840292 0.9420655186049425 1.246765473969576 1.0313092922661542 0.9675331157506292 0.9523921422356888
0.9329450924003253 1.422164017451171 0.9876272894232668 1.0688699454553325 1.0024174969015163 1.0123276483779393 1.0126272291160834 1.0
1.006228528035416 0.7231007051924458 1.0 1.003835610382887 1.021637743697487 0.8324629099716006 0.9629373203423679 0.9939944961325325
1.0090923701918382 1.0 1.4189298872540916 1.3888118866717212
00000000: a641 f1c5 88f0 f33f 7c68 5b13 3e8c ef3f
00000010: ec47 4e5d 17f3 f13f 39ef 93e7 eba2 ef3f
00000020: c87f 3f73 653c e13f 17e0 ddaa 3785 f93f
00000030: 0000 0000 0000 f03f 8f4d dca5 b203 f23f
00000040: daed 36bd d6af e63f bf22 2837 e936 f23f
00000050: f3a0 2ae3 cc90 ec3f 1219 2952 8898 f43f
00000060: 2f92 a1c2 c20c e53f cfbf 7df6 8c19 eb3f
00000070: 4c2e fa6a 8cda ef3f 7fff 4ba3 9dd4 ee3f
00000080: d8c9 694d 8ea9 ef3f ff40 610b d4fb ee3f
00000090: 40ab 4cc1 e8b2 df3f 41b3 afb8 f3a9 ef3f
000000a0: aeaf 489b bf6d e63f bffc 34de cc4b f53f
000000b0: 01ce 5fc0 a602 f03f 365b 56f6 cbdb f43f
000000c0: 3db3 0f8a 4a60 e33f c6a8 01a6 b1b2 ef3f
000000d0: 9424 0eab 3123 ef3f aaf0 12f8 10d2 ee3f
000000e0: fc6b ee05 fe07 f03f 16ce 9f31 9918 f03f
000000f0: e866 b7cc cde2 ef3f 3976 cdf2 8beb f43f
00000100: 0000 0000 0000 f03f c85c fd1c dc95 ef3f
00000110: fece 11c2 4660 ea3f ed69 8b0d 5fe7 ef3f
00000120: ebd6 bce5 eaaf ef3f 1859 2393 f0ee e53f
00000130: b386 f13e 96ca ee3f c9f2 172a a668 f13f
00000140: f17f 21c2 95fc ee3f 91b3 2102 81bc f03f
00000150: d390 e96a a504 f03f 6d79 31b1 bf93 f03f
00000160: a1d9 35a3 e7f6 e23f 6000 a7b7 2cf3 ec3f
00000170: a248 36fc 870f f63f 8c5a 80d3 37fc ee3f
00000180: 557d cbda 5c45 ef3f 6346 44be 706c e43f
00000190: fd4a c292 da9b f03f 4881 45dd 043a e73f
000001a0: 12c6 17d2 c83d e63f aa85 4622 2b37 ef3f
000001b0: bbce ea81 19d2 ee3f c597 f338 5ca3 ed3f
000001c0: 0440 c8d1 6f04 ed3f a3d9 9c1c 967c f13f
000001d0: 50bd 64f5 ddfb ee3f 3a85 0194 688c f03f
000001e0: 0fbc c7e7 75ac de3f 8fe6 51ba 23ae ee3f
000001f0: 5a1a 4444 c116 ef3f 0000 0000 0000 f03f
00000200: 5965 6839 b325 ed3f 4a8d a83e db27 f63f
00000210: 35b4 9f70 d9fb ee3f 3038 7cfb d3a5 f33f
00000220: 8d30 7309 571d f83f e353 6e40 c3dc ec3f
00000230: 0000 0000 0000 f03f f83c 4573 9bfc ee3f
00000240: 6900 d620 e0f0 f13f 2c5b 0d59 00fc f03f
00000250: c2a5 6d43 d778 ed3f c81e 2396 6625 ee3f
00000260: 46b3 875a c0f2 f33f 2e81 252c 3e80 f03f
00000270: 1945 3e02 08f6 ee3f 49d4 fb15 ff79 ee3f
00000280: cc56 9aaa afda ed3f 1503 880e 2fc1 f63f
00000290: cbb8 968b a49a ef3f fe86 365f 171a f13f
000002a0: 4615 e2ed e609 f03f daea e979 7e32 f03f
000002b0: 9b7b 019c b833 f03f 0000 0000 0000 f03f
000002c0: e66d c315 8319 f03f d483 1017 a423 e73f
000002d0: 0000 0000 0000 f03f a479 d2ed b50f f03f
000002e0: 95a3 98d1 a058 f03f a6c0 ae41 89a3 ea3f
000002f0: b0fc 5eed 61d0 ee3f 1b62 a98b cdce ef3f
00000300: 85df 890a 3e25 f03f 0000 0000 0000 f03f
00000310: 332c 51d3 efb3 f63f 4fd1 18d0 9238 f63f

layers.3.bias f8 [100]
0.037437818428570954 0.01031043866755916 -0.038253244293870024 -0.027742653215931654 -0.044120367315544855 0.04120309671157799 -0.0323644737785305 0.0007428006016544791
-0.010578222167951686 0.0022946958466759575 -0.07523925268516411 -0.06183534075690023 -0.07786716253152745 -0.0004780915733184453 -0.0034765040207230106 0.029749509977728458
-0.026551498879945696 0.18170556939590443 0.03274954116605694 -0.18264715715169502 -0.047335496017625746 0.1256346841708168 0.019334651686702124 -0.31589238739995046
0.2247723304227969 0.03993609901570527 -0.2546616203189206 -0.029689773280728 0.00727874260403083 0.020074157516302236 -0.036286027996660655 -0.07133442549153252
-0.04632259234961689 -0.031457034211197756 0.032595650562363715 -0.021553426165564358 0.042508662342272734 0.0021023323066773265 -0.03776255005849429 -0.1219752390171988
0.10282218830080299 -0.09726984020271913 0.01206799094852894 -0.020850879023457763 0.022862312728856877 0.007717548970864249 0.047853111333708453 -0.07510676097369562
0.01504702112899349 0.09678965529278558 0.0009689009922459748 -0.04990674948738963 0.019432819163233483 -0.013420355621024333 -0.05102894404009268 0.1073384717398651
0.024758453946725243 -0.31229964008665007 0.062099996386470874 -0.010751756527678858 -0.0132980267555308 -0.03955720478517958 0.0170387502620181 0.14434708795303894
-0.01282289323829408 -0.023606934174695324 0.011572842856443279 -0.09593095642099145 0.1952648909666065 -0.014136693482933546 0.008654805337663211 0.037010110690705415
0.11948043346041413 -0.11043770585488 0.005351471863180985 0.01552509189049523 0.2564434221900292 0.022760401520503085 0.0181788359057988 -0.24906289699615858
-0.03209800485947479 0.378501852037438 -0.0027320142143044557 0.01393989659087015 -0.03119390593117546 -0.0882593868007094 0.004644529592811916 -0.03962225753918084
-0.00010432252992575942 0.014185713280315058 -0.10235215133112198 -0.008239058661686302 -0.009854242199036072 -0.026914992229394585 0.03014505062196447 0.019177783891971667
0.008555733531477027 0.06848220011299179 -0.15382838172806138 -0.13645054690628047
00000000: 8e8f 91bb 0c2b a33f e59e 13a7 a31d 853f
00000010: 3388 6ae2 ed95 a3bf ac18 11f1 9168 9cbf
00000020: 2761 6add f196 a6bf a584 bd81 9218 a53f
00000030: 05b1 dc88 1392 a0bf 8aad 5125 1057 483f
00000040: c4e2 16f2 08aa 85bf ef24 b473 53cc 623f
00000050: bb83 a831 e142 b3bf f167 93bc e1a8 afbf
00000060: 8e56 8134 1aef b3bf ca5e 01ac 0b55 3fbf
00000070: 5d70 59e2 c17a 6cbf 2f9a b4d1 a776 9e3f
00000080: e586 65ed 5030 9bbf 583a 07cb 2042 c73f
00000090: 18d1 8840 8cc4 a03f 7142 5667 fb60 c7bf
000000a0: 1dd9 abae 5b3c a8bf a4e3 e01d cc14 c03f
000000b0: 811c b282 76cc 933f a50a 3cb4 9437 d4bf
000000c0: 5116 1bf8 56c5 cc3f 3090 671e 8172 a43f
000000d0: 863b b440 604c d0bf 48c6 10f5 fe66 9ebf
000000e0: 0087 0b97 50d0 7d3f d9ec 1be8 518e 943f
000000f0: 8a44 180f 1594 a2bf 24a9 9010 f942 b2bf
00000100: 4043 6a46 98b7 a7bf 651e 55ea 221b a0bf
00000110: 047c 508a 60b0 a03f 49cc fdf1 1912 96bf
00000120: b710 1d05 b2c3 a53f ed81 1410 e938 613f
00000130: 5393 07eb 9c55 a3bf bb2a 80ee c439 bfbf
00000140: 351b 0e10 8e52 ba3f 99cd 8e1e ade6 b8bf
00000150: ba6c 9e53 1ab7 883f eb91 fecd ee59 95bf
00000160: e5ea ecd5 3769 973f c955 f6c6 6f9c 7f3f
00000170: 0858 61f8 3380 a83f c82b 175a 323a b3bf
00000180: 88c1 35fd f8d0 8e3f 3ed9 12f4 34c7 b83f
00000190: 02af 9109 bbbf 4f3f 14c7 cba1 608d a9bf
000001a0: 23c6 196b 32e6 933f 5da4 f1a3 217c 8bbf
000001b0: e96c 9a3b 7720 aabf f0af b9b9 887a bb3f
000001c0: 59b9 00b8 475a 993f 0562 2ea1 b7fc d3bf
000001d0: 6c8b 1f1b 92cb af3f 6798 4955 0405 86bf
000001e0: b375 21f0 fe3b 8bbf 253e bf89 d740 a4bf
000001f0: ea70 8f2c 9b72 913f 53fc 0323 f779 c23f
00000200: 70e0 c998 e342 8abf 6ce1 f488 6a2c 98bf
00000210: a1ab b8ac 80b3 873f 868d 8060 ee8e b8bf
00000220: 2d19 61a0 70fe c83f 3853 76e1 b2f3 8cbf
00000230: 1c30 074f 9cb9 813f 376a 133e fdf2 a23f
00000240: 2771 390a 4596 be3f a058 e43e a545 bcbf
00000250: 9489 34ca 6ceb 753f 831f 7f8f 9ecb 8f3f
00000260: d926 e5ab 9169 d03f 2493 b2b0 804e 973f
00000270: 386e c706 799d 923f 206d 9f02 4be1 cfbf
00000280: 61ce 4652 266f a0bf 827a fed4 5f39 d83f
00000290: e410 7cf6 7261 66bf 0741 bd3f 858c 8c3f
000002a0: 0750 3c97 4bf1 9fbf 75c2 dfcb 2a98 b6bf
000002b0: fd8a 4d6b 2406 733f 1521 a658 5e49 a4bf
000002c0: d8ff c46a f758 1bbf cc05 e034 660d 8d3f
000002d0: 1975 a426 c033 babf 0b9f 03bc a3df 80bf
000002e0: bc16 c6ff 752e 84bf 50e1 968d 9a8f 9bbf
000002f0: fbfb 3a1a 58de 9e3f e0ca 804a 57a3 933f
00000300: 9918 b01d ab85 813f d9ea d7a9 0c88 b13f
00000310: fdfb 5bfe a5b0 c3bf c9ec 3d26 3677 c1bf

layers.3.running_mean f8 [100]
2.5e-323 2.5e-323 2.5e-323 2.5e-323 2.5e-323 32.03465502151582 0.0 2.5e-323
2.5e-323 2.5e-323 37.490756657312275 2.5e-323 2.5e-323 2.5e-323 2.5e-323 2.5e-323
2.5e-323 2.5e-323 2.5e-323 19.754495836028184 2.5e-323 40.52712531325744 2.5e-323 40.64868747410752
14.339870875676244 2.5e-323 12.458780014851625 2.5e-323 2.5e-323 2.5e-323 2.5e-323 36.78989928206671
0.0 2.5e-323 2.5e-323 2.5e-323 2.5e-323 2.5e-323 2.5e-323 18.956711265319587
2.5e-323 62.964049173205396 2.5e-323 2.5e-323 2.5e-323 2.5e-323 29.618401050282294 2.5e-323
2.5e-323 22.978450489817916 2.5e-323 2.5e-323 2.5e-323 2.5e-323 2.5e-323 12.898976280043106
2.5e-323 14.569272100157288 2.5e-323 2.5e-323 11.047952649094888 2.5e-323 2.5e-323 0.0
2.5e-323 3.666988393808319e-236 2.5e-323 2.5e-323 39.78907570996043 1.4336853543853305e-122 0.0 2.5e-323
59.458810095199674 2.5e-323 2.5e-323 2.5e-323 26.174488784582344 2.5e-323 2.5e-323 28.182695103181214
2.5e-323 44.36223975129326 2.5e-323 2.5e-323 2.5e-323 2.5e-323 2.5e-323 0.0
2.5e-323 42.03021150116597 0.0 2.5e-323 2.5e-323 2.5e-323 2.5e-323 2.5e-323
2.5e-323 0.0 31.27168453502514 21.531772508214488
00000000: 0500 0000 0000 0000 0500 0000 0000 0000
00000010: 0500 0000 0000 0000 0500 0000 0000 0000
00000020: 0500 0000 0000 0000 bc06 6493 6f04 4040
00000030: 0000 0000 0000 0000 0500 0000 0000 0000
00000040: 0500 0000 0000 0000 0500 0000 0000 0000
00000050: aab9 381d d1be 4240 0500 0000 0000 0000
00000060: 0500 0000 0000 0000 0500 0000 0000 0000
00000070: 0500 0000 0000 0000 0500 0000 0000 0000
00000080: 0500 0000 0000 0000 0500 0000 0000 0000
00000090: 0500 0000 0000 0000 90b5 9ca3 26c1 3340
000000a0: 0500 0000 0000 0000 d0aa 9ed7 7843 4440
000000b0: 0500 0000 0000 0000 ee4e ef30 0853 4440
000000c0: e2c8 2f8e 03ae 2c40 0500 0000 0000 0000
000000d0: 37b1 cf36 e5ea 2840 0500 0000 0000 0000
000000e0: 0500 0000 0000 0000 0500 0000 0000 0000
000000f0: 0500 0000 0000 0000 22ce 6f6b 1b65 4240
00000100: 0000 0000 0000 0000 0500 0000 0000 0000
00000110: 0500 0000 0000 0000 0500 0000 0000 0000
00000120: 0500 0000 0000 0000 0500 0000 0000 0000
00000130: 0500 0000 0000 0000 2d43 8c07 ebf4 3240
00000140: 0500 0000 0000 0000 9653 9bf6 657b 4f40
00000150: 0500 0000 0000 0000 0500 0000 0000 0000
00000160: 0500 0000 0000 0000 0500 0000 0000 0000
00000170: 46c6 fe87 4f9e 3d40 0500 0000 0000 0000
00000180: 0500 0000 0000 0000 ec85 36bb 7bfa 3640
00000190: 0500 0000 0000 0000 0500 0000 0000 0000
000001a0: 0500 0000 0000 0000 0500 0000 0000 0000
000001b0: 0500 0000 0000 0000 6b54 759e 46cc 2940
000001c0: 0500 0000 0000 0000 ce66 f9a1 7723 2d40
000001d0: 0500 0000 0000 0000 0500 0000 0000 0000
000001e0: fc3c e73f 8d18 2640 0500 0000 0000 0000
000001f0: 0500 0000 0000 0000 0000 0000 0000 0000
00000200: 0500 0000 0000 0000 46d5 d685 1ad9 0d0f
00000210: 0500 0000 0000 0000 0500 0000 0000 0000
00000220: 8c2c d06e 00e5 4340 9306 a4fa 75f4 a226
00000230: 0000 0000 0000 0000 0500 0000 0000 0000
00000240: 87fa 084a baba 4d40 0500 0000 0000 0000
00000250: 0500 0000 0000 0000 0500 0000 0000 0000
00000260: ca4c 074c ab2c 3a40 0500 0000 0000 0000
00000270: 0500 0000 0000 0000 7b4d 351b c52e 3c40
00000280: 0500 0000 0000 0000 d08e 46df 5d2e 4640
00000290: 0500 0000 0000 0000 0500 0000 0000 0000
000002a0: 0500 0000 0000 0000 0500 0000 0000 0000
000002b0: 0500 0000 0000 0000 0000 0000 0000 0000
000002c0: 0500 0000 0000 0000 47bc 70f8 dd03 4540
000002d0: 0000 0000 0000 0000 0500 0000 0000 0000
000002e0: 0500 0000 0000 0000 0500 0000 0000 0000
000002f0: 0500 0000 0000 0000 0500 0000 0000 0000
00000300: 0500 0000 0000 0000 0000 0000 0000 0000
00000310: 0fc3 201e 8d45 3f40 70b1 3b3e 2288 3540

layers.3.running_var f8 [100]
2.5e-323 2.5e-323 2.5e-323 2.5e-323 2.5e-323 12.489584868060007 2.5e-323 2.5e-323
2.5e-323 2.5e-323 3.724366081444423 2.5e-323 2.5e-323 2.5e-323 2.5e-323 2.5e-323
2.5e-323 2.5e-323 2.5e-323 5.490576273270144 2.5e-323 7.836838901873751 2.5e-323 9.267378508672143
6.4681894095781045 2.5e-323 4.928112046560704 2.5e-323 2.5e-323 2.5e-323 2.5e-323 6.5964854526815255
2.5e-323 2.5e-323 2.5e-323 2.5e-323 2.5e-323 2.5e-323 2.5e-323 9.677668044595091
2.5e-323 8.189349643296438 2.5e-323 2.5e-323 2.5e-323 2.5e-323 3.5188749956599703 2.5e-323
2.5e-323 6.550252292051632 2.5e-323 2.5e-323 2.5e-323 2.5e-323 2.5e-323 7.450242456924283
2.5e-323 5.168125637012946 2.5e-323 2.5e-323 4.466821616934266 2.5e-323 2.5e-323 2.5e-323
2.5e-323 8.682089280630894e-238 2.5e-323 2.5e-323 11.906393876353317 2.758961546237737e-123 2.5e-323 2.5e-323
4.102590771190431 2.5e-323 2.5e-323 2.5e-323 5.154715513708901 2.5e-323 2.5e-323 4.362127777558151
2.5e-323 6.034512302018931 2.5e-323 2.5e-323 2.5e-323 2.5e-323 2.5e-323 2.5e-323
2.5e-323 8.16711077421513 2.5e-323 2.5e-323 2.5e-323 2.5e-323 2.5e-323 2.5e-323
2.5e-323 2.5e-323 8.48907034518653 6.032897030417963
00000000: 0500 0000 0000 0000 0500 0000 0000 0000
00000010: 0500 0000 0000 0000 0500 0000 0000 0000
00000020: 0500 0000 0000 0000 50de 29de aafa 2840
00000030: 0500 0000 0000 0000 0500 0000 0000 0000
00000040: 0500 0000 0000 0000 0500 0000 0000 0000
00000050: 7115 b171 80cb 0d40 0500 0000 0000 0000
00000060: 0500 0000 0000 0000 0500 0000 0000 0000
00000070: 0500 0000 0000 0000 0500 0000 0000 0000
00000080: 0500 0000 0000 0000 0500 0000 0000 0000
00000090: 0500 0000 0000 0000 298e 67a0 59f6 1540
000000a0: 0500 0000 0000 0000 f445 0e4c ec58 1f40
000000b0: 0500 0000 0000 0000 dbcc fcd5 e588 2240
000000c0: d3e2 690b 6ddf 1940 0500 0000 0000 0000
000000d0: e601 1c01 63b6 1340 0500 0000 0000 0000
000000e0: 0500 0000 0000 0000 0500 0000 0000 0000
000000f0: 0500 0000 0000 0000 463a 1f15 cd62 1a40
00000100: 0500 0000 0000 0000 0500 0000 0000 0000
00000110: 0500 0000 0000 0000 0500 0000 0000 0000
00000120: 0500 0000 0000 0000 0500 0000 0000 0000
00000130: 0500 0000 0000 0000 0e29 524e f75a 2340
00000140: 0500 0000 0000 0000 58ef ba6f f260 2040
00000150: 0500 0000 0000 0000 0500 0000 0000 0000
00000160: 0500 0000 0000 0000 0500 0000 0000 0000
00000170: df92 08ef a726 0c40 0500 0000 0000 0000
00000180: 0500 0000 0000 0000 a9a4 3b56 7533 1a40
00000190: 0500 0000 0000 0000 0500 0000 0000 0000
000001a0: 0500 0000 0000 0000 0500 0000 0000 0000
000001b0: 0500 0000 0000 0000 bc0a cf5b 0ccd 1d40
000001c0: 0500 0000 0000 0000 ed5b 8220 29ac 1440
000001d0: 0500 0000 0000 0000 0500 0000 0000 0000
000001e0: ad31 677c 06de 1140 0500 0000 0000 0000
000001f0: 0500 0000 0000 0000 0500 0000 0000 0000
00000200: 0500 0000 0000 0000 f518 33cb 3a9d b60e
00000210: 0500 0000 0000 0000 0500 0000 0000 0000
00000220: de76 b0db 12d0 2740 2681 4144 662e 7d26
00000230: 0500 0000 0000 0000 0500 0000 0000 0000
00000240: 8b89 1c8e 0d69 1040 0500 0000 0000 0000
00000250: 0500 0000 0000 0000 0500 0000 0000 0000
00000260: 1841 5ebe 6d9e 1440 0500 0000 0000 0000
00000270: 0500 0000 0000 0000 7957 c69f d172 1140
00000280: 0500 0000 0000 0000 87ec 6131 5723 1840
00000290: 0500 0000 0000 0000 0500 0000 0000 0000
000002a0: 0500 0000 0000 0000 0500 0000 0000 0000
000002b0: 0500 0000 0000 0000 0500 0000 0000 0000
000002c0: 0500 0000 0000 0000 5f20 1c8b 8f55 2040
000002d0: 0500 0000 0000 0000 0500 0000 0000 0000
000002e0: 0500 0000 0000 0000 0500 0000 0000 0000
000002f0: 0500 0000 0000 0000 0500 0000 0000 0000
00000300: 0500 0000 0000 0000 0500 0000 0000 0000
00000310: 060a a46d 67fa 2040 681f 57c2 af21 1840
