model_policy_final.pt (torch, 373698 bytes, 28 tensors)

layers.0.weight f8 [128, 128]
-1.9413075798319168 -0.21700959995146998 0.040517913765373094 -0.13511602172471798 -0.29269329044551645 -0.802690719041116 -0.41409903721939895 -0.8218505008956271
-1.93480748884505 -1.5230178892155168 0.3051522897543983 -1.45651099247472 -0.5623748251008652 -0.543276017193958 -1.0062044967968433 -0.26947034948097887
0.23652714474901787 -0.7404746028552242 -1.4237359518584565 -0.3486843712731494 0.3783685444271889 -0.8093376162673356 -0.4159223724023776 0.8066413506132898
-1.6153907311273399 -3.1316349635769085 -1.3472557894632962 -0.8185096032231685 -2.214403543802911 0.11641881608784152 -1.7036907564072281 -0.7535412352852119
-1.734826947510187 0.31375744819092455 -0.4372047014293626 -1.3935116855741239 0.1894295164932197 -0.025124121899304422 -0.3217326633976842 2.104712031338799
1.1148393696123255 -2.637601820277426 -0.9615289083034739 -0.9231538609030715 1.6684526581449113 -2.173539713719873 -2.037763636683006 0.2155623341034909
-1.4601020245550724 -0.5197442839520626 -5.603253284954545 -2.253070909363788 -0.21057556756114254 -1.021011309966577 -0.7649247456964775 -2.4377760247181253
-0.9081501468953932 -1.765136199617343 -2.8360962897442086 -1.900205144082693 -1.754765154797319 -0.3013387856159065 -2.4521749171717677 0.7223915615013605
2.267446885568511 0.36318168111318017 -0.15813027825318043 1.2465371062966681 1.0817942732074155 1.4302338111581174 0.9508982187813417 0.636394351178303
-0.8865503475657749 1.0066323647749151 1.0218152889934906 2.3311824172540403 2.830563079097257 -0.9245337247162178 2.1507287449843244 1.0366610294582888
-0.18442089468326386 1.741560880458038 1.4999591557995127 0.6992843912280604 0.7055015408254994 1.2311498512150532 0.6856292799498832 -0.5813084797010377
0.8523528335873327 0.8621108682252692 2.1017690008155534 -0.24406243044327627 1.641967594581721 0.2005893280195496 2.885870869966782 0.24797699567162446
2.564515620180307 0.6863494827480507 -0.15102066282956889 1.6614460592745675 -0.9646012449368847 -0.8226095307631346 0.22290856843373566 -3.239382471789361
-1.8138668609672235 2.0722286324693138 2.5998638026120684 -0.5956659226548753 0.15277970270527613 2.480191376766304 -0.9979750824432261 -0.5199348785692006
0.4564924212536757 0.22236218552972833 -0.32449638470805126 0.149135879570973 -1.2498970388152209 -0.3204110113246252 0.43560234490314215 0.3324348670310405
2.8988484309051854 0.944907151778344 1.5797219546676962 2.960092676332687 2.033245076486467 -1.4465422302504587 0.5930427498861752 -1.6079716118653762
-2.562036857407006 -1.2101679854477798 -0.8286089213802963 -0.37282499722768647 -0.9040652632827464 -1.9468825437988004 -0.4320588257366641 -0.26999482894532073
-2.070622898546894 -2.050574682916047 -1.3096881920102048 -1.3321418531928744 -1.307607516118404 -0.9813972041700563 -1.3254496609623476 -0.4452425864431126
-0.9240058487180963 -0.989770345413066 -1.2780076031004286 -1.3569714164457476 -0.29588858113995864 -0.7688468740514394 -0.47000230765286655 -0.4419682895299159
-1.8633243064292673 -2.70490316931174 -1.3482300032473198 0.0876629231325551 -1.7118030011511367 -0.5208588248925947 -1.8141200340080783 0.05172988714020438
-1.407594599042806 -0.6309681610877949 -0.6347237450332606 -1.0981269673294036 -0.6506789811408769 -0.32623587347100336 -0.9051064708198606 0.8659574242606328
0.28015393803413685 -2.2499442344292793 -0.36986320641959264 -1.0854758551735422 0.737858044385631 -1.8853947691467838 -0.5158809820223741 -1.2138325579006652
-0.3829555196820061 -1.177078431795547 -5.950422898138589 -2.015191294378668 -0.9711805215159403 -1.5097114078410931 -0.7026302760061918 -2.507190901650697
-0.021178112300207993 -1.37185974653438 -2.414487444759791 -1.520381160580114 -2.067639675715142 -0.15162202706315223 -2.8278101924859693 1.0679313140356528
1.7815022273846277 0.2289534900181845 -0.27249461534815383 1.0806360106426316 0.6396270932561098 1.5360955019077254 0.2852128675158057 0.25340677257799527
-0.7573326387094447 1.723890638561024 1.398157498203674 1.8722595098483437 2.0309870066054265 0.055159880513589214 1.895974870997857 1.0257709337432332
-0.5146171660916515 1.61779785590048 0.31373237449279273 0.3688868547339449 0.5378616861839047 1.7227782122774464 0.28670810394104873 0.35069011571718733
2.1678811577097914 0.8200522457681179 1.278419829087569 -0.37441990563538347 0.9278728494417909 -0.21561236053346816 2.9157973527353223 0.49163856614756574
2.292720120433866 1.5472998386937535 -0.10928396673174104 0.14576064283686008 -1.0055043440674782 -0.7747011807579121 0.05462627010706572 -2.2423433737381195
-1.5224567591407698 1.7769186730159927 1.308282803232504 0.5496622861115412 -0.41348019189617363 1.8780646465535198 -1.408525918591482 -0.1664735126685706
-1.4615403550407517 0.3889837993699314 0.6528051093897108 0.23301836708535828 -0.25363364148735806 -0.9849117232741281 0.09493866084114636 -0.047242782400107125
0.16052749790668985 0.15547404660468211 1.2150866716282416 2.13731225288464 1.586980590531549 -1.347747087779813 1.2409819232426642 -2.271209671140286
00000000: 0cae 6d89 980f ffbf 65d4 5a77 f8c6 cbbf
00000010: 8581 0c95 c3be a43f be94 3c57 7b4b c1bf
00000020: 4137 8ea3 7cbb d2bf bbb2 6272 a4af e9bf
00000030: d964 8a3f 9980 dabf b388 f16b 994c eabf
00000040: 7453 8ab2 f8f4 febf 2175 9601 485e f8bf
00000050: a7db 3278 9d87 d33f 4418 6f78 de4d f7bf
00000060: a9dc 3c7d f9fe e1bf e992 d162 8462 e1bf
00000070: 0d4a ede2 6919 f0bf b7cc 9090 003f d1bf
00000080: e219 a87f 8546 ce3f 4f04 59cb f7b1 e7bf
00000090: abf1 7559 9fc7 f6bf dda5 cf40 d850 d6bf
000000a0: f497 09b3 3037 d83f 444e 2900 18e6 e9bf
000000b0: 0226 c9de 789e dabf fb87 8f85 01d0 e93f
000000c0: 5941 87f3 a3d8 f9bf 7395 bca1 960d 09c0
000000d0: dc76 3116 5c8e f5bf 34c6 290d 3b31 eabf
000000e0: 743d 8634 19b7 01c0 567f bc9f 9fcd bd3f
000000f0: c743 143d 5142 fbbf ff98 3782 021d e8bf
00000100: 8569 bce6 d9c1 fbbf d6cf b61e 9a14 d43f
00000110: c9fa 926d 29fb dbbf b827 c2e8 d24b f6bf
00000120: ec23 1ef5 393f c83f 94c9 9747 23ba 99bf
00000130: 1f46 d698 4497 d4bf 6fc8 f042 73d6 0040
00000140: 7c73 8cce 61d6 f13f 63b1 affb ce19 05c0
00000150: da4d ea45 d8c4 eebf 8727 38f7 798a edbf
00000160: b081 1a6a fbb1 fa3f 59df 17ca 6863 01c0
00000170: 9640 8405 574d 00c0 60a9 9ceb 8b97 cb3f
00000180: 4b99 c4f0 935c f7bf ed6c bbc3 bea1 e0bf
00000190: 5d56 a83a bb69 16c0 a64a 7a0a 4a06 02c0
000001a0: e280 01e4 23f4 cabf ea70 92f4 0f56 f0bf
000001b0: 0f5c d575 437a e8bf 0f19 69b7 9080 03c0
000001c0: f4be 98e5 900f edbf b779 a574 ff3d fcbf
000001d0: 0811 6640 53b0 06c0 0c6b 5882 3d67 febf
000001e0: e13c 80a0 8413 fcbf a925 4f79 2249 d3bf
000001f0: 1198 0ae2 0d9e 03c0 3cc0 71e8 d41d e73f
00000200: 7178 5731 bb23 0240 52cb b860 5e3e d73f
00000210: c269 cdea 9c3d c4bf f3b6 8ce4 d0f1 f33f
00000220: a5d0 0683 074f f13f beeb 48d9 3ce2 f63f
00000230: 4eb2 ef19 c26d ee3f 3c70 b5af 575d e43f
00000240: 8fad a1d5 9e5e ecbf bdda dc89 2a1b f03f
00000250: 307a 0cfd 5a59 f03f 3eee 98f7 42a6 0240
00000260: f9e6 6f41 fea4 0640 2e91 f6bf c795 edbf
00000270: c932 b245 b134 0140 08fa 28e0 2996 f03f
00000280: 058d ae97 1a9b c7bf bdf6 18f1 6edd fb3f
00000290: 31ea f72b d5ff f73f 72b0 dda8 8960 e63f
000002a0: acf0 a3f7 7793 e63f 4b1a b72f cab2 f33f
000002b0: a712 d2d0 acf0 e53f 8e82 a63d 149a e2bf
000002c0: 0423 1d73 7946 eb3f e2b7 1188 6996 eb3f
000002d0: c5fe 1144 6cd0 0040 a5d3 770e 703d cfbf
000002e0: dc1f fdcf 7f45 fa3f 6ea2 e23d e9ac c93f
000002f0: 24e4 7777 4316 0740 78f4 48cf b5bd cf3f
00000300: 6c0b f6c3 2084 0440 ccf0 c030 93f6 e53f
00000310: 5ec6 ef23 a554 c3bf 0170 8a76 4895 fa3f
00000320: ede9 156e 03de eebf 9f2d 0039 d152 eabf
00000330: b5e5 b599 4488 cc3f 4d91 7c5b 41ea 09c0
00000340: 3f70 f241 9905 fdbf f552 f29a ec93 0040
00000350: 2c2f b264 85cc 0440 8e9e 24fb b10f e3bf
00000360: 464e 4e09 498e c33f 8a42 9893 6ed7 0340
00000370: 4221 aa70 69ef efbf 7024 7078 4ea3 e0bf
00000380: 5502 0afd 2b37 dd3f 6dcf 5b35 5d76 cc3f
00000390: b371 ff7b 8cc4 d4bf 6971 b56e e216 c33f
000003a0: 0342 9109 94ff f3bf 27b9 ba2f 9d81 d4bf
000003b0: c5df 5aa8 e8e0 db3f 0ab3 7ce4 9c46 d53f
000003c0: b663 3672 d730 0740 b59f 54ec ad3c ee3f
000003d0: 9c22 4187 8a46 f93f f4d2 af11 45ae 0740
000003e0: 6219 a2fe 1544 0040 8456 3377 0925 f7bf
000003f0: 5283 fcc9 34fa e23f 2cbb dd70 40ba f9bf
00000400: 7aad 0d2e 0d7f 04c0 75a1 021b d95c f3bf
00000410: 1612 50db f683 eabf 5c59 8e60 5ddc d7bf
00000420: 04f8 6746 1aee ecbf 614e 6c4f 6e26 ffbf
00000430: 3a2d 9f0f daa6 dbbf 6d31 1a64 9847 d1bf
00000440: 70dc fcbc a290 00c0 390a 09b3 9367 00c0
00000450: 5942 0a9b 7bf4 f4bf 278a d1f9 7350 f5bf
00000460: a8b7 dbdb f5eb f4bf b07a 091c 9b67 efbf
00000470: bb3d 25b4 0a35 f5bf d7d0 e3c2 da7e dcbf
00000480: 83d2 b1b6 7491 edbf 1631 03dc 32ac efbf
00000490: e7b0 b519 b872 f4bf 4bdc f3a8 27b6 f5bf
000004a0: ba61 d0a8 d6ef d2bf 32d9 75c2 649a e8bf
000004b0: 4c78 1a8f 8414 debf 639a 595d 3549 dcbf
000004c0: 144a df25 2dd0 fdbf 4d53 d845 a4a3 05c0
000004d0: 70ee b69f 5992 f5bf f913 edcb 1371 b63f
000004e0: 7438 328b 8b63 fbbf d8e4 5720 e0aa e0bf
000004f0: 6554 91ba a206 fdbf c863 fcfa 567c aa3f
00000500: 30a4 0eea 8185 f6bf 100f 1624 e430 e4bf
00000510: 2c33 dd2b a84f e4bf 3391 3895 ed91 f1bf
00000520: b63a 06ba 5cd2 e4bf ccc1 d56d 0ce1 d4bf
00000530: 8a37 72d8 a1f6 ecbf a9b0 1d58 ecb5 eb3f
00000540: 4ff1 6cc8 0aee d13f 8194 45c3 e2ff 01c0
00000550: d936 e4b9 d6ab d7bf 8316 29ee 1b5e f1bf
00000560: f541 3779 889c e73f fa8e 98b4 932a febf
00000570: 4343 4dd5 1882 e0bf dc0d 30b0 db6b f3bf
00000580: 75d7 36de 5782 d8bf b138 9631 50d5 f2bf
00000590: c67f 03a9 3bcd 17c0 8252 049d 1c1f 00c0
000005a0: c18a 4d2c e913 efbf b635 3126 c727 f8bf
000005b0: 9408 147d f27b e6bf 1459 7b1a ba0e 04c0
000005c0: cfb2 e10e b7af 95bf 3106 a134 23f3 f5bf
000005d0: 6cc4 1ecb de50 03c0 7c56 2232 7b53 f8bf
000005e0: 5fde 98ab 868a 00c0 9d73 cbbf 5968 c3bf
000005f0: 7f2e 40f3 5a9f 06c0 da84 4225 3f16 f13f
00000600: dee3 c57a 0881 fc3f f271 f713 594e cd3f
00000610: 3169 5041 8d70 d1bf af70 49fc 484a f13f
00000620: 0375 e53c d377 e43f 479f 83e0 d893 f83f
00000630: b53d 9878 ed40 d23f 6eac 330a d137 d03f
00000640: 136a 6ea8 113c e8bf a200 a859 0e95 fb3f
00000650: 4312 9765 da5e f63f 2cc7 4663 c6f4 fd3f
00000660: 1bc5 9f1d 763f 0040 2fda b675 ea3d ac3f
00000670: ed93 0fbf e955 fe3f 47d5 59c8 8e69 f03f
00000680: ed5c 4a6b be77 e0bf 8d1a 2a01 80e2 f93f
00000690: 6926 09f4 3014 d43f 126c 409c d79b d73f
000006a0: 18cd fdb5 2936 e13f 3de3 ffe2 7f90 fb3f
000006b0: c232 7bf2 6c59 d23f 244a 82f4 b471 d63f
000006c0: 4cd3 8f13 d257 0140 c4bb 1235 de3d ea3f
000006d0: 05d3 c759 6874 f43f 6539 6be8 7ef6 d7bf
000006e0: c45c e666 22b1 ed3f c263 8d92 2f99 cbbf
000006f0: ba17 fe8f 8d53 0740 9897 c39a 0177 df3f
00000700: 3728 81a5 7d57 0240 61bb c479 bdc1 f83f
00000710: ea08 17b7 08fa bbbf b89d 03e5 48a8 c23f
00000720: 8e17 1cb9 8b16 f0bf e0e3 7021 5aca e8bf
00000730: a880 3977 f9f7 ab3f 38dc 04b9 51f0 01c0
00000740: 1057 619e fb5b f8bf 2516 4446 426e fc3f
00000750: 4dd8 dcf2 b9ee f43f 8032 d65c d596 e13f
00000760: 4339 6f9f 7576 dabf e689 cb83 8d0c fe3f
00000770: 4cb3 3e79 5289 f6bf 81e7 470a 014f c5bf
00000780: b8f2 aa23 7862 f7bf 7bee 3d4e 1ce5 d83f
00000790: 43b2 6f8a c7e3 e43f 28dd ffbc 8bd3 cd3f
000007a0: 3fa1 d698 883b d0bf a919 1d97 6584 efbf
000007b0: 8a52 706b e64d b83f 7cd1 c2ba 3430 a8bf
000007c0: b418 cf40 2a8c c43f 2c9e c5d4 92e6 c33f
000007d0: 3d2e c7b8 fe70 f33f 3ed6 9b2a 3719 0140
000007e0: 2e84 7bc2 4564 f93f 55b2 1440 5f90 f5bf
000007f0: 2012 74dc 0fdb f33f 6540 dff9 6f2b 02c0

layers.0.bias f8 [128]
-1.8776552523690835 -2.27501356683927 1.3612947231171222 1.4941744071665242 0.30098649699840896 -0.737038351807998 -0.13366214567678936 1.4355509509108275
-1.2664667662580655 -0.6612628027542378 1.1272975996112882 0.734208176221114 -2.208455567630306 -0.7671245731933913 0.34670136921245315 2.312055590095543
2.9307542030807325 0.6760457811900623 1.4061518794052599 -0.2902226366924315 0.07398772695034272 -1.4697705592399297 1.2020583853213402 -0.651353605730641
0.6439875664025327 -1.447495458290962 1.9159245646405847 1.0199381039864406 -0.9563147833641 -0.40065437053813663 -0.9845818493987637 0.40834932846685473
-0.4528479438317939 -0.28684575127513695 -0.010613175071719366 -0.8538757606015602 1.0321988111808964 -3.531610445523318 -0.07771802002071163 -2.0545803421197615
-0.3310175466483034 0.6066066128165198 -0.961819185338446 -1.3118592633107005 -1.129516037877163 -0.29237612122136336 -1.1060712337073941 -0.07487206491932631
1.0525692833197196 -0.4979658661184839 -1.842354301250306 -0.5405166235100557 0.9687204508387284 1.477557105915923 -0.03199755667280439 0.18576660719632945
1.1247362332835367 1.7851200352605703 1.1155934296561152 -0.9513489210640832 -1.361905748911373 0.5984098979315285 0.5137295060722767 0.31179630031891853
0.1709167541702365 1.278723129141397 -0.47535372315394764 0.48528979850873966 0.8625979016513989 2.6607260635859937 -1.3840669792402 0.8847154290221748
-0.5294921705031918 -1.0319413715069508 -1.2695272475070245 2.6877366729277883 0.2725007704139508 0.437135596557422 -0.20065612537870278 0.6095361619611726
1.0296855675178553 0.4184324823343773 1.0433132629266657 0.2683274209281203 1.0965129680821772 -0.9444829926845209 -2.287992841122371 -0.9754903128343346
1.3978972714472702 -2.4273686784486794 -1.625989941092937 -1.2336355039552271 -1.8092300026098225 0.3690842138410375 -1.5397016215065467 0.18653722807818393
-0.7453610079696231 1.433657400293249 1.5882717049626573 1.184618691258526 -0.25331248298171 -3.275278932640871 0.9764979232478842 -0.3249147002818675
0.8957628605626902 0.39442678720300395 -1.8992568078484842 -0.14609529368113364 0.5650684999982979 0.9292212353257343 0.3866116276208465 -1.3553620369742958
-0.5528690519306733 -1.8209672411850262 -0.7776086110595744 1.0687209182295847 0.12650515583453253 -0.9172414598926709 1.1035998092755883 -0.7563483361130005
-0.5530483982596318 -0.1564162043159353 0.4455582917863374 -0.028558361845817025 -0.5357237726308383 0.012048103011954985 -1.3518086391257498 -0.3643888995658775
00000000: cb67 e13b e00a febf 703f 1c50 3a33 02c0
00000010: 2e16 c0f9 dcc7 f53f 7ace 546c 23e8 f73f
00000020: 4654 49de 5c43 d33f 1138 1d74 d195 e7bf
00000030: 4c8f 3258 d71b c1bf 9475 1e46 04f8 f63f
00000040: cdc9 e8a7 7243 f4bf 0681 fc9b 1029 e5bf
00000050: 5c09 3335 6909 f23f 696a 2a25 a27e e73f
00000060: 5821 adc0 eaaa 01c0 b85a 3ad5 488c e8bf
00000070: f3bc 8ff0 5a30 d63f 68f4 4f00 177f 0240
00000080: 33c5 7642 2f72 0740 41ec 19c3 2aa2 e53f
00000090: 8b12 f41c 997f f63f d5c8 49f7 0193 d2bf
000000a0: 189e 8e13 dcf0 b23f 31f2 4822 2e84 f7bf
000000b0: 5067 cd92 a13b f33f 40d5 5784 e3d7 e4bf
000000c0: 1e58 17d0 8b9b e43f ce7d 67ff f028 f7bf
000000d0: e5bf 2b84 a0a7 fe3f 600e 099e aa51 f03f
000000e0: 435d e775 219a eebf 237d 9d3a 52a4 d9bf
000000f0: 74e4 6ccb b181 efbf fdf4 c638 6522 da3f
00000100: a960 34f1 75fb dcbf f349 2e48 ae5b d2bf
00000110: 96d2 b73e 5cbc 85bf bb2f 5442 f352 ebbf
00000120: 5adf 8fe6 e283 f03f 8be0 2dfa bc40 0cc0
00000130: 1a80 4c02 54e5 b3bf 5c45 83d1 c76f 00c0
00000140: 6c6c 5038 642f d5bf 7bb2 7245 5269 e33f
00000150: 2735 3607 39c7 eebf 5cfc 8d23 60fd f4bf
00000160: aed6 af68 7f12 f2bf ccbb b155 4ab6 d2bf
00000170: 351d fdbf 77b2 f1bf 1966 36ce d02a b3bf
00000180: 1f1e 8ae3 52d7 f03f 7a34 6039 acde dfbf
00000190: 6d3d f880 487a fdbf eb70 9d84 e94b e1bf
000001a0: e832 ea07 c2ff ee3f cb19 7eeb 12a4 f73f
000001b0: 0657 ecd6 fb61 a0bf 356e 4c3f 33c7 c73f
000001c0: a743 a96b ebfe f13f 670e ae06 da8f fc3f
000001d0: 7e16 007f 78d9 f13f 91c3 e14a 7371 eebf
000001e0: 94f0 bcae 5dca f5bf e1fe a683 2c26 e33f
000001f0: dd42 72dc 7870 e03f 138c 3878 78f4 d33f
00000200: 1ef4 bfa6 99e0 c53f 3ed1 4462 a675 f43f
00000210: 4298 be05 326c debf 9c5b 6bf1 fc0e df3f
00000220: 881c 26ea 669a eb3f b8bb 15bf 2a49 0540
00000230: 75f6 b46a 2325 f6bf d656 3dbb 964f ec3f
00000240: 9393 7990 99f1 e0bf 1630 a0f4 d482 f0bf
00000250: efc6 96cd fb4f f4bf aae0 b315 7c80 0540
00000260: a803 4412 a770 d13f c56b c894 07fa db3f
00000270: 6b2e 1f94 19af c9bf 7648 2bfb 5181 e33f
00000280: 2f70 da92 9779 f03f b574 cd08 99c7 da3f
00000290: 9c0c 7c3f 69b1 f03f 4367 60c6 462c d13f
000002a0: 72d8 982e 518b f13f c6a9 a665 3439 eebf
000002b0: 58d2 d030 cf4d 02c0 5c06 e675 3737 efbf
000002c0: df89 8087 c95d f63f af2c 0a45 406b 03c0
000002d0: f6e7 4907 0e04 fabf 3fc1 0a95 f8bc f3bf
000002e0: 3e6b c228 9bf2 fcbf 34b2 fa64 139f d73f
000002f0: 2880 df2a 9ea2 f8bf 9388 0aaf 73e0 c73f
00000300: 182e 1e54 ffd9 e7bf 9ed8 febd 42f0 f63f
00000310: dea0 5f97 8f69 f93f 96f8 92ba 32f4 f23f
00000320: d1cc 848f 4536 d0bf 3bc3 e770 c533 0ac0
00000330: 45c5 9e92 783f ef3f 1bd1 ec06 67cb d4bf
00000340: 3ad2 e2df 16aa ec3f 1a02 edd9 493e d93f
00000350: 2fa2 461b 5b63 febf c5e0 3a26 40b3 c2bf
00000360: 47c2 ef88 0a15 e23f c220 0f2c 2ebc ed3f
00000370: a5a1 38b2 3ebe d83f 73b6 701a 90af f5bf
00000380: 9768 2070 1ab1 e1bf eca1 bf8b ae22 fdbf
00000390: e8d7 3274 2be2 e8bf f48d 051b 7b19 f13f
000003a0: 7ad7 8a29 5231 c03f 35c7 18c3 0a5a edbf
000003b0: 2a5e 0b46 58a8 f13f c7a8 ff6c 0134 e8bf
000003c0: 6f2b f48d 92b2 e1bf 8dfa 0c39 7205 c4bf
000003d0: bfc5 ebec 0684 dc3f 56d7 9e38 673e 9dbf
000003e0: 3f74 642e a624 e1bf e94c 5203 adac 883f
000003f0: 00ed 7718 02a1 f5bf bc4b aad1 2552 d7bf

layers.1.weight f8 [100, 128]
-0.05261163714031112 0.043856121655677295 -0.029926756151661363 -0.10077144523351601 0.11771097105306962 0.011609530330007922 -0.07807138586432612 -0.11658209205079913
0.10745128367169363 -0.021803165602445232 -0.028990306605892142 0.06789254034174687 0.036173022523290306 0.07249015589309463 0.041345516978161814 0.03987335686474679
-0.05389313441173228 0.058285895671782294 -0.022013075877405325 -0.21299609077307166 -0.04469412435236504 -0.03689040922194189 -0.1154258196263856 0.12897540667326543
0.09611236629514786 -0.0007657200841097988 0.13882611993037086 0.06027652599511887 -0.013207390231469324 -0.11909350886588499 -0.07592372575267536 -0.08988760960106125
-0.06497843826016647 0.006617160977586743 0.10485443172994967 0.16256778756524223 0.012869283794161362 0.02024312924587026 0.06275447785614999 -0.013811157333784697
-0.06914811773190323 0.19957889917162275 -0.15854670275893248 -0.004453888434471127 -0.07492804880345505 0.24567576320317652 -0.06401833694620979 0.2538581116848433
-0.1606626484328763 0.04542385205622159 0.004098740054795778 0.065691197496429 -0.052622143637189846 0.02231323043732208 -0.03938313980753685 -0.024995145939501848
0.0014944175051989097 -0.10723472442074178 0.057431398240811594 -0.06696404914777125 0.12455815018399712 -0.010363580525615418 -0.10329083238054085 0.033828643487628096
-0.06636911288641631 0.003849525822312353 -0.020389505632734985 0.06880610926337115 0.029502876219844067 -0.12346771539475815 -0.19807975877322698 0.1267707866559948
0.07123598806838978 0.07499631357540247 0.015127494904675787 0.02568958381304476 -0.019811332985368434 0.09344081938808106 0.010312540507794357 -0.05019315736168855
-0.11929139586717351 -0.1619412965507035 -0.12663922487252965 -0.06347844103397901 0.1622381354691993 -0.07635864617434601 0.20448360579176736 -0.021897409205367303
0.08743293460618463 -0.1421464600493251 0.06829993284494115 -0.028418313038891974 -0.06366031645204263 0.021993889662307486 -0.08507204888497459 -0.02013461513703776
0.00561683948791497 -0.0668264385135461 4.1316369605897146e-05 -0.07393492753360609 -0.0678335546046234 0.08152719847645275 -0.13859041304037886 -0.023419178003850818
0.012120467180666497 -0.10410066011621023 -0.012639404391815889 0.030033241299651646 0.14725887048301492 0.06827356942504025 -0.023893465531577417 0.024727886956731778
0.022708227896539302 -0.03422291863720732 -0.07182422380259265 -0.021329059512159715 -0.07125987301576475 -0.06258576838030254 0.05012818033900747 -0.07794400488395752
-0.022298110675928105 -0.028947780478552898 0.14291368541257327 0.03447322253576388 -0.11651298390019649 -0.03753998710956816 0.1231876050696159 0.1419209805821952
0.17052765789780314 0.8513494116141648 -0.19807918313006323 0.43193300644382093 -0.6439076519026106 0.5368019965062418 -0.697409169432715 -0.8799660843728324
0.057868061962651075 -0.3293768294518639 -0.2767207756279021 -0.13861543621158962 0.9719005443008712 0.29417605917272255 0.046869987615154256 -0.3048796917918705
0.07034039340711257 0.44219665156964943 -0.4575908759679681 -0.2961541142611359 -0.676346348909818 -0.015902159269070255 -0.1796320086558827 -0.48968158393515315
-0.17262932571635298 0.7509054286653004 0.3311270361368914 0.046656723991274754 0.3102485509758533 0.21150925577731883 -0.10120823807681169 -0.5011402098927087
-0.9969021939544868 0.10118421447176888 0.4008943464038841 0.17130385430084577 -0.8598515092878111 0.7276234988301657 1.7428030031111512 0.3387542851138851
-0.3232025255181676 -0.024682665694898583 0.008776371810500528 0.09798618466298117 1.1959601806822695 -0.09091575432839429 -0.43565283256405757 0.2865172333948539
0.6965659330037856 0.3421121329489644 1.1507359119289575 -0.8555438309026446 -0.7831426726915682 0.31685846408806406 -0.06724962321401681 -0.7388992883551884
-0.898436821704129 0.1607418424437753 0.9135126717139309 -0.26336653223661477 -0.04820588487754729 -0.9800118824966418 -1.0582528578556907 0.005303133471321756
0.4685424277904962 0.5688823037628654 0.09130687865798727 0.04348973268093737 0.5624289897974174 -0.19292315946829727 0.46383984091269653 0.2810700635525665
0.3628441139820663 0.36449689193002555 0.802506306171251 0.11698574832855452 -0.12488275895643787 -0.1443444952643458 -0.6059139416849059 -0.5688029487758176
0.08936146514101515 0.5369307832802181 0.2677137980130544 -1.5634997676793878 -0.4269420540346036 -0.05164257540178452 0.12331330219278454 0.06791104752221279
-0.24739939535450758 -0.33858762285733046 0.5169436430648373 0.4195460587441637 -0.26841695718325154 1.096164704023328 0.23298209672730577 0.5383299651388638
0.5173787137076375 0.09662157901662628 -0.3203503228190271 -0.13593644289781517 -0.901217202024127 0.6622280321020708 0.27004435666824783 -0.4495767052300662
-0.4675761888420264 -0.1650943200775835 1.568229474469585 -0.44710144162642773 1.2190990083662119 -0.45392824666292086 -1.9646569198665311 -0.6566350510911958
-0.35052013981316216 0.5161964508708616 0.32034565875046017 -0.2618263073876714 0.5635842215825343 0.0402395954471911 0.19335656290659348 0.16100352596909345
0.29982991404953885 -0.7587346885762125 -0.19435961637037222 -0.8027212387755581 -0.09607426065990211 -1.5229743549043249 -0.18064323163625287 -0.8038271251607901
00000000: 1d35 d099 e9ef aabf ed26 7b40 4f74 a63f
00000010: 7479 c99b 1ea5 9ebf 110b a64d 28cc b9bf
00000020: 79a7 0d63 4e22 be3f 13e5 b6c8 bcc6 873f
00000030: d569 0a81 7cfc b3bf 3d4e a8f0 52d8 bdbf
00000040: 0e7c 4865 ed81 bb3f 64db d8ac 9153 96bf
00000050: 12e1 178b a2af 9dbf 7900 69d0 6761 b13f
00000060: 5952 7839 4585 a23f a2c0 d700 b78e b23f
00000070: 42cc 8356 3d2b a53f 8e80 6ed7 476a a43f
00000080: 32fd 8d83 e197 abbf 4bed 741f a6d7 ad3f
00000090: 454a e983 988a 96bf 8fe9 05b6 7443 cbbf
000000a0: 3a62 d5f4 25e2 a6bf 53e1 49ba 4ce3 a2bf
000000b0: 44c9 68e8 8b8c bdbf 6332 d320 4482 c03f
000000c0: c894 faed d19a b83f f5d7 0c5c 5317 49bf
000000d0: f03b 77e6 0dc5 c13f ab26 bb97 90dc ae3f
000000e0: fd9a e0e8 790c 8bbf 48af be85 e97c bebf
000000f0: 8824 19bf bc6f b3bf 415b 8dd7 df02 b7bf
00000100: 28c7 454b 6da2 b0bf 3e8e db9f 981a 7b3f
00000110: a7ec 1e73 bdd7 ba3f b7e6 7c71 05cf c43f
00000120: 23a3 2608 365b 8a3f 86a0 5168 9dba 943f
00000130: 32d9 116e ad10 b03f 0752 8c28 0649 8cbf
00000140: 290d 3de8 b0b3 b1bf 70f7 7426 cd8b c93f
00000150: e97e 9e23 424b c4bf ee49 a892 3d3e 72bf
00000160: 68f7 290f 7c2e b3bf 6051 30ac 4d72 cf3f
00000170: 543d 8777 8163 b0bf 98af e017 363f d03f
00000180: 169e 5afa 9790 c4bf 8362 148e cb41 a73f
00000190: cbaa d727 d7c9 703f 75da e168 23d1 b03f
000001a0: 9d2d ef23 4af1 aabf ef52 fc8b 47d9 963f
000001b0: e36d f9e2 062a a4bf ecc2 79d9 5398 99bf
000001c0: 06f7 ed93 0a7c 583f e8f5 6122 bc73 bbbf
000001d0: b569 6af2 a567 ad3f 23f0 1851 8e24 b1bf
000001e0: fb92 7dfd 0ae3 bf3f dd74 6a3b 8039 85bf
000001f0: 0211 0d9b 4471 babf 6812 e5ea fc51 a13f
00000200: eeca 4ff1 90fd b0bf 08ce 6170 0a89 6f3f
00000210: 7a2f 7f8f fce0 94bf 3f1a 0df5 469d b13f
00000220: e737 0282 0036 9e3f 7479 bb87 949b bfbf
00000230: 361d f772 ad5a c9bf d749 636f 063a c03f
00000240: 954e 0d8f 853c b23f 777d 205a f532 b33f
00000250: 7a81 16ff 29fb 8e3f e0ac 4cc9 5e4e 9a3f
00000260: 869e 0c0d 6c49 94bf bb1c 62cf bceb b73f
00000270: e8d8 c1c1 bd1e 853f 27ef b3e2 eab2 a9bf
00000280: 4f96 f183 e189 bebf 5a4f 470e 7eba c4bf
00000290: 68f1 9bd0 b635 c0bf fef3 3d84 1f40 b0bf
000002a0: 908a 001f 38c4 c43f 44ed 1580 3d8c b3bf
000002b0: 57ce b8cf 842c ca3f dde1 9d41 466c 96bf
000002c0: 2114 ba3a 0162 b63f fdb6 93ee da31 c2bf
000002d0: 2e55 e3b9 1a7c b13f 0029 70b4 b019 9dbf
000002e0: b1eb 36e1 0a4c b0bf f3ea 3ef3 9085 963f
000002f0: 03c2 c323 48c7 b5bf e7de 1f26 2b9e 94bf
00000300: bf05 85de ae01 773f 7980 ec97 891b b1bf
00000310: c5b5 64a6 63a9 053f d0f9 c93f 66ed b2bf
00000320: 6229 9932 8a5d b1bf 91dc 306b f7de b43f
00000330: 6b16 c6a5 54bd c1bf 77c2 806e 32fb 97bf
00000340: fbc2 3991 9dd2 883f 31ee b042 57a6 babf
00000350: 86b7 0724 b0e2 89bf d613 b3b4 08c1 9e3f
00000360: 119e 62f0 60d9 c23f 8f9a dc6b 607a b13f
00000370: 7656 2f54 8777 98bf 3f07 1d67 4452 993f
00000380: adba a960 d340 973f 3615 a498 aa85 a1bf
00000390: b6ef 4a84 1263 b2bf 6895 3cf4 48d7 95bf
000003a0: b0ac 1e48 163e b2bf 2b70 63f4 9e05 b0bf
000003b0: 62fb 539e 66aa a93f 3357 e567 23f4 b3bf
000003c0: f979 76e0 50d5 96bf 70e7 c9a9 7ca4 9dbf
000003d0: 0ab9 7fe2 fe4a c23f cdf6 c166 79a6 a13f
000003e0: d824 697f cbd3 bdbf 0c10 dbf1 7038 a3bf
000003f0: a0eb 0b0f 3989 bf3f 6ebf 1b79 772a c23f
00000400: 6d05 deac d9d3 c53f f740 0b1f 413e eb3f
00000410: 28f0 c79e a85a c9bf 884e 2f56 caa4 db3f
00000420: 901b 5238 e49a e4bf 827f 6d61 7b2d e13f
00000430: ed9b d408 2d51 e6bf 450e 3fa2 ae28 ecbf
00000440: 0598 39f3 e1a0 ad3f 4794 a38d 8214 d5bf
00000450: 9a84 5c0e cbb5 d1bf 4ef1 9f8e 26be c1bf
00000460: 3494 972b cf19 ef3f a96e 5ad2 c7d3 d23f
00000470: 8f28 f1cf 57ff a73f 2f7b 5d1c 2683 d3bf
00000480: 6475 45f9 d301 b23f 491c 392f f34c dc3f
00000490: 20bf ce3d 2b49 ddbf 8cf4 d462 30f4 d2bf
000004a0: 08c6 2a19 a1a4 e5bf c55a fcd7 a748 90bf
000004b0: 78f3 3e81 2efe c6bf 181e 1d6d f156 dfbf
000004c0: 5a21 24be b718 c6bf d333 50d2 6a07 e83f
000004d0: 03e1 c173 2f31 d53f 22af 5cdf 63e3 a73f
000004e0: c5a6 04bd 1cdb d33f 80b4 2e3c bc12 cb3f
000004f0: 192d a078 c8e8 b9bf 6e64 8631 5709 e0bf
00000500: a10b 0b6e 9fe6 efbf 2b17 076c 35e7 b93f
00000510: bc2e bdc2 40a8 d93f 1650 f3e1 48ed c53f
00000520: 21d6 f94f e783 ebbf 5eda 6813 b148 e73f
00000530: 4aba db66 85e2 fb3f 6f6a fc73 26ae d53f
00000540: db72 45a5 59af d4bf f231 c0a7 6946 99bf
00000550: 8da5 3aaf 58f9 813f aa5a 9662 9f15 b93f
00000560: dc93 7524 a722 f33f 8118 883f 4146 b7bf
00000570: db6e 116b bce1 dbbf 86f6 ca60 4c56 d23f
00000580: 9d49 b8a3 444a e63f a728 a549 2ae5 d53f
00000590: ed14 410f 6a69 f23f 6aaf c074 9d60 ebbf
000005a0: 82fe e938 810f e9bf 8404 2eb9 6847 d43f
000005b0: c65d 5f74 4537 b1bf 1ebe d01e 10a5 e7bf
000005c0: b0b9 d793 febf ecbf cb88 324e 3093 c43f
000005d0: fbc5 2fed 7e3b ed3f d84c b44c ffda d0bf
000005e0: 6030 0c16 71ae a8bf 8d76 20e1 415c efbf
000005f0: 3b38 768c 9aee f0bf aadc 350d bdb8 753f
00000600: 0983 0961 99fc dd3f 9ce8 3da9 4834 e23f
00000610: a963 bc39 e35f b73f 011f 2747 4944 a63f
00000620: 3b12 b014 6bff e13f 9356 47c2 b4b1 c8bf
00000630: e951 d34c 8daf dd3f 50f2 b54a 0dfd d13f
00000640: 2e57 c684 d638 d73f 9c51 95c5 ea53 d73f
00000650: 6edb 7ab4 21ae e93f 8c52 2b2b c7f2 bd3f
00000660: d159 8d05 51f8 bfbf 914d 4263 e179 c2bf
00000670: 9544 77a2 a563 e3bf 3789 db3d a233 e2bf
00000680: 56a5 4d9a 64e0 b63f 36ef 4c77 892e e13f
00000690: 70db c90d 3922 d13f fcc8 1755 1804 f9bf
000006a0: 6c67 d7c3 0453 dbbf 301f dd48 e570 aabf
000006b0: 1d6c 14e8 7591 bf3f 191f 2550 9e62 b13f
000006c0: 3384 0c8c c8aa cfbf de2a c06b 6bab d5bf
000006d0: 98d5 1a65 cd8a e03f 3f33 5eb6 d7d9 da3f
000006e0: 38cf 3251 be2d d1bf 96f4 2c00 e489 f13f
000006f0: 19a7 ff7a 5bd2 cd3f be4d 57c3 ff39 e13f
00000700: ceaa e0cd 5d8e e03f b1db f619 31bc b83f
00000710: 3254 f1a3 9e80 d4bf f953 4a88 5d66 c1bf
00000720: f728 2975 c5d6 ecbf 3eee 8bd7 f830 e53f
00000730: c901 1720 6848 d13f 966b 805f ddc5 dcbf
00000740: abbf ddad c4ec ddbf b489 be88 cf21 c5bf
00000750: ac85 17ca 7717 f93f deea 715d 4f9d dcbf
00000760: 754d 38f6 6d81 f33f a476 890f 290d ddbf
00000770: 50fd 2a18 3c6f ffbf d801 bb82 2703 e5bf
00000780: 6d8f 4506 ec6e d6bf e2a6 596b ae84 e03f
00000790: 62ec ef13 8b80 d43f 7799 dd20 c3c1 d0bf
000007a0: a1a2 07c7 e108 e23f ab60 e6c4 489a a43f
000007b0: f24c 1369 e8bf c83f 0afa 4977 c39b c43f
000007c0: fc22 cdce 6930 d33f 88d1 38f8 8d47 e8bf
000007d0: 47a7 fca1 c6e0 c8bf 650f 8b73 e4af e9bf
000007e0: 718b 859f 5298 b8bf 535f 6f5b 1a5e f8bf
000007f0: f58b 0f42 511f c7bf 5f81 c6a9 f3b8 e9bf

layers.1.bias f8 [100]
-0.03636383923614654 -0.2801615822289399 0.011226261151135515 -0.09952228875063805 -0.011185868587051674 0.5697176921964627 -0.033041204846685865 0.24906249550875337
0.0868144355194166 0.06793534604401383 0.020267703097701904 -0.06530656192557632 -0.07670616688535123 0.029951257543093194 -0.09550609459553552 -0.36499897515644747
0.03783783407903557 -0.21532487263372485 0.0032763306967693137 -0.07413799050943039 0.030761620733378202 -0.14810426143566904 0.14456555490006007 0.039236489060150294
0.0013030091799353131 0.011875468744811208 -0.14914364025677987 0.11524414135603438 -0.06733449917085726 -0.31796952570356274 0.05265201213785272 -0.08756137939510364
-0.031771615128648206 -0.0008152941390715597 0.02909824824730802 -0.16219975376466206 -0.08923315049351771 -0.11696606379561553 0.058831397538709584 -0.42025695172509697
-0.027602571988776296 0.021962989181487452 0.002245661668525988 -0.14858496435658794 -0.08974388036758574 -0.09686347873861725 0.031555087938633805 -0.690578325713709
0.03793037874762099 -0.09951445669555105 -0.20149380210048712 -0.0011966361590955532 -0.013904887187835807 0.021982037892643694 -0.03491304090582372 -0.009921244580744643
0.3739629999684488 0.032617622278690146 -0.14780407573575993 -0.0381653587169336 -0.6196756020413247 -0.08123095821343708 0.024666761613255848 0.02796745910874111
0.14851007396293114 -0.14110206200272243 -0.010621854014189925 0.39485583103986 0.10605381461876094 -0.21435987058482345 0.45303676091447675 -0.22378618440019035
-0.011289080679664044 -0.04499315097928047 -0.2774048204430698 -0.2173878342014988 -0.6707378882978645 0.5347636800842485 -0.04951909440519491 -0.014887562476785066
-0.1785008800097297 -0.05774901166880637 -0.17837417600004452 -0.0022818727441808683 -0.13124505088551805 -0.0763891544986852 -0.13172381989050203 0.26475015126490353
-0.07878810725637991 -0.08470390675336638 -0.10518320527791332 -0.04617050019557439 -0.168745461191837 0.022897441491170272 -0.5589442989577487 0.0019447204816119665
-0.11132626534562477 0.5471294648118415 -0.004242325013200195 0.06347143765844708
00000000: c670 8df8 479e a2bf d935 51d8 2aee d1bf
00000010: e4fc 0044 cbfd 863f 0735 68ef 4a7a b9bf
00000020: a1e6 11de 9de8 86bf 01f7 fd98 203b e23f
00000030: d651 79dc c6ea a0bf 1c64 6fa4 47e1 cf3f
00000040: 8968 6089 7839 b63f 2661 80f9 3564 b13f
00000050: 89f0 e087 0ec1 943f 9c3e af4b eeb7 b0bf
00000060: ee91 2cee 03a3 b3bf 1194 7cde 8aab 9e3f
00000070: 1244 db60 1673 b8bf 97b5 57a9 245c d7bf
00000080: 6884 d707 7b5f a33f 5615 fdf2 c38f cbbf
00000090: 9931 31a6 f6d6 6a3f c110 a114 b5fa b2bf
000000a0: a656 166c f97f 9f3f edd8 a197 14f5 c2bf
000000b0: bc40 36c5 1f81 c23f 6d7b a51a ce16 a43f
000000c0: 0c04 1c74 3759 553f ddae 116f 2a52 883f
000000d0: c995 a788 2317 c3bf 5305 2eda a380 bd3f
000000e0: bcd4 d46f d53c b1bf 2a5f 81da 9c59 d4bf
000000f0: 8bbe 665c 34f5 aa3f b605 e52c 6c6a b6bf
00000100: 5c58 d67f 5e44 a0bf 34c0 fbd4 2eb7 4abf
00000110: a64f 5f62 eecb 9d3f 3253 eb26 f6c2 c4bf
00000120: 5cb5 16d7 fbd7 b6bf fc77 beea 7cf1 bdbf
00000130: 403f d020 261f ae3f 3ddc e469 7de5 dabf
00000140: 0ebc e83f d943 9cbf 480e 0741 777d 963f
00000150: b10b 936d 7e65 623f 1f60 4b05 d504 c3bf
00000160: 18e6 3177 74f9 b6bf 6af1 5b81 0bcc b8bf
00000170: 4e0b 700d fd27 a03f c289 88b7 3719 e6bf
00000180: f5e9 7d50 9c6b a33f d191 fc88 c779 b9bf
00000190: 1224 2f85 8cca c9bf 2e23 c94a 0e9b 53bf
000001a0: 1083 cf5d 2a7a 8cbf 91b2 6497 7582 963f
000001b0: d3f1 c941 1fe0 a1bf 904e 14e8 9651 84bf
000001c0: 8bd3 b181 02ef d73f 91a6 ebc9 41b3 a03f
000001d0: 8813 c073 3eeb c2bf 6f05 0fef 688a a3bf
000001e0: f3b0 9ced 61d4 e3bf 790f f354 8dcb b4bf
000001f0: f969 b559 3e42 993f 83a4 e568 80a3 9c3f
00000200: ec0e 66cb 6002 c33f eb94 d9e2 a10f c2bf
00000210: c720 e91c e9c0 85bf d4de 3c64 5145 d93f
00000220: f753 67c1 5726 bb3f 3549 deec 2470 cbbf
00000230: 58dc 00e6 8dfe dc3f 13d1 a593 06a5 ccbf
00000240: 3a89 91c2 ba1e 87bf 0000 00a0 5709 a7bf
00000250: 3291 e325 00c1 d1bf 69cb 3853 5dd3 cbbf
00000260: 80ad cd4d af76 e5bf 519d a1b8 c81c e13f
00000270: 07e6 fe15 915a a9bf 1abc a3cf 5e7d 8ebf
00000280: 2279 f9e8 1dd9 c6bf 59d9 fc48 4791 adbf
00000290: 7e81 2f0a f7d4 c6bf b39f ea19 6fb1 62bf
000002a0: 0757 a848 a3cc c0bf 1f48 5758 3d8e b3bf
000002b0: da56 447d 53dc c0bf d8cd 529e aaf1 d03f
000002c0: 34da fa17 752b b4bf 6161 59bd 27af b5bf
000002d0: cdd0 c15a 49ed babf 4889 c2e8 a8a3 a7bf
000002e0: 9d6c 9586 7399 c5bf 0b73 7749 6d72 973f
000002f0: c8e4 8927 dfe2 e1bf b29d 93b7 bfdc 5f3f
00000300: 0b64 d8cc e07f bcbf 596f c1a6 1582 e13f
00000310: ef18 0d73 6660 71bf 3f1f f904 aa3f b03f

layers.3.weight f8 [100]
0.9585791219843217 0.9315792196657591 0.9707484951262799 0.9541050485355331 0.9927637311632865 2.374380896959301 1.0533905940630752 2.7926615641480543
1.4616006519771878 0.9141314373126468 1.0044026926067504 0.27621395132610754 0.9415576488123054 0.9748362752011474 0.9629807561724211 1.637529929135598
0.9707215414183399 1.102642637097582 0.8923416674620634 1.0768549045851132 0.9431470414518246 0.46045081225520534 0.6855488968068156 0.9544887845918971
0.9778552075365939 0.9330370933332028 0.8522793694649082 2.9526024278391896 2.156226427170812 0.6396478394054631 0.9667202013015427 1.4339879055666962
0.9191529948088654 0.5703895506510162 0.9269987669769766 0.9662545844695786 1.1434267997487324 0.9627756102354453 0.6882134955534 1.2948260205974593
0.7867141415296562 0.9620014684890321 0.9760228247529006 0.7809838237947281 1.0458595668853468 0.752103417795637 0.9682565535343075 0.1977943119944948
0.9991701708630585 0.9599827789256389 0.7986423806860208 1.0296718555954785 1.04224484993052 0.9536192253608313 0.9838803230218556 1.0463138375461778
1.738429766385944 0.9724494470110617 0.8247452491379874 0.9456416050811872 0.8631137485960341 0.9710243653522314 0.9659661801766597 0.9671447008539699
2.9786206801073813 1.0918813750743535 1.8130484959968711 3.2772213287885616 1.1283994045430192 1.3166010251682476 2.0154920943887418 0.6261448722582891
0.9276574743729717 1.0 1.047794758816504 -0.05212972929026791 1.4989075404243566 1.6385058032206123 0.9683932314783725 0.8941763845145774
0.15341790534912075 1.0084337114972657 1.6674853457941499 0.4418886364546505 0.9571925416488808 0.8791282934393516 1.0702441007144021 0.7926447351236082
0.7427988635324067 2.8066019617313644 1.0096538152315595 1.0070319204191345 2.2710355847355426 0.9549859972350387 1.2681565643679216 0.9435543244266273
1.1774892340708198 1.2997359366775256 2.35487781643754 0.9092540378124941
00000000: 41a2 711f aeac ee3f d41f 4339 7fcf ed3f
00000010: c0ac e625 5f10 ef3f 5013 8d4f 0788 ee3f
00000020: 410a c071 b8c4 ef3f ae7f 6569 bbfe 0240
00000030: 83a3 7618 b0da f03f 2e7f 36f2 5e57 0640
00000040: 69de 805d b762 f73f f81a 7092 9040 ed3f
00000050: 542a cc8e 0812 f03f 9940 e947 7dad d13f
00000060: f651 9e81 3d21 ee3f 3330 1ed8 db31 ef3f
00000070: 4403 ce04 bdd0 ee3f cabc 3d95 5233 fa3f
00000080: 6a43 3d9f 2610 ef3f 2326 189b 6ca4 f13f
00000090: 0872 d31c 108e ec3f 27af 5b35 cc3a f13f
000000a0: 0e5a 4bb4 422e ee3f 2460 03af 0678 dd3f
000000b0: 4b03 733d 04f0 e53f 5312 4710 2c8b ee3f
000000c0: 8ff9 1201 974a ef3f ae45 3a9b 70db ed3f
000000d0: 7408 5d62 df45 eb3f b246 8d05 ee9e 0740
000000e0: aac1 1ba4 f33f 0140 4583 e6be fe77 e43f
000000f0: 0d20 1f34 5fef ee3f c34b 544d 9df1 f63f
00000100: 632f 978a b369 ed3f 0ad7 4096 a140 e23f
00000110: 6a26 7351 f9a9 ed3f 6705 fdbb 8eeb ee3f
00000120: e6a6 64e6 794b f23f 3320 ebcb 0ecf ee3f
00000130: 8d2a 024f d805 e63f 549d 477d 9bb7 f43f
00000140: 7775 a522 c32c e93f e6a8 bb4d b7c8 ee3f
00000150: ecd2 0e38 943b ef3f 85e8 bcc9 d1fd e83f
00000160: 5cb3 bf3d d7bb f03f f78b d42f 3b11 e83f
00000170: 2829 f22a f5fb ee3f 53f3 acf2 5251 c93f
00000180: b2db dfb8 33f9 ef3f a1ae 06ce 2db8 ee3f
00000190: 92df 4777 7a8e e93f b44e 1632 8979 f03f
000001a0: 2404 8eef 08ad f03f 3a5f 3877 0c84 ee3f
000001b0: 30d1 5196 f27b ef3f 38cf 1994 b3bd f03f
000001c0: 2c54 10bb 9bd0 fb3f 1da0 7d4d 4e1e ef3f
000001d0: 6687 1226 5064 ea3f d1f0 f12e b242 ee3f
000001e0: 7655 5eb9 a09e eb3f dbd2 99b0 a112 ef3f
000001f0: 54d3 1ce8 31e9 ee3f 315c 9571 d9f2 ee3f
00000200: fc00 4214 37d4 0740 cbe4 d09a 5878 f13f
00000210: 93e5 c523 3f02 fd3f 4c34 e7d0 bf37 0a40
00000220: 0769 b588 ec0d f23f a5a4 8f3c cc10 f53f
00000230: 33f8 b551 ba1f 0040 d309 9df8 6009 e43f
00000240: c64c 4aba 5eaf ed3f 0000 0000 0000 f03f
00000250: ee97 e06f c4c3 f03f eced e674 bfb0 aabf
00000260: 479b 1d79 86fb f73f 4938 72dc 5137 fa3f
00000270: 7ac1 5bcd 13fd ee3f 680f 0bcb 179d ec3f
00000280: b232 0cab 32a3 c33f d408 3163 8b22 f03f
00000290: 08ec 2b1d 05ae fa3f 12fe 8246 e747 dc3f
000002a0: 0b6d cb40 52a1 ee3f 08ee a9a8 d121 ec3f
000002b0: 75e2 3447 b81f f13f b77a d67d 585d e93f
000002c0: bd15 4c1f 02c5 e73f 8a34 b4ba eb73 0640
000002d0: 0338 4bc2 8a27 f03f f1a6 c380 cd1c f03f
000002e0: 5fee 63b4 142b 0240 e465 48cb 3e8f ee3f
000002f0: e4af a289 5e4a f43f f62c add6 9831 ee3f
00000300: c39e 7bf3 fed6 f23f 5374 d7e8 b7cb f43f
00000310: a866 3d2e cad6 0240 b723 85ec 9b18 ed3f

layers.3.bias f8 [100]
-0.02093966984966182 0.002121922379839653 0.1058322974201668 0.06561929062505195 -0.3209700314814334 -0.6613543981774056 0.2716122983106181 0.44485873187585573
0.23755745100736583 -0.007222902100339181 -0.0001021123096333719 -0.6360063901392323 0.33938769659608664 0.9041185904400917 0.11093750094196943 -0.1939476896070793
0.26952055364749544 -0.06872921734749807 -0.06009844976361284 -0.0035971898066102796 -0.3388927171746489 0.06021116467585229 0.07028034175527341 0.08705036234158804
-0.06924288883443966 -0.05588383892296381 -0.05421633480443073 1.395330755157708 -1.2510608680635065 -0.8485868451265738 0.030893042896068274 1.3261877125221488
-1.0059255432123475 0.06201661917575448 -0.10216179484382133 0.031588983194463655 0.27958199959083657 0.2043284179159658 -0.14861535260275358 1.513434921193476
0.2200050648125737 -0.09966031584191674 0.1181218531103689 -0.08055598129593695 -0.04652981664423958 -1.0838763295116443 0.1963192977912422 -0.23519250673603714
0.09144058232837995 -0.27806924294933294 -0.5991992644636533 -0.14312377458971187 0.27051408584193176 -0.14098252393728583 -0.03906916185142257 -0.16335771767836926
0.06996518703203032 -0.22374808306045704 0.4860448932238031 -0.12602679421822463 -0.07656653385590885 0.1332511426197264 -0.006504306002077417 -0.059232919723274255
-0.41687315128000046 -0.011795291909522476 0.3905376061115014 1.6461242966383782 0.7936407612495497 0.2532016996623201 0.13307722900814212 -1.0523275174288362
1.3845135590289241 -0.005897709636024013 -0.31548708229032724 -0.09253085548215542 -1.2945103284793957 -0.29458274672628487 0.42679905738526747 0.4978481872308385
-0.30697660824409356 -0.2742895928732037 -0.36749538013915356 0.6055977205224343 -0.07223431498235025 -0.18693266907001233 0.050037731091310066 0.450712176596716
0.006281769148419193 0.5909575316937744 -0.33300342277862965 -0.34785340340016896 -1.2147003536975518 0.08408966154522947 -1.3057932031525563 -0.1895441243816898
-0.6731171223656698 -0.12208014768268904 -1.6632068556597555 0.4408494167570144
00000000: 8cf9 c574 3571 95bf f4e5 3b67 fe61 613f
00000010: abb8 4750 d317 bb3f 44a8 3803 6dcc b03f
00000020: bf5d 0de3 c58a d4bf 659b e7b2 d029 e5bf
00000030: 3fdf 9b8c 1862 d13f 1dcc 2fc2 9078 dc3f
00000040: 8db6 7f55 4868 ce3f 1cc5 d904 c395 7dbf
00000050: d7b2 1f1f a4c4 1abf 9a3d b612 2a5a e4bf
00000060: abe0 622c 87b8 d53f 7eaa 341c 8aee ec3f
00000070: 391b 726a 6666 bc3f 18a3 ff23 47d3 c8bf
00000080: f902 e122 d33f d13f a284 c9ec 3c98 b1bf
00000090: e8ce 8c58 39c5 aebf 01ee 7592 da77 6dbf
000000a0: 4f88 4714 6bb0 d5bf fe11 466e ffd3 ae3f
000000b0: 87fe 6379 e4fd b13f a9b0 5cbb ee48 b63f
000000c0: 7244 06e7 e6b9 b1bf 941e 1979 ce9c acbf
000000d0: 89bc c951 3ec2 abbf df15 8857 4653 f63f
000000e0: c935 9a66 5804 f4bf 6d4d 7499 9f27 ebbf
000000f0: 7570 a603 6da2 9f3f 203c 5a9b 1038 f53f
00000100: d8ed e461 4518 f0bf 3b32 566e a4c0 af3f
00000110: 6d3f c17f 4627 babf ecdd 7763 6e2c a03f
00000120: 57bf 32e6 abe4 d13f d4d6 4b00 6f27 ca3f
00000130: ff60 8eef d305 c3bf b267 3289 0737 f83f
00000140: c684 293f 2029 cc3f 2304 40a5 5683 b9bf
00000150: 9d4c 0dd8 3b3d be3f e5c9 2919 519f b4bf
00000160: dc40 8d91 c1d2 a7bf 9693 c2b4 8e57 f1bf
00000170: 1e25 cba1 fd20 c93f 6e07 59be c91a cebf
00000180: 92a9 a066 a668 b73f 4f6a 1ff0 e2cb d1bf
00000190: a113 95ef a32c e3bf 2a4a 923d e151 c2bf
000001a0: 8919 f34f 1a50 d13f 8420 cf20 b70b c2bf
000001b0: 0934 de88 df00 a4bf 7428 7ddb e7e8 c4bf
000001c0: 6d3d 290e 3de9 b13f 09c8 a4f5 c6a3 ccbf
000001d0: d12d 320a 5c1b df3f b522 cb5f a521 c0bf
000001e0: 9913 e146 dd99 b3bf e569 da99 5f0e c13f
000001f0: 895b fe58 42a4 7abf 8eb9 1dfa c653 aebf
00000200: fafe d4b9 0cae dabf d341 fc47 2128 88bf
00000210: 8dd9 8671 91fe d83f c867 336e 8656 fa3f
00000220: 0adc 4a4f 8165 e93f 84d7 d5e6 7434 d03f
00000230: b854 37b5 ac08 c13f 829a 0061 55d6 f0bf
00000240: 5e5d 8eb0 f726 f63f 21e1 2060 3228 78bf
00000250: abd5 2fbb f030 d4bf c6b0 2a26 1ab0 b7bf
00000260: 9973 5276 50b6 f4bf 87ef c997 71da d2bf
00000270: 06bc 5bfe ac50 db3f a5e0 a1a4 bedc df3f
00000280: 9ae7 4237 81a5 d3bf 1582 c1ef f58d d1bf
00000290: 7b3d c857 0b85 d7bf d2a1 8578 0e61 e33f
000002a0: 3a87 7fb4 f27d b2bf 3ed7 1ae2 68ed c7bf
000002b0: 23d9 34a5 8b9e a93f 6d14 99e2 77d8 dc3f
000002c0: 2810 db90 e9ba 793f 7d63 fec4 1fe9 e23f
000002d0: e193 9296 ed4f d5bf 3ffc d9eb 3a43 d6bf
000002e0: 4021 59a3 696f f3bf 69ba 446a e686 b53f
000002f0: ab11 ee69 87e4 f4bf e924 af5b fb42 c8bf
00000300: 9605 5eeb 2c8a e5bf 58ba c901 a540 bfbf
00000310: 91aa b8ca 7e9c fabf baa6 db78 e036 dc3f

layers.3.running_mean f8 [100]
2.5e-323 2.5e-323 2.5e-323 2.5e-323 2.5e-323 443.1072556248067 2.5e-323 530.2131026438115
2.5e-323 2.5e-323 2.5e-323 2.5e-323 2.5e-323 2.5e-323 2.5e-323 2.5e-323
2.5e-323 2.5e-323 2.5e-323 2.5e-323 2.5e-323 2.5e-323 2.5e-323 2.5e-323
2.5e-323 2.5e-323 2.5e-323 290.9961784491563 277.5467525897453 2.5e-323 2.5e-323 2.5e-323
2.5e-323 2.5e-323 2.5e-323 2.5e-323 2.5e-323 2.5e-323 2.5e-323 2.5e-323
2.5e-323 2.5e-323 2.5e-323 2.5e-323 2.5e-323 2.5e-323 2.5e-323 2.5e-323
2.5e-323 2.5e-323 2.5e-323 2.5e-323 2.5e-323 2.5e-323 2.5e-323 2.5e-323
2.5e-323 2.5e-323 2.5e-323 2.5e-323 2.5e-323 2.5e-323 2.5e-323 2.5e-323
611.4412166430318 2.5e-323 2.5e-323 704.7051025158913 2.5e-323 2.5e-323 2.5e-323 2.5e-323
2.5e-323 0.0 2.5e-323 2.5e-323 2.5e-323 326.55704309693203 2.5e-323 2.5e-323
2.5e-323 2.5e-323 2.5e-323 2.5e-323 2.5e-323 2.5e-323 2.5e-323 2.5e-323
2.5e-323 147.2334986972677 2.5e-323 2.5e-323 139.84604185565047 2.5e-323 2.5e-323 2.5e-323
2.5e-323 142.0610629336106 902.1425628489984 2.5e-323
00000000: 0500 0000 0000 0000 0500 0000 0000 0000
00000010: 0500 0000 0000 0000 0500 0000 0000 0000
00000020: 0500 0000 0000 0000 b68d ac51 b7b1 7b40
00000030: 0500 0000 0000 0000 e4ae 286f b491 8040
00000040: 0500 0000 0000 0000 0500 0000 0000 0000
00000050: 0500 0000 0000 0000 0500 0000 0000 0000
00000060: 0500 0000 0000 0000 0500 0000 0000 0000
00000070: 0500 0000 0000 0000 0500 0000 0000 0000
00000080: 0500 0000 0000 0000 0500 0000 0000 0000
00000090: 0500 0000 0000 0000 0500 0000 0000 0000
000000a0: 0500 0000 0000 0000 0500 0000 0000 0000
000000b0: 0500 0000 0000 0000 0500 0000 0000 0000
000000c0: 0500 0000 0000 0000 0500 0000 0000 0000
000000d0: 0500 0000 0000 0000 b341 d058 f02f 7240
000000e0: 5abf a47f bf58 7140 0500 0000 0000 0000
000000f0: 0500 0000 0000 0000 0500 0000 0000 0000
00000100: 0500 0000 0000 0000 0500 0000 0000 0000
00000110: 0500 0000 0000 0000 0500 0000 0000 0000
00000120: 0500 0000 0000 0000 0500 0000 0000 0000
00000130: 0500 0000 0000 0000 0500 0000 0000 0000
00000140: 0500 0000 0000 0000 0500 0000 0000 0000
00000150: 0500 0000 0000 0000 0500 0000 0000 0000
00000160: 0500 0000 0000 0000 0500 0000 0000 0000
00000170: 0500 0000 0000 0000 0500 0000 0000 0000
00000180: 0500 0000 0000 0000 0500 0000 0000 0000
00000190: 0500 0000 0000 0000 0500 0000 0000 0000
000001a0: 0500 0000 0000 0000 0500 0000 0000 0000
000001b0: 0500 0000 0000 0000 0500 0000 0000 0000
000001c0: 0500 0000 0000 0000 0500 0000 0000 0000
000001d0: 0500 0000 0000 0000 0500 0000 0000 0000
000001e0: 0500 0000 0000 0000 0500 0000 0000 0000
000001f0: 0500 0000 0000 0000 0500 0000 0000 0000
00000200: 2e62 979c 871b 8340 0500 0000 0000 0000
00000210: 0500 0000 0000 0000 a5b0 c90c a405 8640
00000220: 0500 0000 0000 0000 0500 0000 0000 0000
00000230: 0500 0000 0000 0000 0500 0000 0000 0000
00000240: 0500 0000 0000 0000 0000 0000 0000 0000
00000250: 0500 0000 0000 0000 0500 0000 0000 0000
00000260: 0500 0000 0000 0000 92bc 05a6 e968 7440
00000270: 0500 0000 0000 0000 0500 0000 0000 0000
00000280: 0500 0000 0000 0000 0500 0000 0000 0000
00000290: 0500 0000 0000 0000 0500 0000 0000 0000
000002a0: 0500 0000 0000 0000 0500 0000 0000 0000
000002b0: 0500 0000 0000 0000 0500 0000 0000 0000
000002c0: 0500 0000 0000 0000 8c8d 42d2 7867 6240
000002d0: 0500 0000 0000 0000 0500 0000 0000 0000
000002e0: 1ca2 5ec6 127b 6140 0500 0000 0000 0000
000002f0: 0500 0000 0000 0000 0500 0000 0000 0000
00000300: 0500 0000 0000 0000 5fdb 403a f4c1 6140
00000310: 95b0 fdf7 2331 8c40 0500 0000 0000 0000

layers.3.running_var f8 [100]
2.5e-323 2.5e-323 2.5e-323 2.5e-323 2.5e-323 792.4597692528473 2.5e-323 1674.0153297272195
2.5e-323 2.5e-323 2.5e-323 2.5e-323 2.5e-323 2.5e-323 2.5e-323 2.5e-323
2.5e-323 2.5e-323 2.5e-323 2.5e-323 2.5e-323 2.5e-323 2.5e-323 2.5e-323
2.5e-323 2.5e-323 2.5e-323 2013.541689622101 1497.5805249720863 2.5e-323 2.5e-323 2.5e-323
2.5e-323 2.5e-323 2.5e-323 2.5e-323 2.5e-323 2.5e-323 2.5e-323 2.5e-323
2.5e-323 2.5e-323 2.5e-323 2.5e-323 2.5e-323 2.5e-323 2.5e-323 2.5e-323
2.5e-323 2.5e-323 2.5e-323 2.5e-323 2.5e-323 2.5e-323 2.5e-323 2.5e-323
2.5e-323 2.5e-323 2.5e-323 2.5e-323 2.5e-323 2.5e-323 2.5e-323 2.5e-323
1186.8438748004492 2.5e-323 2.5e-323 1467.1038585681772 2.5e-323 2.5e-323 2.5e-323 2.5e-323
2.5e-323 2.5e-323 2.5e-323 2.5e-323 2.5e-323 1722.9483763162748 2.5e-323 2.5e-323
2.5e-323 2.5e-323 2.5e-323 2.5e-323 2.5e-323 2.5e-323 2.5e-323 2.5e-323
2.5e-323 1547.3338414241157 2.5e-323 2.5e-323 1817.901431991031 2.5e-323 2.5e-323 2.5e-323
2.5e-323 351.4924468172782 2111.047634968489 2.5e-323
00000000: 0500 0000 0000 0000 0500 0000 0000 0000
00000010: 0500 0000 0000 0000 0500 0000 0000 0000
00000020: 0500 0000 0000 0000 7c85 809b adc3 8840
00000030: 0500 0000 0000 0000 4294 98b2 0f28 9a40
00000040: 0500 0000 0000 0000 0500 0000 0000 0000
00000050: 0500 0000 0000 0000 0500 0000 0000 0000
00000060: 0500 0000 0000 0000 0500 0000 0000 0000
00000070: 0500 0000 0000 0000 0500 0000 0000 0000
00000080: 0500 0000 0000 0000 0500 0000 0000 0000
00000090: 0500 0000 0000 0000 0500 0000 0000 0000
000000a0: 0500 0000 0000 0000 0500 0000 0000 0000
000000b0: 0500 0000 0000 0000 0500 0000 0000 0000
000000c0: 0500 0000 0000 0000 0500 0000 0000 0000
000000d0: 0500 0000 0000 0000 072e afb0 2a76 9f40
000000e0: 7d66 2375 5266 9740 0500 0000 0000 0000
000000f0: 0500 0000 0000 0000 0500 0000 0000 0000
00000100: 0500 0000 0000 0000 0500 0000 0000 0000
00000110: 0500 0000 0000 0000 0500 0000 0000 0000
00000120: 0500 0000 0000 0000 0500 0000 0000 0000
00000130: 0500 0000 0000 0000 0500 0000 0000 0000
00000140: 0500 0000 0000 0000 0500 0000 0000 0000
00000150: 0500 0000 0000 0000 0500 0000 0000 0000
00000160: 0500 0000 0000 0000 0500 0000 0000 0000
00000170: 0500 0000 0000 0000 0500 0000 0000 0000
00000180: 0500 0000 0000 0000 0500 0000 0000 0000
00000190: 0500 0000 0000 0000 0500 0000 0000 0000
000001a0: 0500 0000 0000 0000 0500 0000 0000 0000
000001b0: 0500 0000 0000 0000 0500 0000 0000 0000
000001c0: 0500 0000 0000 0000 0500 0000 0000 0000
000001d0: 0500 0000 0000 0000 0500 0000 0000 0000
000001e0: 0500 0000 0000 0000 0500 0000 0000 0000
000001f0: 0500 0000 0000 0000 0500 0000 0000 0000
00000200: 6437 b720 608b 9240 0500 0000 0000 0000
00000210: 0500 0000 0000 0000 ec86 e659 6aec 9640
00000220: 0500 0000 0000 0000 0500 0000 0000 0000
00000230: 0500 0000 0000 0000 0500 0000 0000 0000
00000240: 0500 0000 0000 0000 0500 0000 0000 0000
00000250: 0500 0000 0000 0000 0500 0000 0000 0000
00000260: 0500 0000 0000 0000 ce3a 2923 cbeb 9a40
00000270: 0500 0000 0000 0000 0500 0000 0000 0000
00000280: 0500 0000 0000 0000 0500 0000 0000 0000
00000290: 0500 0000 0000 0000 0500 0000 0000 0000
000002a0: 0500 0000 0000 0000 0500 0000 0000 0000
000002b0: 0500 0000 0000 0000 0500 0000 0000 0000
000002c0: 0500 0000 0000 0000 82ba 86da 552d 9840
000002d0: 0500 0000 0000 0000 0500 0000 0000 0000
000002e0: 2fe4 fc10 9b67 9c40 0500 0000 0000 0000
000002f0: 0500 0000 0000 0000 0500 0000 0000 0000
00000300: 0500 0000 0000 0000 abf3 e90f e1f7 7540
00000310: 9d4f 9c63 187e a040 0500 0000 0000 0000
