model_policy2_epoch-120.pt (torch, 373942 bytes, 28 tensors)

layers.0.weight f8 [128, 128]
-0.0025693623225278234 -0.13728073234920402 -0.18356989192005796 0.03171864697051713 -0.20200107294608785 -0.05989265267945783 -0.012171537908445997 0.09037882923449886
0.18674940263832815 0.12022691329474751 0.06715944739184934 0.15289703559430548 -0.19977175201299163 -0.16023360459127128 -0.32580506392348196 -0.48679359885567186
-0.3375658996450549 -0.08228076325718353 0.11798015443684252 -0.13302557263231207 -0.21940058133315432 0.16810247666256606 0.31542892997143523 -0.6701222198041142
0.5008641137871258 -0.47789278433707943 -0.15262274077938826 -0.4821502523606456 -0.35799044955288184 -0.18431056076676783 0.3573260413339923 0.09730435305800811
-1.6819977285919132 0.37684269107581464 -0.14426721290102343 0.3607595199953864 0.4323453243605797 -0.2141152011393367 -0.48270122855823594 -1.4108409166432796
-0.5316811137884166 -0.15759902760672245 -0.46267736476072274 0.10527795751606912 0.012905842325392861 -0.4984474229341254 -0.02420399179403106 -0.2450790620866903
0.5967928283458309 -0.7196108636312873 -1.1231451331623887 -0.4963327425103149 -0.3694712149740071 0.03450196642954029 -0.7853321408193307 -0.41677796677286955
0.13995709929152148 0.6360356099890717 0.2029861604865213 0.101555190223119 -0.4910993207531022 -0.06519561271685298 -0.49786959962689337 0.6462018399173423
0.44194629376489547 -0.023329311498476866 0.04480316869811543 -0.018351197563408726 0.3625118798693966 0.3471623990317896 0.3388115162559616 0.4736859348184632
0.1490939664221152 0.005890403096194907 0.09641822098374458 0.008344420430299263 0.3271224143281691 0.08250782955408241 0.14252492440099038 0.28228462040043206
0.1498603824403632 -0.06507987312397583 0.033652012662580305 0.4714677991085582 0.4221337042331989 -0.010928629663587241 0.20216922374502438 0.6766972075224892
0.024540136967124194 0.39474404944903435 0.16240512185579117 0.3677858572040626 0.014520821238007828 0.0753027410521616 0.11604014426322763 0.6617629246218267
1.3928019995266132 0.8690088464018516 0.05208508213723281 0.1405455576600144 0.09496751412705859 0.27087100032841116 0.9469434496793266 0.7379159502260078
-0.31041343539023925 -0.19000300689047853 1.1147476785474364 -0.12414016219621202 -0.6007616998686547 0.4735615862240469 0.6318765534229253 0.8773518895212565
-0.5872602304411025 1.0146858091705646 1.3306734181535544 0.3754934166314433 0.39980298784101637 -0.33630003999720387 0.6582548828823489 0.25263981646687356
-0.7704105885788288 0.034471801912156 0.03391798671926095 0.29043473499958905 0.5865311155396583 -0.1350969782369635 0.3368274034794621 -0.23750003913171092
-0.4234246062555959 -0.30376842267526816 -0.5152003376215978 -0.5393847214099731 -0.5028853538542645 -0.47244981828206567 -0.18580339037073232 -0.39199580981722587
-0.5914743376460347 -0.4249398624881178 -0.5504118221795513 -0.45461795420471235 -0.4536626002331954 -0.26040146372569956 -0.36682749738678266 -0.4421550822956446
-0.6564336160817784 -0.42402482280015275 -0.3062971889859096 -0.43566420976374565 -0.5502338337226444 -0.3685564256869616 -0.40354524622120536 -0.5530777100738437
-0.38405436869856685 -0.4567441541239035 -0.44666550267386995 -0.31934842084156223 -0.40190930148744664 -0.4493386452053839 -0.5078024612657152 -0.439991040863346
-0.43858777608259264 -0.5317205095725689 -0.595547495385143 -0.46420549891981056 -0.603932146713877 -0.5945311928062718 -0.497531293076393 -0.5025788365812625
-0.23054664755738824 -0.42803327800386315 -0.13669908689465507 -0.4629124755536444 -0.3118214361201205 -0.3338033549495519 -0.07697538205627043 -0.5636864547905603
0.04878904180707527 -0.46744795431648917 -0.6009461885156476 -0.487836466719642 -0.5401526708014258 -0.20079012113140507 -0.4013162000008441 -0.3939605791539214
0.10164394207272343 0.21215788614180117 -0.469930535915114 -0.3141792445467585 -0.10697909369132091 -0.45082192717591235 -0.44289568084263015 -0.25588532844177336
0.45306520094878333 0.3668506326541254 0.5080842391715994 0.5610249505736846 0.592318964760329 0.5978164841122547 0.23427178964749815 0.45177042448306387
0.42718623135930717 0.6203888776984023 0.6330041530515732 0.5857834726834554 0.5762916489220359 0.48275376674457404 0.48058553266586407 0.4804330157455906
0.4771900696018889 0.39368992372034967 0.4008006844048465 0.48523621726995414 0.5718599169978007 0.4885549691540835 0.43212748821338726 0.594031862274562
0.4574169221012535 0.380469929892397 0.42164971548769353 0.3881529348787121 0.6127585908544746 0.5334142628808035 0.5202273078420221 0.47532990441213874
0.7910424555079317 0.5614342884076851 0.5404870793948435 0.531772298656693 0.532649673864879 0.5859094320555555 0.44594722279180526 0.6606289823217321
0.1500122680920599 0.3675058248396466 0.41960648752698254 0.5120429194028556 0.27771495162424487 0.43335491100957624 0.26360576781646294 0.6358335233398201
0.06413973156041765 0.4456906874800067 0.5612217050683344 0.556359136755106 0.47690699615122123 0.2045670880646413 0.5738022222077492 0.3034630101380342
0.17873355135670166 0.16369775943888257 0.3647487346024756 0.38537471474928664 0.27043674790407213 0.5580673909168455 0.48696996788771474 0.14808125428009217
00000000: 32d8 b2e4 570c 65bf 00c7 e73f 6a92 c1bf
00000010: fad7 29dd 377f c7bf a8cf d22e 6d3d a03f
00000020: cdb9 07d1 2bdb c9bf 9ad3 0ef1 3faa aebf
00000030: a105 122a 64ed 88bf ec1c d023 1123 b73f
00000040: 2b88 7088 67e7 c73f 1d31 b3e4 30c7 be3f
00000050: 5259 2a8e 5c31 b13f bd35 c44b 2192 c33f
00000060: e2bb c7ea 1e92 c9bf 4648 b8e5 8882 c4bf
00000070: f80a 9b7b fdd9 d4bf 2a2f bf56 a027 dfbf
00000080: de19 ce00 ae9a d5bf bc8e 4723 5a10 b5bf
00000090: d91d e288 f233 be3f dc64 fe61 fb06 c1bf
000000a0: 004f c678 5115 ccbf b037 d2c7 6184 c53f
000000b0: 3822 9cd2 fc2f d43f 0536 4c27 a471 e5bf
000000c0: 5395 8e2d 1407 e03f 7f37 ee9d cb95 debf
000000d0: 66fd 2258 2489 c3bf 696a 69bb 8cdb debf
000000e0: ac09 47c6 50e9 d6bf f67c 660b 7d97 c7bf
000000f0: 1979 620b 6ede d63f 4880 2426 f0e8 b83f
00000100: 11fa 4373 76e9 fabf 7710 7ace 301e d83f
00000110: 69c1 a518 5977 c2bf 3574 0619 af16 d73f
00000120: cc42 2db9 8bab db3f 1d26 3c7d 2068 cbbf
00000130: a062 99b1 93e4 debf fb76 cdec cd92 f6bf
00000140: 47e8 731c 8803 e1bf 1ee4 b976 342c c4bf
00000150: 08cb 8f85 819c ddbf fd6c 8508 7ff3 ba3f
00000160: d51a b8d5 606e 8a3f 5dc3 1105 90e6 dfbf
00000170: 3587 c064 eec8 98bf 4960 4c2e c05e cfbf
00000180: 2972 0746 ed18 e33f f590 a45c 0d07 e7bf
00000190: 2081 f907 67f8 f1bf ba02 4168 eac3 dfbf
000001a0: 9b1c 4898 6aa5 d7bf 60d5 ece2 3daa a13f
000001b0: 5722 aade 7021 e9bf 01e7 3e7e 7dac dabf
000001c0: fd69 263e 1dea c13f bbd2 ff59 675a e43f
000001d0: 8844 6a54 73fb c93f a952 bf5c 85ff b93f
000001e0: 9b3b 6ed8 2b6e dfbf 2429 76e0 a8b0 b0bf
000001f0: dc7c 0474 18dd dfbf 9feb 217b afad e43f
00000200: acc0 931b d948 dc3f a955 b297 a3e3 97bf
00000210: 4493 a1e0 70f0 a63f 7954 8205 a8ca 92bf
00000220: a2d5 1c07 6533 d73f 1c84 8fa3 e837 d63f
00000230: 36f6 747f 16af d53f 10b6 a7cf de50 de3f
00000240: 1a2e e8d6 8215 c33f 66dd 880a 8920 783f
00000250: 641a dd51 ddae b83f 4253 d126 e116 813f
00000260: bdfe d4d9 92ef d43f 1f46 99ad 3b1f b53f
00000270: 6364 95b8 413e c23f ff26 3283 f310 d23f
00000280: 9e11 c600 a02e c33f 8bff b116 13a9 b0bf
00000290: fc24 a92b d63a a13f 6a74 9246 872c de3f
000002a0: a723 8e15 3d04 db3f d32c f6d7 bf61 86bf
000002b0: 120d 1f5e aee0 c93f d350 f3e6 80a7 e53f
000002c0: 5d46 dab6 0c21 993f 3f26 ab8b 7c43 d93f
000002d0: 0969 89e7 b0c9 c43f 8bdb 27b1 cd89 d73f
000002e0: d25e a0a2 17bd 8d3f bf41 1e5a 0a47 b33f
000002f0: 2939 a290 ceb4 bd3f 0998 de70 292d e53f
00000300: c952 dcbf ea48 f63f 6761 e7a3 ebce eb3f
00000310: 6c1c c758 e5aa aa3f 5bb9 df96 65fd c13f
00000320: b6ae 5b7f ca4f b83f e819 f651 f355 d13f
00000330: 9717 7159 5c4d ee3f e45b 2de9 019d e73f
00000340: 945d 4f50 d0dd d3bf 073e 5ebe 0452 c8bf
00000350: 5873 6aa9 01d6 f13f d6bb c050 a6c7 bfbf
00000360: f601 b499 7039 e3bf bb58 5e41 d54e de3f
00000370: eff0 812d 5538 e43f b77b 1245 4413 ec3f
00000380: fa8c 7ff7 d5ca e2bf 5da5 e12f 273c f03f
00000390: 4c04 ca35 704a f53f 0ae7 128a 1508 d83f
000003a0: 31b2 6745 5f96 d93f 699d 5b9a f085 d5bf
000003b0: 182f 4d8b 6c10 e53f 6921 5931 402b d03f
000003c0: 9405 4e1b 34a7 e8bf ea9c b1bb 49a6 a13f
000003d0: a128 69c7 b25d a13f b885 1c92 7b96 d23f
000003e0: 0d89 eae6 dcc4 e23f a778 a897 db4a c1bf
000003f0: 15d1 9586 948e d53f 1c49 6fba 6666 cebf
00000400: 2320 0c85 6319 dbbf 74a8 3c1c f170 d3bf
00000410: 2b22 1f6b 857c e0bf 7b5f 4dbf a342 e1bf
00000420: 6320 8e06 a317 e0bf 8672 a129 9e3c debf
00000430: 6769 90ce 67c8 c7bf 9960 d597 7516 d9bf
00000440: 8a9d 1397 5bed e2bf 15ce 09f7 3632 dbbf
00000450: 5ef9 f240 f99c e1bf 5ff4 5ee7 7518 ddbf
00000460: 94df dadb ce08 ddbf 0113 a2e6 6aaa d0bf
00000470: 382f 230a 1a7a d7bf 3014 8ed4 444c dcbf
00000480: c91e 2212 8101 e5bf 429b a702 3923 dbbf
00000490: 1347 6386 5f9a d3bf 2a45 3e23 ece1 dbbf
000004a0: 0aba 1ffc 839b e1bf 0998 c3b0 6d96 d7bf
000004b0: 6e7c be70 afd3 d9bf 433d 9d06 d0b2 e1bf
000004c0: b38f 5cc6 5894 d8bf 817c 26d5 4b3b ddbf
000004d0: 4015 8fe7 2a96 dcbf e0cc e25b 3470 d4bf
000004e0: c431 76ca e1b8 d9bf ca1b 7fe0 f6c1 dcbf
000004f0: 9fdd 7ef2 ea3f e0bf e7a0 c22e d028 dcbf
00000500: 8bce ac76 d211 dcbf 9f40 e7ba da03 e1bf
00000510: d49a fc9e b90e e3bf 08f9 1efb 8ab5 ddbf
00000520: 2074 6482 6953 e3bf fcc0 b147 6606 e3bf
00000530: 12fb 1f7e 8dd7 dfbf 6ee7 5836 2015 e0bf
00000540: d60f bb73 8d82 cdbf c814 a8b0 e564 dbbf
00000550: 7d84 cd0d 5b7f c1bf 8b73 daa5 5ba0 ddbf
00000560: 8ef8 94e5 e1f4 d3bf fd6a 33bf 085d d5bf
00000570: 915e 879c a8b4 b3bf a7c1 102d b809 e2bf
00000580: 78db ed95 e0fa a83f 65c5 17d3 aaea ddbf
00000590: ed93 4a80 f33a e3bf fcd9 9671 b638 dfbf
000005a0: bf0d fe40 ee48 e1bf 0544 cf9d 7db3 c9bf
000005b0: a4f3 9624 2aaf d9bf a546 d86e a636 d9bf
000005c0: 18f3 095f 5605 ba3f bfa4 4857 fd27 cb3f
000005d0: 346b c986 5713 debf 9642 1a43 831b d4bf
000005e0: a48b c25c fb62 bbbf 3f93 6236 44da dcbf
000005f0: 5d8f 3020 6758 dcbf aec0 4bdb 6c60 d0bf
00000600: def6 412f 05ff dc3f 570c 7113 7b7a d73f
00000610: aa5c dbe0 3942 e03f 1a87 de98 eaf3 e13f
00000620: 2f47 cee6 46f4 e23f e5b2 0809 5021 e33f
00000630: 9fa8 7435 9efc cd3f 651b 9d7f cee9 dc3f
00000640: 7957 3feb 0457 db3f 7a89 90c6 39da e33f
00000650: 83d6 f2ec 9141 e43f dace 36fb bcbe e23f
00000660: 737f 222f fb70 e23f 9c14 0c0e 70e5 de3f
00000670: 93c2 6ed2 e9c1 de3f 16f1 a21e 6abf de3f
00000680: 00a1 ba37 488a de3f 5731 c938 3732 d93f
00000690: 4aed eee9 b7a6 d93f ca96 0035 1c0e df3f
000006a0: 34c3 2c2b ad4c e23f 3a2a b40f 7c44 df3f
000006b0: 5d10 650d faa7 db3f fe09 a81b 4f02 e33f
000006c0: 92f5 43a0 5146 dd3f d7f3 7f8c 9e59 d83f
000006d0: 51ca 9816 4ffc da3f 91a1 4968 7fd7 d83f
000006e0: 3404 82e7 b79b e33f 3d60 c9c9 ba11 e13f
000006f0: 0e5d 35bd b3a5 e03f 46b3 901e ce6b de3f
00000700: 67ee 8444 3850 e93f 9c0c 720a 45f7 e13f
00000710: 422a 3d8f ab4b e13f 95c6 f456 4704 e13f
00000720: eb30 2f54 770b e13f e516 2323 c5bf e23f
00000730: 4780 6838 668a dc3f 3d92 3b64 df23 e53f
00000740: 9f22 ba1c 9a33 c33f 7da6 b126 3785 d73f
00000750: 658a 472b d5da da3f e379 1fd5 a762 e03f
00000760: d286 b5ee 14c6 d13f 3837 963c 16bc db3f
00000770: 60c1 f3b9 eade d03f 473d 8e8b bf58 e43f
00000780: 491c 6d21 766b b03f c9ef b63b 3286 dc3f
00000790: 025d a238 87f5 e13f 0435 26ad b1cd e13f
000007a0: 7aff eceb a485 de3f d0ac 891c 412f ca3f
000007b0: 1c24 587a 965c e23f 2fab 051e f06b d33f
000007c0: 3832 e3b2 bde0 c63f 05f7 9b55 0cf4 c43f
000007d0: 4400 9813 0b58 d73f ca6c 23b5 faa9 d83f
000007e0: 109d f8ee d54e d13f f575 1e25 b0db e13f
000007f0: da8f 8d15 842a df3f d64e 2498 53f4 c23f

layers.0.bias f8 [128]
0.30502994210616163 0.6286680621088874 0.2996732453755345 -0.13294300196684056 0.0944822800656093 -0.17523970469888012 -0.6908026740818329 -0.1791873383423873
-0.5658900497250431 -0.11272045096098071 -0.49377311934927204 0.6554910428849813 0.29493303100284235 -0.27225638531240404 -0.06112075119126293 -0.12873932481433367
-0.6239107197549586 -0.12936731925872236 0.26791931463287527 0.2931126592358883 0.2010414384094045 0.6881354637158361 -0.11384235476173965 -0.37776793994217506
-0.4182655417547155 0.03348581740007887 0.27097105285176476 -0.09755475695622286 0.48817479175626105 -0.6232315233006211 0.1423839376055316 -0.5030948435888903
0.2106635375638247 0.45319948135828364 0.7138988757543141 -0.07727045045039123 -0.4494367301217881 0.44425767974004143 0.24092376390183093 0.6818481047220425
0.02283485478311982 -0.04433944560990286 0.036841815563399306 0.07575336943172747 -0.19478638368165826 0.07295954255130685 0.7407614891182295 0.143109224932434
0.0460487870341848 -0.5656018415023427 -0.3508872483573201 -0.2921160030951628 0.0996916820838192 -0.230974175279588 -0.04925564196502201 -0.6134824019940771
-0.2956335686903149 0.505479574186612 0.6192611674008269 -0.09957734751768788 0.413475016005576 0.02671988467774528 -0.24928058706954054 0.6093809135705094
-0.40895537731078996 0.8169392523081905 0.024464263455280345 0.32025777978038505 -0.15083306102290372 0.16102526444561727 -0.49296164783379326 -0.045539373173051206
-0.27326726846398336 -0.5491423919591354 -0.4067823673332043 -0.10691569198866392 0.25787053222754563 0.006316248586450725 0.29678342752471376 -0.636717533713611
0.3578199701383642 -0.6030370834972455 -0.33837466823737516 0.29774330922059006 0.16940588522913444 0.7263087818958215 0.1284479180595899 0.3686675926052003
0.20151764164842542 -0.06541471747116137 0.07693730657071042 -0.3056962030668125 -0.694416545604326 0.20324343355518049 -0.5248519243370935 -0.37569188503093087
-0.3162598036849397 0.4825177742220511 0.23107664335487585 -0.7351854966424559 0.7261225599854012 -0.29391385039657847 0.29384214123638647 0.232110146305386
-0.6112216556212875 0.3459312299715379 -0.21943645723791771 -0.3081737171694887 -0.6260059839646038 0.17788806910107716 0.347307202681994 -0.3120225783168348
0.21362243887931542 0.27771966779954216 -0.6516850217573954 -0.10413274493646636 0.4374351474149864 -0.06317842727695518 0.12352751146390577 0.12091646162387744
0.2894178886812545 0.12307634471638229 -0.37919017261380106 -0.2503225328800345 -0.33479411158654254 -0.39480187349747126 0.31392980795740877 -0.009338579599364544
00000000: 2664 694e 9c85 d33f 0a84 d97b 0c1e e43f
00000010: 52f1 17b1 d82d d33f 92fe d6ba 4604 c1bf
00000020: 0eed ee9e fd2f b83f c239 5230 416e c6bf
00000030: 5a77 a535 0e1b e6bf f3d7 0457 9cef c6bf
00000040: 8f6d 1673 c51b e2bf b0c0 775a 3fdb bcbf
00000050: 14f0 cf91 fa99 dfbf b761 005a c8f9 e43f
00000060: 0fb6 aaca 2ee0 d23f 14d0 c20b a66c d1bf
00000070: 1165 f216 384b afbf 13b2 e4ba 877a c0bf
00000080: 7315 1f9d 13f7 e3bf 7096 b1ba 1b8f c0bf
00000090: df27 940d 9725 d13f 078d 5d99 5bc2 d23f
000000a0: f5f9 8dd1 b9bb c93f ee12 fca9 3405 e63f
000000b0: e8ee 99c6 c524 bdbf 0eda e194 592d d8bf
000000c0: 9d55 b8d5 dcc4 dabf f5f0 3995 0d25 a13f
000000d0: 1b4e 8af8 9657 d13f 893a b23a 59f9 b8bf
000000e0: bbc8 547b 413e df3f a032 4d3c 83f1 e3bf
000000f0: 41e8 be09 a339 c23f 4104 805b 5a19 e0bf
00000100: fbec 25d6 05f7 ca3f 11df bf65 3801 dd3f
00000110: a282 8074 42d8 e63f c5b1 a109 ffc7 b3bf
00000120: eca1 5f46 92c3 dcbf 8fbd 5ec3 b76e dc3f
00000130: b9cf 6403 97d6 ce3f 3bdd d31d b3d1 e53f
00000140: 7477 022a 0562 973f 9d75 a2e9 a8b3 a6bf
00000150: 35ac f031 eedc a23f 3665 45a4 9264 b33f
00000160: d535 cf9d c2ee c8bf 3661 3001 7aad b23f
00000170: 10c5 3c70 51b4 e73f 729c 6b30 6751 c23f
00000180: 4022 aae4 b493 a73f 02eb 7908 6919 e2bf
00000190: b6cc 11ca ef74 d6bf 37a5 fb51 07b2 d2bf
000001a0: 22b5 3be2 6485 b93f 81f0 85d0 8f90 cdbf
000001b0: f639 c416 0938 a9bf 058e a7d8 a5a1 e3bf
000001c0: a0fa 470f a9eb d2bf 1eae fd7f e32c e03f
000001d0: 2d6b b5cb fcd0 e33f 18ca 02ab e67d b9bf
000001e0: e83f dde9 5f76 da3f 110f 601b 755c 9b3f
000001f0: cae4 7e20 6de8 cfbf 2df1 d266 0c80 e33f
00000200: 09af c42c 532c dabf 956f 6fc9 5d24 ea3f
00000210: 8d39 d8ed 280d 993f 9290 9c7c 1a7f d43f
00000220: 64dd 1f6c 7f4e c3bf acd4 4fd2 799c c43f
00000230: e437 e802 af8c dfbf eccc eacc ef50 a7bf
00000240: 13af 47ff 357d d1bf 72f9 c910 9392 e1bf
00000250: cc46 12e9 b808 dabf d940 85a8 d35e bbbf
00000260: 383e a167 f380 d03f e89e cb11 11df 793f
00000270: dea8 cdea 7ffe d23f 1fdf 0273 fd5f e4bf
00000280: ec65 66bb 85e6 d63f 23ab fc6c 144c e3bf
00000290: c8f5 7739 eea7 d5bf cf22 edf3 390e d33f
000002a0: 578f 6790 17af c53f e948 21ea eb3d e73f
000002b0: a911 a73b fb70 c03f 9866 55f5 3f98 d73f
000002c0: 6f38 3980 54cb c93f 4a39 37d8 04bf b0bf
000002d0: 5143 90cf 29b2 b33f c1bb abce 8690 d3bf
000002e0: fb7f 250c a938 e6bf 1885 1f7e e103 ca3f
000002f0: cca7 4843 96cb e0bf ee25 e5f9 550b d8bf
00000300: c36f 77c2 993d d4bf 5a6f 013b 92e1 de3f
00000310: 1f11 0a61 eb93 cd3f eb54 12bc a386 e7bf
00000320: 97cd 0061 653c e73f 0add d209 7ccf d2bf
00000330: 4b00 b344 4fce d23f bec7 b907 c9b5 cd3f
00000340: 5003 b0b7 208f e3bf ce23 d9bd bc23 d63f
00000350: e087 b16b 7e16 ccbf 88b3 2e41 1eb9 d3bf
00000360: 054e 87b3 3d08 e4bf a1a0 9147 09c5 c63f
00000370: 56cd 4bfd 473a d63f 7a00 5f8c 2df8 d3bf
00000380: 6cd6 56e6 fa57 cb3f d0eb a9b6 28c6 d13f
00000390: c7b6 f78b 9ada e4bf 8de0 f18d 71a8 babf
000003a0: eb2b 11fd effe db3f d59c f71e 762c b0bf
000003b0: 2bcc e4bd 7f9f bf3f d5fb 3898 61f4 be3f
000003c0: d6da b09b d285 d23f 60d4 776b ee81 bf3f
000003d0: d2d0 95db a644 d8bf 08fc 0acd 4805 d0bf
000003e0: b515 0a48 446d d5bf 058e c413 6f44 d9bf
000003f0: 16aa 9a0c 6d17 d43f f04d c3ef 1a20 83bf

layers.1.weight f8 [100, 128]
-0.5325342135952058 0.012950006306435335 -0.26237449046276545 0.03546010109198693 -0.3420230536828823 -0.2804448508090952 0.24225360677389712 0.1374046699098799
0.2375130007452462 -0.18346327069544094 -0.227764561032798 -0.20418366709163077 -0.1229428661802805 0.2555577117661313 0.10199612236755529 0.1926512661630786
0.2834890037687154 -0.1932724749937864 0.061691325522143514 0.16486197928140928 0.1554392898740491 0.061068522219060825 0.11461948040929416 0.17645574436781045
-0.4654723343568781 -0.25309543912666105 -0.06107555049036456 0.35886252078883385 0.22728573339412386 0.014805611101916132 0.5202240559614164 0.2666410462797099
0.13125394912923177 -0.0092119061088018 -0.18727756757364564 -0.027434970386123338 0.3031884067873349 -0.032892556260543625 0.4088271451188288 -0.17708174377580263
-0.0025267198813490764 -0.48020616802120364 -0.1315843599998188 -0.11344289790629065 0.014175676061815193 -0.07601644542377245 -0.15354093317008374 -0.6736233754162333
-0.12853480802868167 0.11583944703210666 0.060620461916537756 0.5000701798659479 0.17658779398975866 0.18825257235791573 -0.1346854310044332 0.36482041948345617
0.2839602512586937 0.005557327482894659 -0.043087154717219925 0.010013968242751326 0.2975674151133614 -0.4958725973734376 -0.4956974632739103 -0.14644554771193283
0.37777360746159344 0.019431007651970665 0.12889305818119542 -0.12379641283449942 0.3481188355950509 0.09477215047517293 0.02266930187455884 0.24213735779207154
0.0682031674402053 0.039001133440203006 0.12658466300074406 0.10465864182313916 0.10608480515522528 0.3866276069089324 0.15604417916075544 0.03501177370802656
0.0027011030331636674 -0.030022952574007465 -0.3912990599875803 -0.01898323622234776 -0.19411823995021227 0.1418362017621452 -0.09047965105018796 0.5989632010224898
0.9958011313825427 0.1146595467450291 -0.11254753893274413 0.1206484327193421 -0.0862573627184057 -0.048362516403305106 -0.485142739037371 -0.07405109309603844
-0.18763898828455466 0.2690831322894935 -0.10352490177225786 -0.017532527624670877 0.2780808105763432 0.31351734907763784 -0.16040299940994482 -0.15293893520771265
0.20108621475658076 -0.20757581862366428 -0.2974048880473578 -0.5520398817537739 0.0525432506222879 -0.20005052503159118 0.7943966648511788 0.06251371523870305
-0.24287382699894544 -0.11999333147233604 0.4225499560807026 -0.2665569687487686 0.20021355842911176 -0.23895039491186731 -0.030530174490194514 1.1243020570690458
0.14951922824536412 -0.34053318100080054 -0.16873185487215706 0.08795358046026973 0.37302482006448484 -0.07824670780180976 0.3691764761025583 0.23976649698742064
0.04272990270761411 -0.06436923281856044 0.024868748350489953 -0.04158479820384117 -0.0519659998339788 0.09619043770771947 0.003223868990939694 0.014029389701667613
-0.00044121916460560103 -0.00013369699114040216 0.0831347822303385 -0.06862718214031603 -0.08435821611322622 -0.0588212600889607 -0.015855847144270564 0.02748238710838922
0.09649908104638055 0.08918308996274675 -0.03719222559162196 -0.03144970858457155 -0.1071110657893532 -0.01936346825466211 0.024844882963291057 0.06849775422544944
-0.005861647284369731 0.0028988295328510514 0.031694631872982645 -0.0882692765944078 0.054993255667592805 -0.09567016000082151 -0.07976113378824956 -0.06366860671875277
0.09500631808876579 0.05227810185622955 0.050799769704489024 0.08147306503059593 -0.04448364730854195 0.0037746536103261913 0.0253117117330372 0.036163034928597744
-0.001822637354757675 0.0007912581687911531 -0.010419316834138116 0.05019722563050615 -0.016452147120494084 -0.018254712633988257 0.040143432399591665 0.09585948330180509
0.015352714051695195 -0.026009098530486354 0.05029356455798891 -0.006957598029647354 -0.03202364025648109 -0.0016658873947324618 -0.03321679396375183 0.04349771117408286
0.11090594146329343 -0.023326515226658524 -0.050820951101222964 0.0520402307744654 -0.02485415958205282 0.01839993639082481 -0.01890266556751088 -0.06259877642679532
-0.06958652934250674 0.06079702132429132 -0.0002906669636020903 0.02737558566251079 -0.008941715148435267 0.059164045431796354 -0.05157640718931165 0.06616124845366855
-0.028568852950409413 0.06963957325982273 -0.03245531760774723 0.04097050061586918 -0.0752261884554326 0.027479474950143308 -0.009308858505887418 -0.05117909538678956
-0.026036159799332565 0.07082176985092173 0.06389737621456767 -0.08310435469272139 -0.03639499950048305 -0.085542506938087 -0.004975147971045498 -0.046184596811559155
-0.022459728345391627 0.03941552210579837 -0.0007667133218123312 -0.04092150005792595 0.03477745894693275 0.017053376799490122 0.11025023886465168 -0.017873131710983366
0.08402845101281352 0.04186137452175062 0.09074029449686911 0.02488985310515579 0.019265641268104372 -0.004607470646508968 -0.02628264737310549 -0.00033925164018509
0.10144171799898855 0.003778138059664838 -0.11366961406507406 0.08231732352919241 0.07482578853507495 0.09214056987586892 -0.0462937295966414 0.016100921033251874
-0.0484229011537467 0.05793769706573573 -0.04659769548648175 0.001597220951138301 0.05912658793225778 -0.06834019685287979 -0.08271545142293275 0.07274846807942614
0.045529467566171475 0.04228912923988041 0.03355925464146109 -0.02313857496592791 -0.08972300719726753 -0.07786102142578034 0.09963485208314644 0.03765641607325226
00000000: 428f ec30 850a e1bf e095 8d6c 8885 8a3f
00000010: 49e7 f55f beca d0bf 0f81 018d d327 a23f
00000020: 30f2 82a9 b4e3 d5bf 5ea0 a3f5 cef2 d1bf
00000030: 8e49 378b 2a02 cf3f 6951 cae9 7996 c13f
00000040: 19af 4975 d366 ce3f 02ba d375 b97b c7bf
00000050: cd6d 699e 6327 cdbf 8e98 44be b022 cabf
00000060: c053 8505 2f79 bfbf 16ac 91bb 0e5b d03f
00000070: d830 e3f9 6a1c ba3f 7809 daf3 cba8 c83f
00000080: 8f95 fd0f af24 d23f 6f5b a807 27bd c8bf
00000090: b005 2163 0196 af3f aa09 af84 321a c53f
000000a0: 70e1 4245 6fe5 c33f a6e8 7d93 5f44 af3f
000000b0: 91a9 d7c7 b357 bd3f 7523 a011 1a96 c63f
000000c0: 3d5b 5079 4cca ddbf 8b35 7436 b732 d0bf
000000d0: b8f3 e167 4b45 afbf 1415 a381 9af7 d63f
000000e0: b137 e3eb b217 cd3f fc16 d77b 6752 8e3f
000000f0: d64b 5eeb aca5 e03f 93b9 629b a510 d13f
00000100: 128e 7ded edcc c03f e4dd c41b b1dd 82bf
00000110: 1b6a 001a b6f8 c7bf 6aee 4cb2 e917 9cbf
00000120: 7f63 eb58 7067 d33f eb7c d70a 4bd7 a0bf
00000130: 9427 8054 392a da3f 332c 1e55 9daa c6bf
00000140: a6a2 3568 eab2 64bf 6a44 bfa6 b2bb debf
00000150: c9a1 6e9d c1d7 c0bf 7d92 7800 980a bdbf
00000160: e269 ac08 2308 8d3f 34a3 0d53 d075 b3bf
00000170: db0a 48b3 3aa7 c3bf b87b e79b 528e e5bf
00000180: e8be 701e d473 c0bf 7ef1 966c a7a7 bd3f
00000190: 59c5 cc2a a509 af3f a854 872d 9300 e03f
000001a0: b886 07c8 6d9a c63f b522 d508 a918 c83f
000001b0: c0b2 b448 5f3d c1bf 650b a6be 3759 d73f
000001c0: 3548 219e 672c d23f 34d4 acbc 47c3 763f
000001d0: d2bb c600 850f a6bf 6dad d810 3482 843f
000001e0: e018 1133 580b d33f 36e5 2c6b 60bc dfbf
000001f0: ca2e 5eda 81b9 dfbf c7a5 084b babe c2bf
00000200: 21ba 555a 712d d83f 16fc 92d9 b8e5 933f
00000210: 9bea c856 917f c03f 7b7d 7c28 1fb1 bfbf
00000220: 6926 8039 9447 d63f 16ca dcd6 fc42 b83f
00000230: 1f91 b218 9f36 973f 8fab 6d60 5bfe ce3f
00000240: c2a8 a345 c375 b13f a8e4 43e1 f4f7 a33f
00000250: 56b6 e11d ed33 c03f fcc8 dfa3 e8ca ba3f
00000260: 8485 beb0 5f28 bb3f 1ae5 d9b7 81be d83f
00000270: 8901 1d73 41f9 c33f 1113 1a2e 10ed a13f
00000280: 6b1a 19a6 9f20 663f 8627 bd3d 56be 9ebf
00000290: 708a 6636 0b0b d9bf de28 fd6a 5770 93bf
000002a0: c455 12d2 ddd8 c8bf dd87 fa4b b027 c23f
000002b0: f0cb 36a6 ac29 b7bf 29c5 fcdf b42a e33f
000002c0: 4373 9355 9add ef3f 70af 71fb 535a bd3f
000002d0: ce1f f65e eacf bcbf f7dd d7d0 d0e2 be3f
000002e0: da2d ea67 f614 b6bf 0ce2 9bc4 f8c2 a8bf
000002f0: f7ab 8321 940c dfbf 0a9e 142f 03f5 b2bf
00000300: 0a7f 11eb 8d04 c8bf e3ab 4575 a838 d13f
00000310: 3bf7 6ea3 9b80 babf ac84 0e03 0cf4 91bf
00000320: 2384 c474 13cc d13f ae17 4112 ab10 d43f
00000330: cbb0 52e2 1588 c4bf b947 80c6 8093 c3bf
00000340: 4529 076e 31bd c93f a1eb 362c d891 cabf
00000350: 535f f582 ae08 d3bf 9a0b c78a 4faa e1bf
00000360: 4cb5 18ee f2e6 aa3f d176 476f 419b c9bf
00000370: 0bcb f28d b26b e93f 866e 801a e600 b03f
00000380: 08e6 0154 7d16 cfbf d069 690a e2b7 bebf
00000390: 1fbe 92f8 0e0b db3f adff d2f5 440f d1bf
000003a0: e69b d50e 99a0 c93f f4a1 c131 ed95 cebf
000003b0: 0fff e753 4d43 9fbf 45fe 5e27 24fd f13f
000003c0: 90ef b731 7223 c33f 7c7b e6ae 4bcb d5bf
000003d0: 1913 3c63 0199 c5bf 3b99 a437 2084 b63f
000003e0: e17c b17e a3df d73f e847 07eb f907 b4bf
000003f0: 6a08 d45e 96a0 d73f e664 9e27 abb0 ce3f
00000400: 8f84 619d b1e0 a53f 1807 d385 807a b0bf
00000410: 4c65 6e73 3177 993f 0caf 9748 9a4a a5bf
00000420: 46ee 949b 499b aabf 2580 24c0 ef9f b83f
00000430: 9bde 3e7c f168 6a3f deac 9ccf 70bb 8c3f
00000440: 1aa8 e1e1 6dea 3cbf 180f b768 2086 21bf
00000450: fde1 d632 5248 b53f 67c7 e80e 8d91 b1bf
00000460: d6ee 5a03 8098 b5bf 4e7f c8f8 d11d aebf
00000470: 1d75 bde3 833c 90bf 5bdc 62c7 5724 9c3f
00000480: ac31 30ed 29b4 b83f 7b08 bff6 b3d4 b63f
00000490: 83b6 2901 dc0a a3bf 64ce ad1b 2d1a a0bf
000004a0: bcdf 9a7c a16b bbbf 2d4a 905b 04d4 93bf
000004b0: 4c7d 33df ef70 993f 9f6c 3f9e 1189 b13f
000004c0: cd60 31f6 6102 78bf 2bed 4941 49bf 673f
000004d0: 36d9 b45e 473a a03f 63ed 36b8 d098 b6bf
000004e0: ac8d 2f75 1328 ac3f f817 68f0 d67d b8bf
000004f0: 10c7 1cc5 396b b4bf da90 a3f7 954c b0bf
00000500: 87c8 1a85 5552 b83f 08f7 8903 32c4 aa3f
00000510: 79db 0c6b 6d02 aa3f c0b0 cf35 6bdb b43f
00000520: c341 cb84 8fc6 a6bf 772b ecb9 05ec 6e3f
00000530: f08d 6538 50eb 993f 6153 af18 f683 a23f
00000540: d998 31f5 b1dc 5dbf 964d 94fa 8ded 493f
00000550: c7ef 6408 b956 85bf 87ac dd64 73b3 a93f
00000560: 6f75 53e7 d4d8 90bf 401e 0b07 5db1 92bf
00000570: b761 9c12 ae8d a43f 1bef ca41 3f8a b83f
00000580: 2112 0e66 3e71 8f3f 37f7 580e 21a2 9abf
00000590: 9b9f f3fd 13c0 a93f 85d1 efff 917f 7cbf
000005a0: e26e 330f 6765 a0bf 49b9 44f8 3c4b 5bbf
000005b0: 692b 81a7 ca01 a1bf a117 e3fd 5445 a63f
000005c0: e555 84ef 5464 bc3f e2d1 1cf0 e7e2 97bf
000005d0: 3edc dc25 3405 aabf a057 8162 04a5 aa3f
000005e0: fb44 4c6a 5e73 99bf dc33 30d4 6ed7 923f
000005f0: c7c1 ad69 385b 93bf c6cf 8531 7906 b0bf
00000600: 77a9 c43b 6cd0 b1bf 5068 9084 c920 af3f
00000610: 9974 4a1a 950c 33bf 2c6f 8474 5808 9c3f
00000620: 18b9 0fb1 0850 82bf 250e 75f0 bf4a ae3f
00000630: 9d1d 3f0c 3968 aabf 48fc 5e8e f1ef b03f
00000640: 95ca 6c44 2741 9dbf a088 a829 e6d3 b13f
00000650: 31c3 69bf fb9d a0bf 64e7 7de0 15fa a43f
00000660: 4f04 3803 0642 b3bf 9272 e358 9423 9c3f
00000670: a05b c4d6 8510 83bf 11aa d979 2534 aabf
00000680: 3500 681b 39a9 9abf a2c3 5a21 6021 b23f
00000690: 764b 2415 945b b03f d977 8fb5 5346 b5bf
000006a0: 9b5d 2f89 5da2 a2bf 2b89 b71d 1de6 b5bf
000006b0: 9621 411d d260 74bf 4de9 c4e9 81a5 a7bf
000006c0: 13cb e1da aeff 96bf e35f cc74 452e a43f
000006d0: 1470 4052 a81f 49bf a173 e7b0 a9f3 a4bf
000006e0: 624f a1e1 59ce a13f 188a 8fbe 7076 913f
000006f0: 18c4 4c12 5c39 bc3f 1ffe b390 554d 92bf
00000700: 2f98 0879 e382 b53f 9cb3 12a5 da6e a53f
00000710: 4d20 4b85 c13a b73f 8005 5bc4 b97c 993f
00000720: 205e bb4c 5fba 933f 4992 e77b 48df 72bf
00000730: 02dd ad9b d6e9 9abf 6a26 20b3 b23b 36bf
00000740: 3c76 419d 15f8 b93f b539 fe6c 54f3 6e3f
00000750: fa5b f5aa 7319 bdbf f8be 7384 bf12 b53f
00000760: b1d2 a76a c827 b33f c76c 403e 8696 b73f
00000770: 1740 41cd cfb3 a7bf bbda 1785 c27c 903f
00000780: 8062 aaf1 e2ca a8bf 04ae 3484 02aa ad3f
00000790: 62e7 5d34 a7db a7bf 35db f9ef 3a2b 5a3f
000007a0: a079 fc12 d745 ae3f fc3d 7c3e be7e b1bf
000007b0: 6541 bcfe d62c b5bf 6038 3cc3 a49f b23f
000007c0: 5ee9 666c a34f a73f 858a 1fb6 eba6 a53f
000007d0: 7890 53ba ad2e a13f 4ed1 047b a3b1 97bf
000007e0: e66c 9c45 16f8 b6bf 6929 a82c b3ee b3bf
000007f0: 4d29 3d6f ab81 b93f e7d2 09a7 b347 a33f

layers.1.bias f8 [100]
-0.14867549411616807 -0.0887367697066532 -0.0307879670073994 0.06495467082378265 -0.0475264479863716 0.014527865388368545 -0.062403642354614805 0.0016430463871050945
-0.06937007185253814 -0.04952451690828476 -0.010931227237133844 0.04864102538194337 -0.07761693722667717 0.06976026379008535 0.08252168597362967 -0.04525532929439208
-0.0925363439958297 -0.11446999497512449 0.12590651396223268 -0.04111003878244673 -0.03755983578475336 -0.07148900559900416 -0.023742160877858277 0.19623147259269405
0.20146592495371515 0.05468026550738457 0.1637689198627035 0.007317158971930227 -0.07281384474482995 -0.07697526822149357 0.07594501220978557 0.005435332565839135
-0.05106845125555992 -0.047325058218632796 -0.0003537840620227381 -0.046729676809868365 -0.05285698713224227 -0.08276980990517488 -0.08895795146180248 -0.02735821738849575
-0.06826585606261783 0.05758371954293175 0.021043366388171666 -0.007229884603846504 0.10445346378399899 -0.12026766351264523 0.13718439692426326 -0.1019194638784992
-0.08020682785048716 0.09458152982716804 -0.027087920150228078 0.014182148511731092 0.057218939568406 -0.10728270472620176 0.005034831827017649 0.18343348317143612
-0.08301457322626912 0.44559910255176477 0.02329874054923025 -0.006151544058384869 0.0834573178963351 0.03337048256588836 -0.07062061375553945 -0.039040036499500275
-0.23590524079733027 0.07028981850292172 -0.09627801243734739 0.050569967132908775 0.028370582356314848 -0.05257337846058607 -0.006069135386496782 -0.01706845911465236
0.0024668852392631256 0.27266295589363015 0.08517836849134974 -0.0044132217250521895 0.0693805757263234 0.04123162566682045 0.03384074752691752 0.3010812938218652
-0.04570140890324843 0.03787875262467929 -0.052828099926811534 -0.007228228191906397 0.05017641082576237 0.014250663020734387 -0.04547284593837728 -0.04094468429684639
0.0643811241135556 -0.1292331594862669 -0.042530227452516556 -0.08587595851445791 -0.12417201573972957 -0.10253076297047796 -0.026892528827950467 -0.028512683489398463
0.07270706231667863 -0.04822545498609543 0.0004257693200100484 -0.015934146138960482
00000000: d708 7970 cc07 c3bf 0ebf d7f3 73b7 b6bf
00000010: c4e0 a07d e186 9fbf 8c1c e98a dea0 b03f
00000020: 4dd0 97f7 6255 a8bf a734 ca15 c9c0 8d3f
00000030: 9ef2 20c6 5ef3 afbf c63b e69f 6feb 5a3f
00000040: b585 edad 3cc2 b1bf e24b f108 475b a9bf
00000050: 19b9 e87b 1c63 86bf e0c9 84fa 79e7 a83f
00000060: 6817 011f b4de b3bf 7eeb 8903 cfdb b13f
00000070: 7baf 7726 2420 b53f 2808 94de b42b a7bf
00000080: 6b4b 273b 76b0 b7bf 139c cad4 e74d bdbf
00000090: aa1b e963 b41d c03f b73e 3700 600c a5bf
000000a0: 0863 adf4 0a3b a3bf a73f 127d 1a4d b2bf
000000b0: 3aef 0672 dd4f 98bf 25a3 9de6 1c1e c93f
000000c0: dfa0 77ab a2c9 c93f 1e7f 2e40 0dff ab3f
000000d0: e1ad 7445 61f6 c43f a7c3 bee7 98f8 7d3f
000000e0: 5504 e099 eda3 b2bf 67b5 9cb3 a6b4 b3bf
000000f0: e13f bcdf 2171 b33f da83 cff9 5b43 763f
00000100: 0000 00e0 a425 aabf 3620 a972 fd3a a8bf
00000110: 9473 eaf9 822f 37bf 5c54 4dc3 f3ec a7bf
00000120: ac36 322e 1210 abbf 868c a3fa 6630 b5bf
00000130: 8562 3fc4 f2c5 b6bf 9f7f d7e3 ca03 9cbf
00000140: 59ee 3803 df79 b1bf 5217 7000 9d7b ad3f
00000150: af61 bd69 648c 953f cd86 d65e 159d 7dbf
00000160: 77fc e752 76bd ba3f d49a 8d91 dcc9 bebf
00000170: 32d5 2721 428f c13f 1c1b 2fdc 6417 babf
00000180: 78a3 8846 6f88 b4bf 57d0 69c1 7e36 b83f
00000190: 3bc6 a58c efbc 9bbf 97f4 5bc0 870b 8d3f
000001a0: 06f3 5004 cd4b ad3f d3b7 391c e176 bbbf
000001b0: cc3d 9b60 679f 743f 3f39 9b95 bf7a c73f
000001c0: 2625 196d 7140 b5bf cd8d 2519 b284 dc3f
000001d0: cea8 c902 a0db 973f 4987 cf88 5c32 79bf
000001e0: bd04 fa72 755d b53f 8e61 8b96 ef15 a13f
000001f0: b3e4 804a 3114 b2bf 0000 0040 0efd a3bf
00000200: 1efb 1697 2432 cebf 213a b677 83fe b13f
00000210: 9b06 be02 ada5 b8bf 46c4 fd85 4ee4 a93f
00000220: e12d 8e8d 2d0d 9d3f f0c3 41da e5ea aabf
00000230: 0000 0020 f3db 78bf 3b1e c3e6 647a 91bf
00000240: 61ae 9eed 6e35 643f 8b34 9953 4f73 d13f
00000250: 583a ffe2 3fce b53f 6b60 aa2f 9913 72bf
00000260: c9e2 b8e7 ecc2 b13f 8b8d 99c7 4f1c a53f
00000270: 99f4 cc0f 9353 a13f ecbe 9979 ea44 d33f
00000280: 0abc 3dd1 2c66 a7bf 9bf8 7807 d864 a33f
00000290: f8ae fde2 480c abbf 9082 13bb 589b 7dbf
000002a0: 8bfb 0df7 b8b0 a93f f284 f69c 732f 8d3f
000002b0: fd9f 5284 3748 a7bf 0000 00a0 b3f6 a4bf
000002c0: ea24 8c06 487b b03f bcb0 c650 b68a c0bf
000002d0: 0000 00a0 85c6 a5bf 4d0e 5581 f7fb b5bf
000002e0: 9737 aeba bcc9 bfbf 13c9 cac1 743f babf
000002f0: 0388 4a0f b789 9bbf f4c2 6ecc 6d32 9dbf
00000300: 559f d616 ee9c b23f 0000 00c0 01b1 a8bf
00000310: b2f0 194e 39e7 3b3f 5de0 3972 0a51 90bf

layers.3.weight f8 [100]
1.2462241870999633 0.9858694437091482 1.1218484539754128 0.9886378787045721 0.5386225939691878 1.5100040618260706 0.9682349786496799 1.1259027937820496
0.7089647002789505 1.1384060053407408 1.0965282911823133 1.2872393807788893 0.6578077126874343 0.8468689741403014 0.9954282845878395 0.9634540738479557
0.9894477378823536 0.9682407591117509 0.49529475094702846 1.0770807074410735 0.6691333777352702 1.272909399589436 1.0006473078364027 1.257169984399734
0.6669823034434349 0.9905632250131695 1.1344184616737933 0.9631428570933356 1.0019512397473127 1.006005472035104 0.9964360235564671 1.448187775111858
1.0 0.9870434347348231 0.8242524900838075 0.9969935669462849 0.9902243125022471 0.6854174493589964 0.9622298459400639 1.166235691577534
0.9683331290834741 1.390433060854179 1.0011343170418072 1.0360714837657625 0.5926397502615154 0.9046844088516188 1.3245232133364258 0.9682883387457237
0.9772171281182788 0.8441242627384989 1.0380502445956943 0.7258323976239263 0.6950420478225985 0.9754844350283538 0.963146928543629 1.11440379069717
0.9067916009244077 1.13786803645756 0.9682454865305008 1.0342794209939954 0.49368525232438154 0.9587572707234403 0.9715277036019174 1.0
0.9108520623441719 1.3847305724710446 0.9682433318790858 1.227985365261258 1.5653642098702993 0.9019485720078787 1.0 0.9683358432174876
0.9547205627972577 1.0297606549136744 0.9210010830840292 0.9420655186049425 1.3143466503256287 1.0313092922661542 0.9675331157506292 1.075125202373333
0.9329450924003253 1.5879154613209239 0.9876272894232668 1.0688699454553325 1.0024174969015163 1.0123276483779393 1.0126272291160834 1.0
1.006228528035416 0.8575815584436917 1.0 1.003835610382887 1.021637743697487 0.8324629099716006 0.9629373203423679 0.9939944961325325
1.0090923701918382 1.0 1.5033806631236881 1.5683845975925637
00000000: a641 f1c5 88f0 f33f 7c68 5b13 3e8c ef3f
00000010: ec47 4e5d 17f3 f13f 39ef 93e7 eba2 ef3f
00000020: c87f 3f73 653c e13f 13ec e504 fa28 f83f
00000030: a598 04ec c7fb ee3f 8f4d dca5 b203 f23f
00000040: daed 36bd d6af e63f bf22 2837 e936 f23f
00000050: d144 dc3f 618b f13f 1219 2952 8898 f43f
00000060: 2f92 a1c2 c20c e53f cfbf 7df6 8c19 eb3f
00000070: 4c2e fa6a 8cda ef3f 7fff 4ba3 9dd4 ee3f
00000080: d8c9 694d 8ea9 ef3f ff40 610b d4fb ee3f
00000090: 40ab 4cc1 e8b2 df3f 91ca d9fa b83b f13f
000000a0: b81e c166 8a69 e53f 3a1f 203f d65d f43f
000000b0: 01ce 5fc0 a602 f03f ae27 0846 5e1d f43f
000000c0: 119c 8945 eb57 e53f c6a8 01a6 b1b2 ef3f
000000d0: 93e1 0df9 9326 f23f aaf0 12f8 10d2 ee3f
000000e0: fc6b ee05 fe07 f03f 16ce 9f31 9918 f03f
000000f0: e866 b7cc cde2 ef3f af28 c9f1 c62b f73f
00000100: 0000 0000 0000 f03f c85c fd1c dc95 ef3f
00000110: fece 11c2 4660 ea3f ed69 8b0d 5fe7 ef3f
00000120: ebd6 bce5 eaaf ef3f 1859 2393 f0ee e53f
00000130: b386 f13e 96ca ee3f 230e acc1 e6a8 f23f
00000140: f17f 21c2 95fc ee3f 8355 babc 363f f63f
00000150: d390 e96a a504 f03f 6d79 31b1 bf93 f03f
00000160: a1d9 35a3 e7f6 e23f 6000 a7b7 2cf3 ec3f
00000170: 1b2a c140 3f31 f53f 8c5a 80d3 37fc ee3f
00000180: 557d cbda 5c45 ef3f 551a c7e2 1003 eb3f
00000190: fd4a c292 da9b f03f 4881 45dd 043a e73f
000001a0: 12c6 17d2 c83d e63f aa85 4622 2b37 ef3f
000001b0: bbce ea81 19d2 ee3f 0b53 b911 99d4 f13f
000001c0: 0440 c8d1 6f04 ed3f b9fb 3b1d b534 f23f
000001d0: 50bd 64f5 ddfb ee3f 3a85 0194 688c f03f
000001e0: e80b 5007 8a98 df3f 8fe6 51ba 23ae ee3f
000001f0: 5a1a 4444 c116 ef3f 0000 0000 0000 f03f
00000200: 5965 6839 b325 ed3f 4a8d a83e db27 f63f
00000210: 35b4 9f70 d9fb ee3f 3038 7cfb d3a5 f33f
00000220: 8f8c 7b57 bb0b f93f e353 6e40 c3dc ec3f
00000230: 0000 0000 0000 f03f f83c 4573 9bfc ee3f
00000240: d00d 4123 128d ee3f 06fd f84e e679 f03f
00000250: c2a5 6d43 d778 ed3f c81e 2396 6625 ee3f
00000260: 7117 6c5a 9007 f53f 2e81 252c 3e80 f03f
00000270: 1945 3e02 08f6 ee3f 14c8 f47b b633 f13f
00000280: cc56 9aaa afda ed3f 5afa f20a 1a68 f93f
00000290: cbb8 968b a49a ef3f fe86 365f 171a f13f
000002a0: 4615 e2ed e609 f03f daea e979 7e32 f03f
000002b0: 9b7b 019c b833 f03f 0000 0000 0000 f03f
000002c0: e66d c315 8319 f03f 4663 65e1 4e71 eb3f
000002d0: 0000 0000 0000 f03f a479 d2ed b50f f03f
000002e0: 95a3 98d1 a058 f03f a6c0 ae41 89a3 ea3f
000002f0: b0fc 5eed 61d0 ee3f 1b62 a98b cdce ef3f
00000300: 85df 890a 3e25 f03f 0000 0000 0000 f03f
00000310: 6be1 d8e1 d80d f83f e75c a372 1a18 f93f

layers.3.bias f8 [100]
0.02842183143729029 -0.07251365040492762 -0.015460876950178665 0.0071170879168276574 0.013054968066980551 0.08314615573474692 -0.017236685878368456 0.05018376606131907
-0.0222334575792394 -0.025144002841842667 -0.13495305708472272 0.008811796332717229 -0.03204656048162292 0.08364736851076682 -0.00793003099022759 -0.10713225574467887
0.048149914045639355 0.13528855780435864 -0.018228017716866687 -0.2784156812941832 -0.02455248912344843 -0.02354727887124258 0.027459733058059457 -0.21863228190898826
0.1616687534993502 -0.029523276463493977 -0.30913250944973764 0.09470052865048212 0.017352899558607155 -0.0884439541874794 0.03081830636105448 0.04919957649769319
0.00792012005165266 -0.005877096494105903 -0.008325330562276884 0.010287810220790387 -0.02011815693364663 0.035006554333809003 -0.002774782314284977 -0.06851057709381057
0.031505974409250286 -0.07724291694047043 -0.02515239635695478 0.02913972726056306 0.04389073298426841 -0.005658794817836664 0.12101813144797675 -0.015828168833780056
0.01549914438617964 0.0787634720676157 -0.07826753844668334 -0.020029399519987966 0.04255233806363365 -0.04517615829879373 0.06653958938256112 0.009994877845769677
0.07494219611807035 -0.3683859430235118 0.010163770544336571 -0.0009161766355046747 0.008675542540061193 0.009667144111320712 -0.06140317851451196 0.1238048893405139
-0.009704737270400998 -0.0037102236919748645 0.01649202090996057 -0.09728596923813695 0.22230900839466045 -0.004561795882178038 -0.0035984192543212197 -0.01747054034548951
0.07434609318812616 -0.0801248020391784 -0.007948481426258721 -0.04200208538431799 0.31165446102149574 -0.029080299909162367 0.05583435328596926 -0.21911865960853844
0.0259511310266666 0.396166964791301 -0.028799437012184605 0.0286555737602383 0.07773847695596123 -0.07331043068050251 0.016078610752831294 -0.0554307010705979
-0.005696515189154742 0.021319090903199604 -0.028529671462537168 -0.006875595857521839 0.012208273342676663 -0.01514607553099897 -0.012860743287183833 0.015085805540448905
0.05681159429404157 -0.03583253945309244 -0.13385391745401873 -0.11124704465534573
00000000: e6f5 0fd2 9c1a 9d3f a7b3 002d 4190 b2bf
00000010: ddae f2c6 f3a9 8fbf 194c 87bd ce26 7d3f
00000020: ab1d 2f27 90bc 8a3f 773a ab03 1149 b53f
00000030: 9e5a 8e68 7ea6 91bf 9705 0cc4 afb1 a93f
00000040: 1327 b814 5ec4 96bf 55c1 9577 59bf 99bf
00000050: 1449 564b 2446 c1bf 0255 8b48 eb0b 823f
00000060: e18a 6f22 6868 a0bf c073 26f8 e969 b53f
00000070: bb08 13be 9e3d 80bf 8725 c5fe 046d bbbf
00000080: da30 4304 1ba7 a83f 0b78 a5ad 2251 c13f
00000090: e701 dc8f 5daa 92bf 6988 7601 90d1 d1bf
000000a0: 204d 48a7 4924 99bf 4fa9 a522 c71c 98bf
000000b0: 77d8 c37d 671e 9c3f 0611 5382 24fc cbbf
000000c0: 314b 88cc 8fb1 c43f e7a0 868b 593b 9ebf
000000d0: e3e3 8db8 d3c8 d3bf 44bd 7739 4b3e b83f
000000e0: 3545 6160 f5c4 913f 179f c352 43a4 b6bf
000000f0: b05e c187 d58e 9f3f a8bc 11d8 af30 a93f
00000100: 4264 d184 6c38 803f cb4b cd13 9512 78bf
00000110: 306b f2f3 de0c 81bf fce4 9083 c611 853f
00000120: 08de 57a8 da99 94bf 68ca 040c 61ec a13f
00000130: 2150 63e9 23bb 66bf ef49 0cc0 e889 b1bf
00000140: 7fc4 6e13 8d21 a03f 0d62 1b1a 31c6 b3bf
00000150: 249c 13bf 8cc1 99bf 6cd7 64fe cdd6 9d3f
00000160: 25a1 879d d878 a63f 4b8f d62a ad2d 77bf
00000170: 5dc6 ca54 0bfb be3f 4a92 fc6d 4235 90bf
00000180: 1278 09f2 03be 8f3f 895a a6c8 d729 b43f
00000190: 9188 f765 5709 b4bf 2664 963f 9682 94bf
000001a0: 7c0a b488 6bc9 a53f bf8b e754 5421 a7bf
000001b0: 0191 4910 bd08 b13f f9fe cccb 3178 843f
000001c0: 44e3 6a69 692f b33f 02e5 65a2 a293 d7bf
000001d0: b45c bc30 bed0 843f 43c3 ea57 7205 4ebf
000001e0: 3d80 e09b 7bc4 813f 6c44 6e1e 5ecc 833f
000001f0: 0339 2ec7 3c70 afbf 7e6a cd5e adb1 bf3f
00000200: 4089 8ac9 13e0 83bf 5f3e 5f2d e764 6ebf
00000210: 361b d0c9 48e3 903f 32ca 3cb8 bbe7 b8bf
00000220: 0aa4 5420 9f74 cc3f 46ed ffc1 63af 72bf
00000230: baa7 77a0 6e7a 6dbf f294 b51d cce3 91bf
00000240: 1210 d476 5808 b33f aa53 5b1c 0f83 b4bf
00000250: 0baa 3a1e 4b47 80bf c8cb 2d1e 4c81 a5bf
00000260: 6459 6f8d 25f2 d33f 7a59 45e4 39c7 9dbf
00000270: 798d b602 5296 ac3f c223 7b8a 140c ccbf
00000280: a708 37ec ee92 9a3f ae30 62af cc5a d93f
00000290: aa32 7180 997d 9dbf 3ee6 9700 e357 9d3f
000002a0: 0ead 2a38 abe6 b33f 9b7a 3aee 78c4 b2bf
000002b0: 91e3 644d e976 903f c2cb 95b0 6961 acbf
000002c0: ab73 04a7 3a55 77bf deb9 d6f8 abd4 953f
000002d0: 44c1 96d7 e136 9dbf 7bbd 93b5 9529 7cbf
000002e0: e4b9 fab5 a600 893f 2d0e 8cd8 e704 8fbf
000002f0: 5cce 90be bb56 8abf baba 708b 4ee5 8e3f
00000300: 2d95 0dc7 6816 ad3f b7d5 2a82 a458 a2bf
00000310: ff07 f40a 2022 c1bf bf44 92b2 af7a bcbf

layers.3.running_mean f8 [100]
2.5e-323 2.5e-323 2.5e-323 2.5e-323 2.5e-323 26.816473033474864 2.5e-323 2.5e-323
2.5e-323 2.5e-323 37.58947951327371 2.5e-323 2.5e-323 2.5e-323 2.5e-323 2.5e-323
2.5e-323 2.5e-323 2.5e-323 28.770123623894026 2.5e-323 78.93167150508599 2.5e-323 54.68003675682458
22.426868022257732 2.5e-323 17.750970112062113 2.5e-323 2.5e-323 2.5e-323 2.5e-323 66.83435228893222
0.0 2.5e-323 2.5e-323 2.5e-323 2.5e-323 2.5e-323 2.5e-323 2.5e-323
2.5e-323 81.10459142701737 2.5e-323 2.5e-323 2.5e-323 2.5e-323 51.35292179129491 2.5e-323
2.5e-323 22.614126139768345 2.5e-323 2.5e-323 2.5e-323 2.5e-323 2.5e-323 24.53850903367899
2.5e-323 27.72474236130447 2.5e-323 2.5e-323 2.5e-323 2.5e-323 2.5e-323 0.0
2.5e-323 2.5e-323 2.5e-323 2.5e-323 60.491512397500074 2.5e-323 0.0 2.5e-323
92.70186940779564 2.5e-323 2.5e-323 2.5e-323 38.30766760405434 2.5e-323 2.5e-323 39.70190971469992
2.5e-323 78.3982359304677 2.5e-323 2.5e-323 2.5e-323 2.5e-323 2.5e-323 0.0
2.5e-323 59.82647232740696 0.0 2.5e-323 2.5e-323 2.5e-323 2.5e-323 2.5e-323
2.5e-323 0.0 44.23422621558313 26.456974416227705
00000000: 0500 0000 0000 0000 0500 0000 0000 0000
00000010: 0500 0000 0000 0000 0500 0000 0000 0000
00000020: 0500 0000 0000 0000 28d7 7060 04d1 3a40
00000030: 0500 0000 0000 0000 0500 0000 0000 0000
00000040: 0500 0000 0000 0000 0500 0000 0000 0000
00000050: 1796 8f10 74cb 4240 0500 0000 0000 0000
00000060: 0500 0000 0000 0000 0500 0000 0000 0000
00000070: 0500 0000 0000 0000 0500 0000 0000 0000
00000080: 0500 0000 0000 0000 0500 0000 0000 0000
00000090: 0500 0000 0000 0000 7980 62d2 26c5 3c40
000000a0: 0500 0000 0000 0000 673d 8581 a0bb 5340
000000b0: 0500 0000 0000 0000 da51 c771 0b57 4b40
000000c0: 1f4e 0339 476d 3640 0500 0000 0000 0000
000000d0: 8a94 c793 3fc0 3140 0500 0000 0000 0000
000000e0: 0500 0000 0000 0000 0500 0000 0000 0000
000000f0: 0500 0000 0000 0000 a093 2407 66b5 5040
00000100: 0000 0000 0000 0000 0500 0000 0000 0000
00000110: 0500 0000 0000 0000 0500 0000 0000 0000
00000120: 0500 0000 0000 0000 0500 0000 0000 0000
00000130: 0500 0000 0000 0000 0500 0000 0000 0000
00000140: 0500 0000 0000 0000 d29e 3da0 b146 5440
00000150: 0500 0000 0000 0000 0500 0000 0000 0000
00000160: 0500 0000 0000 0000 0500 0000 0000 0000
00000170: 25d4 8f8a 2cad 4940 0500 0000 0000 0000
00000180: 0500 0000 0000 0000 7cec e55e 379d 3640
00000190: 0500 0000 0000 0000 0500 0000 0000 0000
000001a0: 0500 0000 0000 0000 0500 0000 0000 0000
000001b0: 0500 0000 0000 0000 7840 60ba db89 3840
000001c0: 0500 0000 0000 0000 1ad4 23b7 88b9 3b40
000001d0: 0500 0000 0000 0000 0500 0000 0000 0000
000001e0: 0500 0000 0000 0000 0500 0000 0000 0000
000001f0: 0500 0000 0000 0000 0000 0000 0000 0000
00000200: 0500 0000 0000 0000 0500 0000 0000 0000
00000210: 0500 0000 0000 0000 0500 0000 0000 0000
00000220: b26b d4e0 e93e 4e40 0500 0000 0000 0000
00000230: 0000 0000 0000 0000 0500 0000 0000 0000
00000240: e422 aa6d eb2c 5740 0500 0000 0000 0000
00000250: 0500 0000 0000 0000 0500 0000 0000 0000
00000260: ddb9 eca6 6127 4340 0500 0000 0000 0000
00000270: 0500 0000 0000 0000 c0b0 722d d8d9 4340
00000280: 0500 0000 0000 0000 dc5c 8eb2 7c99 5340
00000290: 0500 0000 0000 0000 0500 0000 0000 0000
000002a0: 0500 0000 0000 0000 0500 0000 0000 0000
000002b0: 0500 0000 0000 0000 0000 0000 0000 0000
000002c0: 0500 0000 0000 0000 86a1 60d8 c9e9 4d40
000002d0: 0000 0000 0000 0000 0500 0000 0000 0000
000002e0: 0500 0000 0000 0000 0500 0000 0000 0000
000002f0: 0500 0000 0000 0000 0500 0000 0000 0000
00000300: 0500 0000 0000 0000 0000 0000 0000 0000
00000310: cfe5 e71f fb1d 4640 83ce 7c46 fc74 3a40

layers.3.running_var f8 [100]
2.5e-323 2.5e-323 2.5e-323 2.5e-323 2.5e-323 18.758086209911593 2.5e-323 2.5e-323
2.5e-323 2.5e-323 8.685886817603414 2.5e-323 2.5e-323 2.5e-323 2.5e-323 2.5e-323
2.5e-323 2.5e-323 2.5e-323 11.967207050064069 2.5e-323 13.518953024702146 2.5e-323 15.820811951063355
9.460396034741734 2.5e-323 12.50933961405801 2.5e-323 2.5e-323 2.5e-323 2.5e-323 12.669952493955819
2.5e-323 2.5e-323 2.5e-323 2.5e-323 2.5e-323 2.5e-323 2.5e-323 2.5e-323
2.5e-323 21.581609510220574 2.5e-323 2.5e-323 2.5e-323 2.5e-323 7.4358036477428 2.5e-323
2.5e-323 10.611700222011022 2.5e-323 2.5e-323 2.5e-323 2.5e-323 2.5e-323 11.62092228229556
2.5e-323 11.881605003127985 2.5e-323 2.5e-323 2.5e-323 2.5e-323 2.5e-323 2.5e-323
2.5e-323 2.5e-323 2.5e-323 2.5e-323 20.6710623216653 2.5e-323 2.5e-323 2.5e-323
8.647759171442786 2.5e-323 2.5e-323 2.5e-323 10.056619084448656 2.5e-323 2.5e-323 6.752188523017085
2.5e-323 15.941080184710748 2.5e-323 2.5e-323 2.5e-323 2.5e-323 2.5e-323 2.5e-323
2.5e-323 11.90996898685802 2.5e-323 2.5e-323 2.5e-323 2.5e-323 2.5e-323 2.5e-323
2.5e-323 2.5e-323 24.182269659800692 14.186882112562
00000000: 0500 0000 0000 0000 0500 0000 0000 0000
00000010: 0500 0000 0000 0000 0500 0000 0000 0000
00000020: 0500 0000 0000 0000 6f1e 17f0 11c2 3240
00000030: 0500 0000 0000 0000 0500 0000 0000 0000
00000040: 0500 0000 0000 0000 0500 0000 0000 0000
00000050: 76ba 948e 2c5f 2140 0500 0000 0000 0000
00000060: 0500 0000 0000 0000 0500 0000 0000 0000
00000070: 0500 0000 0000 0000 0500 0000 0000 0000
00000080: 0500 0000 0000 0000 0500 0000 0000 0000
00000090: 0500 0000 0000 0000 bcf8 30c3 35ef 2740
000000a0: 0500 0000 0000 0000 1283 fa35 b409 2b40
000000b0: 0500 0000 0000 0000 54f7 cb76 41a4 2f40
000000c0: 00d9 7007 b9eb 2240 0500 0000 0000 0000
000000d0: 72df 7129 c804 2940 0500 0000 0000 0000
000000e0: 0500 0000 0000 0000 0500 0000 0000 0000
000000f0: 0500 0000 0000 0000 e8d3 6603 0457 2940
00000100: 0500 0000 0000 0000 0500 0000 0000 0000
00000110: 0500 0000 0000 0000 0500 0000 0000 0000
00000120: 0500 0000 0000 0000 0500 0000 0000 0000
00000130: 0500 0000 0000 0000 0500 0000 0000 0000
00000140: 0500 0000 0000 0000 a070 615c e494 3540
00000150: 0500 0000 0000 0000 0500 0000 0000 0000
00000160: 0500 0000 0000 0000 0500 0000 0000 0000
00000170: 9e21 ba4f 43be 1d40 0500 0000 0000 0000
00000180: 0500 0000 0000 0000 8ffc 80c5 3039 2540
00000190: 0500 0000 0000 0000 0500 0000 0000 0000
000001a0: 0500 0000 0000 0000 0500 0000 0000 0000
000001b0: 0500 0000 0000 0000 5ca2 7f86 e93d 2740
000001c0: 0500 0000 0000 0000 6fd9 20bb 61c3 2740
000001d0: 0500 0000 0000 0000 0500 0000 0000 0000
000001e0: 0500 0000 0000 0000 0500 0000 0000 0000
000001f0: 0500 0000 0000 0000 0500 0000 0000 0000
00000200: 0500 0000 0000 0000 0500 0000 0000 0000
00000210: 0500 0000 0000 0000 0500 0000 0000 0000
00000220: 5b21 85bd caab 3440 0500 0000 0000 0000
00000230: 0500 0000 0000 0000 0500 0000 0000 0000
00000240: c80f 1217 a74b 2140 0500 0000 0000 0000
00000250: 0500 0000 0000 0000 0500 0000 0000 0000
00000260: a812 382d fd1c 2440 0500 0000 0000 0000
00000270: 0500 0000 0000 0000 c323 4bb5 3d02 1b40
00000280: 0500 0000 0000 0000 1b7e 1043 d5e1 2f40
00000290: 0500 0000 0000 0000 0500 0000 0000 0000
000002a0: 0500 0000 0000 0000 0500 0000 0000 0000
000002b0: 0500 0000 0000 0000 0500 0000 0000 0000
000002c0: 0500 0000 0000 0000 e1db 7d74 e7d1 2740
000002d0: 0500 0000 0000 0000 0500 0000 0000 0000
000002e0: 0500 0000 0000 0000 0500 0000 0000 0000
000002f0: 0500 0000 0000 0000 0500 0000 0000 0000
00000300: 0500 0000 0000 0000 0500 0000 0000 0000
00000310: a3e5 7339 a92e 3840 8652 2303 af5f 2c40
