model_policy2_epoch-150.pt (torch, 373942 bytes, 28 tensors)

layers.0.weight f8 [128, 128]
000000 e8 54 a5 bf a8 02 d6 bf 25 99 e2 fa ff 9f d0 bf
       -0.3439123031178739 -0.2597656202364241
000010 64 c8 44 94 fb 85 cd bf 2c e7 aa 5b 9f 61 a9 3f
       -0.2306513284652879 0.04957292551030287
000020 ca 23 45 05 cb 1e c6 bf c4 ba b0 46 d6 c5 89 bf
       -0.1728147292835998 -0.01258437541227176
000030 c7 7b bd cf 76 07 a9 bf e3 be 16 60 c0 f2 a7 3f
       -0.04888507161989924 0.04677392170867536
000040 d5 61 30 e9 bd ec bc 3f b0 50 32 b4 98 b9 c7 3f
       0.11298739379015584 0.18535145567569122
000050 70 db 82 4b 77 b3 b1 3f b7 73 84 a5 1e 97 c1 3f
       0.06914468377622796 0.13742430765060273
000060 10 0e 29 e2 4e 04 cf bf 1c 9a e7 2f 29 ef cd bf
       -0.24231897395121438 -0.23386111106010865
000070 f8 43 11 97 44 03 d3 bf 13 8a 14 a1 79 c9 e4 bf
       -0.2970744586246492 -0.6495941301439551
000080 83 47 a3 57 b4 4b d2 bf ef 48 70 2c 25 e0 ae bf
       -0.28587063368205906 -0.060303842234263764
000090 7e b4 11 59 2f 45 c0 3f 66 91 4b 6b a4 a3 c3 bf
       0.12711135720329375 -0.1534314655210764
0000a0 15 96 d1 38 54 3b d2 bf 0a d5 63 b1 d7 2a c9 3f
       -0.2848711542959291 0.19661995088214496
0000b0 a5 e5 ab ef c5 9e d9 3f 4b 81 ce 09 60 91 e9 bf
       0.40031574635903616 -0.7989959899460158
0000c0 f1 16 87 83 4d 9f e5 3f 43 7e 88 a4 23 68 e0 bf
       0.6756961411381025 -0.5127123082674604
0000d0 15 71 d7 c7 81 fe cb bf 26 ff 10 9f 1c 0b dd bf
       -0.21870443590058444 -0.45380321058108775
0000e0 45 eb 71 86 13 a3 d8 bf d3 b7 b4 3a a4 8d cc bf
       -0.3849533856334129 -0.22307255617619023
0000f0 2f c7 14 0a e5 3e da 3f 45 47 e1 8b 7c 67 bc 3f
       0.41008878693093015 0.11095407881773862
000100 0e 8b 33 a7 82 63 fe bf bb 62 a0 1e ae e4 d7 3f
       -1.8992945224096647 0.37333252898092056
000110 8c 33 c8 1c a7 47 c8 bf b8 73 ce a0 a0 3f d0 3f
       -0.18968666940091017 0.2538835115790863
000120 22 f2 c7 75 d1 a3 db 3f 4e 89 8a d4 e0 cf d3 bf
       0.43187366964392215 -0.30956288104984686
000130 0e d3 80 6b ae 81 de bf 71 6f 72 c0 4f 9d f9 bf
       -0.4766651201091897 -1.6009061353169864
000140 3f ec a5 78 cb 39 e2 bf 14 84 a3 4c 0a 52 b7 bf
       -0.5695550304802807 -0.09109558459341854
000150 88 ca 8a 92 67 8b e0 bf 73 04 81 35 e3 c2 bf 3f
       -0.5170171606208251 0.12406749778985375
000160 5c 19 30 d7 d3 46 bb bf ea a9 b5 91 53 fe e2 bf
       -0.10654949191675683 -0.5935457082644551
000170 a5 25 1b 0f 08 e4 b4 3f 72 54 c0 a1 f9 d7 c5 bf
       0.08160448426055796 -0.1706535377312864
000180 f8 c0 11 82 66 88 e0 3f 00 6c 4f 20 66 70 eb bf
       0.5166504421631819 -0.8574705725726517
000190 99 d7 c4 89 4a 51 f6 bf bc 7a ac 00 c1 67 de bf
       -1.3948464757536156 -0.4750826365069931
0001a0 b2 ba b7 02 6a 5a da bf a5 af 3e 70 b0 83 b0 bf
       -0.41176843896293314 -0.06450941791871274
0001b0 d0 33 c4 b0 31 26 eb bf 08 11 78 22 6a 8b d9 bf
       -0.8484123661488585 -0.3991341911899018
0001c0 cb 0a 0a a5 ef 25 c6 3f 9d 6f e0 3a 57 62 e4 3f
       0.17303271826320663 0.6370044851241691
0001d0 2b 21 33 41 77 da d3 3f 5c b0 95 a7 5d 1b c0 3f
       0.3102090965953887 0.12583513911102073
0001e0 5c 1a c9 1e 56 21 df bf 1b f9 4f 1b 91 0a c1 bf
       -0.4864096928253383 -0.13313497384655978
0001f0 6e 64 57 92 f4 59 e2 bf b0 94 38 62 11 65 e7 3f
       -0.573480878661156 0.7310873907450937
000200 c1 95 d8 26 54 a8 cc 3f da 92 7b 6b c6 bc bd bf
       0.22388698479441696 -0.11616172908868397
000210 a1 50 d2 22 f2 e2 af 3f 94 d0 7a 79 e8 f4 a0 bf
       0.062278334379841434 -0.03311850054652257
000220 00 1a 31 28 5e 3e de 3f f5 a2 d6 17 7e 7e dc 3f
       0.472556628465469 0.44522049262972924
000230 f0 78 04 71 38 43 d8 3f 29 9b ea 0c 7b 5c e2 3f
       0.37910281216490116 0.5737891437791848
000240 ef dd 49 ef 53 4d b8 3f 4a cc 9c 2a 77 00 92 3f
       0.09492992965703427 0.017579900718555565
000250 05 a4 1f 11 99 5e c1 3f 54 72 46 b4 e1 38 a9 3f
       0.13569939933884725 0.04926209760308056
000260 1c ee d4 e6 6c 1f d5 3f a6 4d 8f b8 c2 00 bf 3f
       0.3300430540291204 0.12110535627225846
000270 c6 a9 13 bf a0 fe bc 3f ce fb 2f 14 46 66 d3 3f
       0.11326031365357556 0.30311729403905197
000280 28 9e 7f 3c b1 33 c3 3f 51 95 5e 2b d8 6d ab bf
       0.15001502470043815 -0.05357242135441232
000290 c2 8c 8a 3c 24 9b 89 bf d7 f0 8f 8c a3 fa e2 3f
       -0.012502940270968547 0.593095564399415
0002a0 70 63 94 c8 4a 52 dc 3f d8 78 4b 02 7c ee 86 3f
       0.4425227125917024 0.011197060413391233
0002b0 87 5f 1e f6 4a ec c2 3f ed ae e6 fa 0b b9 ea 3f
       0.14783608453285188 0.8350887203609695
0002c0 78 b8 f8 b0 b8 a6 9d 3f b7 af 0c 4b 05 6d de 3f
       0.02895630436085425 0.4754040940194914
0002d0 56 98 7e c0 b1 8e bb 3f ee 43 4f 0b c8 17 d7 3f
       0.10764609288762136 0.3608265028424843
0002e0 a3 18 90 90 0b 81 c6 3f 95 05 cd a8 86 e9 c5 3f
       0.17581314619764496 0.17118914835195356
0002f0 b4 46 39 31 cc ef a3 3f da 68 82 9a aa fc e3 3f
       0.0389388856971328 0.6245930688631021
000300 47 bf e7 cf c3 ce f8 3f 80 42 42 21 e0 f6 ea 3f
       1.5504797097491563 0.8426361703478307
000310 f3 5c 0b 66 87 c9 a7 3f e6 bc 3c f9 56 ce b1 3f
       0.04645941849383375 0.06955474457639674
000320 6b 0f 20 5a 35 c4 bd 3f e7 ef cd 22 ca 6e da 3f
       0.11627515268633963 0.4130120601546409
000330 8e ba 2c 35 24 a7 ef 3f 1d fb 55 c6 c2 11 ea 3f
       0.9891530073708326 0.8146680711505244
000340 03 36 de ac 82 98 cf bf 48 cc ad 9b 9d 7d ca bf
       -0.24684174958058244 -0.20695848561772068
000350 4c fd 29 25 d3 d8 f2 3f 29 45 78 b3 57 7e cc bf
       1.1779357387275295 -0.2226056696240815
000360 58 91 fd f6 49 63 e4 bf 60 72 ac 52 f6 2a e4 3f
       -0.6371202301057037 0.6302444090575356
000370 30 30 2c 1f 31 e7 e5 3f 0e be 01 63 df 2e e8 3f
       0.6844716652717633 0.7557217534758267
000380 97 58 d3 de 92 99 e0 bf cd bb 9b 9c 84 a6 f2 3f
       -0.5187467910825657 1.1656538121712743
000390 9f 95 52 ab de 6b f9 3f d5 16 9a 99 66 c5 d7 3f
       1.5888354007996452 0.3714233875292455
0003a0 95 54 33 5f f8 f2 dc 3f fa 12 e6 07 17 f6 d7 bf
       0.4523297242825007 -0.37439513942108216
0003b0 60 3f 94 b5 48 c6 e9 3f f5 8a 75 19 39 ab c4 3f
       0.8054545923678056 0.1614753126442207
0003c0 30 22 88 64 28 61 ea bf 29 6d d1 b9 d5 7e af bf
       -0.824360081053845 -0.06151454823767672
0003d0 ee 2f f3 e6 73 89 a2 3f 34 3a aa 07 1a 72 d0 3f
       0.0362049312039686 0.2569642138340982
0003e0 09 c4 73 f4 c3 6f e4 3f 81 72 f7 7b 29 53 c5 bf
       0.6386432432610728 -0.1666004042916889
0003f0 bc 39 a2 a7 ce 49 d9 3f d7 0b 75 dc 52 6a d0 bf
       0.3951298367545879 -0.2564894822027645
000400 22 1c 02 14 c2 e0 e0 bf c4 92 1b 2b 25 2b d4 bf
       -0.5274362936769459 -0.31513337335335856
000410 7a f7 39 d5 2d a7 e1 bf 5c 0e 47 bd 99 f8 e1 bf
       -0.5516575970247992 -0.5615967461421394
000420 06 32 d0 ed 67 83 e1 bf 59 a8 73 56 d3 45 e0 bf
       -0.5472907681265162 -0.5085236252318835
000430 0a 0e 76 92 48 bc cd bf 25 1a 91 99 5a 06 dc bf
       -0.2323084559576361 -0.4378878116298515
000440 42 9f df 29 e8 00 e6 bf c4 bb 35 fa 5a 7b dd bf
       -0.6876107042162192 -0.460654014916994
000450 9a 59 32 a3 9c 97 e4 bf 63 ad 54 a8 3c 5f e2 bf
       -0.6435073077616835 -0.5741256034574856
000460 41 90 72 62 64 79 de bf 50 ba c0 d8 3f 84 d5 bf
       -0.476159187450552 -0.3361968628622991
000470 8e a0 a1 30 68 d4 db bf 1f aa 47 4d 8e 52 df bf
       -0.43483929394870635 -0.48941381022328473
000480 93 57 47 c6 ab 6c e6 bf 67 aa 2e b3 96 be d9 bf
       -0.7007655022268743 -0.4022576093508747
000490 ff ac 19 66 56 fe d4 bf 20 75 75 e3 0a 18 df bf
       -0.32802352877361324 -0.4858424397733234
0004a0 38 9f 3c 5f eb c9 e3 bf ab 8e 9f e5 0b be dc bf
       -0.6183983669370496 -0.44909951614520577
0004b0 94 8f ff 66 61 2f da bf 11 f5 ac fe 14 f3 e4 bf
       -0.4091418748705504 -0.6546730970509619
0004c0 0a 00 12 85 50 5c da bf 3b 9e 7a 1f cc c8 e2 bf
       -0.4118844317927147 -0.5870113959144371
0004d0 da 59 9b 66 ef 70 e0 bf 7a ff 0c 7e 1f e6 d6 bf
       -0.5137860302009429 -0.35779559430738284
0004e0 c0 93 c6 e3 ba 02 da bf 64 16 2f 7f fb 30 df bf
       -0.4064166283008568 -0.48736464901262466
0004f0 44 e1 b3 92 f2 3a e2 bf cf a6 19 78 b2 3b e0 bf
       -0.5696957459722758 -0.507287249155718
000500 d2 ff 04 6c 37 a3 e0 bf 1b 38 9e 49 b9 2a e3 bf
       -0.519923888183252 -0.5989653051235594
000510 4a 33 17 60 2d 7b e6 bf 2d 43 4b 50 a7 63 de bf
       -0.7025362850923582 -0.47483237115106897
000520 9c 9c a6 e4 60 6e e3 bf d5 32 fb 38 27 7c e4 bf
       -0.6072239366375416 -0.6401554215350084
000530 e5 a0 5d 4b 4a 19 e2 bf 09 87 cd 2b a8 57 df bf
       -0.5655871841418302 -0.4897251537096144
000540 1d 9d af 6c 7e b0 cf bf a3 07 cf 2e 2c 01 dc bf
       -0.24757366473134193 -0.43757156916773904
000550 34 31 fa 5e 0d ae b7 bf bf cc be b2 3d 86 de bf
       -0.09249957627088606 -0.47694342094036907
000560 a1 f8 03 ce 03 23 d5 bf 20 85 3a 45 27 06 d7 bf
       -0.33026213759138484 -0.3597505737362372
000570 30 07 43 ab 71 04 b5 bf ce fd 33 96 78 3e e3 bf
       -0.08209906035611136 -0.6013758596090442
000580 47 53 b4 e5 5f 13 74 bf f0 57 ca cc 6e 80 e0 bf
       -0.004901289557228967 -0.5156778335392556
000590 af ee 0f 9a 21 22 e6 bf 3d cb 25 5d 12 72 e0 bf
       -0.6916664132144968 -0.5139247721948333
0005a0 11 1e 2b e6 f0 ef e4 bf fd 17 a4 43 1a 66 d0 bf
       -0.6542896743275738 -0.25623184781613856
0005b0 3c d1 97 3b d5 03 d9 bf 23 4c d2 7b 49 4e da bf
       -0.39085894412643873 -0.4110282620615086
0005c0 39 f0 2e b6 04 41 be 3f c9 ac dc 40 ac 94 ce 3f
       0.11817960212550895 0.2389121357640305
0005d0 49 e6 12 70 fd 40 e0 bf 10 3f cc c4 ab cf d9 bf
       -0.5079333485547944 -0.40330023020304484
0005e0 0d d9 52 39 f1 b2 c0 bf 73 f0 59 20 4d 14 e1 bf
       -0.13046088503842448 -0.5337281829702206
0005f0 16 3c 6c b3 38 94 e1 bf a7 ba 9a 50 40 32 d3 bf
       -0.5493434433318523 -0.2999420916702697
000600 83 50 50 59 41 7b dd 3f 92 6b 35 8f 68 01 d9 3f
       0.4606479046062832 0.3907109640619463
000610 bf c6 63 5a e6 c0 e2 3f d1 7a 8e 4c b4 1a e4 3f
       0.5860473409104187 0.6282598014111845
000620 a7 70 d3 2d 7b 0c e7 3f 3d 24 cd 34 56 ce e4 3f
       0.7202735800779195 0.6501875907207545
000630 99 51 7b c6 8c ba d3 3f 8a 0f 42 78 42 67 e0 3f
       0.30826110251407496 0.5126049374380142
000640 1a 9a d0 0b 8f f8 de 3f b6 6d ef 64 2e 8a e8 3f
       0.48392082361024935 0.7668678256408643
000650 5c f1 75 9f b5 b3 e7 3f 43 0a 94 62 70 bf e3 3f
       0.7406871904818604 0.6171190190655768
000660 10 e7 af 77 35 ab e3 3f dd bc f8 df c9 1c e2 3f
       0.6146495187415173 0.5660142301984724
000670 4e ad db 8a ea 69 e0 3f 13 e2 ec 79 57 13 e0 3f
       0.5129292213509105 0.5023610478738781
000680 75 9e d2 d0 d8 79 e1 3f 1a 33 5f 64 1e 18 e0 3f
       0.5461238936013176 0.5029441795719294
000690 c5 12 e9 85 ea 1b db 3f f9 80 10 73 1d b8 e2 3f
       0.423578863880078 0.584974980101861
0006a0 68 da 9a 7e 44 ef e2 3f ec e3 b4 90 35 94 e1 3f
       0.5917074654342516 0.5493419481564366
0006b0 98 96 bc ec e7 0e dc 3f 07 b6 ce b4 8c 3d e6 3f
       0.43840978735748015 0.6950133830447961
0006c0 13 1a 5d 12 a1 02 e1 3f 92 d1 f6 61 3f 10 dd 3f
       0.5315709456124885 0.4541166741066941
0006d0 e1 22 54 3d 1a 26 e0 3f a2 2e e0 e6 4e 4f db 3f
       0.5046511838746391 0.42671558901268203
0006e0 7a 94 39 a8 9f f1 e5 3f 3e 70 c9 f7 2d 40 e2 3f
       0.6857450757639889 0.5703344192111286
0006f0 2b d3 98 ef 00 67 e0 3f b7 47 db 73 53 da e0 3f
       0.512573688471638 0.526651121408796
000700 b5 e9 df b1 9a 56 ec 3f e7 b0 2b 93 6c 6d e2 3f
       0.8855718111147356 0.5758574366023169
000710 22 c3 b1 eb c1 d7 e2 3f 3e bb 0f 3b e1 1f e4 3f
       0.5888375857740338 0.6288915780586206
000720 9f cf ca 25 c6 bf e3 3f 83 aa a0 63 15 ba e6 3f
       0.6171599138383391 0.7102152772761915
000730 eb 59 5d f1 22 4a df 3f 00 7c 85 ee 2d e7 e8 3f
       0.4888999325825398 0.7782201441403913
000740 1d f2 1a 1b d8 c2 c4 3f c2 46 30 81 1b 65 d9 3f
       0.16219617198466177 0.3967961083991264
000750 ff fe 16 e9 b6 06 e0 3f 09 7a 8c 64 8f 3c df 3f
       0.5008196404014312 0.48807129687512024
000760 e8 6d 70 f4 a8 60 d4 3f 7f 6f d2 b5 4a 1a e0 3f
       0.31839965697301276 0.503209452744599
000770 56 89 11 0b 37 5e d1 3f 8c ba 50 36 d8 ce e7 3f
       0.2713754280176962 0.7439995823713885
000780 57 9d 16 3f 39 5b b4 3f 51 70 bf 0c 0a ef de 3f
       0.07951696195833811 0.483339798401862
000790 bb 51 57 17 84 3b e6 3f 8d 08 81 08 83 ef e2 3f
       0.6947651344185525 0.5917372861952274
0007a0 f8 11 10 18 92 1c e0 3f 4f 47 0b 91 53 d4 d2 3f
       0.5034876317955073 0.29420937694986987
0007b0 b4 04 b8 95 4e c9 e3 3f 20 0c ad 16 d8 2f d7 3f
       0.618323604983877 0.3622951718754752
0007c0 0c 84 ca 14 08 26 d0 3f c5 f5 e8 4f bd 7d c4 3f
       0.2523212626493325 0.16008726503234363
0007d0 5f 89 46 0b ee da da 3f a7 c7 0f 0a 13 58 de 3f
       0.41961241818548517 0.4741256330736356
0007e0 34 58 8e 0c 4e 05 d1 3f 20 03 1b a5 86 14 e2 3f
       0.26594878412413725 0.5650056099621885
0007f0 22 3e d9 f6 a3 de e0 3f 36 6f 22 a2 34 8c d0 3f
       0.5271777936231425 0.25855747064064205

layers.0.bias f8 [128]
000000 95 fc c1 97 71 38 b8 3f 97 f9 42 8e 43 f0 da 3f
       0.09461126284621664 0.4209145440362589
000010 65 e2 94 77 06 3c a5 3f df b1 be ac 6e 83 b4 3f
       0.04147358140693739 0.08013049809841942
000020 c7 b3 57 13 32 3a d1 3f 67 1a 0e b0 a0 82 d4 bf
       0.26917697800564294 -0.3204728812492363
000030 fd 26 9b a2 19 59 e1 bf ae eb 10 1b 53 9c da bf
       -0.5421264816188508 -0.4157912983243318
000040 15 fc 48 d6 ae f9 e2 bf 89 5c a8 1b f5 86 d8 bf
       -0.5929788766151228 -0.38323714924758484
000050 00 85 82 a0 d3 dc d5 bf 4a 51 75 6d b1 23 de 3f
       -0.34160319018162966 0.4709285324982103
000060 dc d0 0e 59 1b 28 db 3f 43 04 f9 11 df 8e b2 bf
       0.42432292649324466 -0.07249254406726018
000070 30 34 e8 e4 6a d1 d6 bf b7 8e fc a5 92 b5 c7 3f
       -0.3565318332119345 0.1852286634904112
000080 39 d0 c5 f6 9e e3 e0 bf 23 d2 af 48 ce 68 d8 bf
       -0.5277857608584845 -0.3813968381721528
000090 95 88 7e f8 f2 3c 6a 3f fe 83 33 e5 4c ee c6 3f
       0.0032028909226520887 0.17914735022989697
0000a0 ca 27 15 e3 f0 85 ba 3f 43 05 7d f6 30 b4 e2 3f
       0.10360627693185545 0.5844960035539447
0000b0 bd b0 4e 81 83 a1 98 bf f9 be 82 eb 38 cb c9 bf
       -0.0240536258385624 -0.20151435374781793
0000c0 b1 39 04 d4 8f 1d c2 bf 46 be eb e9 b7 7e d3 3f
       -0.14152715542190955 0.30460927814326444
0000d0 ee 0d 02 71 69 fc 66 bf 32 79 fa 44 43 e6 c9 bf
       -0.002805906238849457 -0.20233956211172593
0000e0 c6 74 1f b1 11 9e d4 3f f5 cf d9 ef a2 14 d7 bf
       0.3221477727618772 -0.36063455031330643
0000f0 c4 06 aa 67 79 3b ba bf 80 ca c7 71 7e 72 d6 bf
       -0.10247000485289975 -0.3507381545197532
000100 ac b1 ea cb 55 36 84 3f 3d 65 00 92 ee fb c0 3f
       0.009869261060281818 0.13268835190755537
000110 8b c7 79 f9 90 51 e2 3f bf 45 e4 a0 77 ab cd bf
       0.5724568245479856 -0.23179526668586267
000120 8f 37 83 be 90 7b c9 bf c9 e2 e4 3f a6 a7 d3 3f
       -0.19908341696139728 0.30710750808388504
000130 e7 53 c3 a1 fd a1 aa 3f 08 8f 9b b2 aa 4f e2 3f
       0.052017141338786925 0.5722249496870697
000140 f4 0d 3e a0 bd 06 cc 3f 03 ee 19 7e b0 10 d0 bf
       0.21895571064315755 -0.2510186416108981
000150 08 4c e3 54 89 61 c1 3f 61 fc ca 5b bb 2b c6 bf
       0.13578907627979242 -0.17320959074092726
000160 30 0a c9 ad e8 7d c0 bf 14 5b c0 c9 df 4e ca bf
       -0.12884243474589274 -0.2055320487131317
000170 28 ca b7 a5 23 05 e0 3f c4 0c e5 24 81 a7 b8 3f
       0.5006273495367326 0.09630591536283634
000180 d1 3b aa 42 4a 18 cc 3f 9f 1a 16 9a 34 10 ea bf
       0.21949127440572494 -0.8144782075404072
000190 7b 88 85 75 23 62 cf bf ba c5 3d aa 53 d2 b7 bf
       -0.24518244970665024 -0.09305308252603242
0001a0 e3 50 f4 c9 c6 b5 bd bf f1 b2 85 64 4d a3 dc bf
       -0.11605493956114148 -0.4474671823179924
0001b0 a9 bf f9 51 04 56 c2 3f 21 4b 61 bd c9 d7 d4 bf
       0.14325002672876266 -0.3256706571020676
0001c0 66 de b4 1d 24 ee df bf f4 25 38 b1 3f 49 d1 3f
       -0.498909977922699 0.27009575182509526
0001d0 d4 f7 eb 59 42 1c e3 3f fb 44 c3 13 bb 55 cd bf
       0.5971996074947534 -0.22917879548052852
0001e0 d1 66 9b 67 e7 bb c2 3f a8 ff 69 dd 59 de d2 3f
       0.14635937270104774 0.2948212301489499
0001f0 14 37 2e 13 35 17 a9 bf 69 b8 1f c6 6a 68 d5 3f
       -0.04900518283021263 0.3344981131366525
000200 95 87 2a 33 ce 5a ce bf ce 33 b1 17 5f 4c e2 3f
       -0.23714616297098404 0.5718226874101846
000210 5f 68 11 5c 0d b3 a3 bf 78 5b 8b 0c 79 69 e1 3f
       -0.0384754347694105 0.5441251034743422
000220 95 9f 78 c8 c1 57 d5 bf 88 a5 dc 9f d5 76 d7 3f
       -0.3334812600828568 0.3666280804778457
000230 33 61 ac 01 93 cb cb bf 96 b7 23 1e 49 8c 91 bf
       -0.21715009290415707 -0.017136709656305614
000240 ef 00 fd bb eb b6 ba bf fa 2e 70 4d 4f a5 d9 bf
       -0.10435365047033306 -0.4007147079689585
000250 04 e0 2f 31 83 5c e5 bf 18 c3 51 e1 5f d2 db bf
       -0.6675430260356738 -0.43471524242254267
000260 47 00 6c cc 7e d8 c1 3f f3 a1 48 73 07 4b cd 3f
       0.13941941243683884 0.22885220650756785
000270 87 bf d0 63 22 8d e1 3f d8 d9 88 ed db d4 d5 bf
       0.5484783124465914 -0.3411168880151343
000280 54 78 fe 4f b9 f2 c9 3f 1d fc 46 2a 83 ea db bf
       0.20271984487493688 -0.4361884987701517
000290 c7 a0 10 7a 7b 30 d0 bf 47 5a a8 20 46 48 be 3f
       -0.25295912666707604 0.11829031274133071
0002a0 eb 7f 1b 80 41 22 db 3f 98 ad 51 37 5a a1 ec 3f
       0.4239658118294744 0.8946963386965079
0002b0 47 b9 87 4b d1 3a be bf fb 27 bb 6a 16 00 b9 3f
       -0.11808498472212135 0.09765758615245083
0002c0 df a2 32 fa 66 94 a3 bf 7d cc 82 88 dc e0 c6 3f
       -0.038241594354365686 0.17873722711155784
0002d0 27 c5 fc 1c 66 a1 b3 bf ad 16 e0 62 5a 4b c9 bf
       -0.0766815014619807 -0.19761209323785547
0002e0 f2 d0 4b b5 f7 6b df bf 91 03 62 00 ea 48 e0 3f
       -0.4909648199529918 0.5089006431081647
0002f0 dc e7 f1 99 b0 52 d3 bf e8 04 98 32 7d 9c cf bf
       -0.3019219878548236 -0.24696316690827946
000300 62 5c 81 c7 3e 6f e0 bf f8 0f 95 50 6e 5f d2 3f
       -0.5135797401989175 0.2870746409355429
000310 dd 80 4a 6b e2 7d d9 3f 67 b7 c9 26 01 8b e3 bf
       0.3983083770526841 -0.610718322522854
000320 73 60 a4 0c c2 c6 e0 3f 44 38 6c b0 88 ee cf bf
       0.5242624518314315 -0.24946697821036612
000330 4a 58 84 dc 1c cf c8 3f 21 6e 5d 46 98 98 9a bf
       0.19382057921819956 -0.025972728056656295
000340 49 94 0c 0f f2 7a df bf f2 7d 1b 8b d0 97 e2 3f
       -0.4918790003742442 0.5810320584241124
000350 c4 40 db 2c 75 16 74 3f 92 97 12 e1 f3 0f bb bf
       0.004904229846673217 -0.10571216816842213
000360 8c e4 d9 25 12 94 e1 bf 66 ed 3e c3 9b 2d 92 bf
       -0.5493250598220967 -0.01775210742174007
000370 17 ad 90 c3 d6 8f a1 3f 2e 88 43 41 ef 5f e1 bf
       0.03430052888173856 -0.5429607653316049
000380 db bb 76 ec d0 bb d8 3f b8 90 8c 25 76 0b c2 3f
       0.3864633855072818 0.14097477754069643
000390 c2 b9 ae fa 67 a2 e0 bf c9 b6 73 78 47 5b 8e bf
       -0.5198249717848784 -0.014822538722423133
0003a0 ca e6 a8 2e 5b 83 d4 3f a0 88 f4 86 e7 a0 c3 3f
       0.3205173450147468 0.15334791268930292
0003b0 1d 1b 48 98 4a d4 b2 bf d8 17 9b 02 c8 08 aa bf
       -0.07355180948080116 -0.05084824592408638
0003c0 33 fe ac a8 29 52 d6 3f af 2a 74 98 c6 7f 9e bf
       0.34876481506578044 -0.029784300856628473
0003d0 90 60 38 32 85 5e cf bf 4f d6 dd 4d 9b 93 e1 bf
       -0.24507203056487414 -0.5492683907347756
0003e0 b1 bf 2e 94 78 e6 e3 bf 70 03 29 15 17 29 c0 bf
       -0.6218836683456087 -0.1262539723702747
0003f0 3c 8d da d1 b2 5f df 3f bd eb b8 6a 24 63 ca bf
       0.4902159737923346 -0.20615058146526435

layers.1.weight f8 [100, 128]
000000 42 8f ec 30 85 0a e1 bf e0 95 8d 6c 88 85 8a 3f
       -0.5325342135952058 0.012950006306435335
000010 49 e7 f5 5f be ca d0 bf 0f 81 01 8d d3 27 a2 3f
       -0.26237449046276545 0.03546010109198693
000020 30 f2 82 a9 b4 e3 d5 bf 5e a0 a3 f5 ce f2 d1 bf
       -0.3420230536828823 -0.2804448508090952
000030 8e 49 37 8b 2a 02 cf 3f 69 51 ca e9 79 96 c1 3f
       0.24225360677389712 0.1374046699098799
000040 19 af 49 75 d3 66 ce 3f 02 ba d3 75 b9 7b c7 bf
       0.2375130007452462 -0.18346327069544094
000050 cd 6d 69 9e 63 27 cd bf 8e 98 44 be b0 22 ca bf
       -0.227764561032798 -0.20418366709163077
000060 c0 53 85 05 2f 79 bf bf 16 ac 91 bb 0e 5b d0 3f
       -0.1229428661802805 0.2555577117661313
000070 d8 30 e3 f9 6a 1c ba 3f 78 09 da f3 cb a8 c8 3f
       0.10199612236755529 0.1926512661630786
000080 8f 95 fd 0f af 24 d2 3f 6f 5b a8 07 27 bd c8 bf
       0.2834890037687154 -0.1932724749937864
000090 b0 05 21 63 01 96 af 3f aa 09 af 84 32 1a c5 3f
       0.061691325522143514 0.16486197928140928
0000a0 70 e1 42 45 6f e5 c3 3f a6 e8 7d 93 5f 44 af 3f
       0.1554392898740491 0.061068522219060825
0000b0 91 a9 d7 c7 b3 57 bd 3f 75 23 a0 11 1a 96 c6 3f
       0.11461948040929416 0.17645574436781045
0000c0 3d 5b 50 79 4c ca dd bf 8b 35 74 36 b7 32 d0 bf
       -0.4654723343568781 -0.25309543912666105
0000d0 b8 f3 e1 67 4b 45 af bf 14 15 a3 81 9a f7 d6 3f
       -0.06107555049036456 0.35886252078883385
0000e0 b1 37 e3 eb b2 17 cd 3f fc 16 d7 7b 67 52 8e 3f
       0.22728573339412386 0.014805611101916132
0000f0 d6 4b 5e eb ac a5 e0 3f 93 b9 62 9b a5 10 d1 3f
       0.5202240559614164 0.2666410462797099
000100 12 8e 7d ed ed cc c0 3f e4 dd c4 1b b1 dd 82 bf
       0.13125394912923177 -0.0092119061088018
000110 1b 6a 00 1a b6 f8 c7 bf 6a ee 4c b2 e9 17 9c bf
       -0.18727756757364564 -0.027434970386123338
000120 7f 63 eb 58 70 67 d3 3f eb 7c d7 0a 4b d7 a0 bf
       0.3031884067873349 -0.032892556260543625
000130 94 27 80 54 39 2a da 3f 33 2c 1e 55 9d aa c6 bf
       0.4088271451188288 -0.17708174377580263
000140 a6 a2 35 68 ea b2 64 bf 6a 44 bf a6 b2 bb de bf
       -0.0025267198813490764 -0.48020616802120364
000150 c9 a1 6e 9d c1 d7 c0 bf 7d 92 78 00 98 0a bd bf
       -0.1315843599998188 -0.11344289790629065
000160 e2 69 ac 08 23 08 8d 3f 34 a3 0d 53 d0 75 b3 bf
       0.014175676061815193 -0.07601644542377245
000170 db 0a 48 b3 3a a7 c3 bf b8 7b e7 9b 52 8e e5 bf
       -0.15354093317008374 -0.6736233754162333
000180 e8 be 70 1e d4 73 c0 bf 7e f1 96 6c a7 a7 bd 3f
       -0.12853480802868167 0.11583944703210666
000190 59 c5 cc 2a a5 09 af 3f a8 54 87 2d 93 00 e0 3f
       0.060620461916537756 0.5000701798659479
0001a0 b8 86 07 c8 6d 9a c6 3f b5 22 d5 08 a9 18 c8 3f
       0.17658779398975866 0.18825257235791573
0001b0 c0 b2 b4 48 5f 3d c1 bf 65 0b a6 be 37 59 d7 3f
       -0.1346854310044332 0.36482041948345617
0001c0 35 48 21 9e 67 2c d2 3f 34 d4 ac bc 47 c3 76 3f
       0.2839602512586937 0.005557327482894659
0001d0 d2 bb c6 00 85 0f a6 bf 6d ad d8 10 34 82 84 3f
       -0.043087154717219925 0.010013968242751326
0001e0 e0 18 11 33 58 0b d3 3f 36 e5 2c 6b 60 bc df bf
       0.2975674151133614 -0.4958725973734376
0001f0 ca 2e 5e da 81 b9 df bf c7 a5 08 4b ba be c2 bf
       -0.4956974632739103 -0.14644554771193283
000200 21 ba 55 5a 71 2d d8 3f 16 fc 92 d9 b8 e5 93 3f
       0.37777360746159344 0.019431007651970665
000210 9b ea c8 56 91 7f c0 3f 7b 7d 7c 28 1f b1 bf bf
       0.12889305818119542 -0.12379641283449942
000220 69 26 80 39 94 47 d6 3f 16 ca dc d6 fc 42 b8 3f
       0.3481188355950509 0.09477215047517293
000230 1f 91 b2 18 9f 36 97 3f 8f ab 6d 60 5b fe ce 3f
       0.02266930187455884 0.24213735779207154
000240 c2 a8 a3 45 c3 75 b1 3f a8 e4 43 e1 f4 f7 a3 3f
       0.0682031674402053 0.039001133440203006
000250 56 b6 e1 1d ed 33 c0 3f fc c8 df a3 e8 ca ba 3f
       0.12658466300074406 0.10465864182313916
000260 84 85 be b0 5f 28 bb 3f 1a e5 d9 b7 81 be d8 3f
       0.10608480515522528 0.3866276069089324
000270 89 01 1d 73 41 f9 c3 3f 11 13 1a 2e 10 ed a1 3f
       0.15604417916075544 0.03501177370802656
000280 6b 1a 19 a6 9f 20 66 3f 86 27 bd 3d 56 be 9e bf
       0.0027011030331636674 -0.030022952574007465
000290 70 8a 66 36 0b 0b d9 bf de 28 fd 6a 57 70 93 bf
       -0.3912990599875803 -0.01898323622234776
0002a0 c4 55 12 d2 dd d8 c8 bf dd 87 fa 4b b0 27 c2 3f
       -0.19411823995021227 0.1418362017621452
0002b0 f0 cb 36 a6 ac 29 b7 bf 29 c5 fc df b4 2a e3 3f
       -0.09047965105018796 0.5989632010224898
0002c0 43 73 93 55 9a dd ef 3f 70 af 71 fb 53 5a bd 3f
       0.9958011313825427 0.1146595467450291
0002d0 ce 1f f6 5e ea cf bc bf f7 dd d7 d0 d0 e2 be 3f
       -0.11254753893274413 0.1206484327193421
0002e0 da 2d ea 67 f6 14 b6 bf 0c e2 9b c4 f8 c2 a8 bf
       -0.0862573627184057 -0.048362516403305106
0002f0 f7 ab 83 21 94 0c df bf 0a 9e 14 2f 03 f5 b2 bf
       -0.485142739037371 -0.07405109309603844
000300 0a 7f 11 eb 8d 04 c8 bf e3 ab 45 75 a8 38 d1 3f
       -0.18763898828455466 0.2690831322894935
000310 3b f7 6e a3 9b 80 ba bf ac 84 0e 03 0c f4 91 bf
       -0.10352490177225786 -0.017532527624670877
000320 23 84 c4 74 13 cc d1 3f ae 17 41 12 ab 10 d4 3f
       0.2780808105763432 0.31351734907763784
000330 cb b0 52 e2 15 88 c4 bf b9 47 80 c6 80 93 c3 bf
       -0.16040299940994482 -0.15293893520771265
000340 45 29 07 6e 31 bd c9 3f a1 eb 36 2c d8 91 ca bf
       0.20108621475658076 -0.20757581862366428
000350 53 5f f5 82 ae 08 d3 bf 9a 0b c7 8a 4f aa e1 bf
       -0.2974048880473578 -0.5520398817537739
000360 4c b5 18 ee f2 e6 aa 3f d1 76 47 6f 41 9b c9 bf
       0.0525432506222879 -0.20005052503159118
000370 0b cb f2 8d b2 6b e9 3f 86 6e 80 1a e6 00 b0 3f
       0.7943966648511788 0.06251371523870305
000380 08 e6 01 54 7d 16 cf bf d0 69 69 0a e2 b7 be bf
       -0.24287382699894544 -0.11999333147233604
000390 1f be 92 f8 0e 0b db 3f ad ff d2 f5 44 0f d1 bf
       0.4225499560807026 -0.2665569687487686
0003a0 e6 9b d5 0e 99 a0 c9 3f f4 a1 c1 31 ed 95 ce bf
       0.20021355842911176 -0.23895039491186731
0003b0 0f ff e7 53 4d 43 9f bf 45 fe 5e 27 24 fd f1 3f
       -0.030530174490194514 1.1243020570690458
0003c0 90 ef b7 31 72 23 c3 3f 7c 7b e6 ae 4b cb d5 bf
       0.14951922824536412 -0.34053318100080054
0003d0 19 13 3c 63 01 99 c5 bf 3b 99 a4 37 20 84 b6 3f
       -0.16873185487215706 0.08795358046026973
0003e0 e1 7c b1 7e a3 df d7 3f e8 47 07 eb f9 07 b4 bf
       0.37302482006448484 -0.07824670780180976
0003f0 6a 08 d4 5e 96 a0 d7 3f e6 64 9e 27 ab b0 ce 3f
       0.3691764761025583 0.23976649698742064
000400 8f 84 61 9d b1 e0 a5 3f 18 07 d3 85 80 7a b0 bf
       0.04272990270761411 -0.06436923281856044
000410 4c 65 6e 73 31 77 99 3f 0c af 97 48 9a 4a a5 bf
       0.024868748350489953 -0.04158479820384117
000420 46 ee 94 9b 49 9b aa bf 25 80 24 c0 ef 9f b8 3f
       -0.0519659998339788 0.09619043770771947
000430 9b de 3e 7c f1 68 6a 3f de ac 9c cf 70 bb 8c 3f
       0.003223868990939694 0.014029389701667613
000440 1a a8 e1 e1 6d ea 3c bf 18 0f b7 68 20 86 21 bf
       -0.00044121916460560103 -0.00013369699114040216
000450 fd e1 d6 32 52 48 b5 3f 67 c7 e8 0e 8d 91 b1 bf
       0.0831347822303385 -0.06862718214031603
000460 d6 ee 5a 03 80 98 b5 bf 4e 7f c8 f8 d1 1d ae bf
       -0.08435821611322622 -0.0588212600889607
000470 1d 75 bd e3 83 3c 90 bf 5b dc 62 c7 57 24 9c 3f
       -0.015855847144270564 0.02748238710838922
000480 ac 31 30 ed 29 b4 b8 3f 7b 08 bf f6 b3 d4 b6 3f
       0.09649908104638055 0.08918308996274675
000490 83 b6 29 01 dc 0a a3 bf 64 ce ad 1b 2d 1a a0 bf
       -0.03719222559162196 -0.03144970858457155
0004a0 bc df 9a 7c a1 6b bb bf 2d 4a 90 5b 04 d4 93 bf
       -0.1071110657893532 -0.01936346825466211
0004b0 4c 7d 33 df ef 70 99 3f 9f 6c 3f 9e 11 89 b1 3f
       0.024844882963291057 0.06849775422544944
0004c0 cd 60 31 f6 61 02 78 bf 2b ed 49 41 49 bf 67 3f
       -0.005861647284369731 0.0028988295328510514
0004d0 36 d9 b4 5e 47 3a a0 3f 63 ed 36 b8 d0 98 b6 bf
       0.031694631872982645 -0.0882692765944078
0004e0 ac 8d 2f 75 13 28 ac 3f f8 17 68 f0 d6 7d b8 bf
       0.054993255667592805 -0.09567016000082151
0004f0 10 c7 1c c5 39 6b b4 bf da 90 a3 f7 95 4c b0 bf
       -0.07976113378824956 -0.06366860671875277
000500 87 c8 1a 85 55 52 b8 3f 08 f7 89 03 32 c4 aa 3f
       0.09500631808876579 0.05227810185622955
000510 79 db 0c 6b 6d 02 aa 3f c0 b0 cf 35 6b db b4 3f
       0.050799769704489024 0.08147306503059593
000520 c3 41 cb 84 8f c6 a6 bf 77 2b ec b9 05 ec 6e 3f
       -0.04448364730854195 0.0037746536103261913
000530 f0 8d 65 38 50 eb 99 3f 61 53 af 18 f6 83 a2 3f
       0.0253117117330372 0.036163034928597744
000540 d9 98 31 f5 b1 dc 5d bf 96 4d 94 fa 8d ed 49 3f
       -0.001822637354757675 0.0007912581687911531
000550 c7 ef 64 08 b9 56 85 bf 87 ac dd 64 73 b3 a9 3f
       -0.010419316834138116 0.05019722563050615
000560 6f 75 53 e7 d4 d8 90 bf 40 1e 0b 07 5d b1 92 bf
       -0.016452147120494084 -0.018254712633988257
000570 b7 61 9c 12 ae 8d a4 3f 1b ef ca 41 3f 8a b8 3f
       0.040143432399591665 0.09585948330180509
000580 21 12 0e 66 3e 71 8f 3f 37 f7 58 0e 21 a2 9a bf
       0.015352714051695195 -0.026009098530486354
000590 9b 9f f3 fd 13 c0 a9 3f 85 d1 ef ff 91 7f 7c bf
       0.05029356455798891 -0.006957598029647354
0005a0 e2 6e 33 0f 67 65 a0 bf 49 b9 44 f8 3c 4b 5b bf
       -0.03202364025648109 -0.0016658873947324618
0005b0 69 2b 81 a7 ca 01 a1 bf a1 17 e3 fd 54 45 a6 3f
       -0.03321679396375183 0.04349771117408286
0005c0 e5 55 84 ef 54 64 bc 3f e2 d1 1c f0 e7 e2 97 bf
       0.11090594146329343 -0.023326515226658524
0005d0 3e dc dc 25 34 05 aa bf a0 57 81 62 04 a5 aa 3f
       -0.050820951101222964 0.0520402307744654
0005e0 fb 44 4c 6a 5e 73 99 bf dc 33 30 d4 6e d7 92 3f
       -0.02485415958205282 0.01839993639082481
0005f0 c7 c1 ad 69 38 5b 93 bf c6 cf 85 31 79 06 b0 bf
       -0.01890266556751088 -0.06259877642679532
000600 77 a9 c4 3b 6c d0 b1 bf 50 68 90 84 c9 20 af 3f
       -0.06958652934250674 0.06079702132429132
000610 99 74 4a 1a 95 0c 33 bf 2c 6f 84 74 58 08 9c 3f
       -0.0002906669636020903 0.02737558566251079
000620 18 b9 0f b1 08 50 82 bf 25 0e 75 f0 bf 4a ae 3f
       -0.008941715148435267 0.059164045431796354
000630 9d 1d 3f 0c 39 68 aa bf 48 fc 5e 8e f1 ef b0 3f
       -0.05157640718931165 0.06616124845366855
000640 95 ca 6c 44 27 41 9d bf a0 88 a8 29 e6 d3 b1 3f
       -0.028568852950409413 0.06963957325982273
000650 31 c3 69 bf fb 9d a0 bf 64 e7 7d e0 15 fa a4 3f
       -0.03245531760774723 0.04097050061586918
000660 4f 04 38 03 06 42 b3 bf 92 72 e3 58 94 23 9c 3f
       -0.0752261884554326 0.027479474950143308
000670 a0 5b c4 d6 85 10 83 bf 11 aa d9 79 25 34 aa bf
       -0.009308858505887418 -0.05117909538678956
000680 35 00 68 1b 39 a9 9a bf a2 c3 5a 21 60 21 b2 3f
       -0.026036159799332565 0.07082176985092173
000690 76 4b 24 15 94 5b b0 3f d9 77 8f b5 53 46 b5 bf
       0.06389737621456767 -0.08310435469272139
0006a0 9b 5d 2f 89 5d a2 a2 bf 2b 89 b7 1d 1d e6 b5 bf
       -0.03639499950048305 -0.085542506938087
0006b0 96 21 41 1d d2 60 74 bf 4d e9 c4 e9 81 a5 a7 bf
       -0.004975147971045498 -0.046184596811559155
0006c0 13 cb e1 da ae ff 96 bf e3 5f cc 74 45 2e a4 3f
       -0.022459728345391627 0.03941552210579837
0006d0 14 70 40 52 a8 1f 49 bf a1 73 e7 b0 a9 f3 a4 bf
       -0.0007667133218123312 -0.04092150005792595
0006e0 62 4f a1 e1 59 ce a1 3f 18 8a 8f be 70 76 91 3f
       0.03477745894693275 0.017053376799490122
0006f0 18 c4 4c 12 5c 39 bc 3f 1f fe b3 90 55 4d 92 bf
       0.11025023886465168 -0.017873131710983366
000700 2f 98 08 79 e3 82 b5 3f 9c b3 12 a5 da 6e a5 3f
       0.08402845101281352 0.04186137452175062
000710 4d 20 4b 85 c1 3a b7 3f 80 05 5b c4 b9 7c 99 3f
       0.09074029449686911 0.02488985310515579
000720 20 5e bb 4c 5f ba 93 3f 49 92 e7 7b 48 df 72 bf
       0.019265641268104372 -0.004607470646508968
000730 02 dd ad 9b d6 e9 9a bf 6a 26 20 b3 b2 3b 36 bf
       -0.02628264737310549 -0.00033925164018509
000740 3c 76 41 9d 15 f8 b9 3f b5 39 fe 6c 54 f3 6e 3f
       0.10144171799898855 0.003778138059664838
000750 fa 5b f5 aa 73 19 bd bf f8 be 73 84 bf 12 b5 3f
       -0.11366961406507406 0.08231732352919241
000760 b1 d2 a7 6a c8 27 b3 3f c7 6c 40 3e 86 96 b7 3f
       0.07482578853507495 0.09214056987586892
000770 17 40 41 cd cf b3 a7 bf bb da 17 85 c2 7c 90 3f
       -0.0462937295966414 0.016100921033251874
000780 80 62 aa f1 e2 ca a8 bf 04 ae 34 84 02 aa ad 3f
       -0.0484229011537467 0.05793769706573573
000790 62 e7 5d 34 a7 db a7 bf 35 db f9 ef 3a 2b 5a 3f
       -0.04659769548648175 0.001597220951138301
0007a0 a0 79 fc 12 d7 45 ae 3f fc 3d 7c 3e be 7e b1 bf
       0.05912658793225778 -0.06834019685287979
0007b0 65 41 bc fe d6 2c b5 bf 60 38 3c c3 a4 9f b2 3f
       -0.08271545142293275 0.07274846807942614
0007c0 5e e9 66 6c a3 4f a7 3f 85 8a 1f b6 eb a6 a5 3f
       0.045529467566171475 0.04228912923988041
0007d0 78 90 53 ba ad 2e a1 3f 4e d1 04 7b a3 b1 97 bf
       0.03355925464146109 -0.02313857496592791
0007e0 e6 6c 9c 45 16 f8 b6 bf 69 29 a8 2c b3 ee b3 bf
       -0.08972300719726753 -0.07786102142578034
0007f0 4d 29 3d 6f ab 81 b9 3f e7 d2 09 a7 b3 47 a3 3f
       0.09963485208314644 0.03765641607325226

layers.1.bias f8 [100]
000000 d7 08 79 70 cc 07 c3 bf 0e bf d7 f3 73 b7 b6 bf
       -0.14867549411616807 -0.0887367697066532
000010 c4 e0 a0 7d e1 86 9f bf 8c 1c e9 8a de a0 b0 3f
       -0.0307879670073994 0.06495467082378265
000020 4d d0 97 f7 62 55 a8 bf 31 6c 97 17 c9 c0 8d 3f
       -0.0475264479863716 0.014527865440802841
000030 9e f2 20 c6 5e f3 af bf c6 3b e6 9f 6f eb 5a 3f
       -0.062403642354614805 0.0016430463871050945
000040 b5 85 ed ad 3c c2 b1 bf e2 4b f1 08 47 5b a9 bf
       -0.06937007185253814 -0.04952451690828476
000050 5e 09 a5 70 1c 63 86 bf e0 c9 84 fa 79 e7 a8 3f
       -0.01093122690929665 0.04864102538194337
000060 68 17 01 1f b4 de b3 bf 7e eb 89 03 cf db b1 3f
       -0.07761693722667717 0.06976026379008535
000070 7b af 77 26 24 20 b5 3f 28 08 94 de b4 2b a7 bf
       0.08252168597362967 -0.04525532929439208
000080 6b 4b 27 3b 76 b0 b7 bf 13 9c ca d4 e7 4d bd bf
       -0.0925363439958297 -0.11446999497512449
000090 aa 1b e9 63 b4 1d c0 3f 50 0e cc 01 60 0c a5 bf
       0.12590651396223268 -0.041110038966533424
0000a0 08 63 ad f4 0a 3b a3 bf 6c dc 56 7d 1a 4d b2 bf
       -0.03755983578475336 -0.07148900566140676
0000b0 3a ef 06 72 dd 4f 98 bf bd c8 e8 e6 1c 1e c9 3f
       -0.023742160877858277 0.19623147272938538
0000c0 f6 03 7b 36 1e c6 d1 3f 1e 7f 2e 40 0d ff ab 3f
       0.27771716423381976 0.05468026550738457
0000d0 a6 1d 61 03 ca bf a7 bf a7 c3 be e7 98 f8 7d 3f
       -0.04638510981800019 0.007317158971930227
0000e0 55 04 e0 99 ed a3 b2 bf 67 b5 9c b3 a6 b4 b3 bf
       -0.07281384474482995 -0.07697526822149357
0000f0 e1 3f bc df 21 71 b3 3f cc 35 6f 15 5c 43 76 3f
       0.07594501220978557 0.005435332967818462
000100 00 00 00 e0 a4 25 aa bf 36 20 a9 72 fd 3a a8 bf
       -0.05106845125555992 -0.047325058218632796
000110 94 73 ea f9 82 2f 37 bf 5c 54 4d c3 f3 ec a7 bf
       -0.0003537840620227381 -0.046729676809868365
000120 ac 36 32 2e 12 10 ab bf 86 8c a3 fa 66 30 b5 bf
       -0.05285698713224227 -0.08276980990517488
000130 85 62 3f c4 f2 c5 b6 bf 38 d4 4b 2d 00 4a a5 bf
       -0.08895795146180248 -0.04158020546848501
000140 59 ee 38 03 df 79 b1 bf 02 ce 52 01 9d 7b ad 3f
       -0.06826585606261783 0.057583719646029166
000150 af 61 bd 69 64 8c 95 3f cd 86 d6 5e 15 9d 7d bf
       0.021043366388171666 -0.007229884603846504
000160 77 fc e7 52 76 bd ba 3f d4 9a 8d 91 dc c9 be bf
       0.10445346378399899 -0.12026766351264523
000170 47 ea b8 21 42 8f c1 3f 1c 1b 2f dc 64 17 ba bf
       0.13718439718816652 -0.1019194638784992
000180 78 a3 88 46 6f 88 b4 bf 23 b7 8d c1 7e 36 b8 3f
       -0.08020682785048716 0.09458152985982031
000190 3b c6 a5 8c ef bc 9b bf 97 f4 5b c0 87 0b 8d 3f
       -0.027087920150228078 0.014182148511731092
0001a0 06 f3 50 04 cd 4b ad 3f d3 b7 39 1c e1 76 bb bf
       0.057218939568406 -0.10728270472620176
0001b0 cc 3d 9b 60 67 9f 74 3f 14 76 ca 94 1c d2 c9 3f
       0.005034831827017649 0.2017245985525028
0001c0 26 25 19 6d 71 40 b5 bf 3b 6e 1a 19 b2 84 dc 3f
       -0.08301457322626912 0.44559910251129836
0001d0 ce a8 c9 02 a0 db 97 3f 49 87 cf 88 5c 32 79 bf
       0.02329874054923025 -0.006151544058384869
0001e0 bd 04 fa 72 75 5d b5 3f 8e 61 8b 96 ef 15 a1 3f
       0.0834573178963351 0.03337048256588836
0001f0 b3 e4 80 4a 31 14 b2 bf 00 00 00 40 0e fd a3 bf
       -0.07062061375553945 -0.039040036499500275
000200 1e fb 16 97 24 32 ce bf 21 3a b6 77 83 fe b1 3f
       -0.23590524079733027 0.07028981850292172
000210 9b 06 be 02 ad a5 b8 bf 46 c4 fd 85 4e e4 a9 3f
       -0.09627801243734739 0.050569967132908775
000220 74 ec c3 8e 2d 0d 9d 3f 31 d2 dc af 6c 8d b5 bf
       0.028370582426742577 -0.08418921750564647
000230 00 00 00 20 f3 db 78 bf 3b 1e c3 e6 64 7a 91 bf
       -0.006069135386496782 -0.01706845911465236
000240 51 0c cd c7 6e 35 64 3f 8b 34 99 53 4f 73 d1 3f
       0.002466884964094564 0.27266295589363015
000250 58 3a ff e2 3f ce b5 3f 6b 60 aa 2f 99 13 72 bf
       0.08517836849134974 -0.0044132217250521895
000260 cf e3 77 e8 ec c2 b1 3f 8b 8d 99 c7 4f 1c a5 3f
       0.06938057590004053 0.04123162566682045
000270 99 f4 cc 0f 93 53 a1 3f 67 5b 83 79 ea 44 d3 3f
       0.03384074752691752 0.3010812937404154
000280 0a bc 3d d1 2c 66 a7 bf 2e 4b 7f 03 d8 64 a3 3f
       -0.04570140890324843 0.03787875216189317
000290 f8 ae fd e2 48 0c ab bf 90 82 13 bb 58 9b 7d bf
       -0.052828099926811534 -0.007228228191906397
0002a0 8b fb 0d f7 b8 b0 a9 3f f2 84 f6 9c 73 2f 8d 3f
       0.05017641082576237 0.014250663020734387
0002b0 fd 9f 52 84 37 48 a7 bf 00 00 00 a0 b3 f6 a4 bf
       -0.04547284593837728 -0.04094468429684639
0002c0 ea 24 8c 06 48 7b b0 3f 47 cf 35 51 b6 8a c0 bf
       0.0643811241135556 -0.12923315968839175
0002d0 00 00 00 a0 85 c6 a5 bf 4d 0e 55 81 f7 fb b5 bf
       -0.042530227452516556 -0.08587595851445791
0002e0 97 37 ae ba bc c9 bf bf 13 c9 ca c1 74 3f ba bf
       -0.12417201573972957 -0.10253076297047796
0002f0 03 88 4a 0f b7 89 9b bf f4 c2 6e cc 6d 32 9d bf
       -0.026892528827950467 -0.028512683489398463
000300 55 9f d6 16 ee 9c b2 3f 00 00 00 c0 01 b1 a8 bf
       0.07270706231667863 -0.04822545498609543
000310 a8 be b3 b4 39 e7 3b 3f 9b 7b c3 74 0a 51 90 bf
       0.00042576941332493146 -0.01593414628666388

layers.3.weight f8 [100]
000000 a6 41 f1 c5 88 f0 f3 3f 7c 68 5b 13 3e 8c ef 3f
       1.2462241870999633 0.9858694437091482
000010 ec 47 4e 5d 17 f3 f1 3f 39 ef 93 e7 eb a2 ef 3f
       1.1218484539754128 0.9886378787045721
000020 c8 7f 3f 73 65 3c e1 3f a5 62 a8 ed cb 3f f9 3f
       0.5386225939691878 1.5780753406053603
000030 a5 98 04 ec c7 fb ee 3f 8f 4d dc a5 b2 03 f2 3f
       0.9682349786496799 1.1259027937820496
000040 da ed 36 bd d6 af e6 3f bf 22 28 37 e9 36 f2 3f
       0.7089647002789505 1.1384060053407408
000050 c5 82 b2 32 8f c1 f1 3f 12 19 29 52 88 98 f4 3f
       1.1097557049144353 1.2872393807788893
000060 2f 92 a1 c2 c2 0c e5 3f cf bf 7d f6 8c 19 eb 3f
       0.6578077126874343 0.8468689741403014
000070 4c 2e fa 6a 8c da ef 3f 7f ff 4b a3 9d d4 ee 3f
       0.9954282845878395 0.9634540738479557
000080 d8 c9 69 4d 8e a9 ef 3f ff 40 61 0b d4 fb ee 3f
       0.9894477378823536 0.9682407591117509
000090 40 ab 4c c1 e8 b2 df 3f 2c 89 3f 16 ab f2 f1 3f
       0.49529475094702846 1.12174519243906
0000a0 b8 1e c1 66 8a 69 e5 3f 40 d6 58 c6 af f7 f3 3f
       0.6691333777352702 1.2479703662805974
0000b0 01 ce 5f c0 a6 02 f0 3f 32 c9 b1 68 16 40 f6 3f
       1.0006473078364027 1.3906463708522776
0000c0 fa b6 c2 7d e3 e3 e9 3f c6 a8 01 a6 b1 b2 ef 3f
       0.809068437219792 0.9905632250131695
0000d0 3c 10 8f 44 31 e7 f2 3f aa f0 12 f8 10 d2 ee 3f
       1.181443469818091 0.9631428570933356
0000e0 fc 6b ee 05 fe 07 f0 3f 16 ce 9f 31 99 18 f0 3f
       1.0019512397473127 1.006005472035104
0000f0 e8 66 b7 cc cd e2 ef 3f f4 3f ea bc 76 6d f7 3f
       0.9964360235564671 1.4642245654576955
000100 00 00 00 00 00 00 f0 3f c8 5c fd 1c dc 95 ef 3f
       1.0 0.9870434347348231
000110 fe ce 11 c2 46 60 ea 3f ed 69 8b 0d 5f e7 ef 3f
       0.8242524900838075 0.9969935669462849
000120 eb d6 bc e5 ea af ef 3f 18 59 23 93 f0 ee e5 3f
       0.9902243125022471 0.6854174493589964
000130 b3 86 f1 3e 96 ca ee 3f 08 b4 30 75 10 6c f2 3f
       0.9622298459400639 1.151382882856753
000140 f1 7f 21 c2 95 fc ee 3f 03 22 d3 9c 15 c1 f6 3f
       0.9683331290834741 1.4221397520033185
000150 d3 90 e9 6a a5 04 f0 3f 6d 79 31 b1 bf 93 f0 3f
       1.0011343170418072 1.0360714837657625
000160 a1 d9 35 a3 e7 f6 e2 3f 60 00 a7 b7 2c f3 ec 3f
       0.5926397502615154 0.9046844088516188
000170 9e 1c 3c c0 e5 6d f5 3f 8c 5a 80 d3 37 fc ee 3f
       1.339330435673936 0.9682883387457237
000180 55 7d cb da 5c 45 ef 3f 0e 9c 00 8a 3d c4 f0 3f
       0.9772171281182788 1.0479102507322327
000190 fd 4a c2 92 da 9b f0 3f 48 81 45 dd 04 3a e7 3f
       1.0380502445956943 0.7258323976239263
0001a0 12 c6 17 d2 c8 3d e6 3f aa 85 46 22 2b 37 ef 3f
       0.6950420478225985 0.9754844350283538
0001b0 bb ce ea 81 19 d2 ee 3f dd 40 99 7c 0e 7f f2 3f
       0.963146928543629 1.1560196749815568
0001c0 04 40 c8 d1 6f 04 ed 3f c2 e7 d0 dd 54 f5 f2 3f
       0.9067916009244077 1.1848953880967064
0001d0 50 bd 64 f5 dd fb ee 3f 3a 85 01 94 68 8c f0 3f
       0.9682454865305008 1.0342794209939954
0001e0 e8 0b 50 07 8a 98 df 3f 8f e6 51 ba 23 ae ee 3f
       0.49368525232438154 0.9587572707234403
0001f0 5a 1a 44 44 c1 16 ef 3f 00 00 00 00 00 00 f0 3f
       0.9715277036019174 1.0
000200 59 65 68 39 b3 25 ed 3f 4a 8d a8 3e db 27 f6 3f
       0.9108520623441719 1.3847305724710446
000210 35 b4 9f 70 d9 fb ee 3f 30 38 7c fb d3 a5 f3 3f
       0.9682433318790858 1.227985365261258
000220 cd 84 9d 07 89 65 fa 3f 13 50 9e a7 8a d8 eb 3f
       1.6497888848755793 0.8701833032414491
000230 00 00 00 00 00 00 f0 3f f8 3c 45 73 9b fc ee 3f
       1.0 0.9683358432174876
000240 b3 1d a7 a7 b9 48 ef 3f 06 fd f8 4e e6 79 f0 3f
       0.9776275896519365 1.0297606549136744
000250 c2 a5 6d 43 d7 78 ed 3f c8 1e 23 96 66 25 ee 3f
       0.9210010830840292 0.9420655186049425
000260 26 6b a2 9f 42 42 f4 3f 2e 81 25 2c 3e 80 f0 3f
       1.2661768184395412 1.0313092922661542
000270 19 45 3e 02 08 f6 ee 3f 07 24 e4 dd 01 d0 f2 3f
       0.9675331157506292 1.175783030283357
000280 cc 56 9a aa af da ed 3f c0 35 1e 04 a2 cd fa 3f
       0.9329450924003253 1.6752033387050318
000290 cb b8 96 8b a4 9a ef 3f fe 86 36 5f 17 1a f1 3f
       0.9876272894232668 1.0688699454553325
0002a0 46 15 e2 ed e6 09 f0 3f da ea e9 79 7e 32 f0 3f
       1.0024174969015163 1.0123276483779393
0002b0 9b 7b 01 9c b8 33 f0 3f 00 00 00 00 00 00 f0 3f
       1.0126272291160834 1.0
0002c0 e6 6d c3 15 83 19 f0 3f cf 28 bf 18 31 58 ed 3f
       1.006228528035416 0.9170155986151033
0002d0 00 00 00 00 00 00 f0 3f a4 79 d2 ed b5 0f f0 3f
       1.0 1.003835610382887
0002e0 95 a3 98 d1 a0 58 f0 3f a6 c0 ae 41 89 a3 ea 3f
       1.021637743697487 0.8324629099716006
0002f0 b0 fc 5e ed 61 d0 ee 3f 1b 62 a9 8b cd ce ef 3f
       0.9629373203423679 0.9939944961325325
000300 85 df 89 0a 3e 25 f0 3f 00 00 00 00 00 00 f0 3f
       1.0090923701918382 1.0
000310 bb f6 22 f4 b8 95 f9 3f ba b3 41 45 1d 7b f9 3f
       1.5990533386788417 1.5925572114312971

layers.3.bias f8 [100]
000000 25 90 00 62 6d 45 32 bf df f6 21 9f 9f 67 8c bf
       -0.0002787963912871414 -0.01386952118286494
000010 c2 a4 fe f6 e9 55 93 bf 65 18 99 e3 23 a0 8a bf
       -0.018882423115120124 -0.013000755675545326
000020 5c c2 fc 6c dd c9 96 bf ec 75 4b c9 62 46 be 3f
       -0.022254428650912636 0.11826150335715341
000030 e4 04 b0 39 92 76 1a bf 92 67 2b 2c b8 a6 5b 3f
       -0.00010094897736225326 0.0016876982269224722
000040 b4 14 86 4f e8 2e 91 bf 4a 5f 01 65 53 13 9b 3f
       -0.016780500272507395 0.026440909423711724
000050 ed d2 32 39 bd 8c c3 bf 07 41 bc c3 f3 3f 8b bf
       -0.15273251812836666 -0.013305572901601182
000060 73 75 75 eb 9b ef a1 bf 1c 11 34 97 2d 4d 85 bf
       -0.035031197063953544 -0.010401111771451137
000070 ce b7 1b 7a 79 5f a0 bf 38 e7 3b e5 41 0a 92 3f
       -0.031978412776751605 0.01761725389130861
000080 50 19 02 c3 eb c9 9e bf 91 29 62 f6 67 6a c3 3f
       -0.030067142274242287 0.15168475656930672
000090 28 b3 67 11 bd 77 a1 bf 34 7e 19 5f a5 38 d4 bf
       -0.03411665761436772 -0.31595739638393927
0000a0 51 e9 a4 4d f0 f1 9a 3f 50 a7 cc e4 f1 0d b5 bf
       0.026313547839188548 -0.08224403224872145
0000b0 e6 92 4f 5c ec 24 89 bf b1 a2 a8 d5 a0 30 c9 bf
       -0.012277456824401022 -0.19679651672892853
0000c0 ec bd d2 1d 06 df b1 3f 8b f4 1b 5a f2 c2 70 3f
       0.06980932453256344 0.004092165648896483
0000d0 ad 89 a7 93 fc 36 d3 bf 51 50 25 e0 52 fe a5 3f
       -0.300231117433351 0.0429559610953737
0000e0 c5 e3 9e 7d 45 e5 a0 bf f3 d4 3a 6a e6 00 8f bf
       -0.03299920233207091 -0.015138435475231726
0000f0 c1 24 24 9c 48 33 ae bf 89 ec 60 a1 85 3d 88 bf
       -0.05898501306553206 -0.011836093890556636
000100 07 28 a2 6e 9d 4a 36 3f 0e a3 67 25 cf 73 93 bf
       0.00034014075811994487 -0.018996464403161765
000110 76 ac ed 7b 1f ad 57 3f 70 dc b5 51 51 ae 04 3f
       0.0014450843297833227 3.944574037977814e-05
000120 f7 10 bb 78 ab 8b 8d 3f 81 9e f1 96 7f 33 89 3f
       0.014426555272969639 0.012305256647052733
000130 c4 ac 06 39 d0 f1 8d bf b5 06 25 5a f0 d1 97 bf
       -0.014621378650949153 -0.023261790754310414
000140 0a d3 03 3f 0a 96 ac 3f 2c 55 25 7e 30 4d a7 bf
       0.055832214538815775 -0.04551078357568836
000150 43 c6 9a 0a 1a ec a8 3f cd cb c3 ea a6 a6 a2 bf
       0.048676313204293574 -0.03642770400792692
000160 86 7f 30 b0 b8 8e 5a 3f 8e c0 a6 ee 3a 10 69 bf
       0.0016209415050596212 -0.003059496976867199
000170 f2 84 09 16 00 28 bc 3f 48 63 ae 47 bf b3 9a bf
       0.10998535669343193 -0.026076306104730024
000180 33 56 54 91 85 60 81 bf 73 25 bf bf 1e a0 c3 3f
       -0.008484881875612782 0.15332397806768547
000190 95 e8 3f e6 fc fc 90 3f 4f 80 e6 ac f1 30 a2 bf
       0.016590072205851476 -0.0355296634254506
0001a0 d4 11 c4 df 1e 7c a0 3f f9 a5 39 08 94 c4 85 bf
       0.03219696504132555 -0.010628849507344095
0001b0 6c 17 22 d2 c4 35 6b bf 26 c3 f7 7f f7 dc a0 3f
       -0.0033215374142540523 0.03293584286791988
0001c0 0f d3 ee 03 bf f1 6e 3f 1c 6e 34 cb 6e d4 e0 bf
       0.003777382923966128 -0.5259317368358469
0001d0 ea ae 87 55 97 cf 98 3f 5f 8e 54 ce 48 62 88 bf
       0.024229397387826625 -0.011906212612820597
0001e0 dd 00 8d b0 00 38 a7 3f 12 dd 6e 9b be 8e 80 3f
       0.04534914164696755 0.008084763639870238
0001f0 fc 1d 8c de 05 36 8f 3f 5e 8e 4e e2 5d ba be 3f
       0.015239759306054694 0.12003123068876095
000200 31 c2 0a ca 3a 4c 8e bf 00 a8 77 e6 94 89 5e bf
       -0.01479383400996523 -0.0018638567070135004
000210 e9 21 87 d1 69 53 a8 3f 96 12 42 5d 1a 5d c4 bf
       0.04751139338219785 -0.1590912776338384
000220 56 e2 6c ed 5a 54 cf 3f f9 24 96 bc 1b cc 8f 3f
       0.24476181595834373 0.015526024525359438
000230 46 9e 93 1a b2 6b 8c 3f 05 ae e1 31 ba 79 9d bf
       0.013877288280539034 -0.028784665388611703
000240 e6 af 65 e5 90 4e 98 bf ee c8 bb c8 a8 6e a3 bf
       -0.023737205506605984 -0.037953638557057676
000250 c0 9b 66 66 37 b1 a2 3f 17 70 7d 3b 42 2e 87 3f
       0.0365083038807863 0.011318700256815402
000260 bb bd d5 c3 1c 6d cf 3f 57 9a 03 68 d6 e1 6b 3f
       0.2455173450684763 0.0034035861609596307
000270 31 47 0a 42 57 59 9a 3f 14 ad 94 0d 0a 3f bf bf
       0.025731433301707077 -0.12205565291940373
000280 2b 34 4c c0 3c 21 8b 3f 1a 2b 80 7a 69 1c da 3f
       0.013246988886317443 0.40798413241343356
000290 f0 b3 88 a4 55 15 94 3f f1 60 d0 79 08 8e 95 3f
       0.01961263481841863 0.021049625811515097
0002a0 ba d8 f0 af 17 cb 72 3f 3c 7a 87 e9 7e fa b8 bf
       0.004588215378183042 -0.09757226182362272
0002b0 3c 0f dd 63 f9 4c 8c 3f f6 90 cb 6d 7a e5 97 3f
       0.013818691597073156 0.02333632750641442
0002c0 1b 8d 6d 52 52 08 93 bf ef d1 59 33 5a d8 9b 3f
       -0.018586431771280148 0.02719250620289587
0002d0 05 4a f7 45 9d 6d a5 bf d4 1b 23 aa 8f 4c 90 bf
       -0.041851916113632405 -0.01591705776152337
0002e0 49 bd a6 8a ef 35 a2 bf 94 55 e4 93 3a 9e 82 3f
       -0.03556774680634562 0.009090860021880677
0002f0 44 2e 67 bf d9 62 72 3f 42 e3 84 75 58 2d 72 bf
       0.0044888025062835325 -0.00443777612991242
000300 32 09 d9 99 d0 0d 80 3f 0d d7 f4 79 8c 29 a3 3f
       0.00783884973055091 0.03742636669850983
000310 06 d8 ac 99 0e 0d c9 bf c7 b7 33 bb 3f a2 c0 bf
       -0.19571096900625679 -0.1299514450142267
