model_policy2_epoch-290.pt (torch, 373942 bytes, 28 tensors)

layers.0.weight f8 [128, 128]
-0.6835687681300349 -0.42153048199150955 -0.43608832892683896 0.1635999336217412 -0.17844325064896155 -0.04476555783464866 -0.15412220821150235 -0.10651029790566992
-0.1306537546339689 0.3230089319026081 0.003948275436202086 0.056160763029184 -0.27027210163743426 -0.4909701924171037 -0.2966308884648054 -1.2013971635580607
-0.14204225038426538 -0.03694422082741031 0.39788353467812326 -0.2675303922055489 -0.3527901405126263 0.3973867787611019 0.5897532597297067 -1.0290040657240012
0.9118668750222345 -0.5305788404269671 -0.4540130326594572 -0.7936303236689289 -0.5984769770254147 -0.4691125445512394 0.4595742048784321 0.516738934844714
-2.6350382610204512 0.1267716421390408 -0.22631215696606669 0.524539556524537 0.5100491865946579 -0.8003483406065183 -0.6127299152972098 -2.080513564692036
-0.9507761204000378 -0.03343759989180425 -0.47603316247783795 0.33720516829701674 -0.011747825429254191 -1.111366624720671 0.2764722211749011 0.08179774790932706
0.4775910052784868 -1.2645180782849579 -2.02016795619121 -0.6522736273218853 -0.1803302705154299 -0.09681963444475819 -1.2971893485297918 -0.014202476064507688
0.24144414608930634 0.6405995888472263 0.2406096705149018 0.1660938215235513 -0.7084215754433594 -0.08899395824048519 -0.8388893600003932 0.8352866926799218
0.4639812939974037 -0.02585225540183095 0.047339820370200666 0.07280141868200678 0.5083076267016726 0.49233401770054425 0.4585709259230684 0.9365821309062831
0.09340746496378459 -0.18057365227709182 0.1740801831722469 0.02141854915303329 0.2020265893841249 0.28231563270083365 0.26710572356715234 0.7663769560810951
-0.08192210231982053 0.0038519131253648324 -0.052618427369540165 0.9498655247867441 0.7448370546047833 -0.012242774777332675 0.2052117547765994 1.2041942513566168
0.08942064707275284 0.46201008932605764 0.4394960322985511 0.39173976801647753 -0.0031906411575978824 0.21809123822715418 0.08371183564283739 0.7726692152188404
1.8995313600514445 0.9438208476659715 -0.22315414398077876 0.21242079534523972 0.505952195731485 0.8750224583216112 1.3353735747629212 1.09359938620042
-0.36992811641818385 -0.15648950916566234 1.285805658749749 -0.046172675081348875 -0.6148179421987661 1.060550011181004 0.8311496847995852 0.8195313595435822
-0.5429830920959329 1.4283621071023793 2.103091808682347 0.6915532506602423 0.3339212600578619 -0.513927542760599 1.23413358193021 -0.07996651768087915
-1.0550277009465912 -0.20839196669728233 0.12340256760571347 0.45720816608476544 0.7366916908164817 -0.2934644392851796 0.5855186899354058 -0.35393199974209166
-0.7392674865349986 -0.3179264295327152 -0.8638977496510797 -0.8094208918736214 -0.7108508919592006 -0.7338488209978861 -0.4982460215973688 -0.6863153406423926
-0.9841253065764586 -0.7000278706911215 -0.9356411091703823 -0.7676047151826926 -0.6556756950089785 -0.5416608667297004 -0.5848172128006849 -0.7318692405445715
-0.7871016795760725 -0.6904254504306411 -0.5403347462517264 -0.8069853585071044 -0.7971561531288897 -0.6574190185122003 -0.30370642434736533 -0.925881406750299
-0.6024891583347517 -0.9110410503656803 -1.0009762496026595 -0.3930347923735075 -0.5075376852142706 -0.6145711646703671 -0.7255797117389136 -1.0390812139341334
-0.6074614644804791 -0.7347653991727932 -0.9396827331334091 -0.546547200163866 -0.710683738260809 -0.9637029049041571 -0.7802775866630937 -0.6867398223769678
-0.24532153981527757 -0.528534803378034 -0.2882746413931527 -0.6465175688236817 -0.41720836657167093 -0.6782344861593307 -0.12416194632319137 -0.6905417640208241
-0.05553431583412652 -0.6080464694962524 -0.9174852545172679 -0.5589093731887598 -0.7525446362755421 -0.5989481031669716 -0.48645835127704673 -0.5226143095013416
-0.01099796108260148 0.3156832626936724 -0.7495117049814162 -0.6903638550683064 -0.2425575783749539 -0.6889007882113438 -0.8109047554520034 -0.506030542819247
0.6089449092874961 0.48144614897694543 0.7690723138831087 0.7617193680550163 0.8827337204779391 0.7162018171351419 0.4974910842891292 0.7744541680507062
0.7592692436233003 0.9082973186816716 1.1627503637586394 0.8291792123594971 0.7435321328909739 0.7998462499479776 0.7216381733740056 0.6716439139586363
0.5708523420567643 0.7698965736232753 0.6237948627560066 0.9836302463419243 0.7283895127088004 0.9280326554426362 0.4781363230319705 0.9978081832929891
0.6241177183570468 0.7989534807330637 0.8446345559765633 0.5611755983306012 0.8610466536690011 0.8449199017230903 0.7151015646659195 0.6751557280616153
1.2818130875946223 0.6924839883475141 0.9838783273822651 0.8954776949449008 0.8551228909075349 0.9577065470770846 0.763741807022162 1.211614029696853
0.18756880504715653 0.5478115242419337 0.8414786077830191 0.6301464788712288 0.402487795165484 0.6562125389246146 0.3749203831962662 0.9100461323357095
-0.05875872836069258 0.5110125441087969 1.193208659564446 0.8944973949206831 0.6509710306028833 0.5572736953829309 0.7728829651969121 0.5196091797259103
0.47042179174983867 0.1874854806875074 0.553625972537116 0.633419850258971 0.24834924028301716 0.6550816845253931 0.7608503961575959 0.403656488447217
00000000: acef f59b cbdf e5bf f0eb 9afc 5afa dabf
00000010: b91d ba05 dfe8 dbbf 3c3e 44b6 d7f0 c43f
00000020: 1a57 dd7a 3ad7 c6bf 8326 c6dd 82eb a6bf
00000030: c087 edc9 46ba c3bf 792b 3146 4244 bbbf
00000040: 1452 a021 43b9 c0bf 1f9b b5a7 2dac d43f
00000050: cc43 fc1d 112c 703f 79b8 0e81 1ac1 ac3f
00000060: 3774 635b 234c d1bf a481 ef3d 0e6c dfbf
00000070: 1325 3c1f 00fc d2bf 15d3 6f3b ec38 f3bf
00000080: 227c 06c2 702e c2bf 4cb9 7558 5aea a2bf
00000090: 8fcd 4380 ec76 d93f 635e 4dcb 371f d1bf
000000a0: 2397 f618 1d94 d6bf f111 a9f4 c86e d93f
000000b0: 95f3 673a 42df e23f 19c5 9bf7 cc76 f0bf
000000c0: c4d6 d070 032e ed3f 6eab f279 80fa e0bf
000000d0: c1ba cead 8c0e ddbf c5b3 a86b 6b65 e9bf
000000e0: 8d75 7730 b926 e3bf 2c6b 3f9f f005 debf
000000f0: bb6f 02ed a969 dd3f 224b 3717 2089 e03f
00000100: 1855 96f0 8e14 05c0 1011 869c 0d3a c03f
00000110: f9a0 6df8 cbf7 ccbf 3c66 172e 07c9 e03f
00000120: 8cd0 f8ab 5252 e03f fd02 8a1f 749c e9bf
00000130: 8b6f 6fc4 7b9b e3bf b6e4 b94b e4a4 00c0
00000140: 10f3 dd0a c26c eebf abeb fbab bb1e a1bf
00000150: 57d7 29cc 5377 debf e82e 78fc c494 d53f
00000160: 6861 2470 3e0f 88bf b4a8 b05e 28c8 f1bf
00000170: 28b7 0c8b b8b1 d13f f231 287c b2f0 b43f
00000180: 373b 22dd d990 de3f 60f4 f64e 773b f4bf
00000190: b325 42d1 4d29 00c0 5981 2cf1 6cdf e4bf
000001a0: 77da 2bf3 0f15 c7bf 8a08 8deb 2bc9 b8bf
000001b0: e37a 4a9e 49c1 f4bf 9b17 c111 3016 8dbf
000001c0: ddd1 a14b a4e7 ce3f 9bc1 7db5 ca7f e43f
000001d0: 4d3e fb34 4ccc ce3f ba72 c1f5 8f42 c53f
000001e0: baeb 49b9 63ab e6bf a939 2fdc 4ec8 b6bf
000001f0: f93f c57f 2ed8 eabf 3c04 7b28 abba ea3f
00000200: cf2c eb98 deb1 dd3f 3131 ea7d 0379 9abf
00000210: beb9 93c8 ec3c a83f 9374 5720 1da3 b23f
00000220: c4b6 1f5b 0e44 e03f 19db 2e8a 6682 df3f
00000230: e91a 6fde 3959 dd3f d355 c816 7bf8 ed3f
00000240: afc2 3837 8de9 b73f 4252 8695 091d c7bf
00000250: 77a1 cd6a 4248 c63f 5868 8f80 beee 953f
00000260: e9e2 29dd 01dc c93f 5160 6696 7511 d23f
00000270: c8e6 d29a 4218 d13f b6d7 58f7 2886 e83f
00000280: 767f 48ce d8f8 b4bf 2ab1 d01c 0c8e 6f3f
00000290: 5331 7071 cdf0 aabf 7bd2 9162 4c65 ee3f
000002a0: 600c cc84 b4d5 e73f 2c5c 3f6a bd12 89bf
000002b0: 1598 c2f7 6044 ca3f d9b9 f930 6144 f33f
000002c0: e5be c382 45e4 b63f 0bf5 04c4 9291 dd3f
000002d0: 196b 5cf7 b320 dc3f f318 0bad 4312 d93f
000002e0: 95dd 9a6d 4223 6abf 2d69 dde7 69ea cb3f
000002f0: ebc5 5f8c 236e b53f 7eb5 3fca b4b9 e83f
00000300: 915b d2fe 7a64 fe3f 5e44 40c7 c733 ee3f
00000310: 0aa2 2ea3 5090 ccbf 30c2 7fc8 9a30 cb3f
00000320: 2032 c0a8 c230 e03f 0f38 3819 2f00 ec3f
00000330: 2bca 78ae b05d f53f ef80 ea11 627f f13f
00000340: 49c4 78fa e6ac d7bf 664d 0426 d907 c4bf
00000350: 7578 55f4 a892 f43f b9ee e2e2 f1a3 a7bf
00000360: 649b 57ad 96ac e3bf b1b7 dc49 03f8 f03f
00000370: 0a70 4939 c798 ea3f c227 69d4 9939 ea3f
00000380: d6a7 da13 1e60 e1bf 1c9b 8d39 92da f63f
00000390: 9835 56cc 21d3 0040 45e7 6048 3421 e63f
000003a0: e5ce d846 f75e d53f 0974 952c 1872 e0bf
000003b0: c591 d4da 02bf f33f b8e1 368a af78 b4bf
000003c0: eb08 ffb9 64e1 f0bf ac62 db84 96ac cabf
000003d0: 5ae5 1b88 4f97 bf3f c615 330a e642 dd3f
000003e0: df55 e973 fa92 e73f 6a34 5112 1fc8 d2bf
000003f0: c504 0fb1 91bc e23f 4a9c f966 d2a6 d6bf
00000400: fe3e b549 14a8 e7bf c221 5818 e858 d4bf
00000410: 39dc bae4 0ca5 ebbf c07b 69a4 c6e6 e9bf
00000420: a182 a95e 4abf e6bf 4b9c cc85 b07b e7bf
00000430: 19dc 0748 43e3 dfbf 6dab d996 4bf6 e5bf
00000440: fc2d dd5a f47d efbf 3105 5dd9 a066 e6bf
00000450: 37c2 959f c5f0 edbf c4e1 7ec3 3790 e8bf
00000460: 6d0f 5b98 4bfb e4bf 0511 842b 4955 e1bf
00000470: f1bc 6396 d2b6 e2bf 18cb a20a 796b e7bf
00000480: 27fd 8cdc ef2f e9bf 1c9f 3d1d f717 e6bf
00000490: 5d65 0118 6c4a e1bf 7371 64f5 d2d2 e9bf
000004a0: cbcc ef9e 4d82 e9bf fde7 089c 9309 e5bf
000004b0: d10c 0a12 ed6f d3bf baf1 3e0b d2a0 edbf
000004c0: 1fc1 e757 9747 e3bf 6e4a 948f 3f27 edbf
000004d0: c6db 01ac ff03 f0bf a3cc db66 7b27 d9bf
000004e0: 6273 efab bf3d e0bf 0a5d aa25 91aa e3bf
000004f0: 66e9 91f1 f237 e7bf e6c2 7b9f 13a0 f0bf
00000500: fbc3 7006 5370 e3bf babe f5b9 3283 e7bf
00000510: 7d90 ed85 e111 eebf ce92 cd8d 507d e1bf
00000520: 6522 b4d2 ebbd e6bf 25f4 7379 a7d6 eebf
00000530: 25a2 90b3 08f8 e8bf a209 bfca c5f9 e5bf
00000540: c367 413b b266 cfbf 69ce e9d1 c1e9 e0bf
00000550: 972e 437b 1773 d2bf 7863 cc9c 45b0 e4bf
00000560: fabe 82b8 8ab3 dabf ab5b 22cf 18b4 e5bf
00000570: 03a6 ddca 13c9 bfbf 19bb 9f0a eb18 e6bf
00000580: f469 a06c fe6e acbf c8e8 9dde 1d75 e3bf
00000590: 49d8 5609 0a5c edbf 30c1 e8e8 95e2 e1bf
000005a0: 6aad 327d d814 e8bf dd4e 6336 952a e3bf
000005b0: b676 6635 2222 dfbf 365b f7a4 41b9 e0bf
000005c0: 9f2f 6159 1986 86bf 567d 4a92 2734 d43f
000005d0: 06a9 9bf8 fffb e7bf c87b 7bf0 7517 e6bf
000005e0: a239 4271 200c cfbf 92cd 71aa 790b e6bf
000005f0: 9bca 9a87 eef2 e9bf 05f2 05f7 6631 e0bf
00000600: 5093 ce08 7a7c e33f 2f08 2982 03d0 de3f
00000610: 4b62 8c8a 3d9c e83f aad5 d04b 0160 e83f
00000620: d4ee 90c9 5a3f ec3f 72cc bd12 20eb e63f
00000630: 69b2 44d8 e4d6 df3f e0ea 801b 54c8 e83f
00000640: 3b10 4703 ef4b e83f 5a08 d989 c510 ed3f
00000650: 5d16 1c20 a09a f23f 316d f3d7 a288 ea3f
00000660: e856 49e6 03cb e73f 915a ab29 5798 e93f
00000670: 12f8 45f0 a817 e73f 2050 a060 1b7e e53f
00000680: 6552 7f21 6c44 e23f 2976 a023 fea2 e83f
00000690: 3a65 dea4 20f6 e33f bfa3 6c23 e679 ef3f
000006a0: 75ad fa85 f74e e73f 89e0 178a 71b2 ed3f
000006b0: a6ed 9c17 c999 de3f 0396 5d6d 0bee ef3f
000006c0: 3053 a6b8 c5f8 e33f 95c3 d8e3 0691 e93f
000006d0: ceb4 5f0c 3f07 eb3f cd94 4487 26f5 e13f
000006e0: ccd5 3ab6 b18d eb3f 937c 3476 9509 eb3f
000006f0: abdf 31ad 1ce2 e63f 256a 772f e09a e53f
00000700: e6db ac70 4e82 f43f 5799 5e2e d428 e63f
00000710: 4833 eb66 ee7b ef3f fcbe c2d6 c0a7 ec3f
00000720: 6748 50ae 2a5d eb3f a58e 5b33 88a5 ee3f
00000730: acf0 77a8 9270 e83f 9cc3 8e64 c562 f33f
00000740: fbb2 b62d 4102 c83f 68b6 9f08 ac87 e13f
00000750: 11c6 968b 64ed ea3f a020 cef2 282a e43f
00000760: f997 512b 5cc2 d93f cb00 3d70 b1ff e43f
00000770: d0a1 1b10 b2fe d73f 0d76 0711 191f ed3f
00000780: 6ad3 53c1 9f15 aebf 9660 99fa 365a e03f
00000790: f821 a2f6 6117 f33f 3854 3100 b99f ec3f
000007a0: 4aa6 e232 c1d4 e43f 76e7 12a5 2fd5 e13f
000007b0: f3ff 640e 75bb e83f 35f9 336e a3a0 e03f
000007c0: ba0a b900 641b de3f 258b 0334 86ff c73f
000007d0: 606b c8d0 4db7 e13f e2fb afb4 f944 e43f
000007e0: af41 806c e8c9 cf3f 4ad8 67dd 6df6 e43f
000007f0: 16a8 14ee e258 e83f 66bc 2c06 82d5 d93f

layers.0.bias f8 [128]
-0.1518956968735577 0.23807537362198736 0.17331029050563962 0.4014924490265502 0.38976151584394 -0.5459223540812788 -0.44020724297852337 -1.231592707415615
-1.1524138722896997 -0.8777007149405565 -0.1530701724898946 0.6308392279194437 0.9160507176501463 0.18897457030860815 -1.159321946709814 1.0851732876772375
-0.5170411370557237 -1.061465225787033 -0.6723356422011417 -0.07918218846053898 -0.5155969989140273 0.6879335679336073 0.5535261953460631 0.059411091356489205
0.2908459727229303 1.1307947354943517 -0.5176278047885566 0.14788325515120543 0.37725312118801346 -0.28405728909956685 -1.046875267528528 -0.1474595887290004
-1.0190190676673587 0.3286848949704085 0.28643065758391667 -0.49999932292820964 0.5092794635609817 0.09106175279625044 0.1337808982454732 0.24465199298278
0.3936797873975449 -0.20446469105136175 0.8545901187013193 -0.20629170642089018 0.508928154133047 -0.5644943128810641 0.348670613184305 0.4042778669243612
0.284277179781085 -0.6363835865727988 -0.9874372353685181 -0.14960902770646675 -0.6561501279783786 -0.8324929078262217 0.9362942669904727 -0.5782079172392781
-0.5966771362127439 -0.14493875973320824 0.9559285716686027 -0.5250512000319089 0.3933655404363164 0.54035536093075 -0.16587646063651712 0.22822465455577648
-0.08992030090224952 0.7685102808794917 0.40431471206678365 0.6001494354719045 -1.1350062249077486 0.41481046762932916 -0.10159741327314697 0.05692848740663441
-0.37012860836784595 -0.10220553458987036 -1.415815894807569 -1.2364910057632748 -0.0002525643115925052 0.334204789226549 1.422291688861204 -0.5121814888339526
-0.05555817969235419 -0.714323591192398 -0.7222244903075004 -0.22722678035482885 1.2247387157793477 0.8562275967200019 0.00685396625862497 -0.3657251508066067
0.05193782325573891 0.8218309097143983 -0.5614666306146392 -0.36979735985924495 -0.6062354159824834 1.168692799950739 0.6454465980111466 -0.41424617592682733
-1.011796611172914 -0.5597070849703836 1.033896999460073 -0.8710341353571662 0.6458727672383637 -0.5935190423848293 0.12923882104953077 -0.5687540052091693
-0.025191475624961678 0.597083990786545 0.557931844043927 0.10811401791423154 -0.4201822842601479 -0.4847810892994394 0.318053653694928 -1.2767107874402515
0.5853550895705695 0.23478787801177364 -0.2097171102175697 -0.3240993114740126 0.30945480755932425 0.4071272303253281 -0.9734017923776211 0.24290384529128264
0.7866845121969467 -0.4387123463855172 -0.28764788779320666 -1.1441717419892787 -1.083748954976619 0.16090071567227757 1.212616358335876 -0.5668976101579302
00000000: c2ce 3c75 5171 c3bf cf3e d8fb 4079 ce3f
00000010: f817 e416 082f c63f 1d3d 8a62 0db2 d93f
00000020: bf80 f248 daf1 d83f cee6 1d28 3278 e1bf
00000030: 7d86 0300 5b2c dcbf 8079 058e 9ab4 f3bf
00000040: 420e 4f87 4970 f2bf 680e 4bcf 1f16 ecbf
00000050: 9728 6bac cd97 c3bf 3455 9ebf d52f e43f
00000060: 551c 3998 4950 ed3f da24 a097 5130 c83f
00000070: 9475 6a2b 958c f2bf 8710 51aa de5c f13f
00000080: 5ee9 cada 998b e0bf 858b e9f5 c2fb f0bf
00000090: ca0c 6609 c683 e5bf fc1c ddad 4845 b4bf
000000a0: 3f0c 0847 c57f e0bf d30d 0342 8d03 e63f
000000b0: 64b3 4f91 7cb6 e13f e9a4 ca6c 216b ae3f
000000c0: b92b 416d 389d d23f d1fe 7638 bc17 f23f
000000d0: df25 a22f 6890 e0bf c60e 40a8 d6ed c23f
000000e0: 9840 7446 ea24 d83f 2ae0 b79f fe2d d2bf
000000f0: a36b d047 00c0 f0bf 264d 89af f4df c2bf
00000100: 831b 1af0 e64d f0bf 0993 a55e 2c09 d53f
00000110: b542 b940 e154 d23f 65ec ff28 fdff dfbf
00000120: 579a 1072 044c e03f 1b24 2db2 d24f b73f
00000130: 9b9b 6583 bb1f c13f ca91 61aa c150 cf3f
00000140: fdfe fdb4 0c32 d93f c34c a024 e62b cabf
00000150: 53d2 6960 cd58 eb3f c6c2 4142 c467 cabf
00000160: 927b 40b2 2349 e03f e944 9360 5610 e2bf
00000170: 99fb 2c8c 9e50 d63f 10f4 3b46 b0df d93f
00000180: f82a 8ae9 9831 d23f c952 811c 415d e4bf
00000190: 8655 18f9 1599 efbf cfc2 977c 6326 c3bf
000001a0: 02de 9d8d 2eff e4bf 817f a82a c8a3 eabf
000001b0: 0101 0565 1ff6 ed3f 5797 dae3 ad80 e2bf
000001c0: e0bf 49a6 fa17 e3bf 140c 7d70 5a8d c2bf
000001d0: d31d 1484 f796 ee3f 719a 9b2c 38cd e0bf
000001e0: b107 e3a8 e62c d93f 9f4e 6d53 974a e13f
000001f0: da16 ce9a 703b c5bf 599e ba29 7736 cd3f
00000200: dd23 9f4f 0405 b7bf d48c 60df a297 e83f
00000210: 6195 67d0 4ae0 d93f f511 c296 6c34 e33f
00000220: 62c3 8b49 fc28 f2bf 7069 2034 418c da3f
00000230: f0c9 5dbf 4902 babf 9696 3e0f bb25 ad3f
00000240: bd3f 10e7 2fb0 d7bf e89f 8854 242a babf
00000250: 11b0 5591 2ea7 f6bf 96d2 f8ca aac8 f3bf
00000260: 7a71 5b75 538d 30bf 2541 f97b 9c63 d53f
00000270: f080 10ee b4c1 f63f be11 056f ca63 e0bf
00000280: ac9f 9b29 1f72 acbf 0cd8 dd25 bddb e6bf
00000290: 22b6 c788 761c e7bf 661e 3363 c415 cdbf
000002a0: 6aad a69f 8798 f33f f00a bb6a 3766 eb3f
000002b0: 5ee1 db8e e712 7c3f b27f 8276 0a68 d7bf
000002c0: 8e1e 9e28 9897 aa3f b016 0256 704c ea3f
000002d0: 4220 09de 88f7 e1bf c386 af8b c2aa d7bf
000002e0: 8c4b aad0 4766 e3bf dabe ad38 f7b2 f23f
000002f0: f4b6 b89f 7fa7 e43f 8252 8664 0283 dabf
00000300: 8a0f b3a4 5130 f0bf 7c31 29d5 1ee9 e1bf
00000310: 13d1 8194 d78a f03f 98e0 a1fa 82df ebbf
00000320: 2c4e 955d fdaa e43f 1613 93a5 1bfe e2bf
00000330: a802 e4ce e58a c03f e8f4 7a99 3b33 e2bf
00000340: 96ec c94f cbcb 99bf 8996 ace2 4f1b e33f
00000350: b719 f2e1 93da e13f c547 2e3b 5cad bb3f
00000360: d860 503c 44e4 dabf 8aa9 1043 a706 dfbf
00000370: ba8d 3fb6 fd5a d43f c119 684a 686d f4bf
00000380: 8016 c898 3abb e23f 2a66 c778 870d ce3f
00000390: 41e6 e5a0 02d8 cabf d6f7 db09 0bbe d4bf
000003a0: 55aa 8389 1bce d33f e7bb e35e 5f0e da3f
000003b0: 3726 0484 1b26 efbf 49a2 cc23 7917 cf3f
000003c0: abfa 84ff 842c e93f 2df1 04f3 dc13 dcbf
000003d0: 8f75 b5af d268 d2bf ef9e 4d07 874e f2bf
000003e0: 1a2e eb24 0957 f1bf 1b93 db07 6598 c43f
000003f0: f35a 1a69 e066 f33f 3ee2 f974 0624 e2bf

layers.1.weight f8 [100, 128]
-0.5578531359054788 -0.013153959015782334 -0.29093504158155353 0.05773434718292037 -0.33853625638507445 -0.2821344040320465 0.2750101562245008 0.1369421474252073
0.23444927429163664 -0.2015140041831024 -0.20308230373427258 -0.2350464337189996 -0.09019176056225377 0.25413995299721703 0.08103695705420577 0.17219314484228285
0.3063658377247361 -0.17315148555054388 0.0286953359587218 0.14405963941751018 0.13364634931453817 0.037657548758299984 0.15599586215730762 0.19826825025212708
-0.43175921294326236 -0.2274835722638429 -0.04060139352770391 0.3915309547920024 0.19552816171246695 0.032823016023092705 0.5010863699041228 0.30437279813002294
0.10594002392504479 0.008733127398676734 -0.16693828076624628 -0.0031693580848508834 0.3249029280889199 -0.04218847478837503 0.4139201284720132 -0.20924801798424295
-0.02115473918393106 -0.45818241658144077 -0.10922305951104376 -0.13564682073547327 0.0481140211317472 -0.10640511632928108 -0.19347893425771145 -0.6574019154254834
-0.15253405221138605 0.14315744176424658 0.04290762807062362 0.47610144189123527 0.15500416352229543 0.21281350396573373 -0.15609188685171585 0.3443609135502212
0.3891386382798322 -0.020633358633888692 -0.021796890508573686 -0.006039049718773262 0.2728817625786392 -0.5166678781396741 -0.4758268200614732 -0.16229354274042382
0.38149430888899843 0.0030180728230490717 0.14890702735683908 -0.14989504971929357 0.3777357593885336 0.07201617352223712 0.05424935361730831 0.237367504156403
0.09669892762772891 0.061774785292892515 0.15081846272329072 0.12694609190373726 0.12987094337892696 0.3654871739537528 0.16525905751090023 0.021824327422567937
-0.013175408474123958 -0.01056833741923081 -0.41376134363630973 -0.03977305795742067 -0.21213100109577185 0.12091054169525205 -0.0672720179787212 0.6234731730734852
0.9455477522064941 0.09526209320277125 -0.13418132589806459 0.09513561219284457 -0.06593237764483742 -0.003936716758181816 -0.46351446548017633 -0.0933150946530444
-0.15546539865682835 0.24486068362293523 -0.08451589102775511 -0.0336893482886965 0.2955180706647946 0.3413446831727708 -0.14249167371295807 -0.194512280299931
0.224344474463282 -0.24314680591750207 -0.3183813797837599 -0.5711789848415406 0.05729745546051089 -0.2148726075483858 0.8156099996866751 0.040931716074909634
-0.27866634288573294 -0.10208392893073749 0.44485591873641633 -0.28491081837088333 0.2117085872670516 -0.2595925108250198 -0.0661833961114894 1.163815088483365
0.17222273860175133 -0.3641058571324179 -0.18792587824052118 0.10287702745072314 0.3957243541383537 0.009288319280951736 0.4014326420092595 0.20564526269793176
0.04272990270761411 -0.06436923281856044 0.024868748350489953 -0.04158479820384117 -0.0519659998339788 0.09619043770771947 0.003223868990939694 0.014029389701667613
-0.00044121916460560103 -0.00013369699114040216 0.0831347822303385 -0.06862718214031603 -0.08435821611322622 -0.0588212600889607 -0.015855847144270564 0.02748238710838922
0.09649908104638055 0.08918308996274675 -0.03719222559162196 -0.03144970858457155 -0.1071110657893532 -0.01936346825466211 0.024844882963291057 0.06849775422544944
-0.005861647284369731 0.0028988295328510514 0.031694631872982645 -0.0882692765944078 0.054993255667592805 -0.09567016000082151 -0.07976113378824956 -0.06366860671875277
0.09500631808876579 0.05227810185622955 0.050799769704489024 0.08147306503059593 -0.04448364730854195 0.0037746536103261913 0.0253117117330372 0.036163034928597744
-0.001822637354757675 0.0007912581687911531 -0.010419316834138116 0.05019722563050615 -0.016452147120494084 -0.018254712633988257 0.040143432399591665 0.09585948330180509
0.015352714051695195 -0.026009098530486354 0.05029356455798891 -0.006957598029647354 -0.03202364025648109 -0.0016658873947324618 -0.03321679396375183 0.04349771117408286
0.11090594146329343 -0.023326515226658524 -0.050820951101222964 0.0520402307744654 -0.02485415958205282 0.01839993639082481 -0.01890266556751088 -0.06259877642679532
-0.06958652934250674 0.06079702132429132 -0.0002906669636020903 0.02737558566251079 -0.008941715148435267 0.059164045431796354 -0.05157640718931165 0.06616124845366855
-0.028568852950409413 0.06963957325982273 -0.03245531760774723 0.04097050061586918 -0.0752261884554326 0.027479474950143308 -0.009308858505887418 -0.05117909538678956
-0.026036159799332565 0.07082176985092173 0.06389737621456767 -0.08310435469272139 -0.03639499950048305 -0.085542506938087 -0.004975147971045498 -0.046184596811559155
-0.022459728345391627 0.03941552210579837 -0.0007667133218123312 -0.04092150005792595 0.03477745894693275 0.017053376799490122 0.11025023886465168 -0.017873131710983366
0.08402845101281352 0.04186137452175062 0.09074029449686911 0.02488985310515579 0.019265641268104372 -0.004607470646508968 -0.02628264737310549 -0.00033925164018509
0.10144171799898855 0.003778138059664838 -0.11366961406507406 0.08231732352919241 0.07482578853507495 0.09214056987586892 -0.0462937295966414 0.016100921033251874
-0.0484229011537467 0.05793769706573573 -0.04659769548648175 0.001597220951138301 0.05912658793225778 -0.06834019685287979 -0.08271545142293275 0.07274846807942614
0.045529467566171475 0.04228912923988041 0.03355925464146109 -0.02313857496592791 -0.08972300719726753 -0.07786102142578034 0.09963485208314644 0.03765641607325226
00000000: 22ec d5d1 eed9 e1bf 0c22 497e 76f0 8abf
00000010: 619a 3602 ae9e d2bf e15a 033a 5b8f ad3f
00000020: 60c9 6bf9 93aa d5bf c638 9975 7d0e d2bf
00000030: 4f55 c332 c499 d13f b950 51fe 5187 c13f
00000040: 50a6 d30e 6f02 ce3f e482 d3fc 35cb c9bf
00000050: 5faf 77d6 99fe c9bf 15a9 ee64 0016 cebf
00000060: 71c9 fba5 ce16 b7bf b8b8 ae38 d443 d03f
00000070: 00af 5088 d6be b43f 17b4 d8ca 6c0a c63f
00000080: adeb 6875 7f9b d33f 6ac1 d8ef d329 c6bf
00000090: ac36 f665 4f62 9d3f 9762 fcd7 8b70 c23f
000000a0: ea92 c4d5 521b c13f c395 baa8 d947 a33f
000000b0: 6f73 2323 acf7 c33f fe81 55a1 da60 c93f
000000c0: fca1 d564 f1a1 dbbf 010f a083 2e1e cdbf
000000d0: 463d bfb2 b4c9 a4bf f202 8dd9 d70e d93f
000000e0: 0243 001a 1107 c93f 0423 c0a8 2dce a03f
000000f0: c4b4 6648 e608 e03f 5aab 700b d87a d33f
00000100: 5274 18aa e21e bb3f ce8d 8d84 ace2 813f
00000110: 10b6 2bcc 3b5e c5bf 3724 5c2a a0f6 69bf
00000120: 2b0f a1a6 35cb d43f ebe7 f74e ba99 a5bf
00000130: ea60 bcd9 aa7d da3f db60 ff98 a3c8 cabf
00000140: fd33 cd83 96a9 95bf 4873 b457 dc52 ddbf
00000150: a3a9 91dc 0af6 bbbf efbf 6e01 e05c c1bf
00000160: 1cd5 7aa6 66a2 a83f 09e7 c29e 5d3d bbbf
00000170: f007 8def eac3 c8bf 1391 e2bd 6f09 e5bf
00000180: f01a e35e 3c86 c3bf 333a 47a9 fb52 c23f
00000190: 8ce0 9f16 fdf7 a53f 4c15 a02e 7278 de3f
000001a0: 693a 892a 2dd7 c33f 000a d70f 793d cb3f
000001b0: 897a 99a6 d1fa c3bf 2f02 6e5b 020a d63f
000001c0: 0a66 41bf a5e7 d83f bb21 2842 e920 95bf
000001d0: fd25 8e8f ec51 96bf 2923 a810 67bc 78bf
000001e0: 4fce 7c11 e576 d13f 9a1d f012 8b88 e0bf
000001f0: 2b51 ae55 f273 debf 5307 36e9 08c6 c4bf
00000200: a974 121b 676a d83f a459 4d82 5bb9 683f
00000210: a633 52ae 620f c33f 6436 30d0 c22f c3bf
00000220: 5d9f 469b d22c d83f 41a2 0fe6 a66f b23f
00000230: ff1f 3b3f 92c6 ab3f 0a11 bef1 0e62 ce3f
00000240: 6828 b8cb 42c1 b83f 64cd 19d5 f1a0 af3f
00000250: 99c7 83f6 044e c33f 9f70 8a00 c53f c03f
00000260: 32af 416f 9c9f c03f 0349 cf50 2464 d73f
00000270: cd44 b073 3527 c53f 2a04 26d2 1d59 963f
00000280: 5efb 0f64 b5fb 8abf c6a2 b53c daa4 85bf
00000290: 0116 d1db 107b dabf 1cc9 605e 225d a4bf
000002a0: 4348 16d0 1b27 cbbf df9f 5246 fef3 be3f
000002b0: 628f 272d bd38 b1bf 4116 0903 7ef3 e33f
000002c0: 0210 115c ed41 ee3f 61ba dab6 1863 b83f
000002d0: 56a9 3b8b da2c c1bf ed9e 0db7 ce5a b83f
000002e0: ca6a bbbd f1e0 b0bf d01a ae5b f21f 70bf
000002f0: 3375 9d93 38aa ddbf 550a c27f 7fe3 b7bf
00000300: ce01 7249 4ae6 c3bf 804c 1e4a 9857 cf3f
00000310: b6dd f45b d5a2 b5bf 0d3c 3ff2 ba3f a1bf
00000320: c377 38a0 c4e9 d23f 7afe b85e 97d8 d53f
00000330: a254 46cb 2a3d c2bf d67f 4745 c7e5 c8bf
00000340: 55d6 6dda 51b7 cc3f a571 c53d 6f1f cfbf
00000350: 16e7 744b 5c60 d4bf 19d2 8126 1947 e2bf
00000360: 4e9e b192 1756 ad3f e9ff 1c13 f280 cbbf
00000370: 213c 5e24 7a19 ea3f bf60 d27b 00f5 a43f
00000380: 572b 4c5b abd5 d1bf 9967 3420 2c22 babf
00000390: 91ea 99f5 8478 dc3f 957d cb95 fa3b d2bf
000003a0: 9e13 4c59 4419 cb3f 4aeb 11e8 299d d0bf
000003b0: 9a49 d621 65f1 b0bf d309 fa91 fc9e f23f
000003c0: ad06 f60a 650b c63f 319c 2aa7 824d d7bf
000003d0: 23bc 8e86 f40d c8bf d019 691c 2656 ba3f
000003e0: 2051 d03d 8c53 d93f 3738 5f1c c105 833f
000003f0: 5b81 3e89 12b1 d93f 8ab6 ee7e 9552 ca3f
00000400: 8f84 619d b1e0 a53f 1807 d385 807a b0bf
00000410: 4c65 6e73 3177 993f 0caf 9748 9a4a a5bf
00000420: 46ee 949b 499b aabf 2580 24c0 ef9f b83f
00000430: 9bde 3e7c f168 6a3f deac 9ccf 70bb 8c3f
00000440: 1aa8 e1e1 6dea 3cbf 180f b768 2086 21bf
00000450: fde1 d632 5248 b53f 67c7 e80e 8d91 b1bf
00000460: d6ee 5a03 8098 b5bf 4e7f c8f8 d11d aebf
00000470: 1d75 bde3 833c 90bf 5bdc 62c7 5724 9c3f
00000480: ac31 30ed 29b4 b83f 7b08 bff6 b3d4 b63f
00000490: 83b6 2901 dc0a a3bf 64ce ad1b 2d1a a0bf
000004a0: bcdf 9a7c a16b bbbf 2d4a 905b 04d4 93bf
000004b0: 4c7d 33df ef70 993f 9f6c 3f9e 1189 b13f
000004c0: cd60 31f6 6102 78bf 2bed 4941 49bf 673f
000004d0: 36d9 b45e 473a a03f 63ed 36b8 d098 b6bf
000004e0: ac8d 2f75 1328 ac3f f817 68f0 d67d b8bf
000004f0: 10c7 1cc5 396b b4bf da90 a3f7 954c b0bf
00000500: 87c8 1a85 5552 b83f 08f7 8903 32c4 aa3f
00000510: 79db 0c6b 6d02 aa3f c0b0 cf35 6bdb b43f
00000520: c341 cb84 8fc6 a6bf 772b ecb9 05ec 6e3f
00000530: f08d 6538 50eb 993f 6153 af18 f683 a23f
00000540: d998 31f5 b1dc 5dbf 964d 94fa 8ded 493f
00000550: c7ef 6408 b956 85bf 87ac dd64 73b3 a93f
00000560: 6f75 53e7 d4d8 90bf 401e 0b07 5db1 92bf
00000570: b761 9c12 ae8d a43f 1bef ca41 3f8a b83f
00000580: 2112 0e66 3e71 8f3f 37f7 580e 21a2 9abf
00000590: 9b9f f3fd 13c0 a93f 85d1 efff 917f 7cbf
000005a0: e26e 330f 6765 a0bf 49b9 44f8 3c4b 5bbf
000005b0: 692b 81a7 ca01 a1bf a117 e3fd 5445 a63f
000005c0: e555 84ef 5464 bc3f e2d1 1cf0 e7e2 97bf
000005d0: 3edc dc25 3405 aabf a057 8162 04a5 aa3f
000005e0: fb44 4c6a 5e73 99bf dc33 30d4 6ed7 923f
000005f0: c7c1 ad69 385b 93bf c6cf 8531 7906 b0bf
00000600: 77a9 c43b 6cd0 b1bf 5068 9084 c920 af3f
00000610: 9974 4a1a 950c 33bf 2c6f 8474 5808 9c3f
00000620: 18b9 0fb1 0850 82bf 250e 75f0 bf4a ae3f
00000630: 9d1d 3f0c 3968 aabf 48fc 5e8e f1ef b03f
00000640: 95ca 6c44 2741 9dbf a088 a829 e6d3 b13f
00000650: 31c3 69bf fb9d a0bf 64e7 7de0 15fa a43f
00000660: 4f04 3803 0642 b3bf 9272 e358 9423 9c3f
00000670: a05b c4d6 8510 83bf 11aa d979 2534 aabf
00000680: 3500 681b 39a9 9abf a2c3 5a21 6021 b23f
00000690: 764b 2415 945b b03f d977 8fb5 5346 b5bf
000006a0: 9b5d 2f89 5da2 a2bf 2b89 b71d 1de6 b5bf
000006b0: 9621 411d d260 74bf 4de9 c4e9 81a5 a7bf
000006c0: 13cb e1da aeff 96bf e35f cc74 452e a43f
000006d0: 1470 4052 a81f 49bf a173 e7b0 a9f3 a4bf
000006e0: 624f a1e1 59ce a13f 188a 8fbe 7076 913f
000006f0: 18c4 4c12 5c39 bc3f 1ffe b390 554d 92bf
00000700: 2f98 0879 e382 b53f 9cb3 12a5 da6e a53f
00000710: 4d20 4b85 c13a b73f 8005 5bc4 b97c 993f
00000720: 205e bb4c 5fba 933f 4992 e77b 48df 72bf
00000730: 02dd ad9b d6e9 9abf 6a26 20b3 b23b 36bf
00000740: 3c76 419d 15f8 b93f b539 fe6c 54f3 6e3f
00000750: fa5b f5aa 7319 bdbf f8be 7384 bf12 b53f
00000760: b1d2 a76a c827 b33f c76c 403e 8696 b73f
00000770: 1740 41cd cfb3 a7bf bbda 1785 c27c 903f
00000780: 8062 aaf1 e2ca a8bf 04ae 3484 02aa ad3f
00000790: 62e7 5d34 a7db a7bf 35db f9ef 3a2b 5a3f
000007a0: a079 fc12 d745 ae3f fc3d 7c3e be7e b1bf
000007b0: 6541 bcfe d62c b5bf 6038 3cc3 a49f b23f
000007c0: 5ee9 666c a34f a73f 858a 1fb6 eba6 a53f
000007d0: 7890 53ba ad2e a13f 4ed1 047b a3b1 97bf
000007e0: e66c 9c45 16f8 b6bf 6929 a82c b3ee b3bf
000007f0: 4d29 3d6f ab81 b93f e7d2 09a7 b347 a33f

layers.1.bias f8 [100]
-0.1700337200161807 -0.0887367697066532 -0.0307879670073994 0.06495467082378265 -0.0475264479863716 -0.3371297583882524 -0.062403642354614805 0.0016430463871050945
-0.06937007185253814 -0.04952451690828476 -0.01093122616661754 0.028751265858858774 -0.07761693722667717 0.06976026379008535 0.05102269966804762 -0.04525532929439208
-0.0925363439958297 -0.11446999497512449 0.12590651396223268 -0.04111003854286096 -0.03755983578475336 -0.07148900532689598 -0.023742160877858277 0.1962314728509697
0.27771716449004313 0.05468026550738457 -0.3382507651671239 0.007317158971930227 -0.07281384474482995 -0.07697526822149357 0.07594501220978557 0.0054353330996738955
-0.05106845125555992 -0.047325058218632796 -0.0003537840620227381 -0.046729676809868365 -0.05285698713224227 -0.08276980990517488 -0.08895795146180248 -0.05522753963194956
-0.06826585606261783 0.0575837193474443 0.021043366388171666 -0.007229884603846504 0.07269349191091705 -0.12026766351264523 0.13718439575042618 -0.1019194638784992
-0.08020682785048716 -0.008946488798935677 -0.027087920150228078 0.014182148511731092 0.20984295491273772 -0.10728270472620176 0.005034831827017649 0.02237950147329983
-0.08301457322626912 0.6341925529857799 0.02329874054923025 -0.006151544058384869 0.0834573178963351 0.012273814126563172 -0.07062061375553945 -0.0708054957828391
-0.23590524079733027 0.07028981850292172 -0.09627801243734739 0.050569967132908775 0.08491234829541976 -0.08418921750564647 -0.006069135386496782 -0.01706845911465236
0.002466885510987608 0.27266295589363015 0.08517836849134974 -0.0044132217250521895 0.06938057563837187 0.04123162566682045 0.03384074752691752 0.3010812941155923
-0.04570140890324843 0.03787875256968145 -0.052828099926811534 -0.007228228191906397 0.05017641082576237 0.014250663020734387 -0.04547284593837728 -0.04094468429684639
0.0643811241135556 -0.12923315967339954 -0.042530227452516556 -0.08587595851445791 -0.12417201573972957 -0.10253076297047796 -0.026892528827950467 -0.028512683489398463
0.07270706231667863 -0.04822545498609543 0.00042576983426036445 -0.015934145761303226
00000000: 55e6 5739 aac3 c5bf 0ebf d7f3 73b7 b6bf
00000010: c4e0 a07d e186 9fbf 8c1c e98a dea0 b03f
00000020: 4dd0 97f7 6255 a8bf 9b4c b2b1 8893 d5bf
00000030: 9ef2 20c6 5ef3 afbf c63b e69f 6feb 5a3f
00000040: b585 edad 3cc2 b1bf e24b f108 475b a9bf
00000050: af5c 2057 1c63 86bf 9c60 54ca f870 9d3f
00000060: 6817 011f b4de b3bf 7eeb 8903 cfdb b13f
00000070: 0015 dbb4 a51f aa3f 2808 94de b42b a7bf
00000080: 6b4b 273b 76b0 b7bf 139c cad4 e74d bdbf
00000090: aa1b e963 b41d c03f eb63 28fe 5f0c a5bf
000000a0: 0863 adf4 0a3b a3bf 0210 e77b 1a4d b2bf
000000b0: 3aef 0672 dd4f 98bf 36a0 2be7 1c1e c93f
000000c0: 1472 c136 1ec6 d13f 1e7f 2e40 0dff ab3f
000000d0: 7158 8f89 e6a5 d5bf a7c3 bee7 98f8 7d3f
000000e0: 5504 e099 eda3 b2bf 67b5 9cb3 a6b4 b3bf
000000f0: e13f bcdf 2171 b33f e1d5 7e1e 5c43 763f
00000100: 0000 00e0 a425 aabf 3620 a972 fd3a a8bf
00000110: 9473 eaf9 822f 37bf 5c54 4dc3 f3ec a7bf
00000120: ac36 322e 1210 abbf 868c a3fa 6630 b5bf
00000130: 8562 3fc4 f2c5 b6bf ab93 1db9 c846 acbf
00000140: 59ee 3803 df79 b1bf ac35 c2fe 9c7b ad3f
00000150: af61 bd69 648c 953f cd86 d65e 159d 7dbf
00000160: a3b1 636a 0a9c b23f d49a 8d91 dcc9 bebf
00000170: 5082 a21e 428f c13f 1c1b 2fdc 6417 babf
00000180: 78a3 8846 6f88 b4bf 8494 7166 8952 82bf
00000190: 3bc6 a58c efbc 9bbf 97f4 5bc0 870b 8d3f
000001a0: 0bb7 524a 22dc ca3f d3b7 391c e176 bbbf
000001b0: cc3d 9b60 679f 743f a5e4 b6eb a6ea 963f
000001c0: 2625 196d 7140 b5bf fc19 4e2e 4e4b e43f
000001d0: cea8 c902 a0db 973f 4987 cf88 5c32 79bf
000001e0: bd04 fa72 755d b53f 518a 2a72 0323 893f
000001f0: b3e4 804a 3114 b2bf 16ad c318 4f20 b2bf
00000200: 1efb 1697 2432 cebf 213a b677 83fe b13f
00000210: 9b06 be02 ada5 b8bf 46c4 fd85 4ee4 a93f
00000220: 6394 f4ce d0bc b53f 31d2 dcaf 6c8d b5bf
00000230: 0000 0020 f3db 78bf 3b1e c3e6 647a 91bf
00000240: ef22 f712 6f35 643f 8b34 9953 4f73 d13f
00000250: 583a ffe2 3fce b53f 6b60 aa2f 9913 72bf
00000260: a12e 58e7 ecc2 b13f 8b8d 99c7 4f1c a53f
00000270: 99f4 cc0f 9353 a13f 217c ea79 ea44 d33f
00000280: 0abc 3dd1 2c66 a7bf 9307 0007 d864 a33f
00000290: f8ae fde2 480c abbf 9082 13bb 589b 7dbf
000002a0: 8bfb 0df7 b8b0 a93f f284 f69c 732f 8d3f
000002b0: fd9f 5284 3748 a7bf 0000 00a0 b3f6 a4bf
000002c0: ea24 8c06 487b b03f 5091 2d51 b68a c0bf
000002d0: 0000 00a0 85c6 a5bf 4d0e 5581 f7fb b5bf
000002e0: 9737 aeba bcc9 bfbf 13c9 cac1 743f babf
000002f0: 0388 4a0f b789 9bbf f4c2 6ecc 6d32 9dbf
00000300: 559f d616 ee9c b23f 0000 00c0 01b1 a8bf
00000310: 3489 8683 3be7 3b3f 18ec bc6b 0a51 90bf

layers.3.weight f8 [100]
1.3843257357106336 0.9858694437091482 1.1218484539754128 0.9886378787045721 0.5386225939691878 1.411577714537456 0.9682349786496799 1.1259027937820496
0.7089647002789505 1.1384060053407408 1.4000088053997912 1.3278376007432557 0.6578077126874343 0.8468689741403014 0.9636646180404692 0.9634540738479557
0.9894477378823536 0.9682407591117509 0.49529475094702846 1.4306598284048855 0.6691333777352702 1.552386889926138 1.0006473078364027 1.6357120537059888
1.266930471725891 0.9905632250131695 1.524305139690034 0.9631428570933356 1.0019512397473127 1.006005472035104 0.9964360235564671 1.7223879059943767
1.0 0.9870434347348231 0.8242524900838075 0.9969935669462849 0.9902243125022471 0.6854174493589964 0.9622298459400639 1.1906626615390354
0.9683331290834741 1.551255893389941 1.0011343170418072 1.0360714837657625 0.5608760433113089 0.9046844088516188 1.4665911869541106 0.9682883387457237
0.9772171281182788 1.1133448421110919 1.0380502445956943 0.7258323976239263 1.041861089463631 0.9754844350283538 0.963146928543629 1.538523621429864
0.9067916009244077 1.5226818076698794 0.9682454865305008 1.0342794209939954 0.49368525232438154 1.0096631954147743 0.9715277036019174 0.968236636999211
0.9108520623441719 1.3847305724710446 0.9682433318790858 1.227985365261258 1.681273291654321 0.8701833032414491 1.0 0.9683358432174876
1.4133335621067062 1.0297606549136744 0.9210010830840292 0.9420655186049425 1.5761274183480738 1.0313092922661542 0.9675331157506292 1.3599220925902489
0.9329450924003253 1.6324411049927448 0.9876272894232668 1.0688699454553325 1.0024174969015163 1.0123276483779393 1.0126272291160834 1.0
1.006228528035416 1.2161796602087462 1.0 1.003835610382887 1.021637743697487 0.8324629099716006 0.9629373203423679 0.9939944961325325
1.0090923701918382 1.0 1.620983090144791 1.7117443100465033
00000000: 8536 1ebe 3226 f63f 7c68 5b13 3e8c ef3f
00000010: ec47 4e5d 17f3 f13f 39ef 93e7 eba2 ef3f
00000020: c87f 3f73 653c e13f 7736 7b83 d295 f63f
00000030: a598 04ec c7fb ee3f 8f4d dca5 b203 f23f
00000040: daed 36bd d6af e63f bf22 2837 e936 f23f
00000050: b9dd 14a2 6f66 f63f 5476 d9a3 d23e f53f
00000060: 2f92 a1c2 c20c e53f cfbf 7df6 8c19 eb3f
00000070: 097a 592e 57d6 ee3f 7fff 4ba3 9dd4 ee3f
00000080: d8c9 694d 8ea9 ef3f ff40 610b d4fb ee3f
00000090: 40ab 4cc1 e8b2 df3f 0433 6b8f fbe3 f63f
000000a0: b81e c166 8a69 e53f f68c afa2 93d6 f83f
000000b0: 01ce 5fc0 a602 f03f 8871 0567 e02b fa3f
000000c0: 99e5 e5e2 5845 f43f c6a8 01a6 b1b2 ef3f
000000d0: 997e 41c9 8d63 f83f aaf0 12f8 10d2 ee3f
000000e0: fc6b ee05 fe07 f03f 16ce 9f31 9918 f03f
000000f0: e866 b7cc cde2 ef3f 2c59 f49e e68e fb3f
00000100: 0000 0000 0000 f03f c85c fd1c dc95 ef3f
00000110: fece 11c2 4660 ea3f ed69 8b0d 5fe7 ef3f
00000120: ebd6 bce5 eaaf ef3f 1859 2393 f0ee e53f
00000130: b386 f13e 96ca ee3f 3b0e 7e4a f40c f33f
00000140: f17f 21c2 95fc ee3f 9864 1db3 f1d1 f83f
00000150: d390 e96a a504 f03f 6d79 31b1 bf93 f03f
00000160: f238 e450 b2f2 e13f 6000 a7b7 2cf3 ec3f
00000170: 9a1d 0952 2877 f73f 8c5a 80d3 37fc ee3f
00000180: 557d cbda 5c45 ef3f 4999 60ae 42d0 f13f
00000190: fd4a c292 da9b f03f 4881 45dd 043a e73f
000001a0: 248a a388 76ab f03f aa85 4622 2b37 ef3f
000001b0: bbce ea81 19d2 ee3f d2a2 e2f1 ca9d f83f
000001c0: 0440 c8d1 6f04 ed3f 2e80 6299 e75c f83f
000001d0: 50bd 64f5 ddfb ee3f 3a85 0194 688c f03f
000001e0: e80b 5007 8a98 df3f 4280 4498 9427 f03f
000001f0: 5a1a 4444 c116 ef3f 9a6b 5666 cbfb ee3f
00000200: 5965 6839 b325 ed3f 4a8d a83e db27 f63f
00000210: 35b4 9f70 d9fb ee3f 3038 7cfb d3a5 f33f
00000220: 7fb2 b4d2 7ee6 fa3f 1350 9ea7 8ad8 eb3f
00000230: 0000 0000 0000 f03f f83c 4573 9bfc ee3f
00000240: 5a66 39a7 039d f63f 06fd f84e e679 f03f
00000250: c2a5 6d43 d778 ed3f c81e 2396 6625 ee3f
00000260: 6724 4262 d137 f93f 2e81 252c 3e80 f03f
00000270: 1945 3e02 08f6 ee3f 2e87 0cab 3dc2 f53f
00000280: cc56 9aaa afda ed3f 6670 6990 7a1e fa3f
00000290: cbb8 968b a49a ef3f fe86 365f 171a f13f
000002a0: 4615 e2ed e609 f03f daea e979 7e32 f03f
000002b0: 9b7b 019c b833 f03f 0000 0000 0000 f03f
000002c0: e66d c315 8319 f03f e682 aacd 7875 f33f
000002d0: 0000 0000 0000 f03f a479 d2ed b50f f03f
000002e0: 95a3 98d1 a058 f03f a6c0 ae41 89a3 ea3f
000002f0: b0fc 5eed 61d0 ee3f 1b62 a98b cdce ef3f
00000300: 85df 890a 3e25 f03f 0000 0000 0000 f03f
00000310: 84a7 f8f6 8bef f93f 9738 6c00 4e63 fb3f

layers.3.bias f8 [100]
0.002802964318918942 0.0038147397870519693 0.013881838458028737 0.007438903522232546 -0.03972162630264433 -0.0010926004893683484 -0.0012919115044725796 0.014159921645807979
-0.03530109671685256 -0.015336877226549183 -0.214466585407987 0.02722095824509292 0.014061661853822143 0.040136347200976925 -0.017220681182205284 0.013149845186515907
-0.004131214582689857 0.08154467644772528 -0.050969065862413544 -0.2954672419167813 -0.015483587714900843 0.07255570801291063 0.000767737542584832 -0.12495687971809079
0.0415127989102384 -0.01350444669826839 -0.009520784544336754 0.002489353721414067 0.004428732960444483 -0.00803480409417416 -0.02332593643104469 0.010478160399870092
-0.010330134293997224 0.009882402949166522 0.030905122026339195 0.014392623979792771 -0.019962646756220552 -0.051530873610897206 0.018657695758152293 0.017621552866800196
-0.0017329714629796046 -0.059133666882211354 -0.01112887771659141 0.024392800294457864 -0.000606550579296973 0.007109354739189583 0.2345832661390867 -0.010238521815415342
0.028207334674594534 -0.003137746725256073 -0.0017749192439520797 0.0069019334069381575 -0.01982586841600434 -0.04388490735385926 -0.05266328880113255 -0.1289966845076938
-0.002369375089832043 -0.4556248296362296 -0.0009285673676161965 -0.006832668528489819 0.0056623614674206 -0.020811571000972105 -0.04278494665242175 0.058058840182373346
0.011954371014219194 0.012532267387241372 -0.019852026421936026 -0.11885340114672867 0.3717050861911956 0.028499440140086325 0.05006569781377427 0.03155952251783039
0.07722754777566214 -0.024412107004172463 -0.024879604936958708 0.017790054414246286 0.33514583858095987 -0.05032034643136199 0.012481901290149694 -0.08913161991153336
-0.02856545675633895 0.5078602395658641 0.021577669364995677 -0.01268637637104283 -0.029589985017442134 -0.021630041684745548 -0.037275603740542715 -0.03969823053844457
0.018702183253999125 0.22753244709079193 0.020196041731869743 -0.011845429342644851 0.0076606846670154 -0.027106524133256517 0.026421262139739728 -0.011168542225736917
-0.020281048911766686 -0.019621756184723123 -0.33879460546302775 -0.08793339472362514
00000000: 4990 9c02 3ef6 663f 4fb5 19d4 1640 6f3f
00000010: d215 7cd1 146e 8c3f 9093 8975 4178 7e3f
00000020: 63dc d39b 6456 a4bf 76c0 a4d7 b2e6 51bf
00000030: 7769 4e6a ab2a 55bf 1eb4 0f83 e0ff 8c3f
00000040: 61d9 d23f fc12 a2bf f9e8 e2d0 f068 8fbf
00000050: 87bf 341d a473 cbbf 14bd b695 cfdf 9b3f
00000060: a90d 514e 5ccc 8c3f 91db 3755 c08c a43f
00000070: 753b f859 4ca2 91bf 603a 3058 4eee 8a3f
00000080: 9915 6878 e4eb 70bf 7481 81a6 1ce0 b43f
00000090: 7d35 f90d 9e18 aabf f299 446f efe8 d2bf
000000a0: eac8 e1f6 dbb5 8fbf 2db7 0dc9 0293 b23f
000000b0: 1e7b 93d1 3f28 493f d9a5 cc8f 2cfd bfbf
000000c0: 00ab 5e63 2a41 a53f 206b 5b27 38a8 8bbf
000000d0: e462 0012 a27f 83bf 80f3 4a9a 8d64 643f
000000e0: 352d a5f3 dc23 723f d792 8326 8d74 80bf
000000f0: 30ca 7a18 c1e2 97bf 9edf eae1 9275 853f
00000100: 8ae6 a527 f727 85bf b8cf c7ab 393d 843f
00000110: 3a2f 87a1 97a5 9f3f 32eb 5f4a e179 8d3f
00000120: ee98 d68b 1671 94bf 1946 c931 4162 aabf
00000130: b061 66c4 001b 933f b710 1265 620b 923f
00000140: 9a9a 89f0 9b64 5cbf 430c b49a c446 aebf
00000150: 72ea abae bcca 86bf d718 171e 6dfa 983f
00000160: a6b9 6273 1de0 43bf e092 9be1 b21e 7d3f
00000170: 86cc 2010 d306 ce3f 9d4c da22 eff7 84bf
00000180: b424 bd2f 62e2 9c3f 7dec 2df2 54b4 69bf
00000190: 3cad c506 8d14 5dbf aa06 31a4 3345 7c3f
000001a0: 689d d881 3b4d 94bf aae1 be23 1578 a6bf
000001b0: ac8a 33be aef6 aabf 7a61 a09e f682 c0bf
000001c0: 0ca9 ba90 f068 63bf 951f a20b f528 ddbf
000001d0: a405 ef3c 636d 4ebf dd04 fd7d 92fc 7bbf
000001e0: 7898 2195 6a31 773f 266b 4fe3 a04f 95bf
000001f0: 253a 4495 e8e7 a5bf 796a a767 e3b9 ad3f
00000200: 1c0f 6784 887b 883f d55b 9574 84aa 893f
00000210: 1557 f7f0 1654 94bf b58d f12e 2d6d bebf
00000220: caac 3c21 04ca d73f 2286 6c0d f52e 9d3f
00000230: b5ed 850d 36a2 a93f 77d3 2eda 9128 a03f
00000240: 93f7 0b40 2fc5 b33f f265 d6c4 7cff 98bf
00000250: 19a3 2a06 0a7a 99bf 1bed 9c57 8e37 923f
00000260: 3d20 0688 0773 d53f 84ff 7da4 96c3 a9bf
00000270: bd2c aa6e 1c90 893f e53d 8f70 54d1 b6bf
00000280: 074f 415a 4340 9dbf b9f8 fb1d 6440 e03f
00000290: 9379 fce0 7418 963f 2d6f f29c 50fb 89bf
000002a0: bd94 c147 d64c 9ebf 16a1 9686 2f26 96bf
000002b0: ce31 02b6 c915 a3bf e04d be93 5353 a4bf
000002c0: 4c47 c245 aa26 933f 9d53 8481 c81f cd3f
000002d0: e4f5 fc6a 45ae 943f 72e5 119d 6a42 88bf
000002e0: 6dbd c161 cf60 7f3f da6c a40a d0c1 9bbf
000002f0: 82a5 3ce3 2c0e 9b3f 370a d45c 88df 86bf
00000300: d0ec 3727 8ec4 94bf 72f4 69c4 b917 94bf
00000310: 6898 a191 cfae d5bf 4f71 908e cd82 b6bf

layers.3.running_mean f8 [100]
2.5e-323 2.5e-323 2.5e-323 2.5e-323 2.5e-323 2.5e-323 2.5e-323 2.5e-323
2.5e-323 2.5e-323 104.54878261847294 2.5e-323 2.5e-323 2.5e-323 2.5e-323 2.5e-323
2.5e-323 2.5e-323 2.5e-323 59.70655321874757 2.5e-323 106.58345874532408 2.5e-323 83.09108885001943
84.32942946541183 2.5e-323 2.5e-323 2.5e-323 2.5e-323 2.5e-323 2.5e-323 120.01556506393224
0.0 2.5e-323 2.5e-323 2.5e-323 2.5e-323 2.5e-323 2.5e-323 2.5e-323
2.5e-323 250.9561226189367 2.5e-323 2.5e-323 2.5e-323 2.5e-323 135.4832178531405 2.5e-323
2.5e-323 2.5e-323 2.5e-323 2.5e-323 2.5e-323 2.5e-323 2.5e-323 54.55325008114182
2.5e-323 43.35426401158857 2.5e-323 2.5e-323 2.5e-323 2.5e-323 2.5e-323 2.5e-323
2.5e-323 2.5e-323 2.5e-323 2.5e-323 64.08584474200096 2.5e-323 0.0 2.5e-323
158.09734781737959 2.5e-323 2.5e-323 2.5e-323 81.02995330346269 2.5e-323 2.5e-323 95.78137756453202
2.5e-323 142.64281606142688 2.5e-323 2.5e-323 2.5e-323 2.5e-323 2.5e-323 0.0
2.5e-323 79.25114962437992 0.0 2.5e-323 2.5e-323 2.5e-323 2.5e-323 2.5e-323
2.5e-323 0.0 83.96792934999466 91.44098173908908
00000000: 0500 0000 0000 0000 0500 0000 0000 0000
00000010: 0500 0000 0000 0000 0500 0000 0000 0000
00000020: 0500 0000 0000 0000 0500 0000 0000 0000
00000030: 0500 0000 0000 0000 0500 0000 0000 0000
00000040: 0500 0000 0000 0000 0500 0000 0000 0000
00000050: 17bd 2141 1f23 5a40 0500 0000 0000 0000
00000060: 0500 0000 0000 0000 0500 0000 0000 0000
00000070: 0500 0000 0000 0000 0500 0000 0000 0000
00000080: 0500 0000 0000 0000 0500 0000 0000 0000
00000090: 0500 0000 0000 0000 c2b3 fb55 70da 4d40
000000a0: 0500 0000 0000 0000 db6e 5963 57a5 5a40
000000b0: 0500 0000 0000 0000 47f7 5366 d4c5 5440
000000c0: 1612 535f 1515 5540 0500 0000 0000 0000
000000d0: 0500 0000 0000 0000 0500 0000 0000 0000
000000e0: 0500 0000 0000 0000 0500 0000 0000 0000
000000f0: 0500 0000 0000 0000 2523 9c04 ff00 5e40
00000100: 0000 0000 0000 0000 0500 0000 0000 0000
00000110: 0500 0000 0000 0000 0500 0000 0000 0000
00000120: 0500 0000 0000 0000 0500 0000 0000 0000
00000130: 0500 0000 0000 0000 0500 0000 0000 0000
00000140: 0500 0000 0000 0000 9169 768e 985e 6f40
00000150: 0500 0000 0000 0000 0500 0000 0000 0000
00000160: 0500 0000 0000 0000 0500 0000 0000 0000
00000170: 9e82 4985 76ef 6040 0500 0000 0000 0000
00000180: 0500 0000 0000 0000 0500 0000 0000 0000
00000190: 0500 0000 0000 0000 0500 0000 0000 0000
000001a0: 0500 0000 0000 0000 0500 0000 0000 0000
000001b0: 0500 0000 0000 0000 b981 0ee6 d046 4b40
000001c0: 0500 0000 0000 0000 1af6 eb85 58ad 4540
000001d0: 0500 0000 0000 0000 0500 0000 0000 0000
000001e0: 0500 0000 0000 0000 0500 0000 0000 0000
000001f0: 0500 0000 0000 0000 0500 0000 0000 0000
00000200: 0500 0000 0000 0000 0500 0000 0000 0000
00000210: 0500 0000 0000 0000 0500 0000 0000 0000
00000220: 5fdb f17a 7e05 5040 0500 0000 0000 0000
00000230: 0000 0000 0000 0000 0500 0000 0000 0000
00000240: 6f7f 2b79 1dc3 6340 0500 0000 0000 0000
00000250: 0500 0000 0000 0000 0500 0000 0000 0000
00000260: e2b1 42c1 ea41 5440 0500 0000 0000 0000
00000270: 0500 0000 0000 0000 905f 0b17 02f2 5740
00000280: 0500 0000 0000 0000 8125 fdf2 91d4 6140
00000290: 0500 0000 0000 0000 0500 0000 0000 0000
000002a0: 0500 0000 0000 0000 0500 0000 0000 0000
000002b0: 0500 0000 0000 0000 0000 0000 0000 0000
000002c0: 0500 0000 0000 0000 53c7 dfd5 12d0 5340
000002d0: 0000 0000 0000 0000 0500 0000 0000 0000
000002e0: 0500 0000 0000 0000 0500 0000 0000 0000
000002f0: 0500 0000 0000 0000 0500 0000 0000 0000
00000300: 0500 0000 0000 0000 0000 0000 0000 0000
00000310: 33c4 f18d f2fd 5440 55e1 780b 39dc 5640

layers.3.running_var f8 [100]
2.5e-323 2.5e-323 2.5e-323 2.5e-323 2.5e-323 2.5e-323 2.5e-323 2.5e-323
2.5e-323 2.5e-323 51.505010854328106 2.5e-323 2.5e-323 2.5e-323 2.5e-323 2.5e-323
2.5e-323 2.5e-323 2.5e-323 57.68738677106468 2.5e-323 82.7144891328459 2.5e-323 83.70788320489388
52.122299145689965 2.5e-323 2.5e-323 2.5e-323 2.5e-323 2.5e-323 2.5e-323 60.0355964627248
2.5e-323 2.5e-323 2.5e-323 2.5e-323 2.5e-323 2.5e-323 2.5e-323 2.5e-323
2.5e-323 88.45955512770335 2.5e-323 2.5e-323 2.5e-323 2.5e-323 43.56452476276127 2.5e-323
2.5e-323 2.5e-323 2.5e-323 2.5e-323 2.5e-323 2.5e-323 2.5e-323 68.14637863366421
2.5e-323 86.549613148159 2.5e-323 2.5e-323 2.5e-323 2.5e-323 2.5e-323 2.5e-323
2.5e-323 2.5e-323 2.5e-323 2.5e-323 116.18436153813923 2.5e-323 2.5e-323 2.5e-323
65.61801733594457 2.5e-323 2.5e-323 2.5e-323 59.335382641336345 2.5e-323 2.5e-323 66.46710164109778
2.5e-323 75.14176145488914 2.5e-323 2.5e-323 2.5e-323 2.5e-323 2.5e-323 2.5e-323
2.5e-323 43.354210437590275 2.5e-323 2.5e-323 2.5e-323 2.5e-323 2.5e-323 2.5e-323
2.5e-323 2.5e-323 90.67074161165581 70.87335782687272
00000000: 0500 0000 0000 0000 0500 0000 0000 0000
00000010: 0500 0000 0000 0000 0500 0000 0000 0000
00000020: 0500 0000 0000 0000 0500 0000 0000 0000
00000030: 0500 0000 0000 0000 0500 0000 0000 0000
00000040: 0500 0000 0000 0000 0500 0000 0000 0000
00000050: 6cbb 1732 a4c0 4940 0500 0000 0000 0000
00000060: 0500 0000 0000 0000 0500 0000 0000 0000
00000070: 0500 0000 0000 0000 0500 0000 0000 0000
00000080: 0500 0000 0000 0000 0500 0000 0000 0000
00000090: 0500 0000 0000 0000 82b6 2a4a fcd7 4c40
000000a0: 0500 0000 0000 0000 eaba a030 baad 5440
000000b0: 0500 0000 0000 0000 0a9a 5bf5 4ded 5440
000000c0: 9888 977f a70f 4a40 0500 0000 0000 0000
000000d0: 0500 0000 0000 0000 0500 0000 0000 0000
000000e0: 0500 0000 0000 0000 0500 0000 0000 0000
000000f0: 0500 0000 0000 0000 cea0 c56c 8e04 4e40
00000100: 0500 0000 0000 0000 0500 0000 0000 0000
00000110: 0500 0000 0000 0000 0500 0000 0000 0000
00000120: 0500 0000 0000 0000 0500 0000 0000 0000
00000130: 0500 0000 0000 0000 0500 0000 0000 0000
00000140: 0500 0000 0000 0000 7b0c e959 691d 5640
00000150: 0500 0000 0000 0000 0500 0000 0000 0000
00000160: 0500 0000 0000 0000 0500 0000 0000 0000
00000170: c1eb f058 42c8 4540 0500 0000 0000 0000
00000180: 0500 0000 0000 0000 0500 0000 0000 0000
00000190: 0500 0000 0000 0000 0500 0000 0000 0000
000001a0: 0500 0000 0000 0000 0500 0000 0000 0000
000001b0: 0500 0000 0000 0000 f11a 7d44 5e09 5140
000001c0: 0500 0000 0000 0000 d932 a0dc 2ca3 5540
000001d0: 0500 0000 0000 0000 0500 0000 0000 0000
000001e0: 0500 0000 0000 0000 0500 0000 0000 0000
000001f0: 0500 0000 0000 0000 0500 0000 0000 0000
00000200: 0500 0000 0000 0000 0500 0000 0000 0000
00000210: 0500 0000 0000 0000 0500 0000 0000 0000
00000220: b03c 5694 cc0b 5d40 0500 0000 0000 0000
00000230: 0500 0000 0000 0000 0500 0000 0000 0000
00000240: 8d8f 9598 8d67 5040 0500 0000 0000 0000
00000250: 0500 0000 0000 0000 0500 0000 0000 0000
00000260: c517 82d1 edaa 4d40 0500 0000 0000 0000
00000270: 0500 0000 0000 0000 111b 48fe e49d 5040
00000280: 0500 0000 0000 0000 4325 a39e 12c9 5240
00000290: 0500 0000 0000 0000 0500 0000 0000 0000
000002a0: 0500 0000 0000 0000 0500 0000 0000 0000
000002b0: 0500 0000 0000 0000 0500 0000 0000 0000
000002c0: 0500 0000 0000 0000 11ad 82c4 56ad 4540
000002d0: 0500 0000 0000 0000 0500 0000 0000 0000
000002e0: 0500 0000 0000 0000 0500 0000 0000 0000
000002f0: 0500 0000 0000 0000 0500 0000 0000 0000
00000300: 0500 0000 0000 0000 0500 0000 0000 0000
00000310: 3288 396e edaa 5640 ef07 3a18 e5b7 5140
