model_policy_epoch-190.pt (torch, 373906 bytes, 28 tensors)

layers.0.weight f8 [128, 128]
00000000: 3a66 220a 7298 eebf d16e 87d3 c59a d6bf
00000010: becb d242 e7f5 b4bf 40d5 6564 a14c cbbf
00000020: 4e7f 8350 3930 debf f9bb c385 eb23 e1bf
00000030: 8967 6a69 6cfe b9bf 9ed3 6648 dccb f5bf
00000040: 87ac 621f 08fc efbf 01ec 78f4 ef67 f4bf
00000050: 843e 4aab 2953 b0bf 6e95 182e b8b8 f3bf
00000060: b5f4 cdf5 d928 dfbf 3122 7bf9 da2a bbbf
00000070: a109 6f1b 9725 e5bf 6b37 befc 5f24 b5bf
00000080: 5f3d 9ef9 1f42 dd3f 5bda f84e 2a27 e1bf
00000090: 4d30 5b5c 2552 f3bf fbe2 458e d2b5 c53f
000000a0: 758f abda b17a cabf ba1e b167 2869 e4bf
000000b0: 39b7 66b9 9161 dfbf ebb6 94cc 4137 e33f
000000c0: a8f0 d27a db6d e7bf 2b6d 452d 7525 03c0
000000d0: 172e f674 f355 f1bf 21c8 181f b5a1 f0bf
000000e0: 5e5d 64cf c062 03c0 c05f 46c1 4647 cfbf
000000f0: fca3 9733 c9ff f9bf 7a8a 2353 026c eebf
00000100: 8041 a093 2074 fabf 4b17 c0b4 6096 afbf
00000110: b97a 8be3 6c5a bfbf a4a5 71ad cae4 f1bf
00000120: 295b 0b73 e72b c5bf f8ed ee67 9116 d9bf
00000130: ca66 3691 07fd ebbf f5d6 88fe 12c2 e43f
00000140: f562 6c41 b68a e53f 5a6a d65a a552 f6bf
00000150: e265 d55c 2638 f5bf 56c0 87a0 3c4f e1bf
00000160: 7a89 01ac 14e8 e13f 6894 54d0 e480 f4bf
00000170: 8df9 76fd 315a fbbf 99d0 2057 38fc cc3f
00000180: acd7 458b 45f2 f4bf 9179 f4ac 7f3d e1bf
00000190: 9cbe f2d9 7c03 0ac0 de65 d2e1 131e fbbf
000001a0: e28e 3e7a 4ba7 e2bf 4701 410c c8aa d0bf
000001b0: c46c a177 c65b efbf f94a 734a edfa f7bf
000001c0: 6cda 2b34 0f5f f4bf c5c0 b589 7587 eebf
000001d0: 891b b56c c447 fdbf f822 6726 5991 fdbf
000001e0: e725 c2fb 4908 f3bf 357a 7de1 58ee e5bf
000001f0: 776b 9e89 8c8b 00c0 165d f237 1cb4 a03f
00000200: c9e2 e201 409e fe3f 9f9d d217 100c e03f
00000210: aae3 0ebd cd81 d43f 20fa efc5 054e f33f
00000220: e746 c8b9 1d6e e33f f5ef 1110 d939 e83f
00000230: 06a0 02b4 ec89 f03f 6ff4 d4b6 d565 c53f
00000240: d560 c782 92a5 e3bf 2922 2036 0d8f f23f
00000250: ee3d 495b c2a5 ed3f 1596 b55c a788 0040
00000260: d49e 48c2 23aa 0040 5431 4e7d dbe8 dabf
00000270: fd0c a0bd 4c55 fd3f ddc6 a6e2 9ba1 f43f
00000280: 7ac7 ca0a bf15 de3f 2b8e 7801 c82e f43f
00000290: 3524 b1b3 dfbe fe3f 1609 bac6 6687 e43f
000002a0: b5a6 f52f 59a6 e63f 6fde ebaa 68f5 e43f
000002b0: 17ab 708a 87f5 dc3f a2a8 4f40 5844 e2bf
000002c0: 4bdb 79ff 0b19 e93f 3274 748d 84b8 dc3f
000002d0: eee1 80d3 2c2a fa3f 63cf af0b 5d82 cebf
000002e0: 56b3 b950 781c f63f 5bb0 5a06 b4b7 97bf
000002f0: 4009 c1f8 4e02 fb3f 580e ef7b 2377 d93f
00000300: de7c efdb 965e 0340 2261 16ee 0f55 d2bf
00000310: 0aa9 bda6 a9bf d13f 9428 1dff 30fe f83f
00000320: a4b6 4bf8 9252 b13f a920 4668 d23c cd3f
00000330: c8ab 0862 39b0 bb3f 61ea 9427 35ab 03c0
00000340: 8783 9168 9930 cbbf 43aa 8d5e 0b83 fa3f
00000350: 8986 8583 f19e 0240 ea48 3499 c2ae d23f
00000360: 6799 290b 627b ba3f d90f ce66 3663 f63f
00000370: 8d50 3c11 da53 d0bf 498e 9ecf 1a3f b03f
00000380: 976c 959e 7167 e33f 2e22 2c66 71fb f43f
00000390: 93cd 2d01 168e c5bf c234 fb68 d21a d3bf
000003a0: 24a6 2778 ec5c eabf 7545 eed7 608a e13f
000003b0: ea72 6ee4 2723 d83f d023 f341 4a51 f53f
000003c0: 0e0a 1848 335a 0440 f6d8 4c08 d886 f03f
000003d0: 8960 05a3 6b20 f23f 8a74 3ad0 4f68 0340
000003e0: 7e09 9fa2 44f0 fb3f 40fb de9d 3006 f5bf
000003f0: f7f4 d352 e4e0 e83f d465 42dd 530c f8bf
00000400: 7aa7 5aa9 f917 f4bf 649e f016 369f ebbf
00000410: e75b 1d9e 3b15 e1bf 3caf 5c56 d147 e0bf
00000420: c797 0f22 1662 e3bf 9f81 5301 7aee f3bf
00000430: 389f ab30 a9b2 d6bf 254a ccbb 6648 eebf
00000440: 5ad7 45d5 0430 f0bf f82e 34f3 3268 01c0
00000450: e96f 1e99 af21 f5bf a28c 2d91 d2fb edbf
00000460: 9544 c435 de9e f1bf 80e2 d7f8 1fa6 c8bf
00000470: 3a76 7d15 ce13 f0bf 906e 34b0 9d6a d6bf
00000480: e71b c1b4 9b98 bfbf 72ce 534a 217d f0bf
00000490: 6d99 9936 5f29 f4bf a51b 3f9d fb7f d0bf
000004a0: 4d14 4f40 e76d e2bf 7f69 dae6 cd58 eabf
000004b0: dcbc 17ef 81c6 d5bf fe44 5193 375a ebbf
000004c0: 764e 0be1 5923 f1bf 21d5 e085 93f2 00c0
000004d0: 9eff 1e5e 43db f1bf 82e3 b90e 1bad dabf
000004e0: 7af4 2e32 ca2a febf ec3d c091 8d9e cdbf
000004f0: 4b99 3405 0e22 fcbf be3c e994 83a4 e0bf
00000500: 6e65 f786 a8da f9bf a505 e43e 688f ecbf
00000510: 3e97 94d9 6f0b d9bf 0ead bda8 ce1d efbf
00000520: 2580 b2d9 e228 ebbf 1ec0 c314 8b89 e5bf
00000530: 01fd 23ef c199 eebf 82aa 5c33 915c d8bf
00000540: 12eb 2c6d fa19 c2bf d7fc f159 9aae f4bf
00000550: ccc9 73ba 7efc ebbf fa50 8357 736f dbbf
00000560: 7f86 1508 ce92 a73f 4bab 9ca6 26e8 e9bf
00000570: f801 6418 a21d c0bf 7cd5 bba6 e5f6 e0bf
00000580: 0a5e 5636 12b6 e1bf 7909 ae4a 57a5 ebbf
00000590: 98be 5d2c a250 0bc0 0fa2 0dd2 a244 fbbf
000005a0: 8da9 79d1 c66f e0bf f867 1831 cf78 dcbf
000005b0: a7d9 33bb 9258 e5bf c00c d8e3 30d7 f6bf
000005c0: c595 7e4e 813e d7bf 3692 646a 857a e0bf
000005d0: 2fdc 31a0 f0b8 f4bf a543 e4f3 eaae fdbf
000005e0: 9241 d3da 33eb f1bf 99ae 7f4d 1d46 dfbf
000005f0: 41d5 19c5 fbc3 02c0 ea3c 4420 b134 d43f
00000600: b5ff cb09 53fc f53f 436c d8a0 d019 e03f
00000610: 7866 a09a 29eb c93f 301b 1ff3 3587 f13f
00000620: 88bd d338 22ea db3f c402 dd65 8fe5 e93f
00000630: 6eae fa07 46d4 dd3f 8e3a 8c5c 12e1 a43f
00000640: 8657 364d 6203 dcbf aa0b 826e c18a f83f
00000650: a31c 2cdd dfa8 f73f 66a5 18ab 276f fd3f
00000660: 9016 174f 94a6 f83f 0321 5893 d7f5 d63f
00000670: 6f51 4d49 5a3b f93f ff8a c121 da76 f13f
00000680: 66f1 934e 41ec f03f bb69 5a2b fbf7 ea3f
00000690: 38e9 23af eb01 f63f 3ff7 ac0d 0f47 e03f
000006a0: b306 530a 9312 e73f 0472 0fab c8f6 e73f
000006b0: 7c0d 2769 9f5e e03f f3af ae40 ef7f d1bf
000006c0: 2ad7 7263 e759 f53f f058 c230 a838 ea3f
000006d0: fef3 f7f4 82e6 f43f 769a a917 4d0e d5bf
000006e0: c3ea df56 677d e83f 6d93 899a e335 cebf
000006f0: 5cca 426c cac7 fe3f 3bdc f334 e8fd c23f
00000700: c7cc b2bd 4b79 0340 bc6f 0011 f1c4 e03f
00000710: 9c06 9153 ec8c c23f f7ce 0108 c9fd ee3f
00000720: 24c9 f309 e154 d8bf 9fec 28ee 7fbe ba3f
00000730: 55e4 d087 fa41 d43f 737d d8fc 262d f2bf
00000740: ab52 1b6f bc45 adbf 2eae 40a6 c297 f43f
00000750: 7ac8 09ac dc89 fd3f c5fb a6cd 83c5 ec3f
00000760: 82b1 35f8 affd d6bf 24ba a170 c497 f03f
00000770: 0dfc 513a 391c e0bf fd28 4cde 776a e63f
00000780: 4dcf 1c3d 914d f0bf bd29 c072 6edc f03f
00000790: 0171 da2a 6c64 ee3f d5c4 0c82 d498 993f
000007a0: 941b 8f02 bf71 d73f 7b8a fb11 b3ce 9cbf
000007b0: acd2 d27b e5da c6bf b637 e4b7 a6bb ee3f
000007c0: 7f5e e0b6 75f1 df3f 0619 0c25 d265 e23f
000007d0: bd0a 3365 09e3 ef3f d9c1 df2b 17e9 ff3f
000007e0: b820 f414 9f0f f73f fec3 590c 29c5 efbf
000007f0: 2fe1 680d 5340 f63f 62fe 6c75 9dd1 fabf
-0.9561090658127747 -0.3531965795243482 -0.08187718755179582 -0.21327607538447957 -0.4716933523431991 -0.5356347668256368 -0.1015384442675026 -1.3622706249418353
-0.9995155919072126 -1.275375323267099 -0.06376896316418806 -1.2325975227953125 -0.48686837200495897 -0.10612267104000563 -0.6608386550727127 -0.08258628769382674
0.457160943763446 -0.5360309164451097 -1.2075551612533844 0.16961128184245652 -0.20686934640172763 -0.6378366494399963 -0.4903301535185736 0.6004952426644342
-0.7321603201776457 -2.393289903336741 -1.0834841316999524 -1.0394793715208908 -2.4232193186286812 -0.2443626826977816 -1.6249477401090635 -0.950684702282458
-1.6533513800278286 -0.061694166244747516 -0.12247353129667261 -1.1183573508409177 -0.1654023467769659 -0.3920024409269156 -0.8746373974019772 0.6486906978013552
0.6731826093483436 -1.3951772259084891 -1.3262084604560802 -0.5409224639279369 0.559580169629313 -1.2814682138353195 -1.7095203305212607 0.22644714597993668
-1.3091483536095252 -0.5387571695353462 -3.251702978821255 -1.6948431798140215 -0.5829217326722438 -0.260423671690678 -0.9799530350241175 -1.4987614544122023
-1.2732078588429898 -0.9540355386398224 -1.8300213095078297 -1.8479854107010265 -1.1895236810981886 -0.6853451160530485 -2.068139147898758 0.03262413199370877
1.9136352609331644 0.5014725175178006 0.3204225870390994 1.2065484744958965 0.6071919086991472 0.7570615114086637 1.0336730033541257 0.16717025210701617
-0.6139614633821348 1.1599247087743925 0.926484278004805 2.0667254679599503 2.0830760172283167 -0.4204624866186084 1.833325138781958 1.2894553044865724
0.4700772862807906 1.2614212090928827 1.9216000575272691 0.6415284997349626 0.7078061997137498 0.6549571359928005 0.45248592872182897 -0.5708428627088049
0.7843074788823768 0.4487620717425812 1.6352966558316626 -0.2383533770622491 1.381950679143491 -0.0231617096784905 1.6880635945277191 0.397896643666376
2.421186178442084 -0.28644178629612516 0.27732316287314573 1.5620584454905257 0.0676662307921228 0.22841863719464087 0.10815771716504152 -2.458597478134195
-0.21242063146476317 1.6569932645312668 2.3276090884326703 0.2919165130744107 0.10344517490884685 1.3992218032662918 -0.25511790927090133 0.06346290177185056
0.6063774201715145 1.3113874426945915 -0.16839861924709662 -0.2985120797355415 -0.8238432261252382 0.5481418816945466 0.37714574153669267 1.3323462082064346
2.5440431244217114 1.0329208683229445 1.132915150452421 2.4259334819640275 1.746159205664838 -1.3140112082325714 0.7774526231511619 -1.5030096667236323
-1.255853330173038 -0.8631849716229678 -0.5338419044663824 -0.5087668120154158 -0.6057234444858687 -1.245721821957069 -0.35465459588020876 -0.9463380496911823
-1.0117233592004227 -2.1758784294414646 -1.3207241040427056 -0.9369900546556844 -1.1012861347447018 -0.19256972933341743 -1.0048352088409858 -0.35025732238293816
-0.12342236674258765 -1.0305493262684675 -1.260100568085899 -0.2578114543543342 -0.5759159332307121 -0.8233403691149731 -0.3402409396066568 -0.8547628285688516
-1.0711306372440084 -2.118445440219731 -1.1160310436825749 -0.41681553304766095 -1.885446735409714 -0.23140115372414927 -1.7583141520822945 -0.5200822742862312
-1.615883376324145 -0.8925057628950311 -0.3913230538185991 -0.9723885818215494 -0.8487409831905138 -0.6730399518546653 -0.9562692328180732 -0.38064985290353814
-0.14141779261429882 -1.292627669666947 -0.8745721475264019 -0.42867740198313664 0.04604190682108555 -0.8095887426510243 -0.12590433302831605 -0.530138803149995
-0.5534754811550908 -0.8639332254972906 -3.414371821032386 -1.7042568402486074 -0.5136446086228702 -0.44487361711946916 -0.6670621544170005 -1.4275368595270237
-0.3631900087878786 -0.5149561956391782 -1.295151353607945 -1.8552045371072634 -1.1199224994526031 -0.4886544472526367 -2.3456950567730535 0.31571605826407156
1.3741026289644485 0.503151239539314 0.20248909044385122 1.0955104348119669 0.43616538571856056 0.8092724790113484 0.46608114985676863 0.04077966098531248
-0.43770654239903484 1.5338758770674112 1.4787291183036266 1.8396374400566287 1.5406687821827383 0.35875501050078656 1.5769904006347948 1.091516620501977
1.0576794690560631 0.8427711340657916 1.3754689065377317 0.5086741702177519 0.7210173799178022 0.748874982931341 0.5115506223450406 -0.27343350712430875
1.3344491848669784 0.8194161369636088 1.306277233990158 -0.3289978724555235 0.7653080651064886 -0.23601956411144034 1.9237770298901955 0.14837362847876698
2.434226495760956 0.5240407306732702 0.14492563324352126 0.9684796482456183 -0.38018060657408825 0.1044692951626751 0.31652701628951735 -1.1360235096725233
-0.057172668993790886 1.287050866531796 1.8461577148669037 0.8991107002874449 -0.3592338489459267 1.0370525741269683 -0.5034452570979525 0.700496610808187
-1.0189373385628244 1.053816269154239 0.9497586094835527 0.02499706310044732 0.3663175129881264 -0.028132245991296472 -0.17855518861838016 0.9604066459303258
0.4991125379469636 0.5749293063716159 0.9964644409704629 1.9944068635778562 1.4413138216496417 -0.9928174248908588 1.390704204923235 -1.6761755549377075

layers.0.bias f8 [128]
00000000: c96e 5c92 1a1e 02c0 5a85 efba 6377 02c0
00000010: 3b0a 0787 5f02 0240 d85c bd12 fea3 e73f
00000020: d66f 0c7c 87a3 963f 9495 343d f721 fbbf
00000030: 0fee f0df d109 d93f 6b7e 83a9 db1c 0040
00000040: 822f 6eec f842 c13f f4a7 0417 a854 e93f
00000050: dda1 f0f2 7dd2 f23f 91cd 8f13 8eeb f63f
00000060: facf c45b 3bc5 06c0 b9ae 6eb3 2ad1 fdbf
00000070: 20e9 4175 9dd9 d0bf 7165 ed88 3bd4 0240
00000080: 1741 14d3 d544 f43f 5d2d 4413 d9f0 c2bf
00000090: ea51 46a3 9170 0040 2171 86d1 9490 d7bf
000000a0: b75b 6cfc 3b98 ec3f b903 ac70 0e42 f1bf
000000b0: bc02 0c04 b18a e43f 0847 d4e7 e2a0 e4bf
000000c0: 4ff4 4cc6 f691 ea3f 922f b895 a19a 04c0
000000d0: c253 af6a 3bd9 e03f 68a5 5e19 a6d1 e93f
000000e0: 9e82 d1ae 88af ecbf 5d52 8c53 3162 efbf
000000f0: 2e1c cef9 bab6 fbbf 78f5 147e 54d2 f33f
00000100: 2279 78b5 3e07 c53f 1bf6 d23a e8b2 c7bf
00000110: 2693 cdff 2a37 e83f 82f0 ceaa 8aa1 b73f
00000120: e0de 6196 4de5 0040 4dc9 6441 2f54 03c0
00000130: 77ce 78bb 7e85 e4bf 40e2 a2f0 2818 f4bf
00000140: 6586 0288 35d5 e6bf 9c8a 8284 4832 f83f
00000150: 213c 2c34 3943 00c0 45cb 325e a54a e0bf
00000160: 41d2 a45a 8f85 00c0 c9ea ee5c 09c6 c7bf
00000170: 3bf4 e270 0f12 bd3f d61f 6d44 6416 b93f
00000180: 194c 74ad 994c e03f c7ba e0b4 07c2 b73f
00000190: ae89 f9ed 6d01 04c0 5c49 69be 46fb d13f
000001a0: d623 3c01 45a5 fd3f 7089 8792 2964 0140
000001b0: 324f f10f 8e73 e0bf f43f 7e66 006b f13f
000001c0: 5802 ff26 7954 fe3f 0993 be29 468a ee3f
000001d0: 5b12 ba04 afc1 d43f d9b1 cceb ad31 e1bf
000001e0: fc65 f4fc b428 01c0 0ee0 c1eb 0ae5 f83f
000001f0: 4852 97da 5d18 f63f 4291 6a00 02b3 c93f
00000200: a87f ce84 2eee e0bf cbb2 f458 6199 e03f
00000210: 99b8 551c 0f90 b9bf ce8c 57a3 25fc dd3f
00000220: cfce 2ee7 b636 f73f fa50 ec3d 61c2 f43f
00000230: 9b34 5fcf ef04 ffbf d206 a73d 7602 e63f
00000240: a5ea 79f7 28df f5bf c49f f91b b0e0 ddbf
00000250: 3cd2 5212 dec6 f9bf ca3e a047 67f5 f53f
00000260: c8ac 79c3 39a7 e2bf 4e27 b4b4 3e7c d5bf
00000270: f447 2ea0 417c eebf 112f 685d cda5 f63f
00000280: 6601 cd77 b7cc a93f 815c 3bc6 c346 cdbf
00000290: 3408 e9f3 f40e 0040 df89 ca23 8886 ed3f
000002a0: f1a9 90b1 6ac5 de3f 80fa fe0a d4ef f0bf
000002b0: efc8 0083 4e3d f0bf 038b e96d c5c8 fbbf
000002c0: f271 36ae 9a7a ff3f f547 b771 e928 f1bf
000002d0: 4773 0f31 58cc fdbf 3d46 b41b b710 fbbf
000002e0: 6871 2552 dd74 01c0 04b7 56dc f510 afbf
000002f0: ecfa a9f5 bf8e 00c0 aae6 1f10 e938 d6bf
00000300: a03d 723e a17d f0bf b83f 62a5 b99f f43f
00000310: b9f8 c7d0 ba32 fb3f d0ed 3df1 20ae e73f
00000320: 3eb7 56fd 4914 e73f e44b 60fd 18fd 08c0
00000330: b6f7 1ce5 ffaa ed3f f66f 011d 00de d4bf
00000340: e7b6 4f2e ae00 fb3f 285e f551 84fb d3bf
00000350: 3ad4 6d5b b1ed ffbf 8fe4 3d71 9a5f e7bf
00000360: a017 e766 a2c6 cdbf a5e5 a2f6 6f96 fa3f
00000370: f96d 5058 309e f63f 2ff7 d904 88e3 f5bf
00000380: 37d7 52aa 4734 c4bf 8c1a a443 f159 fdbf
00000390: e1af 2268 c5c1 e5bf 5f62 3faa c32f d33f
000003a0: 7225 8fc2 d2ab a7bf 1dbc d542 ef13 f1bf
000003b0: 2b00 5d99 2e7c f73f 7b3e 92ff 8f81 d13f
000003c0: dafc cae0 afdd eebf f6b2 d2d9 69a7 ed3f
000003d0: 0593 87bb b0c3 f53f 6dbd b107 9c5e d6bf
000003e0: 3f29 2132 1625 c53f 3521 b195 2981 e53f
000003f0: 39d6 4733 8488 d3bf bb20 ecd4 63bf 73bf
-2.2646991190393675 -2.3082956890436153 2.2511587666533877 0.738768612481091 0.022108189531635812 -1.6957924261890627 0.3912243544507143 2.0140908473256807
0.1348563341565488 0.7915840577672939 1.1763896455614635 1.4325085415010543 -2.8463046235501652 -1.863566113383895 -0.2632821698276917 2.3536291787574375
1.2668054814603857 -0.14797509613741058 2.054965282042976 -0.36819954358522194 0.8935832910673217 -1.0786270524260841 0.6419301108399718 -0.6446394470133052
0.830317866617074 -2.5755035111269047 0.5265175899208929 0.8068418975355316 -0.8964274801656591 -0.9807364112662743 -1.7321119077694322 1.2388501095841473
0.16428359852665958 -0.1851473128535169 0.7567343708184111 0.09230868024946129 2.1119643925302256 -2.4161057576067493 -0.6412957822380595 -1.255898418412599
-0.7135265022699967 1.5122761894387287 -2.0328239513396658 -0.5091120567143227 -2.065214832453677 -0.18573109662778212 0.1135568285562422 0.09799791975558433
0.5093506229189898 0.09280441442454467 -2.500697955301084 0.28096169085360656 1.8528490112532743 2.1739074180233544 -0.5141058265093987 1.088623428691787
1.895623352364188 0.9543791594811363 0.324321512809808 -0.5373143773518293 -2.1448764574131456 1.5559186181326399 1.3809488810267272 0.2007753850967991
-0.5290749162559125 0.5187231767100341 -0.09985441629189253 0.46851483298651153 1.4508580236987887 1.2974560183402546 -1.938705263182135 0.6878005222463008
-1.3669824282684797 -0.4668388627237585 -1.611051627708675 1.3724129484070766 -0.5829132860066233 -0.33570830962036247 -0.9526680115252462 1.4154790543279356
0.05038998925602094 -0.22872206858912494 2.0073031478396164 0.9226723383947578 0.48079936352101443 -1.0585518292934069 -1.0149674527461305 -1.7365164082954727
1.967432671087519 -1.0724882547406172 -1.8623887936038999 -1.6915808756060777 -2.182062761085195 -0.06067627253228916 -2.0697020714281873 -0.34722353529614713
-1.0306713523203612 1.288995405226144 1.699885192443203 0.7400059425121359 0.721226687242712 -3.123582820416674 0.9271239733568482 -0.3260498317010837
1.6876661118544065 -0.3122263718009628 -1.9955304690786435 -0.7304203235390946 -0.23262434029146295 1.6617278703909986 1.4136203241131382 -1.3680496396550088
-0.15784545723516327 -1.834458603117727 -0.6799037012001429 0.2997903025221031 -0.04623278260221299 -1.0673668490160317 1.467817877841308 0.27353286703235086
-0.9645614042746289 0.9266862158161462 1.360275967156839 -0.349524505151712 0.1651942963383792 0.6720168994589019 -0.3052073002612335 -0.004821195571601484

layers.1.weight f8 [100, 128]
00000000: 1d35 d099 e9ef aabf ed26 7b40 4f74 a63f
00000010: 7479 c99b 1ea5 9ebf 110b a64d 28cc b9bf
00000020: 79a7 0d63 4e22 be3f 13e5 b6c8 bcc6 873f
00000030: d569 0a81 7cfc b3bf 3d4e a8f0 52d8 bdbf
00000040: 0e7c 4865 ed81 bb3f 64db d8ac 9153 96bf
00000050: 12e1 178b a2af 9dbf 7900 69d0 6761 b13f
00000060: 5952 7839 4585 a23f a2c0 d700 b78e b23f
00000070: 42cc 8356 3d2b a53f 8e80 6ed7 476a a43f
00000080: 32fd 8d83 e197 abbf 4bed 741f a6d7 ad3f
00000090: 454a e983 988a 96bf 8fe9 05b6 7443 cbbf
000000a0: 3a62 d5f4 25e2 a6bf 53e1 49ba 4ce3 a2bf
000000b0: 44c9 68e8 8b8c bdbf 6332 d320 4482 c03f
000000c0: c894 faed d19a b83f f5d7 0c5c 5317 49bf
000000d0: f03b 77e6 0dc5 c13f ab26 bb97 90dc ae3f
000000e0: fd9a e0e8 790c 8bbf 48af be85 e97c bebf
000000f0: 8824 19bf bc6f b3bf 415b 8dd7 df02 b7bf
00000100: 28c7 454b 6da2 b0bf 3e8e db9f 981a 7b3f
00000110: a7ec 1e73 bdd7 ba3f b7e6 7c71 05cf c43f
00000120: 23a3 2608 365b 8a3f 86a0 5168 9dba 943f
00000130: 32d9 116e ad10 b03f 0752 8c28 0649 8cbf
00000140: 290d 3de8 b0b3 b1bf 70f7 7426 cd8b c93f
00000150: e97e 9e23 424b c4bf ee49 a892 3d3e 72bf
00000160: 68f7 290f 7c2e b3bf 6051 30ac 4d72 cf3f
00000170: 543d 8777 8163 b0bf 98af e017 363f d03f
00000180: 169e 5afa 9790 c4bf 8362 148e cb41 a73f
00000190: cbaa d727 d7c9 703f 75da e168 23d1 b03f
000001a0: 9d2d ef23 4af1 aabf ef52 fc8b 47d9 963f
000001b0: e36d f9e2 062a a4bf ecc2 79d9 5398 99bf
000001c0: 06f7 ed93 0a7c 583f e8f5 6122 bc73 bbbf
000001d0: b569 6af2 a567 ad3f 23f0 1851 8e24 b1bf
000001e0: fb92 7dfd 0ae3 bf3f dd74 6a3b 8039 85bf
000001f0: 0211 0d9b 4471 babf 6812 e5ea fc51 a13f
00000200: eeca 4ff1 90fd b0bf 08ce 6170 0a89 6f3f
00000210: 7a2f 7f8f fce0 94bf 3f1a 0df5 469d b13f
00000220: e737 0282 0036 9e3f 7479 bb87 949b bfbf
00000230: 361d f772 ad5a c9bf d749 636f 063a c03f
00000240: 954e 0d8f 853c b23f 777d 205a f532 b33f
00000250: 7a81 16ff 29fb 8e3f e0ac 4cc9 5e4e 9a3f
00000260: 869e 0c0d 6c49 94bf bb1c 62cf bceb b73f
00000270: e8d8 c1c1 bd1e 853f 27ef b3e2 eab2 a9bf
00000280: 4f96 f183 e189 bebf 5a4f 470e 7eba c4bf
00000290: 68f1 9bd0 b635 c0bf fef3 3d84 1f40 b0bf
000002a0: 908a 001f 38c4 c43f 44ed 1580 3d8c b3bf
000002b0: 57ce b8cf 842c ca3f dde1 9d41 466c 96bf
000002c0: 2114 ba3a 0162 b63f fdb6 93ee da31 c2bf
000002d0: 2e55 e3b9 1a7c b13f 0029 70b4 b019 9dbf
000002e0: b1eb 36e1 0a4c b0bf f3ea 3ef3 9085 963f
000002f0: 03c2 c323 48c7 b5bf e7de 1f26 2b9e 94bf
00000300: bf05 85de ae01 773f 7980 ec97 891b b1bf
00000310: c5b5 64a6 63a9 053f d0f9 c93f 66ed b2bf
00000320: 6229 9932 8a5d b1bf 91dc 306b f7de b43f
00000330: 6b16 c6a5 54bd c1bf 77c2 806e 32fb 97bf
00000340: fbc2 3991 9dd2 883f 31ee b042 57a6 babf
00000350: 86b7 0724 b0e2 89bf d613 b3b4 08c1 9e3f
00000360: 119e 62f0 60d9 c23f 8f9a dc6b 607a b13f
00000370: 7656 2f54 8777 98bf 3f07 1d67 4452 993f
00000380: adba a960 d340 973f 3615 a498 aa85 a1bf
00000390: b6ef 4a84 1263 b2bf 6895 3cf4 48d7 95bf
000003a0: b0ac 1e48 163e b2bf 2b70 63f4 9e05 b0bf
000003b0: 62fb 539e 66aa a93f 3357 e567 23f4 b3bf
000003c0: f979 76e0 50d5 96bf 70e7 c9a9 7ca4 9dbf
000003d0: 0ab9 7fe2 fe4a c23f cdf6 c166 79a6 a13f
000003e0: d824 697f cbd3 bdbf 0c10 dbf1 7038 a3bf
000003f0: a0eb 0b0f 3989 bf3f 6ebf 1b79 772a c23f
00000400: 6d05 deac d9d3 c53f f740 0b1f 413e eb3f
00000410: 28f0 c79e a85a c9bf 884e 2f56 caa4 db3f
00000420: 901b 5238 e49a e4bf 827f 6d61 7b2d e13f
00000430: ed9b d408 2d51 e6bf 450e 3fa2 ae28 ecbf
00000440: 0598 39f3 e1a0 ad3f 4794 a38d 8214 d5bf
00000450: 9a84 5c0e cbb5 d1bf 4ef1 9f8e 26be c1bf
00000460: 3494 972b cf19 ef3f a96e 5ad2 c7d3 d23f
00000470: 8f28 f1cf 57ff a73f 2f7b 5d1c 2683 d3bf
00000480: 6475 45f9 d301 b23f 491c 392f f34c dc3f
00000490: 20bf ce3d 2b49 ddbf 8cf4 d462 30f4 d2bf
000004a0: 08c6 2a19 a1a4 e5bf c55a fcd7 a748 90bf
000004b0: 78f3 3e81 2efe c6bf 181e 1d6d f156 dfbf
000004c0: 5a21 24be b718 c6bf d333 50d2 6a07 e83f
000004d0: 03e1 c173 2f31 d53f 22af 5cdf 63e3 a73f
000004e0: c5a6 04bd 1cdb d33f 80b4 2e3c bc12 cb3f
000004f0: 192d a078 c8e8 b9bf 6e64 8631 5709 e0bf
00000500: a10b 0b6e 9fe6 efbf 2b17 076c 35e7 b93f
00000510: bc2e bdc2 40a8 d93f 1650 f3e1 48ed c53f
00000520: 21d6 f94f e783 ebbf 5eda 6813 b148 e73f
00000530: 4aba db66 85e2 fb3f 6f6a fc73 26ae d53f
00000540: db72 45a5 59af d4bf f231 c0a7 6946 99bf
00000550: 8da5 3aaf 58f9 813f aa5a 9662 9f15 b93f
00000560: dc93 7524 a722 f33f 8118 883f 4146 b7bf
00000570: db6e 116b bce1 dbbf 86f6 ca60 4c56 d23f
00000580: 9d49 b8a3 444a e63f a728 a549 2ae5 d53f
00000590: ed14 410f 6a69 f23f 6aaf c074 9d60 ebbf
000005a0: 82fe e938 810f e9bf 8404 2eb9 6847 d43f
000005b0: c65d 5f74 4537 b1bf 1ebe d01e 10a5 e7bf
000005c0: b0b9 d793 febf ecbf cb88 324e 3093 c43f
000005d0: fbc5 2fed 7e3b ed3f d84c b44c ffda d0bf
000005e0: 6030 0c16 71ae a8bf 8d76 20e1 415c efbf
000005f0: 3b38 768c 9aee f0bf aadc 350d bdb8 753f
00000600: 0983 0961 99fc dd3f 9ce8 3da9 4834 e23f
00000610: a963 bc39 e35f b73f 011f 2747 4944 a63f
00000620: 3b12 b014 6bff e13f 9356 47c2 b4b1 c8bf
00000630: e951 d34c 8daf dd3f 50f2 b54a 0dfd d13f
00000640: 2e57 c684 d638 d73f 9c51 95c5 ea53 d73f
00000650: 6edb 7ab4 21ae e93f 8c52 2b2b c7f2 bd3f
00000660: d159 8d05 51f8 bfbf 914d 4263 e179 c2bf
00000670: 9544 77a2 a563 e3bf 3789 db3d a233 e2bf
00000680: 56a5 4d9a 64e0 b63f 36ef 4c77 892e e13f
00000690: 70db c90d 3922 d13f fcc8 1755 1804 f9bf
000006a0: 6c67 d7c3 0453 dbbf 301f dd48 e570 aabf
000006b0: 1d6c 14e8 7591 bf3f 191f 2550 9e62 b13f
000006c0: 3384 0c8c c8aa cfbf de2a c06b 6bab d5bf
000006d0: 98d5 1a65 cd8a e03f 3f33 5eb6 d7d9 da3f
000006e0: 38cf 3251 be2d d1bf 96f4 2c00 e489 f13f
000006f0: 19a7 ff7a 5bd2 cd3f be4d 57c3 ff39 e13f
00000700: ceaa e0cd 5d8e e03f b1db f619 31bc b83f
00000710: 3254 f1a3 9e80 d4bf f953 4a88 5d66 c1bf
00000720: f728 2975 c5d6 ecbf 3eee 8bd7 f830 e53f
00000730: c901 1720 6848 d13f 966b 805f ddc5 dcbf
00000740: abbf ddad c4ec ddbf b489 be88 cf21 c5bf
00000750: ac85 17ca 7717 f93f deea 715d 4f9d dcbf
00000760: 754d 38f6 6d81 f33f a476 890f 290d ddbf
00000770: 50fd 2a18 3c6f ffbf d801 bb82 2703 e5bf
00000780: 6d8f 4506 ec6e d6bf e2a6 596b ae84 e03f
00000790: 62ec ef13 8b80 d43f 7799 dd20 c3c1 d0bf
000007a0: a1a2 07c7 e108 e23f ab60 e6c4 489a a43f
000007b0: f24c 1369 e8bf c83f 0afa 4977 c39b c43f
000007c0: fc22 cdce 6930 d33f 88d1 38f8 8d47 e8bf
000007d0: 47a7 fca1 c6e0 c8bf 650f 8b73 e4af e9bf
000007e0: 718b 859f 5298 b8bf 535f 6f5b 1a5e f8bf
000007f0: f58b 0f42 511f c7bf 5f81 c6a9 f3b8 e9bf
-0.05261163714031112 0.043856121655677295 -0.029926756151661363 -0.10077144523351601 0.11771097105306962 0.011609530330007922 -0.07807138586432612 -0.11658209205079913
0.10745128367169363 -0.021803165602445232 -0.028990306605892142 0.06789254034174687 0.036173022523290306 0.07249015589309463 0.041345516978161814 0.03987335686474679
-0.05389313441173228 0.058285895671782294 -0.022013075877405325 -0.21299609077307166 -0.04469412435236504 -0.03689040922194189 -0.1154258196263856 0.12897540667326543
0.09611236629514786 -0.0007657200841097988 0.13882611993037086 0.06027652599511887 -0.013207390231469324 -0.11909350886588499 -0.07592372575267536 -0.08988760960106125
-0.06497843826016647 0.006617160977586743 0.10485443172994967 0.16256778756524223 0.012869283794161362 0.02024312924587026 0.06275447785614999 -0.013811157333784697
-0.06914811773190323 0.19957889917162275 -0.15854670275893248 -0.004453888434471127 -0.07492804880345505 0.24567576320317652 -0.06401833694620979 0.2538581116848433
-0.1606626484328763 0.04542385205622159 0.004098740054795778 0.065691197496429 -0.052622143637189846 0.02231323043732208 -0.03938313980753685 -0.024995145939501848
0.0014944175051989097 -0.10723472442074178 0.057431398240811594 -0.06696404914777125 0.12455815018399712 -0.010363580525615418 -0.10329083238054085 0.033828643487628096
-0.06636911288641631 0.003849525822312353 -0.020389505632734985 0.06880610926337115 0.029502876219844067 -0.12346771539475815 -0.19807975877322698 0.1267707866559948
0.07123598806838978 0.07499631357540247 0.015127494904675787 0.02568958381304476 -0.019811332985368434 0.09344081938808106 0.010312540507794357 -0.05019315736168855
-0.11929139586717351 -0.1619412965507035 -0.12663922487252965 -0.06347844103397901 0.1622381354691993 -0.07635864617434601 0.20448360579176736 -0.021897409205367303
0.08743293460618463 -0.1421464600493251 0.06829993284494115 -0.028418313038891974 -0.06366031645204263 0.021993889662307486 -0.08507204888497459 -0.02013461513703776
0.00561683948791497 -0.0668264385135461 4.1316369605897146e-05 -0.07393492753360609 -0.0678335546046234 0.08152719847645275 -0.13859041304037886 -0.023419178003850818
0.012120467180666497 -0.10410066011621023 -0.012639404391815889 0.030033241299651646 0.14725887048301492 0.06827356942504025 -0.023893465531577417 0.024727886956731778
0.022708227896539302 -0.03422291863720732 -0.07182422380259265 -0.021329059512159715 -0.07125987301576475 -0.06258576838030254 0.05012818033900747 -0.07794400488395752
-0.022298110675928105 -0.028947780478552898 0.14291368541257327 0.03447322253576388 -0.11651298390019649 -0.03753998710956816 0.1231876050696159 0.1419209805821952
0.17052765789780314 0.8513494116141648 -0.19807918313006323 0.43193300644382093 -0.6439076519026106 0.5368019965062418 -0.697409169432715 -0.8799660843728324
0.057868061962651075 -0.3293768294518639 -0.2767207756279021 -0.13861543621158962 0.9719005443008712 0.29417605917272255 0.046869987615154256 -0.3048796917918705
0.07034039340711257 0.44219665156964943 -0.4575908759679681 -0.2961541142611359 -0.676346348909818 -0.015902159269070255 -0.1796320086558827 -0.48968158393515315
-0.17262932571635298 0.7509054286653004 0.3311270361368914 0.046656723991274754 0.3102485509758533 0.21150925577731883 -0.10120823807681169 -0.5011402098927087
-0.9969021939544868 0.10118421447176888 0.4008943464038841 0.17130385430084577 -0.8598515092878111 0.7276234988301657 1.7428030031111512 0.3387542851138851
-0.3232025255181676 -0.024682665694898583 0.008776371810500528 0.09798618466298117 1.1959601806822695 -0.09091575432839429 -0.43565283256405757 0.2865172333948539
0.6965659330037856 0.3421121329489644 1.1507359119289575 -0.8555438309026446 -0.7831426726915682 0.31685846408806406 -0.06724962321401681 -0.7388992883551884
-0.898436821704129 0.1607418424437753 0.9135126717139309 -0.26336653223661477 -0.04820588487754729 -0.9800118824966418 -1.0582528578556907 0.005303133471321756
0.4685424277904962 0.5688823037628654 0.09130687865798727 0.04348973268093737 0.5624289897974174 -0.19292315946829727 0.46383984091269653 0.2810700635525665
0.3628441139820663 0.36449689193002555 0.802506306171251 0.11698574832855452 -0.12488275895643787 -0.1443444952643458 -0.6059139416849059 -0.5688029487758176
0.08936146514101515 0.5369307832802181 0.2677137980130544 -1.5634997676793878 -0.4269420540346036 -0.05164257540178452 0.12331330219278454 0.06791104752221279
-0.24739939535450758 -0.33858762285733046 0.5169436430648373 0.4195460587441637 -0.26841695718325154 1.096164704023328 0.23298209672730577 0.5383299651388638
0.5173787137076375 0.09662157901662628 -0.3203503228190271 -0.13593644289781517 -0.901217202024127 0.6622280321020708 0.27004435666824783 -0.4495767052300662
-0.4675761888420264 -0.1650943200775835 1.568229474469585 -0.44710144162642773 1.2190990083662119 -0.45392824666292086 -1.9646569198665311 -0.6566350510911958
-0.35052013981316216 0.5161964508708616 0.32034565875046017 -0.2618263073876714 0.5635842215825343 0.0402395954471911 0.19335656290659348 0.16100352596909345
0.29982991404953885 -0.7587346885762125 -0.19435961637037222 -0.8027212387755581 -0.09607426065990211 -1.5229743549043249 -0.18064323163625287 -0.8038271251607901

layers.1.bias f8 [100]
00000000: c670 8df8 479e a2bf d935 51d8 2aee d1bf
00000010: e4fc 0044 cbfd 863f 0735 68ef 4a7a b9bf
00000020: a1e6 11de 9de8 86bf 41d7 fc98 203b e23f
00000030: d651 79dc c6ea a0bf ec5a 44a4 47e1 cf3f
00000040: 7c18 bdcf 69a0 bd3f 2661 80f9 3564 b13f
00000050: 89f0 e087 0ec1 943f 909f 52cf 5cc7 d93f
00000060: ee91 2cee 03a3 b3bf 1194 7cde 8aab 9e3f
00000070: 1244 db60 1673 b8bf 97b5 57a9 245c d7bf
00000080: 6884 d707 7b5f a33f 5615 fdf2 c38f cbbf
00000090: 9931 31a6 f6d6 6a3f c110 a114 b5fa b2bf
000000a0: a656 166c f97f 9f3f edd8 a197 14f5 c2bf
000000b0: bc40 36c5 1f81 c23f 6d7b a51a ce16 a43f
000000c0: 0c04 1c74 3759 553f ddae 116f 2a52 883f
000000d0: c995 a788 2317 c3bf 6905 6678 4ebd a03f
000000e0: a2ea 9f31 5746 af3f 582a 21e1 72ac c73f
000000f0: 8bbe 665c 34f5 aa3f d903 11fc 2cf3 afbf
00000100: 5c58 d67f 5e44 a0bf 34c0 fbd4 2eb7 4abf
00000110: a64f 5f62 eecb 9d3f 3253 eb26 f6c2 c4bf
00000120: 5cb5 16d7 fbd7 b6bf fc77 beea 7cf1 bdbf
00000130: d7ee 62ce 1083 b53f 3ddc e469 7de5 dabf
00000140: d1ef 6a8e 8f5d 85bf 480e 0741 777d 963f
00000150: 8a7b 089d 1a7a a03f 3901 0a20 016d 7c3f
00000160: 18e6 3177 74f9 b6bf 9089 fa38 fe2d b63f
00000170: 4e0b 700d fd27 a03f c289 88b7 3719 e6bf
00000180: f5e9 7d50 9c6b a33f e340 d59c 0858 b1bf
00000190: 0110 547e 1aea a63f 2e23 c94a 0e9b 53bf
000001a0: 1083 cf5d 2a7a 8cbf 91b2 6497 7582 963f
000001b0: d3f1 c941 1fe0 a1bf 904e 14e8 9651 84bf
000001c0: 942f ac57 976c e03f 91a6 ebc9 41b3 a03f
000001d0: 68f1 7dc5 8dbb bdbf 3c3c afd3 0775 88bf
000001e0: 99a8 3d05 d300 d3bf 790f f354 8dcb b4bf
000001f0: f969 b559 3e42 993f 83a4 e568 80a3 9c3f
00000200: 83c5 c7ca 6002 c33f eb94 d9e2 a10f c2bf
00000210: e5cf 4d89 0e2f a43f 140a 6d64 5145 d93f
00000220: f753 67c1 5726 bb3f 3549 deec 2470 cbbf
00000230: 4a45 1f5d 14be ee3f 13d1 a593 06a5 ccbf
00000240: 3a89 91c2 ba1e 87bf 0000 00a0 5709 a7bf
00000250: 3291 e325 00c1 d1bf 69cb 3853 5dd3 cbbf
00000260: 3319 2956 de24 d43f 761f fd39 4402 c73f
00000270: 07e6 fe15 915a a9bf 469c 1a15 19a8 74bf
00000280: 2279 f9e8 1dd9 c6bf 59d9 fc48 4791 adbf
00000290: e9fc 040e c29d e13f b24a 733c a011 c63f
000002a0: 0757 a848 a3cc c0bf 1f48 5758 3d8e b3bf
000002b0: da56 447d 53dc c0bf 2083 79fb 1028 d33f
000002c0: 8a40 6743 1b1b a8bf 36ce 40b6 856d b7bf
000002d0: cdd0 c15a 49ed babf 4889 c2e8 a8a3 a7bf
000002e0: 08a6 e63b 9d54 d13f 0b73 7749 6d72 973f
000002f0: 594c 986e 52a7 b5bf b29d 93b7 bfdc 5f3f
00000300: 0b64 d8cc e07f bcbf 204d b787 fa41 c63f
00000310: 8c24 4032 6660 71bf 3f1f f904 aa3f b03f
-0.03636383923614654 -0.2801615822289399 0.011226261151135515 -0.09952228875063805 -0.011185868587051674 0.5697176921882844 -0.033041204846685865 0.24906249543047154
0.11572896310562614 0.06793534604401383 0.020267703097701904 0.40279312368738207 -0.07670616688535123 0.029951257543093194 -0.09550609459553552 -0.36499897515644747
0.03783783407903557 -0.21532487263372485 0.0032763306967693137 -0.07413799050943039 0.030761620733378202 -0.14810426143566904 0.14456555490006007 0.039236489060150294
0.0013030091799353131 0.011875468744811208 -0.14914364025677987 0.03269429416378495 0.06108353119630762 0.18495021813062595 0.05265201213785272 -0.06240215851767745
-0.031771615128648206 -0.0008152941390715597 0.02909824824730802 -0.16219975376466206 -0.08923315049351771 -0.11696606379561553 0.08403115309459551 -0.42025695172509697
-0.010432359250778152 0.021962989181487452 0.032181579274257535 0.006939892192008573 -0.08974388036758574 0.08663929835396389 0.031555087938633805 -0.690578325713709
0.03793037874762099 -0.06774953679019151 0.044754817887252336 -0.0011966361590955532 -0.013904887187835807 0.021982037892643694 -0.03491304090582372 -0.009921244580744643
0.5132557594638336 0.032617622278690146 -0.11614309379178211 -0.011941968104933413 -0.2969253112011159 -0.08123095821343708 0.024666761613255848 0.02796745910874111
0.1485100736750092 -0.14110206200272243 0.03942151475976611 0.3948558312150976 0.10605381461876094 -0.21435987058482345 0.9607030695716869 -0.22378618440019035
-0.011289080679664044 -0.04499315097928047 -0.2774048204430698 -0.2173878342014988 0.3147502747928172 0.1797566683910607 -0.04951909440519491 -0.00504312322451656
-0.1785008800097297 -0.05774901166880637 0.5505075715845155 0.1724129004638449 -0.13124505088551805 -0.0763891544986852 -0.13172381989050203 0.2993204551512907
-0.0470818061618284 -0.09151492785968504 -0.10518320527791332 -0.04617050019557439 0.2707894406290454 0.022897441491170272 -0.08458438110419432 0.0019447204816119665
-0.11132626534562477 0.17388850809820955 -0.004242324070227298 0.06347143765844708

layers.3.weight f8 [100]
00000000: 41a2 711f aeac ee3f d41f 4339 7fcf ed3f
00000010: c0ac e625 5f10 ef3f 5013 8d4f 0788 ee3f
00000020: 410a c071 b8c4 ef3f bc3b 2faa 157c f13f
00000030: 83a3 7618 b0da f03f 4b1c f342 ad77 0240
00000040: 5123 6580 cbe4 f73f f81a 7092 9040 ed3f
00000050: 542a cc8e 0812 f03f 1af8 e669 1261 d33f
00000060: f651 9e81 3d21 ee3f 3330 1ed8 db31 ef3f
00000070: 4403 ce04 bdd0 ee3f cabc 3d95 5233 fa3f
00000080: 6a43 3d9f 2610 ef3f 2326 189b 6ca4 f13f
00000090: 0872 d31c 108e ec3f 27af 5b35 cc3a f13f
000000a0: 0e5a 4bb4 422e ee3f 2460 03af 0678 dd3f
000000b0: 4b03 733d 04f0 e53f 5312 4710 2c8b ee3f
000000c0: 8ff9 1201 974a ef3f ae45 3a9b 70db ed3f
000000d0: 7408 5d62 df45 eb3f 3e98 9277 06cf 0740
000000e0: 8478 10ba 44e7 fd3f af37 dbb2 6a84 ee3f
000000f0: 0d20 1f34 5fef ee3f ba9a 9d0b ba3c e23f
00000100: 632f 978a b369 ed3f 0ad7 4096 a140 e23f
00000110: 6a26 7351 f9a9 ed3f 6705 fdbb 8eeb ee3f
00000120: e6a6 64e6 794b f23f 3320 ebcb 0ecf ee3f
00000130: 5020 6a02 7c33 e63f 549d 477d 9bb7 f43f
00000140: 58a4 cb99 b830 ea3f e6a8 bb4d b7c8 ee3f
00000150: 2258 321b e11f f03f f99d 3d53 7b5d ed3f
00000160: 5cb3 bf3d d7bb f03f 31fe fab1 17e3 e83f
00000170: 2829 f22a f5fb ee3f 53f3 acf2 5251 c93f
00000180: b2db dfb8 33f9 ef3f def9 7398 65bc ef3f
00000190: c78e 5e43 9554 ec3f b44e 1632 8979 f03f
000001a0: 2404 8eef 08ad f03f 3a5f 3877 0c84 ee3f
000001b0: 30d1 5196 f27b ef3f 38cf 1994 b3bd f03f
000001c0: ce4e 50de 3dcc ff3f 1da0 7d4d 4e1e ef3f
000001d0: 3024 6e32 8968 eb3f 1bbc 6a24 d7c1 ec3f
000001e0: 4a40 de7d 74ab d33f dbd2 99b0 a112 ef3f
000001f0: 54d3 1ce8 31e9 ee3f 315c 9571 d9f2 ee3f
00000200: a4f8 3e0a cb84 fa3f cbe4 d09a 5878 f13f
00000210: b827 28a2 0cf8 f53f 29d5 fb82 5bb5 0240
00000220: 0769 b588 ec0d f23f a5a4 8f3c cc10 f53f
00000230: 822d 58cb 3e0b 0040 d309 9df8 6009 e43f
00000240: c64c 4aba 5eaf ed3f 0000 0000 0000 f03f
00000250: ee97 e06f c4c3 f03f eced e674 bfb0 aabf
00000260: 2ef8 48e6 eeaf f43f 7d87 5f72 65e0 de3f
00000270: 7ac1 5bcd 13fd ee3f 848e 7bc2 46a1 ed3f
00000280: b232 0cab 32a3 c33f d408 3163 8b22 f03f
00000290: f998 b215 6658 fc3f 1286 294f 1387 e23f
000002a0: 0b6d cb40 52a1 ee3f 08ee a9a8 d121 ec3f
000002b0: 75e2 3447 b81f f13f 347f 5c29 3a6d e93f
000002c0: b627 191f 3bc9 e83f 0fbf b550 07b6 0040
000002d0: 0338 4bc2 8a27 f03f f1a6 c380 cd1c f03f
000002e0: 85b0 0942 b3cb fa3f e465 48cb 3e8f ee3f
000002f0: 5e9b 5e9b 0f9e f23f f62c add6 9831 ee3f
00000300: c39e 7bf3 fed6 f23f 7153 67b9 c68e cf3f
00000310: b6be 6f35 f949 0040 b723 85ec 9b18 ed3f
0.9585791219843217 0.9315792196657591 0.9707484951262799 0.9541050485355331 0.9927637311632865 1.0927940986473308 1.0533905940630752 2.3084359388772433
1.4933581366951396 0.9141314373126468 1.0044026926067504 0.302799800319805 0.9415576488123054 0.9748362752011474 0.9629807561724211 1.637529929135598
0.9707215414183399 1.102642637097582 0.8923416674620634 1.0768549045851132 0.9431470414518246 0.46045081225520534 0.6855488968068156 0.9544887845918971
0.9778552075365939 0.9330370933332028 0.8522793694649082 2.976086553727355 1.8689620273721923 0.9536641591346234 0.9667202013015427 0.5699129320972454
0.9191529948088654 0.5703895506510162 0.9269987669769766 0.9662545844695786 1.1434267997487324 0.9627756102354453 0.6937847182425774 1.2948260205974593
0.8184473995035075 0.9620014684890321 1.007783037411635 0.9176613450808296 1.0458595668853468 0.777721259706544 0.9682565535343075 0.1977943119944948
0.9991701708630585 0.991747663268878 0.8853250804717953 1.0296718555954785 1.04224484993052 0.9536192253608313 0.9838803230218556 1.0463138375461778
1.9873636898163798 0.9724494470110617 0.8565107331243151 0.8986621581333368 0.3073397854977925 0.9710243653522314 0.9659661801766597 0.9671447008539699
1.6574201965554858 1.0918813750743535 1.3730589231731596 2.3385534508803585 1.1283994045430192 1.3166010251682476 2.0054908643994063 0.6261448722582891
0.9276574743729717 1.0 1.047794758816504 -0.05212972929026791 1.2929524417409186 0.48244606179479615 0.9683932314783725 0.9259370611657265
0.15341790534912075 1.0084337114972657 1.771581730610306 0.5789886995445974 0.9571925416488808 0.8791282934393516 1.0702441007144021 0.7945833976591303
0.7745643241298612 2.0888811402763916 1.0096538152315595 1.0070319204191345 1.6747315005877976 0.9549859972350387 1.163589102661454 0.9435543244266273
1.1774892340708198 0.246544685868368 2.0361198591925485 0.9092540378124941

layers.3.bias f8 [100]
00000000: 10ad ccaf 133c bebf 5f0e d239 b2d0 b5bf
00000010: 9303 6608 440a e0bf 1359 0377 5b32 ba3f
00000020: 732d 5138 b314 d93f d559 239f c4eb efbf
00000030: 5e02 0401 07ed b1bf bc4a 987f 231e ef3f
00000040: 3f81 26e6 cd66 f73f 919e b375 90bf adbf
00000050: d7f6 e25b c89e cfbf 28f2 2c8f 6cc1 d9bf
00000060: ab8e c37e ff53 e53f b7fc 27a2 c808 e63f
00000070: 3d72 8dbd bf31 c9bf 7401 3638 c9bb dc3f
00000080: 820b b145 03cf cabf cda3 8c50 e7b6 c3bf
00000090: a1af a4ab 9cfb d23f c370 6eda 46a1 d9bf
000000a0: 75e4 0c8a 602d e2bf 7bc0 6415 3954 d1bf
000000b0: d8ab b22e 4857 d6bf 4ebb 9dcd 4a3c e33f
000000c0: 8877 6e34 a56c da3f 6ad1 43d4 7d13 d4bf
000000d0: 4113 1f6f d94a c2bf 702f c3df d04d f53f
000000e0: 7acb 00f6 4571 ddbf 086f 199b 3307 eebf
000000f0: 0d35 f1e4 2623 cfbf f3e3 63e6 3d2b e83f
00000100: 61d1 dfa9 3528 ecbf b306 1ab4 3bf1 d5bf
00000110: bc80 70c0 7d8d d0bf b94c 7139 4b0a c03f
00000120: 9120 cfdd f787 d53f 96b1 11d7 a0d7 8d3f
00000130: 19cc 803d 7809 c0bf 1abe 2e15 bd45 eb3f
00000140: 5d22 0790 8d41 cc3f 404d b934 d873 b73f
00000150: 26b1 1485 3b90 a03f dff9 9ced 8d90 c3bf
00000160: 710b 6f5e e248 e4bf 864b 2551 3f30 f3bf
00000170: ac40 8603 e4f8 e93f 9ce4 a3e2 7bda dfbf
00000180: 00c8 d6a9 a905 c63f 3f01 e5c7 b799 b4bf
00000190: 6218 bbb2 a021 d2bf e34c 97c1 b3e3 e1bf
000001a0: db6d 6d45 1fb0 da3f 138a 06b2 cf84 b4bf
000001b0: 0153 7b21 d14a c43f c39a d427 85b9 d43f
000001c0: ec3e d106 901a e83f bdf2 9389 faf6 dcbf
000001d0: fc57 3076 6b29 d4bf 09a1 bb3c 237d a7bf
000001e0: 2c84 f06f 2c8c e3bf 5e49 1553 67b0 d0bf
000001f0: 17be e4a4 7bf9 78bf 3470 2ce0 b152 e0bf
00000200: 44b4 b906 d41e da3f 9aa1 ad5c 6ed2 ec3f
00000210: 3c16 1aef 1c0f e83f 4ebc 8451 b8c5 fa3f
00000220: 5327 3cbb 1caf c8bf f755 7b76 edce e73f
00000230: f930 bea1 458b d43f e49a 96e9 f61e eabf
00000240: b204 f88b 3887 f03f c207 0496 40a7 913f
00000250: 9ddc b55a f392 ddbf 034d 0efe e804 ccbf
00000260: 74a7 51c8 7957 f6bf 3453 97c5 c535 b6bf
00000270: 49c7 16b1 81a2 c0bf 153b f316 f749 89bf
00000280: b4b0 d73d 300a d4bf d80a e434 df30 bebf
00000290: 9d9e 9105 9364 eebf f4bb fb55 4582 d7bf
000002a0: dc65 68dc 5fb6 ab3f 4c2d 3bc0 f054 e03f
000002b0: b799 c6e8 674f b0bf ba9e 9d2e 4ff4 e03f
000002c0: 75f6 0e85 022c e0bf 53ab ebfa c8bf cf3f
000002d0: f1b1 461f fafd d23f a943 c2ea b83d e5bf
000002e0: c0ed 502a 96a6 e7bf b49d 802f fa71 c1bf
000002f0: d0f1 0cc9 9708 f0bf 5797 1541 ac07 b7bf
00000300: 98b3 9fa0 ceb4 ecbf 4354 9e84 c042 7dbf
00000310: c7df 59aa bd3e e7bf 466c f8da 6242 dd3f
-0.11810420076351513 -0.08521570121416165 -0.5012531436951683 0.1023308911856911 0.3918884325000455 -0.9975302799382982 -0.07002300047680296 0.9724290363395407
1.4625987043619515 -0.05810214459216668 -0.2470331619896828 -0.40243066770543345 0.6665036655289972 0.6885722319710997 -0.19683071856970172 0.4489615487036851
-0.20944252875241537 -0.1540192740733616 0.29660717737237446 -0.4004685528868885 -0.5680391975685227 -0.27076556290831605 -0.349077268222286 0.6011098876896115
0.41288118477120195 -0.31368966797824405 -0.1429092209420109 1.331498025962869 -0.46003865264645294 -0.9383790997776211 -0.24326025179690483 0.7552785396393332
-0.8799084012849044 -0.3428487070851631 -0.2586359385768551 0.12531414322675063 0.3364238420586015 0.014571434558285284 -0.12528899195749046 0.8522630132410456
0.22075051815615412 0.09161139762118342 0.0323504066421683 -0.15284895040708954 -0.6338970035943544 -1.1992791337731616 0.8116321629368222 -0.49771020062287064
0.17204781334800145 -0.0804705489181332 -0.28330247358497307 -0.559045675380187 0.4169996431353106 -0.08015153976752058 0.15853323111391407 0.3238232506723017
0.7532425053741156 -0.4525743812117005 -0.315028062266151 -0.04587659946793294 -0.6108610330885589 -0.2607668219908613 -0.0060973005150084724 -0.5100945833578465
0.4081316056897928 0.9006873903390897 0.7518448514899272 1.6732714828792896 -0.19284400122006193 0.7440097154710078 0.32100048823555444 -0.8162798464080336
1.033012911561212 0.017239579349741303 -0.46209415300786266 -0.2188998451716558 -1.3963563752135686 -0.08675800394059935 -0.12995930811808368 -0.012348108661539162
-0.3131218532496505 -0.1179332260253817 -0.9497771366850035 -0.3673261012726805 0.054125781684159796 0.5103687052264063 -0.06371163781168475 0.5298229132140115
-0.5053722952649894 0.24804031612378682 0.2967515283042124 -0.6637844643720331 -0.7390852762686606 -0.1362908107705444 -1.0020978787934958 -0.08996082867596776
-0.8970711838897953 -0.007143737815472897 -0.7264087989014961 0.4571768892653306

layers.3.running_mean f8 [100]
00000000: 0500 0000 0000 0000 0500 0000 0000 0000
00000010: 0500 0000 0000 0000 0500 0000 0000 0000
00000020: 0500 0000 0000 0000 50a0 e6d7 7e54 6940
00000030: 0500 0000 0000 0000 ec0b 3320 6e14 7b40
00000040: 0500 0000 0000 0000 0500 0000 0000 0000
00000050: 0500 0000 0000 0000 cee9 6774 783f 6340
00000060: 0500 0000 0000 0000 0500 0000 0000 0000
00000070: 0500 0000 0000 0000 0500 0000 0000 0000
00000080: 0500 0000 0000 0000 0500 0000 0000 0000
00000090: 0500 0000 0000 0000 0500 0000 0000 0000
000000a0: 0500 0000 0000 0000 0500 0000 0000 0000
000000b0: 0500 0000 0000 0000 0500 0000 0000 0000
000000c0: 0500 0000 0000 0000 0500 0000 0000 0000
000000d0: 0500 0000 0000 0000 99c1 cd5e ffb9 6640
000000e0: 620c 9ede bef0 6b40 5c34 7831 5c29 6240
000000f0: 0500 0000 0000 0000 0500 0000 0000 0000
00000100: 0500 0000 0000 0000 0500 0000 0000 0000
00000110: 0500 0000 0000 0000 0500 0000 0000 0000
00000120: 0500 0000 0000 0000 0500 0000 0000 0000
00000130: 0500 0000 0000 0000 0500 0000 0000 0000
00000140: 0500 0000 0000 0000 0500 0000 0000 0000
00000150: 0500 0000 0000 0000 56a9 45a8 6864 6740
00000160: 0500 0000 0000 0000 305d 1e5d 9970 2238
00000170: 0500 0000 0000 0000 0500 0000 0000 0000
00000180: 0500 0000 0000 0000 0500 0000 0000 0000
00000190: 0500 0000 0000 0000 0500 0000 0000 0000
000001a0: 0500 0000 0000 0000 0500 0000 0000 0000
000001b0: 0500 0000 0000 0000 0500 0000 0000 0000
000001c0: 0500 0000 0000 0000 0500 0000 0000 0000
000001d0: 0500 0000 0000 0000 0500 0000 0000 0000
000001e0: 0500 0000 0000 0000 0500 0000 0000 0000
000001f0: 0500 0000 0000 0000 0500 0000 0000 0000
00000200: 7ab1 c0da 0d81 7f40 0500 0000 0000 0000
00000210: 6b75 aadb d43a 5540 3334 7f64 06bf 7d40
00000220: 0500 0000 0000 0000 0500 0000 0000 0000
00000230: 3bba be97 012a 4e40 0500 0000 0000 0000
00000240: 0500 0000 0000 0000 0000 0000 0000 0000
00000250: 0500 0000 0000 0000 0500 0000 0000 0000
00000260: b963 b0d7 32c1 7140 5ef3 bd4f 243d 7140
00000270: 0500 0000 0000 0000 0500 0000 0000 0000
00000280: 0500 0000 0000 0000 0500 0000 0000 0000
00000290: 0634 d398 4c57 6740 02bf c21a cbb0 8338
000002a0: 0500 0000 0000 0000 0500 0000 0000 0000
000002b0: 0500 0000 0000 0000 0500 0000 0000 0000
000002c0: 0500 0000 0000 0000 3f5e e144 adc9 6240
000002d0: 0500 0000 0000 0000 0500 0000 0000 0000
000002e0: 7f11 b7b1 e618 7940 0500 0000 0000 0000
000002f0: 3810 a672 c0f4 6a40 0500 0000 0000 0000
00000300: 0500 0000 0000 0000 bac1 5ce1 0e89 5d40
00000310: c22f da9b 0900 8440 0500 0000 0000 0000
2.5e-323 2.5e-323 2.5e-323 2.5e-323 2.5e-323 202.64048380893882 2.5e-323 433.2768861764914
2.5e-323 2.5e-323 2.5e-323 153.98345394416395 2.5e-323 2.5e-323 2.5e-323 2.5e-323
2.5e-323 2.5e-323 2.5e-323 2.5e-323 2.5e-323 2.5e-323 2.5e-323 2.5e-323
2.5e-323 2.5e-323 2.5e-323 181.81242313563124 223.52329951161215 145.29250405766913 2.5e-323 2.5e-323
2.5e-323 2.5e-323 2.5e-323 2.5e-323 2.5e-323 2.5e-323 2.5e-323 2.5e-323
2.5e-323 2.5e-323 2.5e-323 187.13777555089717 2.5e-323 2.709490990068335e-38 2.5e-323 2.5e-323
2.5e-323 2.5e-323 2.5e-323 2.5e-323 2.5e-323 2.5e-323 2.5e-323 2.5e-323
2.5e-323 2.5e-323 2.5e-323 2.5e-323 2.5e-323 2.5e-323 2.5e-323 2.5e-323
504.06588244696434 2.5e-323 84.91924182554583 475.9390606850531 2.5e-323 2.5e-323 60.32817360699524 2.5e-323
2.5e-323 0.0 2.5e-323 2.5e-323 284.0749127283303 275.8213651103923 2.5e-323 2.5e-323
2.5e-323 2.5e-323 186.7281002163947 1.8516950432585418e-36 2.5e-323 2.5e-323 2.5e-323 2.5e-323
2.5e-323 150.30240100877015 2.5e-323 2.5e-323 401.55632182608673 2.5e-323 215.64849216875314 2.5e-323
2.5e-323 118.14153322275425 640.0046917959046 2.5e-323

layers.3.running_var f8 [100]
00000000: 0500 0000 0000 0000 0500 0000 0000 0000
00000010: 0500 0000 0000 0000 0500 0000 0000 0000
00000020: 0500 0000 0000 0000 7f33 102c 3f48 8340
00000030: 0500 0000 0000 0000 a2b7 d840 49b4 8440
00000040: 0500 0000 0000 0000 0500 0000 0000 0000
00000050: 0500 0000 0000 0000 3860 664c ee28 7d40
00000060: 0500 0000 0000 0000 0500 0000 0000 0000
00000070: 0500 0000 0000 0000 0500 0000 0000 0000
00000080: 0500 0000 0000 0000 0500 0000 0000 0000
00000090: 0500 0000 0000 0000 0500 0000 0000 0000
000000a0: 0500 0000 0000 0000 0500 0000 0000 0000
000000b0: 0500 0000 0000 0000 0500 0000 0000 0000
000000c0: 0500 0000 0000 0000 0500 0000 0000 0000
000000d0: 0500 0000 0000 0000 cfa5 33cd 7a32 8d40
000000e0: 483c 9f5d d6f7 8340 bc75 d954 1b0e 9240
000000f0: 0500 0000 0000 0000 0500 0000 0000 0000
00000100: 0500 0000 0000 0000 0500 0000 0000 0000
00000110: 0500 0000 0000 0000 0500 0000 0000 0000
00000120: 0500 0000 0000 0000 0500 0000 0000 0000
00000130: 0500 0000 0000 0000 0500 0000 0000 0000
00000140: 0500 0000 0000 0000 0500 0000 0000 0000
00000150: 0500 0000 0000 0000 8c27 d702 0561 5540
00000160: 0500 0000 0000 0000 95c3 5406 c05c 5138
00000170: 0500 0000 0000 0000 0500 0000 0000 0000
00000180: 0500 0000 0000 0000 0500 0000 0000 0000
00000190: 0500 0000 0000 0000 0500 0000 0000 0000
000001a0: 0500 0000 0000 0000 0500 0000 0000 0000
000001b0: 0500 0000 0000 0000 0500 0000 0000 0000
000001c0: 0500 0000 0000 0000 0500 0000 0000 0000
000001d0: 0500 0000 0000 0000 0500 0000 0000 0000
000001e0: 0500 0000 0000 0000 0500 0000 0000 0000
000001f0: 0500 0000 0000 0000 0500 0000 0000 0000
00000200: bbe9 2e33 cf25 9040 0500 0000 0000 0000
00000210: 35d6 7928 4567 8e40 9310 522c 91a4 7d40
00000220: 0500 0000 0000 0000 0500 0000 0000 0000
00000230: 3fc7 db2c 3b26 7540 0500 0000 0000 0000
00000240: 0500 0000 0000 0000 0500 0000 0000 0000
00000250: 0500 0000 0000 0000 0500 0000 0000 0000
00000260: 6bd5 f790 3591 9a40 49a4 7f3e 8355 8840
00000270: 0500 0000 0000 0000 0500 0000 0000 0000
00000280: 0500 0000 0000 0000 0500 0000 0000 0000
00000290: 3fb4 adb1 b955 8a40 c0a3 efaa f81e b738
000002a0: 0500 0000 0000 0000 0500 0000 0000 0000
000002b0: 0500 0000 0000 0000 0500 0000 0000 0000
000002c0: 0500 0000 0000 0000 52d7 bf37 63d3 8640
000002d0: 0500 0000 0000 0000 0500 0000 0000 0000
000002e0: d440 f208 f98c 9640 0500 0000 0000 0000
000002f0: 5653 8a5d 1cd2 9040 0500 0000 0000 0000
00000300: 0500 0000 0000 0000 13bc 9437 b95f 7040
00000310: 1f9c f2a9 0522 9140 0500 0000 0000 0000
2.5e-323 2.5e-323 2.5e-323 2.5e-323 2.5e-323 617.0308457627979 2.5e-323 662.5357682162323
2.5e-323 2.5e-323 2.5e-323 466.5581783293778 2.5e-323 2.5e-323 2.5e-323 2.5e-323
2.5e-323 2.5e-323 2.5e-323 2.5e-323 2.5e-323 2.5e-323 2.5e-323 2.5e-323
2.5e-323 2.5e-323 2.5e-323 934.309961703775 638.9796707573196 1155.5266908624753 2.5e-323 2.5e-323
2.5e-323 2.5e-323 2.5e-323 2.5e-323 2.5e-323 2.5e-323 2.5e-323 2.5e-323
2.5e-323 2.5e-323 2.5e-323 85.51593085299663 2.5e-323 2.040929152100026e-37 2.5e-323 2.5e-323
2.5e-323 2.5e-323 2.5e-323 2.5e-323 2.5e-323 2.5e-323 2.5e-323 2.5e-323
2.5e-323 2.5e-323 2.5e-323 2.5e-323 2.5e-323 2.5e-323 2.5e-323 2.5e-323
1033.4523436861189 2.5e-323 972.9087686079498 474.2854426580099 2.5e-323 2.5e-323 338.3894470772829 2.5e-323
2.5e-323 2.5e-323 2.5e-323 2.5e-323 1700.3023108219156 778.6890840503703 2.5e-323 2.5e-323
2.5e-323 2.5e-323 842.7156709261543 1.739429348583612e-35 2.5e-323 2.5e-323 2.5e-323 2.5e-323
2.5e-323 730.4234461772523 2.5e-323 2.5e-323 1443.2431981899326 2.5e-323 1076.5277005780567 2.5e-323
2.5e-323 261.9827190217922 1096.5055311115063 2.5e-323
