model_policy_epoch-110.pt (torch, 373906 bytes, 28 tensors)

layers.0.weight f8 [128, 128]
000000 37 3c 18 7a 01 be ef bf 24 df 4a 69 76 73 c9 bf
       -0.9919440636312008 -0.19883613721116788
000010 81 e9 29 ae 69 c1 9c 3f f3 3f 87 3f 3b 4c e4 bf
       0.028081561331853692 -0.6343055954730502
000020 6b 50 26 3c 2b 2a cd bf 0f 7f 85 ed df f4 bb bf
       -0.22784939229007092 -0.10920524166931166
000030 60 7d 48 22 be 9d 89 3f dd 9e 2b 88 75 c4 f1 bf
       0.012507901593436344 -1.1104636496692628
000040 50 03 30 ee 77 5a f1 bf 26 70 d1 2c 78 95 e7 bf
       -1.0845870308114236 -0.7369957805017335
000050 47 c1 48 40 db 73 99 3f 82 e8 d9 3a 36 01 ea bf
       0.024856019781681195 -0.8126479291379527
000060 19 f9 97 a1 4a 79 d8 bf ea 02 d8 b0 44 ba d1 bf
       -0.3824030473769127 -0.27699391622449687
000070 3a 75 63 43 2e 8f da bf b3 46 2b 1d 17 fb b2 3f
       -0.41498905735882696 0.07414383375296545
000080 45 74 64 79 7e 98 d7 3f 84 07 3b 10 ef fc d9 bf
       0.3686824975464485 -0.406062856531314
000090 17 01 61 2f d0 7e e3 bf e6 c0 e8 45 86 f1 d1 bf
       -0.6092301297540271 -0.2803664858538596
0000a0 0a 4b 1c 8b 0a 6b db bf b9 59 8d 03 19 b3 de bf
       -0.42840827546130866 -0.4796812567414253
0000b0 03 1c f3 7c 36 d6 e3 bf fa d6 fb bc d1 71 d0 3f
       -0.6198990288183953 0.25694697814411394
0000c0 99 bf 41 e4 fb e3 f1 bf 53 56 04 43 64 93 f1 bf
       -1.1181601444513716 -1.0984842889642052
0000d0 10 f1 96 a6 eb 43 ea bf 5b 8f a2 c5 f7 fd e2 bf
       -0.8207910779670176 -0.5935019359644501
0000e0 c1 c1 d0 a2 91 18 fa bf 46 88 09 fa 86 a6 e1 bf
       -1.6309982643107193 -0.5515780337848433
0000f0 dc 31 26 5a 09 33 f5 bf 85 75 ff d6 5d 2c e5 bf
       -1.3249600907757815 -0.6616658400704841
000100 7b ae 3f 4e 08 66 ee bf 39 8e 50 47 b4 a1 c5 bf
       -0.9499551323219316 -0.16899732095872524
000110 fd f3 8e 81 42 69 e3 bf b6 4b 4b 7c 07 f2 f2 bf
       -0.6065990953862862 -1.1840891700019092
000120 e9 82 e3 e6 65 5c e1 bf 59 59 a8 be 88 f0 de bf
       -0.5425290593667259 -0.48343103999049714
000130 89 88 2c f2 b5 2d e1 bf 83 f8 4c 9f 4c 1a e0 3f
       -0.5368299226722836 0.5032103644696381
000140 d0 07 fe 91 23 af df 3f 1c fe 56 a9 69 83 f0 bf
       0.4950646329599495 -1.0320831885181923
000150 03 d1 f2 c5 ee 89 ee bf 48 5f b3 07 bc 3e ec bf
       -0.954337488763969 -0.8826580191043627
000160 ed 5b 4d de f9 ac ea 3f 2c 0e 5e 5b cb 7d e8 bf
       0.8336152402724771 -0.7653557571906666
000170 eb 91 86 a6 53 3f f9 bf 7c 73 bd 49 1b 0e d9 bf
       -1.5779606346997024 -0.3914859981649028
000180 a6 ea 05 a6 31 89 ce bf 12 e0 3a f8 b1 5b f2 bf
       -0.2385618267688489 -1.147386521957746
000190 6f 30 6e 9e 4f f8 f9 bf 6d 32 01 07 f2 56 d3 bf
       -1.623122805470327 -0.3021817272572552
0001a0 9b fa cb b8 3f d4 d5 bf 1d 5c 51 aa 88 87 aa 3f
       -0.34107964560090814 0.05181529120516635
0001b0 40 63 c9 11 b4 5a f2 bf 59 66 e6 c2 a1 7a de bf
       -1.1471443838874649 -0.4762348559685044
0001c0 3b 54 48 38 9f 71 f2 bf a2 4c ed 33 ad 71 e1 bf
       -1.1527397345100912 -0.5451265348623517
0001d0 93 6d 05 34 66 06 f5 bf 65 6a 2f 2b 3e 2b f9 bf
       -1.314062312324357 -1.5730573355600879
0001e0 67 d2 32 61 d3 52 ea bf 9d e9 79 e8 c0 f4 b4 bf
       -0.8226105593117382 -0.08185964275063502
0001f0 03 4f 27 96 23 86 f9 bf ba 6b 70 47 24 17 c2 bf
       -1.595248781716635 -0.14133122909774248
000200 a6 42 c0 c8 eb 03 f3 3f cb b2 5e ad 0a 8b e0 3f
       1.1884572831951714 0.5169728647357145
000210 22 b5 af a2 13 d4 e1 3f d1 92 4f 58 3a b4 e4 3f
       0.5571382691829607 0.6470004772969223
000220 92 43 a0 a0 cc 0b e8 3f 55 ce 52 b4 70 b8 e8 3f
       0.751440347407071 0.7725146791403384
000230 b0 da 84 b5 bc aa e3 3f e3 95 7c df a2 df d7 3f
       0.6145919366161561 0.373024671791738
000240 12 e0 f9 3d 0a c8 de bf 2e 50 2b cc 67 91 f4 3f
       -0.480959473155509 1.2854993796691008
000250 15 f9 f6 6a 09 a7 e6 3f 46 a6 87 67 71 b0 f8 3f
       0.7078902329592746 1.5430769008766148
000260 95 ed 92 be 82 46 f4 3f 69 00 fe f0 9a 35 80 bf
       1.2672145313543741 -0.007914743880746937
000270 aa 35 cd 52 4f 1b f5 3f f8 0f d2 14 5c 18 e9 3f
       1.3191674456059936 0.7842235952998626
000280 d9 95 41 d1 9b ae b3 bf 75 a9 75 e3 49 6a ed 3f
       -0.07688306673806923 0.919224685914101
000290 04 ce c7 a0 6e fa f5 3f c8 76 7b ab 8b 9c dc 3f
       1.3736406593787942 0.44705478426281475
0002a0 e5 ea 65 c6 20 0b db 3f 9c b9 7d e4 af 2d e5 3f
       0.42255420088592494 0.6618270361630496
0002b0 3e 9b 4f 15 9e 5f aa 3f 16 d8 45 f8 55 0a b9 bf
       0.05151075372832857 -0.09781396209095336
0002c0 65 a8 5f d0 0d 36 ba 3f c2 a1 7a db 07 2c e4 3f
       0.10238729798553121 0.6303748404216594
0002d0 fb 99 b4 a7 2e 7f f3 3f 7f 13 25 55 5e 5c d4 bf
       1.218550353145132 -0.31813772501873666
0002e0 a4 ce dc c3 34 7a ee 3f 51 41 9b 8d 8f 33 d6 3f
       0.9524177384796144 0.34689701870685946
0002f0 83 ad 2c 42 6b b1 e9 3f fd dd 54 63 75 d2 ed 3f
       0.8029075901480812 0.9319407405918693
000300 25 14 f9 7c 01 f5 00 40 3c 59 25 5d cc f6 ec bf
       2.119631744719771 -0.9051267451530189
000310 78 cf f9 bb 0e f7 d9 3f 89 3b 4f 27 d7 e1 ec 3f
       0.4057041965199839 0.9025684135211672
000320 a4 cf be 7b 80 83 f0 3f 85 62 8c c3 54 b3 e9 3f
       1.0321049531748736 0.8031410044960273
000330 e1 d1 78 b4 d2 86 d0 3f f6 05 ee 8e ce bd df bf
       0.2582289469167148 -0.4959598918722742
000340 cb 90 bf e4 b2 fe a2 3f f7 85 9a c8 0f f9 fa 3f
       0.037099447654129834 1.6858060680464158
000350 3f 5d 50 a2 a3 86 04 40 20 26 74 18 04 7c 78 bf
       2.5657417946601124 -0.005977645872243836
000360 a5 ca 85 ba 69 52 e8 3f 92 33 e3 92 95 72 f1 3f
       0.760060180952071 1.0904746759217443
000370 0b 6f d8 a5 28 7b d9 3f 9e 60 b8 0c 3f 86 b8 bf
       0.3981420154175203 -0.09579843578865385
000380 2b af 59 ec fe ab ea 3f 57 95 a1 1e 25 68 f2 3f
       0.8334955803124776 1.1504260250597633
000390 c3 c6 98 5a 10 20 b4 3f 59 ef fe eb 50 c5 c3 bf
       0.07861425601802367 -0.15445910952791556
0003a0 25 e6 a4 4e 8c c9 d5 bf 69 4e 06 81 2b 5c a7 3f
       -0.3404265182503841 0.045625075817181955
0003b0 d9 d7 22 0b dd 34 ed 3f 35 b8 43 35 7f 79 f6 3f
       0.9127030580045769 1.4046623306890187
0003c0 53 dd 45 d3 68 c9 02 40 90 c5 ea 6e 9f 44 e6 3f
       2.3483444696136444 0.6958768049573099
0003d0 a2 97 22 d9 10 e3 e5 3f ec 58 7d 9b 99 ec 01 40
       0.6839679947777209 2.240527357828901
0003e0 5a b9 1f 37 c7 6f f1 3f 52 c9 3d 72 2f f7 d3 bf
       1.0897895959165766 -0.3119619956625189
0003f0 b5 3c ff 6a 98 bb ee 3f c0 d5 b8 0b 12 67 e6 bf
       0.9603998269830273 -0.7000818470902956
000400 64 bd ca 64 05 47 f1 bf df e1 5b 3e df 49 da bf
       -1.0798391282258644 -0.41075879182565517
000410 81 59 2d 6a 61 68 c4 bf 8d 17 70 13 f0 75 ec bf
       -0.15943544086867337 -0.8893967036863032
000420 c9 13 5c 83 12 ac cb bf 25 1c 99 84 42 af da bf
       -0.21618873037382816 -0.41694701146156127
000430 dc 90 5d 65 85 9a b6 bf b1 fc 7a 92 2d f4 e7 bf
       -0.08829530453437279 -0.7485568867631597
000440 2e 44 01 b3 bb 0e f4 bf ef f9 26 2c c5 07 f9 bf
       -1.2535969726925589 -1.564397022695285
000450 14 99 77 47 9f d5 ea bf 47 8f a6 52 20 df e4 bf
       -0.8385769267886496 -0.6522370924253459
000460 99 90 b6 67 74 af dd bf f5 77 74 e4 31 29 e0 bf
       -0.46383390548931797 -0.5050286733637664
000470 9c ec 98 bb e5 9f e5 bf c1 1b b6 15 6c d1 d1 bf
       -0.6757687248240418 -0.2784071170830736
000480 8e 3d 85 69 56 c6 d5 bf db 2f bb f6 7e dc e0 bf
       -0.340230563208899 -0.5269160098046045
000490 ed ea 27 33 61 04 e7 bf d5 ad 7c 13 fd df d4 bf
       -0.7192846297396877 -0.3261711778929713
0004a0 c2 1d 2a c8 6a ca e1 bf d3 83 57 9b dd 48 e3 bf
       -0.5559591206992354 -0.602644732858716
0004b0 e4 59 dd 63 ed 1e e1 bf 98 06 50 f4 84 a6 e8 bf
       -0.5350253057939054 -0.7703270694475632
0004c0 27 28 d5 c9 d1 5f f0 bf df 05 bb c5 19 0e f8 bf
       -1.0233934291923192 -1.5034425472116408
0004d0 ca 57 0b 0e e9 d4 e7 bf 64 b2 b4 76 d3 b0 ca bf
       -0.7447400354674241 -0.20852130218681275
0004e0 2b de 62 32 d7 03 f4 bf e9 63 f5 ed 9a 23 d7 bf
       -1.2509376495562587 -0.36154816854610644
0004f0 1c 10 3c 06 13 d3 f6 bf 09 de f2 46 9c 67 e7 bf
       -1.4265318149127841 -0.7313977609364325
000500 61 97 43 7f ef e6 f2 bf 49 97 b3 bd 89 8c f0 bf
       -1.1813807460070722 -1.0343110475746065
000510 e5 6d 43 75 b6 67 ee bf c7 33 dd 6c 38 f4 ef bf
       -0.950160244970388 -0.9985620619059937
000520 4d 18 74 4a 8b 00 eb bf e0 38 8d 4c ba 05 e3 bf
       -0.843816419045433 -0.5944491858624836
000530 6a da 40 b9 d5 6e e5 bf a3 a9 1d 7a ff f9 d7 bf
       -0.6697796457509189 -0.37463366437318707
000540 aa cc a7 fb cc f2 c1 bf f6 e6 aa 35 8a 43 f2 bf
       -0.14022218978752693 -1.141489228858004
000550 a6 d3 0d be 15 d5 e4 bf 9a e0 46 64 6e 3a ed bf
       -0.6510113441460035 -0.9133827169926179
000560 37 9d 0b f0 1d b0 e3 3f bd 39 31 83 9c 78 ca bf
       0.6152486503969276 -0.2068057671153393
000570 2a d5 c4 00 c4 30 de bf 03 0c 7b ed 5a 9a f2 bf
       -0.471726418257577 -1.1626843716228457
000580 03 2c c8 b5 dd a1 ca 3f 3c bd cb f1 03 c6 f0 bf
       0.20806475997991933 -1.0483436055327067
000590 ed e9 d3 d1 3d 09 00 c0 58 b0 f9 7c 5c 52 ea bf
       -2.004512442855449 -0.8225538674282786
0005a0 f8 87 83 3c 98 02 e6 bf f3 3b 8b f4 ee 04 cc bf
       -0.6878167325887707 -0.21890055599803268
0005b0 97 e7 d3 9e 66 4d e3 bf 49 68 34 48 38 41 e2 bf
       -0.6031983472923795 -0.5704614076851239
0005c0 0a 87 83 5f b5 63 bd bf b5 d4 59 33 73 31 c7 bf
       -0.11480268079642655 -0.18119659430855042
0005d0 ce 15 e6 60 b4 7b ee bf be aa 97 8d 67 e2 fc bf
       -0.9526006596140009 -1.8052745371775667
0005e0 6f f5 ba 96 24 62 e9 bf 8b b7 d4 41 38 1f 88 3f
       -0.7932303375197715 0.011778296956062714
0005f0 1f b9 64 02 18 ea fb bf fd 8f 68 d6 f0 10 b4 3f
       -1.7446518033498888 0.07838349566060283
000600 25 04 bd 01 12 81 e7 3f aa 95 8b 5e 90 c8 e8 3f
       0.7345056566192666 0.7744829031550371
000610 68 e5 50 dc 29 e8 e3 3f 7f c8 47 ee ca 55 e2 3f
       0.6220902731940159 0.572972741500294
000620 b9 fa 87 fc 34 8d e5 3f a0 7a 3b 5c 18 0d f0 3f
       0.6734871799706844 1.0031970599008346
000630 6b fe 00 bc 87 93 d0 3f 54 9f 7e ea de c0 d3 3f
       0.25900452956918824 0.3086468973146925
000640 c3 37 7c d4 2d d7 d9 bf ee cb 22 40 78 23 f5 3f
       -0.4037584853220972 1.321159601717905
000650 9a 20 81 e1 b0 ae f3 3f 00 e7 b3 76 72 fa f6 3f
       1.230149155499055 1.4361443173242492
000660 a2 39 61 87 18 02 f2 3f 71 64 3f b9 18 75 cc 3f
       1.1255116737625959 0.22232350392622238
000670 fb e0 d1 17 b4 ec f1 3f bc 2b b9 d1 9a 22 e6 3f
       1.120288937612769 0.6917242141874946
000680 bd f6 c7 85 b8 3b d1 3f 67 82 a9 6b 9d 3d e5 3f
       0.26927006783067126 0.663771353032712
000690 16 d3 f2 dc d1 d9 eb 3f 5f ac e9 09 35 cc d9 3f
       0.8703393283272784 0.40308881729169416
0006a0 7e f6 68 6d c1 d0 d9 3f 7a f9 f8 59 0a 82 e0 3f
       0.4033664291817799 0.5158740765835284
0006b0 2a 97 67 52 82 59 bd 3f 96 4a 0e 43 7a 94 c1 3f
       0.11464705001671108 0.13734367632112726
0006c0 6b c2 0e c3 8c 6b e1 3f 9d 3d ef 62 74 98 ea 3f
       0.5443786439628416 0.8311101848902812
0006d0 e4 da 9c bd 6a 6f f3 3f 85 6a 1a 32 34 cb e3 bf
       1.2147014052149467 -0.6185551622941864
0006e0 23 65 a4 06 b4 30 d0 3f a1 48 89 ef e3 61 b3 3f
       0.2529726090302395 0.07571243856480915
0006f0 06 d5 00 51 94 01 f1 3f 4a 1c e7 5c bf a0 ce 3f
       1.0628855861844513 0.2392806247355302
000700 1a 8e 81 ee a5 17 fa 3f b1 31 85 ad 23 12 d3 bf
       1.6307734791415727 -0.2979821390661313
000710 67 c9 9c b1 67 d3 d6 3f f3 a0 51 27 30 11 db 3f
       0.35665314049687996 0.4229240783665908
000720 dd 7d c3 28 61 1a eb 3f 42 4e f2 83 80 07 e4 3f
       0.8469701572575407 0.6259157731132705
000730 69 f6 2a 67 cd b9 da 3f a3 b6 d4 5b 79 5c c7 3f
       0.4175904757974878 0.18250958427363626
000740 f5 d1 40 ff a3 35 e1 3f 9f 6c 1a 7c 53 be f3 3f
       0.5377979264654288 1.233966336038783
000750 cf 23 a5 e5 35 de 00 40 07 ea 78 8b 66 95 d7 3f
       2.1085012379666987 0.3684936868700394
000760 14 0e 47 53 c9 66 d4 3f 01 80 61 5b f7 c1 e3 3f
       0.31877358563016966 0.6174275193006907
000770 13 10 9e 9b a6 66 98 bf c8 21 2f 6a a5 d4 dd 3f
       -0.023829081771978688 0.46610389108220973
000780 dc 93 92 6c 72 6c dc bf b5 65 03 28 e5 48 ea 3f
       -0.44411907770910175 0.821398332739753
000790 10 dc e7 e7 42 85 e5 3f dc c6 60 12 48 84 a4 3f
       0.6725172547729716 0.0400717279848217
0007a0 89 64 38 69 0b 84 d8 3f c3 48 08 66 f7 8a d6 bf
       0.38305936122339596 -0.35223183597657853
0007b0 0e 1f e8 72 13 2c d0 3f 79 61 82 d4 21 a4 ec 3f
       0.25269018384322883 0.8950356627056372
0007c0 30 2d 9a 4a fa 3d ef 3f ca f4 55 22 f1 3b c2 3f
       0.9763156373095736 0.14245428253699394
0007d0 2a 38 91 2a c7 33 dd 3f a2 26 2b 13 d4 1d ff 3f
       0.4562852779098444 1.9447823284885222
0007e0 ec 4a 62 e5 75 4a f0 3f fc 7d f3 72 d8 de d7 bf
       1.0181788406668444 -0.37297641015717864
0007f0 e5 ec 56 68 b1 a0 f4 3f a0 0b c2 d4 e7 71 e7 bf
       1.2892316890491256 -0.7326544909886827

layers.0.bias f8 [128]
000000 65 51 14 19 f3 31 f7 bf 01 a4 41 16 ac 8c f7 bf
       -1.4496947269118092 -1.4718438023940055
000010 8b 7c 70 ec f8 c3 f9 3f b9 21 bd 77 c6 76 e6 3f
       1.6103448139108731 0.7019989336632114
000020 5b e4 7c 99 36 a6 e1 3f 6c 33 28 81 47 42 f0 bf
       0.5515397069749598 -1.016181473273913
000030 26 39 42 19 59 38 bc bf b4 c2 22 41 80 71 f4 3f
       -0.11023480288188078 1.277710203587202
000040 fd b6 20 a4 45 92 be bf 1e 2b 22 40 19 e4 e7 3f
       -0.119419434137594 0.7465940716368527
000050 86 13 90 89 3c 86 e8 3f 64 e1 a0 fe 96 7c f0 3f
       0.7663862883351704 1.0304174372123152
000060 4d 5c 33 cd a1 76 f7 bf b8 e0 a0 30 86 bc 00 c0
       -1.466462899746847 -2.092052822026826
000070 aa 27 3f 87 2c 8b b5 3f 8b 34 46 13 f9 7b f3 3f
       0.08415487577363359 1.2177668335819216
000080 c2 27 93 a4 fe cf eb 3f fd 35 57 41 14 f8 d3 3f
       0.8691399778701838 0.31201654797482076
000090 cf a0 1d c3 0d 98 f5 3f 04 71 46 f1 a9 c9 b7 bf
       1.349622499628868 -0.0929208959627808
0000a0 ec 6c 2e ee fa 6c d3 3f 15 f0 88 e8 c0 86 ef bf
       0.30352662334344305 -0.9851994077394034
0000b0 b0 ec 9a 62 a2 9c ef 3f ba e0 87 8a d4 3e e2 bf
       0.9878704000360781 -0.570169706886211
0000c0 c0 76 da 43 cd c0 e7 3f 06 83 b2 0a c2 0d fc bf
       0.7422853780041905 -1.7533588807929745
0000d0 61 75 b5 ec 4b 07 db 3f 35 ad ea 34 77 05 d7 3f
       0.42232034793945245 0.3597085968746854
0000e0 e8 1b 17 de aa af eb bf ca e1 c1 91 f2 eb e5 bf
       -0.8651937806797578 -0.6850521895240089
0000f0 fc db 6c 31 29 bc dc bf 93 6c 14 8a 18 73 ee 3f
       -0.4489844305675772 0.9515497872229325
000100 71 2e 17 bd 7d 66 d2 bf 5a 70 0f ba ad 36 dd bf
       -0.2875055643641878 -0.45646231813384974
000110 85 ca 62 df 5c a4 a0 3f 2d e6 d0 b6 f5 5e ad bf
       0.03250398852232642 -0.05736511093750738
000120 d8 63 32 22 77 39 f6 3f 96 7d 58 b2 a0 4b 01 c0
       1.3890296302617937 -2.161927598310011
000130 a9 c6 04 5f 89 64 dc bf c7 81 c5 86 12 5e f3 bf
       -0.44363626746335655 -1.2104668869506996
000140 5b 3c a1 31 eb 2a ee bf 01 b8 89 29 18 04 f3 3f
       -0.9427391022999346 1.1884996054245678
000150 84 25 68 1d 26 b5 f6 bf e9 27 bc df e9 33 d1 bf
       -1.4192258022979738 -0.268793552867122
000160 19 3d e0 d0 df 2f f7 bf 94 18 80 1d 1d 73 ce bf
       -1.4491880568710427 -0.2378879922909546
000170 59 3a f7 24 87 5b db 3f 13 a8 86 db df 8e ea bf
       0.42746142015395133 -0.8299407279603223
000180 12 8c 43 da 7b 97 d2 3f b5 a2 d3 57 08 7b db bf
       0.29049583735303586 -0.42938431336237254
000190 d6 5f 1e 5f 9b 0d fc bf 6a 4a ff 0b 1e ad cb bf
       -1.7533220019886264 -0.21622062288095673
0001a0 7a 21 0a dd 0f 7b f5 3f b8 68 5d f2 9f 5e f5 3f
       1.3425444254263241 1.3356017558458415
0001b0 f4 d9 38 df ec 50 99 bf a8 4c 58 5d c7 5f e9 3f
       -0.02472276794852664 0.7929417441504443
0001c0 d3 93 bc c4 75 1d f8 3f 34 b3 61 c0 48 27 f1 3f
       1.507192390921081 1.0720908656032409
0001d0 65 c0 43 8a 24 89 e2 3f c4 ed d1 55 74 17 d1 bf
       0.5792410564881832 -0.26705654507506105
0001e0 1a c4 25 0c 0a e3 e9 bf 57 ba 49 df bd 2f f1 3f
       -0.8089647519356078 1.0741556856334193
0001f0 4a 67 39 4a 37 33 ef 3f 94 3b 19 32 66 94 c9 3f
       0.9750019502346075 0.1998412842389966
000200 f7 1d 5b a8 56 3c c3 bf f8 27 79 df 31 c0 e3 3f
       -0.15027888508323858 0.6172112812721471
000210 4e 83 ab 5c bf 1d e6 bf 61 84 4f 2c ab 64 94 bf
       -0.6911312875709912 -0.019915270404343825
000220 02 e2 b4 52 c7 7c f2 3f 1f 5d cb 43 86 ac ec 3f
       1.1554635267949611 0.8960601162060903
000230 75 ba e4 d7 db 9a ed bf 00 39 e9 3b 1a de e1 3f
       -0.9251536575955713 0.5583621187340952
000240 e3 17 aa e9 37 6a e1 bf 70 4b 90 31 9d 25 e5 bf
       -0.5442161144026126 -0.6608415573158322
000250 3b 63 95 c0 55 4f e5 bf 31 a0 4f 4c d3 b3 f6 3f
       -0.6659344445607539 1.4189026814365315
000260 80 80 b4 6c 2d a6 b6 bf 42 d5 7e ad 16 37 d5 3f
       -0.08847316650326498 0.33148734038271155
000270 a7 96 47 aa 90 3e c5 bf 72 7c f9 59 aa 07 eb 3f
       -0.16597183527408285 0.8446857220950632
000280 07 ae 70 d8 c9 ea e7 3f a0 a6 83 1d 3e 55 d9 3f
       0.7474107005450045 0.39582779772045207
000290 19 47 7e 8a 95 74 e8 3f 2d f6 f1 08 74 e2 e3 3f
       0.7642314629503942 0.6213932203970153
0002a0 6d b3 98 52 05 23 dd 3f 80 5d 31 89 7f 18 ed bf
       0.4552624994856192 -0.9092405013606566
0002b0 38 d9 06 63 da cc ea bf 8e a4 82 ad 4e 96 fa bf
       -0.8375064787021875 -1.6616961267230042
0002c0 31 01 fe 09 a8 81 ef 3f 56 52 93 c3 24 cf be bf
       0.9845771975670116 -0.12034826063911316
0002d0 6d 91 be 8e 37 32 f0 bf 0a 49 32 f2 55 27 ed bf
       -1.0122600151017551 -0.9110517244719472
0002e0 2c 37 f6 05 38 9c f3 bf 83 ec 71 fd b3 73 d4 bf
       -1.2256393654710775 -0.3195619559334732
0002f0 6f c3 1b f7 86 25 f3 bf 68 53 14 83 50 a8 e7 bf
       -1.196661916034113 -0.7392962036270605
000300 78 44 ad 71 55 54 f0 bf f9 7c 38 27 1b e6 ea 3f
       -1.0205892982960716 0.8405891195324379
000310 4a 24 e0 e6 98 28 00 40 1a d6 98 21 38 97 e2 3f
       2.0198228871491084 0.58095938264768
000320 b4 b5 93 c9 b6 33 ef 3f b1 6e 84 89 1f 8b 01 c0
       0.975062745766698 -2.1929312461414487
000330 20 27 b1 17 6a 49 ec 3f 22 20 a0 a4 09 20 c5 bf
       0.8839617216810645 -0.1650402120433237
000340 5f e4 c2 56 21 84 e7 3f 8a 66 b8 bd e5 e5 d5 3f
       0.73487917848173 0.34215682532667613
000350 6b 3a 50 bb 18 23 f7 bf c6 c6 4f 7c f0 20 d9 bf
       -1.4460685078553535 -0.3926354612332087
000360 20 dd d5 40 f6 5f c3 3f b6 ec 57 f0 12 a3 f1 3f
       0.1513660255984428 1.102312983361839
000370 10 d8 43 16 95 28 e8 3f 16 20 1b 48 b8 90 dd bf
       0.7549539027083956 -0.46195799867246146
000380 95 f4 21 75 00 5a d0 3f c1 60 23 d9 29 02 f9 bf
       0.25549327315077025 -1.5630281907997843
000390 a0 a6 27 72 38 cd f2 bf 09 f1 5c 1e 38 42 e5 3f
       -1.175102659146809 0.6643334000614526
0003a0 35 22 88 31 d5 0b c7 bf 30 de a4 3e 9a 96 ee bf
       -0.180048608003078 -0.9558840964809345
0003b0 aa 31 03 3a 61 0a dc 3f 3c 8a 68 cc 6e 13 c0 3f
       0.4381335321930019 0.1255930421912853
0003c0 81 fa bf e4 9d fe d6 bf 59 3c 0f 5f 5a 33 f1 3f
       -0.3592905744443798 1.075037356687764
0003d0 6e 16 a4 92 0c 51 f0 3f ce bb 07 14 3b 48 e3 3f
       1.0197873809969695 0.6025672332015064
0003e0 b7 26 ad 5b f1 4a d5 3f ff 2b 8d ec 92 9a d8 3f
       0.33269914582033827 0.38443444348075667
0003f0 02 3a dc ed 4a 38 e6 3f 24 17 01 71 e7 a2 d3 bf
       0.6943716664989668 -0.3068178752476902

layers.1.weight f8 [100, 128]
000000 1d 35 d0 99 e9 ef aa bf ed 26 7b 40 4f 74 a6 3f
       -0.05261163714031112 0.043856121655677295
000010 74 79 c9 9b 1e a5 9e bf 11 0b a6 4d 28 cc b9 bf
       -0.029926756151661363 -0.10077144523351601
000020 79 a7 0d 63 4e 22 be 3f 13 e5 b6 c8 bc c6 87 3f
       0.11771097105306962 0.011609530330007922
000030 d5 69 0a 81 7c fc b3 bf 3d 4e a8 f0 52 d8 bd bf
       -0.07807138586432612 -0.11658209205079913
000040 0e 7c 48 65 ed 81 bb 3f 64 db d8 ac 91 53 96 bf
       0.10745128367169363 -0.021803165602445232
000050 12 e1 17 8b a2 af 9d bf 79 00 69 d0 67 61 b1 3f
       -0.028990306605892142 0.06789254034174687
000060 59 52 78 39 45 85 a2 3f a2 c0 d7 00 b7 8e b2 3f
       0.036173022523290306 0.07249015589309463
000070 42 cc 83 56 3d 2b a5 3f 8e 80 6e d7 47 6a a4 3f
       0.041345516978161814 0.03987335686474679
000080 32 fd 8d 83 e1 97 ab bf 4b ed 74 1f a6 d7 ad 3f
       -0.05389313441173228 0.058285895671782294
000090 45 4a e9 83 98 8a 96 bf 8f e9 05 b6 74 43 cb bf
       -0.022013075877405325 -0.21299609077307166
0000a0 3a 62 d5 f4 25 e2 a6 bf 53 e1 49 ba 4c e3 a2 bf
       -0.04469412435236504 -0.03689040922194189
0000b0 44 c9 68 e8 8b 8c bd bf 63 32 d3 20 44 82 c0 3f
       -0.1154258196263856 0.12897540667326543
0000c0 c8 94 fa ed d1 9a b8 3f f5 d7 0c 5c 53 17 49 bf
       0.09611236629514786 -0.0007657200841097988
0000d0 f0 3b 77 e6 0d c5 c1 3f ab 26 bb 97 90 dc ae 3f
       0.13882611993037086 0.06027652599511887
0000e0 fd 9a e0 e8 79 0c 8b bf 48 af be 85 e9 7c be bf
       -0.013207390231469324 -0.11909350886588499
0000f0 88 24 19 bf bc 6f b3 bf 41 5b 8d d7 df 02 b7 bf
       -0.07592372575267536 -0.08988760960106125
000100 28 c7 45 4b 6d a2 b0 bf 3e 8e db 9f 98 1a 7b 3f
       -0.06497843826016647 0.006617160977586743
000110 a7 ec 1e 73 bd d7 ba 3f b7 e6 7c 71 05 cf c4 3f
       0.10485443172994967 0.16256778756524223
000120 23 a3 26 08 36 5b 8a 3f 86 a0 51 68 9d ba 94 3f
       0.012869283794161362 0.02024312924587026
000130 32 d9 11 6e ad 10 b0 3f 07 52 8c 28 06 49 8c bf
       0.06275447785614999 -0.013811157333784697
000140 29 0d 3d e8 b0 b3 b1 bf 70 f7 74 26 cd 8b c9 3f
       -0.06914811773190323 0.19957889917162275
000150 e9 7e 9e 23 42 4b c4 bf ee 49 a8 92 3d 3e 72 bf
       -0.15854670275893248 -0.004453888434471127
000160 68 f7 29 0f 7c 2e b3 bf 60 51 30 ac 4d 72 cf 3f
       -0.07492804880345505 0.24567576320317652
000170 54 3d 87 77 81 63 b0 bf 98 af e0 17 36 3f d0 3f
       -0.06401833694620979 0.2538581116848433
000180 16 9e 5a fa 97 90 c4 bf 83 62 14 8e cb 41 a7 3f
       -0.1606626484328763 0.04542385205622159
000190 cb aa d7 27 d7 c9 70 3f 75 da e1 68 23 d1 b0 3f
       0.004098740054795778 0.065691197496429
0001a0 9d 2d ef 23 4a f1 aa bf ef 52 fc 8b 47 d9 96 3f
       -0.052622143637189846 0.02231323043732208
0001b0 e3 6d f9 e2 06 2a a4 bf ec c2 79 d9 53 98 99 bf
       -0.03938313980753685 -0.024995145939501848
0001c0 06 f7 ed 93 0a 7c 58 3f e8 f5 61 22 bc 73 bb bf
       0.0014944175051989097 -0.10723472442074178
0001d0 b5 69 6a f2 a5 67 ad 3f 23 f0 18 51 8e 24 b1 bf
       0.057431398240811594 -0.06696404914777125
0001e0 fb 92 7d fd 0a e3 bf 3f dd 74 6a 3b 80 39 85 bf
       0.12455815018399712 -0.010363580525615418
0001f0 02 11 0d 9b 44 71 ba bf 68 12 e5 ea fc 51 a1 3f
       -0.10329083238054085 0.033828643487628096
000200 ee ca 4f f1 90 fd b0 bf 08 ce 61 70 0a 89 6f 3f
       -0.06636911288641631 0.003849525822312353
000210 7a 2f 7f 8f fc e0 94 bf 3f 1a 0d f5 46 9d b1 3f
       -0.020389505632734985 0.06880610926337115
000220 e7 37 02 82 00 36 9e 3f 74 79 bb 87 94 9b bf bf
       0.029502876219844067 -0.12346771539475815
000230 36 1d f7 72 ad 5a c9 bf d7 49 63 6f 06 3a c0 3f
       -0.19807975877322698 0.1267707866559948
000240 95 4e 0d 8f 85 3c b2 3f 77 7d 20 5a f5 32 b3 3f
       0.07123598806838978 0.07499631357540247
000250 7a 81 16 ff 29 fb 8e 3f e0 ac 4c c9 5e 4e 9a 3f
       0.015127494904675787 0.02568958381304476
000260 86 9e 0c 0d 6c 49 94 bf bb 1c 62 cf bc eb b7 3f
       -0.019811332985368434 0.09344081938808106
000270 e8 d8 c1 c1 bd 1e 85 3f 27 ef b3 e2 ea b2 a9 bf
       0.010312540507794357 -0.05019315736168855
000280 4f 96 f1 83 e1 89 be bf 5a 4f 47 0e 7e ba c4 bf
       -0.11929139586717351 -0.1619412965507035
000290 68 f1 9b d0 b6 35 c0 bf fe f3 3d 84 1f 40 b0 bf
       -0.12663922487252965 -0.06347844103397901
0002a0 90 8a 00 1f 38 c4 c4 3f 44 ed 15 80 3d 8c b3 bf
       0.1622381354691993 -0.07635864617434601
0002b0 57 ce b8 cf 84 2c ca 3f dd e1 9d 41 46 6c 96 bf
       0.20448360579176736 -0.021897409205367303
0002c0 21 14 ba 3a 01 62 b6 3f fd b6 93 ee da 31 c2 bf
       0.08743293460618463 -0.1421464600493251
0002d0 2e 55 e3 b9 1a 7c b1 3f 00 29 70 b4 b0 19 9d bf
       0.06829993284494115 -0.028418313038891974
0002e0 b1 eb 36 e1 0a 4c b0 bf f3 ea 3e f3 90 85 96 3f
       -0.06366031645204263 0.021993889662307486
0002f0 03 c2 c3 23 48 c7 b5 bf e7 de 1f 26 2b 9e 94 bf
       -0.08507204888497459 -0.02013461513703776
000300 bf 05 85 de ae 01 77 3f 79 80 ec 97 89 1b b1 bf
       0.00561683948791497 -0.0668264385135461
000310 c5 b5 64 a6 63 a9 05 3f d0 f9 c9 3f 66 ed b2 bf
       4.1316369605897146e-05 -0.07393492753360609
000320 62 29 99 32 8a 5d b1 bf 91 dc 30 6b f7 de b4 3f
       -0.0678335546046234 0.08152719847645275
000330 6b 16 c6 a5 54 bd c1 bf 77 c2 80 6e 32 fb 97 bf
       -0.13859041304037886 -0.023419178003850818
000340 fb c2 39 91 9d d2 88 3f 31 ee b0 42 57 a6 ba bf
       0.012120467180666497 -0.10410066011621023
000350 86 b7 07 24 b0 e2 89 bf d6 13 b3 b4 08 c1 9e 3f
       -0.012639404391815889 0.030033241299651646
000360 11 9e 62 f0 60 d9 c2 3f 8f 9a dc 6b 60 7a b1 3f
       0.14725887048301492 0.06827356942504025
000370 76 56 2f 54 87 77 98 bf 3f 07 1d 67 44 52 99 3f
       -0.023893465531577417 0.024727886956731778
000380 ad ba a9 60 d3 40 97 3f 36 15 a4 98 aa 85 a1 bf
       0.022708227896539302 -0.03422291863720732
000390 b6 ef 4a 84 12 63 b2 bf 68 95 3c f4 48 d7 95 bf
       -0.07182422380259265 -0.021329059512159715
0003a0 b0 ac 1e 48 16 3e b2 bf 2b 70 63 f4 9e 05 b0 bf
       -0.07125987301576475 -0.06258576838030254
0003b0 62 fb 53 9e 66 aa a9 3f 33 57 e5 67 23 f4 b3 bf
       0.05012818033900747 -0.07794400488395752
0003c0 f9 79 76 e0 50 d5 96 bf 70 e7 c9 a9 7c a4 9d bf
       -0.022298110675928105 -0.028947780478552898
0003d0 0a b9 7f e2 fe 4a c2 3f cd f6 c1 66 79 a6 a1 3f
       0.14291368541257327 0.03447322253576388
0003e0 d8 24 69 7f cb d3 bd bf 0c 10 db f1 70 38 a3 bf
       -0.11651298390019649 -0.03753998710956816
0003f0 a0 eb 0b 0f 39 89 bf 3f 6e bf 1b 79 77 2a c2 3f
       0.1231876050696159 0.1419209805821952
000400 fb b4 c4 ec a3 f2 cc 3f 6c 28 27 20 6f aa e8 3f
       0.22615479527431845 0.7708049419391165
000410 18 99 9d f3 f2 0c cc bf 70 f4 46 bf 53 19 dc 3f
       -0.21914517302793324 0.43904584578905936
000420 dc 56 14 f7 38 b8 e9 bf 1e b0 bf 8b b6 46 d9 3f
       -0.8037381006021991 0.3949409832700911
000430 4c cb 89 45 0c 43 e9 bf c6 53 54 20 8b 14 eb bf
       -0.789434562508498 -0.8462577468331964
000440 81 7b 67 98 e5 36 ca 3f cb 28 3b fd 11 c4 d8 bf
       0.20480031911480626 -0.38696717958067656
000450 3f 8d 3b 63 7a f3 ca bf 36 a0 41 08 a2 a3 aa bf
       -0.21055536122649163 -0.0520296702459863
000460 91 86 68 57 d0 81 ee 3f 20 95 6d 3c b7 27 d6 3f
       0.9533464152520584 0.34617405797173895
000470 39 27 e1 a4 6e df bc 3f 59 d6 9b 49 28 d8 d6 bf
       0.11278430486086401 -0.3569431990466448
000480 74 16 46 cf 32 72 c7 3f 6a 0a dc 83 7d ce e0 3f
       0.1831725608901028 0.5252063346272966
000490 ef df b0 57 58 12 e0 bf ee 2e 2d 4a 63 c4 d0 bf
       -0.502239390631983 -0.26198656314657753
0004a0 10 9b c5 f2 8b 84 e3 bf 32 01 b3 25 76 e2 b1 3f
       -0.6099300138128871 0.06986177845374611
0004b0 53 3b 1d 97 00 2c c1 bf e3 56 39 1e 96 14 e2 bf
       -0.1341553438055266 -0.565012988120284
0004c0 03 39 f8 6e 89 0f d0 bf b7 39 3d 79 4a 89 ea 3f
       -0.25094829403759905 0.8292591445877439
0004d0 d4 83 aa bb 3b 76 cf 3f 4c 7b 59 cb 49 ae 72 bf
       0.24579569495565912 -0.004560745486371708
0004e0 77 73 91 03 a2 10 d9 3f 7a 12 4c 22 ba a6 d7 3f
       0.39164018963292996 0.3695512137349294
0004f0 f0 8c 26 92 86 8f 90 bf 36 6d 37 63 0f c8 d9 bf
       -0.01617250697166822 -0.4028356999312622
000500 14 a3 81 28 19 0d eb bf 2e 11 23 5f 1c b2 84 3f
       -0.8453489104404945 0.010105344441747901
000510 9a 4a f8 69 0d b6 db 3f e6 ab c1 cb 9a 00 c0 3f
       0.43298659657117755 0.1250184531121185
000520 18 31 ff 8d 27 1a e7 bf 33 ef 38 77 ea 75 e4 3f
       -0.7219426892639005 0.6393940285265444
000530 12 97 bd 9c 4e ea fa 3f f5 84 74 36 6c ec dd 3f
       1.6822038767508656 0.467555096796857
000540 01 68 7a 48 7e e3 d1 bf 2b 26 0c 41 8c 7b b2 bf
       -0.27951008871025357 -0.07219769084999743
000550 c5 39 75 80 79 c8 b3 3f 3c fa 1f 35 31 d2 ac 3f
       0.07727774988345633 0.05629113934991323
000560 be bb 56 d2 a2 a0 f2 3f 30 44 17 52 af 07 c7 bf
       1.164217778812357 -0.1799220228990932
000570 fa 9f 7f ea 07 29 d7 bf b8 06 b0 46 83 c2 d1 3f
       -0.3618793287300829 0.2774971189793223
000580 e4 23 7c 68 1c 10 e9 3f 48 37 2b 79 a8 a7 d6 3f
       0.783216671058764 0.3539830382622893
000590 01 8f d4 4b 4f fe f0 3f 8f 1e b1 7f 15 3c e8 bf
       1.0620873415109033 -0.7573344701749692
0005a0 2a 5b 5b 64 20 75 e6 bf 01 6f ba 95 b0 e2 ce 3f
       -0.7017976722807806 0.2412930232138635
0005b0 45 30 46 72 88 54 c4 bf 03 a8 72 bb 99 6c e5 bf
       -0.1588297422389379 -0.6695068989840823
0005c0 fc db 6c c8 02 29 ec bf d1 9d 3e f0 6c 26 c9 3f
       -0.880006209807902 0.19648515444462913
0005d0 90 b8 c3 88 8d 2a ef 3f a0 5e 25 a3 14 97 da bf
       0.9739444419081043 -0.4154712289068616
0005e0 ff a2 cb 86 e6 be be bf 3d 06 00 de ed 36 ea bf
       -0.12010041037468609 -0.8192052207888946
0005f0 b7 5a 7a 75 c9 03 f0 bf c3 02 c3 c2 cd dd b7 3f
       -1.0009245480520528 0.0932282066814976
000600 03 a4 e6 1d dd 06 e2 3f db 47 b4 aa 20 f0 e6 3f
       0.563337858581804 0.7168124517504525
000610 fc ac ba 56 b9 58 c4 3f ff e3 5b ee b4 65 a4 bf
       0.15895764097999876 -0.03983846101431964
000620 03 71 5b 27 8b 01 e5 3f 2d 7b 08 fd 0e 77 bf bf
       0.6564384239859752 -0.12291043927733077
000630 3e 2c f2 32 44 1e e1 3f a7 4e a5 61 7e bb c8 3f
       0.5349446291960545 0.19322185294969538
000640 92 a2 cc 24 67 91 d1 3f bc 0e 3d 49 46 93 e0 3f
       0.2744996890419681 0.5179778509559223
000650 cd c7 4e 13 f7 2a e6 3f 6a f9 ca 65 6b 38 ad 3f
       0.6927447678665374 0.057071071792495
000660 bd 67 cd 33 40 1b 9b bf c0 5e ee b7 f9 3f c0 bf
       -0.02647114101578273 -0.12695237618458144
000670 0e b2 e5 e7 7a 03 e1 bf 4b 23 78 ca 8b d8 db bf
       -0.5316748170130852 -0.4350919224967142
000680 a9 cf b2 1a 6d 30 af bf 38 8e 66 47 c5 8d e4 3f
       -0.06091633749875253 0.6423059839766614
000690 4b 39 8d bd ba 27 cc 3f 95 9c ee 9e 16 b7 f8 bf
       0.21996244674159934 -1.5446993072780846
0006a0 2a cc 17 0d 1f f1 e0 bf 22 fb df 4c d6 17 c5 bf
       -0.529433751651941 -0.16478995088251575
0006b0 49 5a 07 a4 28 28 a5 3f 2f e7 bb 69 80 16 c2 3f
       0.0413220119696019 0.14131169474404134
0006c0 4b cd 88 66 2f 57 d6 bf 24 66 30 90 d3 c7 cd bf
       -0.3490713597595529 -0.23266071835023283
0006d0 bc a6 47 cc ba 95 e3 3f e4 25 32 e6 8c 61 d5 3f
       0.6120275487748681 0.3340790031439538
0006e0 da db f7 08 eb c2 be bf d3 33 80 e7 82 cd f3 3f
       -0.12016171425771863 1.2376736681937828
0006f0 be a7 aa 9b ec 17 d2 3f ea bc da 4c 90 dd e3 3f
       0.2827102203542572 0.6207963467658406
000700 65 8f fc 93 3c ee e2 3f f4 90 66 1d bc 36 87 3f
       0.591581620250946 0.01133486714099561
000710 e5 37 ec 9c 12 18 d9 bf 98 4f 95 df 7b 2c 61 bf
       -0.3920942814301028 -0.0020964068795965123
000720 ae 1a f2 a6 de 5e e9 bf bc 54 05 e9 b8 81 e2 3f
       -0.7928307781847559 0.5783352423847172
000730 ca 44 90 6b b2 48 d5 3f f5 24 be dd 24 be d7 bf
       0.33256206993344206 -0.3709804692703778
000740 ca 80 68 ca 73 d1 df bf ad 0b 0a 1d bc 2a b6 bf
       -0.49715895430018675 -0.08658958157506787
000750 c8 79 e3 e3 fa 02 f7 3f df 8b 16 8b f7 d7 d5 bf
       1.4382275487802065 -0.3413065775186492
000760 84 fa 00 93 12 a9 f1 3f 34 9d 55 f7 0d 4b e1 bf
       1.1037774793946094 -0.5404119330168329
000770 4e e3 69 0b 65 b6 00 c0 21 ce 17 1c e6 36 df bf
       -2.0890599147500444 -0.48772576087432823
000780 6f cc e0 11 fc ac df bf 9d 3f cd 96 a1 84 da 3f
       -0.4949331450072298 0.4143451664613112
000790 d0 93 a5 00 65 c0 d9 3f 47 a1 cd fe dd 07 da bf
       0.4023678308788563 -0.40673017390374294
0007a0 16 06 24 df 92 82 de 3f 32 fd 87 2f bd 7a c0 3f
       0.4767195872410367 0.12874569722041823
0007b0 da 60 26 c8 c0 f7 c1 3f 9f 46 2b 6e 68 94 b0 3f
       0.14037332318253598 0.06476452531503661
0007c0 97 73 56 d2 2c 97 c6 3f 0b fb 63 47 f8 8c e6 bf
       0.17648849745173997 -0.7047082323404948
0007d0 19 0e b8 66 54 54 d1 bf 37 5f 42 09 1a 84 e8 bf
       -0.2707720759501356 -0.766125696262839
0007e0 19 e5 e2 62 0c 39 a8 bf 65 66 48 8e d2 4b f6 bf
       -0.0473102446280313 -1.393511348526226
0007f0 7d 9c 23 16 cf ca d2 bf db 94 d9 12 85 b9 ec bf
       -0.29362847482702376 -0.8976464622652672

layers.1.bias f8 [100]
000000 c6 70 8d f8 47 9e a2 bf 91 10 e8 e7 b1 d1 c9 bf
       -0.03636383923614654 -0.2017118818622561
000010 e4 fc 00 44 cb fd 86 3f 07 35 68 ef 4a 7a b9 bf
       0.011226261151135515 -0.09952228875063805
000020 a1 e6 11 de 9d e8 86 bf b8 84 ff 18 56 05 e1 3f
       -0.011185868587051674 0.5319014061207303
000030 d6 51 79 dc c6 ea a0 bf 6f e5 50 a3 47 e1 cf 3f
       -0.033041204846685865 0.2490624949876223
000040 fa 85 25 4f 88 44 ba 3f 26 61 80 f9 35 64 b1 3f
       0.10260822231568759 0.06793534604401383
000050 89 f0 e0 87 0e c1 94 3f 0b 95 22 1a 2b 5b d2 bf
       0.020267703097701904 -0.2868144755578476
000060 3d 30 d0 af 48 14 a7 bf 11 94 7c de 8a ab 9e 3f
       -0.04507662912519137 0.029951257543093194
000070 12 44 db 60 16 73 b8 bf ad f4 f9 f0 10 a2 a0 bf
       -0.09550609459553552 -0.03248646680456466
000080 68 84 d7 07 7b 5f a3 3f 56 15 fd f2 c3 8f cb bf
       0.03783783407903557 -0.21532487263372485
000090 99 31 31 a6 f6 d6 6a 3f c1 10 a1 14 b5 fa b2 bf
       0.0032763306967693137 -0.07413799050943039
0000a0 a6 56 16 6c f9 7f 9f 3f ed d8 a1 97 14 f5 c2 bf
       0.030761620733378202 -0.14810426143566904
0000b0 bc 40 36 c5 1f 81 c2 3f 12 08 f4 8d 09 23 b2 3f
       0.14456555490006007 0.07084712711005661
0000c0 0c 04 1c 74 37 59 55 3f dd ae 11 6f 2a 52 88 3f
       0.0013030091799353131 0.011875468744811208
0000d0 c9 95 a7 88 23 17 c3 bf 57 bf 02 af 2f 5e 9a 3f
       -0.14914364025677987 0.025749917084510212
0000e0 a5 71 4f 08 ea b4 85 3f d2 9f e2 8b a8 32 c2 3f
       0.010598972681628302 0.14217097120604066
0000f0 8b be 66 5c 34 f5 aa 3f 22 15 01 a9 7c a8 af bf
       0.05265201213785272 -0.06183232844390775
000100 5c 58 d6 7f 5e 44 a0 bf 1a f7 86 3c ba dc 67 3f
       -0.031771615128648206 0.002912868254695844
000110 a6 4f 5f 62 ee cb 9d 3f 32 53 eb 26 f6 c2 c4 bf
       0.02909824824730802 -0.16219975376466206
000120 5c b5 16 d7 fb d7 b6 bf fc 77 be ea 7c f1 bd bf
       -0.08923315049351771 -0.11696606379561553
000130 7c 49 7d 3c 2f ca bc 3f 73 a6 73 33 4f 52 d7 bf
       0.11246009089271597 -0.3643987657984333
000140 d1 ef 6a 8e 8f 5d 85 bf 48 0e 07 41 77 7d 96 3f
       -0.010432359250778152 0.021962989181487452
000150 8a 7b 08 9d 1a 7a a0 3f 40 c0 ee b1 0c c7 92 bf
       0.032181579274257535 -0.01833743892683537
000160 18 e6 31 77 74 f9 b6 bf cb 96 34 7d fc 4c d2 3f
       -0.08974388036758574 0.2859488699635732
000170 4e 0b 70 0d fd 27 a0 3f b6 d6 74 70 76 c9 e2 bf
       0.031555087938633805 -0.5870926090635382
000180 f5 e9 7d 50 9c 6b a3 3f e3 40 d5 9c 08 58 b1 bf
       0.03793037874762099 -0.06774953679019151
000190 01 10 54 7e 1a ea a6 3f 2e 23 c9 4a 0e 9b 53 bf
       0.044754817887252336 -0.0011966361590955532
0001a0 10 83 cf 5d 2a 7a 8c bf 91 b2 64 97 75 82 96 3f
       -0.013904887187835807 0.021982037892643694
0001b0 d3 f1 c9 41 1f e0 a1 bf 90 4e 14 e8 96 51 84 bf
       -0.03491304090582372 -0.009921244580744643
0001c0 cf 40 71 f8 e2 38 e1 3f 91 a6 eb c9 41 b3 a0 3f
       0.5381941654577761 0.032617622278690146
0001d0 68 f1 7d c5 8d bb bd bf 6f f6 4c 06 de 58 9d 3f
       -0.11614309379178211 0.028659314283905276
0001e0 2d 2c a1 e8 f9 56 97 bf 79 0f f3 54 8d cb b4 bf
       -0.022792725394804748 -0.08123095821343708
0001f0 f9 69 b5 59 3e 42 99 3f 83 a4 e5 68 80 a3 9c 3f
       0.024666761613255848 0.02796745910874111
000200 30 94 e1 ca 60 02 c3 3f 35 fc 30 2f c5 5c a6 bf
       0.14851007372195246 -0.043676530848181384
000210 7f 5d 5f b1 4c 7f a6 3f a0 ac 62 64 51 45 d9 3f
       0.04393996873084926 0.39485583117738976
000220 f7 53 67 c1 57 26 bb 3f 35 49 de ec 24 70 cb bf
       0.10605381461876094 -0.21435987058482345
000230 60 c6 67 a2 55 8e c0 3f 27 cc fd 8f fb 43 b7 bf
       0.1293437045092558 -0.09088108315863562
000240 3a 89 91 c2 ba 1e 87 bf 00 00 00 a0 57 09 a7 bf
       -0.011289080679664044 -0.04499315097928047
000250 32 91 e3 25 00 c1 d1 bf a1 a8 88 f4 af 7e b9 bf
       -0.2774048204430698 -0.09958934516967811
000260 88 45 07 56 cb 2b be 3f cf 03 f7 39 44 02 c7 3f
       0.11785574770262575 0.17975666837995027
000270 07 e6 fe 15 91 5a a9 bf 46 9c 1a 15 19 a8 74 bf
       -0.04951909440519491 -0.00504312322451656
000280 17 76 a9 9f cd 30 ac 3f 59 d9 fc 48 47 91 ad bf
       0.05505983900068772 -0.05774901166880637
000290 8d 98 d0 cf 52 4e e2 3f 91 60 9f b4 b3 4c d8 3f
       0.5720609721072535 0.37968151701853353
0002a0 07 57 a8 48 a3 cc c0 bf 1f 48 57 58 3d 8e b3 bf
       -0.13124505088551805 -0.0763891544986852
0002b0 da 56 44 7d 53 dc c0 bf 20 83 79 fb 10 28 d3 3f
       -0.13172381989050203 0.2993204551512907
0002c0 8a 40 67 43 1b 1b a8 bf bf 87 33 fd f7 98 cc 3f
       -0.0470818061618284 0.22341823447555773
0002d0 cd d0 c1 5a 49 ed ba bf 48 89 c2 e8 a8 a3 a7 bf
       -0.10518320527791332 -0.04617050019557439
0002e0 c2 0a cd 3b 9d 54 d1 3f 0b 73 77 49 6d 72 97 3f
       0.2707894405358894 0.022897441491170272
0002f0 47 38 bb b2 d1 85 90 3f b2 9d 93 b7 bf dc 5f 3f
       0.016135479482550143 0.0019447204816119665
000300 0b 64 d8 cc e0 7f bc bf de ed 3f 1b be e8 98 bf
       -0.11132626534562477 -0.024325342572394486
000310 4b cd 31 17 66 60 71 bf 3f 1f f9 04 aa 3f b0 3f
       -0.004242323676510405 0.06347143765844708

layers.3.weight f8 [100]
000000 41 a2 71 1f ae ac ee 3f ca 6b 37 1c 01 cc f0 3f
       0.9585791219843217 1.0498057462889272
000010 c0 ac e6 25 5f 10 ef 3f 50 13 8d 4f 07 88 ee 3f
       0.9707484951262799 0.9541050485355331
000020 41 0a c0 71 b8 c4 ef 3f 8d 2b 30 6d 8e dc f2 3f
       0.9927637311632865 1.1788467660105397
000030 83 a3 76 18 b0 da f0 3f 2e b7 44 95 da f2 f7 3f
       1.0533905940630752 1.4967904883191738
000040 75 ba 92 fc 86 86 f2 3f f8 1a 70 92 90 40 ed 3f
       1.1578435770167321 0.9141314373126468
000050 54 2a cc 8e 08 12 f0 3f 79 a7 9d 6e 56 ba f5 3f
       1.0044026926067504 1.3579925843173142
000060 f0 62 94 8a 4a 25 ef 3f 33 30 1e d8 db 31 ef 3f
       0.9733021456368913 0.9748362752011474
000070 44 03 ce 04 bd d0 ee 3f 64 97 19 96 0e 1a fc 3f
       0.9629807561724211 1.756361566856378
000080 6a 43 3d 9f 26 10 ef 3f 23 26 18 9b 6c a4 f1 3f
       0.9707215414183399 1.102642637097582
000090 08 72 d3 1c 10 8e ec 3f 27 af 5b 35 cc 3a f1 3f
       0.8923416674620634 1.0768549045851132
0000a0 0e 5a 4b b4 42 2e ee 3f 24 60 03 af 06 78 dd 3f
       0.9431470414518246 0.46045081225520534
0000b0 4b 03 73 3d 04 f0 e5 3f 59 a7 a7 74 5b 8e ef 3f
       0.6855488968068156 0.986127593843075
0000c0 8f f9 12 01 97 4a ef 3f ae 45 3a 9b 70 db ed 3f
       0.9778552075365939 0.9330370933332028
0000d0 74 08 5d 62 df 45 eb 3f ca f7 23 34 09 34 02 40
       0.8522793694649082 2.2754081796146908
0000e0 93 90 7a 54 d2 78 f7 3f 08 8b 96 a2 c5 99 f1 3f
       1.4669974613143821 1.1000419951530507
0000f0 0d 20 1f 34 5f ef ee 3f 06 96 d0 8f 3e 11 e3 3f
       0.9667202013015427 0.595855027092228
000100 63 2f 97 8a b3 69 ed 3f f0 19 5d 9b b8 44 e3 3f
       0.9191529948088654 0.6021388086745088
000110 6a 26 73 51 f9 a9 ed 3f 67 05 fd bb 8e eb ee 3f
       0.9269987669769766 0.9662545844695786
000120 e6 a6 64 e6 79 4b f2 3f 33 20 eb cb 0e cf ee 3f
       1.1434267997487324 0.9627756102354453
000130 96 c6 d3 f5 0a 39 f0 3f 9e 73 1a 4b c4 92 f6 3f
       1.0139264681460296 1.4108317311977099
000140 58 a4 cb 99 b8 30 ea 3f e6 a8 bb 4d b7 c8 ee 3f
       0.8184473995035075 0.9620014684890321
000150 22 58 32 1b e1 1f f0 3f b0 a3 71 11 bd 8b ee 3f
       1.007783037411635 0.9545579281522034
000160 5c b3 bf 3d d7 bb f0 3f 77 45 25 e1 25 e1 dd 3f
       1.0458595668853468 0.4668669413268484
000170 28 29 f2 2a f5 fb ee 3f b7 c4 cd a3 71 d1 bc 3f
       0.9682565535343075 0.11257086037746232
000180 b2 db df b8 33 f9 ef 3f de f9 73 98 65 bc ef 3f
       0.9991701708630585 0.991747663268878
000190 c7 8e 5e 43 95 54 ec 3f b4 4e 16 32 89 79 f0 3f
       0.8853250804717953 1.0296718555954785
0001a0 24 04 8e ef 08 ad f0 3f 3a 5f 38 77 0c 84 ee 3f
       1.04224484993052 0.9536192253608313
0001b0 30 d1 51 96 f2 7b ef 3f 38 cf 19 94 b3 bd f0 3f
       0.9838803230218556 1.0463138375461778
0001c0 c6 b0 a9 00 7d 98 02 40 1d a0 7d 4d 4e 1e ef 3f
       2.3244571735177457 0.9724494470110617
0001d0 30 24 6e 32 89 68 eb 3f f6 9d 53 5d 15 24 eb 3f
       0.8565107331243151 0.8481547186647151
0001e0 43 c4 8d 14 7f 69 f1 3f db d2 99 b0 a1 12 ef 3f
       1.0882559588319658 0.9710243653522314
0001f0 54 d3 1c e8 31 e9 ee 3f 31 5c 95 71 d9 f2 ee 3f
       0.9659661801766597 0.9671447008539699
000200 3a 1f 7a 9c e1 53 f5 3f 49 5d df 4c 35 5f f1 3f
       1.3329788315185866 1.085744190486212
000210 2f af b7 6a a4 1c ee 3f 65 d4 e4 bd 84 a6 ff 3f
       0.9409963688208104 1.978153936169542
000220 07 69 b5 88 ec 0d f2 3f a5 a4 8f 3c cc 10 f5 3f
       1.1283994045430192 1.3166010251682476
000230 e7 82 87 9e 9f d1 eb 3f 6f 31 89 e0 f2 91 f0 3f
       0.8693388077045626 1.0356320162710195
000240 c6 4c 4a ba 5e af ed 3f 00 00 00 00 00 00 f0 3f
       0.9276574743729717 1.0
000250 ee 97 e0 6f c4 c3 f0 3f 77 23 cd 40 0a e4 d1 3f
       1.047794758816504 0.27954346016172543
000260 a7 5c 60 bc 5e 58 f8 3f d3 f3 af 88 5e 42 d6 3f
       1.5215747221425688 0.34780085895891694
000270 7a c1 5b cd 13 fd ee 3f 84 8e 7b c2 46 a1 ed 3f
       0.9683932314783725 0.9259370611657265
000280 73 27 1f b5 9a f7 a5 bf d4 08 31 63 8b 22 f0 3f
       -0.04290469609220695 1.0084337114972657
000290 29 fc 66 3b 9e 2b f8 3f af f0 15 61 12 39 fe 3f
       1.5106489487077488 1.8889335434351258
0002a0 0b 6d cb 40 52 a1 ee 3f 08 ee a9 a8 d1 21 ec 3f
       0.9571925416488808 0.8791282934393516
0002b0 75 e2 34 47 b8 1f f1 3f 34 7f 5c 29 3a 6d e9 3f
       1.0702441007144021 0.7945833976591303
0002c0 b6 27 19 1f 3b c9 e8 3f db 5a fe f5 1e fd 01 40
       0.7745643241298612 2.2485942095039326
0002d0 03 38 4b c2 8a 27 f0 3f f1 a6 c3 80 cd 1c f0 3f
       1.0096538152315595 1.0070319204191345
0002e0 ae 3a 07 95 76 5f fa 3f e4 65 48 cb 3e 8f ee 3f
       1.6483064481177894 0.9549859972350387
0002f0 a5 da ae 6b 2f fa f3 3f f6 2c ad d6 98 31 ee 3f
       1.2485803800933948 0.9435543244266273
000300 c3 9e 7b f3 fe d6 f2 3f 49 2a 7e d1 0c c5 cd 3f
       1.1774892340708198 0.23257599095480178
000310 c4 06 fc 7b b9 95 fb 3f b7 23 85 ec 9b 18 ed 3f
       1.724053844751709 0.9092540378124941

layers.3.bias f8 [100]
000000 0a 5a 23 e1 19 8d c3 bf 87 0c 27 35 cc 5a a4 bf
       -0.1527435635859578 -0.039755231369349046
000010 28 53 57 a2 42 a5 c1 3f c4 fb 73 59 8d ee b3 3f
       0.13785584379970683 0.07785876687920196
000020 89 54 f3 ad 86 53 aa bf 90 32 11 1d 94 3c e1 bf
       -0.05141850350779815 -0.5386448447912517
000030 67 d3 70 89 fd 88 b2 3f 01 3a b3 c7 b4 27 d1 3f
       0.07240280728804081 0.2680484724232031
000040 5c cb d2 15 36 34 e0 3f 51 ac f7 24 63 64 cf 3f
       0.506373446105822 0.24525107674648663
000050 a6 4b ec f2 18 3f 7d 3f 30 80 47 aa e7 16 ca bf
       0.007140252548896086 -0.20382400335711415
000060 40 fd 4a d4 47 3c b1 3f 93 10 7f 89 89 b4 c1 3f
       0.06732605870182784 0.13832205976189424
000070 ff a4 31 3e 06 f9 cb 3f d9 3e 6e 5e 0e 1b e6 3f
       0.21853712117016497 0.6908027500485004
000080 2b 44 82 9d 81 8f a0 3f 00 14 26 15 83 0a 71 3f
       0.032344866254000536 0.004160415688947872
000090 dd de aa a6 19 bf 96 3f 11 54 77 4d f2 5f b8 bf
       0.0222133644080874 -0.09521402732146124
0000a0 e0 29 4f 70 96 e3 d5 bf b9 69 27 38 4b 26 9c bf
       -0.342015847851739 -0.027489829351773774
0000b0 c1 2b 4f 3b ac 78 d6 bf a4 2b 9e cb f1 0c c5 3f
       -0.3511152819816595 0.16445753519323347
0000c0 67 34 70 1f 3c dd b3 3f 77 e1 1c f1 9d a9 a0 3f
       0.07759452598129855 0.03254407470962211
0000d0 48 e6 5d 0d 75 aa a1 3f ba cc 64 75 54 8a e5 3f
       0.03450361049813161 0.673135976109186
0000e0 20 9c 41 c0 cd 1c d8 3f 81 68 cb 0e 47 39 d2 bf
       0.37675803923633744 -0.28474594540387704
0000f0 5e ca 67 5d 35 ba c5 bf ac b9 c6 08 c9 54 d5 3f
       -0.16974513111888972 0.33329988343293837
000100 d4 6d fb 75 53 1b d2 bf 1a b3 c8 26 cd b8 cc 3f
       -0.2829178478402501 0.2243896903395573
000110 4d 72 ba b7 f3 c6 ca bf 3b be 5d 9b 4a 99 c1 3f
       -0.2091965338812706 0.13749058328856897
000120 d8 09 27 3e 69 d2 90 bf a1 92 ce 2d bb 0c 9b 3f
       -0.016427654665457897 0.0264157530506447
000130 6a 9e 6e 19 58 af ba bf 19 64 52 82 32 3a d6 3f
       -0.10423803921605104 0.3473020813631265
000140 d8 7c 23 a6 a2 6e c6 bf 3a 86 e3 5b 9d f6 c1 bf
       -0.17525132286298262 -0.14033858286625095
000150 61 86 19 29 68 ea bb bf 81 5f 04 f7 cb 65 cc 3f
       -0.10904551509295281 0.22185658990269633
000160 83 22 97 55 19 34 b7 bf e1 77 ae 9b 1c 0d e0 bf
       -0.0906387170754304 -0.5016005554823516
000170 df e8 22 9b e3 fb c0 3f 86 99 bd 69 8a 04 d8 bf
       0.13268704485910285 -0.37527714086754604
000180 46 28 e5 84 9a 7b 6d bf 42 b7 4f 97 7b 28 ca bf
       -0.0035989778472514137 -0.20436043632747142
000190 b5 9f bb 09 c0 59 c8 bf 34 89 65 57 76 16 ba bf
       -0.19023895716895614 -0.1019052470560709
0001a0 ed 01 d3 c4 01 73 d2 3f cc 0e 91 b8 80 c8 ad bf
       0.2882694646941946 -0.05817034008989949
0001b0 0e 37 21 b6 34 bb c1 3f 79 5b 21 f7 98 2c ae bf
       0.13852557080320377 -0.05893400208213157
0001c0 d8 d8 7c 3c 10 0d f0 3f 34 00 a9 12 74 23 c9 bf
       1.003189312248244 -0.19639445220127671
0001d0 7f a1 40 ac 0c 6f a0 bf 7f 56 fb f0 6d eb a4 3f
       -0.03209724047366346 0.04085868422195648
0001e0 14 28 43 87 a2 cc 51 3f c3 d5 cf 90 31 03 b0 bf
       0.0010863864127252975 -0.06254873071141902
0001f0 d2 f8 f0 b3 d6 f5 ca 3f 4c 87 47 55 b1 19 b9 bf
       0.21062740122028473 -0.09804828960434725
000200 4c fb e6 cb e2 6a c0 bf 90 e5 54 55 ff be c5 3f
       -0.12826189953008293 0.16989127794822112
000210 3d ba 87 06 41 7f d0 3f 7e ed 0a 52 91 48 f4 3f
       0.2577669681331008 1.2677167134087024
000220 93 78 f3 fb 50 e8 d0 3f 0b 92 d7 68 d3 e9 c0 3f
       0.26417946438403667 0.13213579768411451
000230 f1 bc 41 ee f0 f1 e0 bf ba 6d 54 15 ac 68 c2 bf
       -0.5295338300183215 -0.14381934205526453
000240 07 2c 36 7f 2c a4 cf 3f 56 54 55 dc 1f 59 b9 bf
       0.24719768725876198 -0.09901618127089881
000250 a7 62 86 be b6 05 db bf 3c 99 7b a9 c7 e7 85 3f
       -0.42222374540282676 0.010695991382317353
000260 e1 b7 3d 23 da 3e e7 bf f8 7c fb 16 cf c3 d3 bf
       -0.7264223755171281 -0.30882622951862926
000270 65 eb ea e2 95 0a b8 3f ac 5c 24 8c 4b d8 a1 bf
       0.09391152181608005 -0.034853325707609656
000280 60 08 39 96 c2 bf d2 bf 86 91 0e 93 af ae c1 bf
       -0.2929541079539657 -0.13814348869813048
000290 bb 86 1b f9 a6 8e d2 bf f5 36 65 0e cf 83 eb bf
       -0.289956801671092 -0.8598399430427138
0002a0 4f fd 5e 83 ff bc c8 3f ca 42 7e b0 00 ef 98 bf
       0.19326776423074896 -0.0243492229197411
0002b0 e0 4a 54 11 a2 81 a8 3f 8f 83 f9 12 4a c2 bd 3f
       0.04786402188815031 0.11624587023972154
0002c0 68 2a e4 cb 3d 65 c8 bf 50 a8 7b 5e 90 bb b3 bf
       -0.19058964210155982 -0.07708074862208147
0002d0 7d 0d f5 29 1e cb d2 bf a3 84 85 fa f5 dd bc bf
       -0.2936473283518451 -0.1127618538498774
0002e0 33 f0 bc f0 6b 7d e7 bf ab bd 3b a5 ab 7b af bf
       -0.7340602590479705 -0.06149040596016716
0002f0 d3 31 3a f0 c4 2f e5 bf c6 ed 46 f1 28 59 bc bf
       -0.6620812122287653 -0.110735472589048
000300 51 95 42 9b 7e fe e3 bf 17 cc d3 44 17 a5 b9 bf
       -0.6248162300513888 -0.10017533712725456
000310 89 62 74 ee b7 f5 d9 bf e8 d1 3c b9 0d 4e cd 3f
       -0.40562246595940415 0.22894450707248315
