model_policy2_final.pt (torch, 373734 bytes, 28 tensors)

layers.0.weight f8 [128, 128]
-0.7168464491162512 -0.49669986592185544 -0.4803500740182187 0.13566220304742083 -0.14446613522092558 -0.047185658407468044 -0.13782825936202772 -0.058706558335045456
-0.15409458655272926 0.33762209382682357 -0.020503675245465234 0.09711081565461312 -0.20965265133469443 -0.5224308902574117 -0.3542142875401428 -1.2150062347099
-0.06992707833455326 -0.03615339174644818 0.3567508409372733 -0.31940677078694596 -0.40388295420320575 0.32067750308111415 0.4332619238647794 -0.9954188455500417
0.9240905342879259 -0.5083957649384447 -0.38807684352440347 -0.7366030296391965 -0.6738771346982579 -0.4539461182829748 0.4447994787776608 0.5636114580849181
-2.664958678474133 0.21263444063522105 -0.2326569753396518 0.5426773027968874 0.4671636444665019 -0.9109702227103316 -0.6753471347877332 -2.109649603359984
-1.0411752796748872 0.018797606330397402 -0.5058419082733868 0.37952723422685397 -0.0030740097238590365 -1.0933981777508708 0.2233721779347184 0.11131772433414518
0.4876564952907245 -1.2688900815893431 -2.0525602220089816 -0.625773059884429 -0.1920371207462833 -0.14053253586839856 -1.2843906596077317 0.03559314950977955
0.24777860092998613 0.6728981470212232 0.2614449860178052 0.2083280301625071 -0.7018521373861125 -0.08828453918566367 -0.8065608666317787 0.854702934617919
0.4663630398263232 -0.0836831776835151 0.051112441401310355 0.06986871410306637 0.5661154163883282 0.5455451258319945 0.4643195901569875 1.0121995509364623
0.08341142155144272 -0.19791090120464147 0.15267541817930744 0.05044028706755999 0.23476111535221966 0.2768583741188167 0.20223205868506286 0.8125443926128759
0.02625034397672005 -0.04136761287410612 -0.12007093693889705 0.8742276370216135 0.753571548924466 -0.08514436952834077 0.05678966166579335 1.2596271298967963
0.06332992173175708 0.4850518435057342 0.5309265652586268 0.4509704030141093 0.06284384471842479 0.23521046833607984 -0.04158921532824816 0.8317679729798351
1.95670210921079 0.9936045112423266 -0.19241914154331655 0.3139020819250154 0.4773908032968624 0.8331452579937723 1.3591144580786492 1.071587420931997
-0.5268882651215798 -0.1890611736586064 1.3326013885112096 -0.03302099830680196 -0.6496220043380964 1.0621598612923007 0.8913157226643779 0.9046752345573903
-0.6112198215473388 1.506926153308798 2.127077565918509 0.6884323988775592 0.29787923410527123 -0.5301992457633709 1.2348758936163087 -0.02547870852762237
-1.072507325516502 -0.1741119796501454 0.18197287041342916 0.48167703435817955 0.7641360712723505 -0.24825186807212604 0.5903453942735936 -0.3569707401870167
-0.7702872665484999 -0.3511773811711311 -0.8949283685768209 -0.819026000507058 -0.7353945346854271 -0.7573042371704827 -0.47232333831091144 -0.7024467629047577
-1.0208715146701555 -0.6942058007818234 -0.980155668950034 -0.7610562573184317 -0.6759041757758758 -0.5364936967146192 -0.5823403281665201 -0.721978952175521
-0.7856730515520137 -0.6902468591506024 -0.5346227851722379 -0.767411085084193 -0.8436259988070367 -0.6444269747873874 -0.33392480501414395 -0.9466641646444411
-0.5865033042671367 -0.9686412548911817 -1.0336507356454554 -0.4196176663522079 -0.5219555649081699 -0.6434777254050611 -0.7137141450895781 -1.0898141278394542
-0.6595363362272197 -0.7399071454320973 -0.9964022518564599 -0.570909722701911 -0.7485441183940608 -0.9769898125522275 -0.8256752447086253 -0.7122808642602774
-0.28622849978065557 -0.6046032150631823 -0.3307645529355308 -0.6788291264351594 -0.4376788108396577 -0.6628395392550642 -0.17465855119156998 -0.7212859875113571
-0.03375630117099246 -0.612304781768798 -0.8825978651749483 -0.6424208156200105 -0.7479772613435535 -0.5921206999421407 -0.5184195216256742 -0.5231677419599722
-0.005486417775742275 0.3330067293054129 -0.7713882042647909 -0.6992152392859192 -0.21461530118499267 -0.7160184768977909 -0.8145970929442039 -0.49829862580897516
0.6133510685444762 0.4553421612881381 0.7834377878638292 0.8033394100018457 0.8868150313460077 0.7229755999111247 0.5311623111230016 0.7786211160411456
0.7905180104865547 0.9031591373933998 1.1356833219663465 0.8282058187028908 0.7561344658291766 0.8003996051543726 0.7305636569195048 0.7279485917634073
0.5655292767230989 0.7710673176148635 0.6518490180449871 1.0401017090605773 0.729036885675034 0.9443850936876997 0.46965289555181355 0.9739977021143142
0.7063495879438259 0.8314174156836952 0.8630605918956089 0.5899779570205895 0.8966566814624104 0.7745020959310922 0.7296315317698561 0.6892833071517399
1.334233719866595 0.6465420731680427 0.9668285005916992 0.9464912099430257 0.8824120454845109 0.979885408777486 0.7943458526287837 1.1802022319577854
0.14807946165272887 0.5210433023801285 0.8234980789592995 0.6459312400258347 0.37853296438933554 0.6449248053093057 0.4296114249203625 0.9002056320026989
-0.043942950059432856 0.5268826707881646 1.2494664659576775 0.8593958121794342 0.6692564532626885 0.5823865298364165 0.7848216309051406 0.5318510947391086
0.4470059360382211 0.1744025025785537 0.5482630487973148 0.6328701876332794 0.26939368574543876 0.6712317281185306 0.7682978977836558 0.45502661546412637
00000000: 28a8 e6f6 67f0 e6bf 0ef7 033c eec9 dfbf
00000010: 0086 a23c 0ebe debf 882c b20a 615d c13f
00000020: 41a2 13c7 dd7d c2bf 138e 66f7 b728 a8bf
00000030: 8156 363d 5ba4 c1bf 602f 3838 c90e aebf
00000040: d107 de14 5fb9 c3bf 052b d9b2 999b d53f
00000050: b920 825a eafe 94bf 090f 5321 41dc b83f
00000060: 3348 80e8 e5d5 cabf 886c 82fc c0b7 e0bf
00000070: d3b1 3067 72ab d6bf ef3d a860 aa70 f3bf
00000080: 993e 8db2 bde6 b1bf 7385 6186 b282 a2bf
00000090: 7c59 a97a 01d5 d63f 5da8 a918 2971 d4bf
000000a0: 92bc ede3 37d9 d9bf fbf6 12ef fa85 d43f
000000b0: 337b 6638 90ba db3f 42b4 6e9f 78da efbf
000000c0: f3e9 e94f 2692 ed3f 9cbc fa31 c744 e0bf
000000d0: 176c d141 40d6 d8bf 70ea 4d84 4092 e7bf
000000e0: 78a3 e1c7 6690 e5bf 42fa 0a05 740d ddbf
000000f0: 802f a83b 9877 dc3f e604 84e5 1a09 e23f
00000100: f9e6 09db d551 05c0 1b09 44f8 9a37 cb3f
00000110: 1492 222a b4c7 cdbf 7069 79ca 9c5d e13f
00000120: 7348 b757 02e6 dd3f 7676 4506 ab26 edbf
00000130: 2f8a 2b98 719c e5bf a19a a3f8 8fe0 00c0
00000140: 7ab7 f968 a7a8 f0bf c182 ba01 ae3f 933f
00000150: ab5f 9f5e db2f e0bf da85 bc98 2c4a d83f
00000160: adf1 6867 aa2e 69bf c122 6f16 8f7e f1bf
00000170: af6f 88a3 7597 cc3f bdf4 7a81 517f bc3f
00000180: 3429 bd96 c335 df3f ec51 aaaf 5f4d f4bf
00000190: e8ca 94b1 a46b 00c0 b37c 5d39 5506 e4bf
000001a0: c394 9c20 ac94 c8bf 7513 ca5a f8fc c1bf
000001b0: 66d9 6438 dd8c f4bf 3158 36ea 4339 a23f
000001c0: 634b d28d 35b7 cf3f 4cd8 dfb1 6188 e53f
000001d0: e093 29c0 83bb d03f 43ac 312e 7eaa ca3f
000001e0: 056f 169d 9275 e6bf ae7b 8bc8 d099 b6bf
000001f0: 4e57 0dbc 58cf e9bf 8355 fff7 b959 eb3f
00000200: 4480 075d e4d8 dd3f 1a45 60bf 426c b5bf
00000210: 3485 79f0 682b aa3f 1714 1682 eae2 b13f
00000220: 00c7 e413 9e1d e23f 9219 3e0d 1b75 e13f
00000230: d972 a783 69b7 dd3f 93c4 0428 f831 f03f
00000240: 0d23 ad6f 735a b53f b310 19f8 2455 c9bf
00000250: 1ddb fd3b de8a c33f 8148 b62e 4fd3 a93f
00000260: d4b6 67f8 a60c ce3f 01b3 9d2f 0cb8 d13f
00000270: 0ba7 2077 bde2 c93f 6c41 1a19 5d00 ea3f
00000280: f117 8ec3 5ee1 9a3f e8d4 d0c0 222e a5bf
00000290: b146 5a0b f8bc bebf d08c c83c acf9 eb3f
000002a0: e173 ba14 421d e83f 3511 907a 05cc b5bf
000002b0: 6f02 36d7 8813 ad3f 33fa 00c7 6e27 f43f
000002c0: fe35 b2c6 6336 b03f 532f 2ee3 160b df3f
000002d0: 12a1 4bb5 59fd e03f e435 1af7 b2dc dc3f
000002e0: b30e d2c1 8816 b03f 4814 976a 601b ce3f
000002f0: 37fa 667f 2e4b a5bf 14e0 39de d79d ea3f
00000300: 6931 f1de a64e ff3f 1434 1eb0 9bcb ef3f
00000310: b9c6 06c0 30a1 c8bf 89e9 00c2 f816 d43f
00000320: 6d8e e427 928d de3f d1d2 7c3e 20a9 ea3f
00000330: 3a7f 4fcd eebe f53f 9d53 fbd9 3825 f13f
00000340: d4fc 6ac7 44dc e0bf c34e e712 2833 c8bf
00000350: 4928 64d5 5552 f53f 6333 9ed7 20e8 a0bf
00000360: 6b9c ec15 b4c9 e4bf 3ffd b556 9bfe f03f
00000370: a921 e88c a885 ec3f 969a 3d7a 19f3 ec3f
00000380: 10cf 06df 1c8f e3bf 862c 1f99 5e1c f83f
00000390: f966 2d3e 4104 0140 41f3 d561 a307 e63f
000003a0: 51f0 2810 7410 d33f 865c 9d68 64f7 e0bf
000003b0: 9036 9b39 0dc2 f33f 6558 7b2f 1717 9abf
000003c0: 5605 fd70 fd28 f1bf 7237 3825 4d49 c6bf
000003d0: 99ab 9713 e34a c73f 9c5e 73e9 cbd3 de3f
000003e0: a1e0 797d cd73 e83f 4335 459b b7c6 cfbf
000003f0: 59fa 3706 1ce4 e23f 8adb aecd 9bd8 d6bf
00000400: bc3b 4b7b 31a6 e8bf 5365 ceb1 b079 d6bf
00000410: 419a 69d1 40a3 ecbf 3c0c d803 7635 eabf
00000420: 8a31 841e 5a88 e7bf 579f 7818 d63b e8bf
00000430: c6b4 cbaa 8b3a debf 8c6c 3ba2 717a e6bf
00000440: 22d2 8e5e 7d55 f0bf 41a5 6115 ef36 e6bf
00000450: 0924 e46b 6f5d efbf 9329 f3a6 925a e8bf
00000460: b9fd 45cb 01a1 e5bf 26c8 3cd4 f42a e1bf
00000470: 61bf 132f 88a2 e2bf 93d0 7f9a 731a e7bf
00000480: 2376 b8cf 3b24 e9bf 68fe c694 8016 e6bf
00000490: b75b 403e a11b e1bf 8fc8 20b1 a18e e8bf
000004a0: 52cf 5df3 fbfe eabf cce7 ab51 259f e4bf
000004b0: a1f8 3625 065f d5bf 562d 6ea5 124b eebf
000004c0: 6358 da93 a2c4 e2bf 7f0c eaf1 1bff eebf
000004d0: 5056 915a d589 f0bf e29e 730e 04db dabf
000004e0: 8ddd 2728 dcb3 e0bf ef36 4a99 5e97 e4bf
000004f0: 5846 fb0b bfd6 e6bf a4a0 5cf0 e06f f1bf
00000500: 82d3 53f2 eb1a e5bf 72a4 f6bf 51ad e7bf
00000510: c84b acf9 86e2 efbf ef23 7f77 e444 e2bf
00000520: 59b3 83cb 12f4 e7bf cdfb ad23 8043 efbf
00000530: b07d a47d ee6b eabf 7010 323d 01cb e6bf
00000540: 826d 6f57 9151 d2bf 1f17 78d7 e858 e3bf
00000550: c52f 6216 3f2b d5bf 6e8f 33dc f7b8 e5bf
00000560: 1158 adfc ed02 dcbf 2514 f343 fb35 e5bf
00000570: 0ad2 aa1e 365b c6bf 3894 ed59 c614 e7bf
00000580: fc6d 2083 8148 a1bf 7734 9c32 0098 e3bf
00000590: 2944 cee0 3d3e ecbf 6371 2b19 b68e e4bf
000005a0: 1fe9 7302 6eef e7bf ec27 311c a7f2 e2bf
000005b0: 02b0 5f89 e496 e0bf b549 c146 cabd e0bf
000005c0: c63f b40e ed78 76bf 35bd ed74 fb4f d53f
000005d0: 59cc ba50 36af e8bf 7c21 33a3 f85f e6bf
000005e0: 1ec6 e7a1 8378 cbbf a272 b394 9fe9 e6bf
000005f0: bc95 33ec 2d11 eabf 4b71 5feb 1fe4 dfbf
00000600: 8daf 8b6b 92a0 e33f 9c3d ce72 5324 dd3f
00000610: 666c aa1f ec11 e93f b577 b1d9 f4b4 e93f
00000620: 266f a7ea c960 ec3f 8c93 adb9 9d22 e73f
00000630: a383 641a 48ff e03f 4ee5 abd4 76ea e83f
00000640: 230a 3e6d ec4b e93f ec05 c6fd ade6 ec3f
00000650: 5d54 6746 c22b f23f 3ff2 357d a980 ea3f
00000660: faab 43e8 4032 e83f a9d1 fba1 df9c e93f
00000670: a9b1 c308 c760 e73f fd60 59d8 5a4b e73f
00000680: 8d99 8eda d018 e23f f672 055e 95ac e83f
00000690: 97da cd78 f2db e43f b8dc 8eb0 41a4 f03f
000006a0: aca9 b129 4554 e73f 7ffe 8616 6738 ee3f
000006b0: b878 b704 cb0e de3f 62b9 9e3a fd2a ef3f
000006c0: bb60 7873 6a9a e63f 3df6 35b2 f89a ea3f
000006d0: b00e 153f 319e eb3f 5b75 d873 19e1 e23f
000006e0: c2de 535a 69b1 ec3f cea3 969e b8c8 e83f
000006f0: 109f e239 2459 e73f 7ea7 bcdd 9b0e e63f
00000700: 5cc2 0075 0559 f53f 42d5 7700 79b0 e43f
00000710: e039 dc52 42f0 ee3f 3904 15ef a749 ee3f
00000720: 617a 9e2f b83c ec3f 50dc 10a5 385b ef3f
00000730: a21f 58fe 476b e93f 5ecc 4ebc 1be2 f23f
00000740: 2bfe 808e 44f4 c23f 3fb8 f000 63ac e03f
00000750: 595e aea4 185a ea3f 9f05 ecfd 77ab e43f
00000760: f3a5 a053 e239 d83f 26d8 6558 39a3 e43f
00000770: b156 01eb c07e db3f 210d a40a 7cce ec3f
00000780: c440 caba b07f a6bf 5ca8 fb0b 39dc e03f
00000790: 6fca 8b8c d0fd f33f 3129 74a5 2b80 eb3f
000007a0: 6fce 6c82 8c6a e53f 23e8 6813 e9a2 e23f
000007b0: 70ca bd40 421d e93f 70e1 4796 ec04 e13f
000007c0: d1ba 19c9 be9b dc3f 432d 753a d252 c63f
000007d0: 2e12 06f3 5e8b e13f 3af2 cffa 7840 e43f
000007e0: caa2 8103 bf3d d13f 19d0 09f6 ba7a e53f
000007f0: 8f1f 1279 e595 e83f 6697 0ef4 271f dd3f

layers.0.bias f8 [128]
-0.1458560644857523 0.23200878234455785 0.1787886743778205 0.3942422608477472 0.3847780842887038 -0.5596535995654532 -0.44811607579493673 -1.2411648207940664
-1.163089774708724 -0.8866249975827908 -0.15947515743383017 0.6377233657036974 0.9239973402202047 0.1806785250583149 -1.170249079981882 1.0599173159198372
-0.5185724200308508 -1.0670500988525287 -0.6827923649150903 -0.06889089735988539 -0.5227087720543195 0.6953766122620488 0.5562650233617809 0.06592355314260279
0.2823124125280884 1.1373461466330275 -0.5234734198541574 0.15656201372359324 0.42163141545917815 -0.2924074918346551 -1.0489618781864387 -0.12718369156150353
-1.0093349176608737 0.33584000626489324 0.3185516482476435 -0.48338213323590695 0.5030532367876747 0.07727008045537018 0.14098624189532422 0.25275513326522403
0.4017024588268838 -0.20928281269340848 0.8557913184488195 -0.21437753183297845 0.5240113147181407 -0.5726827612730008 0.355857800553986 0.39723772580483785
0.29196076375469754 -0.6005162150185311 -0.9943096795048858 -0.14654666655672738 -0.83020973029992 -0.8402252310400795 0.945554239024095 -0.5866077641086225
-0.5932153704323668 -0.13950239657274313 0.963112469310439 -0.5172560656155523 0.40239339212448966 0.5354185318772812 -0.17455360444505544 0.22444583358870396
-0.09769853016254737 0.7799517564301325 0.4099560172491884 0.6038562676544954 -1.1441187877284742 0.4230977099033577 -0.10989824954047041 0.06327771589667032
-0.3775565901765658 -0.10832944778168922 -1.421327950946071 -1.2453786170252645 -0.008126824052755858 0.34404984620039036 1.4307627223878612 -0.5205809876413892
-0.06213608243516457 -0.7230764489064908 -0.7306901329470706 -0.21678561841431152 1.2324411340441512 0.8670639521506598 0.01483254099446571 -0.35625720315633536
0.06062070330329724 0.8300906014688162 -0.5712142258458249 -0.3620917570436547 -0.6143491169037344 1.1778885522295273 0.6843600672214316 -0.4230969438107121
-1.0056116560607968 -0.5593135982090242 1.0409417224365507 -0.8781259402751488 0.6513608164467501 -0.6000167790618628 0.1374275868098417 -0.5568593251508734
-0.015053719478347327 0.6056415295309266 0.5518014833998642 0.096796112092318 -0.41181636264145405 -0.46916298899823844 0.32589709059022376 -1.2853875318120322
0.5777352789847829 0.2416361192669384 -0.21667754648067133 -0.31497219789115627 0.28288739270592134 0.41574946039211835 -0.9801340251914298 0.2504587844768196
0.7789445393879381 -0.43489505712238996 -0.29625265428694497 -1.1720571234702633 -1.078833582482925 0.15235751114937215 1.2211401157538837 -0.5632161525781263
00000000: 89dd 7159 69ab c2bf 0aff 46ba 76b2 cd3f
00000010: 0b89 ac1a 8ce2 c63f 01b3 42e4 433b d93f
00000020: 6f33 0f42 34a0 d83f 181d 67aa aee8 e1bf
00000030: 9878 960c efad dcbf 7619 a4a4 cfdb f3bf
00000040: c4f9 0a06 049c f2bf afe4 0d63 3b5f ecbf
00000050: c6f3 d994 ae69 c4bf 2cf5 f2d4 3a68 e43f
00000060: c7c6 bade 6291 ed3f 6e84 1b52 7920 c73f
00000070: ee23 6b19 57b9 f2bf d36f 05dc 6bf5 f03f
00000080: 887b 1430 2598 e0bf 2b3e dc1f a312 f1bf
00000090: 199a a85f 6fd9 e5bf ef1d 2777 d5a2 b1bf
000000a0: a6c7 29bf 07ba e0bf 6233 0274 8640 e63f
000000b0: b9eb 674e eccc e13f d099 c8b0 5de0 b03f
000000c0: 3308 c414 6811 d23f dc53 80df 9132 f23f
000000d0: 0d2a 5354 4bc0 e0bf e88e 5e5c 390a c43f
000000e0: 4641 1755 02fc da3f 3841 a2e9 cdb6 d2bf
000000f0: ddfb 1840 8cc8 f0bf bbac eb21 8e47 c0bf
00000100: 6507 e15e 3c26 f0bf 5927 e614 677e d53f
00000110: a2df d373 2663 d43f 0803 6e9d bbef debf
00000120: dbcc 041a 0319 e03f d6dd 83d4 f8c7 b33f
00000130: a62c 1051 d60b c23f ec4b d1dd 232d d03f
00000140: 9897 d83a 7eb5 d93f de08 117a c7c9 cabf
00000150: 6207 9e79 a462 eb3f c323 1c14 b970 cbbf
00000160: 1c59 6e60 b3c4 e03f 02d1 54cc 6a53 e2bf
00000170: 9ff9 d9cb 5fc6 d63f ac6d 44c8 576c d93f
00000180: b5a9 0233 7caf d23f 0b1d 07c8 6d37 e3bf
00000190: 323b 7288 62d1 efbf 8e77 198a 0ac2 c2bf
000001a0: 3fb1 0eff 1391 eabf feea 1206 20e3 eabf
000001b0: 267c a6f6 fa41 ee3f 90a3 4da5 7dc5 e2bf
000001c0: b4ba efcc 9efb e2bf c92c 7feb 36db c1bf
000001d0: 47dc c13d d1d1 ee3f e43e af97 5c8d e0bf
000001e0: a646 d336 d0c0 d93f 6bba 820b 2622 e13f
000001f0: 85c6 3ec3 c557 c6bf 1c54 7e1d a4ba cc3f
00000200: 5858 ea57 c502 b9bf d967 ca62 5df5 e83f
00000210: 268e b829 b83c da3f 18f1 2161 ca52 e33f
00000220: 0487 8080 4f4e f2bf e008 c36a 0814 db3f
00000230: c5f9 a9ab 4a22 bcbf c97e 57e8 f732 b03f
00000240: e3a5 cc1d e329 d8bf 3385 6a8b 7abb bbbf
00000250: dc43 a360 c2bd f6bf f52d f420 12ed f3bf
00000260: 6f28 37dc cba4 80bf eaf7 67a5 e904 d63f
00000270: 60de cf73 67e4 f63f 4ada 9a75 99a8 e0bf
00000280: b3d2 ebf3 4cd0 afbf 4bf5 9138 7123 e7bf
00000290: db8f 1046 d061 e7bf bf92 aa92 a1bf cbbf
000002a0: bf6f cf31 14b8 f33f 0ae2 c0e6 fcbe eb3f
000002b0: b008 e7f3 8560 8e3f 3c56 2103 ebcc d6bf
000002c0: 5bde 4b44 ad09 af3f 2fd1 402a 1a90 ea3f
000002d0: 9f91 600e 6347 e2bf ced5 a9e7 822c d7bf
000002e0: 57b2 ad7a bfa8 e3bf a889 a2aa a1d8 f23f
000002f0: eef0 6c15 47e6 e53f 7b17 2d34 0514 dbbf
00000300: d01e 743f fc16 f0bf c981 90a1 e5e5 e1bf
00000310: a482 ee81 b2a7 f03f 4d08 6892 9b19 ecbf
00000320: dc1b 91a3 f2d7 e43f 15e7 6363 5633 e3bf
00000330: ed4e 7527 3a97 c13f 37dc bfa5 cad1 e1bf
00000340: 80c4 bd06 7cd4 8ebf 75e9 4d58 6a61 e33f
00000350: 47c6 a295 5ba8 e13f 4203 d147 a1c7 b83f
00000360: 962c 6004 335b dabf 3b6d 8f33 c406 debf
00000370: 7294 7c78 7fdb d43f f619 3d84 f290 f4bf
00000380: c485 1fb2 ce7c e23f 6455 e4ae eeed ce3f
00000390: 86bc f4ff 16bc cbbf 56df 4526 8128 d4bf
000003a0: 5ad9 07b9 d31a d23f d4ae ed9f a39b da3f
000003b0: e79b fc07 425d efbf 00ba 1448 8407 d03f
000003c0: 1135 4219 1ded e83f 0818 e213 52d5 dbbf
000003d0: f7ff 60b1 cdf5 d2bf ed93 65f8 bec0 f2bf
000003e0: 6e73 a900 e742 f1bf 85df d76f 7380 c33f
000003f0: 03f2 cf37 ca89 f33f 2cdd 7ce1 dd05 e2bf

layers.1.weight f8 [100, 128]
-0.5578531359054788 -0.013153959015782334 -0.29093504158155353 0.05773434718292037 -0.33853625638507445 -0.2821344040320465 0.2750101562245008 0.1369421474252073
0.23444927429163664 -0.2015140041831024 -0.20308230373427258 -0.2350464337189996 -0.09019176056225377 0.25413995299721703 0.08103695705420577 0.17219314484228285
0.3063658377247361 -0.17315148555054388 0.0286953359587218 0.14405963941751018 0.13364634931453817 0.037657548758299984 0.15599586215730762 0.19826825025212708
-0.43175921294326236 -0.2274835722638429 -0.04060139352770391 0.3915309547920024 0.19552816171246695 0.032823016023092705 0.5010863699041228 0.30437279813002294
0.10594002392504479 0.008733127398676734 -0.16693828076624628 -0.0031693580848508834 0.3249029280889199 -0.04218847478837503 0.4139201284720132 -0.20924801798424295
-0.02115473918393106 -0.45818241658144077 -0.10922305951104376 -0.13564682073547327 0.0481140211317472 -0.10640511632928108 -0.19347893425771145 -0.6574019154254834
-0.15253405221138605 0.14315744176424658 0.04290762807062362 0.47610144189123527 0.15500416352229543 0.21281350396573373 -0.15609188685171585 0.3443609135502212
0.3891386382798322 -0.020633358633888692 -0.021796890508573686 -0.006039049718773262 0.2728817625786392 -0.5166678781396741 -0.4758268200614732 -0.16229354274042382
0.38149430888899843 0.0030180728230490717 0.14890702735683908 -0.14989504971929357 0.3777357593885336 0.07201617352223712 0.05424935361730831 0.237367504156403
0.09669892762772891 0.061774785292892515 0.15081846272329072 0.12694609190373726 0.12987094337892696 0.3654871739537528 0.16525905751090023 0.021824327422567937
-0.013175408474123958 -0.01056833741923081 -0.41376134363630973 -0.03977305795742067 -0.21213100109577185 0.12091054169525205 -0.0672720179787212 0.6234731730734852
0.9455477522064941 0.09526209320277125 -0.13418132589806459 0.09513561219284457 -0.06593237764483742 -0.003936716758181816 -0.46351446548017633 -0.0933150946530444
-0.15546539865682835 0.24486068362293523 -0.08451589102775511 -0.0336893482886965 0.2955180706647946 0.3413446831727708 -0.14249167371295807 -0.194512280299931
0.224344474463282 -0.24314680591750207 -0.3183813797837599 -0.5711789848415406 0.05729745546051089 -0.2148726075483858 0.8156099996866751 0.040931716074909634
-0.27866634288573294 -0.10208392893073749 0.44485591873641633 -0.28491081837088333 0.2117085872670516 -0.2595925108250198 -0.0661833961114894 1.163815088483365
0.17222273860175133 -0.3641058571324179 -0.18792587824052118 0.10287702745072314 0.3957243541383537 0.009288319280951736 0.4014326420092595 0.20564526269793176
0.04272990270761411 -0.06436923281856044 0.024868748350489953 -0.04158479820384117 -0.0519659998339788 0.09619043770771947 0.003223868990939694 0.014029389701667613
-0.00044121916460560103 -0.00013369699114040216 0.0831347822303385 -0.06862718214031603 -0.08435821611322622 -0.0588212600889607 -0.015855847144270564 0.02748238710838922
0.09649908104638055 0.08918308996274675 -0.03719222559162196 -0.03144970858457155 -0.1071110657893532 -0.01936346825466211 0.024844882963291057 0.06849775422544944
-0.005861647284369731 0.0028988295328510514 0.031694631872982645 -0.0882692765944078 0.054993255667592805 -0.09567016000082151 -0.07976113378824956 -0.06366860671875277
0.09500631808876579 0.05227810185622955 0.050799769704489024 0.08147306503059593 -0.04448364730854195 0.0037746536103261913 0.0253117117330372 0.036163034928597744
-0.001822637354757675 0.0007912581687911531 -0.010419316834138116 0.05019722563050615 -0.016452147120494084 -0.018254712633988257 0.040143432399591665 0.09585948330180509
0.015352714051695195 -0.026009098530486354 0.05029356455798891 -0.006957598029647354 -0.03202364025648109 -0.0016658873947324618 -0.03321679396375183 0.04349771117408286
0.11090594146329343 -0.023326515226658524 -0.050820951101222964 0.0520402307744654 -0.02485415958205282 0.01839993639082481 -0.01890266556751088 -0.06259877642679532
-0.06958652934250674 0.06079702132429132 -0.0002906669636020903 0.02737558566251079 -0.008941715148435267 0.059164045431796354 -0.05157640718931165 0.06616124845366855
-0.028568852950409413 0.06963957325982273 -0.03245531760774723 0.04097050061586918 -0.0752261884554326 0.027479474950143308 -0.009308858505887418 -0.05117909538678956
-0.026036159799332565 0.07082176985092173 0.06389737621456767 -0.08310435469272139 -0.03639499950048305 -0.085542506938087 -0.004975147971045498 -0.046184596811559155
-0.022459728345391627 0.03941552210579837 -0.0007667133218123312 -0.04092150005792595 0.03477745894693275 0.017053376799490122 0.11025023886465168 -0.017873131710983366
0.08402845101281352 0.04186137452175062 0.09074029449686911 0.02488985310515579 0.019265641268104372 -0.004607470646508968 -0.02628264737310549 -0.00033925164018509
0.10144171799898855 0.003778138059664838 -0.11366961406507406 0.08231732352919241 0.07482578853507495 0.09214056987586892 -0.0462937295966414 0.016100921033251874
-0.0484229011537467 0.05793769706573573 -0.04659769548648175 0.001597220951138301 0.05912658793225778 -0.06834019685287979 -0.08271545142293275 0.07274846807942614
0.045529467566171475 0.04228912923988041 0.03355925464146109 -0.02313857496592791 -0.08972300719726753 -0.07786102142578034 0.09963485208314644 0.03765641607325226
00000000: 22ec d5d1 eed9 e1bf 0c22 497e 76f0 8abf
00000010: 619a 3602 ae9e d2bf e15a 033a 5b8f ad3f
00000020: 60c9 6bf9 93aa d5bf c638 9975 7d0e d2bf
00000030: 4f55 c332 c499 d13f b950 51fe 5187 c13f
00000040: 50a6 d30e 6f02 ce3f e482 d3fc 35cb c9bf
00000050: 5faf 77d6 99fe c9bf 15a9 ee64 0016 cebf
00000060: 71c9 fba5 ce16 b7bf b8b8 ae38 d443 d03f
00000070: 00af 5088 d6be b43f 17b4 d8ca 6c0a c63f
00000080: adeb 6875 7f9b d33f 6ac1 d8ef d329 c6bf
00000090: ac36 f665 4f62 9d3f 9762 fcd7 8b70 c23f
000000a0: ea92 c4d5 521b c13f c395 baa8 d947 a33f
000000b0: 6f73 2323 acf7 c33f fe81 55a1 da60 c93f
000000c0: fca1 d564 f1a1 dbbf 010f a083 2e1e cdbf
000000d0: 463d bfb2 b4c9 a4bf f202 8dd9 d70e d93f
000000e0: 0243 001a 1107 c93f 0423 c0a8 2dce a03f
000000f0: c4b4 6648 e608 e03f 5aab 700b d87a d33f
00000100: 5274 18aa e21e bb3f ce8d 8d84 ace2 813f
00000110: 10b6 2bcc 3b5e c5bf 3724 5c2a a0f6 69bf
00000120: 2b0f a1a6 35cb d43f ebe7 f74e ba99 a5bf
00000130: ea60 bcd9 aa7d da3f db60 ff98 a3c8 cabf
00000140: fd33 cd83 96a9 95bf 4873 b457 dc52 ddbf
00000150: a3a9 91dc 0af6 bbbf efbf 6e01 e05c c1bf
00000160: 1cd5 7aa6 66a2 a83f 09e7 c29e 5d3d bbbf
00000170: f007 8def eac3 c8bf 1391 e2bd 6f09 e5bf
00000180: f01a e35e 3c86 c3bf 333a 47a9 fb52 c23f
00000190: 8ce0 9f16 fdf7 a53f 4c15 a02e 7278 de3f
000001a0: 693a 892a 2dd7 c33f 000a d70f 793d cb3f
000001b0: 897a 99a6 d1fa c3bf 2f02 6e5b 020a d63f
000001c0: 0a66 41bf a5e7 d83f bb21 2842 e920 95bf
000001d0: fd25 8e8f ec51 96bf 2923 a810 67bc 78bf
000001e0: 4fce 7c11 e576 d13f 9a1d f012 8b88 e0bf
000001f0: 2b51 ae55 f273 debf 5307 36e9 08c6 c4bf
00000200: a974 121b 676a d83f a459 4d82 5bb9 683f
00000210: a633 52ae 620f c33f 6436 30d0 c22f c3bf
00000220: 5d9f 469b d22c d83f 41a2 0fe6 a66f b23f
00000230: ff1f 3b3f 92c6 ab3f 0a11 bef1 0e62 ce3f
00000240: 6828 b8cb 42c1 b83f 64cd 19d5 f1a0 af3f
00000250: 99c7 83f6 044e c33f 9f70 8a00 c53f c03f
00000260: 32af 416f 9c9f c03f 0349 cf50 2464 d73f
00000270: cd44 b073 3527 c53f 2a04 26d2 1d59 963f
00000280: 5efb 0f64 b5fb 8abf c6a2 b53c daa4 85bf
00000290: 0116 d1db 107b dabf 1cc9 605e 225d a4bf
000002a0: 4348 16d0 1b27 cbbf df9f 5246 fef3 be3f
000002b0: 628f 272d bd38 b1bf 4116 0903 7ef3 e33f
000002c0: 0210 115c ed41 ee3f 61ba dab6 1863 b83f
000002d0: 56a9 3b8b da2c c1bf ed9e 0db7 ce5a b83f
000002e0: ca6a bbbd f1e0 b0bf d01a ae5b f21f 70bf
000002f0: 3375 9d93 38aa ddbf 550a c27f 7fe3 b7bf
00000300: ce01 7249 4ae6 c3bf 804c 1e4a 9857 cf3f
00000310: b6dd f45b d5a2 b5bf 0d3c 3ff2 ba3f a1bf
00000320: c377 38a0 c4e9 d23f 7afe b85e 97d8 d53f
00000330: a254 46cb 2a3d c2bf d67f 4745 c7e5 c8bf
00000340: 55d6 6dda 51b7 cc3f a571 c53d 6f1f cfbf
00000350: 16e7 744b 5c60 d4bf 19d2 8126 1947 e2bf
00000360: 4e9e b192 1756 ad3f e9ff 1c13 f280 cbbf
00000370: 213c 5e24 7a19 ea3f bf60 d27b 00f5 a43f
00000380: 572b 4c5b abd5 d1bf 9967 3420 2c22 babf
00000390: 91ea 99f5 8478 dc3f 957d cb95 fa3b d2bf
000003a0: 9e13 4c59 4419 cb3f 4aeb 11e8 299d d0bf
000003b0: 9a49 d621 65f1 b0bf d309 fa91 fc9e f23f
000003c0: ad06 f60a 650b c63f 319c 2aa7 824d d7bf
000003d0: 23bc 8e86 f40d c8bf d019 691c 2656 ba3f
000003e0: 2051 d03d 8c53 d93f 3738 5f1c c105 833f
000003f0: 5b81 3e89 12b1 d93f 8ab6 ee7e 9552 ca3f
00000400: 8f84 619d b1e0 a53f 1807 d385 807a b0bf
00000410: 4c65 6e73 3177 993f 0caf 9748 9a4a a5bf
00000420: 46ee 949b 499b aabf 2580 24c0 ef9f b83f
00000430: 9bde 3e7c f168 6a3f deac 9ccf 70bb 8c3f
00000440: 1aa8 e1e1 6dea 3cbf 180f b768 2086 21bf
00000450: fde1 d632 5248 b53f 67c7 e80e 8d91 b1bf
00000460: d6ee 5a03 8098 b5bf 4e7f c8f8 d11d aebf
00000470: 1d75 bde3 833c 90bf 5bdc 62c7 5724 9c3f
00000480: ac31 30ed 29b4 b83f 7b08 bff6 b3d4 b63f
00000490: 83b6 2901 dc0a a3bf 64ce ad1b 2d1a a0bf
000004a0: bcdf 9a7c a16b bbbf 2d4a 905b 04d4 93bf
000004b0: 4c7d 33df ef70 993f 9f6c 3f9e 1189 b13f
000004c0: cd60 31f6 6102 78bf 2bed 4941 49bf 673f
000004d0: 36d9 b45e 473a a03f 63ed 36b8 d098 b6bf
000004e0: ac8d 2f75 1328 ac3f f817 68f0 d67d b8bf
000004f0: 10c7 1cc5 396b b4bf da90 a3f7 954c b0bf
00000500: 87c8 1a85 5552 b83f 08f7 8903 32c4 aa3f
00000510: 79db 0c6b 6d02 aa3f c0b0 cf35 6bdb b43f
00000520: c341 cb84 8fc6 a6bf 772b ecb9 05ec 6e3f
00000530: f08d 6538 50eb 993f 6153 af18 f683 a23f
00000540: d998 31f5 b1dc 5dbf 964d 94fa 8ded 493f
00000550: c7ef 6408 b956 85bf 87ac dd64 73b3 a93f
00000560: 6f75 53e7 d4d8 90bf 401e 0b07 5db1 92bf
00000570: b761 9c12 ae8d a43f 1bef ca41 3f8a b83f
00000580: 2112 0e66 3e71 8f3f 37f7 580e 21a2 9abf
00000590: 9b9f f3fd 13c0 a93f 85d1 efff 917f 7cbf
000005a0: e26e 330f 6765 a0bf 49b9 44f8 3c4b 5bbf
000005b0: 692b 81a7 ca01 a1bf a117 e3fd 5445 a63f
000005c0: e555 84ef 5464 bc3f e2d1 1cf0 e7e2 97bf
000005d0: 3edc dc25 3405 aabf a057 8162 04a5 aa3f
000005e0: fb44 4c6a 5e73 99bf dc33 30d4 6ed7 923f
000005f0: c7c1 ad69 385b 93bf c6cf 8531 7906 b0bf
00000600: 77a9 c43b 6cd0 b1bf 5068 9084 c920 af3f
00000610: 9974 4a1a 950c 33bf 2c6f 8474 5808 9c3f
00000620: 18b9 0fb1 0850 82bf 250e 75f0 bf4a ae3f
00000630: 9d1d 3f0c 3968 aabf 48fc 5e8e f1ef b03f
00000640: 95ca 6c44 2741 9dbf a088 a829 e6d3 b13f
00000650: 31c3 69bf fb9d a0bf 64e7 7de0 15fa a43f
00000660: 4f04 3803 0642 b3bf 9272 e358 9423 9c3f
00000670: a05b c4d6 8510 83bf 11aa d979 2534 aabf
00000680: 3500 681b 39a9 9abf a2c3 5a21 6021 b23f
00000690: 764b 2415 945b b03f d977 8fb5 5346 b5bf
000006a0: 9b5d 2f89 5da2 a2bf 2b89 b71d 1de6 b5bf
000006b0: 9621 411d d260 74bf 4de9 c4e9 81a5 a7bf
000006c0: 13cb e1da aeff 96bf e35f cc74 452e a43f
000006d0: 1470 4052 a81f 49bf a173 e7b0 a9f3 a4bf
000006e0: 624f a1e1 59ce a13f 188a 8fbe 7076 913f
000006f0: 18c4 4c12 5c39 bc3f 1ffe b390 554d 92bf
00000700: 2f98 0879 e382 b53f 9cb3 12a5 da6e a53f
00000710: 4d20 4b85 c13a b73f 8005 5bc4 b97c 993f
00000720: 205e bb4c 5fba 933f 4992 e77b 48df 72bf
00000730: 02dd ad9b d6e9 9abf 6a26 20b3 b23b 36bf
00000740: 3c76 419d 15f8 b93f b539 fe6c 54f3 6e3f
00000750: fa5b f5aa 7319 bdbf f8be 7384 bf12 b53f
00000760: b1d2 a76a c827 b33f c76c 403e 8696 b73f
00000770: 1740 41cd cfb3 a7bf bbda 1785 c27c 903f
00000780: 8062 aaf1 e2ca a8bf 04ae 3484 02aa ad3f
00000790: 62e7 5d34 a7db a7bf 35db f9ef 3a2b 5a3f
000007a0: a079 fc12 d745 ae3f fc3d 7c3e be7e b1bf
000007b0: 6541 bcfe d62c b5bf 6038 3cc3 a49f b23f
000007c0: 5ee9 666c a34f a73f 858a 1fb6 eba6 a53f
000007d0: 7890 53ba ad2e a13f 4ed1 047b a3b1 97bf
000007e0: e66c 9c45 16f8 b6bf 6929 a82c b3ee b3bf
000007f0: 4d29 3d6f ab81 b93f e7d2 09a7 b347 a33f

layers.1.bias f8 [100]
-0.1700337200161807 -0.0887367697066532 -0.0307879670073994 0.06495467082378265 -0.0475264479863716 -0.3371297583882524 -0.062403642354614805 0.0016430463871050945
-0.06937007185253814 -0.04952451690828476 -0.010931226145895106 0.028751265858858774 -0.07761693722667717 0.06976026379008535 0.05102269966804762 -0.04525532929439208
-0.0925363439958297 -0.11446999497512449 0.12590651396223268 -0.04111003855336607 -0.03755983578475336 -0.07148900531591419 -0.023742160877858277 0.19623147290787307
0.27771716457458834 0.05468026550738457 -0.3382507651671239 0.007317158971930227 -0.07281384474482995 -0.07697526822149357 0.07594501220978557 0.00543533300151252
-0.05106845125555992 -0.047325058218632796 -0.0003537840620227381 -0.046729676809868365 -0.05285698713224227 -0.08276980990517488 -0.08895795146180248 -0.05522753963194956
-0.06826585606261783 0.05758371928235145 0.021043366388171666 -0.007229884603846504 0.07269349191091705 -0.12026766351264523 0.1371843954889217 -0.1019194638784992
-0.08020682785048716 -0.008946488798935677 -0.027087920150228078 0.014182148511731092 0.20984295491273772 -0.10728270472620176 0.005034831827017649 0.02237950150582708
-0.08301457322626912 0.6419726281946689 0.02329874054923025 -0.006151544058384869 0.0834573178963351 0.012273814126563172 -0.07062061375553945 -0.0708054957828391
-0.23590524079733027 0.07028981850292172 -0.09627801243734739 0.050569967132908775 0.08491234829977795 -0.08418921750564647 -0.006069135386496782 -0.01706845911465236
0.0024668854367307625 0.27266295589363015 0.08517836849134974 -0.0044132217250521895 0.06938057561282586 0.04123162566682045 0.03384074752691752 0.30108129397537065
-0.04570140890324843 0.03787875273301829 -0.052828099926811534 -0.007228228191906397 0.05017641082576237 0.014250663020734387 -0.04547284593837728 -0.04094468429684639
0.0643811241135556 -0.12923315964514714 -0.042530227452516556 -0.08587595851445791 -0.12417201573972957 -0.10253076297047796 -0.026892528827950467 -0.028512683489398463
0.07270706231667863 -0.04822545498609543 0.0004257698686371824 -0.015934145727693316
00000000: 55e6 5739 aac3 c5bf 0ebf d7f3 73b7 b6bf
00000010: c4e0 a07d e186 9fbf 8c1c e98a dea0 b03f
00000020: 4dd0 97f7 6255 a8bf 9b4c b2b1 8893 d5bf
00000030: 9ef2 20c6 5ef3 afbf c63b e69f 6feb 5a3f
00000040: b585 edad 3cc2 b1bf e24b f108 475b a9bf
00000050: e915 6a56 1c63 86bf 9c60 54ca f870 9d3f
00000060: 6817 011f b4de b3bf 7eeb 8903 cfdb b13f
00000070: 0015 dbb4 a51f aa3f 2808 94de b42b a7bf
00000080: 6b4b 273b 76b0 b7bf 139c cad4 e74d bdbf
00000090: aa1b e963 b41d c03f c57d 3ffe 5f0c a5bf
000000a0: 0863 adf4 0a3b a3bf e9fc da7b 1a4d b2bf
000000b0: 3aef 0672 dd4f 98bf a6e8 4ae7 1c1e c93f
000000c0: 6baf d836 1ec6 d13f 1e7f 2e40 0dff ab3f
000000d0: 7158 8f89 e6a5 d5bf a7c3 bee7 98f8 7d3f
000000e0: 5504 e099 eda3 b2bf 67b5 9cb3 a6b4 b3bf
000000f0: e13f bcdf 2171 b33f 58f6 bf17 5c43 763f
00000100: 0000 00e0 a425 aabf 3620 a972 fd3a a8bf
00000110: 9473 eaf9 822f 37bf 5c54 4dc3 f3ec a7bf
00000120: ac36 322e 1210 abbf 868c a3fa 6630 b5bf
00000130: 8562 3fc4 f2c5 b6bf ab93 1db9 c846 acbf
00000140: 59ee 3803 df79 b1bf a811 33fe 9c7b ad3f
00000150: af61 bd69 648c 953f cd86 d65e 159d 7dbf
00000160: a3b1 636a 0a9c b23f d49a 8d91 dcc9 bebf
00000170: d4be 121e 428f c13f 1c1b 2fdc 6417 babf
00000180: 78a3 8846 6f88 b4bf 8494 7166 8952 82bf
00000190: 3bc6 a58c efbc 9bbf 97f4 5bc0 870b 8d3f
000001a0: 0bb7 524a 22dc ca3f d3b7 391c e176 bbbf
000001b0: cc3d 9b60 679f 743f 13f3 45ec a6ea 963f
000001c0: 2625 196d 7140 b5bf a2be 602e 0a8b e43f
000001d0: cea8 c902 a0db 973f 4987 cf88 5c32 79bf
000001e0: bd04 fa72 755d b53f 518a 2a72 0323 893f
000001f0: b3e4 804a 3114 b2bf 16ad c318 4f20 b2bf
00000200: 1efb 1697 2432 cebf 213a b677 83fe b13f
00000210: 9b06 be02 ada5 b8bf 46c4 fd85 4ee4 a93f
00000220: 1c5f f9ce d0bc b53f 31d2 dcaf 6c8d b5bf
00000230: 0000 0020 f3db 78bf 3b1e c3e6 647a 91bf
00000240: bb74 c208 6f35 643f 8b34 9953 4f73 d13f
00000250: 583a ffe2 3fce b53f 6b60 aa2f 9913 72bf
00000260: 1118 3ce7 ecc2 b13f 8b8d 99c7 4f1c a53f
00000270: 99f4 cc0f 9353 a13f e8f0 c379 ea44 d33f
00000280: 0abc 3dd1 2c66 a7bf 0a36 6708 d864 a33f
00000290: f8ae fde2 480c abbf 9082 13bb 589b 7dbf
000002a0: 8bfb 0df7 b8b0 a93f f284 f69c 732f 8d3f
000002b0: fd9f 5284 3748 a7bf 0000 00a0 b3f6 a4bf
000002c0: ea24 8c06 487b b03f 2409 1e51 b68a c0bf
000002d0: 0000 00a0 85c6 a5bf 4d0e 5581 f7fb b5bf
000002e0: 9737 aeba bcc9 bfbf 13c9 cac1 743f babf
000002f0: 0388 4a0f b789 9bbf f4c2 6ecc 6d32 9dbf
00000300: 559f d616 ee9c b23f 0000 00c0 01b1 a8bf
00000310: ffbf 52a9 3be7 3b3f b31a 296b 0a51 90bf

layers.3.weight f8 [100]
1.3843257357106336 0.9858694437091482 1.1218484539754128 0.9886378787045721 0.5386225939691878 1.411577714537456 0.9682349786496799 1.1259027937820496
0.7089647002789505 1.1384060053407408 1.4074725631527008 1.3278376007432557 0.6578077126874343 0.8468689741403014 0.9636646180404692 0.9634540738479557
0.9894477378823536 0.9682407591117509 0.49529475094702846 1.5168969299936157 0.6691333777352702 1.5433673583809027 1.0006473078364027 1.6787400740664133
1.3349213591865592 0.9905632250131695 1.524305139690034 0.9631428570933356 1.0019512397473127 1.006005472035104 0.9964360235564671 1.6887021512468703
1.0 0.9870434347348231 0.8242524900838075 0.9969935669462849 0.9902243125022471 0.6854174493589964 0.9622298459400639 1.1906626615390354
0.9683331290834741 1.5236423210514645 1.0011343170418072 1.0360714837657625 0.5608760433113089 0.9046844088516188 1.4323410268238654 0.9682883387457237
0.9772171281182788 1.1133448421110919 1.0380502445956943 0.7258323976239263 1.041861089463631 0.9754844350283538 0.963146928543629 1.5179080409591796
0.9067916009244077 1.527678157557509 0.9682454865305008 1.0342794209939954 0.49368525232438154 1.0096631954147743 0.9715277036019174 0.968236636999211
0.9108520623441719 1.3847305724710446 0.9682433318790858 1.227985365261258 1.7360912321940165 0.8701833032414491 1.0 0.9683358432174876
1.468272363404465 1.0297606549136744 0.9210010830840292 0.9420655186049425 1.5688757805192834 1.0313092922661542 0.9675331157506292 1.4329377173313496
0.9329450924003253 1.6387146807293536 0.9876272894232668 1.0688699454553325 1.0024174969015163 1.0123276483779393 1.0126272291160834 1.0
1.006228528035416 1.1914230108732218 1.0 1.003835610382887 1.021637743697487 0.8324629099716006 0.9629373203423679 0.9939944961325325
1.0090923701918382 1.0 1.6273288137477604 1.7351157133941275
00000000: 8536 1ebe 3226 f63f 7c68 5b13 3e8c ef3f
00000010: ec47 4e5d 17f3 f13f 39ef 93e7 eba2 ef3f
00000020: c87f 3f73 653c e13f 7736 7b83 d295 f63f
00000030: a598 04ec c7fb ee3f 8f4d dca5 b203 f23f
00000040: daed 36bd d6af e63f bf22 2837 e936 f23f
00000050: 5c21 4cf3 0185 f63f 5476 d9a3 d23e f53f
00000060: 2f92 a1c2 c20c e53f cfbf 7df6 8c19 eb3f
00000070: 097a 592e 57d6 ee3f 7fff 4ba3 9dd4 ee3f
00000080: d8c9 694d 8ea9 ef3f ff40 610b d4fb ee3f
00000090: 40ab 4cc1 e8b2 df3f 299b 1bb7 3545 f83f
000000a0: b81e c166 8a69 e53f b45b 9ff8 a1b1 f83f
000000b0: 01ce 5fc0 a602 f03f 0a99 498d 1edc fa3f
000000c0: a002 c77f d65b f53f c6a8 01a6 b1b2 ef3f
000000d0: 997e 41c9 8d63 f83f aaf0 12f8 10d2 ee3f
000000e0: fc6b ee05 fe07 f03f 16ce 9f31 9918 f03f
000000f0: e866 b7cc cde2 ef3f 78a4 048c ec04 fb3f
00000100: 0000 0000 0000 f03f c85c fd1c dc95 ef3f
00000110: fece 11c2 4660 ea3f ed69 8b0d 5fe7 ef3f
00000120: ebd6 bce5 eaaf ef3f 1859 2393 f0ee e53f
00000130: b386 f13e 96ca ee3f 3b0e 7e4a f40c f33f
00000140: f17f 21c2 95fc ee3f 2d7b 3bc5 d660 f83f
00000150: d390 e96a a504 f03f 6d79 31b1 bf93 f03f
00000160: f238 e450 b2f2 e13f 6000 a7b7 2cf3 ec3f
00000170: 4ad7 ae6c deea f63f 8c5a 80d3 37fc ee3f
00000180: 557d cbda 5c45 ef3f 4999 60ae 42d0 f13f
00000190: fd4a c292 da9b f03f 4881 45dd 043a e73f
000001a0: 248a a388 76ab f03f aa85 4622 2b37 ef3f
000001b0: bbce ea81 19d2 ee3f e914 24f1 5949 f83f
000001c0: 0440 c8d1 6f04 ed3f 5b5e d8a6 5e71 f83f
000001d0: 50bd 64f5 ddfb ee3f 3a85 0194 688c f03f
000001e0: e80b 5007 8a98 df3f 4280 4498 9427 f03f
000001f0: 5a1a 4444 c116 ef3f 9a6b 5666 cbfb ee3f
00000200: 5965 6839 b325 ed3f 4a8d a83e db27 f63f
00000210: 35b4 9f70 d9fb ee3f 3038 7cfb d3a5 f33f
00000220: 8e54 9299 07c7 fb3f 1350 9ea7 8ad8 eb3f
00000230: 0000 0000 0000 f03f f83c 4573 9bfc ee3f
00000240: ba15 6729 0b7e f73f 06fd f84e e679 f03f
00000250: c2a5 6d43 d778 ed3f c81e 2396 6625 ee3f
00000260: 9911 8d7d 1d1a f93f 2e81 252c 3e80 f03f
00000270: 1945 3e02 08f6 ee3f e349 9219 50ed f63f
00000280: cc56 9aaa afda ed3f 8e52 93e2 2c38 fa3f
00000290: cbb8 968b a49a ef3f fe86 365f 171a f13f
000002a0: 4615 e2ed e609 f03f daea e979 7e32 f03f
000002b0: 9b7b 019c b833 f03f 0000 0000 0000 f03f
000002c0: e66d c315 8319 f03f fc6f 3693 1110 f33f
000002d0: 0000 0000 0000 f03f a479 d2ed b50f f03f
000002e0: 95a3 98d1 a058 f03f a6c0 ae41 89a3 ea3f
000002f0: b0fc 5eed 61d0 ee3f 1b62 a98b cdce ef3f
00000300: 85df 890a 3e25 f03f 0000 0000 0000 f03f
00000310: 6529 2ef0 8909 fa3f 15db bcb1 08c3 fb3f

layers.3.bias f8 [100]
-0.02861031496484798 0.00857354759218644 -0.0020715279837065395 -0.007468146910120699 0.011368094903123967 0.02451808442868108 0.021814581963595987 -0.04968322171820505
0.023575990654795334 -0.0006719493742075037 -0.22506931434682806 0.01817901656466792 -0.006385560396278349 0.012428002030204902 0.011948813364616702 -0.04191115439678308
0.04726910127570937 0.06824297686353548 0.029263717457568 -0.20227958389769854 0.026107808534882742 -0.018625084905787775 -0.08197462244570777 -0.09908752602379468
0.11279966152983098 0.007911075784803701 0.017852912212494392 -0.0184527106094833 -0.034203466061087796 -0.003950161657176201 0.050073097076014164 -0.06807392577342844
0.008295377363800807 0.03327992964018987 -0.023646509050275828 -0.02409474194123534 0.0014675142335739658 -0.03603873755301677 -0.02041299736679917 0.008436460802125892
0.028655214987766988 -0.06359902483043808 -0.03639949433903349 0.01235788577708425 0.04885497511285124 -0.025504721689313628 0.27977647465836036 0.0014313256766756287
-0.0002155955763895091 0.031825558039141916 -0.016840359277935535 0.03910637936493166 0.015140498511050881 0.01663001536433402 0.03478918916886849 -0.1567511513863815
-0.018633762275055924 -0.46022977163930984 -0.005693127735383686 0.03761526097327912 -0.03611451114709955 0.023990212704189787 0.04036630683804755 0.049737725766427335
-0.013842292790308443 0.02685175490303898 -0.039525231608937866 -0.100872694905799 0.4018617236448617 -0.008966045474498235 -0.04411667249214149 -0.022131347379904645
0.04006996460748048 0.02715907338815437 0.024721115831168584 -0.03148603870613535 0.32533193979811637 -0.013013260890431621 -0.028456128405170426 -0.10926505213627516
-0.03760272632024558 0.5039407091103282 0.005792333688737672 -0.00229191058847115 0.06117757169642188 -0.024057273767557365 -0.013743976534984855 0.03969976459767709
-0.0020514951233351385 0.1549583164060397 -0.03719154205357288 0.03903022182117847 0.01334976043687692 -0.008225092481461475 -0.008623516196994146 -0.051377831836451344
-0.023011949136876972 0.042008838885993695 -0.3290479312671645 -0.024158684384653722
00000000: 79bc 68bc 054c 9dbf 0833 2714 028f 813f
00000010: a728 2b1e 4ff8 60bf b3df d96b eb96 7ebf
00000020: c42a 9dde 2748 873f 9e83 20cb 441b 993f
00000030: 822f 70d0 8f56 963f 4014 e148 1470 a9bf
00000040: a424 55f3 4d24 983f 03e6 1b4b b804 46bf
00000050: 5ff4 3940 12cf ccbf 218a 7926 859d 923f
00000060: f82e 19d1 be27 7abf 48df 3132 da73 893f
00000070: b12b 0495 9e78 883f 738e f1fa 6075 a5bf
00000080: df53 2ed8 a733 a83f 7c81 cf29 5f78 b13f
00000090: ae30 c2d5 4ef7 9d3f f19a be22 4ce4 c9bf
000000a0: 8b69 4f5f 01bc 9a3f 6bea 384a 7412 93bf
000000b0: 6a9a 81f2 49fc b4bf 21b8 b6d3 cc5d b9bf
000000c0: 0e3f 4549 70e0 bc3f dade 2c9e ae33 803f
000000d0: fb34 5da8 0848 923f 2673 5c72 44e5 92bf
000000e0: cdd0 48e0 1d83 a1bf f68f 1a72 0b2e 70bf
000000f0: 02ab b354 2ea3 a93f b23e e8f4 4a6d b1bf
00000100: 7b4f e2b3 2afd 803f 6ee9 d522 110a a13f
00000110: d25a 245c ca36 98bf ef99 92c2 4aac 98bf
00000120: 7272 ef68 330b 583f aed1 5b5e ab73 a2bf
00000130: ea39 6a10 25e7 94bf fbb5 e999 2247 813f
00000140: 37e2 edec ca57 9d3f fe47 b493 0648 b0bf
00000150: 37de 8d5b f4a2 a2bf e40d 155a 174f 893f
00000160: f692 b6f0 8403 a93f 445d 32e6 e81d 9abf
00000170: db42 3696 dbe7 d13f bde8 283e 6a73 573f
00000180: a850 46e6 2f42 2cbf 34fe e885 704b a03f
00000190: f00f 6861 993e 91bf 6fec df58 c005 a43f
000001a0: 26ce 994f fb01 8f3f 14b7 7c70 7507 913f
000001b0: ba23 787b e3cf a13f 1f4d 68f6 6b10 c4bf
000001c0: 118d 4a9e ba14 93bf 5187 7592 6774 ddbf
000001d0: 9b7e f756 ad51 77bf fae5 6bb7 4e42 a33f
000001e0: 255d 93e8 997d a2bf 044e f4eb e390 983f
000001f0: 429d 757f e4aa a43f 42a4 1623 3977 a93f
00000200: 3431 b016 5959 8cbf 8f54 98c4 067f 9b3f
00000210: 2422 41b2 a63c a4bf e206 aefd cad2 b9bf
00000220: 6268 243c 1ab8 d93f 9608 b340 ca5c 82bf
00000230: 54ca 1fe3 7596 a6bf 6438 da94 99a9 96bf
00000240: c2fe 14e7 0c84 a43f fe96 f78f 96cf 9b3f
00000250: 6dde 0f00 7e50 993f 8600 0c25 f01e a0bf
00000260: d6bc 710e 3dd2 d43f 737f 824f b2a6 8abf
00000270: 21e3 7b73 9a23 9dbf aa62 8561 cbf8 bbbf
00000280: 9860 921f aa40 a3bf a30f 1844 4820 e03f
00000290: 8d9c 2bbc b3b9 773f 551a bb20 7cc6 62bf
000002a0: aca1 5eab aa52 af3f 5714 4050 78a2 98bf
000002b0: 51c5 e04d cd25 8cbf 5e3b 360d 8753 a43f
000002c0: 0ad9 cd0e 4cce 60bf 3e84 9a92 acd5 c33f
000002d0: 9fa5 9d11 c50a a3bf e51f 8eec c4fb a33f
000002e0: 25f6 e283 1e57 8b3f e232 b739 51d8 80bf
000002f0: 2347 57c0 34a9 81bf 4932 f4f6 314e aabf
00000300: fc24 d7c3 7190 97bf 8d09 51ba 2e82 a53f
00000310: aaf8 e60d 1f0f d5bf fbc9 62dd 0dbd 98bf

layers.3.running_mean f8 [100]
2.5e-323 2.5e-323 2.5e-323 2.5e-323 2.5e-323 2.5e-323 2.5e-323 2.5e-323
2.5e-323 2.5e-323 111.14041528662668 2.5e-323 2.5e-323 2.5e-323 2.5e-323 2.5e-323
2.5e-323 2.5e-323 2.5e-323 74.11072275555937 2.5e-323 118.81374994263334 2.5e-323 72.45458681040986
80.19355014959986 2.5e-323 2.5e-323 2.5e-323 2.5e-323 2.5e-323 2.5e-323 109.81035299973601
0.0 2.5e-323 2.5e-323 2.5e-323 2.5e-323 2.5e-323 2.5e-323 2.5e-323
2.5e-323 252.6003191395401 2.5e-323 2.5e-323 2.5e-323 2.5e-323 167.4154557512438 2.5e-323
2.5e-323 2.5e-323 2.5e-323 2.5e-323 2.5e-323 2.5e-323 2.5e-323 50.33252296669216
2.5e-323 41.24697878064089 2.5e-323 2.5e-323 2.5e-323 2.5e-323 2.5e-323 2.5e-323
2.5e-323 2.5e-323 2.5e-323 2.5e-323 59.458025608669274 2.5e-323 0.0 2.5e-323
157.1089974060852 2.5e-323 2.5e-323 2.5e-323 94.75169752935793 2.5e-323 2.5e-323 87.17908922258107
2.5e-323 147.84579770506753 2.5e-323 2.5e-323 2.5e-323 2.5e-323 2.5e-323 0.0
2.5e-323 67.57304599389295 0.0 2.5e-323 2.5e-323 2.5e-323 2.5e-323 2.5e-323
2.5e-323 0.0 77.27478084914563 107.70132230102861
00000000: 0500 0000 0000 0000 0500 0000 0000 0000
00000010: 0500 0000 0000 0000 0500 0000 0000 0000
00000020: 0500 0000 0000 0000 0500 0000 0000 0000
00000030: 0500 0000 0000 0000 0500 0000 0000 0000
00000040: 0500 0000 0000 0000 0500 0000 0000 0000
00000050: e2fa 6590 fcc8 5b40 0500 0000 0000 0000
00000060: 0500 0000 0000 0000 0500 0000 0000 0000
00000070: 0500 0000 0000 0000 0500 0000 0000 0000
00000080: 0500 0000 0000 0000 0500 0000 0000 0000
00000090: 0500 0000 0000 0000 3b83 e514 1687 5240
000000a0: 0500 0000 0000 0000 daae a37a 14b4 5d40
000000b0: 0500 0000 0000 0000 d0f9 46f3 171d 5240
000000c0: b5aa 2a20 630c 5440 0500 0000 0000 0000
000000d0: 0500 0000 0000 0000 0500 0000 0000 0000
000000e0: 0500 0000 0000 0000 0500 0000 0000 0000
000000f0: 0500 0000 0000 0000 3a05 d4d2 dc73 5b40
00000100: 0000 0000 0000 0000 0500 0000 0000 0000
00000110: 0500 0000 0000 0000 0500 0000 0000 0000
00000120: 0500 0000 0000 0000 0500 0000 0000 0000
00000130: 0500 0000 0000 0000 0500 0000 0000 0000
00000140: 0500 0000 0000 0000 9aef 7bd0 3593 6f40
00000150: 0500 0000 0000 0000 0500 0000 0000 0000
00000160: 0500 0000 0000 0000 0500 0000 0000 0000
00000170: df10 dc69 4bed 6440 0500 0000 0000 0000
00000180: 0500 0000 0000 0000 0500 0000 0000 0000
00000190: 0500 0000 0000 0000 0500 0000 0000 0000
000001a0: 0500 0000 0000 0000 0500 0000 0000 0000
000001b0: 0500 0000 0000 0000 4d8e d11c 902a 4940
000001c0: 0500 0000 0000 0000 4cd4 2c00 9d9f 4440
000001d0: 0500 0000 0000 0000 0500 0000 0000 0000
000001e0: 0500 0000 0000 0000 0500 0000 0000 0000
000001f0: 0500 0000 0000 0000 0500 0000 0000 0000
00000200: 0500 0000 0000 0000 0500 0000 0000 0000
00000210: 0500 0000 0000 0000 0500 0000 0000 0000
00000220: 86fb 4895 a0ba 4d40 0500 0000 0000 0000
00000230: 0000 0000 0000 0000 0500 0000 0000 0000
00000240: 83cf 20e8 7ca3 6340 0500 0000 0000 0000
00000250: 0500 0000 0000 0000 0500 0000 0000 0000
00000260: e244 f4cf 1bb0 5740 0500 0000 0000 0000
00000270: 0500 0000 0000 0000 5083 a432 76cb 5540
00000280: 0500 0000 0000 0000 8049 59c6 107b 6240
00000290: 0500 0000 0000 0000 0500 0000 0000 0000
000002a0: 0500 0000 0000 0000 0500 0000 0000 0000
000002b0: 0500 0000 0000 0000 0000 0000 0000 0000
000002c0: 0500 0000 0000 0000 f0b7 1ac9 ace4 5040
000002d0: 0000 0000 0000 0000 0500 0000 0000 0000
000002e0: 0500 0000 0000 0000 0500 0000 0000 0000
000002f0: 0500 0000 0000 0000 0500 0000 0000 0000
00000300: 0500 0000 0000 0000 0000 0000 0000 0000
00000310: 7229 6a02 9651 5340 e5b7 ee76 e2ec 5a40

layers.3.running_var f8 [100]
2.5e-323 2.5e-323 2.5e-323 2.5e-323 2.5e-323 2.5e-323 2.5e-323 2.5e-323
2.5e-323 2.5e-323 47.91551263086778 2.5e-323 2.5e-323 2.5e-323 2.5e-323 2.5e-323
2.5e-323 2.5e-323 2.5e-323 69.36571738593771 2.5e-323 70.18592992747726 2.5e-323 78.1677212245634
42.640793671833855 2.5e-323 2.5e-323 2.5e-323 2.5e-323 2.5e-323 2.5e-323 61.900522100815955
2.5e-323 2.5e-323 2.5e-323 2.5e-323 2.5e-323 2.5e-323 2.5e-323 2.5e-323
2.5e-323 99.82924629300506 2.5e-323 2.5e-323 2.5e-323 2.5e-323 43.64838199277831 2.5e-323
2.5e-323 2.5e-323 2.5e-323 2.5e-323 2.5e-323 2.5e-323 2.5e-323 70.02719368353796
2.5e-323 66.41684320055907 2.5e-323 2.5e-323 2.5e-323 2.5e-323 2.5e-323 2.5e-323
2.5e-323 2.5e-323 2.5e-323 2.5e-323 114.22430560192515 2.5e-323 2.5e-323 2.5e-323
61.77211107655197 2.5e-323 2.5e-323 2.5e-323 56.7984784056162 2.5e-323 2.5e-323 44.144557442256286
2.5e-323 79.9390160588232 2.5e-323 2.5e-323 2.5e-323 2.5e-323 2.5e-323 2.5e-323
2.5e-323 60.53243284447402 2.5e-323 2.5e-323 2.5e-323 2.5e-323 2.5e-323 2.5e-323
2.5e-323 2.5e-323 96.92295993385905 94.05081010167831
00000000: 0500 0000 0000 0000 0500 0000 0000 0000
00000010: 0500 0000 0000 0000 0500 0000 0000 0000
00000020: 0500 0000 0000 0000 0500 0000 0000 0000
00000030: 0500 0000 0000 0000 0500 0000 0000 0000
00000040: 0500 0000 0000 0000 0500 0000 0000 0000
00000050: 7653 9484 2ff5 4740 0500 0000 0000 0000
00000060: 0500 0000 0000 0000 0500 0000 0000 0000
00000070: 0500 0000 0000 0000 0500 0000 0000 0000
00000080: 0500 0000 0000 0000 0500 0000 0000 0000
00000090: 0500 0000 0000 0000 970b e5e9 6757 5140
000000a0: 0500 0000 0000 0000 3377 a346 e68b 5140
000000b0: 0500 0000 0000 0000 1296 cdf1 bb8a 5340
000000c0: 4d01 ec86 0552 4540 0500 0000 0000 0000
000000d0: 0500 0000 0000 0000 0500 0000 0000 0000
000000e0: 0500 0000 0000 0000 0500 0000 0000 0000
000000f0: 0500 0000 0000 0000 352a e64e 44f3 4e40
00000100: 0500 0000 0000 0000 0500 0000 0000 0000
00000110: 0500 0000 0000 0000 0500 0000 0000 0000
00000120: 0500 0000 0000 0000 0500 0000 0000 0000
00000130: 0500 0000 0000 0000 0500 0000 0000 0000
00000140: 0500 0000 0000 0000 4d32 0b5f 12f5 5840
00000150: 0500 0000 0000 0000 0500 0000 0000 0000
00000160: 0500 0000 0000 0000 0500 0000 0000 0000
00000170: 2a26 5f2e fed2 4540 0500 0000 0000 0000
00000180: 0500 0000 0000 0000 0500 0000 0000 0000
00000190: 0500 0000 0000 0000 0500 0000 0000 0000
000001a0: 0500 0000 0000 0000 0500 0000 0000 0000
000001b0: 0500 0000 0000 0000 035d 938a bd81 5140
000001c0: 0500 0000 0000 0000 847d 1a8f ad9a 5040
000001d0: 0500 0000 0000 0000 0500 0000 0000 0000
000001e0: 0500 0000 0000 0000 0500 0000 0000 0000
000001f0: 0500 0000 0000 0000 0500 0000 0000 0000
00000200: 0500 0000 0000 0000 0500 0000 0000 0000
00000210: 0500 0000 0000 0000 0500 0000 0000 0000
00000220: 0025 e205 5b8e 5c40 0500 0000 0000 0000
00000230: 0500 0000 0000 0000 0500 0000 0000 0000
00000240: c555 2789 d4e2 4e40 0500 0000 0000 0000
00000250: 0500 0000 0000 0000 0500 0000 0000 0000
00000260: 8757 578a 3466 4c40 0500 0000 0000 0000
00000270: 0500 0000 0000 0000 2c71 b7db 8012 4640
00000280: 0500 0000 0000 0000 20c4 cfd6 18fc 5340
00000290: 0500 0000 0000 0000 0500 0000 0000 0000
000002a0: 0500 0000 0000 0000 0500 0000 0000 0000
000002b0: 0500 0000 0000 0000 0500 0000 0000 0000
000002c0: 0500 0000 0000 0000 852a 6bc2 2644 4e40
000002d0: 0500 0000 0000 0000 0500 0000 0000 0000
000002e0: 0500 0000 0000 0000 0500 0000 0000 0000
000002f0: 0500 0000 0000 0000 0500 0000 0000 0000
00000300: 0500 0000 0000 0000 0500 0000 0000 0000
00000310: 59dc 8ac6 113b 5840 f240 0379 4083 5740
