model_policy_epoch-100.pt (torch, 373906 bytes, 28 tensors)

layers.0.weight f8 [128, 128]
0	0xbfee577b52dc10c9	-0.948178922496049
1	0xbfc9bc24c5e4f8ea	-0.20105418837369565
2	0xbfb0a6d697e2cc22	-0.06504574974205515
3	0xbfe087808940e00d	-0.5165407829981646
4	0xbfd3e4c2137d8187	-0.31083728698106267
5	0xbfbc0f736ba47468	-0.10961076143253623
6	0x3fbe85ab2adb55b1	0.1192271213179399
7	0xbff1e6ec0991e954	-1.1188774465395754
8	0xbff0177d4d7cfefe	-1.0057347323308359
9	0xbfe517e9e3aa55c0	-0.6591691443051602
10	0xbfb959458796d938	-0.09901842651638482
11	0xbff14c6a8eb9f934	-1.0811563086750313
12	0xbfdacd82311914e9	-0.418793247172586
13	0xbfc62151c4d8fa03	-0.17289182769486908
14	0xbfd10e99ca290a3d	-0.26651615850656524
15	0xbf9268d55b49eacb	-0.01797803277666325
16	0x3fd4c8e639a47e40	0.32476192120700276
17	0xbfe66551ecee2f7c	-0.6998681666895972
18	0xbfe31c5ce512328e	-0.597212264446698
19	0xbfc0f619cef4a6f0	-0.13251040082223353
20	0xbfd2acb9a578e2bb	-0.2917923084201381
21	0xbfe37194d818e83e	-0.60761491972449
22	0xbfe470263bffed86	-0.6386901065701955
23	0x3fd90e601b449f16	0.39150240576644657
24	0xbfeed05a811bcc18	-0.9629337808277141
25	0xbff1901b5e08f8c3	-1.0976823495143868
26	0xbfe3ec5b7253a2b3	-0.6226021988814722
27	0xbfe6e6cc69a3440c	-0.7156736434209292
28	0xbff6f46ec9836215	-1.434675967370031
29	0xbfd8bf61a0b739a0	-0.3866809911241038
30	0xbff41f5012432ecb	-1.257644721353176
31	0xbfde0b159c6cb52d	-0.46942653919070915
32	0xbff10ff02c6def73	-1.0663911567234805
33	0x3f9d280126f56273	0.0284729175594713
34	0xbfe811fdb6c366cc	-0.752196175536676
35	0xbfed2d8a56c7c334	-0.9118091292312784
36	0xbfe1f8f297c98843	-0.561639114818043
37	0xbfdca913ea814726	-0.44781968975904574
38	0xbfe1b672543b81e6	-0.5535213132062011
39	0x3fd44a91c2485e1c	0.31705135319632105
40	0x3fde2909a257774d	0.4712547383659185
41	0xbfe6c73015a5889c	-0.7118149206910576
42	0xbfef4244cfe6e3b8	-0.9768394527992461
43	0xbfebf5412016f6c1	-0.8736882807495122
44	0x3fdcb1774f7f2fd4	0.44833166850434947
45	0xbfe4ae95115d53f2	-0.6463113154555897
46	0xbff74576899e454f	-1.4544587493622492
47	0xbfe28ad821efe4fc	-0.5794487631639238
48	0xbfcb01f7b29b66c2	-0.21099754544302668
49	0xbff213b9ffb4826c	-1.1298160541993196
50	0xbff606d726547d69	-1.3766700265185483
51	0xbfc6b2249bc31dec	-0.1773114929730889
52	0xbfe2ba53b6eb98e8	-0.5852449963247439
53	0x3fb91f9d92ff4671	0.09813866461561262
54	0xbff2269deb51b350	-1.1344279472497938
55	0xbfe10d479bf75cd3	-0.5328710600105303
56	0xbfef52f624d62399	-0.97887713617921
57	0xbfd6d47e770697a7	-0.35671960471733616
58	0xbff030d5c3ff8271	-1.0119226127791559
59	0xbff901b9f71c35bc	-1.562921490930747
60	0xbfe9a527ef977fd8	-0.8014106444861637
61	0x3fa338d3e2b85637	0.0375429357774632
62	0xbff7dd339ed23d99	-1.4915043071704075
63	0xbfb3c3eb5f7c37d5	-0.07720824319059656
64	0x3ff17779d82421f6	1.091668934155789
65	0x3fe01a3c2a6f5979	0.5032025173957627
66	0x3fde4e072bad665c	0.47351245179524937
67	0x3fe5803ec208d47e	0.6719049253212146
68	0x3fe4e2318f7de2c2	0.6526115229199478
69	0x3fe60c8045f83530	0.6890260092347145
70	0x3fe4184478e88161	0.6279623376358751
71	0x3fd8f7084be21bf2	0.39007766161415625
72	0xbfdc56b57f41a6d0	-0.44279229571712353
73	0x3ff23b13da419872	1.1394232297548368
74	0x3fe1b9305972c745	0.5538560626066348
75	0x3ff224a0ebba0ca4	1.13394252854122
76	0x3ff2d5cf06804d88	1.1771993879272902
77	0x3fb10435ea2b8396	0.06647049872436947
78	0x3ff428ce1742c330	1.259962168562378
79	0x3fe44bc7fd23807c	0.6342506355395154
80	0xbfc18d201161e2d8	-0.1371193013071863
81	0x3fe2c573762835a8	0.5866029079203843
82	0x3ff2e27dd59294c9	1.1802957861594214
83	0x3fe14c76dec8b7cf	0.5405840255023068
84	0x3fe27ae506526bdb	0.5775017856097934
85	0x3fd6a47d596b42cf	0.35378965122531
86	0x3fc3e8b873ccffd2	0.15553956655821694
87	0xbfb5346453d70c7d	-0.08283068701625669
88	0x3fc7f4041908acfb	0.1871342775569714
89	0x3fe0828c52bcb122	0.5159360519369651
90	0x3ff4ab684edb8eb4	1.2918475227715307
91	0xbfcda63895140ec5	-0.23163516310898138
92	0x3ff14b7e4c5d6f17	1.0809309943205727
93	0x3fd694de49367824	0.35283620023426665
94	0x3fe5e82180f6a237	0.6845862883392958
95	0x3ff00aaecfbfd6f7	1.0026081195077816
96	0x3fff1be7fef3f3dd	1.944313045415803
97	0xbfe533a4e7ab0e0a	-0.6625542187470626
98	0x3fe21ad7ab856008	0.5657766675967659
99	0x3ff13e84f1fa1b41	1.0777635051942556
100	0x3fef50373b9d425e	0.9785419620839766
101	0x3fe6b9383782d131	0.7101098140906626
102	0x3fcea8e015881b88	0.2395286660323246
103	0xbfcb2df6091678d1	-0.2123401207326823
104	0x3fd7ef505349ea58	0.3739815533987545
105	0x3ffe78a09d50ac55	1.904450048935151
106	0x4001d60add33d114	2.229512909072705
107	0x3fc26f79f3c1dfb8	0.14402698900425803
108	0x3fe3fefc5998ead2	0.624876189226905
109	0x3ff06290473e1c1f	1.024063375750991
110	0x3fe27f81d446b480	0.578064837076127
111	0xbfd22cff83dab888	-0.2839964664116299
112	0x3feb304b4c65dd2a	0.8496452800890542
113	0x3ff3c547d99588e0	1.2356642245654754
114	0x3fd0d633c2a22e95	0.2630738640516282
115	0xbfa1a092c452a62f	-0.034428202119056166
116	0xbfe626344d4346f4	-0.6921636113204088
117	0x3fc2ca5108b569af	0.14679921078898192
118	0x3feaf7c486d364be	0.8427450784030481
119	0x3ff70eb329f15ec8	1.4410888327019382
120	0x4003445f89aba471	2.408385348845109
121	0x3fe5df0bbff71846	0.6834772824593152
122	0x3fe891ed7d8fb9e4	0.7678134395953831
123	0x4001406958de91c0	2.156450933735158
124	0x3ff0d43e0dafd7d0	1.0518169912952438
125	0xbfcf8f7f10be7858	-0.24656666104869163
126	0x3fef0c2aeab712bc	0.9702353081016422
127	0xbfe24485e6f87201	-0.570864630808103
128	0xbff143f8c10b42e4	-1.0790946522503697
129	0xbfdc6d5171c2e567	-0.44417224988463605
130	0xbfcf9c582bdc486f	-0.24695875302910816
131	0xbfe8244e2c784bb6	-0.7544318073799932
132	0xbfd21f8cfd4c13d7	-0.2831757043462039
133	0xbfdcd5552904267a	-0.4505207920597979
134	0x3fa59580d78d8ec0	0.04215624457608902
135	0xbfeb4d016aa2af72	-0.8531500895237356
136	0xbff1df2d87e68c55	-1.116986780988346
137	0xbff7d597aa2d5946	-1.4896465919060389
138	0xbfed9a6b097c8e91	-0.9250998673710048
139	0xbfedcca69a857e6d	-0.9312317865369103
140	0xbfdbfce766a7359c	-0.43731102966997937
141	0xbfdec0a7aa165e85	-0.4805087243089264
142	0xbfe20b92cf5871c5	-0.5639127778736613
143	0xbfd1b8cf0ba6410d	-0.27690483224525125
144	0xbfd8f125bdfd194d	-0.38971847108441154
145	0xbfe8f30335f468f0	-0.7796646169474837
146	0xbfe47766b2707f1f	-0.6395753369469935
147	0xbfcddc7715306567	-0.23329056295987557
148	0xbfd65444059b1e9c	-0.3488931708093135
149	0xbfe682062de9a42a	-0.7033720871669449
150	0xbfe0cf06a021ffe7	-0.5252717139810529
151	0xbfe4e3b8130b6b13	-0.652797734447946
152	0xbfeaf6b0c285e97f	-0.8426135825423414
153	0xbff8f37b408a6bfc	-1.5594437142487996
154	0xbfe11d92198e64bd	-0.5348597048897755
155	0xbfd96509feb081e7	-0.39679193374652616
156	0xbff037c2039ec6b5	-1.0136127606787515
157	0xbfd22507bc40a5f0	-0.2835101450351365
158	0xbff68b1c132ae4d7	-1.4089623211605635
159	0xbfe2233ffea85fb4	-0.5668029760154156
160	0xbff2d636e253c507	-1.177298435297702
161	0xbfea4fc4473ecc8f	-0.8222371474752367
162	0xbff10ba9403b03ff	-1.065346957111842
163	0xbfe7cf60552f0bab	-0.7440644897218268
164	0xbfea6d11cf0d4c34	-0.8258141559584886
165	0xbfdf1c0e452adbb2	-0.48608738665228224
166	0xbfe612e3816624ae	-0.6898057486843265
167	0xbfe22e1b13d35586	-0.5681281459061871
168	0xbfc03178946e1616	-0.12650973556098738
169	0xbfeb9b1edac1df48	-0.8626856110194945
170	0xbfe76a21c7149b96	-0.7317055595675466
171	0xbfed8e67cda97e1b	-0.9236334816777715
172	0x3fcefdbf75bd32c5	0.24211877106644955
173	0xbfa0f3c91acff557	-0.03310993625926056
174	0xbfd54f6a7215b0f4	-0.3329721559628205
175	0xbff56ff379374205	-1.339831803798121
176	0x3fd0a138d4034dbf	0.2598402090490843
177	0xbff069c05f7532b2	-1.0258182267017841
178	0xbffbf778a4b83716	-1.7479177889212614
179	0xbfe52b16c8b08424	-0.6615098876683345
180	0xbfeea450ac587c2b	-0.9575579992414353
181	0xbfc1c0c626f03b19	-0.13869549657143734
182	0xbfe170dd852345d7	-0.5450275040004112
183	0xbfe32713b387f542	-0.5985201364962125
184	0x3fb28d66140922e7	0.07247007359650191
185	0x3f3b8c138508a4a8	0.0004203364997317862
186	0xbfe708c9be395728	-0.7198227610885839
187	0xbffd16963eb0b8e8	-1.8180143784371072
188	0xbfe872ab4ca08df1	-0.7639976975082715
189	0x3fc0799722324e18	0.1287106434798353
190	0xbffa2c754449e175	-1.6358540217898654
191	0x3fc0fbd865828d1c	0.13268570858517925
192	0x3fe3ed344e41c754	0.6227056053596507
193	0x3fe6cf25179fa4eb	0.7127862416647565
194	0x3fe1136d3116cf82	0.5336214026233252
195	0x3fe418943e844470	0.6280003758457848
196	0x3fe307830df72a0b	0.594666983867968
197	0x3fec03d888da4dc0	0.8754694626717807
198	0x3fd3d1d1a7d4ff7c	0.30968133344503435
199	0x3fceef2897a0fcc9	0.24167354015114587
200	0xbfd251d7f19c9c75	-0.2862453326692454
201	0x3ff29d6fea26b75e	1.163436808255447
202	0x3ff17513f794ea63	1.0910834952507222
203	0x3ff05ffb8094ebed	1.0234332106326705
204	0x3ff146c1532f70de	1.079774212782517
205	0x3fc7d1f941098f1b	0.18609538722659455
206	0x3ff0edf447ba682b	1.0580942918663918
207	0x3fe40cda758e93c6	0.6265690132173567
208	0x3fc460292b8d0cd1	0.1591845953608755
209	0x3fd57a46c72f81b0	0.33558816386905743
210	0x3fe89d27ef3efe44	0.7691840813421966
211	0x3fdc80d437ce88eb	0.4453630967128805
212	0x3fe21f732e325e8c	0.5663391020088553
213	0x3fd1c1d9fcf3ac94	0.2774567575676852
214	0x3fcd30dba51caa85	0.22805352747066734
215	0x3fb972a2b2a6bef1	0.09940544950108766
216	0x3fe4faad9c08ffcf	0.6556003615914906
217	0x3fe73eca39928e31	0.7264147877180617
218	0x3ff4db451a36e6ee	1.30353269805931
219	0xbfe2c44cc01f1817	-0.5864623787281315
220	0x3fdd084c1bbb384e	0.4536314268888234
221	0xbf8acc99567132be	-0.013085554075723645
222	0x3fed905dad2892ef	0.9238727933885381
223	0x3fd44657ec4099ea	0.31679342338102734
224	0x3ff904cdd23d513c	1.5636728489381104
225	0xbfb2dae6f1409f8b	-0.07365268125488293
226	0x3fe02677521bb46c	0.5046955684353072
227	0x3fe3e193fd432787	0.6212863871125912
228	0x3fe9463ece364d1f	0.789824869878803
229	0x3fe285a1e6621400	0.5788125514669673
230	0x3fd526281ce1e899	0.3304538995795468
231	0x3fd872ad4bb7b64f	0.38199932474421855
232	0x3febe7633f6213e5	0.8719955671264158
233	0x3ff6907b73d3b604	1.4102739834301028
234	0x3ffb6cf766ec89d3	1.7141031284778492
235	0x3fdef32f7ef508f0	0.483592866880044
236	0x3fcaa291a6a2c7e4	0.20808621059910515
237	0x3fe12bdf46ab675c	0.5366054897560661
238	0x3fc3b7f7255d6210	0.15405167889072446
239	0x3fd48aa06fbf2100	0.32096110260728494
240	0xbfda10160d060f5f	-0.40723181983798
241	0x3fedca262e65372b	0.9309264093551283
242	0x3fea05ced4cee1ab	0.8132089764031226
243	0x3fc68a878f2485ce	0.1761025856913378
244	0x3fa817239fc249dc	0.047051537753890676
245	0xbfcb88afb966d6ae	-0.21510883858507185
246	0x3fcf1dcb96e91c85	0.24309677952462408
247	0x3fef3514473f0dc1	0.9752293960122459
248	0x3ff151b828c1ea36	1.0824510185326637
249	0x3fc4a182a2f5d0d5	0.1611789031700314
250	0x3fdde7a3ee721ac9	0.46726320539202654
251	0x3ffe3b76a3351ffa	1.8895174384397238
252	0x3ff09ac6bad8fc75	1.0377871798262082
253	0xbfd5411153a9c028	-0.33209641618941754
254	0x3ff40023a6f143f4	1.250034000510138
255	0xbfe4dfb2c99fcdf9	-0.6523069322560665

layers.0.bias f8 [128]
0	0xbff89964f51a5c34	-1.5374497961363547
1	0xbff6a2ed283d06fb	-1.4147769519626638
2	0x3ff90aa6c077b186	1.5651004331840297
3	0x3fe7e27b903b682b	0.7463968102486026
4	0x3fdbfcc0897c5399	0.4373017637856776
5	0xbfeee84d9a75532f	-0.9658573166621859
6	0xbfbc37cb3a8a89b7	-0.11022634677150377
7	0x3ff2f411d5dd139d	1.1845873216673006
8	0xbfc12aecf9b434d2	-0.13412248795103793
9	0x3fea6af281f00018	0.8255550897447419
10	0x3fe4e79261b5b76c	0.6532680424113386
11	0x3ff11cc10a783474	1.0695200356451808
12	0xbff60fbd20510492	-1.3788424742090553
13	0xc00091a62ec5209c	-2.071117749586916
14	0x3fc7afff21b21973	0.18505849023149387
15	0x3ff285133a5493ce	1.1574890402346116
16	0x3fefc8adc488a843	0.9932469214011309
17	0x3fd691db71cd23e6	0.35265241731082
18	0x3ff35fdaac540683	1.210901902348639
19	0xbf9675e89bf378e1	-0.021934160727021704
20	0x3fccadb862ff2961	0.2240515216238448
21	0xbfeeade070473108	-0.9587251847201808
22	0x3ff13f2ac9a7e333	1.0779216649227237
23	0xbfe7636057cc006b	-0.7308809008391227
24	0x3fe6ae44f414e835	0.7087731139392931
25	0xbffb2415c4954698	-1.6963098219897912
26	0x3fd6f4def7c96e34	0.3586957378190363
27	0x3fd2a7d7aacca22b	0.29149429015754674
28	0xbfebdf0c0b2de2e4	-0.8709774225563618
29	0xbfe2060807aed0e2	-0.5632362508827351
30	0xbfd590843c3ee89e	-0.33694558986065626
31	0x3fec6bad5dd07857	0.8881441910086875
32	0xbfd8c8f8c58374fa	-0.38726634300640195
33	0xbfd4e188d41fb5a7	-0.3262655326387524
34	0x3f9aebbef5eb8d8b	0.02628992439248416
35	0xbfc387d6600f72da	-0.15258292856642336
36	0x3ff4e88b931603e9	1.3067737336680187
37	0xc0008a7808a83224	-2.067611758835726
38	0xbfdc4df26ceec2b3	-0.44225750577883643
39	0xbff4ea96ec1a1027	-1.3072728369452393
40	0xbfeb63458f70a235	-0.8558681298791898
41	0x3ff2690c6fbbcd17	1.1506466259568862
42	0xbff44db4c2a3dd50	-1.2689712145928134
43	0xbfd4f29b2c11a5a4	-0.32730750373465356
44	0xbff714d9c22f9bf6	-1.4425904832257834
45	0xbfd973c1de6f883c	-0.3976902649138798
46	0x3fd483644db4772f	0.3205195196950283
47	0xbfee71da87af46c1	-0.951398148545387
48	0x3fdcf84f7fbc5bcd	0.4526556727809606
49	0xbfe20aa25d20bfb6	-0.5637981242089072
50	0xbffc3fdb9dadcf4d	-1.7655903014501348
51	0xbfc1df6aa9675f90	-0.13963063499135986
52	0x3ff4474c30d0147d	1.2674066454649442
53	0x3ff50300c662ad84	1.31323316091843
54	0x3fbccb17a3518870	0.11247394311206604
55	0x3fe6694a8587a7f8	0.7003529174810401
56	0x3ff7e4e5730a4622	1.493382882476347
57	0x3ff282a383a1c6e9	1.1568942205307684
58	0x3fdacfe380ac3226	0.4189385181969406
59	0xbfc898797764b743	-0.19215315179592993
60	0xbfece95e086cb1cb	-0.9034872211973889
61	0x3ff216762d7b62a3	1.1304837967528918
62	0x3fed51c4cd62a836	0.9162315379555881
63	0x3fd58256a1e37a04	0.3360802250807924
64	0xbfc29e49acb6e874	-0.14545556004833637
65	0x3fe5c02e0dee0d7f	0.6797094604557258
66	0xbfe26be7433e6912	-0.5756717980723656
67	0xbf87e8a597291b08	-0.011674207377962556
68	0x3ff1f27b7a1ed519	1.121699788125005
69	0x3fea9d0f146a5b2e	0.831672229646619
70	0xbfeaf94b1239c15c	-0.8429313045472031
71	0x3fdee89a68cfa90d	0.48294697032419337
72	0xbfdd9a2c6338fdd9	-0.46253499688824956
73	0xbfe8208e8d5c83b0	-0.7539742241825618
74	0xbfe1617087ecb89c	-0.5431444792536868
75	0x3ff65543d218154e	1.395816631965619
76	0x3f64edb20698c118	0.002554748255327987
77	0x3fde24f1a9974d18	0.47100488244650895
78	0xbfc492b83b5db396	-0.16072752855998534
79	0x3feb0ebebec6bcab	0.8455499387836388
80	0x3fea8faeee60883e	0.830039468364937
81	0x3fdc311ac3ed49b4	0.44049710401045705
82	0x3fea8d44e2831149	0.8297447609007033
83	0x3fe4938f5e60b2e2	0.6430126994433432
84	0x3fde7c7b3cb2994e	0.4763477413893228
85	0xbfe9959c245da9ab	-0.7995129308958914
86	0xbfee6ae7081830ab	-0.9505496175857123
87	0xbffa1f2677a4684a	-1.6326050447010112
88	0x3fecf32dc86924e8	0.9046849169036735
89	0xbfb507c195307096	-0.08214959995570079
90	0xbfee11648973d9ac	-0.9396231350536275
91	0xbfea82ee255e1501	-0.8284826974710598
92	0xbff24f3aa9fa08ef	-1.1443430556978986
93	0xbfd1d4f4336023b9	-0.2786226751055057
94	0xbff1e65a76ddd52e	-1.118738617250823
95	0xbfe8b693c6eeeea5	-0.772287262479456
96	0xbff04ab0de622995	-1.0182350813725851
97	0x3fec70cc23bc3ba8	0.8887692163424292
98	0x3fffc41d64984700	1.9853795938001326
99	0x3fe019f55ee18bb0	0.5031687596459644
100	0x3ff237254a68a60c	1.138463297519027
101	0xc000b1ce556d76c2	-2.086819331553529
102	0x3fedda70331b5033	0.9329148290803516
103	0xbfceef3a62303929	-0.24167566103319274
104	0x3fe4024aa42dfb3c	0.6252797323830701
105	0x3fdc0bb9513eac93	0.43821556982101945
106	0xbff7b13f916c260c	-1.4807735138477964
107	0xbfdea39f388fce2e	-0.4787366917000523
108	0x3fb092a2e330d1b6	0.06473749205253551
109	0x3ff0e2ea5698c05e	1.0553992636378307
110	0x3fe7668ff6e39b94	0.7312698194553939
111	0xbfe2584569922f84	-0.573275285905297
112	0x3fc8fcb87c33a5c7	0.19521242203272335
113	0xbff7dca397cf1348	-1.4913669519457518
114	0xbff2c1afd1b115b7	-1.1722868147929668
115	0x3fe950e81d17cd38	0.7911263054105921
116	0xbfcd513b9974bdfd	-0.22904152863473817
117	0xbfedcc74b387d76b	-0.9312079912622101
118	0x3fe0dd01231639d1	0.5269780812539527
119	0x3fca3efa0c063db7	0.2050468977654256
120	0xbfd3f8a56696fdec	-0.31205115335975964
121	0x3ff1b8ce74c4608d	1.107618766900518
122	0x3ff0a4c0b8257bdd	1.0402228539676266
123	0x3fe219c3d8cdd46a	0.5656451448873103
124	0x3fd93e8a6fc06d96	0.39444218552827104
125	0x3fcf1223bc833adb	0.2427410765144121
126	0x3fe1dbea78703365	0.5580952026663054
127	0xbfdc61de6519126f	-0.443473433235602

layers.1.weight f8 [100, 128]
0	0xbfaaefe999d0351d	-0.05261163714031112
1	0x3fa6744f407b26ed	0.043856121655677295
2	0xbf9ea51e9bc97974	-0.029926756151661363
3	0xbfb9cc284da60b11	-0.10077144523351601
4	0x3fbe224e630da779	0.11771097105306962
5	0x3f87c6bcc8b6e513	0.011609530330007922
6	0xbfb3fc7c810a69d5	-0.07807138586432612
7	0xbfbdd852f0a84e3d	-0.11658209205079913
8	0x3fbb81ed65487c0e	0.10745128367169363
9	0xbf965391acd8db64	-0.021803165602445232
10	0xbf9dafa28b17e112	-0.028990306605892142
11	0x3fb16167d0690079	0.06789254034174687
12	0x3fa2854539785259	0.036173022523290306
13	0x3fb28eb700d7c0a2	0.07249015589309463
14	0x3fa52b3d5683cc42	0.041345516978161814
15	0x3fa46a47d76e808e	0.03987335686474679
16	0xbfab97e1838dfd32	-0.05389313441173228
17	0x3fadd7a61f74ed4b	0.058285895671782294
18	0xbf968a9883e94a45	-0.022013075877405325
19	0xbfcb4374b605e98f	-0.21299609077307166
20	0xbfa6e225f4d5623a	-0.04469412435236504
21	0xbfa2e34cba49e153	-0.03689040922194189
22	0xbfbd8c8be868c944	-0.1154258196263856
23	0x3fc0824420d33263	0.12897540667326543
24	0x3fb89ad1edfa94c8	0.09611236629514786
25	0xbf4917535c0cd7f5	-0.0007657200841097988
26	0x3fc1c50de6773bf0	0.13882611993037086
27	0x3faedc9097bb26ab	0.06027652599511887
28	0xbf8b0c79e8e09afd	-0.013207390231469324
29	0xbfbe7ce985beaf48	-0.11909350886588499
30	0xbfb36fbcbf192488	-0.07592372575267536
31	0xbfb702dfd78d5b41	-0.08988760960106125
32	0xbfb0a26d4b45c728	-0.06497843826016647
33	0x3f7b1a989fdb8e3e	0.006617160977586743
34	0x3fbad7bd731eeca7	0.10485443172994967
35	0x3fc4cf05717ce6b7	0.16256778756524223
36	0x3f8a5b360826a323	0.012869283794161362
37	0x3f94ba9d6851a086	0.02024312924587026
38	0x3fb010ad6e11d932	0.06275447785614999
39	0xbf8c4906288c5207	-0.013811157333784697
40	0xbfb1b3b0e83d0d29	-0.06914811773190323
41	0x3fc98bcd2674f770	0.19957889917162275
42	0xbfc44b42239e7ee9	-0.15854670275893248
43	0xbf723e3d92a849ee	-0.004453888434471127
44	0xbfb32e7c0f29f768	-0.07492804880345505
45	0x3fcf724dac305160	0.24567576320317652
46	0xbfb0638177873d54	-0.06401833694620979
47	0x3fd03f3617e0af98	0.2538581116848433
48	0xbfc49097fa5a9e16	-0.1606626484328763
49	0x3fa741cb8e146283	0.04542385205622159
50	0x3f70c9d727d7aacb	0.004098740054795778
51	0x3fb0d12368e1da75	0.065691197496429
52	0xbfaaf14a23ef2d9d	-0.052622143637189846
53	0x3f96d9478bfc52ef	0.02231323043732208
54	0xbfa42a06e2f96de3	-0.03938313980753685
55	0xbf999853d979c2ec	-0.024995145939501848
56	0x3f587c0a93edf706	0.0014944175051989097
57	0xbfbb73bc2261f5e8	-0.10723472442074178
58	0x3fad67a5f26a69b5	0.057431398240811594
59	0xbfb1248e5118f023	-0.06696404914777125
60	0x3fbfe30afd7d92fb	0.12455815018399712
61	0xbf8539803b6a74dd	-0.010363580525615418
62	0xbfba71449b0d1102	-0.10329083238054085
63	0x3fa151fceae51268	0.033828643487628096
64	0xbfb0fd90f14fcaee	-0.06636911288641631
65	0x3f6f890a7061ce08	0.003849525822312353
66	0xbf94e0fc8f7f2f7a	-0.020389505632734985
67	0x3fb19d46f50d1a3f	0.06880610926337115
68	0x3f9e3600820237e7	0.029502876219844067
69	0xbfbf9b9487bb7974	-0.12346771539475815
70	0xbfc95aad72f71d36	-0.19807975877322698
71	0x3fc03a066f6349d7	0.1267707866559948
72	0x3fb23c858f0d4e95	0.07123598806838978
73	0x3fb332f55a207d77	0.07499631357540247
74	0x3f8efb29ff16817a	0.015127494904675787
75	0x3f9a4e5ec94cace0	0.02568958381304476
76	0xbf94496c0d0c9e86	-0.019811332985368434
77	0x3fb7ebbccf621cbb	0.09344081938808106
78	0x3f851ebdc1c1d8e8	0.010312540507794357
79	0xbfa9b2eae2b3ef27	-0.05019315736168855
80	0xbfbe89e183f1964f	-0.11929139586717351
81	0xbfc4ba7e0e474f5a	-0.1619412965507035
82	0xbfc035b6d09bf168	-0.12663922487252965
83	0xbfb0401f843df3fe	-0.06347844103397901
84	0x3fc4c4381f008a90	0.1622381354691993
85	0xbfb38c3d8015ed44	-0.07635864617434601
86	0x3fca2c84cfb8ce57	0.20448360579176736
87	0xbf966c46419de1dd	-0.021897409205367303
88	0x3fb662013aba1421	0.08743293460618463
89	0xbfc231daee93b6fd	-0.1421464600493251
90	0x3fb17c1ab9e3552e	0.06829993284494115
91	0xbf9d19b0b4702900	-0.028418313038891974
92	0xbfb04c0ae136ebb1	-0.06366031645204263
93	0x3f968590f33eeaf3	0.021993889662307486
94	0xbfb5c74823c3c203	-0.08507204888497459
95	0xbf949e2b261fdee7	-0.02013461513703776
96	0x3f7701aede8505bf	0.00561683948791497
97	0xbfb11b8997ec8079	-0.0668264385135461
98	0x3f05a963a664b5c5	4.1316369605897146e-05
99	0xbfb2ed663fc9f9d0	-0.07393492753360609
100	0xbfb15d8a32992962	-0.0678335546046234
101	0x3fb4def76b30dc91	0.08152719847645275
102	0xbfc1bd54a5c6166b	-0.13859041304037886
103	0xbf97fb326e80c277	-0.023419178003850818
104	0x3f88d29d9139c2fb	0.012120467180666497
105	0xbfbaa65742b0ee31	-0.10410066011621023
106	0xbf89e2b02407b786	-0.012639404391815889
107	0x3f9ec108b4b313d6	0.030033241299651646
108	0x3fc2d960f0629e11	0.14725887048301492
109	0x3fb17a606bdc9a8f	0.06827356942504025
110	0xbf987787542f5676	-0.023893465531577417
111	0x3f995244671d073f	0.024727886956731778
112	0x3f9740d360a9baad	0.022708227896539302
113	0xbfa185aa98a41536	-0.03422291863720732
114	0xbfb26312844aefb6	-0.07182422380259265
115	0xbf95d748f43c9568	-0.021329059512159715
116	0xbfb23e16481eacb0	-0.07125987301576475
117	0xbfb0059ef463702b	-0.06258576838030254
118	0x3fa9aa669e53fb62	0.05012818033900747
119	0xbfb3f42367e55733	-0.07794400488395752
120	0xbf96d550e07679f9	-0.022298110675928105
121	0xbf9da47ca9c9e770	-0.028947780478552898
122	0x3fc24afee27fb90a	0.14291368541257327
123	0x3fa1a67966c1f6cd	0.03447322253576388
124	0xbfbdd3cb7f6924d8	-0.11651298390019649
125	0xbfa33870f1db100c	-0.03753998710956816
126	0x3fbf89390f0beba0	0.1231876050696159
127	0x3fc22a77791bbf6e	0.1419209805821952
128	0x3fcf4f2b64038635	0.24460356124386498
129	0x3fe80bc8743dc33c	0.7514383573853602
130	0xbfc9b894822c9fe9	-0.20094543796699263
131	0x3fdd3d9df7de7d7a	0.4568858070942593
132	0xbfea532dd232cf29	-0.8226536851347862
133	0x3fd7f4a0a1c65fd8	0.3743058757622726
134	0xbfe890f0de1a80fa	-0.7676929796180325
135	0xbfea7c8f69b71ec1	-0.827705103373738
136	0x3fcbd89abba897e0	0.2175477424909209
137	0xbfd790baa3b930e1	-0.36820856083501324
138	0xbfc888c58a0d8a51	-0.1916739391409288
139	0xbfa0aa859892c1de	-0.03255097854105647
140	0x3fedc4391e5ce49d	0.9302030175232577
141	0x3fd6de3cad3e19f5	0.35731427114697506
142	0x3fc0f01afc384cc1	0.1323274356405815
143	0xbfd7ba5455c1de98	-0.37074764609085653
144	0x3fc90f4e10ca9fc4	0.19577956981561162
145	0x3fe16ad0eb0cdde6	0.5442890730691345
146	0xbfe0adf11dc883a5	-0.5212331372932694
147	0xbfcf1a4b44e9e988	-0.24298992981841772
148	0xbfe2f45094eabe50	-0.5923235806021214
149	0x3fb6d369761ba9e0	0.08916339047906474
150	0xbfbda9387036d357	-0.11586334933856555
151	0xbfe2b2d42d08f441	-0.5843296889867206
152	0xbfd152a118920999	-0.27066829108675844
153	0x3feb285d0cf9b43b	0.8486771825242906
154	0x3fcd15e996cdf0ca	0.22723121512888717
155	0xbf96a892f7bef034	-0.02212743413086589
156	0x3fda4900ab549325	0.41070572597009153
157	0x3fd8e09948e80adc	0.3887084209419933
158	0x3f6b43d12d6dfa34	0.0033282361504796357
159	0xbfd88875e87c2520	-0.38332889274222914
160	0xbfea6d98036eee55	-0.8258781497056115
161	0xbf8288046a195820	-0.009048494804272222
162	0x3fda742757806c85	0.4133394579418524
163	0x3fbaeb19386ced93	0.10514981868339239
164	0xbfe672726138f868	-0.7014705561521284
165	0x3fe3d27b88737e8a	0.6194436707555309
166	0x3ffa9bc3537f3b9d	1.6630280744172758
167	0x3fdf1abe6938575b	0.48600731158636784
168	0xbfd09b4733dcf77e	-0.25947742523918993
169	0xbfb75b39b0d2d820	-0.0912357384393947
170	0x3fb8c4fe0b88fe2a	0.09675586492175428
171	0x3fa3852a2cf36f16	0.03812534140317163
172	0x3ff254b1771e0fbd	1.1456770566010015
173	0xbfc988c2b60cb90b	-0.19948610200066982
174	0xbfd5de73488dbc4f	-0.3417022903949531
175	0x3fd095d534b72856	0.25914507053369584
176	0x3fe9ac6379f456d8	0.8022935277865271
177	0x3fd56c974ea8b415	0.3347528713373447
178	0x3ff0b1056db3909d	1.0432180676662377
179	0xbfe79345351082f2	-0.7367273365417459
180	0xbfe5d435d4d5fa8b	-0.6821545750570562
181	0x3fcc28ed1b47665b	0.21999896842935382
182	0xbfc6c2592a983366	-0.17780603961764568
183	0xbfe4d259313f5995	-0.6506772958626238
184	0xbfeb77c134d96488	-0.858368495198321
185	0x3fcb61f7e432fe7b	0.2139272560361752
186	0x3fefbf6b257d6388	0.9921165210936218
187	0xbfdbdaaa00ebbb19	-0.4352211960785311
188	0xbfc1ab80fbaa93cc	-0.13804638183969897
189	0xbfe9888865616448	-0.7979166011892938
190	0xbfef719795a2977f	-0.9826162264405268
191	0x3fbc9dce84feb21d	0.11178293940492563
192	0x3fe2a363c8537af1	0.5824450409525906
193	0x3fe77443e1af04f3	0.7329425247081914
194	0x3fc6cd002049ed15	0.178131118551257
195	0xbfae89dfc36b7a96	-0.059645645718537185
196	0x3fe59b11c0cf119f	0.6751793638036822
197	0xbfba591af8cfdc2b	-0.10292213987837388
198	0x3fe1b81e2b01e639	0.5537253227223068
199	0x3fc649d38843bf5a	0.1741279998163872
200	0x3fd060cac2659027	0.2559077165990424
201	0x3fe1355e12a88cbd	0.5377645840093447
202	0x3fe58f3f71128870	0.6737363060422137
203	0x3fa39b939a81da02	0.03829633008074397
204	0xbf7ff1e5226fe2a9	-0.00779904847785732
205	0xbfbb3829025b026c	-0.1063256865263697
206	0xbfe06fb7cd5cb04e	-0.5136374484041057
207	0xbfda8ae56ddc05d2	-0.41472755173171294
208	0xbfb58b3f14a8d948	-0.08415598158248827
209	0x3fe5253058e6e352	0.660789655338798
210	0x3fc992603b2c6564	0.19977953805281878
211	0xbff86e284515df5d	-1.5268938730859738
212	0xbfe18f7d41a3986a	-0.548765781594523
213	0xbfc789051d8b676e	-0.18386901800732453
214	0x3f9650816af96958	0.021791479257765672
215	0x3fc48967d5ad7eed	0.16044328626138996
216	0xbfd787a7fff851a3	-0.36765480038709536
217	0xbfcb5fd731ca860e	-0.21386232310491987
218	0x3fe434ac4ad0a98b	0.6314298115951699
219	0x3fd4171796b2a7ca	0.3139094325694002
220	0xbfb9343b95d2bbfd	-0.09845325858871941
221	0x3ff41e8d2072b9ab	1.2574588077073752
222	0x3fd2fab0751a4ce5	0.2965508597928433
223	0x3fe47dd2a36e269f	0.640359229278335
224	0x3fe389edb7b31a94	0.6105869853862083
225	0xbf7e3e1863603462	-0.007383437410692558
226	0xbfda4d9543d5ef21	-0.41098529457643634
227	0x3f9110f847a7c6ff	0.016666297315118147
228	0xbfe8bef3a4e1ad16	-0.7733095379202577
229	0x3fe1de9248fcd5cb	0.5584193635501661
230	0x3fd64107191e9acc	0.34771897748070724
231	0xbfd667df096de5e3	-0.3500897972185994
232	0xbfe07ecc38d6b8dd	-0.5154782400257109
233	0xbfb16fff71c4545b	-0.06811520125877861
234	0x3ff6b70c6553af90	1.4196895559389056
235	0xbfd47a13189fef75	-0.31995084194908624
236	0x3ff159f9fbb3f9bc	1.0844669181966387
237	0xbfe1e5517e36addf	-0.5592429604634467
238	0xc000dd42e9beed6d	-2.1080377828017647
239	0xbfddc15367713544	-0.46492467023638917
240	0xbfe074190b1f7b9b	-0.5141720978971195
241	0x3fd94a2eb59ea024	0.39515273796360106
242	0x3fdb04024b62092a	0.42211968766800345
243	0xbfd8fc7f4529c0b2	-0.39041120294769904
244	0x3fdd43dddce70629	0.4572672517061585
245	0x3fc2f611465e9ae8	0.14813438354504815
246	0x3fbf103bb965edc6	0.12134145046541453
247	0x3fa72776d6b06fd0	0.04522296305387352
248	0x3fc3ea0d4f21351a	0.15558019984965982
249	0xbfe5f078407ed8f3	-0.6856042155912107
250	0xbfd29c291cfa0a3b	-0.29078128652341534
251	0xbfe7e476e0c1fa48	-0.7466387166785546
252	0xbf9d3aa3be946f7d	-0.028544004923886746
253	0xbff5fe8d0dbbfc41	-1.3746462379929343
254	0xbfd4109fb7e75e50	-0.31351464232782167
255	0xbfed55f46902a8db	-0.9167425204261933

layers.1.bias f8 [100]
0	0xbfa29e47f88d70c6	-0.03636383923614654
1	0xbfc79f695e4528a5	-0.1845523557952379
2	0x3f86fdcb4400fce4	0.011226261151135515
3	0xbfb97a4aef683507	-0.09952228875063805
4	0xbf86e89dde11e6a1	-0.011185868587051674
5	0x3fe1055619049af1	0.5319014061577417
6	0xbfa0eac6dc7951d6	-0.033041204846685865
7	0x3fcfe147a35e5671	0.24906249501207214
8	0x3fba44884f1edc93	0.10260822230962878
9	0x3fb16435f9806126	0.06793534604401383
10	0x3f94c10e87e0f089	0.020267703097701904
11	0xbfd25b2b1a22950b	-0.2868144755578476
12	0xbfa71448afd0303d	-0.04507662912519137
13	0x3f9eab8ade7c9411	0.029951257543093194
14	0xbfb8731660db4412	-0.09550609459553552
15	0xbfa0a210f1011a02	-0.03248646680781421
16	0x3fa35f7b07d78468	0.03783783407903557
17	0xbfcb8fc3f2fd1556	-0.21532487263372485
18	0x3f6ad6f6a6313199	0.0032763306967693137
19	0xbfb2fab514a110c1	-0.07413799050943039
20	0x3f9f7ff96c1656a6	0.030761620733378202
21	0xbfc2f51497a1d8ed	-0.14810426143566904
22	0x3fc2811fc53640bc	0.14456555490006007
23	0x3fb223098df40812	0.07084712711005661
24	0x3f555937741c040c	0.0013030091799353131
25	0x3f88522a6f11aedd	0.011875468744811208
26	0xbfc3172388a795c9	-0.14914364025677987
27	0x3f9a5e2faebff052	0.02574991706931968
28	0x3f85b4ea07473701	0.010598972651588935
29	0x3fc232a88be1fbdf	0.14217097120487573
30	0x3faaf5345c66be8b	0.05265201213785272
31	0xbfafa87ca9011522	-0.06183232844390775
32	0xbfa0445e7fd6585c	-0.031771615128648206
33	0x3f67dcba3c86f71a	0.002912868254695844
34	0x3f9dcbee625f4fa6	0.02909824824730802
35	0xbfc4c2f626eb5332	-0.16219975376466206
36	0xbfb6d7fbd716b55c	-0.08923315049351771
37	0xbfbdf17ceabe77fc	-0.11696606379561553
38	0x3fbcca2f3c7d497c	0.11246009089271597
39	0xbfd7524f3373a673	-0.3643987657984333
40	0xbf855d8f8e6aefd1	-0.010432359250778152
41	0x3f967d7741070e48	0.021962989181487452
42	0x3fa07a1a9d087b8a	0.032181579274257535
43	0xbf92c70cb1eec040	-0.01833743892683537
44	0xbfb6f9747731e618	-0.08974388036758574
45	0x3fcdc5974f44dc6a	0.23259250040584628
46	0x3fa027fd0d700b4e	0.031555087938633805
47	0xbfe0a9fdadcb9b83	-0.5207508463325755
48	0x3fa36b9c507de9f5	0.03793037874762099
49	0xbfb158089cd540e3	-0.06774953679019151
50	0x3fa6ea1a7e541001	0.044754817887252336
51	0xbf539b0e4ac9232e	-0.0011966361590955532
52	0xbf8c7a2a5dcf8310	-0.013904887187835807
53	0x3f9682759764b291	0.021982037892643694
54	0xbfa1e01f41c9f1d3	-0.03491304090582372
55	0xbf845196e8144e90	-0.009921244580744643
56	0x3fe0fdc6326bd3d0	0.5309782967366292
57	0x3fb069fc156accf0	0.06411719820862394
58	0xbfbdbb8dc57df168	-0.11614309379178211
59	0x3f9d58de064cf66f	0.028659314283905276
60	0xbf9756f9e8a12c2d	-0.022792725394804748
61	0xbfb4cb8d54f30f79	-0.08123095821343708
62	0x3f99423e59b569f9	0.024666761613255848
63	0x3f9ca38068e5a483	0.02796745910874111
64	0x3fc30260cada152f	0.14851007370831712
65	0xbf7dd8aa8f77a5c3	-0.0072867071644195395
66	0x3fa67f4cb169ea74	0.04393996873564712
67	0x3fd94551643610c8	0.394855831015104
68	0x3fbb2657c16753f7	0.10605381461876094
69	0xbfcb7024ecde4935	-0.21435987058482345
70	0x3fc08e55a27462c7	0.129343704532195
71	0xbfb743fb8ffdcc27	-0.09088108315863562
72	0xbf871ebac291893a	-0.011289080679664044
73	0xbfa70957a0000000	-0.04499315097928047
74	0xbfd1c10025e39132	-0.2774048204430698
75	0xbf52ff3e27af9305	-0.0011594874365467589
76	0x3fa0bdb7fe890e1d	0.0326974390232204
77	0x3fc7024439f89f96	0.17975666838287613
78	0xbfa95a9115fee607	-0.04951909440519491
79	0xbf74a819151a9c46	-0.00504312322451656
80	0x3fac30cd9fa964a9	0.05505983900065676
81	0xbfad914748fcd959	-0.05774901166880637
82	0x3fe24e52cfcfa9a8	0.5720609721004637
83	0x3fd84cb3b494e1cb	0.3796815169803522
84	0xbfc0cca348a85707	-0.13124505088551805
85	0xbfb38e3d5857481f	-0.0763891544986852
86	0xbfb9d60078715558	-0.10092165890212834
87	0x3fd32810fb798320	0.2993204551512907
88	0xbfa81b1b4367408a	-0.0470818061618284
89	0x3fcc98f7fd39dca6	0.22341823448707493
90	0xbfbaed495ac1d0cd	-0.10518320527791332
91	0xbfa7a3a8e8c28948	-0.04617050019557439
92	0x3fd1549d3bc5b4fd	0.27078944050920467
93	0x3f97726d4977730b	0.022897441491170272
94	0x3f9085d1b2d4f37a	0.01613547948840075
95	0x3f5fdcbfb7939db2	0.0019447204816119665
96	0xbfbc7fe0ccd8640b	-0.11132626534562477
97	0xbf6a2fa70d0b9179	-0.003196550628091707
98	0xbf71606615956dae	-0.004242323653069686
99	0x3fb03faa04f91f3f	0.06347143765844708

layers.3.weight f8 [100]
0	0x3feeacae1f71a241	0.9585791219843217
1	0x3ff1ca6f42d6c3b5	1.1119225130935153
2	0x3fef105f25e6acc0	0.9707484951262799
3	0x3fee88074f8d1350	0.9541050485355331
4	0x3fefc4b871c00a41	0.9927637311632865
5	0x3ff167b6f2234772	1.0878209551342164
6	0x3ff0dab01876a383	1.0533905940630752
7	0x3ff20f0728db2a58	1.1286689372961032
8	0x3ff131bb709461ea	1.0746416471139306
9	0x3fed409092701af8	0.9141314373126468
10	0x3ff012088ecc2a54	1.0044026926067504
11	0x3ff5ba566e9da779	1.3579925843173142
12	0x3fef254a8a9462f0	0.9733021456368913
13	0x3fef31dbd81e3033	0.9748362752011474
14	0x3feed0bd04ce0344	0.9629807561724211
15	0x3ffb94eb3997eab7	1.7238571405165837
16	0x3fef10269f3d436a	0.9707215414183399
17	0x3ff1a46c9b182623	1.102642637097582
18	0x3fec8e101cd37208	0.8923416674620634
19	0x3ff13acc355baf27	1.0768549045851132
20	0x3fee2e42b44b5a0e	0.9431470414518246
21	0x3fdd7806af036024	0.46045081225520534
22	0x3fe5f0043d73034b	0.6855488968068156
23	0x3fef8e5b74a7a759	0.986127593843075
24	0x3fef4a970112f98f	0.9778552075365939
25	0x3feddb709b3a45ae	0.9330370933332028
26	0x3feb45df625d0874	0.8522793694649082
27	0x4000808ef199f973	2.0627726435770284
28	0x3ff76e3012ac02aa	1.4644013146754937
29	0x3ff2c1cef42a8574	1.1723165071237789
30	0x3feeef5f341f200d	0.9667202013015427
31	0x3fe3113e8fd09606	0.595855027092228
32	0x3fed69b38a972f63	0.9191529948088654
33	0x3fe344b89b5d19f0	0.6021388086745088
34	0x3feda9f95173266a	0.9269987669769766
35	0x3feeeb8ebbfd0567	0.9662545844695786
36	0x3ff24b79e664a6e6	1.1434267997487324
37	0x3feecf0ecbeb2033	0.9627756102354453
38	0x3ff0390af5d3c696	1.0139264681460296
39	0x3ff692c44b1a739e	1.4108317311977099
40	0x3fea30b899cba458	0.8184473995035075
41	0x3feec8b74dbba8e6	0.9620014684890321
42	0x3ff01fe11b325822	1.007783037411635
43	0x3fee8bbd1171a3b0	0.9545579281522034
44	0x3ff0bbd73dbfb35c	1.0458595668853468
45	0x3fd7189a217d1b86	0.3608765913999651
46	0x3feefbf52af22928	0.9682565535343075
47	0x3fc2e4f6f196f712	0.14761244579670368
48	0x3feff933b8dfdbb2	0.9991701708630585
49	0x3fefbc659873f9de	0.991747663268878
50	0x3fec5495435e8ec7	0.8853250804717953
51	0x3ff0798932164eb4	1.0296718555954785
52	0x3ff0ad08ef8e0424	1.04224484993052
53	0x3fee840c77385f3a	0.9536192253608313
54	0x3fef7bf29651d130	0.9838803230218556
55	0x3ff0bdb39419cf38	1.0463138375461778
56	0x4001db1c878d3871	2.231988009450156
57	0x3ff01104d3977fba	1.0041549935631182
58	0x3feb6889326e2430	0.8565107331243151
59	0x3feb24155d539df6	0.8481547186647151
60	0x3ff1697f148dc443	1.0882559588319658
61	0x3fef12a1b099d2db	0.9710243653522314
62	0x3feee931e81cd354	0.9659661801766597
63	0x3feef2d971955c31	0.9671447008539699
64	0x3ff1ce0fd71be62d	1.112808075208146
65	0x3feefc08eafecf3f	0.9682659711602141
66	0x3fe7e7974638bf8a	0.7470203753964466
67	0x3fffcff5421aadd0	1.9882710058399091
68	0x3ff20dec88b56907	1.1283994045430192
69	0x3ff510cc3c8fa4a5	1.3166010251682476
70	0x3fe985d354676f59	0.7975861214176617
71	0x3ff091f2e089316f	1.0356320162710195
72	0x3fedaf5eba4a4cc6	0.9276574743729717
73	0x3ff0000000000000	1.0
74	0x3ff0c3c46fe097ee	1.047794758816504
75	0x3fd2299e229196de	0.28379014373636646
76	0x3ff8a1924f8551b0	1.539446173313177
77	0x3fe12bfc3221c284	0.5366192797792597
78	0x3feefd13cd5bc17a	0.9683932314783725
79	0x3feda146c27b8e84	0.9259370611657265
80	0x3fac5f24ef6b34cb	0.05541339323608837
81	0x3ff0228b633108d4	1.0084337114972657
82	0x3ff86e16126bbc28	1.5268765182079367
83	0x3ffdf43b8a1d8111	1.8721270938040713
84	0x3feea15240cb6d0b	0.9571925416488808
85	0x3fec21d1a8a9ee08	0.8791282934393516
86	0x3ff1a183d9cb5187	1.101932383307117
87	0x3fe96d3a295c7f34	0.7945833976591303
88	0x3fe8c93b1f1927b6	0.7745643241298612
89	0x400105bc0264e46d	2.127800005630482
90	0x3ff0278ac24b3803	1.0096538152315595
91	0x3ff01ccd80c3a6f1	1.0070319204191345
92	0x3ff744715c9cd05c	1.454209672706404
93	0x3fee8f3ecb4865e4	0.9549859972350387
94	0x3ff37afe6dbc9bce	1.2175277983276263
95	0x3fee3198d6ad2cf6	0.9435543244266273
96	0x3ff2d6fef37b9ec3	1.1774892340708198
97	0x3fd0eaea69f9cbc4	0.2643381152076325
98	0x3ffa266fa025e731	1.6343837981971314
99	0x3fed189bec8523b7	0.9092540378124941

layers.3.bias f8 [100]
0	0x3f714894a96d9eb2	0.004219608984250266
1	0xbfb21fd3e3c6d828	-0.07079815207438911
2	0x3fc1a9b8769cab42	0.13799196044541345
3	0xbf85e2cc1ae47d2f	-0.010686487742133181
4	0xbfbb2fa2e54a0ddd	-0.10619562242396037
5	0xbfe1cf1e8b5c4945	-0.5565331193813924
6	0x3f9459e1936c037a	0.01987411939899484
7	0xbfb69e8a53e242c6	-0.08835663364358046
8	0x3fe24c4ac04c61f2	0.5718129878833322
9	0x3fb3b4fe69a9dc9a	0.07698049621272887
10	0x3fa1169666fa05fc	0.03337545401610595
11	0xbfc2e4b4fcf8b27b	-0.1476045832836411
12	0x3fc2015727ae7c24	0.14066590726449235
13	0xbf9433ca85e809ca	-0.01972881738948632
14	0x3fb0c0070a118ca6	0.06543010707678096
15	0x3fed41ed093d9a4e	0.9142975979310195
16	0x3f994d1ab2652f28	0.024708192003614432
17	0xbfb9a495e1ca91ee	-0.10016762506945273
18	0x3f9ca0ebb810adc7	0.027957614049382486
19	0xbf9c32895c511b1d	-0.02753653169591096
20	0xbfd2d25b2fef9018	-0.2940891235468839
21	0x3f9c0d28d8d73dc8	0.02739394973269585
22	0xbfd9320afb066e3e	-0.39367937578365175
23	0x3fb81cbf4a4a51cf	0.09418864787796298
24	0x3f9d667144b888bd	0.0287110994523878
25	0xbfb381b65c38ff20	-0.07619800330666893
26	0x3fc444c92a6fb186	0.15834917614064298
27	0x3fed64f7b02905b2	0.9185751381520986
28	0x3fe119f2f4c2dbad	0.5344176083079809
29	0xbfc3a4a7b355bcdc	-0.15346237427318143
30	0xbfd072838b09e168	-0.2569893701361452
31	0x3fd2e56f322f5889	0.29525356198190217
32	0xbfbcdeb41e98d8d5	-0.11277318713186742
33	0xbf7c7c7508fb02c3	-0.006954629104882928
34	0x3f670d124b2c6877	0.002813850145128301
35	0x3fc8c3df3b2c0b6f	0.19347753896007755
36	0xbf915a2dbe53d443	-0.016945566884676088
37	0xbf92e2a352674e60	-0.01844268026782314
38	0x3fa46fbe10d601ec	0.03991502719418691
39	0x3fdb1fb3ca9469e6	0.423809955436495
40	0xbfc323c51280a06a	-0.14952910808029013
41	0x3f8342acceeb4c2f	0.00940451628176761
42	0xbf7aea52479f8390	-0.006571122556096834
43	0xbf788447d805a834	-0.005985527648912071
44	0xbfa41cacb23288da	-0.039281269791233434
45	0xbfde1ca2c1551959	-0.47049778823965976
46	0x3fc2fc1ab0088ceb	0.14831861110096808
47	0xbfd3895a86c0d351	-0.30525839957708906
48	0x3fc0a8c9fc8efacb	0.1301510317989226
49	0xbfc58b32d1efd0e1	-0.16831050158328423
50	0xbfabfe5e5d98aa2e	-0.05467505352529077
51	0xbfa0fd22d385cb50	-0.03318127471984289
52	0x3fc075e8ed55a130	0.12859832371328528
53	0x3f9251ad9d918f27	0.017889702551101252
54	0x3fa96621c833cbfe	0.04960733002544514
55	0xbfa3fb48c947afc5	-0.03902652222663464
56	0x3ff0f248d6926390	1.0591514951431442
57	0xbfa139c797fd3a8d	-0.033643948844305084
58	0x3fb1ea51bb7abfd0	0.06998167826782198
59	0x3f9e25f8de237472	0.029441727216966425
60	0x3f861e35f49badc5	0.010799809958789272
61	0xbf93c755efbda66e	-0.019315092809313254
62	0x3fc35b14fa88e0ff	0.1512171004594691
63	0xbfa4ba5560945e87	-0.04048411182355687
64	0xbfbab5dcaec2671b	-0.10433749453150336
65	0x3fc835382f78b781	0.18912412946650295
66	0x3fc9444129b93e0f	0.19739546334538757
67	0x3ff4404c4d161356	1.2656977664166411
68	0x3f9fd3afe25fb567	0.03108095950294878
69	0x3fcc34ec5a7214be	0.22036508957186202
70	0xbfd5661552c09cf9	-0.3343556697968349
71	0x3f7138a8d58d9881	0.00420442534309562
72	0x3fb165ecdefe20d8	0.06796150631101072
73	0x3f89ad41ded75c9a	0.012537493336749517
74	0xbfd7e8ce51872a0b	-0.37358434640614807
75	0xbfb77ec6024bbf2a	-0.09177815967609307
76	0xbfe7ad0c4939c064	-0.739874022501692
77	0xbfdc8d046535e0b7	-0.4461070049651527
78	0x3fc4c303de2cee87	0.1622013888207798
79	0x3fae3dfba56fdc35	0.059066642708721785
80	0xbfcc5801a96954a4	-0.2214357449726424
81	0x3f9f111509a72751	0.030338600839775968
82	0xbfcbc1b61b6b28db	-0.21684910143660016
83	0xbfe157c691a93438	-0.5419648022594918
84	0xbf89b7c43de9a950	-0.012557538165499565
85	0xbf9edd0bb4fee375	-0.030140097543810158
86	0x3faa683f4de4fb11	0.051576593645668585
87	0x3fc01cea4c34c242	0.12588242264748045
88	0xbfa24f8ac525b151	-0.03576310783941728
89	0xbfa16989171def3c	-0.034008297035113405
90	0xbfc015d0a2814205	-0.12566574034509884
91	0xbfa722b765c8877b	-0.045186740088197085
92	0xbfe4a5618dfe6ae7	-0.6451881192509433
93	0x3f7333e9fde8a820	0.004688180952635818
94	0xbfe65249e3bafb41	-0.6975449989184669
95	0xbfb0982a07ccb29c	-0.06482184114856654
96	0xbfe0f4574c3c69de	-0.5298267830833614
97	0xbfb01d7cbf3fd91f	-0.06294994038748712
98	0xbfd833eb68f23a43	-0.37816891907360545
99	0x3fafd02c3a0721be	0.062135107120016894

layers.3.running_mean f8 [100]
0	0x0000000000000005	2.5e-323
1	0x0000000000000005	2.5e-323
2	0x0000000000000005	2.5e-323
3	0x0000000000000005	2.5e-323
4	0x0000000000000005	2.5e-323
5	0x4065c04988dbd2a5	174.00897639211794
6	0x0000000000000005	2.5e-323
7	0x406526694344c7f2	169.20034945901676
8	0x40637a8158837f62	155.82828927691577
9	0x0000000000000005	2.5e-323
10	0x0000000000000005	2.5e-323
11	0x0000000000000005	2.5e-323
12	0x0000000000000005	2.5e-323
13	0x0000000000000005	2.5e-323
14	0x0000000000000005	2.5e-323
15	0x406b82c2c1d5a382	220.08627406812963
16	0x0000000000000005	2.5e-323
17	0x0000000000000005	2.5e-323
18	0x0000000000000005	2.5e-323
19	0x0000000000000005	2.5e-323
20	0x0000000000000005	2.5e-323
21	0x0000000000000005	2.5e-323
22	0x0000000000000005	2.5e-323
23	0x0000000000000005	2.5e-323
24	0x0000000000000005	2.5e-323
25	0x0000000000000005	2.5e-323
26	0x0000000000000005	2.5e-323
27	0x40720ba9a8e22d2e	288.7289208254832
28	0x40610cfb2617ae11	136.40565781235685
29	0x406aafe7c1e0318a	213.497040689352
30	0x0000000000000005	2.5e-323
31	0x0000000000000005	2.5e-323
32	0x0000000000000005	2.5e-323
33	0x0000000000000005	2.5e-323
34	0x0000000000000005	2.5e-323
35	0x0000000000000005	2.5e-323
36	0x0000000000000005	2.5e-323
37	0x0000000000000005	2.5e-323
38	0x0000000000000005	2.5e-323
39	0x0000000000000005	2.5e-323
40	0x0000000000000005	2.5e-323
41	0x0000000000000005	2.5e-323
42	0x0000000000000005	2.5e-323
43	0x0000000000000005	2.5e-323
44	0x0000000000000005	2.5e-323
45	0x40602b3db26d8438	129.351281370067
46	0x0000000000000005	2.5e-323
47	0x0000000000000005	2.5e-323
48	0x0000000000000005	2.5e-323
49	0x0000000000000005	2.5e-323
50	0x0000000000000005	2.5e-323
51	0x0000000000000005	2.5e-323
52	0x0000000000000005	2.5e-323
53	0x0000000000000005	2.5e-323
54	0x0000000000000005	2.5e-323
55	0x0000000000000005	2.5e-323
56	0x404caab77f41367c	57.33372488674374
57	0x0000000000000005	2.5e-323
58	0x0000000000000005	2.5e-323
59	0x0000000000000005	2.5e-323
60	0x0000000000000005	2.5e-323
61	0x0000000000000005	2.5e-323
62	0x0000000000000005	2.5e-323
63	0x0000000000000005	2.5e-323
64	0x4070511177934dd9	261.06676442661916
65	0x40643da1343ec5d0	161.925928232768
66	0x406211bd932c8f56	144.55439146712405
67	0x406b0bebcba6f3cc	216.37253363235357
68	0x0000000000000005	2.5e-323
69	0x0000000000000005	2.5e-323
70	0x4053f23ba8d93e26	79.78489133086313
71	0x0000000000000005	2.5e-323
72	0x0000000000000005	2.5e-323
73	0x0000000000000000	0.0
74	0x0000000000000005	2.5e-323
75	0x3f4d4ec2e88ecbe0	0.0008943988515198696
76	0x405d692bceb44d22	117.64329879386472
77	0x406ca4e0ec7b3b54	229.15245651310636
78	0x0000000000000005	2.5e-323
79	0x0000000000000005	2.5e-323
80	0x4071a80f4af65272	282.50373359889556
81	0x0000000000000005	2.5e-323
82	0x40660d72641db836	176.42021375469784
83	0x40644856b6b03ecb	162.26058515952022
84	0x0000000000000005	2.5e-323
85	0x0000000000000005	2.5e-323
86	0x0000000000000005	2.5e-323
87	0x0000000000000005	2.5e-323
88	0x0000000000000005	2.5e-323
89	0x405c573b85cf3c8b	113.3630079768938
90	0x0000000000000005	2.5e-323
91	0x0000000000000005	2.5e-323
92	0x406d41fac0bba81e	234.06185948039723
93	0x0000000000000005	2.5e-323
94	0x4060d1ad204dca98	134.5523835677493
95	0x0000000000000005	2.5e-323
96	0x0000000000000005	2.5e-323
97	0x0000000000000005	2.5e-323
98	0x407400c9e58f3caa	320.04929119064275
99	0x0000000000000005	2.5e-323

layers.3.running_var f8 [100]
0	0x0000000000000005	2.5e-323
1	0x0000000000000005	2.5e-323
2	0x0000000000000005	2.5e-323
3	0x0000000000000005	2.5e-323
4	0x0000000000000005	2.5e-323
5	0x4077211d9d2165c2	370.069729929408
6	0x0000000000000005	2.5e-323
7	0x40678fda986920ee	188.49543400319038
8	0x4070424b2ff6d8a8	260.14335628914205
9	0x0000000000000005	2.5e-323
10	0x0000000000000005	2.5e-323
11	0x0000000000000005	2.5e-323
12	0x0000000000000005	2.5e-323
13	0x0000000000000005	2.5e-323
14	0x0000000000000005	2.5e-323
15	0x407020e074db17c4	258.0547989424051
16	0x0000000000000005	2.5e-323
17	0x0000000000000005	2.5e-323
18	0x0000000000000005	2.5e-323
19	0x0000000000000005	2.5e-323
20	0x0000000000000005	2.5e-323
21	0x0000000000000005	2.5e-323
22	0x0000000000000005	2.5e-323
23	0x0000000000000005	2.5e-323
24	0x0000000000000005	2.5e-323
25	0x0000000000000005	2.5e-323
26	0x0000000000000005	2.5e-323
27	0x40764a1bd1253411	356.63179125340054
28	0x4069bf85746d70f5	205.98504086852304
29	0x4081e17eaa29c476	572.1868479979591
30	0x0000000000000005	2.5e-323
31	0x0000000000000005	2.5e-323
32	0x0000000000000005	2.5e-323
33	0x0000000000000005	2.5e-323
34	0x0000000000000005	2.5e-323
35	0x0000000000000005	2.5e-323
36	0x0000000000000005	2.5e-323
37	0x0000000000000005	2.5e-323
38	0x0000000000000005	2.5e-323
39	0x0000000000000005	2.5e-323
40	0x0000000000000005	2.5e-323
41	0x0000000000000005	2.5e-323
42	0x0000000000000005	2.5e-323
43	0x0000000000000005	2.5e-323
44	0x0000000000000005	2.5e-323
45	0x406d1c44e76e9fa6	232.8834111366861
46	0x0000000000000005	2.5e-323
47	0x0000000000000005	2.5e-323
48	0x0000000000000005	2.5e-323
49	0x0000000000000005	2.5e-323
50	0x0000000000000005	2.5e-323
51	0x0000000000000005	2.5e-323
52	0x0000000000000005	2.5e-323
53	0x0000000000000005	2.5e-323
54	0x0000000000000005	2.5e-323
55	0x0000000000000005	2.5e-323
56	0x406a034341116f3d	208.10195973782712
57	0x0000000000000005	2.5e-323
58	0x0000000000000005	2.5e-323
59	0x0000000000000005	2.5e-323
60	0x0000000000000005	2.5e-323
61	0x0000000000000005	2.5e-323
62	0x0000000000000005	2.5e-323
63	0x0000000000000005	2.5e-323
64	0x4066fae59b487b81	183.84052814633108
65	0x4088e4537129840c	796.5407431834624
66	0x407cc743d7e5ec8f	460.4540633183869
67	0x406328f1261ee286	153.27943712265204
68	0x0000000000000005	2.5e-323
69	0x0000000000000005	2.5e-323
70	0x4057a7e4bb74d06f	94.62333570869099
71	0x0000000000000005	2.5e-323
72	0x0000000000000005	2.5e-323
73	0x0000000000000005	2.5e-323
74	0x0000000000000005	2.5e-323
75	0x3f800c1ec2b674a9	0.007835617367897578
76	0x408becdc5734863c	893.607588205668
77	0x4073784504dfdb14	311.51685035175
78	0x0000000000000005	2.5e-323
79	0x0000000000000005	2.5e-323
80	0x40908e720fb50f11	1059.6113880434461
81	0x0000000000000005	2.5e-323
82	0x407db31bf485c4df	475.19432499173666
83	0x406d1aa92b824f6f	232.83315062953213
84	0x0000000000000005	2.5e-323
85	0x0000000000000005	2.5e-323
86	0x0000000000000005	2.5e-323
87	0x0000000000000005	2.5e-323
88	0x0000000000000005	2.5e-323
89	0x40684978541fabd4	194.2959385508135
90	0x0000000000000005	2.5e-323
91	0x0000000000000005	2.5e-323
92	0x4083cf1bef43debb	633.8886399557445
93	0x0000000000000005	2.5e-323
94	0x4081a1f446dd2293	564.2442757869889
95	0x0000000000000005	2.5e-323
96	0x0000000000000005	2.5e-323
97	0x0000000000000005	2.5e-323
98	0x408094037699c5ae	530.5016910565807
99	0x0000000000000005	2.5e-323
