model_policy2_epoch-140.pt (torch, 373942 bytes, 28 tensors)

layers.0.weight f8 [128, 128]
-0.18500129711316335 -0.23099290356991856 -0.20186641057452764 0.06058500020432798 -0.17428082153411875 -0.08071901547112331 -0.015641577621255762 0.02982263682915886
0.13612283753399865 0.1297270072435708 0.05090633184644311 0.09288970005334356 -0.1880072717756362 -0.2143061037381072 -0.28742705126374657 -0.6463125931625857
-0.30402387064848135 -0.14097174201822474 0.14786848822489573 -0.17678362399029748 -0.3032781377791537 0.2154158523512703 0.41343419510953094 -0.7360371643920552
0.7017473719596269 -0.4450648728805213 -0.1575533673362983 -0.425093532164214 -0.35577384215411567 -0.24581015291617664 0.3792499290391364 0.19449921697163375
-1.8472775625357214 0.39299570531440714 -0.1841935489179441 0.399294994402747 0.3620864239018029 -0.3624385065840266 -0.534284076412305 -1.4879435077247638
-0.5168982169165017 -0.14085423124227175 -0.5273484220105316 0.13408292822269807 -0.09479585596650532 -0.5668806732079806 0.038611385075918284 -0.165615374994031
0.5631586944925506 -0.8265362864839311 -1.31990044744167 -0.4869367126979885 -0.38905258902105533 -0.040111113633021084 -0.8745204909497123 -0.4102750842536581
0.14968793455552792 0.604060573580011 0.3117905909634721 0.07167540969011273 -0.49765002559001476 -0.08826761589688634 -0.5272426499898263 0.7324835136927392
0.32102387551076006 -0.10225931380188312 0.06874282867042855 -0.018663095160717333 0.4388172399849008 0.39748064252456494 0.3992250375830793 0.5279762119142409
0.03854892551802781 0.004489634547225324 0.08063747830468782 0.05134715898952361 0.35945078232329913 0.10385414137181748 0.11686985057577912 0.21590514430015578
0.08237094179417406 -0.10087964578081157 0.04390347310927493 0.5443463341703114 0.37165415945517766 0.02336748482626868 0.24316391568994725 0.811810012527129
0.10058321686914815 0.4305220218653424 0.14958899879678275 0.3138536775081298 0.12408040131120797 0.12090583640022837 0.08557844959902032 0.6805216766492376
1.501416627659138 0.8733049933929367 0.09614423190563522 0.15769958513705234 0.12364200717984718 0.29981764959209894 0.9167711150068969 0.8448685377772669
-0.18655534932308993 -0.19504519325510836 1.186939858436445 -0.19845670349395658 -0.641969448175879 0.548626534409593 0.666234620210369 0.8525449076342198
-0.5445364651287268 1.0912321087424737 1.4808548205637704 0.41308857693279083 0.4911885690819301 -0.3466048286914916 0.6829926838544262 0.2377613083523866
-0.8867640887167897 -0.03828662299388404 0.05195800331834766 0.24276046505081347 0.6270468629319011 -0.17492224596785735 0.3897388785400941 -0.25646201079276104
-0.48945513057062934 -0.31138208542255263 -0.5321302750586496 -0.5231395309184723 -0.538376599274635 -0.5393376066682288 -0.2379622180994126 -0.427726236688502
-0.6454262985781575 -0.4139960515835146 -0.6248140857936263 -0.5397789575824019 -0.45261688995348376 -0.31576807636165843 -0.3686262334562962 -0.467652628016102
-0.6650501961456203 -0.4254437477735069 -0.31829496533053686 -0.4666990386177458 -0.5998512861921574 -0.3967614720835906 -0.39162704665336634 -0.6125094248730192
-0.40975549491216945 -0.5390337176396671 -0.47131116910824816 -0.32615476920043385 -0.4144213354460607 -0.46173112075657996 -0.5375593552457921 -0.4608660417223644
-0.4935610020550563 -0.5660447085357682 -0.7195540084494141 -0.47347188264811774 -0.6120410283928096 -0.6695886844067894 -0.5495133107072374 -0.5127786337785812
-0.24521614184592716 -0.41454153313512726 -0.1115143323820324 -0.4794885082697208 -0.30663334341090354 -0.3511247294388533 -0.10407556792897431 -0.5572634324742457
0.016079741899274438 -0.49817690229763273 -0.6578030642435955 -0.5070422919370646 -0.6269834047049525 -0.22603924843888454 -0.39951467056681006 -0.40963136779747455
0.12442499027728571 0.1946616448579303 -0.4928747745359568 -0.3717885020292684 -0.13787469501698604 -0.5213640158413718 -0.5032414778576854 -0.28227833527621954
0.45505743143077887 0.38848131951268056 0.5653454833895664 0.6233800521828987 0.6941189429802734 0.6150791121275481 0.27330689805266256 0.48949854240839635
0.4670516819389235 0.7239767190078872 0.7041308952481578 0.6289486696139918 0.618516547472528 0.5496047707427096 0.5236437274419141 0.49037904671287014
0.5062440102358174 0.4259910908474549 0.42682074084276034 0.5498129306679829 0.5803648468049409 0.5588236783058861 0.44828726614974057 0.6779097990551298
0.5088870179643926 0.4443001284480935 0.49993805098386773 0.39918096547271575 0.6482519782050776 0.5506239206826081 0.5202545280097287 0.5571486473929198
0.8301496572344049 0.6103571651412756 0.5751932172944785 0.578880714110379 0.603957065759837 0.6511995820323923 0.45430792482893323 0.7384854136248918
0.14286185893111755 0.4040895726646212 0.4821201657360717 0.47977551328345897 0.32758601294604206 0.4759635717643817 0.25751346092621996 0.7560936436131558
0.045617532403224345 0.499860309307457 0.6530964067997027 0.5990513392524599 0.48260539865446267 0.23964351402436143 0.5836283417252736 0.33695920197677476
0.21970580598789438 0.17544410911314848 0.3806647156348862 0.4235349259745386 0.2716446668754 0.5481956185630665 0.5252227297166011 0.23059787597944625
00000000: 67c8 685c 1fae c7bf d16e 38eb 2c91 cdbf
00000010: 720c ca2f c2d6 c9bf 9df0 0245 ff04 af3f
00000020: 098f 677e d54e c6bf 8421 9d5b 00aa b4bf
00000030: 8953 5d81 5804 90bf 5e67 7247 d389 9e3f
00000040: 573f b91f 796c c13f 9971 c202 e59a c03f
00000050: 002d e10c 6510 aa3f b346 dd8f 9ec7 b73f
00000060: 96e0 d74d 9f10 c8bf 94b5 71e5 616e cbbf
00000070: e676 4a6e 3465 d2bf 500a 54bf 97ae e4bf
00000080: 32de 6889 2075 d3bf 3570 d0ae 5c0b c2bf
00000090: 3877 84c8 5aed c23f 2ddb c085 d8a0 c6bf
000000a0: 9a9b d6b4 e868 d3bf f6bf 7124 bf92 cb3f
000000b0: 02c9 c2b2 b475 da3f e18a b6cf 9d8d e7bf
000000c0: 81db 93e7 b674 e63f f4b1 6760 f17b dcbf
000000d0: ffc2 0a70 b52a c4bf 29bb 9880 bb34 dbbf
000000e0: 94bf 34a6 ffc4 d6bf ce5d e603 b576 cfbf
000000f0: 37f0 8e7e a145 d83f b8d1 feaf 59e5 c83f
00000100: b99b dbea 728e fdbf 25ce 7275 d726 d93f
00000110: b24d 5e7a a793 c7bf afa4 9a97 0c8e d93f
00000120: 2cf7 3e89 6c2c d73f f5b9 2547 3132 d7bf
00000130: 7ddc 5eeb da18 e1bf fb92 ffd9 9dce f7bf
00000140: fe8b 2021 6e8a e0bf e629 58ee 8207 c2bf
00000150: f23c 44cc 09e0 e0bf 408e d51f a129 c13f
00000160: c926 2c8d 8a44 b8bf 2b35 05f0 e223 e2bf
00000170: 8a04 4f18 dfc4 a33f b835 a875 e232 c5bf
00000180: c4b6 e961 6505 e23f 13fc ec39 fc72 eabf
00000190: c8cd 7bee 4f1e f5bf 6d9d 109a f829 dfbf
000001a0: 7e40 91d4 3ce6 d8bf 2c1a 85a2 7189 a4bf
000001b0: b7f2 8965 12fc ebbf 36eb 4e6d f241 dabf
000001c0: b6c9 c267 f928 c33f 6388 0ad7 7654 e33f
000001d0: 3fdf d885 60f4 d33f 35e3 8bd4 5159 b23f
000001e0: b1cf 307e 7fd9 dfbf 36b1 92db b498 b6bf
000001f0: dd67 58fa 2bdf e0bf 686c 0544 8170 e73f
00000200: ee72 a3b9 a78b d43f b790 7d98 aa2d babf
00000210: 7e59 f948 2199 b13f acfe 6d1d 6b1c 93bf
00000220: 13fe a9e7 9415 dc3f a0e8 1ba6 5270 d93f
00000230: 017a 0a2c e78c d93f ab9a 675e 2ee5 e03f
00000240: 62af ca4c afbc a33f ad39 d218 b963 723f
00000250: 088a 2664 a8a4 b43f 057d 34c1 2c4a aa3f
00000260: 6d69 a6da 3d01 d73f 8001 bf5c 2f96 ba3f
00000270: 4683 1cba 2eeb bd3f 9656 e79e c7a2 cb3f
00000280: f28d 2515 4316 b53f 2aed 759b 3fd3 b9bf
00000290: 25cc 5e1a 847a a63f ecaf de00 496b e13f
000002a0: 2412 1287 2ec9 d73f 5672 795c a5ed 973f
000002b0: e951 bac4 fe1f cf3f e0d1 cbfd 58fa e93f
000002c0: 56be fa5a d2bf b93f f2a4 073d ac8d db3f
000002d0: 6337 d678 bb25 c33f a51c 28bc 2d16 d43f
000002e0: 1dc9 b4b1 bbc3 bf3f aa08 3c55 aff3 be3f
000002f0: 4b2a 4522 78e8 b53f 97ae 2d65 d5c6 e53f
00000300: 3977 1771 cd05 f83f 0ecc 4150 1df2 eb3f
00000310: 95d6 bb8b e89c b83f f6d1 6000 802f c43f
00000320: 3fce 3fa9 00a7 bf3f ebbe f05d 3630 d33f
00000330: 0ee8 9b60 3056 ed3f c686 65be 2909 eb3f
00000340: 8446 1eb2 0be1 c7bf 83e7 22ab 3df7 c8bf
00000350: bbda 24a6 b4fd f23f 7fd9 967d 0767 c9bf
00000360: 474a 1e83 038b e4bf 8339 e03b 598e e13f
00000370: 4c87 2844 cb51 e53f 4c21 1542 0c48 eb3f
00000380: 6aa2 a6bc d76c e1bf fd4d b6cc af75 f13f
00000390: 1f20 07d3 94b1 f73f d5c2 1112 0b70 da3f
000003a0: 2e0f 182e a26f df3f a166 f704 c62e d6bf
000003b0: 22fc 1179 13db e53f 8f57 d069 f66e ce3f
000003c0: 8fc9 0915 5f60 ecbf 5a1a 44e3 4d9a a3bf
000003d0: 3118 094a 3d9a aa3f dfd6 1361 c612 cf3f
000003e0: d942 2b95 c410 e43f 252d e326 da63 c6bf
000003f0: 8bcd 5356 7bf1 d83f 1b5d 41a3 df69 d0bf
00000400: bf41 aa9c 3b53 dfbf 20cf 5c20 afed d3bf
00000410: 0cd4 1212 3607 e1bf 9044 111d 8fbd e0bf
00000420: c21e da8f 613a e1bf 1593 c4f0 4042 e1bf
00000430: 1ad6 35c4 8b75 cebf 29f8 8ddd dd5f dbbf
00000440: 79e3 8b0d 55a7 e4bf 545b 8e4b e97e dabf
00000450: 590a 121c 7afe e3bf 1855 3c85 de45 e1bf
00000460: 99ea fdd4 acf7 dcbf 9d06 464e 8b35 d4bf
00000470: f41d 497c 9297 d7bf 59ed cd49 05ee ddbf
00000480: 369a 5459 1748 e5bf 8464 be69 783a dbbf
00000490: fbde a4d8 f15e d4bf e305 fca4 65de ddbf
000004a0: 5215 1553 fb31 e3bf 905b ba3a 8a64 d9bf
000004b0: d2bc 66e3 6a10 d9bf cc48 8a5d ad99 e3bf
000004c0: 8e42 801c 6f39 dabf 7484 96a3 c33f e1bf
000004d0: 0dce 6352 f629 debf 609e c940 b8df d4bf
000004e0: b959 a010 e185 dabf dc79 ccaf 008d ddbf
000004f0: 9310 4ead af33 e1bf af35 4248 d47e ddbf
00000500: c113 9ae2 8096 dfbf ed84 e7ca 091d e2bf
00000510: c0de bf20 9606 e7bf 5926 e302 5d4d debf
00000520: 013c 1811 d795 e3bf fb8f a93f 456d e5bf
00000530: 6489 46f0 9c95 e1bf 8554 c5bc ae68 e0bf
00000540: a2fb d616 3e63 cfbf 658a e935 d987 dabf
00000550: ecb8 9d0a 348c bcbf b6e1 7491 f0af debf
00000560: aa07 7475 e19f d3bf 286e 70db d378 d6bf
00000570: 574c 9148 b2a4 babf 9179 371f 1ad5 e1bf
00000580: 878e 5736 3577 903f 3b6b bf5f 21e2 dfbf
00000590: 8650 0403 b90c e5bf dddf b1c1 b039 e0bf
000005a0: caf5 4a80 3f10 e4bf 9b26 d4a5 daee ccbf
000005b0: 91d3 16fb a591 d9bf 14c7 067c 6637 dabf
000005c0: 98ca 0bf0 50da bf3f f6a5 393b acea c83f
000005d0: 91f0 69a3 428b dfbf 80a6 4f00 62cb d7bf
000005e0: 799f 05c5 e0a5 c1bf 8732 ab96 03af e0bf
000005f0: 8376 2cdf 8d1a e0bf 295d 9826 d910 d2bf
00000600: 5b01 7334 a91f dd3f 2b7d 9ac0 e0dc d83f
00000610: 182f 4369 4f17 e23f 9e56 23b9 baf2 e33f
00000620: b44c f4ed 3836 e63f 124c e163 baae e33f
00000630: b512 3a37 dc7d d13f db5b c5b1 f153 df3f
00000640: cd0b debc 2ce4 dd3f 4689 6639 d12a e73f
00000650: 9235 e683 3d88 e63f 8d5a dbf5 5820 e43f
00000660: 26bd ed36 e3ca e33f b418 82be 5c96 e13f
00000670: 3ccb 837d b0c1 e03f b4a0 11cc 5e62 df3f
00000680: 7a47 78a3 2633 e03f 94f0 e422 7043 db3f
00000690: 3a25 cbf0 0751 db3f 8061 8449 1198 e13f
000006a0: 06cf 984c 5992 e23f 0dbc d131 e2e1 e13f
000006b0: 78e3 d412 bdb0 dc3f 058d 12e4 6fb1 e53f
000006c0: 5383 706d cd48 e03f 26c3 52ce 696f dc3f
000006d0: bb1b c02a fcfe df3f 7606 f951 2e8c d93f
000006e0: dda8 beee 7abe e43f 6744 770e b69e e13f
000006f0: f7b9 ecd2 eca5 e03f f305 7266 29d4 e13f
00000700: a66f 9303 9690 ea3f 5227 e5bf 0b88 e33f
00000710: 5425 259b fb67 e23f 5b74 ecd8 3086 e23f
00000720: 480d b4c4 9d53 e33f 91ef 7f81 a0d6 e43f
00000730: 9c0c dd8b 6113 dd3f 33f1 8229 aca1 e73f
00000740: ab3a fa21 4c49 c23f 4cf2 cf82 9adc d93f
00000750: 9906 258a 0edb de3f 2957 be5a a4b4 de3f
00000760: f6bc 0e53 2bf7 d43f ff2e b4e9 2f76 de3f
00000770: 0c4e 3dbd 197b d03f 0206 014c eb31 e83f
00000780: 5696 9763 2e5b a73f 71d0 4218 b6fd df3f
00000790: eedf 8a6f 2ae6 e43f aedb d6b6 6d2b e33f
000007a0: 6f03 06c1 01e3 de3f 7371 b77f a3ac ce3f
000007b0: 0552 1758 15ad e23f 7ae5 2454 bd90 d53f
000007c0: 3dcb bae1 511f cc3f a15a 75db f374 c63f
000007d0: 8526 198a cf5c d83f 2b90 f13b 321b db3f
000007e0: c835 1750 a062 d13f 5a3e b189 d18a e13f
000007f0: eff4 e7e5 9fce e03f b0ec ed2f 3b84 cd3f

layers.0.bias f8 [128]
0.21048639696133858 0.5473774684260335 0.17771904114468093 -0.11085924922139613 0.13211942728172632 -0.2062385424627725 -0.7153481636180843 -0.26858554851091765
-0.6541501603338571 -0.24031903408333602 -0.48457520613652155 0.5966233559864367 0.26451867178708194 -0.22954378924386426 -0.1708479220433553 0.028920137207441295
-0.6417951759028411 -0.20761244904652928 0.12839530372205393 0.3224500625778401 0.2295032692670469 0.7201727708385771 -0.12884957225830715 -0.3638932549753756
-0.2649290157075389 0.17933916827815344 0.1809800469882369 -0.10149440163543284 0.519845818804841 -0.4791696853589708 0.05957517033973365 -0.4786606612964854
0.12976719810396864 0.32177872188465906 0.6916212540987093 -0.05738843881830251 -0.3726368283183984 0.41085029195114403 0.24253209478825036 0.6966281512715405
0.030165653866927777 -0.09862060684520363 0.0502899071818833 0.013698036280801221 -0.20765490443550033 -0.0183601191921568 0.6588004781877012 0.12996318535494766
0.03398765743094769 -0.705891673650706 -0.3303240616206031 -0.21672782920846964 0.07444943663745453 -0.320780345462434 -0.042156947518882576 -0.5123087167388045
-0.3805475339088461 0.3973676738259447 0.6640161285480671 -0.07607132130322292 0.33220729154980744 0.1644786577784471 -0.16318756658585318 0.5235102612311381
-0.36832678583900647 0.732278527101029 -0.07098245838086567 0.4326531810127679 -0.22759889964642704 0.25130595956101226 -0.3399480094245131 -0.028305064451052426
-0.2559489782462226 -0.4346791289855515 -0.490768537566252 -0.2550388863919342 0.31154947793068033 0.11447673563959751 0.42710800850045205 -0.508443944633014
0.36916842002683486 -0.6172342075787185 -0.38256178007785463 0.28427563816836304 0.2507653179446251 0.8415609608015852 -0.00035221643572783286 0.2877353660394838
0.12499069233357907 0.020989636853905726 0.06418804490559914 -0.22191994887896896 -0.611289156735584 0.3255754843068394 -0.43441687948937935 -0.35963528358532976
-0.39643968774901184 0.4012081530910858 0.20326705406020465 -0.7284556272872766 0.6369443307648333 -0.29092393960483326 0.3143995747908512 0.09413732281614133
-0.5936236797397207 0.43530524801367343 -0.14418042434947645 -0.22392183297794854 -0.649802690457204 0.16773648981073067 0.2162581293673793 -0.4023905255906231
0.21102982539512144 0.20567322233193186 -0.6425066685136519 -0.12113243064738073 0.4292920512352536 0.017624841911031214 0.0457992623868694 0.04595765480290907
0.4129427268597398 0.1267149495591454 -0.3722845889789366 -0.38172900552596994 -0.4640032766396212 -0.24385528077694762 0.31870717866911735 -0.01620189444533961
00000000: 56d5 99df 37f1 ca3f 74a0 aec0 1d84 e13f
00000010: 97e3 cb5e 7fbf c63f 4971 dd91 4561 bcbf
00000020: 90ae ab15 4ae9 c03f 44b2 8649 0666 cabf
00000030: 5ac9 ffd4 21e4 e6bf 5416 c270 8130 d1bf
00000040: 8ad3 2951 ccee e4bf 2d43 ff2b c6c2 cebf
00000050: afc3 b3b9 4703 dfbf 76ba 3fdd 8917 e33f
00000060: a370 20b9 dfed d03f 36b2 e6dd b061 cdbf
00000070: b404 e23e 58de c5bf 0fd6 018e 3d9d 9d3f
00000080: f276 6709 9689 e4bf 0bdb 7273 0b93 cabf
00000090: 5e1d 39df 416f c03f c75b 5796 05a3 d43f
000000a0: b8dc e9f5 5c60 cd3f a315 47c4 a70b e73f
000000b0: 7ffc 798d 247e c0bf aaab 56ef 064a d7bf
000000c0: 226c 8ed4 98f4 d0bf d4c0 52fb 95f4 c63f
000000d0: b481 85ab 5a2a c73f 6d53 c07f 89fb b9bf
000000e0: 1155 d7b2 93a2 e03f 2b7d f653 b7aa debf
000000f0: c98b 8600 a380 ae3f db9b 8953 60a2 debf
00000100: d49c f927 369c c03f 44c5 c2c7 0598 d43f
00000110: 9d51 72e5 c221 e63f 3645 c977 0462 adbf
00000120: 7a69 ba23 48d9 d7bf 9fdc de05 5f4b da3f
00000130: b146 acab 4a0b cf3f 07e5 e51e c74a e63f
00000140: d39c 48c3 bee3 9e3f 74a0 1c39 333f b9bf
00000150: 4f83 5445 99bf a93f f581 c34e b70d 8c3f
00000160: fac5 b397 6f94 cabf d084 ecbd fecc 92bf
00000170: 87f8 8cbd e414 e53f 4849 6437 a2a2 c03f
00000180: 8363 448a d466 a13f cf26 9b22 aa96 e6bf
00000190: 2483 6f88 0724 d5bf 83ae 4acd bcbd cbbf
000001a0: f940 9047 1e0f b33f b37c 3d49 aa87 d4bf
000001b0: a41b c96d 9895 a5bf 222a fb3f d564 e0bf
000001c0: 8290 2d0b e45a d8bf 557b e4d2 786e d93f
000001d0: e52c 84c0 9e3f e53f 802d 29fd 6879 b3bf
000001e0: 0abf 2c5f e242 d53f 2e32 06fc a20d c53f
000001f0: d3ce cc86 54e3 c4bf 0176 6397 98c0 e03f
00000200: 48d6 da82 aa92 d7bf 74c8 ae60 d36e e73f
00000210: 46e3 5509 e82b b2bf 0574 bdf7 96b0 db3f
00000220: 7e22 4bf3 f521 cdbf 3faf 6697 6515 d03f
00000230: ac63 b44b b5c1 d5bf 6586 83b8 00fc 9cbf
00000240: edc6 c0d2 7761 d0bf 16ca cf68 c8d1 dbbf
00000250: df2d b070 c068 dfbf 55be 109f 8e52 d0bf
00000260: d214 b338 6df0 d33f a293 b9eb 584e bd3f
00000270: da9f 17d4 bc55 db3f 7689 413c 2c45 e0bf
00000280: c1cc ae94 74a0 d73f 00bd f0f3 61c0 e3bf
00000290: 4f92 8867 e47b d8bf b7e3 3e72 9231 d23f
000002a0: e6c3 e2f9 890c d03f ef75 8740 11ee ea3f
000002b0: 1e9a 9312 3615 37bf f2b2 c298 416a d23f
000002c0: f08a e0d7 63ff bf3f f7a8 5eaf 4e7e 953f
000002d0: 0fea a9b1 a06e b03f e1f0 6175 df67 ccbf
000002e0: 2285 1247 ae8f e3bf 0b8b 5e8e 3ad6 d43f
000002f0: 3a2f 8f74 7ccd dbbf b725 5fb5 4304 d7bf
00000300: 36fb 6d91 445f d9bf ac8b 1af6 64ad d93f
00000310: e17b c5a2 a704 ca3f 1027 f92c 824f e7bf
00000320: fa3d c013 d961 e43f af7a 8e71 7f9e d2bf
00000330: bf97 e664 1f1f d43f e30c d432 6219 b83f
00000340: fa9f 5316 f7fe e2bf c4bc ff8a 0adc db3f
00000350: b1f6 a60f 8174 c2bf bc15 c07a 78a9 ccbf
00000360: 63ba 0b03 2fcb e4bf 4d9d 0aa9 6378 c53f
00000370: 8f42 90ac 58ae cb3f 5172 e830 c4c0 d9bf
00000380: cebc 467b 0603 cb3f 0c0f ca09 8053 ca3f
00000390: 2b4c 1725 6a8f e4bf a590 1df4 8802 bfbf
000003a0: 303e 1f5e 8579 db3f 0592 6b1e 3f0c 923f
000003b0: 93da 433c 0073 a73f 663a c200 c387 a73f
000003c0: 03f4 be54 a76d da3f 33aa 220a 3238 c03f
000003d0: 9509 9ebd 82d3 d7bf 11cb aa7e 3f6e d8bf
000003e0: 5ddb 99cc 3ab2 ddbf e86a f25b a636 cfbf
000003f0: 2c98 58cb b265 d43f e599 1abb 3a97 90bf

layers.1.weight f8 [100, 128]
-0.5325342135952058 0.012950006306435335 -0.26237449046276545 0.03546010109198693 -0.3420230536828823 -0.2804448508090952 0.24225360677389712 0.1374046699098799
0.2375130007452462 -0.18346327069544094 -0.227764561032798 -0.20418366709163077 -0.1229428661802805 0.2555577117661313 0.10199612236755529 0.1926512661630786
0.2834890037687154 -0.1932724749937864 0.061691325522143514 0.16486197928140928 0.1554392898740491 0.061068522219060825 0.11461948040929416 0.17645574436781045
-0.4654723343568781 -0.25309543912666105 -0.06107555049036456 0.35886252078883385 0.22728573339412386 0.014805611101916132 0.5202240559614164 0.2666410462797099
0.13125394912923177 -0.0092119061088018 -0.18727756757364564 -0.027434970386123338 0.3031884067873349 -0.032892556260543625 0.4088271451188288 -0.17708174377580263
-0.0025267198813490764 -0.48020616802120364 -0.1315843599998188 -0.11344289790629065 0.014175676061815193 -0.07601644542377245 -0.15354093317008374 -0.6736233754162333
-0.12853480802868167 0.11583944703210666 0.060620461916537756 0.5000701798659479 0.17658779398975866 0.18825257235791573 -0.1346854310044332 0.36482041948345617
0.2839602512586937 0.005557327482894659 -0.043087154717219925 0.010013968242751326 0.2975674151133614 -0.4958725973734376 -0.4956974632739103 -0.14644554771193283
0.37777360746159344 0.019431007651970665 0.12889305818119542 -0.12379641283449942 0.3481188355950509 0.09477215047517293 0.02266930187455884 0.24213735779207154
0.0682031674402053 0.039001133440203006 0.12658466300074406 0.10465864182313916 0.10608480515522528 0.3866276069089324 0.15604417916075544 0.03501177370802656
0.0027011030331636674 -0.030022952574007465 -0.3912990599875803 -0.01898323622234776 -0.19411823995021227 0.1418362017621452 -0.09047965105018796 0.5989632010224898
0.9958011313825427 0.1146595467450291 -0.11254753893274413 0.1206484327193421 -0.0862573627184057 -0.048362516403305106 -0.485142739037371 -0.07405109309603844
-0.18763898828455466 0.2690831322894935 -0.10352490177225786 -0.017532527624670877 0.2780808105763432 0.31351734907763784 -0.16040299940994482 -0.15293893520771265
0.20108621475658076 -0.20757581862366428 -0.2974048880473578 -0.5520398817537739 0.0525432506222879 -0.20005052503159118 0.7943966648511788 0.06251371523870305
-0.24287382699894544 -0.11999333147233604 0.4225499560807026 -0.2665569687487686 0.20021355842911176 -0.23895039491186731 -0.030530174490194514 1.1243020570690458
0.14951922824536412 -0.34053318100080054 -0.16873185487215706 0.08795358046026973 0.37302482006448484 -0.07824670780180976 0.3691764761025583 0.23976649698742064
0.04272990270761411 -0.06436923281856044 0.024868748350489953 -0.04158479820384117 -0.0519659998339788 0.09619043770771947 0.003223868990939694 0.014029389701667613
-0.00044121916460560103 -0.00013369699114040216 0.0831347822303385 -0.06862718214031603 -0.08435821611322622 -0.0588212600889607 -0.015855847144270564 0.02748238710838922
0.09649908104638055 0.08918308996274675 -0.03719222559162196 -0.03144970858457155 -0.1071110657893532 -0.01936346825466211 0.024844882963291057 0.06849775422544944
-0.005861647284369731 0.0028988295328510514 0.031694631872982645 -0.0882692765944078 0.054993255667592805 -0.09567016000082151 -0.07976113378824956 -0.06366860671875277
0.09500631808876579 0.05227810185622955 0.050799769704489024 0.08147306503059593 -0.04448364730854195 0.0037746536103261913 0.0253117117330372 0.036163034928597744
-0.001822637354757675 0.0007912581687911531 -0.010419316834138116 0.05019722563050615 -0.016452147120494084 -0.018254712633988257 0.040143432399591665 0.09585948330180509
0.015352714051695195 -0.026009098530486354 0.05029356455798891 -0.006957598029647354 -0.03202364025648109 -0.0016658873947324618 -0.03321679396375183 0.04349771117408286
0.11090594146329343 -0.023326515226658524 -0.050820951101222964 0.0520402307744654 -0.02485415958205282 0.01839993639082481 -0.01890266556751088 -0.06259877642679532
-0.06958652934250674 0.06079702132429132 -0.0002906669636020903 0.02737558566251079 -0.008941715148435267 0.059164045431796354 -0.05157640718931165 0.06616124845366855
-0.028568852950409413 0.06963957325982273 -0.03245531760774723 0.04097050061586918 -0.0752261884554326 0.027479474950143308 -0.009308858505887418 -0.05117909538678956
-0.026036159799332565 0.07082176985092173 0.06389737621456767 -0.08310435469272139 -0.03639499950048305 -0.085542506938087 -0.004975147971045498 -0.046184596811559155
-0.022459728345391627 0.03941552210579837 -0.0007667133218123312 -0.04092150005792595 0.03477745894693275 0.017053376799490122 0.11025023886465168 -0.017873131710983366
0.08402845101281352 0.04186137452175062 0.09074029449686911 0.02488985310515579 0.019265641268104372 -0.004607470646508968 -0.02628264737310549 -0.00033925164018509
0.10144171799898855 0.003778138059664838 -0.11366961406507406 0.08231732352919241 0.07482578853507495 0.09214056987586892 -0.0462937295966414 0.016100921033251874
-0.0484229011537467 0.05793769706573573 -0.04659769548648175 0.001597220951138301 0.05912658793225778 -0.06834019685287979 -0.08271545142293275 0.07274846807942614
0.045529467566171475 0.04228912923988041 0.03355925464146109 -0.02313857496592791 -0.08972300719726753 -0.07786102142578034 0.09963485208314644 0.03765641607325226
00000000: 428f ec30 850a e1bf e095 8d6c 8885 8a3f
00000010: 49e7 f55f beca d0bf 0f81 018d d327 a23f
00000020: 30f2 82a9 b4e3 d5bf 5ea0 a3f5 cef2 d1bf
00000030: 8e49 378b 2a02 cf3f 6951 cae9 7996 c13f
00000040: 19af 4975 d366 ce3f 02ba d375 b97b c7bf
00000050: cd6d 699e 6327 cdbf 8e98 44be b022 cabf
00000060: c053 8505 2f79 bfbf 16ac 91bb 0e5b d03f
00000070: d830 e3f9 6a1c ba3f 7809 daf3 cba8 c83f
00000080: 8f95 fd0f af24 d23f 6f5b a807 27bd c8bf
00000090: b005 2163 0196 af3f aa09 af84 321a c53f
000000a0: 70e1 4245 6fe5 c33f a6e8 7d93 5f44 af3f
000000b0: 91a9 d7c7 b357 bd3f 7523 a011 1a96 c63f
000000c0: 3d5b 5079 4cca ddbf 8b35 7436 b732 d0bf
000000d0: b8f3 e167 4b45 afbf 1415 a381 9af7 d63f
000000e0: b137 e3eb b217 cd3f fc16 d77b 6752 8e3f
000000f0: d64b 5eeb aca5 e03f 93b9 629b a510 d13f
00000100: 128e 7ded edcc c03f e4dd c41b b1dd 82bf
00000110: 1b6a 001a b6f8 c7bf 6aee 4cb2 e917 9cbf
00000120: 7f63 eb58 7067 d33f eb7c d70a 4bd7 a0bf
00000130: 9427 8054 392a da3f 332c 1e55 9daa c6bf
00000140: a6a2 3568 eab2 64bf 6a44 bfa6 b2bb debf
00000150: c9a1 6e9d c1d7 c0bf 7d92 7800 980a bdbf
00000160: e269 ac08 2308 8d3f 34a3 0d53 d075 b3bf
00000170: db0a 48b3 3aa7 c3bf b87b e79b 528e e5bf
00000180: e8be 701e d473 c0bf 7ef1 966c a7a7 bd3f
00000190: 59c5 cc2a a509 af3f a854 872d 9300 e03f
000001a0: b886 07c8 6d9a c63f b522 d508 a918 c83f
000001b0: c0b2 b448 5f3d c1bf 650b a6be 3759 d73f
000001c0: 3548 219e 672c d23f 34d4 acbc 47c3 763f
000001d0: d2bb c600 850f a6bf 6dad d810 3482 843f
000001e0: e018 1133 580b d33f 36e5 2c6b 60bc dfbf
000001f0: ca2e 5eda 81b9 dfbf c7a5 084b babe c2bf
00000200: 21ba 555a 712d d83f 16fc 92d9 b8e5 933f
00000210: 9bea c856 917f c03f 7b7d 7c28 1fb1 bfbf
00000220: 6926 8039 9447 d63f 16ca dcd6 fc42 b83f
00000230: 1f91 b218 9f36 973f 8fab 6d60 5bfe ce3f
00000240: c2a8 a345 c375 b13f a8e4 43e1 f4f7 a33f
00000250: 56b6 e11d ed33 c03f fcc8 dfa3 e8ca ba3f
00000260: 8485 beb0 5f28 bb3f 1ae5 d9b7 81be d83f
00000270: 8901 1d73 41f9 c33f 1113 1a2e 10ed a13f
00000280: 6b1a 19a6 9f20 663f 8627 bd3d 56be 9ebf
00000290: 708a 6636 0b0b d9bf de28 fd6a 5770 93bf
000002a0: c455 12d2 ddd8 c8bf dd87 fa4b b027 c23f
000002b0: f0cb 36a6 ac29 b7bf 29c5 fcdf b42a e33f
000002c0: 4373 9355 9add ef3f 70af 71fb 535a bd3f
000002d0: ce1f f65e eacf bcbf f7dd d7d0 d0e2 be3f
000002e0: da2d ea67 f614 b6bf 0ce2 9bc4 f8c2 a8bf
000002f0: f7ab 8321 940c dfbf 0a9e 142f 03f5 b2bf
00000300: 0a7f 11eb 8d04 c8bf e3ab 4575 a838 d13f
00000310: 3bf7 6ea3 9b80 babf ac84 0e03 0cf4 91bf
00000320: 2384 c474 13cc d13f ae17 4112 ab10 d43f
00000330: cbb0 52e2 1588 c4bf b947 80c6 8093 c3bf
00000340: 4529 076e 31bd c93f a1eb 362c d891 cabf
00000350: 535f f582 ae08 d3bf 9a0b c78a 4faa e1bf
00000360: 4cb5 18ee f2e6 aa3f d176 476f 419b c9bf
00000370: 0bcb f28d b26b e93f 866e 801a e600 b03f
00000380: 08e6 0154 7d16 cfbf d069 690a e2b7 bebf
00000390: 1fbe 92f8 0e0b db3f adff d2f5 440f d1bf
000003a0: e69b d50e 99a0 c93f f4a1 c131 ed95 cebf
000003b0: 0fff e753 4d43 9fbf 45fe 5e27 24fd f13f
000003c0: 90ef b731 7223 c33f 7c7b e6ae 4bcb d5bf
000003d0: 1913 3c63 0199 c5bf 3b99 a437 2084 b63f
000003e0: e17c b17e a3df d73f e847 07eb f907 b4bf
000003f0: 6a08 d45e 96a0 d73f e664 9e27 abb0 ce3f
00000400: 8f84 619d b1e0 a53f 1807 d385 807a b0bf
00000410: 4c65 6e73 3177 993f 0caf 9748 9a4a a5bf
00000420: 46ee 949b 499b aabf 2580 24c0 ef9f b83f
00000430: 9bde 3e7c f168 6a3f deac 9ccf 70bb 8c3f
00000440: 1aa8 e1e1 6dea 3cbf 180f b768 2086 21bf
00000450: fde1 d632 5248 b53f 67c7 e80e 8d91 b1bf
00000460: d6ee 5a03 8098 b5bf 4e7f c8f8 d11d aebf
00000470: 1d75 bde3 833c 90bf 5bdc 62c7 5724 9c3f
00000480: ac31 30ed 29b4 b83f 7b08 bff6 b3d4 b63f
00000490: 83b6 2901 dc0a a3bf 64ce ad1b 2d1a a0bf
000004a0: bcdf 9a7c a16b bbbf 2d4a 905b 04d4 93bf
000004b0: 4c7d 33df ef70 993f 9f6c 3f9e 1189 b13f
000004c0: cd60 31f6 6102 78bf 2bed 4941 49bf 673f
000004d0: 36d9 b45e 473a a03f 63ed 36b8 d098 b6bf
000004e0: ac8d 2f75 1328 ac3f f817 68f0 d67d b8bf
000004f0: 10c7 1cc5 396b b4bf da90 a3f7 954c b0bf
00000500: 87c8 1a85 5552 b83f 08f7 8903 32c4 aa3f
00000510: 79db 0c6b 6d02 aa3f c0b0 cf35 6bdb b43f
00000520: c341 cb84 8fc6 a6bf 772b ecb9 05ec 6e3f
00000530: f08d 6538 50eb 993f 6153 af18 f683 a23f
00000540: d998 31f5 b1dc 5dbf 964d 94fa 8ded 493f
00000550: c7ef 6408 b956 85bf 87ac dd64 73b3 a93f
00000560: 6f75 53e7 d4d8 90bf 401e 0b07 5db1 92bf
00000570: b761 9c12 ae8d a43f 1bef ca41 3f8a b83f
00000580: 2112 0e66 3e71 8f3f 37f7 580e 21a2 9abf
00000590: 9b9f f3fd 13c0 a93f 85d1 efff 917f 7cbf
000005a0: e26e 330f 6765 a0bf 49b9 44f8 3c4b 5bbf
000005b0: 692b 81a7 ca01 a1bf a117 e3fd 5445 a63f
000005c0: e555 84ef 5464 bc3f e2d1 1cf0 e7e2 97bf
000005d0: 3edc dc25 3405 aabf a057 8162 04a5 aa3f
000005e0: fb44 4c6a 5e73 99bf dc33 30d4 6ed7 923f
000005f0: c7c1 ad69 385b 93bf c6cf 8531 7906 b0bf
00000600: 77a9 c43b 6cd0 b1bf 5068 9084 c920 af3f
00000610: 9974 4a1a 950c 33bf 2c6f 8474 5808 9c3f
00000620: 18b9 0fb1 0850 82bf 250e 75f0 bf4a ae3f
00000630: 9d1d 3f0c 3968 aabf 48fc 5e8e f1ef b03f
00000640: 95ca 6c44 2741 9dbf a088 a829 e6d3 b13f
00000650: 31c3 69bf fb9d a0bf 64e7 7de0 15fa a43f
00000660: 4f04 3803 0642 b3bf 9272 e358 9423 9c3f
00000670: a05b c4d6 8510 83bf 11aa d979 2534 aabf
00000680: 3500 681b 39a9 9abf a2c3 5a21 6021 b23f
00000690: 764b 2415 945b b03f d977 8fb5 5346 b5bf
000006a0: 9b5d 2f89 5da2 a2bf 2b89 b71d 1de6 b5bf
000006b0: 9621 411d d260 74bf 4de9 c4e9 81a5 a7bf
000006c0: 13cb e1da aeff 96bf e35f cc74 452e a43f
000006d0: 1470 4052 a81f 49bf a173 e7b0 a9f3 a4bf
000006e0: 624f a1e1 59ce a13f 188a 8fbe 7076 913f
000006f0: 18c4 4c12 5c39 bc3f 1ffe b390 554d 92bf
00000700: 2f98 0879 e382 b53f 9cb3 12a5 da6e a53f
00000710: 4d20 4b85 c13a b73f 8005 5bc4 b97c 993f
00000720: 205e bb4c 5fba 933f 4992 e77b 48df 72bf
00000730: 02dd ad9b d6e9 9abf 6a26 20b3 b23b 36bf
00000740: 3c76 419d 15f8 b93f b539 fe6c 54f3 6e3f
00000750: fa5b f5aa 7319 bdbf f8be 7384 bf12 b53f
00000760: b1d2 a76a c827 b33f c76c 403e 8696 b73f
00000770: 1740 41cd cfb3 a7bf bbda 1785 c27c 903f
00000780: 8062 aaf1 e2ca a8bf 04ae 3484 02aa ad3f
00000790: 62e7 5d34 a7db a7bf 35db f9ef 3a2b 5a3f
000007a0: a079 fc12 d745 ae3f fc3d 7c3e be7e b1bf
000007b0: 6541 bcfe d62c b5bf 6038 3cc3 a49f b23f
000007c0: 5ee9 666c a34f a73f 858a 1fb6 eba6 a53f
000007d0: 7890 53ba ad2e a13f 4ed1 047b a3b1 97bf
000007e0: e66c 9c45 16f8 b6bf 6929 a82c b3ee b3bf
000007f0: 4d29 3d6f ab81 b93f e7d2 09a7 b347 a33f

layers.1.bias f8 [100]
-0.14867549411616807 -0.0887367697066532 -0.0307879670073994 0.06495467082378265 -0.0475264479863716 0.014527865404582117 -0.062403642354614805 0.0016430463871050945
-0.06937007185253814 -0.04952451690828476 -0.010931226958755215 0.04864102538194337 -0.07761693722667717 0.06976026379008535 0.08252168597362967 -0.04525532929439208
-0.0925363439958297 -0.11446999497512449 0.12590651396223268 -0.04111003892704928 -0.03755983578475336 -0.07148900557197532 -0.023742160877858277 0.19623147283640427
0.27771716419233894 0.05468026550738457 0.11089378606628118 0.007317158971930227 -0.07281384474482995 -0.07697526822149357 0.07594501220978557 0.005435332800357426
-0.05106845125555992 -0.047325058218632796 -0.0003537840620227381 -0.046729676809868365 -0.05285698713224227 -0.08276980990517488 -0.08895795146180248 -0.04158020546848501
-0.06826585606261783 0.057583719497835105 0.021043366388171666 -0.007229884603846504 0.10445346378399899 -0.12026766351264523 0.13718439710655098 -0.1019194638784992
-0.08020682785048716 0.09458152990181858 -0.027087920150228078 0.014182148511731092 0.057218939568406 -0.10728270472620176 0.005034831827017649 0.1834334832315851
-0.08301457322626912 0.44559910255136564 0.02329874054923025 -0.006151544058384869 0.0834573178963351 0.03337048256588836 -0.07062061375553945 -0.039040036499500275
-0.23590524079733027 0.07028981850292172 -0.09627801243734739 0.050569967132908775 0.028370582305292033 -0.08418921750564647 -0.006069135386496782 -0.01706845911465236
0.0024668851480739444 0.27266295589363015 0.08517836849134974 -0.0044132217250521895 0.06938057568008509 0.04123162566682045 0.03384074752691752 0.301081293919609
-0.04570140890324843 0.03787875235529251 -0.052828099926811534 -0.007228228191906397 0.05017641082576237 0.014250663020734387 -0.04547284593837728 -0.04094468429684639
0.0643811241135556 -0.12923315942034141 -0.042530227452516556 -0.08587595851445791 -0.12417201573972957 -0.10253076297047796 -0.026892528827950467 -0.028512683489398463
0.07270706231667863 -0.04822545498609543 0.00042576934627283766 -0.015934146208760876
00000000: d708 7970 cc07 c3bf 0ebf d7f3 73b7 b6bf
00000010: c4e0 a07d e186 9fbf 8c1c e98a dea0 b03f
00000020: 4dd0 97f7 6255 a8bf 5fd2 5816 c9c0 8d3f
00000030: 9ef2 20c6 5ef3 afbf c63b e69f 6feb 5a3f
00000040: b585 edad 3cc2 b1bf e24b f108 475b a9bf
00000050: 2714 5872 1c63 86bf e0c9 84fa 79e7 a83f
00000060: 6817 011f b4de b3bf 7eeb 8903 cfdb b13f
00000070: 7baf 7726 2420 b53f 2808 94de b42b a7bf
00000080: 6b4b 273b 76b0 b7bf 139c cad4 e74d bdbf
00000090: aa1b e963 b41d c03f b73a 7501 600c a5bf
000000a0: 0863 adf4 0a3b a3bf b687 f47c 1a4d b2bf
000000b0: 3aef 0672 dd4f 98bf 4f9e 23e7 1c1e c93f
000000c0: 029d 6f36 1ec6 d13f 1e7f 2e40 0dff ab3f
000000d0: f7fa 7b00 8963 bc3f a7c3 bee7 98f8 7d3f
000000e0: 5504 e099 eda3 b2bf 67b5 9cb3 a6b4 b3bf
000000f0: e13f bcdf 2171 b33f 5734 ed09 5c43 763f
00000100: 0000 00e0 a425 aabf 3620 a972 fd3a a8bf
00000110: 9473 eaf9 822f 37bf 5c54 4dc3 f3ec a7bf
00000120: ac36 322e 1210 abbf 868c a3fa 6630 b5bf
00000130: 8562 3fc4 f2c5 b6bf 38d4 4b2d 004a a5bf
00000140: 59ee 3803 df79 b1bf 2bec 0c00 9d7b ad3f
00000150: af61 bd69 648c 953f cd86 d65e 159d 7dbf
00000160: 77fc e752 76bd ba3f d49a 8d91 dcc9 bebf
00000170: e90b 8c21 428f c13f 1c1b 2fdc 6417 babf
00000180: 78a3 8846 6f88 b4bf 99e4 bbc1 7e36 b83f
00000190: 3bc6 a58c efbc 9bbf 97f4 5bc0 870b 8d3f
000001a0: 06f3 5004 cd4b ad3f d3b7 391c e176 bbbf
000001b0: cc3d 9b60 679f 743f 764a bc95 bf7a c73f
000001c0: 2625 196d 7140 b5bf b771 2519 b284 dc3f
000001d0: cea8 c902 a0db 973f 4987 cf88 5c32 79bf
000001e0: bd04 fa72 755d b53f 8e61 8b96 ef15 a13f
000001f0: b3e4 804a 3114 b2bf 0000 0040 0efd a3bf
00000200: 1efb 1697 2432 cebf 213a b677 83fe b13f
00000210: 9b06 be02 ada5 b8bf 46c4 fd85 4ee4 a93f
00000220: 4cc7 ad8c 2d0d 9d3f 31d2 dcaf 6c8d b5bf
00000230: 0000 0020 f3db 78bf 3b1e c3e6 647a 91bf
00000240: 413f 16e1 6e35 643f 8b34 9953 4f73 d13f
00000250: 583a ffe2 3fce b53f 6b60 aa2f 9913 72bf
00000260: db0b 86e7 ecc2 b13f 8b8d 99c7 4f1c a53f
00000270: 99f4 cc0f 9353 a13f 089d b479 ea44 d33f
00000280: 0abc 3dd1 2c66 a7bf 5595 2805 d864 a33f
00000290: f8ae fde2 480c abbf 9082 13bb 589b 7dbf
000002a0: 8bfb 0df7 b8b0 a93f f284 f69c 732f 8d3f
000002b0: fd9f 5284 3748 a7bf 0000 00a0 b3f6 a4bf
000002c0: ea24 8c06 487b b03f 8c72 a250 b68a c0bf
000002d0: 0000 00a0 85c6 a5bf 4d0e 5581 f7fb b5bf
000002e0: 9737 aeba bcc9 bfbf 13c9 cac1 743f babf
000002f0: 0388 4a0f b789 9bbf f4c2 6ecc 6d32 9dbf
00000300: 559f d616 ee9c b23f 0000 00c0 01b1 a8bf
00000310: 1a42 fa6a 39e7 3b3f 9fdc 6c73 0a51 90bf

layers.3.weight f8 [100]
1.2462241870999633 0.9858694437091482 1.1218484539754128 0.9886378787045721 0.5386225939691878 1.5284055708557835 0.9682349786496799 1.1259027937820496
0.7089647002789505 1.1384060053407408 1.1565605383384239 1.2872393807788893 0.6578077126874343 0.8468689741403014 0.9954282845878395 0.9634540738479557
0.9894477378823536 0.9682407591117509 0.49529475094702846 1.1388194468071426 0.6691333777352702 1.2396772737710613 1.0006473078364027 1.2928771847742098
0.7401796075994944 0.9905632250131695 1.1892579003674024 0.9631428570933356 1.0019512397473127 1.006005472035104 0.9964360235564671 1.446306964873522
1.0 0.9870434347348231 0.8242524900838075 0.9969935669462849 0.9902243125022471 0.6854174493589964 0.9622298459400639 1.151382882856753
0.9683331290834741 1.4189370824049297 1.0011343170418072 1.0360714837657625 0.5926397502615154 0.9046844088516188 1.3495657905031997 0.9682883387457237
0.9772171281182788 1.0339969293036964 1.0380502445956943 0.7258323976239263 0.6950420478225985 0.9754844350283538 0.963146928543629 1.1110413852545802
0.9067916009244077 1.2536226267254988 0.9682454865305008 1.0342794209939954 0.49368525232438154 0.9587572707234403 0.9715277036019174 1.0
0.9108520623441719 1.3847305724710446 0.9682433318790858 1.227985365261258 1.6513978901971405 0.8701833032414491 1.0 0.9683358432174876
0.9747943272562047 1.0297606549136744 0.9210010830840292 0.9420655186049425 1.2684525779628484 1.0313092922661542 0.9675331157506292 1.119014549947309
0.9329450924003253 1.6197773931270087 0.9876272894232668 1.0688699454553325 1.0024174969015163 1.0123276483779393 1.0126272291160834 1.0
1.006228528035416 0.9111105381131168 1.0 1.003835610382887 1.021637743697487 0.8324629099716006 0.9629373203423679 0.9939944961325325
1.0090923701918382 1.0 1.4909419949316356 1.568249192821493
00000000: a641 f1c5 88f0 f33f 7c68 5b13 3e8c ef3f
00000010: ec47 4e5d 17f3 f13f 39ef 93e7 eba2 ef3f
00000020: c87f 3f73 653c e13f c998 5d66 5974 f83f
00000030: a598 04ec c7fb ee3f 8f4d dca5 b203 f23f
00000040: daed 36bd d6af e63f bf22 2837 e936 f23f
00000050: 7a1f 809f 4581 f23f 1219 2952 8898 f43f
00000060: 2f92 a1c2 c20c e53f cfbf 7df6 8c19 eb3f
00000070: 4c2e fa6a 8cda ef3f 7fff 4ba3 9dd4 ee3f
00000080: d8c9 694d 8ea9 ef3f ff40 610b d4fb ee3f
00000090: 40ab 4cc1 e8b2 df3f 2a5e 81bd 9a38 f23f
000000a0: b81e c166 8a69 e53f f00e 47d6 b7d5 f33f
000000b0: 01ce 5fc0 a602 f03f b398 a5fc 9faf f43f
000000c0: 46ca f924 8daf e73f c6a8 01a6 b1b2 ef3f
000000d0: e466 c94a 3307 f33f aaf0 12f8 10d2 ee3f
000000e0: fc6b ee05 fe07 f03f 16ce 9f31 9918 f03f
000000f0: e866 b7cc cde2 ef3f a3bd a1c5 1224 f73f
00000100: 0000 0000 0000 f03f c85c fd1c dc95 ef3f
00000110: fece 11c2 4660 ea3f ed69 8b0d 5fe7 ef3f
00000120: ebd6 bce5 eaaf ef3f 1859 2393 f0ee e53f
00000130: b386 f13e 96ca ee3f 08b4 3075 106c f23f
00000140: f17f 21c2 95fc ee3f 5c2c c05e f7b3 f63f
00000150: d390 e96a a504 f03f 6d79 31b1 bf93 f03f
00000160: a1d9 35a3 e7f6 e23f 6000 a7b7 2cf3 ec3f
00000170: a32f 604c d297 f53f 8c5a 80d3 37fc ee3f
00000180: 557d cbda 5c45 ef3f 7c61 385d 408b f03f
00000190: fd4a c292 da9b f03f 4881 45dd 043a e73f
000001a0: 12c6 17d2 c83d e63f aa85 4622 2b37 ef3f
000001b0: bbce ea81 19d2 ee3f 3fbc e254 d3c6 f13f
000001c0: 0440 c8d1 6f04 ed3f 73fc 7499 d60e f43f
000001d0: 50bd 64f5 ddfb ee3f 3a85 0194 688c f03f
000001e0: e80b 5007 8a98 df3f 8fe6 51ba 23ae ee3f
000001f0: 5a1a 4444 c116 ef3f 0000 0000 0000 f03f
00000200: 5965 6839 b325 ed3f 4a8d a83e db27 f63f
00000210: 35b4 9f70 d9fb ee3f 3038 7cfb d3a5 f33f
00000220: 2948 b131 206c fa3f 1350 9ea7 8ad8 eb3f
00000230: 0000 0000 0000 f03f f83c 4573 9bfc ee3f
00000240: fa88 7cdf 8331 ef3f 06fd f84e e679 f03f
00000250: c2a5 6d43 d778 ed3f c81e 2396 6625 ee3f
00000260: 8509 2eee 944b f43f 2e81 252c 3e80 f03f
00000270: 1945 3e02 08f6 ee3f 8059 fccc 7be7 f13f
00000280: cc56 9aaa afda ed3f 7e7d 24b3 9bea f93f
00000290: cbb8 968b a49a ef3f fe86 365f 171a f13f
000002a0: 4615 e2ed e609 f03f daea e979 7e32 f03f
000002b0: 9b7b 019c b833 f03f 0000 0000 0000 f03f
000002c0: e66d c315 8319 f03f da93 8749 d127 ed3f
000002d0: 0000 0000 0000 f03f a479 d2ed b50f f03f
000002e0: 95a3 98d1 a058 f03f a6c0 ae41 89a3 ea3f
000002f0: b0fc 5eed 61d0 ee3f 1b62 a98b cdce ef3f
00000300: 85df 890a 3e25 f03f 0000 0000 0000 f03f
00000310: 126e 47fe e5da f73f ed58 3277 8c17 f93f

layers.3.bias f8 [100]
0.04374243346604229 -0.037038149135533216 -0.04814486102684541 -0.03296701055992923 -0.04032808070604826 0.11159572716877623 -0.04001657957872474 0.03623439287756184
-0.027126544331429192 0.04527623328316778 -0.13113078295175828 -0.04495202193129561 -0.09181576795602173 -0.009384980084312343 0.04583658179191962 0.060451571782967777
0.001322083693689648 0.15902063880725703 0.018588849586103674 -0.2252719949343596 -0.03699467651553675 -0.06014834713028626 -0.04311386809883521 -0.2518101705693709
0.16958999397407268 -0.002023925219791648 -0.3172720215483703 0.022781712646769415 0.03378843551324253 -0.026929278918628844 -0.02394504228329134 0.026320993220416613
-0.048988665190466886 -0.006072833055083919 0.10331560901597697 0.033763214806377805 0.009080027997022727 0.0028388818830299457 -0.042731029799214566 0.08046583738971544
0.10737441130803797 -0.08669104644777068 -0.030597901042640582 -0.04844523830806318 0.001933606372019241 -0.03411599855878335 0.0827884977805052 -0.08354136039000218
0.0503702562153322 0.14214464882649325 -0.023363075534115908 -0.08061256776361402 0.07129420782361291 -0.04406005127590138 0.01317258931511377 0.004520602604566589
-0.013115646420290552 -0.39242470118957384 0.08834893666358529 -0.02534546228594999 0.061871713818256416 -0.0193809284260705 -0.017013961661295363 0.1523579150896288
-0.047659752711072215 -0.012953554158903282 0.018813457655575027 -0.18891447839183548 0.19700264598027808 -0.03573644697181968 -0.005088762327066654 0.045003699692851326
0.01878920305005943 -0.07143893957434032 0.03180358080425642 0.002221528249053553 0.35477203178752453 0.01791190521647288 0.021279608644327243 -0.18946611481685474
-0.005602616385940338 0.39950860297670543 -0.05551277903039743 0.0006573740832709668 0.055529369508140025 -0.11333589141787374 0.011399101363181823 -0.006803612919467707
0.020056348506635416 0.15277214342779966 -0.09063744282186124 0.04345615565150913 -0.027343165821076383 -0.11205346317350902 -0.010597685537064758 0.01939015110376966
0.003846764442117884 0.02682297488490779 -0.1927084456807055 -0.17691458188605905
00000000: 5943 5e82 6865 a63f 08a4 7b0e aaf6 a2bf
00000010: 2a5a 2977 71a6 a8bf 1050 6750 0de1 a0bf
00000020: c760 7cd7 e1a5 a4bf 0330 909e 8991 bc3f
00000030: 5143 2d99 0d7d a4bf f590 cc78 508d a23f
00000040: 7026 0793 0fc7 9bbf c27b 794a 722e a73f
00000050: 206a 23bc e4c8 c0bf a900 2b90 f303 a7bf
00000060: 36d4 a0f8 3c81 b7bf 4c2e 49b4 6e38 83bf
00000070: 4f71 8377 e477 a73f cf6a 9927 82f3 ae3f
00000080: 3bb5 868e 38a9 553f 2879 88cd c95a c43f
00000090: ad99 2b94 f408 933f f14f 7975 b6d5 ccbf
000000a0: eb49 855b f7f0 a2bf 8e83 aa9f c3cb aebf
000000b0: df23 fa5a 0513 a6bf ff51 d967 a81d d0bf
000000c0: 337a ecfa 1fb5 c53f d51e 1d94 7a94 60bf
000000d0: 921b 1f4f 2f4e d4bf 1d19 0fdb 1654 973f
000000e0: e356 06c3 b74c a13f 419f 0a51 5993 9bbf
000000f0: 6a44 0896 0c85 98bf 67d8 51f4 e3f3 9a3f
00000100: 9549 bcd5 0a15 a9bf 2bb7 d9b5 d3df 78bf
00000110: 5cd3 e349 e472 ba3f 236c cd7e 6949 a13f
00000120: 9d10 5aba 8c98 823f 08c5 081b 9141 673f
00000130: 8928 066f d7e0 a5bf 96b9 08bc 6899 b43f
00000140: 63ca feb0 e37c bb3f a664 5969 6231 b6bf
00000150: dcb0 3761 0e55 9fbf 8730 5c74 d0cd a8bf
00000160: 48ec 6408 22ae 5f3f a224 29f4 a677 a1bf
00000170: e6c5 7382 a031 b53f 6208 bd72 f762 b5bf
00000180: d0a0 4556 21ca a93f c86e 01bd cb31 c23f
00000190: 4a7a 6975 7dec 97bf 6ff9 3076 06a3 b4bf
000001a0: 1d24 ff52 5640 b23f 4d85 94fe 098f a6bf
000001b0: 7a15 7f02 3bfa 8a3f 2f68 8405 3284 723f
000001c0: db43 8743 60dc 8abf 5c1d 707e 7c1d d9bf
000001d0: e441 9b31 099e b63f 550a 7b2e 29f4 99bf
000001e0: 3234 cb36 a6ad af3f 573c 0617 98d8 93bf
000001f0: 6d84 a4a3 1b6c 91bf af60 4cd3 7680 c33f
00000200: 5a81 75ee db66 a8bf 2eec d59b 6487 8abf
00000210: 93e7 6bc5 d543 933f cf87 3781 592e c8bf
00000220: 31fa daf8 6137 c93f 13d5 092e 0c4c a2bf
00000230: 6792 593c f4d7 74bf 5e75 c294 b90a a73f
00000240: 0fbd 7812 7a3d 933f 67f9 2185 d249 b2bf
00000250: 1663 e616 8f48 a03f 398d a8e5 e132 623f
00000260: 6506 84c0 95b4 d63f ba88 749c 7f57 923f
00000270: 8ad7 cb5c 52ca 953f 5556 6bf7 6c40 c8bf
00000280: bef4 64e2 c4f2 76bf b85b 1088 8c91 d93f
00000290: d229 e4c4 2b6c acbf 2e71 2d18 748a 453f
000002a0: 408a 0274 586e ac3f 734f 1abb 9403 bdbf
000002b0: 1620 787c 6958 873f dc77 bdef 1ade 7bbf
000002c0: 0418 a7c3 a689 943f 7490 e19f 098e c33f
000002d0: cf84 b6f4 0334 b7bf 598e aa9e e23f a63f
000002e0: 52ec e1cb d8ff 9bbf cdd7 bb27 89af bcbf
000002f0: 4521 5c46 3db4 85bf aab6 6b03 03db 933f
00000300: 5a90 2def 3f83 6f3f b9ff a55f 7b77 9b3f
00000310: a649 ee9b abaa c8bf f56c b113 23a5 c6bf

layers.3.running_mean f8 [100]
2.5e-323 2.5e-323 2.5e-323 2.5e-323 2.5e-323 27.8602886348063 2.5e-323 2.5e-323
2.5e-323 2.5e-323 42.69402971953623 2.5e-323 2.5e-323 2.5e-323 2.5e-323 2.5e-323
2.5e-323 2.5e-323 2.5e-323 57.75450540852444 2.5e-323 58.73344341870959 2.5e-323 60.88926701091164
26.768001362196372 2.5e-323 15.149453669847574 2.5e-323 2.5e-323 2.5e-323 2.5e-323 77.74733220444443
0.0 2.5e-323 2.5e-323 2.5e-323 2.5e-323 2.5e-323 2.5e-323 2.5e-323
2.5e-323 94.58829157396247 2.5e-323 2.5e-323 2.5e-323 2.5e-323 53.363510131519945 2.5e-323
2.5e-323 39.943829891472966 2.5e-323 2.5e-323 2.5e-323 2.5e-323 2.5e-323 29.658276909080644
2.5e-323 23.843939176352226 2.5e-323 2.5e-323 2.5e-323 2.5e-323 2.5e-323 0.0
2.5e-323 2.5e-323 2.5e-323 2.5e-323 68.63376774668558 3.0061338884685e-311 0.0 2.5e-323
93.2904653615189 2.5e-323 2.5e-323 2.5e-323 49.201334023374336 2.5e-323 2.5e-323 51.593879317607865
2.5e-323 89.8803357654153 2.5e-323 2.5e-323 2.5e-323 2.5e-323 2.5e-323 0.0
2.5e-323 69.94847542548398 0.0 2.5e-323 2.5e-323 2.5e-323 2.5e-323 2.5e-323
2.5e-323 0.0 42.11397036792677 31.901197130819533
00000000: 0500 0000 0000 0000 0500 0000 0000 0000
00000010: 0500 0000 0000 0000 0500 0000 0000 0000
00000020: 0500 0000 0000 0000 119d 3fe0 3bdc 3b40
00000030: 0500 0000 0000 0000 0500 0000 0000 0000
00000040: 0500 0000 0000 0000 0500 0000 0000 0000
00000050: 1aee 41f7 d558 4540 0500 0000 0000 0000
00000060: 0500 0000 0000 0000 0500 0000 0000 0000
00000070: 0500 0000 0000 0000 0500 0000 0000 0000
00000080: 0500 0000 0000 0000 0500 0000 0000 0000
00000090: 0500 0000 0000 0000 4022 1ba2 93e0 4c40
000000a0: 0500 0000 0000 0000 7d69 5479 e15d 4d40
000000b0: 0500 0000 0000 0000 7aa3 5c80 d371 4e40
000000c0: b8ea bdbc 9bc4 3a40 0500 0000 0000 0000
000000d0: 6886 0031 854c 2e40 0500 0000 0000 0000
000000e0: 0500 0000 0000 0000 0500 0000 0000 0000
000000f0: 0500 0000 0000 0000 8855 744a d46f 5340
00000100: 0000 0000 0000 0000 0500 0000 0000 0000
00000110: 0500 0000 0000 0000 0500 0000 0000 0000
00000120: 0500 0000 0000 0000 0500 0000 0000 0000
00000130: 0500 0000 0000 0000 0500 0000 0000 0000
00000140: 0500 0000 0000 0000 98ab b391 a6a5 5740
00000150: 0500 0000 0000 0000 0500 0000 0000 0000
00000160: 0500 0000 0000 0000 0500 0000 0000 0000
00000170: 4852 ff7f 87ae 4a40 0500 0000 0000 0000
00000180: 0500 0000 0000 0000 8b6e fa6a cff8 4340
00000190: 0500 0000 0000 0000 0500 0000 0000 0000
000001a0: 0500 0000 0000 0000 0500 0000 0000 0000
000001b0: 0500 0000 0000 0000 9d36 e4d5 84a8 3d40
000001c0: 0500 0000 0000 0000 f93e da65 0cd8 3740
000001d0: 0500 0000 0000 0000 0500 0000 0000 0000
000001e0: 0500 0000 0000 0000 0500 0000 0000 0000
000001f0: 0500 0000 0000 0000 0000 0000 0000 0000
00000200: 0500 0000 0000 0000 0500 0000 0000 0000
00000210: 0500 0000 0000 0000 0500 0000 0000 0000
00000220: 8c51 98a6 8f28 5140 0f7f 6ea7 8805 0000
00000230: 0000 0000 0000 0000 0500 0000 0000 0000
00000240: 0c16 07fc 9652 5740 0500 0000 0000 0000
00000250: 0500 0000 0000 0000 0500 0000 0000 0000
00000260: 81fb 3250 c599 4840 0500 0000 0000 0000
00000270: 0500 0000 0000 0000 c372 cb3c 04cc 4940
00000280: 0500 0000 0000 0000 4d7d d26b 5778 5640
00000290: 0500 0000 0000 0000 0500 0000 0000 0000
000002a0: 0500 0000 0000 0000 0500 0000 0000 0000
000002b0: 0500 0000 0000 0000 0000 0000 0000 0000
000002c0: 0500 0000 0000 0000 db60 45d2 b37c 5140
000002d0: 0000 0000 0000 0000 0500 0000 0000 0000
000002e0: 0500 0000 0000 0000 0500 0000 0000 0000
000002f0: 0500 0000 0000 0000 0500 0000 0000 0000
00000300: 0500 0000 0000 0000 0000 0000 0000 0000
00000310: b27a bd94 960e 4540 721e ecda b4e6 3f40

layers.3.running_var f8 [100]
2.5e-323 2.5e-323 2.5e-323 2.5e-323 2.5e-323 23.590550581304026 2.5e-323 2.5e-323
2.5e-323 2.5e-323 11.049538210424087 2.5e-323 2.5e-323 2.5e-323 2.5e-323 2.5e-323
2.5e-323 2.5e-323 2.5e-323 22.096670069044407 2.5e-323 16.52539615701079 2.5e-323 23.432770442663728
13.886752903934164 2.5e-323 15.217147821602916 2.5e-323 2.5e-323 2.5e-323 2.5e-323 18.98954846307341
2.5e-323 2.5e-323 2.5e-323 2.5e-323 2.5e-323 2.5e-323 2.5e-323 2.5e-323
2.5e-323 31.60547248116582 2.5e-323 2.5e-323 2.5e-323 2.5e-323 7.778514935690246 2.5e-323
2.5e-323 12.52318577439944 2.5e-323 2.5e-323 2.5e-323 2.5e-323 2.5e-323 19.675552758268765
2.5e-323 14.848281775985987 2.5e-323 2.5e-323 2.5e-323 2.5e-323 2.5e-323 2.5e-323
2.5e-323 2.5e-323 2.5e-323 2.5e-323 24.89776630254427 1.0388028054177e-311 2.5e-323 2.5e-323
12.038534999115857 2.5e-323 2.5e-323 2.5e-323 14.652420714098762 2.5e-323 2.5e-323 9.732018639421137
2.5e-323 20.799122383913524 2.5e-323 2.5e-323 2.5e-323 2.5e-323 2.5e-323 2.5e-323
2.5e-323 18.875364252772034 2.5e-323 2.5e-323 2.5e-323 2.5e-323 2.5e-323 2.5e-323
2.5e-323 2.5e-323 34.142089204370684 19.380290615751314
00000000: 0500 0000 0000 0000 0500 0000 0000 0000
00000010: 0500 0000 0000 0000 0500 0000 0000 0000
00000020: 0500 0000 0000 0000 a755 a952 2e97 3740
00000030: 0500 0000 0000 0000 0500 0000 0000 0000
00000040: 0500 0000 0000 0000 0500 0000 0000 0000
00000050: ff58 8312 5d19 2640 0500 0000 0000 0000
00000060: 0500 0000 0000 0000 0500 0000 0000 0000
00000070: 0500 0000 0000 0000 0500 0000 0000 0000
00000080: 0500 0000 0000 0000 0500 0000 0000 0000
00000090: 0500 0000 0000 0000 3c0c a15e bf18 3640
000000a0: 0500 0000 0000 0000 30ce cf5c 8086 3040
000000b0: 0500 0000 0000 0000 89ea 310b ca6e 3740
000000c0: 7f0f 047a 04c6 2b40 0500 0000 0000 0000
000000d0: 455d d0ff 2d6f 2e40 0500 0000 0000 0000
000000e0: 0500 0000 0000 0000 0500 0000 0000 0000
000000f0: 0500 0000 0000 0000 16b5 4e0c 53fd 3240
00000100: 0500 0000 0000 0000 0500 0000 0000 0000
00000110: 0500 0000 0000 0000 0500 0000 0000 0000
00000120: 0500 0000 0000 0000 0500 0000 0000 0000
00000130: 0500 0000 0000 0000 0500 0000 0000 0000
00000140: 0500 0000 0000 0000 343c 993e 009b 3f40
00000150: 0500 0000 0000 0000 0500 0000 0000 0000
00000160: 0500 0000 0000 0000 0500 0000 0000 0000
00000170: d7f2 f004 331d 1f40 0500 0000 0000 0000
00000180: 0500 0000 0000 0000 5a8e 7d01 df0b 2940
00000190: 0500 0000 0000 0000 0500 0000 0000 0000
000001a0: 0500 0000 0000 0000 0500 0000 0000 0000
000001b0: 0500 0000 0000 0000 a87c 8b06 f1ac 3340
000001c0: 0500 0000 0000 0000 234e 2bfd 51b2 2d40
000001d0: 0500 0000 0000 0000 0500 0000 0000 0000
000001e0: 0500 0000 0000 0000 0500 0000 0000 0000
000001f0: 0500 0000 0000 0000 0500 0000 0000 0000
00000200: 0500 0000 0000 0000 0500 0000 0000 0000
00000210: 0500 0000 0000 0000 0500 0000 0000 0000
00000220: e4e0 2c03 d4e5 3840 91e3 5b8a e901 0000
00000230: 0500 0000 0000 0000 0500 0000 0000 0000
00000240: 72e8 01dc ba13 2840 0500 0000 0000 0000
00000250: 0500 0000 0000 0000 0500 0000 0000 0000
00000260: 0593 7c16 0a4e 2d40 0500 0000 0000 0000
00000270: 0500 0000 0000 0000 9dc0 a825 cb76 2340
00000280: 0500 0000 0000 0000 ff68 d848 93cc 3440
00000290: 0500 0000 0000 0000 0500 0000 0000 0000
000002a0: 0500 0000 0000 0000 0500 0000 0000 0000
000002b0: 0500 0000 0000 0000 0500 0000 0000 0000
000002c0: 0500 0000 0000 0000 4dbe 25df 17e0 3240
000002d0: 0500 0000 0000 0000 0500 0000 0000 0000
000002e0: 0500 0000 0000 0000 0500 0000 0000 0000
000002f0: 0500 0000 0000 0000 0500 0000 0000 0000
00000300: 0500 0000 0000 0000 0500 0000 0000 0000
00000310: 81f1 a2fa 2f12 4140 aaa0 cdb9 5a61 3340
