model_policy2_epoch-20.pt (torch, 373906 bytes, 28 tensors)

layers.0.weight f8 [128, 128]
00000000: 0289 4396 bcad 80bf fba1 1785 7780 a1bf
00000010: 0aa8 af39 1fdf 993f 5da5 24cd 90e6 9f3f
00000020: 1dc4 f16e 7241 b33f b615 8dfd a37b 8a3f
00000030: 6c72 67e7 c4e9 aa3f e842 0b56 5351 b03f
00000040: 94c4 82e7 bece aabf 8117 2a00 ce98 b63f
00000050: ced1 28db 2fad 71bf 897a da90 7bdc 7d3f
00000060: cb5a 15fa d1cb b1bf e3d8 9948 5d97 b2bf
00000070: 07ba 94e7 911b a4bf e5e9 2e62 3e0a d0bf
00000080: 2345 b35b 2871 c0bf fea1 8d1e 40ac b7bf
00000090: 7a9b 43b3 8581 b1bf d211 80b6 3db8 b9bf
000000a0: 8b37 f851 bbc0 9b3f e099 eaa1 b09d a7bf
000000b0: cd88 4123 0c9e b33f f880 713c 1338 c9bf
000000c0: eb36 4d24 34b4 a9bf a360 0873 fb0f c9bf
000000d0: 3c7a ec7e da0f a13f 57bd 6527 43c6 cebf
000000e0: 9c8d 8c91 2ece ccbf ee3c 273e 5717 a2bf
000000f0: dfa1 a93c 813b bc3f 6223 c1de a669 c1bf
00000100: ea5c 61bc 884b d0bf 8883 5be9 2dda c03f
00000110: 4834 f9de 33ee 853f 964b a805 17f4 c33f
00000120: a10c 48a5 1514 89bf a9a5 f1af 9656 b03f
00000130: fc50 ba67 ed56 d7bf 5b98 d5ec a2f8 d6bf
00000140: ba52 07ec 0403 c0bf 5147 5d15 8b2c cbbf
00000150: 27a5 e617 f193 c2bf 51d2 07dc 5f1a c1bf
00000160: d5a7 0f57 d36b cfbf 592a ba19 73f0 91bf
00000170: 0b5d f6ac 9ab1 c03f cf7a c447 3e60 c5bf
00000180: f440 1b3f 89c6 c53f 7aa2 f631 52f9 c3bf
00000190: b093 1cad 8cf8 c0bf c9ef 7db0 a149 c0bf
000001a0: 6cbd 665a 3fe2 c3bf c446 14cc 16dc b1bf
000001b0: f3ac ed50 0270 cdbf 25d4 4995 aeac b5bf
000001c0: 112b 1b90 d9fb bd3f 4f91 fadd 1435 db3f
000001d0: 01d4 cf01 3e60 c33f fbcf d7a1 7d19 b43f
000001e0: 7fe2 6cad d59e b63f 7646 fa49 ae66 b8bf
000001f0: 9ebb 209a 1645 bbbf a3e6 e499 4f53 cf3f
00000200: 133d 1d90 8fb9 ac3f 72ee f44a cde9 b6bf
00000210: e4a5 b697 c97a 8b3f 8109 79fb d5b5 bc3f
00000220: 1797 3b12 578d c23f 7b7b c862 fcc6 cb3f
00000230: 315b d81d 14a1 ab3f 3245 b79d 8db9 c83f
00000240: d3c3 7607 21fc 3d3f 5fa1 e526 d92f c63f
00000250: 0497 27b2 bcda bc3f de9a 381e 5d5b aebf
00000260: da24 746c f3e0 ac3f 53c6 3c73 2879 a2bf
00000270: 7bf4 8f5b 4764 bf3f ece8 4e29 d323 b4bf
00000280: 27f2 ce31 dbe7 ba3f 9cc8 0c17 0303 84bf
00000290: fe1e 3b1b 4ff2 bf3f 6a72 299d a7ba a13f
000002a0: 55f8 f970 625a cf3f 6e3c a3fb bd82 c03f
000002b0: 8259 b5e2 b5c3 c83f 1900 25fa c846 c53f
000002c0: 010f 7956 b150 aa3f 8e03 a968 70b2 a6bf
000002d0: adf2 ac38 49d7 8b3f 3b87 4b7d a39d b1bf
000002e0: 5217 2a38 9384 963f 3887 3d6d abfd adbf
000002f0: 5b11 7702 e2d3 833f fb91 682c 419b ca3f
00000300: 9669 02b9 fda0 bb3f 3a0f 43b9 1245 d03f
00000310: 858c 2bcd 0598 b9bf 9716 2a03 91b1 c93f
00000320: c69e 07ee f8c0 9dbf a06d ab4a dbe4 acbf
00000330: 5bb5 d826 1ecf b33f 36a2 aa76 b33b cc3f
00000340: 8b4f 6be7 9b46 963f d37c 96d1 a3d3 a4bf
00000350: ed36 ae15 2bd2 cf3f e223 e046 d25a 903f
00000360: bc1d d3cd a99b d2bf 93af c622 4cfc b93f
00000370: a4a7 1831 bb7d d23f 306f ed22 c26e d43f
00000380: 6473 5748 8164 c7bf debf 3079 a13e bd3f
00000390: 058b e48f 69e7 da3f a719 484d 2a57 953f
000003a0: 3753 6d1b 53f2 cf3f 83ec eb01 6eaa bdbf
000003b0: d3cb ee3c 2a52 d73f cef3 a4bc 8706 c4bf
000003c0: 0179 1bd8 7016 cabf 4810 6a12 ba50 b7bf
000003d0: 5932 9212 38c8 bb3f dec3 8422 a841 a1bf
000003e0: eb87 a1e4 6cbb c13f e0f6 3cc7 6c68 c5bf
000003f0: 5b12 ddc7 d2be bd3f 3921 d2f3 9ed2 c9bf
00000400: 91e3 f2e6 23c8 bfbf 0751 fc07 8ec8 b9bf
00000410: 864a 8362 fa4e bdbf 87f8 fb30 a3b4 d0bf
00000420: 6d05 13b8 6566 b9bf 7382 9ffd 5fb0 b1bf
00000430: 827c f2f0 1f0f b23f 039a ca90 7c65 a8bf
00000440: 546d 1fca 43cc cbbf 7d5d e795 2440 cebf
00000450: 4908 9c9d d226 c2bf f229 5a07 54d6 c4bf
00000460: 81d5 ccfd 40ca d0bf 22a6 597b 7cb8 bfbf
00000470: d1f8 820e a1dd c5bf 064c e57c b8ac c3bf
00000480: 8842 477c ff18 d0bf ff38 623d b7c3 cebf
00000490: 403a e298 89df d0bf e676 1aff 75db cdbf
000004a0: 042b 8f40 ba25 d4bf 9099 eeaa f14c cabf
000004b0: fc1b a3e0 62cb c5bf 0d64 3ffd 607b c9bf
000004c0: 542b 09f4 402d 6bbf deeb 2685 8395 b9bf
000004d0: 715d 72bb f142 cebf ef54 766f f8a8 cfbf
000004e0: 72fb c038 6d9d cfbf 9b08 3149 f712 c7bf
000004f0: 3ff5 b9db aa59 ccbf 6d83 37c5 a85b b8bf
00000500: 2c32 e7dd a46a 8a3f 338f c33f 2c20 abbf
00000510: 7f90 e9c3 5ef3 c5bf dcbf 0914 edab c6bf
00000520: afd8 eb95 0e0d d1bf ad8a 5004 2bc0 d0bf
00000530: 6168 f0fe 887a c5bf ec71 0655 6644 92bf
00000540: f262 a0db e66b 99bf 947a 7111 a6f2 aabf
00000550: b858 3705 a636 79bf 1aae 4e7b bd75 cbbf
00000560: 524f 98d7 142b bdbf e77e 6821 030e c7bf
00000570: 1ca0 ee4d ae6c bebf 5c7e 5564 bee8 b6bf
00000580: da16 5795 269b c73f 7355 d893 b6be c4bf
00000590: 3bac b57f 785e d0bf d586 e36d 23e8 b9bf
000005a0: b0ee 5bbb 2607 c9bf 0139 8e37 36a2 b7bf
000005b0: 3bd3 f0dd 16cf d0bf 9449 6a10 fa69 c1bf
000005c0: 47bf 5e1b 9321 d93f 68f4 8f50 2350 d33f
000005d0: c95d cff7 dd3d 89bf aa00 407e bf72 933f
000005e0: fc75 4227 a9b8 c43f 87b0 6db2 308d b3bf
000005f0: cf12 a17b aad0 b6bf 3a0a 909a cf8c be3f
00000600: a63d f266 feb5 b93f 700d e06b 55ec 9f3f
00000610: 4d9b 9ac6 b84c be3f 94bc 952f 3a38 d43f
00000620: 5d5a 4134 6ec9 d63f eea2 2364 6e1c d03f
00000630: 9f7e ced9 c8c1 633f b213 2542 a76e c53f
00000640: baa6 9608 bcc2 ba3f 42df 085e fa07 d23f
00000650: b607 de2a 591f d43f 110b be36 d70a d53f
00000660: d881 59b3 5daf d33f aa58 1384 8b1f cf3f
00000670: 3452 9187 8176 c63f bce2 ec89 f31e c73f
00000680: d736 3cff 3d3d b83f 8795 f6a1 4ff3 c33f
00000690: 6e86 e83e 2068 c53f ed8f 81c7 cf30 c53f
000006a0: c9a8 bdab 7379 d23f cf91 6c98 6a95 cb3f
000006b0: 2e14 2537 1c78 cf3f 9581 78c8 221d c83f
000006c0: 916d 28b6 b7f4 afbf 6afd f6bf c4db c33f
000006d0: b8d9 2f6b 8246 ca3f 7225 c97a 73be c43f
000006e0: f117 88b5 34da cb3f fc30 cfd2 b47f d53f
000006f0: 0f51 b39a b7b3 be3f b04b f1ba 356e c63f
00000700: 0eec 7d6f fc8b c93f 03ec b52c 2e83 c93f
00000710: a60d 0b40 8c9f cd3f 0cf4 4ecc da78 cd3f
00000720: db34 d231 7520 cf3f 9ef4 03dc 6457 d33f
00000730: 0fd1 5e7d 9ff0 ab3f 769b e612 99cf ce3f
00000740: 7f22 f083 15ad 74bf 8ed1 8c73 7c4d b73f
00000750: 4929 7c44 360e aa3f ee11 5dbc 15ea b73f
00000760: ef41 e01e 6e83 c43f 136d 0aa4 ef5e bc3f
00000770: b12a cc69 c77d b53f cc1b af9e 4a25 c43f
00000780: 6e06 c9dc ce14 903f b86d 70c8 959d c33f
00000790: 2748 3d21 197e bb3f f3b9 6303 251d c13f
000007a0: 02b7 aa33 913f c53f 094e 0b68 e394 8f3f
000007b0: dcea 4f88 757f b33f 8c1e eba7 c4b4 b2bf
000007c0: 0aae 2216 ddb6 cdbf 7e82 69ba 2624 d3bf
000007d0: 72a0 6b7a 701c a7bf eb4e 023f 381e bfbf
000007e0: 260b 0513 387f 9ebf f8b7 e8a3 dce5 90bf
000007f0: 1f63 b07a 4d1b c33f 8c23 8fe8 f2d9 cebf
-0.008143876395881215 -0.03418324947034886 0.025265205284007698 0.031152975579208476 0.07521739204982265 0.012931138205781827 0.05256476711995081 0.06374092913325635
-0.05235859466609685 0.08826911453260601 -0.004315554559572067 0.007290346793210952 -0.06951629977752842 -0.07262213728413118 -0.03927284194866237 -0.2506252249546875
-0.12845329740097453 -0.0924720835297492 -0.06838260294499135 -0.10046754556248708 0.027102400663401787 -0.046124953999697516 0.076630362136288 -0.19702377749764088
-0.050202969962453846 -0.19580023876983885 0.033324077600117324 -0.24042548583700338 -0.2250421724976207 -0.03533432611185981 0.11028297167798183 -0.13603673817331258
-0.2546102370883562 0.13165830511482235 0.01070824169360142 0.1558865335105934 -0.012245339495171871 0.06382123752123071 -0.36468062524478717 -0.35892556312899665
-0.12509213948091774 -0.21229685347730734 -0.1451398245529074 -0.13361738437346785 -0.24547807456047957 -0.01751880497480793 0.13042005010058974 -0.16699961189529808
0.1701213415276538 -0.1560461753808971 -0.1325851292869209 -0.1272470580842067 -0.1553420249378904 -0.06976454241182767 -0.22998074485381145 -0.08466616768585362
0.1171241738149258 0.4251148383866807 0.15137457931965062 0.07851395798917331 0.08836112483994361 -0.09531678491682691 -0.10652295363318706 0.24472994818079483
0.056103216497485196 -0.08950503425597292 0.01341779226534618 0.11214959516022384 0.14493835821411302 0.21701006720919822 0.05396330704041075 0.1931626339051405
0.00045753294349553975 0.17333521270053162 0.11271266316870415 -0.05929080003652641 0.05640373896501112 -0.036080612246575904 0.12262388215454394 -0.07867164381505959
0.10510034528756106 -0.00977137006848166 0.12479109206025993 0.034627187666704654 0.24494581715038302 0.12898993288988286 0.1934726101851077 0.16622268880928529
0.05139688664033138 -0.04433013227072201 0.013594219247914674 -0.06881162461243388 0.021990108778957414 -0.05857597073078441 0.009681478214482444 0.2078629938925046
0.10792527930099136 0.2542158898543111 -0.09997593173061332 0.2007313981486518 -0.029056443718132006 -0.05643353735441825 0.07737911651994038 0.22057193083061727
0.0217537269589481 -0.04067718442387904 0.24860132750148214 0.015971456123256796 -0.29075093364778204 0.10150600289369853 0.28892402453004196 0.3192601529205943
-0.18275466949753671 0.11423691948652911 0.4203742890551186 0.020840321509263095 0.2495826610489986 -0.11588180109895245 0.3643899531409122 -0.15644928656720797
-0.20380983879199024 -0.09107554387634409 0.1085238499965241 -0.033704046453187905 0.13853226817724304 -0.16724929550576118 0.11619298343163946 -0.20174014001191568
-0.12414764774702138 -0.10071647353135314 -0.11448635964488049 -0.2610252359735416 -0.09921870941163542 -0.06909751836747961 0.07054328567982007 -0.04764928119157121
-0.21717116708064543 -0.23633248633880646 -0.141809775312199 -0.16279077872270836 -0.2623445967213556 -0.12390878688315657 -0.17082608421873727 -0.15370851610586572
-0.2515257562309121 -0.24034777161836726 -0.26364364557312925 -0.23325991588801925 -0.3148027067624499 -0.20547314497271119 -0.17026935547457345 -0.1990777241287848
-0.003317477094502955 -0.09993764878065245 -0.2364179768817212 -0.24734406893245572 -0.24699178000625072 -0.18026629518323464 -0.22148643235042617 -0.09514860930313569
0.012898719808526492 -0.05297983435028044 -0.17148956838639504 -0.17712176779195843 -0.2664219345164253 -0.26172900601720067 -0.167801975709895 -0.017839049281620875
-0.02482567515844187 -0.05263251269274352 -0.006155632512181146 -0.21453064461580668 -0.11393862021969639 -0.18011511927851773 -0.11884583857192904 -0.08948888730582766
0.1844223241043242 -0.16207010478016634 -0.25576603385588087 -0.10119840081054161 -0.19553074024576267 -0.09231890541397904 -0.2626397292508959 -0.13604665566942897
0.39267423317777567 0.3017662321797787 -0.01232503330713443 0.018992416458787055 0.16188539902661592 -0.07637314182437836 -0.08912148969927645 0.1193361046171412
0.10043325436912784 0.031174978932552333 0.11835818146447004 0.3159318413444876 0.3560443411164778 0.25173530368060326 0.0024117396228147815 0.1674393723461925
0.10453391275100446 0.2817369383151239 0.31441334902057905 0.3287866625397991 0.3075784923039726 0.24315017651560328 0.1754915153457134 0.18063205942759974
0.09468448144272244 0.15586276443825062 0.16724017211622616 0.16555211297520547 0.2886628319889835 0.21549732630331994 0.24585297291392422 0.18838915623292665
-0.062413922296595044 0.15514430402070484 0.20527677758918883 0.16206210608860833 0.21759661544655232 0.3359195765194867 0.11992976691118805 0.17523833873800987
0.19958453601779563 0.19931580718170502 0.23143151404484036 0.2302506921386399 0.24317803318664385 0.3022091053570167 0.054570182851792486 0.24071038649455162
-0.005047878307785524 0.09102609463736241 0.05088967882155033 0.093415602194973 0.16026093013398632 0.11082360987568433 0.08395048459002898 0.1573880457710558
0.015704376435911653 0.15324661528653194 0.10739285527714114 0.13370192208772344 0.16600241682811406 0.015420700657535329 0.07616362169202823 -0.07307080363818325
-0.2321430547793713 -0.2990814991408469 -0.04513885015859466 -0.12155486620241233 -0.029782177124853558 -0.01650185347005359 0.1492707108561939 -0.241026271394983

layers.0.bias f8 [128]
00000000: 5136 5c86 0c57 913f 3cf1 1524 cbaa b53f
00000010: e642 9559 fe81 d23f 38e4 1611 8f14 c4bf
00000020: f873 2be0 1a5a c2bf 4142 3b0b e00d ba3f
00000030: bd79 d7d6 cb7e b1bf 9fb1 6ab3 79ae c1bf
00000040: c2ab 6486 be23 9f3f 72e9 2e63 261d c13f
00000050: 086b 7acb 4035 c7bf fd47 42d2 fab9 cc3f
00000060: 745d 597b 537b a83f 7e81 a503 510b ad3f
00000070: e170 a1e1 d6c8 91bf d8a6 0577 0ac9 b93f
00000080: ccd8 f804 8c64 bdbf c21d 37a5 c035 aa3f
00000090: bd44 508a 337f c33f a449 3898 a495 a7bf
000000a0: 8d8c 50ae 04a5 a1bf d413 3ec5 8d31 b73f
000000b0: 619e 2df7 f780 b73f 669a a34d 33f1 c5bf
000000c0: 9a51 a13e c20d c3bf ffb7 e89b 4cfa 933f
000000d0: 8085 af18 0430 b7bf fe04 966e f47d c53f
000000e0: a03c 1c25 af93 a2bf 7e52 7462 e323 c3bf
000000f0: fbe7 865e 25e5 bcbf 360c f4a6 be96 c9bf
00000100: 3594 6e84 5007 ad3f b3d3 96e5 2a0e b23f
00000110: fe69 9599 34ef c6bf a4c8 0d81 b320 ccbf
00000120: e5d2 54ac a332 c4bf f11c 927d 3b24 d03f
00000130: 529d 0f69 f40f a8bf 26ef 243a 07a6 c03f
00000140: 18e6 09eb a801 983f a70c 75b0 c2cd 84bf
00000150: 7683 3572 2339 b13f 6f5b 982c 8245 c23f
00000160: d1f6 b3aa 23ba b93f f543 0afb 4ec9 8e3f
00000170: 95c1 6466 6049 d03f 5c9f 6a76 1ce7 aa3f
00000180: ae15 dd8a 5d3a b63f c259 85a6 9a3c cfbf
00000190: eb5d 7890 d20e cd3f c97b bbc0 a2c9 c0bf
000001a0: d7f6 4197 e4b8 a83f f72b c52f f43d a2bf
000001b0: 0a71 474b d1de 8d3f 332a bdc4 7a72 cebf
000001c0: 943c 2cfc c9b0 a8bf bb0b fe97 dea5 c63f
000001d0: c8e5 5694 8ed2 a83f 99f6 fa28 a55b b6bf
000001e0: 06c5 01f6 b021 c53f 36ad d835 fe87 9c3f
000001f0: b76a 4aea 532e c3bf ec4e 7e49 19aa d43f
00000200: 38f9 b23b 08a4 b4bf 4f89 f0af c1f4 c93f
00000210: b697 3a6e 3b54 b23f ef1f 15be e555 a3bf
00000220: 342a 6a4e c639 c8bf 0f0b efc8 d444 bc3f
00000230: e1b4 1042 cda3 abbf 8573 ffd5 f0d1 d13f
00000240: a401 79d2 790f d2bf 2ee6 2e39 4100 bcbf
00000250: 8168 65a3 9570 c8bf 6c60 ebd2 dd42 a33f
00000260: bd14 1ea2 9d77 bd3f 0213 a3ec 64af babf
00000270: 7ffd 72d0 0b4a 963f f7c7 45f9 9573 c3bf
00000280: 4f35 a0d2 8ae7 d03f 9f19 1be2 14a0 c5bf
00000290: 5e9e dcc8 ae55 aabf 6b77 eb08 7e33 a5bf
000002a0: 33b1 d677 efd9 ab3f a5a2 fdb7 c281 a93f
000002b0: 68f5 a574 7e0e b43f c608 7a10 b66c a83f
000002c0: d77e 0a13 0c52 ac3f 1943 da91 05af ca3f
000002d0: d18c 2659 4b7c c33f bef2 8ba3 10c0 b7bf
000002e0: 913b 53a1 6464 d0bf 468e 22ea 8347 c73f
000002f0: ad6c 7384 8f42 c0bf e98b 3039 7f05 c3bf
00000300: 5bc1 dbf6 9c6a cebf 3374 679e 5651 ca3f
00000310: bafd 064f dd7d b83f d557 63d7 01b7 b4bf
00000320: b52b c600 adfc cc3f 95b2 045d 5d3d c3bf
00000330: 51dc 85e9 4e48 c1bf e2ff a4ee f787 a63f
00000340: 990f a9e7 5cc6 c0bf daaa f4c4 8ee6 be3f
00000350: f482 3db9 8a06 893f 9427 d788 9ff2 903f
00000360: 32b9 7c87 506b adbf c86a 8294 3182 d03f
00000370: 18d8 fdfc 9ceb c23f 0eee e442 caf3 c1bf
00000380: 053d ce6a 7423 ad3f a3f7 505b a34a b8bf
00000390: 5d0c 853f 9df4 b6bf 1b07 fc35 4f80 b73f
000003a0: 7e48 200d 1a7b 9abf a999 5e0d fa94 993f
000003b0: dedf bdff 33d1 9abf b33f 029b dd85 a13f
000003c0: e210 ad4e 94a6 af3f c3af 7763 2ed7 ca3f
000003d0: d5c7 3510 a88d 92bf aea8 0bc8 0dea 79bf
000003e0: b8ce 979c 16ee b0bf 1494 c482 417e b4bf
000003f0: db7f 7ceb 8468 ab3f c4bc d022 89a4 bdbf
0.016933627796836884 0.084637352285374 0.28918417690606046 -0.156877406448787 -0.14337478585994723 0.10177421831327484 -0.06834100718649601 -0.13813706646523102
0.030409790947640188 0.13370208590442761 -0.18131265578707478 0.22442565218494784 0.047815903479825034 0.056726962752466456 -0.017367703935051607 0.10072389035999707
-0.11481547471416603 0.051191349189646754 0.1523193765029073 -0.04606356008675341 -0.034462114599841255 0.09059988084307175 0.09181165489791844 -0.17142335215540355
-0.14885738428223477 0.019509503379758538 -0.09057641604115041 0.16790633582790088 -0.03628299072271912 -0.1495327215894981 -0.11287149007594614 -0.19991286422745852
0.056696430364617724 0.07052867989734928 -0.17917497157289114 -0.21974796105820815 -0.1577953902684818 0.252211449268045 -0.04699672491534081 0.1300667795093144
0.023443831773397233 -0.010158082017943505 0.06727811373049328 0.1427462308644993 0.10049651067307798 0.015032403026710365 0.2544785499512952 0.05254448838723988
0.08682808532929329 -0.24403699046042787 0.2270148473187271 -0.13115343485602995 0.048285621131965044 -0.0356289203942523 0.014585147008738381 -0.23786863905327635
-0.04822379306107752 0.17693693562986632 0.04848142205032563 -0.08733589411255095 0.16509067546898154 0.027862522160075197 -0.14985131206488742 0.32288200547303236
-0.08062793214319164 0.20278187838364167 0.07159778061995223 -0.0377647203955006 -0.1892631419071492 0.11042528062447964 -0.05398408347569173 0.278438767416269
-0.2821945720097807 -0.10937888761591161 -0.19093580702139337 0.03761952590656467 0.11510644157359003 -0.10423880364676211 0.0217668386437686 -0.1519648997451097
0.26413221901824085 -0.1689478019745367 -0.05143495752264181 -0.04140848025211493 0.05439709031938591 0.04981811996441835 0.07834616039140985 0.04770440055018947
0.05531347019609505 0.20846624013622586 0.15223066189819304 -0.09277442925299348 -0.2561275077286434 0.18186997349140394 -0.12703126876190166 -0.14860525410139694
-0.23762857488282915 0.20560724958969132 0.0956705396592871 -0.08091746815202268 0.22646105325506274 -0.1503102020445978 -0.13501917269215594 0.04400610721722821
-0.13105355559866608 0.12070553120126296 0.012219508913120937 0.01655053398807345 -0.05745937017342086 0.2579463911330717 0.14781534531692908 -0.14025238291093028
0.05691112331180118 -0.09488888720895132 -0.089670017249817 0.09180159633617928 -0.02586022095790285 0.024982363763820157 -0.026188671573862503 0.03422443883130146
0.06181777439499726 0.20969180924237038 -0.018118501653084557 -0.00632672675485872 -0.06613293955870858 -0.08005151217055612 0.053531793352021594 -0.11579186534867164

layers.1.weight f8 [100, 128]
00000000: da1a f3f8 378f c7bf 8911 7495 0bd7 c23f
00000010: 795b 9a46 45dd cebf 65d8 fc85 6a03 a63f
00000020: d21f f438 804f c7bf 09da b0b1 abbc ccbf
00000030: 3221 727c b482 b63f 489e 6a27 16f9 bf3f
00000040: 106e 9ebe eed8 b63f 7ad1 815f f449 c3bf
00000050: 104f ba7d ca75 bfbf 1bd9 c3cb 45f0 bfbf
00000060: aca4 5218 d2c9 83bf 4cf5 8079 d46e 973f
00000070: 7579 e2b4 30a3 be3f 957a a62e f145 bd3f
00000080: 2265 b83c 722c ca3f a503 1b48 fee9 c5bf
00000090: 90be 6e86 5a63 b33f bd3b 50d9 9988 c43f
000000a0: ef4b d16f e293 aa3f c2a1 28ee d7d3 bd3f
000000b0: fa38 e275 3885 9e3f 3cdb 7c66 4688 c13f
000000c0: be8f a1dc b003 e0bf 8ebc d9ba e887 d5bf
000000d0: bdc7 cf44 bb39 783f aaf3 2861 1924 b73f
000000e0: 46e8 0365 3be2 b53f 6a1b f50d 1328 babf
000000f0: af77 f203 ea4d df3f ac48 cb35 15ac ca3f
00000100: ecd5 fc42 b28f ca3f 888a 2d19 68b9 acbf
00000110: 0061 2fbd 921c c7bf a18a bcb7 4768 b4bf
00000120: 9bcd c8e7 8795 b53f 48a9 3f3c f5d4 bfbf
00000130: d34f ccf8 49bb b73f 99b0 3764 f878 b43f
00000140: 52b5 452e 8f9c d03f 9673 f794 487c d2bf
00000150: a1dc 0d73 2308 b5bf 8c50 d325 a150 b1bf
00000160: ba39 02fc afab 873f 1280 4b53 0453 7e3f
00000170: 6911 5a8f fa97 b1bf 6763 ce5b 4345 d9bf
00000180: f8fe f058 df7a 91bf d3ad f7e0 1140 96bf
00000190: 7748 a3e5 1e4f 8e3f 0c3e 141e cc81 d63f
000001a0: d895 f989 1501 b73f 3d27 7ce9 c500 8bbf
000001b0: b5a1 1b6b cec1 8d3f e0ea b461 b689 c63f
000001c0: 46a7 ef06 ec1b ca3f 56d5 e39b 2d23 c93f
000001d0: 9000 9e46 fb62 883f f930 b42a 1ac0 a43f
000001e0: fdac 5664 1e5f d03f 6467 c619 3d4d cebf
000001f0: 7387 0f7e 942d cebf 5899 2133 b737 b33f
00000200: f097 0bef e589 d23f 793a 8a17 8b40 c23f
00000210: 5754 f398 93b2 8a3f a07b 7424 f48d a53f
00000220: 6328 ca00 fa6e c93f dfcc 6289 c4ef c13f
00000230: fb65 338b f05b b2bf cb4a c8a4 3732 af3f
00000240: 75b7 f1c4 35e4 ba3f 6769 20d1 f656 9d3f
00000250: 5662 0d09 e63c c23f 01db eafb 37d5 aa3f
00000260: 4821 1258 cb10 773f 6ef8 7ce5 4bbf d53f
00000270: 471d e5e2 9ea2 b43f f819 483d 712e 923f
00000280: 5a7b edea d847 753f a9f4 bafa bc8c c1bf
00000290: 8871 8128 4950 c4bf 501d aea9 45d6 55bf
000002a0: e810 74c4 773c adbf cc61 5cd1 31e2 d03f
000002b0: 5df4 2162 7143 bfbf 3a36 a591 062e e13f
000002c0: f2be 1907 f3ed e63f 8c1e b4a0 a6b5 ba3f
000002d0: 7aaf a728 f749 b8bf d9ed 7b72 8db7 cb3f
000002e0: 674d 1f05 c87b b9bf ab7d 7ccb 88f0 afbf
000002f0: 9961 faa3 b20e dfbf d677 df1a f9ee acbf
00000300: ed07 ee05 444a b8bf 8fa9 efa1 858c d43f
00000310: d457 7cc4 0843 bebf 66dd 4c43 1714 70bf
00000320: bc7c 7c9d b4ca b83f 0a67 7e52 a2ef d33f
00000330: eb02 0f7a 2a71 8d3f acee f101 0b50 9bbf
00000340: 4f1c 63a3 802a bd3f 0ab6 92b7 2d3f a43f
00000350: 472a 8bcc cbc1 c5bf 93a3 a227 e8a8 d7bf
00000360: da71 25ae 5d02 a03f c9c5 6d00 8ab5 b7bf
00000370: 0f76 31fc af6d db3f be70 d880 f914 943f
00000380: 9b4c fb2d 7ae2 c8bf c9af 0db4 94e6 a8bf
00000390: f60d 8ef8 a1b2 c93f d480 bcbf 9cbe b7bf
000003a0: 2c42 658f 6bf3 a33f 2701 f69c 1cfc c5bf
000003b0: 7b64 f273 80a5 bd3f dad8 2c19 5a43 e33f
000003c0: 01a0 9377 798d aabf 633d cade 0455 d1bf
000003d0: c3b3 0a73 a0b6 a6bf a378 72ac bd64 c5bf
000003e0: 5c50 c434 c619 bd3f 5bd7 4024 b5e2 c3bf
000003f0: 4db1 a85d 479b c43f 71db 63f5 0001 ae3f
00000400: 8f84 619d b1e0 a53f 1807 d385 807a b0bf
00000410: 4c65 6e73 3177 993f 0caf 9748 9a4a a5bf
00000420: 46ee 949b 499b aabf 2580 24c0 ef9f b83f
00000430: 9bde 3e7c f168 6a3f deac 9ccf 70bb 8c3f
00000440: 1aa8 e1e1 6dea 3cbf 180f b768 2086 21bf
00000450: fde1 d632 5248 b53f 67c7 e80e 8d91 b1bf
00000460: d6ee 5a03 8098 b5bf 4e7f c8f8 d11d aebf
00000470: 1d75 bde3 833c 90bf 5bdc 62c7 5724 9c3f
00000480: ac31 30ed 29b4 b83f 7b08 bff6 b3d4 b63f
00000490: 83b6 2901 dc0a a3bf 64ce ad1b 2d1a a0bf
000004a0: bcdf 9a7c a16b bbbf 2d4a 905b 04d4 93bf
000004b0: 4c7d 33df ef70 993f 9f6c 3f9e 1189 b13f
000004c0: cd60 31f6 6102 78bf 2bed 4941 49bf 673f
000004d0: 36d9 b45e 473a a03f 63ed 36b8 d098 b6bf
000004e0: ac8d 2f75 1328 ac3f f817 68f0 d67d b8bf
000004f0: 10c7 1cc5 396b b4bf da90 a3f7 954c b0bf
00000500: 87c8 1a85 5552 b83f 08f7 8903 32c4 aa3f
00000510: 79db 0c6b 6d02 aa3f c0b0 cf35 6bdb b43f
00000520: c341 cb84 8fc6 a6bf 772b ecb9 05ec 6e3f
00000530: f08d 6538 50eb 993f 6153 af18 f683 a23f
00000540: d998 31f5 b1dc 5dbf 964d 94fa 8ded 493f
00000550: c7ef 6408 b956 85bf 87ac dd64 73b3 a93f
00000560: 6f75 53e7 d4d8 90bf 401e 0b07 5db1 92bf
00000570: b761 9c12 ae8d a43f 1bef ca41 3f8a b83f
00000580: 2112 0e66 3e71 8f3f 37f7 580e 21a2 9abf
00000590: 9b9f f3fd 13c0 a93f 85d1 efff 917f 7cbf
000005a0: e26e 330f 6765 a0bf 49b9 44f8 3c4b 5bbf
000005b0: 692b 81a7 ca01 a1bf a117 e3fd 5445 a63f
000005c0: e555 84ef 5464 bc3f e2d1 1cf0 e7e2 97bf
000005d0: 3edc dc25 3405 aabf a057 8162 04a5 aa3f
000005e0: fb44 4c6a 5e73 99bf dc33 30d4 6ed7 923f
000005f0: c7c1 ad69 385b 93bf c6cf 8531 7906 b0bf
00000600: 77a9 c43b 6cd0 b1bf 5068 9084 c920 af3f
00000610: 9974 4a1a 950c 33bf 2c6f 8474 5808 9c3f
00000620: 18b9 0fb1 0850 82bf 250e 75f0 bf4a ae3f
00000630: 9d1d 3f0c 3968 aabf 48fc 5e8e f1ef b03f
00000640: 95ca 6c44 2741 9dbf a088 a829 e6d3 b13f
00000650: 31c3 69bf fb9d a0bf 64e7 7de0 15fa a43f
00000660: 4f04 3803 0642 b3bf 9272 e358 9423 9c3f
00000670: a05b c4d6 8510 83bf 11aa d979 2534 aabf
00000680: 3500 681b 39a9 9abf a2c3 5a21 6021 b23f
00000690: 764b 2415 945b b03f d977 8fb5 5346 b5bf
000006a0: 9b5d 2f89 5da2 a2bf 2b89 b71d 1de6 b5bf
000006b0: 9621 411d d260 74bf 4de9 c4e9 81a5 a7bf
000006c0: 13cb e1da aeff 96bf e35f cc74 452e a43f
000006d0: 1470 4052 a81f 49bf a173 e7b0 a9f3 a4bf
000006e0: 624f a1e1 59ce a13f 188a 8fbe 7076 913f
000006f0: 18c4 4c12 5c39 bc3f 1ffe b390 554d 92bf
00000700: 2f98 0879 e382 b53f 9cb3 12a5 da6e a53f
00000710: 4d20 4b85 c13a b73f 8005 5bc4 b97c 993f
00000720: 205e bb4c 5fba 933f 4992 e77b 48df 72bf
00000730: 02dd ad9b d6e9 9abf 6a26 20b3 b23b 36bf
00000740: 3c76 419d 15f8 b93f b539 fe6c 54f3 6e3f
00000750: fa5b f5aa 7319 bdbf f8be 7384 bf12 b53f
00000760: b1d2 a76a c827 b33f c76c 403e 8696 b73f
00000770: 1740 41cd cfb3 a7bf bbda 1785 c27c 903f
00000780: 8062 aaf1 e2ca a8bf 04ae 3484 02aa ad3f
00000790: 62e7 5d34 a7db a7bf 35db f9ef 3a2b 5a3f
000007a0: a079 fc12 d745 ae3f fc3d 7c3e be7e b1bf
000007b0: 6541 bcfe d62c b5bf 6038 3cc3 a49f b23f
000007c0: 5ee9 666c a34f a73f 858a 1fb6 eba6 a53f
000007d0: 7890 53ba ad2e a13f 4ed1 047b a3b1 97bf
000007e0: e66c 9c45 16f8 b6bf 6929 a82c b3ee b3bf
000007f0: 4d29 3d6f ab81 b93f e7d2 09a7 b347 a33f
-0.18405818610900476 0.14718766019371923 -0.24112764308366844 0.042994812827985375 -0.1821136739820291 -0.2245077722197524 0.08793190038898471 0.12489450895611143
0.08924762872487002 -0.15069441474373574 -0.12289109773183449 -0.12476001953823294 -0.009662286155008047 0.022883720317840514 0.11967758575562988 0.1143484820263246
0.20448139157159867 -0.1712034084394222 0.07573476583524497 0.16041873084074423 0.05190951933823117 0.11651372494146187 0.029805071063088363 0.1369712829998323
-0.5004505452347912 -0.33642023322222137 0.005914432066662143 0.09039457914418728 0.08548327652161544 -0.1021739873004727 0.48913050065481917 0.2083765518824
0.20751026411896534 -0.05610204036090233 -0.18055948483993944 -0.07971618877176435 0.08431291016386526 -0.12434323044695816 0.09270155262157624 0.07997085997311827
0.2595556213262472 -0.2888356642486597 -0.08215543326319842 -0.0676365582797322 0.011557936552233684 0.00740338983152357 -0.06872526168632977 -0.3948524853272403
-0.017070283702422778 -0.021728782039572025 0.014799348242750405 0.3516722005597053 0.0898602926113975 -0.013185068309684684 0.014529812472986995 0.1760776497920551
0.20397711123160372 0.19638605224433076 0.011907542316976355 0.04052812358176711 0.255805585848705 -0.23673213728471432 -0.23576599269204798 0.07506890295335233
0.2896666368891365 0.14259470605289318 0.013035920243433958 0.04209864563949073 0.19869923628386052 0.14012963016793997 -0.0717153873296396 0.06093000303748893
0.10504470880706925 0.02865205432326814 0.14248347703939385 0.05240797948993326 0.005631250679592199 0.339800809964692 0.08060639419010328 0.01775528847249494
0.005195472082816755 -0.13710748903932782 -0.15870012739004502 -0.0013328247357281171 -0.05710195801842294 0.2638058228053779 -0.12212284704033168 0.5368683666835701
0.7165465487177853 0.10433427260806577 -0.0948786234145568 0.21653907861751412 -0.09954500317626512 -0.06238200649226696 -0.4852720834110414 -0.056510719805131934
-0.09488320488711084 0.32107678236084153 -0.11821036145224123 -0.00392541014735257 0.09684304089431611 0.3115011029818652 0.014376003122266797 -0.026672527307239832
0.11392978657669171 0.03954451433069657 -0.16997668731194635 -0.36968425627360907 0.03126805067833845 -0.0926138163611291 0.42856979015582025 0.019611261834243214
-0.19441153760144378 -0.04863419244688278 0.20076393734426262 -0.09275226288855559 0.03896652341302728 -0.17175634063824782 0.11580660658582247 0.6019716731741724
-0.05186061463047054 -0.27081414944492205 -0.044362081568898336 -0.16713686867018848 0.11367453373196795 -0.15535606641941055 0.16098873208228284 0.05860140796169489
0.04272990270761411 -0.06436923281856044 0.024868748350489953 -0.04158479820384117 -0.0519659998339788 0.09619043770771947 0.003223868990939694 0.014029389701667613
-0.00044121916460560103 -0.00013369699114040216 0.0831347822303385 -0.06862718214031603 -0.08435821611322622 -0.0588212600889607 -0.015855847144270564 0.02748238710838922
0.09649908104638055 0.08918308996274675 -0.03719222559162196 -0.03144970858457155 -0.1071110657893532 -0.01936346825466211 0.024844882963291057 0.06849775422544944
-0.005861647284369731 0.0028988295328510514 0.031694631872982645 -0.0882692765944078 0.054993255667592805 -0.09567016000082151 -0.07976113378824956 -0.06366860671875277
0.09500631808876579 0.05227810185622955 0.050799769704489024 0.08147306503059593 -0.04448364730854195 0.0037746536103261913 0.0253117117330372 0.036163034928597744
-0.001822637354757675 0.0007912581687911531 -0.010419316834138116 0.05019722563050615 -0.016452147120494084 -0.018254712633988257 0.040143432399591665 0.09585948330180509
0.015352714051695195 -0.026009098530486354 0.05029356455798891 -0.006957598029647354 -0.03202364025648109 -0.0016658873947324618 -0.03321679396375183 0.04349771117408286
0.11090594146329343 -0.023326515226658524 -0.050820951101222964 0.0520402307744654 -0.02485415958205282 0.01839993639082481 -0.01890266556751088 -0.06259877642679532
-0.06958652934250674 0.06079702132429132 -0.0002906669636020903 0.02737558566251079 -0.008941715148435267 0.059164045431796354 -0.05157640718931165 0.06616124845366855
-0.028568852950409413 0.06963957325982273 -0.03245531760774723 0.04097050061586918 -0.0752261884554326 0.027479474950143308 -0.009308858505887418 -0.05117909538678956
-0.026036159799332565 0.07082176985092173 0.06389737621456767 -0.08310435469272139 -0.03639499950048305 -0.085542506938087 -0.004975147971045498 -0.046184596811559155
-0.022459728345391627 0.03941552210579837 -0.0007667133218123312 -0.04092150005792595 0.03477745894693275 0.017053376799490122 0.11025023886465168 -0.017873131710983366
0.08402845101281352 0.04186137452175062 0.09074029449686911 0.02488985310515579 0.019265641268104372 -0.004607470646508968 -0.02628264737310549 -0.00033925164018509
0.10144171799898855 0.003778138059664838 -0.11366961406507406 0.08231732352919241 0.07482578853507495 0.09214056987586892 -0.0462937295966414 0.016100921033251874
-0.0484229011537467 0.05793769706573573 -0.04659769548648175 0.001597220951138301 0.05912658793225778 -0.06834019685287979 -0.08271545142293275 0.07274846807942614
0.045529467566171475 0.04228912923988041 0.03355925464146109 -0.02313857496592791 -0.08972300719726753 -0.07786102142578034 0.09963485208314644 0.03765641607325226

layers.1.bias f8 [100]
00000000: 39b8 5fb8 3b0d 7c3f 0ebf d7f3 73b7 b6bf
00000010: c4e0 a07d e186 9fbf 8c1c e98a dea0 b03f
00000020: 2310 b80b 02b3 973f abe8 0c19 c9c0 8d3f
00000030: 0000 0080 4560 9fbf c63b e69f 6feb 5a3f
00000040: f094 1c16 d541 a3bf e24b f108 475b a9bf
00000050: 02bf ad80 1c63 86bf e0c9 84fa 79e7 a83f
00000060: fa08 75ac e11e 95bf 7eeb 8903 cfdb b13f
00000070: 7baf 7726 2420 b53f 2808 94de b42b a7bf
00000080: 6b4b 273b 76b0 b7bf 139c cad4 e74d bdbf
00000090: f802 04b5 e9c4 9e3f 8e2f 8e1f 817a b1bf
000000a0: af8e c7f7 898c 983f 6939 167c 1a4d b2bf
000000b0: 3aef 0672 dd4f 98bf 2375 ab6a 630d c53f
000000c0: 7d74 4b3a aea0 c93f 1e7f 2e40 0dff ab3f
000000d0: b1b2 9a82 3df3 98bf a7c3 bee7 98f8 7d3f
000000e0: 5504 e099 eda3 b2bf 67b5 9cb3 a6b4 b3bf
000000f0: e13f bcdf 2171 b33f b854 9517 5c43 763f
00000100: 0000 00e0 a425 aabf 3620 a972 fd3a a8bf
00000110: 9473 eaf9 822f 37bf 5c54 4dc3 f3ec a7bf
00000120: ac36 322e 1210 abbf 0bff 86c7 57f6 913f
00000130: 8732 a3a3 4d48 adbf 8a9b 0fe7 bdfb 71bf
00000140: 59ee 3803 df79 b1bf 4362 c002 9d7b ad3f
00000150: af61 bd69 648c 953f cd86 d65e 159d 7dbf
00000160: 5dd9 8820 8e48 b33f c114 87cc cf2e 99bf
00000170: e426 3722 428f c13f 1c1b 2fdc 6417 babf
00000180: 78a3 8846 6f88 b4bf b063 ce59 6d93 96bf
00000190: 3bc6 a58c efbc 9bbf 09b4 c954 1c86 a73f
000001a0: 87ee f650 3dbe a83f d3b7 391c e176 bbbf
000001b0: cc3d 9b60 679f 743f fe0b 09fb 5351 a0bf
000001c0: 2625 196d 7140 b5bf 1958 97f4 5dbb c73f
000001d0: cea8 c902 a0db 973f 4987 cf88 5c32 79bf
000001e0: ad07 f585 9f96 b0bf 8e61 8b96 ef15 a13f
000001f0: b3e4 804a 3114 b2bf 0000 0040 0efd a3bf
00000200: fea9 640a 3987 91bf f836 65e8 026d b23f
00000210: 9b06 be02 ada5 b8bf 46c4 fd85 4ee4 a93f
00000220: 9ff7 0995 2d0d 9d3f 32c2 60f9 c42c 8dbf
00000230: 0000 0020 f3db 78bf 3b1e c3e6 647a 91bf
00000240: 6dcf ff51 6f35 643f a525 9a5f ef6b d33f
00000250: 583a ffe2 3fce b53f 6b60 aa2f 9913 72bf
00000260: 223b 922f 9c41 ab3f 8b8d 99c7 4f1c a53f
00000270: 0489 5b1f 90cb b03f 1a77 c517 ca96 cf3f
00000280: 0abc 3dd1 2c66 a7bf df7e fa74 28cf b13f
00000290: f8ae fde2 480c abbf 9082 13bb 589b 7dbf
000002a0: 8bfb 0df7 b8b0 a93f c41c 0cf6 1ba8 823f
000002b0: fd9f 5284 3748 a7bf 0000 00a0 b3f6 a4bf
000002c0: ea24 8c06 487b b03f 114d 6f98 19c0 b4bf
000002d0: 0000 00a0 85c6 a5bf 4d0e 5581 f7fb b5bf
000002e0: 9737 aeba bcc9 bfbf 13c9 cac1 743f babf
000002f0: 0388 4a0f b789 9bbf f4c2 6ecc 6d32 9dbf
00000300: 559f d616 ee9c b23f 0000 00c0 01b1 a8bf
00000310: 1312 f58d 2eac be3f e0cd be63 0a51 90bf
0.006848557741234323 -0.0887367697066532 -0.0307879670073994 0.06495467082378265 0.02314379879500462 0.01452786548326331 -0.030640684068202972 0.0016430463871050945
-0.0376116361133344 -0.04952451690828476 -0.010931227375948097 0.04864102538194337 -0.020625616217565736 0.06976026379008535 0.08252168597362967 -0.04525532929439208
-0.0925363439958297 -0.11446999497512449 0.030048038171119423 -0.06827551861186817 0.023973613498937393 -0.07148900536978932 -0.023742160877858277 0.16447107990726648
0.2002160820619884 0.05468026550738457 -0.024365388008549874 0.007317158971930227 -0.07281384474482995 -0.07697526822149357 0.07594501220978557 0.005435332999089208
-0.05106845125555992 -0.047325058218632796 -0.0003537840620227381 -0.046729676809868365 -0.05285698713224227 0.017541286042386733 -0.05719225523498488 -0.004390470320663984
-0.06826585606261783 0.0575837198122753 0.021043366388171666 -0.007229884603846504 0.07532585424710221 -0.024592635019662582 0.13718439741778987 -0.1019194638784992
-0.08020682785048716 -0.022046764952026343 -0.027087920150228078 0.04594505820282541 0.048326412328120454 -0.10728270472620176 0.005034831827017649 -0.031870483774149236
-0.08301457322626912 0.1854054874699507 0.02329874054923025 -0.006151544058384869 -0.06479832668722336 0.03337048256588836 -0.07062061375553945 -0.039040036499500275
-0.017117396602012384 0.07197588132586563 -0.09627801243734739 0.050569967132908775 0.02837058279191462 -0.014245547161494707 -0.006069135386496782 -0.01706845911465236
0.002466885969619462 0.30346283279558356 0.08517836849134974 -0.0044132217250521895 0.05323494034484201 0.04123162566682045 0.0656061245495359 0.24678922806463605
-0.04570140890324843 0.06956723075790759 -0.052828099926811534 -0.007228228191906397 0.05017641082576237 0.009109705396907926 -0.04547284593837728 -0.04094468429684639
0.0643811241135556 -0.08105621310760493 -0.042530227452516556 -0.08587595851445791 -0.12417201573972957 -0.10253076297047796 -0.026892528827950467 -0.028512683489398463
0.07270706231667863 -0.04822545498609543 0.11981478658442084 -0.015934145296069846

layers.3.weight f8 [100]
00000000: 74d7 2656 b485 f13f 7c68 5b13 3e8c ef3f
00000010: ec47 4e5d 17f3 f13f 39ef 93e7 eba2 ef3f
00000020: 955e ad76 5ea8 e93f c080 0e02 e180 f83f
00000030: 0000 0000 0000 f03f 8f4d dca5 b203 f23f
00000040: 886e e221 0cb4 e73f bf22 2837 e936 f23f
00000050: f96a 9639 22c6 e53f 1219 2952 8898 f43f
00000060: 84a4 074f f030 e43f cfbf 7df6 8c19 eb3f
00000070: 4c2e fa6a 8cda ef3f 7fff 4ba3 9dd4 ee3f
00000080: d8c9 694d 8ea9 ef3f ff40 610b d4fb ee3f
00000090: b7d6 3305 2f88 dc3f 0fb6 5256 7927 f03f
000000a0: 59a6 aa7e 7cea e13f ea9b 1582 b9da ed3f
000000b0: 01ce 5fc0 a602 f03f b9e4 c07c 3586 eb3f
000000c0: 6ce1 daa0 6d22 e93f c6a8 01a6 b1b2 ef3f
000000d0: 018f 9f4f 7ac2 eb3f aaf0 12f8 10d2 ee3f
000000e0: fc6b ee05 fe07 f03f 16ce 9f31 9918 f03f
000000f0: e866 b7cc cde2 ef3f 69f7 6290 97d7 f03f
00000100: 0000 0000 0000 f03f c85c fd1c dc95 ef3f
00000110: fece 11c2 4660 ea3f ed69 8b0d 5fe7 ef3f
00000120: ebd6 bce5 eaaf ef3f a3c3 c709 a36f ea3f
00000130: 6783 be94 cdce ef3f ca12 8e80 004d e93f
00000140: f17f 21c2 95fc ee3f 4c4c e031 0dc9 ec3f
00000150: d390 e96a a504 f03f 6d79 31b1 bf93 f03f
00000160: a5c8 9228 0ac2 ef3f 1bd4 0c70 ca29 e93f
00000170: eca1 c6a4 418c f33f 8c5a 80d3 37fc ee3f
00000180: 557d cbda 5c45 ef3f de52 30a1 35ea e23f
00000190: fd4a c292 da9b f03f 68c7 4074 3c3e e83f
000001a0: 450b df6c c316 f03f aa85 4622 2b37 ef3f
000001b0: bbce ea81 19d2 ee3f 3408 7a51 8de4 f33f
000001c0: 0440 c8d1 6f04 ed3f 6512 9c51 eafa e93f
000001d0: 50bd 64f5 ddfb ee3f 3a85 0194 688c f03f
000001e0: 76c9 e04c 72ba ed3f 8fe6 51ba 23ae ee3f
000001f0: 5a1a 4444 c116 ef3f 0000 0000 0000 f03f
00000200: f7da 5785 af1c f43f 1bab 48f0 d606 ee3f
00000210: 35b4 9f70 d9fb ee3f 3038 7cfb d3a5 f33f
00000220: 20d7 061f 0171 f63f afe0 e31a 4c03 ec3f
00000230: 0000 0000 0000 f03f f83c 4573 9bfc ee3f
00000240: 9736 8244 d64b ed3f 316a 0dc1 0440 f13f
00000250: c2a5 6d43 d778 ed3f c81e 2396 6625 ee3f
00000260: 4cc6 b697 8471 f13f 2e81 252c 3e80 f03f
00000270: c350 b0c5 2dfa ef3f 4de4 e5af e38a ed3f
00000280: cc56 9aaa afda ed3f 5d50 c161 e713 f23f
00000290: cbb8 968b a49a ef3f fe86 365f 171a f13f
000002a0: 4615 e2ed e609 f03f 406b 0804 3f9c ef3f
000002b0: 9b7b 019c b833 f03f 0000 0000 0000 f03f
000002c0: e66d c315 8319 f03f 21b1 bcf4 84be e93f
000002d0: 0000 0000 0000 f03f a479 d2ed b50f f03f
000002e0: 95a3 98d1 a058 f03f a6c0 ae41 89a3 ea3f
000002f0: b0fc 5eed 61d0 ee3f 1b62 a98b cdce ef3f
00000300: 85df 890a 3e25 f03f 0000 0000 0000 f03f
00000310: 0458 f946 0620 f43f 2290 1054 8960 e73f
1.0951426854421387 0.9858694437091482 1.1218484539754128 0.9886378787045721 0.8018028562464276 1.5314645843828174 1.0 1.1259027937820496
0.7407284414106963 1.1384060053407408 0.6804362416035864 1.2872393807788893 0.6309739631225431 0.8468689741403014 0.9954282845878395 0.9634540738479557
0.9894477378823536 0.9682407591117509 0.44581199176841885 1.0096372005458567 0.5598738168675467 0.9329497853003634 1.0006473078364027 0.8601329266158678
0.7854526654910337 0.9905632250131695 0.8674899630682092 0.9631428570933356 1.0019512397473127 1.006005472035104 0.9964360235564671 1.0526347770787317
1.0 0.9870434347348231 0.8242524900838075 0.9969935669462849 0.9902243125022471 0.8261275473615693 0.9939945130500804 0.7906496535147991
0.9683331290834741 0.899542424597152 1.0011343170418072 1.0360714837657625 0.9924364845703805 0.7863514126280536 1.2217422901686588 0.9682883387457237
0.9772171281182788 0.591090025731855 1.0380502445956943 0.7575971861426583 1.0055574658187691 0.9754844350283538 0.963146928543629 1.2432988341029274
0.9067916009244077 0.8118793100298488 0.9682454865305008 1.0342794209939954 0.9290095807576069 0.9587572707234403 0.9715277036019174 1.0
1.2570033272474441 0.9383349125904233 0.9682433318790858 1.227985365261258 1.4025889598828556 0.8754025006483256 1.0 0.9683358432174876
0.9155074441966516 1.0781295338735044 0.9210010830840292 0.9420655186049425 1.0902143408133211 1.0313092922661542 0.9992894040210775 0.9232042727954962
0.9329450924003253 1.1298593348083366 0.9876272894232668 1.0688699454553325 1.0024174969015163 0.9878230170028033 1.0126272291160834 1.0
1.006228528035416 0.8045067577382136 1.0 1.003835610382887 1.021637743697487 0.8324629099716006 0.9629373203423679 0.9939944961325325
1.0090923701918382 1.0 1.2578184864446493 0.7305342332733782

layers.3.bias f8 [100]
00000000: 3ad7 b1ac 4cf3 be3f ee6e 98a4 063f 953f
00000010: 1383 3526 99a9 b0bf 7b42 55cc 6328 88bf
00000020: 55e4 5b90 15c7 babf f2e7 4ce0 71e1 b03f
00000030: cfb7 a978 0b4f 97bf f017 cfda 01d5 c0bf
00000040: ae42 1721 e0fc b23f 5f89 b445 a838 933f
00000050: 3c46 59fe b3d2 c7bf e80a 30b8 e51a a8bf
00000060: e07b 9a87 6d1d d2bf e63f 4a0d dbf6 9fbf
00000070: ac0b b181 6bdc a0bf 5df8 2bab cedb b83f
00000080: 102b 1ca2 9284 a3bf e1be aa89 f9f5 d13f
00000090: 06a5 9211 b781 d43f b2c3 c14b 48b3 c0bf
000000a0: f7b2 2b2a ec0b cc3f f458 b881 3faa c0bf
000000b0: 2299 516b c65a 91bf 2cec 0131 80ed d4bf
000000c0: 19c9 29ff 37f8 bc3f 785c 1ea7 d6be 973f
000000d0: c1db 3051 94b0 d4bf 4014 9c6f 40ab bbbf
000000e0: c218 f730 6abf 923f 0e84 10c7 16db b93f
000000f0: 23b2 b334 78a5 90bf ef26 f546 f95f a1bf
00000100: 2afd ce38 6373 babf 5388 e52a e485 adbf
00000110: e4fb 3c12 fda9 b53f b0f3 e6ef 303a 61bf
00000120: 15b6 7cc4 5797 bf3f 884b d995 0abf b43f
00000130: 07cf bfa2 dd6b aebf 424b 0275 a7ed d3bf
00000140: 1de9 e5fb 5247 cc3f f751 7751 35af 853f
00000150: 6d67 28bc 46b6 9e3f 008e ed67 c4b7 a6bf
00000160: 1b6d 0fd2 92f6 8c3f 3e30 a9b6 b8c2 cf3f
00000170: 6ed9 054d 6c19 b9bf d09e 6d4c d432 c6bf
00000180: 53ff 9bfd 8424 95bf ba35 a14d e309 b1bf
00000190: 939d e50d 7190 b13f 08f9 589e 3062 b7bf
000001a0: 4a00 0c76 997c 86bf f0c6 f707 170f 97bf
000001b0: 16d2 4648 39e9 babf c046 7b5b 2fca 93bf
000001c0: 72bc 8bbd 8c0c b4bf 28c8 5364 665b c3bf
000001d0: 9145 fab9 7942 cd3f c7db 5344 fb8e 91bf
000001e0: 9e55 4293 64b2 c93f ad3f 5cdb 5e4a cdbf
000001f0: 22d1 b444 10ec bf3f 8e92 c8b2 7ad5 c83f
00000200: efcc 59e3 0686 a6bf f6c4 0017 7a68 d0bf
00000210: 221c b41c db47 a93f 33e5 87e7 878b cdbf
00000220: 8f35 9e4e e774 b4bf 1e45 9831 873f be3f
00000230: 88eb 2ffe 1c1f 43bf 89db c15c 7ba2 c53f
00000240: 31ed 5c22 6c0b 88bf 267c b85e 5857 d7bf
00000250: cbc8 36f7 9650 bc3f c0b8 2ef3 7153 a33f
00000260: 3b69 9c86 8643 d03f 248c bb95 1dc4 cb3f
00000270: dc7c d045 0bd0 963f d712 b703 5e6d c7bf
00000280: ef87 0d24 68d9 c7bf 662f 5daa 9768 ce3f
00000290: a567 da24 1351 9bbf f2df 79ec 7abc b03f
000002a0: 373e f25c c830 b6bf cd85 61ba bd9e c2bf
000002b0: eca6 066e 3845 af3f deca d1a6 5e58 ad3f
000002c0: aef8 bc8f 6958 a43f 34bf 3fbd 37d6 b63f
000002d0: b884 4340 e878 cbbf bfa6 b06d b361 8dbf
000002e0: 5eb6 f285 f5a2 b1bf d540 ab3f b478 c2bf
000002f0: 70fc b684 4a07 9d3f 3279 d0b2 77f3 a83f
00000300: 6329 f031 db76 933f 7af1 13dd c6fa b73f
00000310: 31c4 5c62 1b99 b1bf 1334 1ec0 3d7b d2bf
0.12089995590380634 0.020748237415417252 -0.06508786375844648 -0.011795787499665913 -0.10460028433216569 0.06594001508793193 -0.022762469520266223 -0.13150046524077608
0.0741710739887462 0.01877081799933344 -0.18611764830943567 -0.047080210431905745 -0.28304613344692875 -0.0312151171552272 -0.032931670743458014 0.09710399321554193
-0.03812082508928516 0.28063810771980796 0.3204171821221994 -0.13047126483027466 0.21911384638897122 -0.13019555887212386 -0.016947841930595627 -0.32699589525117534
0.1131625173527805 0.023188928556546945 -0.32327754906458145 -0.10808184361310769 0.018308314550971934 0.10099928245519171 -0.01625621625582786 -0.033935346519298075
-0.10332317482879164 -0.057662134395983465 0.08462506957310684 -0.002102943020160862 0.12340305850076334 0.08104005964677985 -0.059416700474598065 -0.3113802569070466
0.22092664050780622 0.010588089512489225 0.02999220393585438 -0.04437078255321225 0.014142176661997177 0.24812992972363362 -0.09804417496147774 -0.17342618686529088
-0.020647123316847992 -0.0665571274305056 0.06861025418549209 -0.09134200921923619 -0.010979842104916444 -0.02251850114948345 -0.10512121214453204 -0.019325962027159305
-0.07831649425109946 -0.15122680567543623 0.22859117108286545 -0.017146993680366564 0.20075661840807596 -0.22883210860208916 0.12469579389000221 0.19401487092649855
-0.04399129414823643 -0.2563767647398686 0.049376342061855164 -0.23082064442841385 -0.07990880650887376 0.11815686188517247 -0.0005835429732309197 0.16902105359232802
-0.011740536497760164 -0.3647061276441853 0.11060470138071136 0.037746010718693324 0.2541214289245947 0.21692247210657556 0.022278000007756357 -0.18302512341883556
-0.18632222900765735 0.2375669080596438 -0.026676463245713617 0.06537597916928897 -0.08668186444469304 -0.14546939468986722 0.06107498496142036 0.05731483255740043
0.039737032695925975 0.08920620317780675 -0.21462729585531348 -0.014346505913710115 -0.06889280815331619 -0.1443085966952881 0.02834812579180518 0.048732510164187906
0.01900808803842703 0.09367030045900107 -0.06874247695374504 -0.2887720466758889

layers.3.running_mean f8 [100]
00000000: 02e2 592c 5f61 1e40 0500 0000 0000 0000
00000010: 0500 0000 0000 0000 0500 0000 0000 0000
00000020: fcc5 e0a1 b94c f72b 5ec2 b982 80ba 2a40
00000030: 0000 0000 0000 0000 5546 be7a de6b 2b2b
00000040: 088d 4874 a67f e836 0500 0000 0000 0000
00000050: 8a03 9204 8067 1b40 b0e6 67ca 6c7c 2d2b
00000060: 985d 4fc2 f429 e12b 67c9 186c 5415 772b
00000070: 0500 0000 0000 0000 0500 0000 0000 0000
00000080: 0500 0000 0000 0000 0500 0000 0000 0000
00000090: edab 06f8 6d25 0640 0500 0000 0000 0000
000000a0: aa62 fa1f bfb4 3640 2dab 8a4c 858c 3440
000000b0: 0500 0000 0000 0000 1234 cd64 ca3d 1b40
000000c0: a3b4 a5d5 e2aa 2040 0500 0000 0000 0000
000000d0: 9311 5dff 9d4c 2140 0500 0000 0000 0000
000000e0: 0500 0000 0000 0000 0500 0000 0000 0000
000000f0: 0500 0000 0000 0000 9017 48fe 34a7 2a40
00000100: 0000 0000 0000 0000 0500 0000 0000 0000
00000110: 745c d4f7 8842 862b 0500 0000 0000 0000
00000120: 0500 0000 0000 0000 8288 43aa a53e 1540
00000130: 0500 0000 0000 0000 c64a 6042 7fae 0040
00000140: 0500 0000 0000 0000 e23d 2ec7 1e21 2e40
00000150: 0500 0000 0000 0000 0500 0000 0000 0000
00000160: 0500 0000 0000 0000 ae19 11a9 8184 3040
00000170: 2018 0e90 6f5d 2040 9c3d f502 3d09 332c
00000180: 0500 0000 0000 0000 deb7 c236 5b9e 1540
00000190: 0500 0000 0000 0000 0500 0000 0000 0000
000001a0: 0500 0000 0000 0000 0500 0000 0000 0000
000001b0: 0500 0000 0000 0000 67ac a768 b50a 3040
000001c0: 0500 0000 0000 0000 66a2 b301 526e 1540
000001d0: 0500 0000 0000 0000 0500 0000 0000 0000
000001e0: 0500 0000 0000 0000 189a 48db 2de6 6e2b
000001f0: 0500 0000 0000 0000 0000 0000 0000 0000
00000200: 821c cb26 4cbd 1140 a026 fb7b a767 2040
00000210: 0500 0000 0000 0000 0500 0000 0000 0000
00000220: 0856 3b64 0501 3240 2613 f72e 596d 2e40
00000230: 0000 0000 0000 0000 0500 0000 0000 0000
00000240: 69d5 8f44 05bf 2440 ccd1 97b9 e46c 0240
00000250: 0500 0000 0000 0000 0500 0000 0000 0000
00000260: a5b7 f8e5 42d8 1d40 0500 0000 0000 0000
00000270: 0500 0000 0000 0000 1e46 6fa1 dd62 1840
00000280: 0500 0000 0000 0000 6ead a94b b76a 3440
00000290: 0500 0000 0000 0000 0500 0000 0000 0000
000002a0: 0500 0000 0000 0000 0500 0000 0000 0000
000002b0: 0500 0000 0000 0000 0000 0000 0000 0000
000002c0: 0500 0000 0000 0000 649f 3049 0d32 1640
000002d0: 0000 0000 0000 0000 0500 0000 0000 0000
000002e0: 0500 0000 0000 0000 0500 0000 0000 0000
000002f0: 0500 0000 0000 0000 0500 0000 0000 0000
00000300: 0500 0000 0000 0000 0000 0000 0000 0000
00000310: c4b3 fed7 1002 2140 c061 c016 d85a 2940
7.595089619623197 2.5e-323 2.5e-323 2.5e-323 6.81760561183985e-97 13.364261708427133 0.0 9.794460234991709e-101
3.4329897697809663e-44 2.5e-323 6.851074286853768 1.0531926949810456e-100 2.511118204322199e-97 2.638394305897875e-99 2.5e-323 2.5e-323
2.5e-323 2.5e-323 2.7682761551891333 2.5e-323 22.70604133475232 20.548908981184628 2.5e-323 6.8103423834081855
8.333761860349403 2.5e-323 8.649642925368232 2.5e-323 2.5e-323 2.5e-323 2.5e-323 13.32657618169813
0.0 2.5e-323 5.088557570214602e-99 2.5e-323 2.5e-323 5.311178837177183 2.5e-323 2.085203665317155
2.5e-323 15.064687942881339 2.5e-323 2.5e-323 2.5e-323 16.517603460955506 8.182491780968178 8.912079938834656e-96
2.5e-323 5.404644828447969 2.5e-323 2.5e-323 2.5e-323 2.5e-323 2.5e-323 16.041830578742886
2.5e-323 5.357734705533039 2.5e-323 2.5e-323 2.5e-323 1.7658662119596707e-99 2.5e-323 0.0
4.43486080755895 8.202449678810183 2.5e-323 2.5e-323 18.003988518225043 15.213571040783403 0.0 2.5e-323
10.373087065275017 2.3031706332642212 2.5e-323 2.5e-323 7.4611926968627005 2.5e-323 2.5e-323 6.0965485786596485
2.5e-323 20.416859368252908 2.5e-323 2.5e-323 2.5e-323 2.5e-323 2.5e-323 0.0
2.5e-323 5.548878806679429 0.0 2.5e-323 2.5e-323 2.5e-323 2.5e-323 2.5e-323
2.5e-323 0.0 8.504034757463053 12.677429877266036
