model_policy2_epoch-280.pt (torch, 373942 bytes, 28 tensors)

layers.0.weight f8 [128, 128]
-0.6650892469324269 -0.5022188177633439 -0.41957450112546635 0.1358618511293037 -0.16725009235582067 -0.010233564962753787 -0.13863384104633122 -0.0048181219336971
-0.18639113162655874 0.3670512239237515 0.00046290119907154646 0.09319332384088794 -0.2415163602862011 -0.5301291222105116 -0.3771264183176154 -1.2442530153535591
-0.08690564178755979 -0.12044497828762459 0.2942175925049322 -0.2718113727207699 -0.44441221761840194 0.2787045219447075 0.49945052156650277 -1.0749515912179932
0.8637697014868222 -0.5757254908823688 -0.46145688800598755 -0.7759755064073531 -0.6341938440884982 -0.4829010009331242 0.45579498238455274 0.5253941826808591
-2.5395376012522117 0.12026929733071354 -0.22168080220433314 0.391412217663103 0.46659043616733425 -0.8102454951150637 -0.645439321916975 -2.0923705313826866
-0.8609024900597272 -0.02840618699431586 -0.48241680977159546 0.3292833045298967 0.07276985997804516 -0.987620235433072 0.23325387375789455 0.10923555679777319
0.502225128162854 -1.1595336221438652 -2.0398496117660945 -0.6215920876134751 -0.2239699502572318 -0.06589943246198318 -1.2477283230934275 0.07839779226941401
0.22231984568136032 0.6239082374379525 0.32426494556390506 0.17945299164230225 -0.6437619962888788 -0.09589786874276551 -0.8167164130321843 0.8555524606780122
0.46102234102890194 -0.11667107711636045 0.04149585348166835 0.05190481927518263 0.5173339738421638 0.5283476294947401 0.4783352322374218 1.0165454721284972
0.041483320483448695 -0.15874626688644444 0.18269849261631158 0.05794556129254655 0.2580219577252178 0.2685773261612941 0.1691181360968275 0.6736219302601875
-0.07933272534421888 -0.051529039227505895 -0.13996908152918947 0.8880747682614939 0.6304674611786563 -0.03892554716499447 0.11385130495610518 1.2099151945757096
0.09479710928227755 0.39814633738814287 0.41411045849229916 0.3976764531687028 0.08023635554171546 0.17125082221634177 0.04970506324889776 0.8411295909106898
1.8967727538109092 0.9649606837380407 -0.2614482246755334 0.244468472122957 0.47020973449830433 0.7583740069878846 1.2862771840946976 1.0292472457893316
-0.30650739421434847 -0.0923758533743516 1.287793926919844 -0.0367077676632566 -0.7047306878553403 1.0402349975210095 0.8578778974367465 0.7814207669503614
-0.5066221543900181 1.4781117840010773 2.0302786356317317 0.5522621070184709 0.3357479219380042 -0.46009110233547196 1.2130626671460327 0.01323447045469156
-0.992508908275697 -0.2297422428158581 0.17000978775981646 0.4641541140973929 0.7597891744957477 -0.2413867340894687 0.5567155228415772 -0.32824670047480553
-0.725725065884162 -0.3159734340624125 -0.8586998309230369 -0.7791561976266071 -0.7374734599199899 -0.6945330735893149 -0.48141641273796465 -0.6671257295722063
-0.9717168170717663 -0.6615637433538624 -0.8648246637159782 -0.7298661352923014 -0.647823076938431 -0.5121073152848646 -0.5466152908532635 -0.7130883627333979
-0.7870373911924452 -0.6695954815579691 -0.5180433050702673 -0.8013653219298366 -0.813012370154694 -0.6537411466626536 -0.3386083343831477 -0.9095717518629448
-0.5741909567694458 -0.9162018056261031 -0.9237152261012044 -0.3583421952256538 -0.5369183205358131 -0.651610357350663 -0.691695239803225 -1.0627031589696336
-0.5816726468139017 -0.7664090536768032 -0.9878266377696269 -0.5776950027157844 -0.7218511464430913 -0.9193644160072761 -0.7579408490901528 -0.6951067635417382
-0.25909979900414365 -0.5046882776522971 -0.2616751609205 -0.6574501434091822 -0.43474001789465627 -0.6552513734046559 -0.16756684961716084 -0.6661705512528273
0.018791318608090104 -0.6196134386704406 -0.8877395822938363 -0.5525254036567694 -0.7756848131893187 -0.6026490225521253 -0.5377057701073783 -0.516800028322593
0.008153345560060685 0.3434312524995322 -0.7318658652525809 -0.7060226626472154 -0.2038605975612171 -0.6302152473204758 -0.7952292380208337 -0.4632757585441389
0.6008759424714708 0.47569505183021565 0.7684667207287762 0.7694435745025514 0.8761734472718756 0.7444780991927723 0.49739790866063255 0.7789352258436774
0.7252299254396302 0.9085409467940184 1.1323506933328058 0.8041775294403825 0.7182503888798104 0.8105952957823512 0.7283404252121757 0.6917858423530118
0.5393257468479106 0.7497091362327619 0.592629240047954 0.9537553641404493 0.6885568905583441 0.9147526874282105 0.47275955741340253 0.9558136270887301
0.6673310458229935 0.7177551994392167 0.8177401384342449 0.5912108615690838 0.810355484560581 0.8104406797739581 0.7338614187740681 0.6605773687445234
1.264410145783363 0.6778153576831772 0.9444137653154621 0.912490333930417 0.8140425855906763 0.9137588453325368 0.7501801272283596 1.2108667356419713
0.20108009821096107 0.5451737325985591 0.8144347358566154 0.6054636338721351 0.3537827418456047 0.6181525710479007 0.3471444178423373 0.8799630551101566
-0.03423005498405419 0.5305780644143075 1.1674760747519755 0.8733282903077151 0.6304544043971773 0.5209720322963013 0.7231355494205747 0.49005953874079844
0.4830383633430974 0.2123782907163364 0.5543274220973516 0.5921575763516667 0.268415083432213 0.6730858566130505 0.7290233398443421 0.44610996548682197
00000000: 93df 8f3e 6948 e5bf cd56 b732 2d12 e0bf
00000010: f070 2402 4fda dabf b0eb afcf eb63 c13f
00000020: d8ea 7576 7368 c5bf dc30 b1d6 55f5 84bf
00000030: 6fd8 b4f2 c0be c1bf e047 22c2 2abc 73bf
00000040: 38dd 4c23 aadb c7bf ef64 ad6a c47d d73f
00000050: 8fff e382 3156 3e3f 8e26 1a86 84db b73f
00000060: 6e68 7012 02ea cebf 88a4 5159 d1f6 e0bf
00000070: fa6e 48d8 d622 d8bf 6949 8ed9 75e8 f3bf
00000080: 01c2 50b9 723f b6bf 9978 b66a 7bd5 bebf
00000090: c4db 6d06 76d4 d23f 890f 2187 5b65 d1bf
000000a0: ab49 27f1 3f71 dcbf 44fd bf7d 4bd6 d13f
000000b0: 174a 0652 fff6 df3f f407 9170 0033 f1bf
000000c0: b22b 655b 00a4 eb3f b806 5add 576c e2bf
000000d0: 49fa 9f78 8288 ddbf 2788 d095 cad4 e8bf
000000e0: 6ee8 75e3 504b e4bf e7a8 8d99 d9e7 debf
000000f0: 7671 c1b7 be2b dd3f 1fef 0376 07d0 e03f
00000100: 6cb9 0217 f950 04c0 8e91 bffa f7c9 be3f
00000110: 1b30 cf59 0960 ccbf 098b 87d4 e50c d93f
00000120: cfc3 fd21 9edc dd3f 5004 e8f5 87ed e9bf
00000130: 44f2 655d 70a7 e4bf e538 dbc2 2cbd 00c0
00000140: 6f3f fb60 838c ebbf 621e 94f0 8216 9dbf
00000150: 339e 40c1 eadf debf 21c8 0448 fa12 d53f
00000160: f67d bda8 0ba1 b23f 11b1 81c0 959a efbf
00000170: d54c ba4f 43db cd3f c0bc 0188 dcf6 bb3f
00000180: 320b 966e 3a12 e03f 7186 9b20 738d f2bf
00000190: 7159 5aac 9c51 00c0 5e12 f816 15e4 e3bf
000001a0: 8d1e d21d 0cab ccbf 2aca 3f03 c9de b0bf
000001b0: c6aa 5ff9 b1f6 f3bf 2830 e0b1 e011 b43f
000001c0: c402 3a09 fa74 cc3f 4408 7068 0ef7 e33f
000001d0: 94ea 1bc2 c1c0 d43f 49f3 22cd 50f8 c63f
000001e0: 32fd 0ec2 b299 e4bf 789b 0142 c38c b8bf
000001f0: 938c 8275 8a22 eabf fdfa d38d af60 eb3f
00000200: 9272 5cd9 6381 dd3f b596 9adc 27de bdbf
00000210: c92a 3fcb f13e a53f ae59 95ba 4493 aa3f
00000220: c660 58fa ff8d e03f 492b b349 39e8 e03f
00000230: a2fe be60 0b9d de3f 3905 5b2f c543 f03f
00000240: cd9e 9c41 4d3d a53f c4d6 5134 cc51 c4bf
00000250: 2164 6809 aa62 c73f dc52 6665 0aab ad3f
00000260: e319 8587 6e83 d03f 21d5 13f4 5e30 d13f
00000270: 0922 d9bf a9a5 c53f adbf 0a94 4f8e e53f
00000280: e120 db44 264f b4bf 6789 8da4 0362 aabf
00000290: 423c cfc1 81ea c1bf a7bf c2c6 1b6b ec3f
000002a0: 168b de18 ca2c e43f b8e8 1aa0 0cee a3bf
000002b0: 80b5 64ef 5b25 bd3f ab2d fa08 d05b f33f
000002c0: 966a 1f94 9f44 b83f 20ac 86c6 3a7b d93f
000002d0: bffb 0927 c980 da3f 3aed 2ff0 8773 d93f
000002e0: 467c 00ab 5e8a b43f bf88 6a04 8ceb c53f
000002f0: 5c02 332a f172 a93f c118 959a 88ea ea3f
00000300: c8fc 1863 2e59 fe3f f694 523a f5e0 ee3f
00000310: 0809 a555 91bb d0bf 7de9 552e be4a cf3f
00000320: 7d96 fb91 ea17 de3f 36c8 c490 9944 e83f
00000330: 7371 7462 9794 f43f af9c c2f5 cb77 f03f
00000340: e67f 8830 d19d d3bf 97d4 2ea5 f1a5 b7bf
00000350: f5ba 01ce cd9a f43f a5e6 3e4b 5ccb a2bf
00000360: d070 1a5f 278d e6bf 371e e873 cda4 f03f
00000370: 5877 2e59 bc73 eb3f fef1 ce1f 6601 e93f
00000380: 1718 11aa 3f36 e0bf 97de c18a 58a6 f73f
00000390: 4172 aeb9 023e 0040 3ddc 0e95 21ac e13f
000003a0: b81d 1bda e47c d53f 4188 6df3 2172 ddbf
000003b0: 7d40 3666 b468 f33f 6021 438e ac1a 8b3f
000003c0: 8e0c c10a a2c2 efbf c4af b39d 3168 cdbf
000003d0: f4d2 3677 e1c2 c53f b589 1675 b3b4 dd3f
000003e0: e40c 0a63 3150 e83f 421f 4db0 c2e5 cebf
000003f0: b4f6 7812 9dd0 e13f e4c9 e372 fe01 d5bf
00000400: 7984 fbc5 2339 e7bf e4fb 6ca3 e838 d4bf
00000410: 42a5 5c11 787a ebbf 1106 69fa d8ee e8bf
00000420: 42c7 00f1 6199 e7bf 98ce a16c 9d39 e6bf
00000430: 8ae6 1dc9 86cf debf 05a6 da0e 1859 e5bf
00000440: 867c c9dd 4d18 efbf da92 3dba 872b e5bf
00000450: fce5 edc5 a4ac ebbf 213a b139 105b e7bf
00000460: cc6d 2176 f7ba e4bf 7b1b 66e1 2e63 e0bf
00000470: 5aaa b659 df7d e1bf e023 a3af 9ed1 e6bf
00000480: 9fd2 fc09 692f e9bf 3be8 da80 536d e5bf
00000490: 9808 a68d cf93 e0bf 03ca 3ae3 c8a4 e9bf
000004a0: f7d9 a184 3204 eabf 7fe6 9e8d 72eb e4bf
000004b0: a108 954a c2ab d5bf 9fbc f337 361b edbf
000004c0: a17a 9fb6 c55f e2bf 8b68 f672 8651 edbf
000004d0: 5b80 dd3b 138f edbf 9058 511a 14ef d6bf
000004e0: d162 6a54 6f2e e1bf 83ca d1f6 fdd9 e4bf
000004f0: 8c1e 380e 5e22 e6bf 6316 1207 d500 f1bf
00000500: 1464 61f4 0f9d e2bf 43ce 9c47 6c86 e8bf
00000510: 6bd2 ea9b 469c efbf f942 f73a 7a7c e2bf
00000520: afb3 5193 6719 e7bf bd6f 7bec 6e6b edbf
00000530: 33a1 e42a 0d41 e8bf 477c 148a 503e e6bf
00000540: bfde c752 1795 d0bf 2d1e e607 6826 e0bf
00000550: ba0f 952c 49bf d0bf a02c 16e2 d409 e5bf
00000560: 23ae c7cb c7d2 dbbf 9cd3 6dba d1f7 e4bf
00000570: 2cee 7f9d d472 c5bf ce0d 66e7 4451 e5bf
00000580: b75a 7b0b 083e 933f 780d e88f dfd3 e3bf
00000590: a222 2ad7 5c68 ecbf df47 5dc1 49ae e1bf
000005a0: 21dd 14f5 68d2 e8bf e27c 5a9a e648 e3bf
000005b0: f569 2fbb e234 e1bf 07f5 8636 a089 e0bf
000005c0: 1880 4484 b3b2 803f 503a 7a13 c7fa d53f
000005d0: ca31 8af6 716b e7bf 89bf c9d6 bc97 e6bf
000005e0: 00f6 bba3 1a18 cabf e8d2 952a b92a e4bf
000005f0: 5ceb 4396 8472 e9bf bf81 fe5d 4fa6 ddbf
00000600: d7c7 3b2f 603a e33f 10b5 9ea8 c971 de3f
00000610: cf05 3385 4797 e83f b262 9321 489f e83f
00000620: 4c00 b5e5 9c09 ec3f e1e0 13bc c3d2 e73f
00000630: 23f5 b209 5ed5 df3f 556e 1691 09ed e83f
00000640: d6ff 7a63 1535 e73f 76d4 b176 c412 ed3f
00000650: 2b7a b7c2 1b1e f23f 11fc a383 d2bb e93f
00000660: 887f 523d e8fb e63f 14a7 b58b 65f0 e93f
00000670: 4e83 5494 904e e73f 71be 1710 1c23 e63f
00000680: 1948 9311 2842 e13f 563a b403 9efd e73f
00000690: f418 9598 d1f6 e23f 06c5 2bf8 2985 ee3f
000006a0: f445 cc75 a808 e63f 31d5 8d6d a745 ed3f
000006b0: 6191 7d4d b141 de3f fe59 ad75 0696 ee3f
000006c0: 9a49 2da3 c65a e53f 3903 84c0 d9f7 e63f
000006d0: 7673 e65d ed2a ea3f 9755 6f0a 33eb e23f
000006e0: 3d4d 0aa0 6eee e93f e244 df4a 21ef e93f
000006f0: f9c8 2df1 ca7b e73f e588 6726 7323 e53f
00000700: 14ec 0d22 063b f43f a939 3fd5 a9b0 e53f
00000710: 1482 7d37 a338 ee3f 5bb6 c4ed 1e33 ed3f
00000720: 3a39 5509 a30c ea3f 7749 a430 833d ed3f
00000730: efc1 11c1 7901 e83f 3f58 56cc b55f f33f
00000740: 58a5 d81e febc c93f 1ac5 042f 1072 e13f
00000750: c360 676f d90f ea3f 8cbd 4c45 f55f e33f
00000760: e76d 875e 60a4 d63f 7fd9 92e6 e7c7 e33f
00000770: 88cb 6738 9d37 d63f 215d ec47 a828 ec3f
00000780: 41c2 640d 9a86 a1bf 454d 54d9 7efa e03f
00000790: 46c1 7e64 fbad f23f 2462 b12b 4ef2 eb3f
000007a0: 3f29 10b7 ae2c e43f 11fc 1a8a cdab e03f
000007b0: 76c3 ea29 ed23 e73f 4403 ffae 225d df3f
000007c0: ef67 51bd 19ea de3f dce6 803a 362f cb3f
000007d0: 41e4 a5dc 0cbd e13f fc49 1072 f4f2 e23f
000007e0: bc0b 4675 b62d d13f cbb3 b159 eb89 e53f
000007f0: 5bde 54c1 2854 e73f b1e0 0bd0 108d dc3f

layers.0.bias f8 [128]
-0.1152416584541179 0.2021954643154454 0.21032386686669763 0.3647524175719487 0.3527738241141363 -0.5826424725314887 -0.4763647262158598 -1.2694801651499492
-1.189309430997853 -0.914971962782807 -0.19041034595020112 0.6680821044662554 0.9534309790882538 0.15267649323755755 -1.1973597326590883 1.033914230910138
-0.5524535078429946 -1.097933414329106 -0.711573186621022 -0.04231108168760779 -0.5528603496810637 0.7249575237161725 0.5908830462476967 0.09613977871160914
0.25403216189460925 1.1690455461028597 -0.5535849766975189 0.1850379343929518 0.40872206750163836 -0.32090982434730847 -1.0848483960787403 -0.031059066096525107
-0.9810154250622902 0.36572226313885847 0.24570894726900294 -0.46830933189654683 0.48379996607083453 0.05604731395380817 0.17066467103391342 0.28094461259300285
0.43048150576952315 -0.24262285115249876 0.8204614605284108 -0.24319517765267856 0.5471501062490162 -0.6017756161603506 0.3855124775987811 0.36762658778284596
0.32108955222755803 -0.6228762437710611 -1.0243415578482544 -0.11346728901331167 -0.7321903728810651 -0.86951861021377 0.9737276159018889 -0.6155142132415526
-0.6263594349753574 -0.10915626867929655 0.9940712919155499 -0.48823985380698687 0.4313590727889494 0.5013245582508528 -0.2034725205941629 0.18974456340546617
-0.12674859861034318 0.8079063922353572 0.4420282802497874 0.6361649425769241 -1.1719634745162935 0.4517320710908431 -0.13851909639799653 0.09462023103097829
-0.40728552925016237 -0.13898793016870864 -1.4534349362630068 -1.273658502187081 -0.03731265201201698 0.3706336907612789 1.4596924092455337 -0.5492609428346773
-0.09281197140990315 -0.7515741107059283 -0.7598587208150325 -0.1911095667889333 1.2621198504047322 0.8929918708110738 0.04439975938996461 -0.3288887058154059
0.0892511727040643 0.8590009153012296 -0.5985347089745612 -0.33288962895003504 -0.6433778865068679 1.2060144757930307 0.6255206956975735 -0.45187307912235913
-0.9756471455677779 -0.597542783490725 1.0712763555864675 -0.9082618465582888 0.6828591453671351 -0.6309368119832885 0.1655541446656848 -0.5333123847579531
0.012364692885783611 0.6343401922733838 0.5219572548311296 0.0707627370213285 -0.3835165271419535 -0.4500614441657693 0.35530419427732973 -1.3144311681249623
0.5487759242686733 0.2717902352327203 -0.2464105735869318 -0.2872459563401834 0.3369714374342884 0.4432857923524078 -1.0106718467029703 0.2801856410457447
0.7498540249511138 -0.40272675517559625 -0.3259380968129244 -1.110573689132448 -1.047370369237634 0.12390415527615214 1.250097433817622 -0.5307025233764538
00000000: 367e 3232 7a80 bdbf 2333 517d 8ae1 c93f
00000010: 6a5f e178 e4eb ca3f eff0 2686 1a58 d73f
00000020: e51f 5da9 d893 d63f fa10 99d3 01a5 e2bf
00000030: ca2a 047a c27c debf dbd5 036f ca4f f4bf
00000040: c35c 6f53 6907 f3bf 3a17 1d48 7347 edbf
00000050: 688c 56c0 5d5f c8bf a936 b7b8 ed60 e53f
00000060: 86ac 45af 8182 ee3f 1261 a940 e78a c33f
00000070: e316 d5ad 6228 f3bf 6e0c 0aa6 e98a f03f
00000080: 64e0 97fa b2ad e1bf 82aa bba0 2291 f1bf
00000090: eeed a721 35c5 e6bf 229c 3650 cca9 a5bf
000000a0: 5154 2430 08b1 e1bf 1034 eb1e da32 e73f
000000b0: 7da1 ec8f 83e8 e23f ce39 69d5 9d9c b83f
000000c0: af0c de1c 1042 d03f 69bd 401a 69b4 f23f
000000d0: e620 4fd7 f7b6 e1bf 005a 5eb2 52af c73f
000000e0: b5ac 449a 8028 da3f d75a 225c c989 d4bf
000000f0: 7f6b e4fd 895b f1bf 85f8 83a4 f2cd 9fbf
00000100: 4e73 f075 7a64 efbf a66e e659 fe67 d73f
00000110: 346f 6d0a 6473 cf3f d910 3ab4 c7f8 ddbf
00000120: 1421 0522 94f6 de3f f6a5 ebc8 3bb2 ac3f
00000130: 462d 5606 57d8 c53f f0c1 c41c fffa d13f
00000140: 2a07 344d 028d db3f 462b 7bfd 430e cfbf
00000150: 2822 9364 3841 ea3f c615 4803 0521 cfbf
00000160: 59f5 8af0 4082 e13f eb0b deef be41 e3bf
00000170: 0d26 df86 3cac d83f a0b6 eaaa 3187 d73f
00000180: b7e5 7931 bb8c d43f 0a77 0e29 9aee e3bf
00000190: 6845 2ef9 b363 f0bf 2d5b 7a37 310c bdbf
000001a0: 0b0c 3f81 1a6e e7bf 5c35 44b1 18d3 ebbf
000001b0: 5957 30d1 c628 ef3f 790f 03dd 4ab2 e3bf
000001c0: 8c53 18f1 220b e4bf 1b87 214c aaf1 bbbf
000001d0: a46e 1599 6ecf ef3f ee1b 2d5f 523f dfbf
000001e0: ed87 9d15 639b db3f 56cf cbcc d90a e03f
000001f0: 3d16 cb36 630b cabf 97cb 35c3 8c49 c83f
00000200: 5131 ec4e 4c39 c0bf a92a 9c81 5eda e93f
00000210: 0f1e e5fb 304a dc3f f158 e794 765b e43f
00000220: d376 b2c5 5cc0 f2bf deed f8a1 2de9 dc3f
00000230: 984f 7366 feba c1bf 8169 d10d 0839 b83f
00000240: 2add 1053 f710 dabf c681 4e43 5bca c1bf
00000250: bad0 e1fd 4441 f7bf 5aa7 d2bc e760 f4bf
00000260: 95be 3cd8 a41a a3bf dd63 275f 76b8 d73f
00000270: 3fdd 7e6d e65a f73f f83d 4eaf 8b93 e1bf
00000280: 8f00 e27d 86c2 b7bf 6512 4026 e50c e8bf
00000290: 0464 6f3c c350 e8bf 47d5 a73d 4776 c8bf
000002a0: 8aee 9195 a431 f43f 0447 17b0 6393 ec3f
000002b0: 0a72 0fb5 90bb a63f 4b0f e036 830c d5bf
000002c0: 3cc3 e433 2ad9 b63f b97d ce7c ef7c eb3f
000002d0: bc21 1243 3227 e3bf 8226 614d 104e d5bf
000002e0: f787 b038 8d96 e4bf d589 c0d5 d54b f33f
000002f0: 7bc0 5ffa 4304 e43f 9d7e 3110 7deb dcbf
00000300: 89c7 d45c 8038 efbf 0cb6 210b 121f e3bf
00000310: 168d 03ad f223 f13f 7884 e525 7b10 edbf
00000320: 1a0b 246c fbd9 e53f 76f1 a965 a230 e4bf
00000330: 1a37 87d2 e030 c53f 28ca 6222 e510 e1bf
00000340: d962 8efc a852 893f f847 8bcd 834c e43f
00000350: c51b 6db3 dfb3 e03f b734 48b9 811d b23f
00000360: 4236 63e7 888b d8bf 087b f883 cecd dcbf
00000370: 7260 a3cd 4dbd d63f 6209 fff9 e807 f5bf
00000380: b11d f286 928f e13f 6a96 ecde 0265 d13f
00000390: 82e4 78b5 618a cfbf cfea 18dd 3c62 d2bf
000003a0: 27d9 dda5 f090 d53f abd7 3b5f cb5e dc3f
000003b0: 243c 093e b62b f0bf ce6a 46c1 8fee d13f
000003c0: 4d0c 3ede cdfe e73f 4104 ad70 46c6 d9bf
000003d0: 5c3f 9576 2bdc d4bf 72f3 a9ea e8c4 f1bf
000003e0: 23cd aa6e 07c2 f0bf 6ee4 bfc6 2eb8 bf3f
000003f0: a0f6 b02a 6600 f43f 37cf b9db 83fb e0bf

layers.1.weight f8 [100, 128]
-0.5578531359054788 -0.013153959015782334 -0.29093504158155353 0.05773434718292037 -0.33853625638507445 -0.2821344040320465 0.2750101562245008 0.1369421474252073
0.23444927429163664 -0.2015140041831024 -0.20308230373427258 -0.2350464337189996 -0.09019176056225377 0.25413995299721703 0.08103695705420577 0.17219314484228285
0.3063658377247361 -0.17315148555054388 0.0286953359587218 0.14405963941751018 0.13364634931453817 0.037657548758299984 0.15599586215730762 0.19826825025212708
-0.43175921294326236 -0.2274835722638429 -0.04060139352770391 0.3915309547920024 0.19552816171246695 0.032823016023092705 0.5010863699041228 0.30437279813002294
0.10594002392504479 0.008733127398676734 -0.16693828076624628 -0.0031693580848508834 0.3249029280889199 -0.04218847478837503 0.4139201284720132 -0.20924801798424295
-0.02115473918393106 -0.45818241658144077 -0.10922305951104376 -0.13564682073547327 0.0481140211317472 -0.10640511632928108 -0.19347893425771145 -0.6574019154254834
-0.15253405221138605 0.14315744176424658 0.04290762807062362 0.47610144189123527 0.15500416352229543 0.21281350396573373 -0.15609188685171585 0.3443609135502212
0.3891386382798322 -0.020633358633888692 -0.021796890508573686 -0.006039049718773262 0.2728817625786392 -0.5166678781396741 -0.4758268200614732 -0.16229354274042382
0.38149430888899843 0.0030180728230490717 0.14890702735683908 -0.14989504971929357 0.3777357593885336 0.07201617352223712 0.05424935361730831 0.237367504156403
0.09669892762772891 0.061774785292892515 0.15081846272329072 0.12694609190373726 0.12987094337892696 0.3654871739537528 0.16525905751090023 0.021824327422567937
-0.013175408474123958 -0.01056833741923081 -0.41376134363630973 -0.03977305795742067 -0.21213100109577185 0.12091054169525205 -0.0672720179787212 0.6234731730734852
0.9455477522064941 0.09526209320277125 -0.13418132589806459 0.09513561219284457 -0.06593237764483742 -0.003936716758181816 -0.46351446548017633 -0.0933150946530444
-0.15546539865682835 0.24486068362293523 -0.08451589102775511 -0.0336893482886965 0.2955180706647946 0.3413446831727708 -0.14249167371295807 -0.194512280299931
0.224344474463282 -0.24314680591750207 -0.3183813797837599 -0.5711789848415406 0.05729745546051089 -0.2148726075483858 0.8156099996866751 0.040931716074909634
-0.27866634288573294 -0.10208392893073749 0.44485591873641633 -0.28491081837088333 0.2117085872670516 -0.2595925108250198 -0.0661833961114894 1.163815088483365
0.17222273860175133 -0.3641058571324179 -0.18792587824052118 0.10287702745072314 0.3957243541383537 0.009288319280951736 0.4014326420092595 0.20564526269793176
0.04272990270761411 -0.06436923281856044 0.024868748350489953 -0.04158479820384117 -0.0519659998339788 0.09619043770771947 0.003223868990939694 0.014029389701667613
-0.00044121916460560103 -0.00013369699114040216 0.0831347822303385 -0.06862718214031603 -0.08435821611322622 -0.0588212600889607 -0.015855847144270564 0.02748238710838922
0.09649908104638055 0.08918308996274675 -0.03719222559162196 -0.03144970858457155 -0.1071110657893532 -0.01936346825466211 0.024844882963291057 0.06849775422544944
-0.005861647284369731 0.0028988295328510514 0.031694631872982645 -0.0882692765944078 0.054993255667592805 -0.09567016000082151 -0.07976113378824956 -0.06366860671875277
0.09500631808876579 0.05227810185622955 0.050799769704489024 0.08147306503059593 -0.04448364730854195 0.0037746536103261913 0.0253117117330372 0.036163034928597744
-0.001822637354757675 0.0007912581687911531 -0.010419316834138116 0.05019722563050615 -0.016452147120494084 -0.018254712633988257 0.040143432399591665 0.09585948330180509
0.015352714051695195 -0.026009098530486354 0.05029356455798891 -0.006957598029647354 -0.03202364025648109 -0.0016658873947324618 -0.03321679396375183 0.04349771117408286
0.11090594146329343 -0.023326515226658524 -0.050820951101222964 0.0520402307744654 -0.02485415958205282 0.01839993639082481 -0.01890266556751088 -0.06259877642679532
-0.06958652934250674 0.06079702132429132 -0.0002906669636020903 0.02737558566251079 -0.008941715148435267 0.059164045431796354 -0.05157640718931165 0.06616124845366855
-0.028568852950409413 0.06963957325982273 -0.03245531760774723 0.04097050061586918 -0.0752261884554326 0.027479474950143308 -0.009308858505887418 -0.05117909538678956
-0.026036159799332565 0.07082176985092173 0.06389737621456767 -0.08310435469272139 -0.03639499950048305 -0.085542506938087 -0.004975147971045498 -0.046184596811559155
-0.022459728345391627 0.03941552210579837 -0.0007667133218123312 -0.04092150005792595 0.03477745894693275 0.017053376799490122 0.11025023886465168 -0.017873131710983366
0.08402845101281352 0.04186137452175062 0.09074029449686911 0.02488985310515579 0.019265641268104372 -0.004607470646508968 -0.02628264737310549 -0.00033925164018509
0.10144171799898855 0.003778138059664838 -0.11366961406507406 0.08231732352919241 0.07482578853507495 0.09214056987586892 -0.0462937295966414 0.016100921033251874
-0.0484229011537467 0.05793769706573573 -0.04659769548648175 0.001597220951138301 0.05912658793225778 -0.06834019685287979 -0.08271545142293275 0.07274846807942614
0.045529467566171475 0.04228912923988041 0.03355925464146109 -0.02313857496592791 -0.08972300719726753 -0.07786102142578034 0.09963485208314644 0.03765641607325226
00000000: 22ec d5d1 eed9 e1bf 0c22 497e 76f0 8abf
00000010: 619a 3602 ae9e d2bf e15a 033a 5b8f ad3f
00000020: 60c9 6bf9 93aa d5bf c638 9975 7d0e d2bf
00000030: 4f55 c332 c499 d13f b950 51fe 5187 c13f
00000040: 50a6 d30e 6f02 ce3f e482 d3fc 35cb c9bf
00000050: 5faf 77d6 99fe c9bf 15a9 ee64 0016 cebf
00000060: 71c9 fba5 ce16 b7bf b8b8 ae38 d443 d03f
00000070: 00af 5088 d6be b43f 17b4 d8ca 6c0a c63f
00000080: adeb 6875 7f9b d33f 6ac1 d8ef d329 c6bf
00000090: ac36 f665 4f62 9d3f 9762 fcd7 8b70 c23f
000000a0: ea92 c4d5 521b c13f c395 baa8 d947 a33f
000000b0: 6f73 2323 acf7 c33f fe81 55a1 da60 c93f
000000c0: fca1 d564 f1a1 dbbf 010f a083 2e1e cdbf
000000d0: 463d bfb2 b4c9 a4bf f202 8dd9 d70e d93f
000000e0: 0243 001a 1107 c93f 0423 c0a8 2dce a03f
000000f0: c4b4 6648 e608 e03f 5aab 700b d87a d33f
00000100: 5274 18aa e21e bb3f ce8d 8d84 ace2 813f
00000110: 10b6 2bcc 3b5e c5bf 3724 5c2a a0f6 69bf
00000120: 2b0f a1a6 35cb d43f ebe7 f74e ba99 a5bf
00000130: ea60 bcd9 aa7d da3f db60 ff98 a3c8 cabf
00000140: fd33 cd83 96a9 95bf 4873 b457 dc52 ddbf
00000150: a3a9 91dc 0af6 bbbf efbf 6e01 e05c c1bf
00000160: 1cd5 7aa6 66a2 a83f 09e7 c29e 5d3d bbbf
00000170: f007 8def eac3 c8bf 1391 e2bd 6f09 e5bf
00000180: f01a e35e 3c86 c3bf 333a 47a9 fb52 c23f
00000190: 8ce0 9f16 fdf7 a53f 4c15 a02e 7278 de3f
000001a0: 693a 892a 2dd7 c33f 000a d70f 793d cb3f
000001b0: 897a 99a6 d1fa c3bf 2f02 6e5b 020a d63f
000001c0: 0a66 41bf a5e7 d83f bb21 2842 e920 95bf
000001d0: fd25 8e8f ec51 96bf 2923 a810 67bc 78bf
000001e0: 4fce 7c11 e576 d13f 9a1d f012 8b88 e0bf
000001f0: 2b51 ae55 f273 debf 5307 36e9 08c6 c4bf
00000200: a974 121b 676a d83f a459 4d82 5bb9 683f
00000210: a633 52ae 620f c33f 6436 30d0 c22f c3bf
00000220: 5d9f 469b d22c d83f 41a2 0fe6 a66f b23f
00000230: ff1f 3b3f 92c6 ab3f 0a11 bef1 0e62 ce3f
00000240: 6828 b8cb 42c1 b83f 64cd 19d5 f1a0 af3f
00000250: 99c7 83f6 044e c33f 9f70 8a00 c53f c03f
00000260: 32af 416f 9c9f c03f 0349 cf50 2464 d73f
00000270: cd44 b073 3527 c53f 2a04 26d2 1d59 963f
00000280: 5efb 0f64 b5fb 8abf c6a2 b53c daa4 85bf
00000290: 0116 d1db 107b dabf 1cc9 605e 225d a4bf
000002a0: 4348 16d0 1b27 cbbf df9f 5246 fef3 be3f
000002b0: 628f 272d bd38 b1bf 4116 0903 7ef3 e33f
000002c0: 0210 115c ed41 ee3f 61ba dab6 1863 b83f
000002d0: 56a9 3b8b da2c c1bf ed9e 0db7 ce5a b83f
000002e0: ca6a bbbd f1e0 b0bf d01a ae5b f21f 70bf
000002f0: 3375 9d93 38aa ddbf 550a c27f 7fe3 b7bf
00000300: ce01 7249 4ae6 c3bf 804c 1e4a 9857 cf3f
00000310: b6dd f45b d5a2 b5bf 0d3c 3ff2 ba3f a1bf
00000320: c377 38a0 c4e9 d23f 7afe b85e 97d8 d53f
00000330: a254 46cb 2a3d c2bf d67f 4745 c7e5 c8bf
00000340: 55d6 6dda 51b7 cc3f a571 c53d 6f1f cfbf
00000350: 16e7 744b 5c60 d4bf 19d2 8126 1947 e2bf
00000360: 4e9e b192 1756 ad3f e9ff 1c13 f280 cbbf
00000370: 213c 5e24 7a19 ea3f bf60 d27b 00f5 a43f
00000380: 572b 4c5b abd5 d1bf 9967 3420 2c22 babf
00000390: 91ea 99f5 8478 dc3f 957d cb95 fa3b d2bf
000003a0: 9e13 4c59 4419 cb3f 4aeb 11e8 299d d0bf
000003b0: 9a49 d621 65f1 b0bf d309 fa91 fc9e f23f
000003c0: ad06 f60a 650b c63f 319c 2aa7 824d d7bf
000003d0: 23bc 8e86 f40d c8bf d019 691c 2656 ba3f
000003e0: 2051 d03d 8c53 d93f 3738 5f1c c105 833f
000003f0: 5b81 3e89 12b1 d93f 8ab6 ee7e 9552 ca3f
00000400: 8f84 619d b1e0 a53f 1807 d385 807a b0bf
00000410: 4c65 6e73 3177 993f 0caf 9748 9a4a a5bf
00000420: 46ee 949b 499b aabf 2580 24c0 ef9f b83f
00000430: 9bde 3e7c f168 6a3f deac 9ccf 70bb 8c3f
00000440: 1aa8 e1e1 6dea 3cbf 180f b768 2086 21bf
00000450: fde1 d632 5248 b53f 67c7 e80e 8d91 b1bf
00000460: d6ee 5a03 8098 b5bf 4e7f c8f8 d11d aebf
00000470: 1d75 bde3 833c 90bf 5bdc 62c7 5724 9c3f
00000480: ac31 30ed 29b4 b83f 7b08 bff6 b3d4 b63f
00000490: 83b6 2901 dc0a a3bf 64ce ad1b 2d1a a0bf
000004a0: bcdf 9a7c a16b bbbf 2d4a 905b 04d4 93bf
000004b0: 4c7d 33df ef70 993f 9f6c 3f9e 1189 b13f
000004c0: cd60 31f6 6102 78bf 2bed 4941 49bf 673f
000004d0: 36d9 b45e 473a a03f 63ed 36b8 d098 b6bf
000004e0: ac8d 2f75 1328 ac3f f817 68f0 d67d b8bf
000004f0: 10c7 1cc5 396b b4bf da90 a3f7 954c b0bf
00000500: 87c8 1a85 5552 b83f 08f7 8903 32c4 aa3f
00000510: 79db 0c6b 6d02 aa3f c0b0 cf35 6bdb b43f
00000520: c341 cb84 8fc6 a6bf 772b ecb9 05ec 6e3f
00000530: f08d 6538 50eb 993f 6153 af18 f683 a23f
00000540: d998 31f5 b1dc 5dbf 964d 94fa 8ded 493f
00000550: c7ef 6408 b956 85bf 87ac dd64 73b3 a93f
00000560: 6f75 53e7 d4d8 90bf 401e 0b07 5db1 92bf
00000570: b761 9c12 ae8d a43f 1bef ca41 3f8a b83f
00000580: 2112 0e66 3e71 8f3f 37f7 580e 21a2 9abf
00000590: 9b9f f3fd 13c0 a93f 85d1 efff 917f 7cbf
000005a0: e26e 330f 6765 a0bf 49b9 44f8 3c4b 5bbf
000005b0: 692b 81a7 ca01 a1bf a117 e3fd 5445 a63f
000005c0: e555 84ef 5464 bc3f e2d1 1cf0 e7e2 97bf
000005d0: 3edc dc25 3405 aabf a057 8162 04a5 aa3f
000005e0: fb44 4c6a 5e73 99bf dc33 30d4 6ed7 923f
000005f0: c7c1 ad69 385b 93bf c6cf 8531 7906 b0bf
00000600: 77a9 c43b 6cd0 b1bf 5068 9084 c920 af3f
00000610: 9974 4a1a 950c 33bf 2c6f 8474 5808 9c3f
00000620: 18b9 0fb1 0850 82bf 250e 75f0 bf4a ae3f
00000630: 9d1d 3f0c 3968 aabf 48fc 5e8e f1ef b03f
00000640: 95ca 6c44 2741 9dbf a088 a829 e6d3 b13f
00000650: 31c3 69bf fb9d a0bf 64e7 7de0 15fa a43f
00000660: 4f04 3803 0642 b3bf 9272 e358 9423 9c3f
00000670: a05b c4d6 8510 83bf 11aa d979 2534 aabf
00000680: 3500 681b 39a9 9abf a2c3 5a21 6021 b23f
00000690: 764b 2415 945b b03f d977 8fb5 5346 b5bf
000006a0: 9b5d 2f89 5da2 a2bf 2b89 b71d 1de6 b5bf
000006b0: 9621 411d d260 74bf 4de9 c4e9 81a5 a7bf
000006c0: 13cb e1da aeff 96bf e35f cc74 452e a43f
000006d0: 1470 4052 a81f 49bf a173 e7b0 a9f3 a4bf
000006e0: 624f a1e1 59ce a13f 188a 8fbe 7076 913f
000006f0: 18c4 4c12 5c39 bc3f 1ffe b390 554d 92bf
00000700: 2f98 0879 e382 b53f 9cb3 12a5 da6e a53f
00000710: 4d20 4b85 c13a b73f 8005 5bc4 b97c 993f
00000720: 205e bb4c 5fba 933f 4992 e77b 48df 72bf
00000730: 02dd ad9b d6e9 9abf 6a26 20b3 b23b 36bf
00000740: 3c76 419d 15f8 b93f b539 fe6c 54f3 6e3f
00000750: fa5b f5aa 7319 bdbf f8be 7384 bf12 b53f
00000760: b1d2 a76a c827 b33f c76c 403e 8696 b73f
00000770: 1740 41cd cfb3 a7bf bbda 1785 c27c 903f
00000780: 8062 aaf1 e2ca a8bf 04ae 3484 02aa ad3f
00000790: 62e7 5d34 a7db a7bf 35db f9ef 3a2b 5a3f
000007a0: a079 fc12 d745 ae3f fc3d 7c3e be7e b1bf
000007b0: 6541 bcfe d62c b5bf 6038 3cc3 a49f b23f
000007c0: 5ee9 666c a34f a73f 858a 1fb6 eba6 a53f
000007d0: 7890 53ba ad2e a13f 4ed1 047b a3b1 97bf
000007e0: e66c 9c45 16f8 b6bf 6929 a82c b3ee b3bf
000007f0: 4d29 3d6f ab81 b93f e7d2 09a7 b347 a33f

layers.1.bias f8 [100]
-0.1700337200161807 -0.0887367697066532 -0.0307879670073994 0.06495467082378265 -0.0475264479863716 -0.3371297583882524 -0.062403642354614805 0.0016430463871050945
-0.06937007185253814 -0.04952451690828476 -0.010931226156651049 0.028751265858858774 -0.07761693722667717 0.06976026379008535 0.05102269966804762 -0.04525532929439208
-0.0925363439958297 -0.11446999497512449 0.12590651396223268 -0.04111003845877231 -0.03755983578475336 -0.071489005399091 -0.023742160877858277 0.19623147283752035
0.27771716437563376 0.05468026550738457 -0.3382507651671239 0.007317158971930227 -0.07281384474482995 -0.07697526822149357 0.07594501220978557 0.005435333100748906
-0.05106845125555992 -0.047325058218632796 -0.0003537840620227381 -0.046729676809868365 -0.05285698713224227 -0.08276980990517488 -0.08895795146180248 -0.05522753963194956
-0.06826585606261783 0.05758371941557938 0.021043366388171666 -0.007229884603846504 0.07269349191091705 -0.12026766351264523 0.13718439581439393 -0.1019194638784992
-0.08020682785048716 -0.008946488798935677 -0.027087920150228078 0.014182148511731092 0.20984295491273772 -0.10728270472620176 0.005034831827017649 0.022379501505469548
-0.08301457322626912 0.671204035697184 0.02329874054923025 -0.006151544058384869 0.0834573178963351 0.012273814126563172 -0.07062061375553945 -0.0708054957828391
-0.23590524079733027 0.07028981850292172 -0.09627801243734739 0.050569967132908775 0.08491234831560682 -0.08418921750564647 -0.006069135386496782 -0.01706845911465236
0.0024668854483082463 0.27266295589363015 0.08517836849134974 -0.0044132217250521895 0.06938057571314525 0.04123162566682045 0.03384074752691752 0.3010812942255581
-0.04570140890324843 0.037878752333909624 -0.052828099926811534 -0.007228228191906397 0.05017641082576237 0.014250663020734387 -0.04547284593837728 -0.04094468429684639
0.0643811241135556 -0.12923315976905114 -0.042530227452516556 -0.08587595851445791 -0.12417201573972957 -0.10253076297047796 -0.026892528827950467 -0.028512683489398463
0.07270706231667863 -0.04822545498609543 0.0004257697493093368 -0.015934145859054602
00000000: 55e6 5739 aac3 c5bf 0ebf d7f3 73b7 b6bf
00000010: c4e0 a07d e186 9fbf 8c1c e98a dea0 b03f
00000020: 4dd0 97f7 6255 a8bf 9b4c b2b1 8893 d5bf
00000030: 9ef2 20c6 5ef3 afbf c63b e69f 6feb 5a3f
00000040: b585 edad 3cc2 b1bf e24b f108 475b a9bf
00000050: 24b2 c856 1c63 86bf 9c60 54ca f870 9d3f
00000060: 6817 011f b4de b3bf 7eeb 8903 cfdb b13f
00000070: 0015 dbb4 a51f aa3f 2808 94de b42b a7bf
00000080: 6b4b 273b 76b0 b7bf 139c cad4 e74d bdbf
00000090: aa1b e963 b41d c03f 387a 6ffd 5f0c a5bf
000000a0: 0863 adf4 0a3b a3bf 1a71 367c 1a4d b2bf
000000b0: 3aef 0672 dd4f 98bf 623b 24e7 1c1e c93f
000000c0: 3cff a136 1ec6 d13f 1e7f 2e40 0dff ab3f
000000d0: 7158 8f89 e6a5 d5bf a7c3 bee7 98f8 7d3f
000000e0: 5504 e099 eda3 b2bf 67b5 9cb3 a6b4 b3bf
000000f0: e13f bcdf 2171 b33f 4cbf 911e 5c43 763f
00000100: 0000 00e0 a425 aabf 3620 a972 fd3a a8bf
00000110: 9473 eaf9 822f 37bf 5c54 4dc3 f3ec a7bf
00000120: ac36 322e 1210 abbf 868c a3fa 6630 b5bf
00000130: 8562 3fc4 f2c5 b6bf ab93 1db9 c846 acbf
00000140: 59ee 3803 df79 b1bf 500a 58ff 9c7b ad3f
00000150: af61 bd69 648c 953f cd86 d65e 159d 7dbf
00000160: a3b1 636a 0a9c b23f d49a 8d91 dcc9 bebf
00000170: f9ac c51e 428f c13f 1c1b 2fdc 6417 babf
00000180: 78a3 8846 6f88 b4bf 8494 7166 8952 82bf
00000190: 3bc6 a58c efbc 9bbf 97f4 5bc0 870b 8d3f
000001a0: 0bb7 524a 22dc ca3f d3b7 391c e176 bbbf
000001b0: cc3d 9b60 679f 743f 8760 44ec a6ea 963f
000001c0: 2625 196d 7140 b5bf 6667 c8e2 807a e53f
000001d0: cea8 c902 a0db 973f 4987 cf88 5c32 79bf
000001e0: bd04 fa72 755d b53f 518a 2a72 0323 893f
000001f0: b3e4 804a 3114 b2bf 16ad c318 4f20 b2bf
00000200: 1efb 1697 2432 cebf 213a b677 83fe b13f
00000210: 9b06 be02 ada5 b8bf 46c4 fd85 4ee4 a93f
00000220: 8ac6 0acf d0bc b53f 31d2 dcaf 6c8d b5bf
00000230: 0000 0020 f3db 78bf 3b1e c3e6 647a 91bf
00000240: 6fcd 590a 6f35 643f 8b34 9953 4f73 d13f
00000250: 583a ffe2 3fce b53f 6b60 aa2f 9913 72bf
00000260: 7765 aae7 ecc2 b13f 8b8d 99c7 4f1c a53f
00000270: 99f4 cc0f 9353 a13f 49b6 087a ea44 d33f
00000280: 0abc 3dd1 2c66 a7bf d68f f904 d864 a33f
00000290: f8ae fde2 480c abbf 9082 13bb 589b 7dbf
000002a0: 8bfb 0df7 b8b0 a93f f284 f69c 732f 8d3f
000002b0: fd9f 5284 3748 a7bf 0000 00a0 b3f6 a4bf
000002c0: ea24 8c06 487b b03f 1427 6251 b68a c0bf
000002d0: 0000 00a0 85c6 a5bf 4d0e 5581 f7fb b5bf
000002e0: 9737 aeba bcc9 bfbf 13c9 cac1 743f babf
000002f0: 0388 4a0f b789 9bbf f4c2 6ecc 6d32 9dbf
00000300: 559f d616 ee9c b23f 0000 00c0 01b1 a8bf
00000310: 8af2 1e26 3be7 3b3f 5cd6 6a6d 0a51 90bf

layers.3.weight f8 [100]
1.3843257357106336 0.9858694437091482 1.1218484539754128 0.9886378787045721 0.5386225939691878 1.411577714537456 0.9682349786496799 1.1259027937820496
0.7089647002789505 1.1384060053407408 1.424072461018198 1.3278376007432557 0.6578077126874343 0.8468689741403014 0.9636646180404692 0.9634540738479557
0.9894477378823536 0.9682407591117509 0.49529475094702846 1.4704634353696504 0.6691333777352702 1.5353275859429583 1.0006473078364027 1.6098340783698257
1.2650481667087379 0.9905632250131695 1.524305139690034 0.9631428570933356 1.0019512397473127 1.006005472035104 0.9964360235564671 1.7053493888041276
1.0 0.9870434347348231 0.8242524900838075 0.9969935669462849 0.9902243125022471 0.6854174493589964 0.9622298459400639 1.1906626615390354
0.9683331290834741 1.5795949328978902 1.0011343170418072 1.0360714837657625 0.5608760433113089 0.9046844088516188 1.4477409393116392 0.9682883387457237
0.9772171281182788 1.1133448421110919 1.0380502445956943 0.7258323976239263 1.041861089463631 0.9754844350283538 0.963146928543629 1.450097939440179
0.9067916009244077 1.524055543184167 0.9682454865305008 1.0342794209939954 0.49368525232438154 1.0096631954147743 0.9715277036019174 0.968236636999211
0.9108520623441719 1.3847305724710446 0.9682433318790858 1.227985365261258 1.6708308456759908 0.8701833032414491 1.0 0.9683358432174876
1.4552856880173872 1.0297606549136744 0.9210010830840292 0.9420655186049425 1.5261209349955742 1.0313092922661542 0.9675331157506292 1.3548587415977738
0.9329450924003253 1.6072146257090796 0.9876272894232668 1.0688699454553325 1.0024174969015163 1.0123276483779393 1.0126272291160834 1.0
1.006228528035416 1.162496667166292 1.0 1.003835610382887 1.021637743697487 0.8324629099716006 0.9629373203423679 0.9939944961325325
1.0090923701918382 1.0 1.57913911036939 1.7028350643807129
00000000: 8536 1ebe 3226 f63f 7c68 5b13 3e8c ef3f
00000010: ec47 4e5d 17f3 f13f 39ef 93e7 eba2 ef3f
00000020: c87f 3f73 653c e13f 7736 7b83 d295 f63f
00000030: a598 04ec c7fb ee3f 8f4d dca5 b203 f23f
00000040: daed 36bd d6af e63f bf22 2837 e936 f23f
00000050: 7e51 7334 00c9 f63f 5476 d9a3 d23e f53f
00000060: 2f92 a1c2 c20c e53f cfbf 7df6 8c19 eb3f
00000070: 097a 592e 57d6 ee3f 7fff 4ba3 9dd4 ee3f
00000080: d8c9 694d 8ea9 ef3f ff40 610b d4fb ee3f
00000090: 40ab 4cc1 e8b2 df3f f905 ceaa 0487 f73f
000000a0: b81e c166 8a69 e53f 9e58 a4a8 b390 f83f
000000b0: 01ce 5fc0 a602 f03f f15a e960 e1c1 f93f
000000c0: 810f 7e25 a33d f43f c6a8 01a6 b1b2 ef3f
000000d0: 997e 41c9 8d63 f83f aaf0 12f8 10d2 ee3f
000000e0: fc6b ee05 fe07 f03f 16ce 9f31 9918 f03f
000000f0: e866 b7cc cde2 ef3f 54ad d270 1c49 fb3f
00000100: 0000 0000 0000 f03f c85c fd1c dc95 ef3f
00000110: fece 11c2 4660 ea3f ed69 8b0d 5fe7 ef3f
00000120: ebd6 bce5 eaaf ef3f 1859 2393 f0ee e53f
00000130: b386 f13e 96ca ee3f 3b0e 7e4a f40c f33f
00000140: f17f 21c2 95fc ee3f 7e94 1b56 0546 f93f
00000150: d390 e96a a504 f03f 6d79 31b1 bf93 f03f
00000160: f238 e450 b2f2 e13f 6000 a7b7 2cf3 ec3f
00000170: eec7 3667 f229 f73f 8c5a 80d3 37fc ee3f
00000180: 557d cbda 5c45 ef3f 4999 60ae 42d0 f13f
00000190: fd4a c292 da9b f03f 4881 45dd 043a e73f
000001a0: 248a a388 76ab f03f aa85 4622 2b37 ef3f
000001b0: bbce ea81 19d2 ee3f ea47 9ee5 9933 f73f
000001c0: 0440 c8d1 6f04 ed3f 5937 b410 8862 f83f
000001d0: 50bd 64f5 ddfb ee3f 3a85 0194 688c f03f
000001e0: e80b 5007 8a98 df3f 4280 4498 9427 f03f
000001f0: 5a1a 4444 c116 ef3f 9a6b 5666 cbfb ee3f
00000200: 5965 6839 b325 ed3f 4a8d a83e db27 f63f
00000210: 35b4 9f70 d9fb ee3f 3038 7cfb d3a5 f33f
00000220: f338 f51f b9bb fa3f 1350 9ea7 8ad8 eb3f
00000230: 0000 0000 0000 f03f f83c 4573 9bfc ee3f
00000240: d1f1 45a5 d948 f73f 06fd f84e e679 f03f
00000250: c2a5 6d43 d778 ed3f c81e 2396 6625 ee3f
00000260: 3dc0 18c9 fd6a f83f 2e81 252c 3e80 f03f
00000270: 1945 3e02 08f6 ee3f 61cb 1d5c 80ad f53f
00000280: cc56 9aaa afda ed3f 8e2c f1ae 26b7 f93f
00000290: cbb8 968b a49a ef3f fe86 365f 171a f13f
000002a0: 4615 e2ed e609 f03f daea e979 7e32 f03f
000002b0: 9b7b 019c b833 f03f 0000 0000 0000 f03f
000002c0: e66d c315 8319 f03f f402 f31a 9699 f23f
000002d0: 0000 0000 0000 f03f a479 d2ed b50f f03f
000002e0: 95a3 98d1 a058 f03f a6c0 ae41 89a3 ea3f
000002f0: b0fc 5eed 61d0 ee3f 1b62 a98b cdce ef3f
00000300: 85df 890a 3e25 f03f 0000 0000 0000 f03f
00000310: e1ef 2d5f 2744 f93f 99f4 fffa cf3e fb3f

layers.3.bias f8 [100]
0.0022097850663077632 0.027295004544217585 -0.041957384680723936 -0.0138847236342309 0.0031300600584054524 0.03993716947241879 -0.035791086053009555 -0.018073639121749915
-0.0534405791854107 0.02909834484420631 -0.17556283773057763 0.0008077937304726216 -0.04811908577403159 0.004945618064611589 -0.019212481969493694 -0.0024306322871558692
-0.021701277468232204 0.07818055845224725 -0.032867588946630485 -0.1718671904176251 0.0033325461659596887 -0.003256058716639214 -0.0236836390179788 -0.14859864291852545
0.0528541773073713 -0.02408800870372386 -0.037688715191436906 -0.007994481678355253 -0.03010664497242501 0.023004911229874418 -0.03021871554767096 -0.04372629723710415
-0.04047995629791846 -0.005941709888977627 -0.022838625009799298 -0.0013635781580142335 0.028771668276113476 0.013535947351434069 -0.012242154241310966 0.021478100972549645
0.05591714163287055 -0.036807090908967235 -0.005225353299762097 -0.03170388165588324 -0.02879188271502874 0.012380819764539372 0.19558958755062578 -0.034246751728451305
-0.006129417524060127 0.03193329896036806 0.01488383093439321 -0.03215240957404585 -0.0067456992138903845 -0.02870802264258327 -0.02020655843878399 -0.06893223587935696
0.016550214038002754 -0.47564741424074986 0.05421318797309941 -0.011386075354160424 0.03144422504076599 -0.009865582797793825 -0.009459861417010112 0.05689167112843971
-0.0027716964043826317 -0.015218341034525297 0.026520039554104344 -0.10860620859501378 0.4257642365140562 0.015299069824646705 0.007374641576364349 -0.0018395446522416622
0.08784746671328118 0.011131347172260197 0.036098238357686184 0.03205159872100149 0.28659537711391214 0.0006761386407636098 0.026597687285148105 -0.1219993821169193
-0.009388153439577643 0.4550708878896152 0.011366093204129341 0.013473080414075184 -0.011979231790777693 -0.03984230918365145 -0.004178273051735159 0.006273367876643729
0.0271526134440753 0.1310474377310049 -0.03545209252677243 -0.008278773537376867 -0.005685547418823037 0.029440375473600556 -0.0009743840717501438 0.008527504334930085
0.0015856159313062687 0.008581272965558334 -0.30101346754171165 -0.04763711880268816
00000000: 0f51 e952 411a 623f 9443 72bf 38f3 9b3f
00000010: 9c0d 0f36 707b a5bf 4d58 620f 986f 8cbf
00000020: 2354 bb32 36a4 693f 34c5 8e09 a572 a43f
00000030: e607 2c90 3553 a2bf 6f5d ca63 e581 92bf
00000040: e4e2 c247 905c abbf 6ff6 e4dd f4cb 9d3f
00000050: 820f 39d3 d778 c6bf c6e5 bfd3 4378 4a3f
00000060: 33ff 6c97 10a3 a8bf 8c45 893d db41 743f
00000070: 8b94 efd6 6fac 93bf bd6b d2c5 67e9 63bf
00000080: 93a8 0714 dc38 96bf 6044 bc1d a403 b43f
00000090: 7690 3f47 05d4 a0bf 74af 0c7d beff c5bf
000000a0: 0f56 7219 db4c 6b3f a451 7536 73ac 6abf
000000b0: aa44 211c 8640 98bf 8553 c8c3 4705 c3bf
000000c0: 70fa fbe5 b30f ab3f 03db 6ee6 86aa 98bf
000000d0: 80d8 596e ef4b a3bf 7d26 db2a 695f 80bf
000000e0: 4605 32be 46d4 9ebf 71ce 8475 998e 973f
000000f0: 7d7a 04ac a7f1 9ebf 3a92 3711 4b63 a6bf
00000100: f1d9 e2f0 c9b9 a4bf 3bd7 7c9a 5556 78bf
00000110: a7c2 022e 0263 97bf cc8d 07e6 4257 56bf
00000120: 0b67 30f9 5176 9d3f 90ec 8e19 bcb8 8b3f
00000130: 1aca ca20 6a12 89bf 1e76 07f5 5afe 953f
00000140: 62ad 32ed 2ba1 ac3f 1a09 6e07 61d8 a2bf
00000150: c637 8518 2e67 75bf 428e bcbd 7d3b a0bf
00000160: 9df2 9a8a 9e7b 9dbf 6514 e47f 1d5b 893f
00000170: 9ae9 fb60 1409 c93f e6fa 554d ca88 a1bf
00000180: 602b f3fc 281b 79bf 0858 60b5 8f59 a03f
00000190: 5cbd d1f8 697b 8e3f 0f5c 37d7 4776 a0bf
000001a0: 2f6e 32d8 60a1 7bbf 72e8 87c9 a265 9dbf
000001b0: ef1c a32e 07b1 94bf 72f3 bd02 8ba5 b1bf
000001c0: cadc 2310 8af2 903f b4d2 25da 0171 debf
000001d0: 2575 b6ba d4c1 ab3f a310 352a 9551 87bf
000001e0: 7774 651c 7519 a03f 86b0 c71b 6834 84bf
000001f0: a337 491b b15f 83bf bca7 d2b5 e720 ad3f
00000200: 8713 292d abb4 66bf a15e 5728 cb2a 8fbf
00000210: c944 4bba 1128 9b3f 27e2 0ed2 9dcd bbbf
00000220: 0d98 e8a3 b83f db3f 0dd9 7264 1e55 8f3f
00000230: 7349 3e46 df34 7e3f c1fb bc07 9c23 5ebf
00000240: f3ea 91ec 2b7d b63f 53b1 8520 08cc 863f
00000250: db02 61e2 777b a23f 5f1a 9530 1169 a03f
00000260: 06e6 f822 9457 d23f 4b0e c1ac dc27 463f
00000270: 7fe1 2794 6c3c 9b3f 480a 53fc 593b bfbf
00000280: 7549 f19f 183a 83bf bf3e 36a5 e11f dd3f
00000290: 9d9b c234 1b47 873f dde4 093e c697 8b3f
000002a0: 9c45 2e46 9188 88bf 18be e10d 3666 a4bf
000002b0: a67e c6a1 3c1d 71bf bdfa da5d 1ab2 793f
000002c0: 2912 f90a e5cd 9b3f e0be a395 29c6 c03f
000002d0: 955a f4d3 c626 a2bf 978f c02c 76f4 80bf
000002e0: b748 9483 ba49 77bf bd42 5d27 9e25 9e3f
000002f0: 8e8d 67dc b9ed 4fbf b653 e141 de76 813f
00000300: 891e 6a24 8efa 593f 8302 f6f5 0e93 813f
00000310: 46d2 affd cd43 d3bf ce9a aa76 e463 a8bf

layers.3.running_mean f8 [100]
2.5e-323 2.5e-323 2.5e-323 2.5e-323 2.5e-323 2.5e-323 2.5e-323 2.5e-323
2.5e-323 2.5e-323 86.98574447953438 2.5e-323 2.5e-323 2.5e-323 2.5e-323 2.5e-323
2.5e-323 2.5e-323 2.5e-323 59.63922055771411 2.5e-323 103.15594022493583 2.5e-323 76.18663220802043
87.14657757398169 2.5e-323 2.5e-323 2.5e-323 2.5e-323 2.5e-323 2.5e-323 111.72981568312424
0.0 2.5e-323 2.5e-323 2.5e-323 2.5e-323 2.5e-323 2.5e-323 2.5e-323
2.5e-323 243.03787267495244 2.5e-323 2.5e-323 2.5e-323 2.5e-323 163.21631381361394 2.5e-323
2.5e-323 2.5e-323 2.5e-323 2.5e-323 2.5e-323 2.5e-323 2.5e-323 50.575829356137646
2.5e-323 42.283867971706655 2.5e-323 2.5e-323 2.5e-323 2.5e-323 2.5e-323 2.5e-323
2.5e-323 2.5e-323 2.5e-323 2.5e-323 62.33974427537681 2.5e-323 0.0 2.5e-323
156.8151928852379 2.5e-323 2.5e-323 2.5e-323 90.048932483487 2.5e-323 2.5e-323 99.36591450510315
2.5e-323 148.65089188664547 2.5e-323 2.5e-323 2.5e-323 2.5e-323 2.5e-323 0.0
2.5e-323 59.28187593075103 0.0 2.5e-323 2.5e-323 2.5e-323 2.5e-323 2.5e-323
2.5e-323 0.0 106.57655281509741 108.7919048906659
00000000: 0500 0000 0000 0000 0500 0000 0000 0000
00000010: 0500 0000 0000 0000 0500 0000 0000 0000
00000020: 0500 0000 0000 0000 0500 0000 0000 0000
00000030: 0500 0000 0000 0000 0500 0000 0000 0000
00000040: 0500 0000 0000 0000 0500 0000 0000 0000
00000050: 0374 0370 16bf 5540 0500 0000 0000 0000
00000060: 0500 0000 0000 0000 0500 0000 0000 0000
00000070: 0500 0000 0000 0000 0500 0000 0000 0000
00000080: 0500 0000 0000 0000 0500 0000 0000 0000
00000090: 0500 0000 0000 0000 1028 affa d1d1 4d40
000000a0: 0500 0000 0000 0000 bd8e b5ec fac9 5940
000000b0: 0500 0000 0000 0000 fe74 37c8 f10b 5340
000000c0: 04a5 e786 61c9 5540 0500 0000 0000 0000
000000d0: 0500 0000 0000 0000 0500 0000 0000 0000
000000e0: 0500 0000 0000 0000 0500 0000 0000 0000
000000f0: 0500 0000 0000 0000 19c8 d64c b5ee 5b40
00000100: 0000 0000 0000 0000 0500 0000 0000 0000
00000110: 0500 0000 0000 0000 0500 0000 0000 0000
00000120: 0500 0000 0000 0000 0500 0000 0000 0000
00000130: 0500 0000 0000 0000 0500 0000 0000 0000
00000140: 0500 0000 0000 0000 a68a c140 3661 6e40
00000150: 0500 0000 0000 0000 0500 0000 0000 0000
00000160: 0500 0000 0000 0000 0500 0000 0000 0000
00000170: a364 f20a ec66 6440 0500 0000 0000 0000
00000180: 0500 0000 0000 0000 0500 0000 0000 0000
00000190: 0500 0000 0000 0000 0500 0000 0000 0000
000001a0: 0500 0000 0000 0000 0500 0000 0000 0000
000001b0: 0500 0000 0000 0000 0e58 bec6 b449 4940
000001c0: 0500 0000 0000 0000 546e 23c9 5524 4540
000001d0: 0500 0000 0000 0000 0500 0000 0000 0000
000001e0: 0500 0000 0000 0000 0500 0000 0000 0000
000001f0: 0500 0000 0000 0000 0500 0000 0000 0000
00000200: 0500 0000 0000 0000 0500 0000 0000 0000
00000210: 0500 0000 0000 0000 0500 0000 0000 0000
00000220: 91df 8bbd 7c2b 4f40 0500 0000 0000 0000
00000230: 0000 0000 0000 0000 0500 0000 0000 0000
00000240: ebc0 630f 169a 6340 0500 0000 0000 0000
00000250: 0500 0000 0000 0000 0500 0000 0000 0000
00000260: 7a12 b6b5 2183 5640 0500 0000 0000 0000
00000270: 0500 0000 0000 0000 3423 ac24 6bd7 5840
00000280: 0500 0000 0000 0000 f8cb 381b d494 6240
00000290: 0500 0000 0000 0000 0500 0000 0000 0000
000002a0: 0500 0000 0000 0000 0500 0000 0000 0000
000002b0: 0500 0000 0000 0000 0000 0000 0000 0000
000002c0: 0500 0000 0000 0000 780d b082 14a4 4d40
000002d0: 0000 0000 0000 0000 0500 0000 0000 0000
000002e0: 0500 0000 0000 0000 0500 0000 0000 0000
000002f0: 0500 0000 0000 0000 0500 0000 0000 0000
00000300: 0500 0000 0000 0000 0000 0000 0000 0000
00000310: a650 c73d e6a4 5a40 f6bc d991 ae32 5b40

layers.3.running_var f8 [100]
2.5e-323 2.5e-323 2.5e-323 2.5e-323 2.5e-323 2.5e-323 2.5e-323 2.5e-323
2.5e-323 2.5e-323 53.63321439030486 2.5e-323 2.5e-323 2.5e-323 2.5e-323 2.5e-323
2.5e-323 2.5e-323 2.5e-323 67.0598783208986 2.5e-323 66.04912469956994 2.5e-323 59.91379915588204
42.4802903506998 2.5e-323 2.5e-323 2.5e-323 2.5e-323 2.5e-323 2.5e-323 59.06937386321364
2.5e-323 2.5e-323 2.5e-323 2.5e-323 2.5e-323 2.5e-323 2.5e-323 2.5e-323
2.5e-323 95.3835146408068 2.5e-323 2.5e-323 2.5e-323 2.5e-323 36.18758588578819 2.5e-323
2.5e-323 2.5e-323 2.5e-323 2.5e-323 2.5e-323 2.5e-323 2.5e-323 60.19954869740084
2.5e-323 54.928948375219996 2.5e-323 2.5e-323 2.5e-323 2.5e-323 2.5e-323 2.5e-323
2.5e-323 2.5e-323 2.5e-323 2.5e-323 104.72652951913659 2.5e-323 2.5e-323 2.5e-323
54.70749801505174 2.5e-323 2.5e-323 2.5e-323 46.18047358018309 2.5e-323 2.5e-323 46.61242459498844
2.5e-323 80.18035201651774 2.5e-323 2.5e-323 2.5e-323 2.5e-323 2.5e-323 2.5e-323
2.5e-323 59.958252845469225 2.5e-323 2.5e-323 2.5e-323 2.5e-323 2.5e-323 2.5e-323
2.5e-323 2.5e-323 92.66323203879507 77.64310887818814
00000000: 0500 0000 0000 0000 0500 0000 0000 0000
00000010: 0500 0000 0000 0000 0500 0000 0000 0000
00000020: 0500 0000 0000 0000 0500 0000 0000 0000
00000030: 0500 0000 0000 0000 0500 0000 0000 0000
00000040: 0500 0000 0000 0000 0500 0000 0000 0000
00000050: a4db 4c2b 0dd1 4a40 0500 0000 0000 0000
00000060: 0500 0000 0000 0000 0500 0000 0000 0000
00000070: 0500 0000 0000 0000 0500 0000 0000 0000
00000080: 0500 0000 0000 0000 0500 0000 0000 0000
00000090: 0500 0000 0000 0000 ee7f e10b d5c3 5040
000000a0: 0500 0000 0000 0000 0a85 ecdb 2483 5040
000000b0: 0500 0000 0000 0000 19d0 e85e f7f4 4d40
000000c0: 866b 7a27 7a3d 4540 0500 0000 0000 0000
000000d0: 0500 0000 0000 0000 0500 0000 0000 0000
000000e0: 0500 0000 0000 0000 0500 0000 0000 0000
000000f0: 0500 0000 0000 0000 92d9 243e e188 4d40
00000100: 0500 0000 0000 0000 0500 0000 0000 0000
00000110: 0500 0000 0000 0000 0500 0000 0000 0000
00000120: 0500 0000 0000 0000 0500 0000 0000 0000
00000130: 0500 0000 0000 0000 0500 0000 0000 0000
00000140: 0500 0000 0000 0000 5af3 fd80 8bd8 5740
00000150: 0500 0000 0000 0000 0500 0000 0000 0000
00000160: 0500 0000 0000 0000 0500 0000 0000 0000
00000170: 6353 76d0 0218 4240 0500 0000 0000 0000
00000180: 0500 0000 0000 0000 0500 0000 0000 0000
00000190: 0500 0000 0000 0000 0500 0000 0000 0000
000001a0: 0500 0000 0000 0000 0500 0000 0000 0000
000001b0: 0500 0000 0000 0000 e4a5 cccf 8a19 4e40
000001c0: 0500 0000 0000 0000 019f c5c7 e776 4b40
000001d0: 0500 0000 0000 0000 0500 0000 0000 0000
000001e0: 0500 0000 0000 0000 0500 0000 0000 0000
000001f0: 0500 0000 0000 0000 0500 0000 0000 0000
00000200: 0500 0000 0000 0000 0500 0000 0000 0000
00000210: 0500 0000 0000 0000 0500 0000 0000 0000
00000220: 4c11 ab75 7f2e 5a40 0500 0000 0000 0000
00000230: 0500 0000 0000 0000 0500 0000 0000 0000
00000240: ea50 824b 8f5a 4b40 0500 0000 0000 0000
00000250: 0500 0000 0000 0000 0500 0000 0000 0000
00000260: d656 1ec2 1917 4740 0500 0000 0000 0000
00000270: 0500 0000 0000 0000 e65e dbed 634e 4740
00000280: 0500 0000 0000 0000 872d 2fe3 8a0b 5440
00000290: 0500 0000 0000 0000 0500 0000 0000 0000
000002a0: 0500 0000 0000 0000 0500 0000 0000 0000
000002b0: 0500 0000 0000 0000 0500 0000 0000 0000
000002c0: 0500 0000 0000 0000 6d4b 7c07 a8fa 4d40
000002d0: 0500 0000 0000 0000 0500 0000 0000 0000
000002e0: 0500 0000 0000 0000 0500 0000 0000 0000
000002f0: 0500 0000 0000 0000 0500 0000 0000 0000
00000300: 0500 0000 0000 0000 0500 0000 0000 0000
00000310: 3112 cb64 722a 5740 76e5 23b2 2869 5340
