model_policy_epoch-220.pt (torch, 373906 bytes, 28 tensors)

layers.0.weight f8 [128, 128]
-1.5071626890272447 -0.2206413325402864 0.06331348209875588 -0.3984006227868412 -0.34332832710927563 -0.4142319771163304 -0.20841440577324172 -1.4344092558188977
-0.8763555073288274 -1.4782291475516787 0.2034947184132858 -1.1621928070983232 -0.48367248345684344 -0.21047397012942767 -0.7334519087110728 -0.15271407940833656
0.4128147296815057 -0.6106714221129902 -1.2705970018311485 0.03253370595161697 0.03417897565137755 -0.8236801117497847 -0.2911189770298288 0.7066178061963811
-0.8166171081137973 -2.6906802991748684 -1.3140837346522218 -0.9560627801872863 -2.487191130534109 -0.10363581453264413 -1.4876040453224604 -1.1584364728064827
-1.8226759190043607 0.05222555657872118 -0.1817306774449301 -1.1927491251765725 0.11263901836195629 -0.2891703301185613 -0.7155386974104584 1.1981140639179086
0.8777905933587399 -1.4618543854350077 -1.1416619877179692 -0.4534618737859074 0.6487124802417117 -1.6228305092243083 -2.074656825256935 0.17263955548677978
-0.9720499197837972 -0.4611030002603357 -3.9191521244622454 -1.9680854263670926 -0.26537177095440545 -0.28490522374799576 -0.7482023552622712 -1.7297446762760706
-1.3041092849462042 -1.2583858826987444 -2.180028245857826 -1.8995861531957035 -1.4855680408740588 -0.3967078027977132 -2.0222199655509265 0.26888572811960637
1.8833335017471917 0.5425716561444774 0.2729558869946146 1.1387609980813462 0.8652824283857533 1.0553143697793463 1.0366030772387262 0.10439469214254452
-0.569058053313849 1.0804098105220394 1.1852452140332665 2.316061551146436 2.242052239386299 -0.5522177867231619 1.9219505267924266 1.280436262521462
0.10916205503423276 1.6389379770624064 1.9689426154194256 0.6187358937362518 0.9057032182622565 0.5181659673499509 0.7924326936158795 -0.5163407397439387
0.8619197138208404 0.7460085058646495 1.6733392573529857 -0.17822109642170836 1.583419200883923 0.05705003564574028 2.277227335536661 0.4576420853727461
2.578243025492731 -0.04355741288820951 0.02486226767459042 1.5718916244487333 -0.06992565677596292 0.012640888194439365 -0.28294152303158154 -2.3505436701932805
-0.5629403026219311 1.7554354458578159 2.58205668338452 0.08676355447023808 0.08076631438047002 1.735243995576324 -0.5814770990838604 -0.19405029193815954
0.822633614856671 1.164450244685475 -0.267597530065207 -0.13359772100429387 -0.79431784456898 0.6075150151590861 0.6772710223040422 0.9841606880630067
2.5063426013510304 0.987594745860653 1.1701872873215058 2.5530695373007743 2.00745166287089 -1.1734923591970936 0.780098499185878 -1.4710194997780024
-1.7040648970638697 -1.0041142985777005 -0.44134327208116264 -0.5435299484398307 -0.614444149728427 -1.3406604322025872 -0.5255521099558474 -1.005436753162914
-0.7644209148264807 -2.2406851413474405 -1.350775836420264 -0.827092665095561 -1.256688992552535 -0.7145029471124646 -1.198265240172671 -0.5061995138343982
-0.4926648981409891 -1.2777936160537482 -1.4492653051293092 -0.4698055768456003 -0.5432172717092427 -1.0217695077369622 -0.2753589082683472 -1.150510399494332
-1.3807938287462735 -2.4044476953975313 -1.435971840667131 -0.3717713923419409 -2.111917356653445 -0.06716817463033943 -1.6656015670736577 -0.6605144870005857
-1.8914381869701464 -1.0043579313573385 -0.3361089497215838 -1.2328387046697664 -0.6328081825415509 -0.36410682011307877 -1.1768023594795334 0.019013621424896758
-0.055790583651369095 -1.4804854472803117 -0.9772359258875916 -0.6171433241981659 0.17879400341584395 -1.1655089739234095 -0.41073522013090374 -0.7765902780533624
-0.35688346942081334 -1.0860067094265184 -4.180506780492827 -1.938649159886135 -0.7448916390391195 -0.7962346416310112 -0.2709992591945708 -1.810107297033245
-0.4591121973096098 -0.8374249701407497 -1.6506324230660634 -1.8300163455890819 -1.6493113186186337 -0.14394085123071593 -2.1000708371282357 0.35242967924658414
1.5649654632308152 0.37628367169675764 0.2168346761146169 1.0721494186217246 0.6151201979168753 1.0910416743065057 0.32227919030012714 -0.09399696853171166
-0.27327299549794265 1.4535711395448863 1.4911617997717197 1.9894434630923663 1.5595995375532559 0.019502039261156578 1.6019757117364624 1.0108055965841276
0.4101966746736995 1.1378658411220643 1.0830317008645258 0.5205137457156381 0.6942166126200628 0.7576474388388599 0.6438626722893411 -0.2985033227099257
1.5903714818619108 0.9986352023080095 1.0208218317108255 -0.30197543249682984 0.8948498376641033 -0.26105145055901385 2.3187675776724928 0.29922746683753126
2.5101753115991827 0.5783361217617887 -0.08469699184398173 0.42895958170479725 -0.314698777199531 0.08043752813653572 -0.23808101467947135 -1.2612456192948056
-0.5640858219050102 1.3751481557921765 1.5659157864410782 0.7701333089267494 -0.3764582299914563 1.3766863800279527 -1.037445165379614 0.4591667199353107
-1.0660132355108012 0.9055568116580204 0.8230978862085908 0.2273303297223182 -0.1331621164780137 -0.25400212037222514 0.25284066888174256 0.5909181958472637
0.10970489392724728 0.398112318122567 0.8391136359348491 1.981358190591243 1.5076166285846453 -0.8883089939299361 1.4073070000003858 -1.9564308772344627
00000000: 96f9 b19f 561d f8bf 9c04 b4a5 f93d ccbf
00000010: d991 02f7 4f35 b03f 3ed5 6453 657f d9bf
00000020: f661 2e60 17f9 d5bf 0603 abd6 c682 dabf
00000030: 36da 67c0 52ad cabf 5a26 ad1e 57f3 f6bf
00000040: 9ab2 74b4 1a0b ecbf 9aa7 4b9b d3a6 f7bf
00000050: 9034 3f6c 1d0c ca3f c723 227c 5798 f2bf
00000060: 0a06 9b6e 7df4 debf fbbd 2ea1 cff0 cabf
00000070: 6d4a 2323 7078 e7bf 6749 598c 228c c3bf
00000080: 6481 d278 8e6b da3f a377 52cb 9e8a e3bf
00000090: be2a 9485 5d54 f4bf 6fe5 2806 42a8 a03f
000000a0: 2653 441d e87f a13f 2697 ca64 965b eabf
000000b0: 44a3 657d b1a1 d2bf a74f 0cf2 9c9c e63f
000000c0: cb7d 9633 ba21 eabf 9894 8764 8386 05c0
000000d0: e096 88aa 7c06 f5bf ae78 baf8 1098 eebf
000000e0: b45c a476 c4e5 03c0 dfad 1c72 e087 babf
000000f0: 93ea 40e6 39cd f7bf b328 d3ae f488 f2bf
00000100: 9f49 7539 ae29 fdbf 2fc1 0ae3 4ebd aa3f
00000110: b827 276a f342 c7bf b174 4f1b 8015 f3bf
00000120: cd3e 1e24 e9d5 bc3f b04b b545 c481 d2bf
00000130: bdcf 0c69 b1e5 e6bf 2c7b 16a7 792b f33f
00000140: 87ca 664c dc16 ec3f 1252 8f6c c163 f7bf
00000150: 4a5c 455c 3f44 f2bf ae2c 79f3 8405 ddbf
00000160: 76a5 e4ac 40c2 e43f 631c c11f 1df7 f9bf
00000170: ba36 77ad e598 00c0 ace5 678e 0d19 c63f
00000180: 6ba0 f16e 081b efbf e628 8d28 b682 ddbf
00000190: 04ea d46d 6c5a 0fc0 aeb1 df24 477d ffbf
000001a0: 34f8 61e1 d9fb d0bf d642 9d1e e33b d2bf
000001b0: 3888 d410 46f1 e7bf c392 f0c0 08ad fbbf
000001c0: f10f 94b2 a1dd f4bf f606 3f3c 5922 f4bf
000001d0: 5f86 22a6 b270 01c0 548f 3e73 b464 febf
000001e0: 0997 78fe e2c4 f7bf 7663 c51f a963 d9bf
000001f0: 35e0 4aa9 812d 00c0 7fa1 287c 6c35 d13f
00000200: 1072 574f 2222 fe3f 1b11 dc3b bf5c e13f
00000210: 661f f9f7 1b78 d13f e583 cb73 5d38 f23f
00000220: 790c 77c6 64b0 eb3f e237 1352 91e2 f03f
00000230: cdc5 ba1b ed95 f03f d2d2 a04c 9cb9 ba3f
00000240: dc44 103c b935 e2bf f583 27cc 5b49 f13f
00000250: e336 80af c3f6 f23f 6793 4d47 4b87 0240
00000260: a5b3 a015 b9ef 0140 00db c7a2 c4ab e1bf
00000270: b5a7 1132 4fc0 fe3f 3f46 02bc aa7c f43f
00000280: 0410 5660 0bf2 bb3f a87c 3a07 1739 fa3f
00000290: 8fd5 cef8 c980 ff3f 4dac 8e37 afcc e33f
000002a0: db2f ca50 85fb ec3f 3f62 75cb d094 e03f
000002b0: 8390 ebce 9b5b e93f 815d d903 dd85 e0bf
000002c0: 0b6c d4a6 d894 eb3f 703f e73a 4ddf e73f
000002d0: a11a 9762 ffc5 fa3f f853 4bea f2cf c6bf
000002e0: 7c7a 3a5f af55 f93f ae0d ab8a a935 ad3f
000002f0: 577f 1df7 c237 0240 70bf 7c07 024a dd3f
00000300: 0e0d 1de1 3da0 0440 66da b43f 284d a6bf
00000310: bc5d 448a 7e75 993f 67d1 fdd4 7726 f93f
00000320: 7d0b 01d9 a5e6 b1bf 9d9e 194b 77e3 893f
00000330: fd77 06c3 b61b d2bf 4c66 fad6 e9cd 02c0
00000340: b691 ab61 9b03 e2bf 0c2d 637a 4316 fc3f
00000350: 1c70 9c55 0da8 0440 ff33 efe4 2236 b63f
00000360: 52f0 e1e6 19ad b43f 774a 3935 8fc3 fb3f
00000370: 2d05 7edc 759b e2bf baaa d3d4 a3d6 c8bf
00000380: 07ca 0cbb 0353 ea3f 9ce4 6b94 96a1 f23f
00000390: 4db5 0764 5120 d1bf 2b4c 44e9 ba19 c1bf
000003a0: 04b2 a141 0d6b e9bf b3fd 3d54 c370 e33f
000003b0: 0f61 6a47 34ac e53f c0a9 278e 3e7e ef3f
000003c0: 72fe 8a59 fd0c 0440 b188 e54b 609a ef3f
000003d0: 69da 134e 16b9 f23f 26f7 b8b8 af6c 0440
000003e0: 7ba6 42d1 420f 0040 ebb7 8dec 9fc6 f2bf
000003f0: 572f b520 91f6 e83f 6132 35be 4b89 f7bf
00000400: 326a b28d d943 fbbf 2f65 9d27 da10 f0bf
00000410: 7e7c f9d9 f73e dcbf ad42 1eeb 9864 e1bf
00000420: faaa 09c7 86a9 e3bf 149f 755a 5873 f5bf
00000430: 4955 93a8 52d1 e0bf 8d7f 50d9 4416 f0bf
00000440: 40dc b1d9 2276 e8bf 5ec3 d554 ecec 01c0
00000450: eb6e 9a1f c79c f5bf ee19 6b09 8b77 eabf
00000460: e919 c4ea 651b f4bf 02cc d748 35dd e6bf
00000470: 739a 272c 182c f3bf 546f a552 c932 e0bf
00000480: 28c6 595a d287 dfbf 9bd0 ffb7 d771 f4bf
00000490: 2120 0cd1 3030 f7bf eaef 0169 4b11 debf
000004a0: 26a2 1330 0962 e1bf fe7b bcfb 2a59 f0bf
000004b0: 2c30 6bf8 7a9f d1bf aa93 b897 7d68 f2bf
000004c0: eebd 0f45 bb17 f6bf 5566 c512 4f3c 03c0
000004d0: a846 da9b bdf9 f6bf fe9b ec3c 1acb d7bf
000004e0: 5573 55ed 34e5 00c0 118c 5ef9 ee31 b1bf
000004f0: 9ff6 2bd4 4da6 fabf 9874 0647 ef22 e5bf
00000500: b613 37b0 5443 febf 1887 4a9f d911 f0bf
00000510: 769d bc1c cf82 d5bf 5dcb dc13 b5b9 f3bf
00000520: 7307 15f2 f63f e4bf f7b7 28b1 864d d7bf
00000530: ab1f fdb5 2ed4 f2bf 2e38 cb88 4e78 933f
00000540: 0b2e 6a58 9590 acbf ae5d 2482 11b0 f7bf
00000550: 463b c546 8445 efbf f206 4c5b a3bf e3bf
00000560: d02b b2ce b8e2 c63f 0421 e3bc eca5 f2bf
00000570: 13c4 7160 7c49 dabf 022f d4da d3d9 e8bf
00000580: 634e 69c3 2dd7 d6bf 5793 4392 4860 f1bf
00000590: 18b1 fbc4 d6b8 10c0 ab0f 42fb b404 ffbf
000005a0: 5194 97fd 26d6 e7bf 4deb 3712 c17a e9bf
000005b0: 36c7 de46 0d58 d1bf d223 b011 33f6 fcbf
000005c0: 21ed 2820 1862 ddbf 2a77 7373 2fcc eabf
000005d0: 5e93 2c8b fd68 fabf 6a35 3738 bf47 fdbf
000005e0: 143c e643 9463 fabf e212 4c60 a76c c2bf
000005f0: 30fe 65f0 f1cc 00c0 0f3f a036 358e d63f
00000600: 2b22 bf39 190a f93f 3f35 fd1b 0815 d83f
00000610: 3788 4619 3dc1 cb3f d57d 1626 8627 f13f
00000620: 532f a58d 10af e33f 2d83 5b1d e874 f13f
00000630: 574e a1e5 38a0 d43f ce4f c471 2f10 b8bf
00000640: a7ca a204 4e7d d1bf 6913 accf d341 f73f
00000650: 4b06 b179 ccdb f73f 2a90 33ab c2d4 ff3f
00000660: 095e 0aa5 1ef4 f83f 63f1 53b3 57f8 933f
00000670: 954f ae48 b1a1 f93f e114 3f7d 422c f03f
00000680: 07b2 a98d a940 da3f 41ad edcf b234 f23f
00000690: 09e9 7b0c 1954 f13f b2f2 5e71 0ca8 e03f
000006a0: d660 f1c1 0537 e63f 08c1 76d7 a53e e83f
000006b0: e121 13e4 859a e43f 7155 32ae ad1a d3bf
000006c0: 4d68 f15d 2972 f93f 0783 d1cf d1f4 ef3f
000006d0: 5dda e345 4955 f03f dd3c b1c3 9053 d3bf
000006e0: b924 7320 9ca2 ec3f 595b ae24 11b5 d0bf
000006f0: 2907 0904 d68c 0240 ad74 08f6 8a26 d33f
00000700: 5d5c 34cb d614 0440 d3fe 21c1 ba81 e23f
00000710: 611b 0aba b3ae b5bf a396 aee3 1274 db3f
00000720: 7a71 0a57 0624 d4bf 21ae b7c8 8d97 b43f
00000730: c664 ec4d 7079 cebf e582 f1e2 0f2e f4bf
00000740: 8004 a7b5 fd0c e2bf 8783 445a 9b00 f63f
00000750: 71df 30b6 fd0d f93f 27d2 ec9b eea4 e83f
00000760: fce4 8742 e417 d8bf 5519 314c e806 f63f
00000770: 182e 0b1a 6099 f0bf f928 62cf fc62 dd3f
00000780: ddf3 f9e4 630e f1bf 26b8 5747 52fa ec3f
00000790: 2986 d560 d156 ea3f a2eb c505 2919 cd3f
000007a0: 496b abcb 740b c1bf 5441 071c 9241 d0bf
000007b0: cb88 fca0 8a2e d03f 6dcf b846 cde8 e23f
000007c0: eaf0 a0b3 9e15 bc3f b427 9e16 ac7a d93f
000007d0: 71f8 fed6 04da ea3f 9a04 64a5 a4b3 ff3f
000007e0: 4cd4 2a9d 321f f83f e17e b5fb 066d ecbf
000007f0: bcef 4658 5484 f63f abb4 a976 8a4d ffbf

layers.0.bias f8 [128]
-2.380857884003409 -2.582794667462177 2.4271742779468477 0.7257934322926007 0.16643961236634724 -1.705144367627772 0.7536302108968519 2.0029827393617694
-0.025249353219818596 0.6359209948496234 1.000788058319611 1.4234944734658554 -3.4791071145935777 -2.0694712509269997 -0.26260413806936683 2.8560073193135485
1.9307210832456279 -0.15370561493576157 2.0458547394356312 -0.5936635537732409 0.8417031546963755 -1.1167600099797357 0.20689040433501027 -0.5879759094123175
1.0376109768035626 -2.6922984632697697 0.5122507679020414 1.4396195754411758 -1.056424024966 -1.0928513987557127 -1.6376499826940782 0.954933657618177
0.3171577693595586 0.35171443061360463 0.5754003200821174 0.11604929969435872 2.0868546245616173 -2.6773819700844403 -0.8206418046206858 -1.3486524320106896
-0.48664939219790887 1.8835738708664076 -2.0249409334612873 -0.42435997147303933 -2.2053409836457245 -0.12275185004419223 0.05590666238032714 0.45835346823849393
0.22140166206505593 0.027607411484955456 -2.534397118731155 0.2073872144527628 1.6856557870734277 2.277116044034863 -0.5295981077905003 0.9610861552079084
1.8359781039638066 0.7521453146748174 0.30327540926526836 -0.4872056119183562 -1.9582685446056745 1.781353236769707 1.253612750877403 0.39902875792851084
-0.79699957388954 0.45313286491693294 -0.6732642981005824 0.991767043740395 0.9244451405693076 1.7683865283825335 -2.186101488691453 1.0602698834578361
-1.4196008028016907 -0.5344092007052917 -1.8629127102266032 1.5323516894076072 -0.6974575793569248 -0.3147534004839757 -0.8608063926905751 1.480065048536612
0.31890499058101646 -0.3506449796078183 1.9384687433228323 0.9493613986275019 0.8629277892800558 -0.9272472962971994 -1.1244323799634524 -1.9655766582129428
2.191984313033626 -2.030188412058473 -2.2916473917461837 -2.3019006619114175 -2.358625335402655 -0.2286135396602428 -2.3882452706397315 -0.7479789688000085
-1.2944711092675878 1.0512223224829644 1.8785540314189764 0.7601535809290377 0.467430411519866 -3.524678453647412 0.8113381192667997 -0.8712511247463446
1.6900558857859025 -0.4098424524981837 -2.0141018158307706 -0.8728801511016908 -0.21106904646276178 2.020629982337402 1.8036383305365409 -1.648289298070684
0.08512844076268045 -1.5617570242919978 -0.7825854126231958 0.35747449848827234 -0.07220070551744591 -1.1840453830498043 1.7326232806705884 0.0880025758606848
-1.4285704857437116 0.43924999823610156 1.4856189721168767 -0.6050242201336848 0.254637614904054 0.7507511000139835 -0.5344294302753846 0.1867899886270228
00000000: 4abf e137 ff0b 03c0 1644 2840 90a9 04c0
00000010: 02cb 0b59 da6a 0340 5c25 eb25 b339 e73f
00000020: 1aaa efa9 e44d c53f d6b7 de75 4548 fbbf
00000030: c58b a21a bd1d e83f 2017 80d0 1b06 0040
00000040: 440e 4c69 f7da 99bf 5e01 77fc 7659 e43f
00000050: 725c cb56 3a03 f03f 5329 1924 a2c6 f63f
00000060: c7ae 631c 36d5 0bc0 0bf3 75f1 468e 00c0
00000070: 3b57 3396 81ce d0bf e1b4 8c5d 1ad9 0640
00000080: 7acd 63ca 3be4 fe3f 462a ae26 a0ac c3bf
00000090: ecf0 f116 e95d 0040 0810 89b5 4aff e2bf
000000a0: ff8c 4b74 3bef ea3f 617f 85be 3fde f1bf
000000b0: 9ccf 3c80 627b ca3f 5b60 b8da b2d0 e2bf
000000c0: 7d78 b5f7 0d9a f03f 8b84 d6c6 d389 05c0
000000d0: 58af efb8 5b64 e03f 5738 3389 ae08 f73f
000000e0: a500 dfe0 1ce7 f0bf c1b2 90bf 517c f1bf
000000f0: de74 df77 d033 fabf 3d3b aa07 d18e ee3f
00000100: 5795 c419 504c d43f 8011 413e 7d82 d63f
00000110: 408a 9bee ad69 e23f 8f35 e92a 68b5 bd3f
00000120: f0fc 5fd6 e0b1 0040 414d 033d 476b 05c0
00000130: c870 129a b242 eabf 2782 9292 1494 f5bf
00000140: 53ee 067e 4325 dfbf a48a ef5a 1e23 fe3f
00000150: 2f62 6c3b 1433 00c0 1953 cdb9 b628 dbbf
00000160: 7c4b 4ad0 89a4 01c0 f29a 764d aa6c bfbf
00000170: 2ea2 1a4d cc9f ac3f 9feb 05c9 a955 dd3f
00000180: 13bb ecc0 e356 cc3f 5605 d205 1e45 9c3f
00000190: 2c37 20ff 7146 04c0 9e71 d70b aa8b ca3f
000001a0: 39b2 dc33 72f8 fa3f f19c d29d 8837 0240
000001b0: 527a 1fbb 77f2 e0bf fe33 a8c0 37c1 ee3f
000001c0: 6d25 8b93 2a60 fd3f 68c6 0b0d 9311 e83f
000001d0: 056c 1e43 dd68 d33f 0e7d 6772 602e dfbf
000001e0: c7de bd65 1155 ffbf 4fcb 6840 6c80 fc3f
000001f0: 67df 6d3e cc0e f43f 65da 5dea af89 d93f
00000200: 2102 1940 0581 e9bf a2e7 e3fc 2000 dd3f
00000210: 3301 bd91 618b e5bf fbb2 433d 8ebc ef3f
00000220: 1f1f b6f9 0d95 ed3f 7770 21ac 4f4b fc3f
00000230: 6955 fdc6 227d 01c0 8629 a68d ddf6 f03f
00000240: a789 d654 afb6 f6bf 49be f652 e119 e1bf
00000250: a39d db8e 7dce fdbf ca9d 7f34 8384 f83f
00000260: 1dee b58e 9251 e6bf b68a 5872 eb24 d4bf
00000270: 6e66 19d9 b98b ebbf adad 36b0 58ae f73f
00000280: e5e7 447a f068 d43f c704 fba3 f770 d6bf
00000290: 8d3c 0ecd f703 ff3f fd13 e627 2b61 ee3f
000002a0: b28e 38bd 1a9d eb3f 1ed4 9c85 02ac edbf
000002b0: 841a a8ce acfd f1bf 92e3 8c82 0073 ffbf
000002c0: 7998 4e12 2f89 0140 1313 146c d33d 00c0
000002d0: c51b 4c3a 4b55 02c0 ff66 ece4 4a6a 02c0
000002e0: 4c92 b8f5 76de 02c0 bdbb 215e 3543 cdbf
000002f0: 66cb 2156 201b 03c0 5cf0 2297 71ef e7bf
00000300: f5bc 7e56 27b6 f4bf 623b 7e7f ced1 f03f
00000310: 556a 0bac 8e0e fe3f 55e1 409a 2d53 e83f
00000320: a88d a83e 61ea dd3f e2a6 fa9d 8a32 0cc0
00000330: 3cf8 075c 7bf6 e93f c670 ec09 4ae1 ebbf
00000340: e0cd 5d0a 780a fb3f 197f 7fd6 db3a dabf
00000350: 8175 ae69 e11c 00c0 cae5 c95a a2ee ebbf
00000360: 1fb3 e07d 4f04 cbbf 4ca6 5b0d 402a 0040
00000370: b576 b7dd b3db fc3f 55f7 5899 645f fabf
00000380: f001 093d faca b53f 581e faee f4fc f8bf
00000390: a562 3190 f00a e9bf f94f 0ab8 dce0 d63f
000003a0: 0510 f2d4 be7b b2bf f7db 5292 d9f1 f2bf
000003b0: 644b 6c30 d3b8 fb3f fe0f 4939 5687 b63f
000003c0: 1ccd c4b9 6cdb f6bf 984b 4c06 ac1c dc3f
000003d0: 29f2 3866 18c5 f73f f862 d8c0 5b5c e3bf
000003e0: e609 1691 fb4b d03f ecdf bf2b 2706 e83f
000003f0: a1af a1bf 0b1a e1bf 79c7 2ffe bbe8 c73f

layers.1.weight f8 [100, 128]
-0.05261163714031112 0.043856121655677295 -0.029926756151661363 -0.10077144523351601 0.11771097105306962 0.011609530330007922 -0.07807138586432612 -0.11658209205079913
0.10745128367169363 -0.021803165602445232 -0.028990306605892142 0.06789254034174687 0.036173022523290306 0.07249015589309463 0.041345516978161814 0.03987335686474679
-0.05389313441173228 0.058285895671782294 -0.022013075877405325 -0.21299609077307166 -0.04469412435236504 -0.03689040922194189 -0.1154258196263856 0.12897540667326543
0.09611236629514786 -0.0007657200841097988 0.13882611993037086 0.06027652599511887 -0.013207390231469324 -0.11909350886588499 -0.07592372575267536 -0.08988760960106125
-0.06497843826016647 0.006617160977586743 0.10485443172994967 0.16256778756524223 0.012869283794161362 0.02024312924587026 0.06275447785614999 -0.013811157333784697
-0.06914811773190323 0.19957889917162275 -0.15854670275893248 -0.004453888434471127 -0.07492804880345505 0.24567576320317652 -0.06401833694620979 0.2538581116848433
-0.1606626484328763 0.04542385205622159 0.004098740054795778 0.065691197496429 -0.052622143637189846 0.02231323043732208 -0.03938313980753685 -0.024995145939501848
0.0014944175051989097 -0.10723472442074178 0.057431398240811594 -0.06696404914777125 0.12455815018399712 -0.010363580525615418 -0.10329083238054085 0.033828643487628096
-0.06636911288641631 0.003849525822312353 -0.020389505632734985 0.06880610926337115 0.029502876219844067 -0.12346771539475815 -0.19807975877322698 0.1267707866559948
0.07123598806838978 0.07499631357540247 0.015127494904675787 0.02568958381304476 -0.019811332985368434 0.09344081938808106 0.010312540507794357 -0.05019315736168855
-0.11929139586717351 -0.1619412965507035 -0.12663922487252965 -0.06347844103397901 0.1622381354691993 -0.07635864617434601 0.20448360579176736 -0.021897409205367303
0.08743293460618463 -0.1421464600493251 0.06829993284494115 -0.028418313038891974 -0.06366031645204263 0.021993889662307486 -0.08507204888497459 -0.02013461513703776
0.00561683948791497 -0.0668264385135461 4.1316369605897146e-05 -0.07393492753360609 -0.0678335546046234 0.08152719847645275 -0.13859041304037886 -0.023419178003850818
0.012120467180666497 -0.10410066011621023 -0.012639404391815889 0.030033241299651646 0.14725887048301492 0.06827356942504025 -0.023893465531577417 0.024727886956731778
0.022708227896539302 -0.03422291863720732 -0.07182422380259265 -0.021329059512159715 -0.07125987301576475 -0.06258576838030254 0.05012818033900747 -0.07794400488395752
-0.022298110675928105 -0.028947780478552898 0.14291368541257327 0.03447322253576388 -0.11651298390019649 -0.03753998710956816 0.1231876050696159 0.1419209805821952
0.17052765789780314 0.8513494116141648 -0.19807918313006323 0.43193300644382093 -0.6439076519026106 0.5368019965062418 -0.697409169432715 -0.8799660843728324
0.057868061962651075 -0.3293768294518639 -0.2767207756279021 -0.13861543621158962 0.9719005443008712 0.29417605917272255 0.046869987615154256 -0.3048796917918705
0.07034039340711257 0.44219665156964943 -0.4575908759679681 -0.2961541142611359 -0.676346348909818 -0.015902159269070255 -0.1796320086558827 -0.48968158393515315
-0.17262932571635298 0.7509054286653004 0.3311270361368914 0.046656723991274754 0.3102485509758533 0.21150925577731883 -0.10120823807681169 -0.5011402098927087
-0.9969021939544868 0.10118421447176888 0.4008943464038841 0.17130385430084577 -0.8598515092878111 0.7276234988301657 1.7428030031111512 0.3387542851138851
-0.3232025255181676 -0.024682665694898583 0.008776371810500528 0.09798618466298117 1.1959601806822695 -0.09091575432839429 -0.43565283256405757 0.2865172333948539
0.6965659330037856 0.3421121329489644 1.1507359119289575 -0.8555438309026446 -0.7831426726915682 0.31685846408806406 -0.06724962321401681 -0.7388992883551884
-0.898436821704129 0.1607418424437753 0.9135126717139309 -0.26336653223661477 -0.04820588487754729 -0.9800118824966418 -1.0582528578556907 0.005303133471321756
0.4685424277904962 0.5688823037628654 0.09130687865798727 0.04348973268093737 0.5624289897974174 -0.19292315946829727 0.46383984091269653 0.2810700635525665
0.3628441139820663 0.36449689193002555 0.802506306171251 0.11698574832855452 -0.12488275895643787 -0.1443444952643458 -0.6059139416849059 -0.5688029487758176
0.08936146514101515 0.5369307832802181 0.2677137980130544 -1.5634997676793878 -0.4269420540346036 -0.05164257540178452 0.12331330219278454 0.06791104752221279
-0.24739939535450758 -0.33858762285733046 0.5169436430648373 0.4195460587441637 -0.26841695718325154 1.096164704023328 0.23298209672730577 0.5383299651388638
0.5173787137076375 0.09662157901662628 -0.3203503228190271 -0.13593644289781517 -0.901217202024127 0.6622280321020708 0.27004435666824783 -0.4495767052300662
-0.4675761888420264 -0.1650943200775835 1.568229474469585 -0.44710144162642773 1.2190990083662119 -0.45392824666292086 -1.9646569198665311 -0.6566350510911958
-0.35052013981316216 0.5161964508708616 0.32034565875046017 -0.2618263073876714 0.5635842215825343 0.0402395954471911 0.19335656290659348 0.16100352596909345
0.29982991404953885 -0.7587346885762125 -0.19435961637037222 -0.8027212387755581 -0.09607426065990211 -1.5229743549043249 -0.18064323163625287 -0.8038271251607901
00000000: 1d35 d099 e9ef aabf ed26 7b40 4f74 a63f
00000010: 7479 c99b 1ea5 9ebf 110b a64d 28cc b9bf
00000020: 79a7 0d63 4e22 be3f 13e5 b6c8 bcc6 873f
00000030: d569 0a81 7cfc b3bf 3d4e a8f0 52d8 bdbf
00000040: 0e7c 4865 ed81 bb3f 64db d8ac 9153 96bf
00000050: 12e1 178b a2af 9dbf 7900 69d0 6761 b13f
00000060: 5952 7839 4585 a23f a2c0 d700 b78e b23f
00000070: 42cc 8356 3d2b a53f 8e80 6ed7 476a a43f
00000080: 32fd 8d83 e197 abbf 4bed 741f a6d7 ad3f
00000090: 454a e983 988a 96bf 8fe9 05b6 7443 cbbf
000000a0: 3a62 d5f4 25e2 a6bf 53e1 49ba 4ce3 a2bf
000000b0: 44c9 68e8 8b8c bdbf 6332 d320 4482 c03f
000000c0: c894 faed d19a b83f f5d7 0c5c 5317 49bf
000000d0: f03b 77e6 0dc5 c13f ab26 bb97 90dc ae3f
000000e0: fd9a e0e8 790c 8bbf 48af be85 e97c bebf
000000f0: 8824 19bf bc6f b3bf 415b 8dd7 df02 b7bf
00000100: 28c7 454b 6da2 b0bf 3e8e db9f 981a 7b3f
00000110: a7ec 1e73 bdd7 ba3f b7e6 7c71 05cf c43f
00000120: 23a3 2608 365b 8a3f 86a0 5168 9dba 943f
00000130: 32d9 116e ad10 b03f 0752 8c28 0649 8cbf
00000140: 290d 3de8 b0b3 b1bf 70f7 7426 cd8b c93f
00000150: e97e 9e23 424b c4bf ee49 a892 3d3e 72bf
00000160: 68f7 290f 7c2e b3bf 6051 30ac 4d72 cf3f
00000170: 543d 8777 8163 b0bf 98af e017 363f d03f
00000180: 169e 5afa 9790 c4bf 8362 148e cb41 a73f
00000190: cbaa d727 d7c9 703f 75da e168 23d1 b03f
000001a0: 9d2d ef23 4af1 aabf ef52 fc8b 47d9 963f
000001b0: e36d f9e2 062a a4bf ecc2 79d9 5398 99bf
000001c0: 06f7 ed93 0a7c 583f e8f5 6122 bc73 bbbf
000001d0: b569 6af2 a567 ad3f 23f0 1851 8e24 b1bf
000001e0: fb92 7dfd 0ae3 bf3f dd74 6a3b 8039 85bf
000001f0: 0211 0d9b 4471 babf 6812 e5ea fc51 a13f
00000200: eeca 4ff1 90fd b0bf 08ce 6170 0a89 6f3f
00000210: 7a2f 7f8f fce0 94bf 3f1a 0df5 469d b13f
00000220: e737 0282 0036 9e3f 7479 bb87 949b bfbf
00000230: 361d f772 ad5a c9bf d749 636f 063a c03f
00000240: 954e 0d8f 853c b23f 777d 205a f532 b33f
00000250: 7a81 16ff 29fb 8e3f e0ac 4cc9 5e4e 9a3f
00000260: 869e 0c0d 6c49 94bf bb1c 62cf bceb b73f
00000270: e8d8 c1c1 bd1e 853f 27ef b3e2 eab2 a9bf
00000280: 4f96 f183 e189 bebf 5a4f 470e 7eba c4bf
00000290: 68f1 9bd0 b635 c0bf fef3 3d84 1f40 b0bf
000002a0: 908a 001f 38c4 c43f 44ed 1580 3d8c b3bf
000002b0: 57ce b8cf 842c ca3f dde1 9d41 466c 96bf
000002c0: 2114 ba3a 0162 b63f fdb6 93ee da31 c2bf
000002d0: 2e55 e3b9 1a7c b13f 0029 70b4 b019 9dbf
000002e0: b1eb 36e1 0a4c b0bf f3ea 3ef3 9085 963f
000002f0: 03c2 c323 48c7 b5bf e7de 1f26 2b9e 94bf
00000300: bf05 85de ae01 773f 7980 ec97 891b b1bf
00000310: c5b5 64a6 63a9 053f d0f9 c93f 66ed b2bf
00000320: 6229 9932 8a5d b1bf 91dc 306b f7de b43f
00000330: 6b16 c6a5 54bd c1bf 77c2 806e 32fb 97bf
00000340: fbc2 3991 9dd2 883f 31ee b042 57a6 babf
00000350: 86b7 0724 b0e2 89bf d613 b3b4 08c1 9e3f
00000360: 119e 62f0 60d9 c23f 8f9a dc6b 607a b13f
00000370: 7656 2f54 8777 98bf 3f07 1d67 4452 993f
00000380: adba a960 d340 973f 3615 a498 aa85 a1bf
00000390: b6ef 4a84 1263 b2bf 6895 3cf4 48d7 95bf
000003a0: b0ac 1e48 163e b2bf 2b70 63f4 9e05 b0bf
000003b0: 62fb 539e 66aa a93f 3357 e567 23f4 b3bf
000003c0: f979 76e0 50d5 96bf 70e7 c9a9 7ca4 9dbf
000003d0: 0ab9 7fe2 fe4a c23f cdf6 c166 79a6 a13f
000003e0: d824 697f cbd3 bdbf 0c10 dbf1 7038 a3bf
000003f0: a0eb 0b0f 3989 bf3f 6ebf 1b79 772a c23f
00000400: 6d05 deac d9d3 c53f f740 0b1f 413e eb3f
00000410: 28f0 c79e a85a c9bf 884e 2f56 caa4 db3f
00000420: 901b 5238 e49a e4bf 827f 6d61 7b2d e13f
00000430: ed9b d408 2d51 e6bf 450e 3fa2 ae28 ecbf
00000440: 0598 39f3 e1a0 ad3f 4794 a38d 8214 d5bf
00000450: 9a84 5c0e cbb5 d1bf 4ef1 9f8e 26be c1bf
00000460: 3494 972b cf19 ef3f a96e 5ad2 c7d3 d23f
00000470: 8f28 f1cf 57ff a73f 2f7b 5d1c 2683 d3bf
00000480: 6475 45f9 d301 b23f 491c 392f f34c dc3f
00000490: 20bf ce3d 2b49 ddbf 8cf4 d462 30f4 d2bf
000004a0: 08c6 2a19 a1a4 e5bf c55a fcd7 a748 90bf
000004b0: 78f3 3e81 2efe c6bf 181e 1d6d f156 dfbf
000004c0: 5a21 24be b718 c6bf d333 50d2 6a07 e83f
000004d0: 03e1 c173 2f31 d53f 22af 5cdf 63e3 a73f
000004e0: c5a6 04bd 1cdb d33f 80b4 2e3c bc12 cb3f
000004f0: 192d a078 c8e8 b9bf 6e64 8631 5709 e0bf
00000500: a10b 0b6e 9fe6 efbf 2b17 076c 35e7 b93f
00000510: bc2e bdc2 40a8 d93f 1650 f3e1 48ed c53f
00000520: 21d6 f94f e783 ebbf 5eda 6813 b148 e73f
00000530: 4aba db66 85e2 fb3f 6f6a fc73 26ae d53f
00000540: db72 45a5 59af d4bf f231 c0a7 6946 99bf
00000550: 8da5 3aaf 58f9 813f aa5a 9662 9f15 b93f
00000560: dc93 7524 a722 f33f 8118 883f 4146 b7bf
00000570: db6e 116b bce1 dbbf 86f6 ca60 4c56 d23f
00000580: 9d49 b8a3 444a e63f a728 a549 2ae5 d53f
00000590: ed14 410f 6a69 f23f 6aaf c074 9d60 ebbf
000005a0: 82fe e938 810f e9bf 8404 2eb9 6847 d43f
000005b0: c65d 5f74 4537 b1bf 1ebe d01e 10a5 e7bf
000005c0: b0b9 d793 febf ecbf cb88 324e 3093 c43f
000005d0: fbc5 2fed 7e3b ed3f d84c b44c ffda d0bf
000005e0: 6030 0c16 71ae a8bf 8d76 20e1 415c efbf
000005f0: 3b38 768c 9aee f0bf aadc 350d bdb8 753f
00000600: 0983 0961 99fc dd3f 9ce8 3da9 4834 e23f
00000610: a963 bc39 e35f b73f 011f 2747 4944 a63f
00000620: 3b12 b014 6bff e13f 9356 47c2 b4b1 c8bf
00000630: e951 d34c 8daf dd3f 50f2 b54a 0dfd d13f
00000640: 2e57 c684 d638 d73f 9c51 95c5 ea53 d73f
00000650: 6edb 7ab4 21ae e93f 8c52 2b2b c7f2 bd3f
00000660: d159 8d05 51f8 bfbf 914d 4263 e179 c2bf
00000670: 9544 77a2 a563 e3bf 3789 db3d a233 e2bf
00000680: 56a5 4d9a 64e0 b63f 36ef 4c77 892e e13f
00000690: 70db c90d 3922 d13f fcc8 1755 1804 f9bf
000006a0: 6c67 d7c3 0453 dbbf 301f dd48 e570 aabf
000006b0: 1d6c 14e8 7591 bf3f 191f 2550 9e62 b13f
000006c0: 3384 0c8c c8aa cfbf de2a c06b 6bab d5bf
000006d0: 98d5 1a65 cd8a e03f 3f33 5eb6 d7d9 da3f
000006e0: 38cf 3251 be2d d1bf 96f4 2c00 e489 f13f
000006f0: 19a7 ff7a 5bd2 cd3f be4d 57c3 ff39 e13f
00000700: ceaa e0cd 5d8e e03f b1db f619 31bc b83f
00000710: 3254 f1a3 9e80 d4bf f953 4a88 5d66 c1bf
00000720: f728 2975 c5d6 ecbf 3eee 8bd7 f830 e53f
00000730: c901 1720 6848 d13f 966b 805f ddc5 dcbf
00000740: abbf ddad c4ec ddbf b489 be88 cf21 c5bf
00000750: ac85 17ca 7717 f93f deea 715d 4f9d dcbf
00000760: 754d 38f6 6d81 f33f a476 890f 290d ddbf
00000770: 50fd 2a18 3c6f ffbf d801 bb82 2703 e5bf
00000780: 6d8f 4506 ec6e d6bf e2a6 596b ae84 e03f
00000790: 62ec ef13 8b80 d43f 7799 dd20 c3c1 d0bf
000007a0: a1a2 07c7 e108 e23f ab60 e6c4 489a a43f
000007b0: f24c 1369 e8bf c83f 0afa 4977 c39b c43f
000007c0: fc22 cdce 6930 d33f 88d1 38f8 8d47 e8bf
000007d0: 47a7 fca1 c6e0 c8bf 650f 8b73 e4af e9bf
000007e0: 718b 859f 5298 b8bf 535f 6f5b 1a5e f8bf
000007f0: f58b 0f42 511f c7bf 5f81 c6a9 f3b8 e9bf

layers.1.bias f8 [100]
-0.03636383923614654 -0.2801615822289399 0.011226261151135515 -0.09952228875063805 -0.011185868587051674 0.5697176920373174 -0.033041204846685865 0.24906249551319187
0.11572896310562614 0.06793534604401383 0.020267703097701904 0.0945074693935509 -0.07670616688535123 0.029951257543093194 -0.09550609459553552 -0.36499897515644747
0.03783783407903557 -0.21532487263372485 0.0032763306967693137 -0.07413799050943039 0.030761620733378202 -0.14810426143566904 0.14456555490006007 0.039236489060150294
0.0013030091799353131 0.011875468744811208 -0.14914364025677987 0.0326942941751013 -0.06075319936018161 -0.022727529713883733 0.05265201213785272 0.126383970917494
-0.031771615128648206 -0.0008152941390715597 0.02909824824730802 -0.16219975376466206 -0.08923315049351771 -0.11696606379561553 0.058831397538709584 -0.42025695172509697
-0.027602571988776296 0.021962989181487452 0.002245661668525988 -0.14858496435658794 -0.08974388036758574 -0.039695146331954506 0.031555087938633805 -0.690578325713709
0.03793037874762099 -0.06774953679019151 -0.16862313229267928 -0.0011966361590955532 -0.013904887187835807 0.021982037892643694 -0.03491304090582372 -0.009921244580744643
0.37799330607252135 0.032617622278690146 -0.11614309379178211 -0.0381653587169336 -0.6090485787204263 -0.08123095821343708 0.024666761613255848 0.02796745910874111
0.14851007368199137 -0.14110206200272243 -0.10735174143093329 0.3948558313354037 0.10605381461876094 -0.21435987058482345 0.9151860134383203 -0.22378618440019035
-0.011289080679664044 -0.04499315097928047 -0.2774048204430698 -0.2173878342014988 0.02286751704183166 0.3311841176793109 -0.04951909440519491 -0.014887562476785066
-0.1785008800097297 -0.05774901166880637 0.14136000732651888 0.01460840938628451 -0.13124505088551805 -0.0763891544986852 -0.13172381989050203 0.29521297241218086
-0.07878810725637991 0.08589112369179468 -0.10518320527791332 -0.04617050019557439 0.30240629186026513 0.022897441491170272 -0.2984159589506472 0.0019447204816119665
-0.11132626534562477 0.1738885081246364 -0.0042423248551602954 0.06347143765844708
00000000: c670 8df8 479e a2bf d935 51d8 2aee d1bf
00000010: e4fc 0044 cbfd 863f 0735 68ef 4a7a b9bf
00000020: a1e6 11de 9de8 86bf 9317 e898 203b e23f
00000030: d651 79dc c6ea a0bf c6d4 71a4 47e1 cf3f
00000040: 7c18 bdcf 69a0 bd3f 2661 80f9 3564 b13f
00000050: 89f0 e087 0ec1 943f c6e4 453a a431 b83f
00000060: ee91 2cee 03a3 b3bf 1194 7cde 8aab 9e3f
00000070: 1244 db60 1673 b8bf 97b5 57a9 245c d7bf
00000080: 6884 d707 7b5f a33f 5615 fdf2 c38f cbbf
00000090: 9931 31a6 f6d6 6a3f c110 a114 b5fa b2bf
000000a0: a656 166c f97f 9f3f edd8 a197 14f5 c2bf
000000b0: bc40 36c5 1f81 c23f 6d7b a51a ce16 a43f
000000c0: 0c04 1c74 3759 553f ddae 116f 2a52 883f
000000d0: c995 a788 2317 c3bf f3e7 7e78 4ebd a03f
000000e0: eb39 c218 0b1b afbf aa28 5cb3 e245 97bf
000000f0: 8bbe 665c 34f5 aa3f ed24 ea96 592d c03f
00000100: 5c58 d67f 5e44 a0bf 34c0 fbd4 2eb7 4abf
00000110: a64f 5f62 eecb 9d3f 3253 eb26 f6c2 c4bf
00000120: 5cb5 16d7 fbd7 b6bf fc77 beea 7cf1 bdbf
00000130: 403f d020 261f ae3f 3ddc e469 7de5 dabf
00000140: 0ebc e83f d943 9cbf 480e 0741 777d 963f
00000150: b10b 936d 7e65 623f 1f60 4b05 d504 c3bf
00000160: 18e6 3177 74f9 b6bf f481 9c16 ec52 a4bf
00000170: 4e0b 700d fd27 a03f c289 88b7 3719 e6bf
00000180: f5e9 7d50 9c6b a33f e340 d59c 0858 b1bf
00000190: e2e7 455b 7195 c5bf 2e23 c94a 0e9b 53bf
000001a0: 1083 cf5d 2a7a 8cbf 91b2 6497 7582 963f
000001b0: d3f1 c941 1fe0 a1bf 904e 14e8 9651 84bf
000001c0: b40e ecd5 0a31 d83f 91a6 ebc9 41b3 a03f
000001d0: 68f1 7dc5 8dbb bdbf 6f05 0fef 688a a3bf
000001e0: c4f1 e871 537d e3bf 790f f354 8dcb b4bf
000001f0: f969 b559 3e42 993f 83a4 e568 80a3 9c3f
00000200: 2a9c cbca 6002 c33f eb94 d9e2 a10f c2bf
00000210: 5050 9d5a 677b bbbf de1b 8e64 5145 d93f
00000220: f753 67c1 5726 bb3f 3549 deec 2470 cbbf
00000230: aa2c af2d 3449 ed3f 13d1 a593 06a5 ccbf
00000240: 3a89 91c2 ba1e 87bf 0000 00a0 5709 a7bf
00000250: 3291 e325 00c1 d1bf 69cb 3853 5dd3 cbbf
00000260: 6270 5717 956a 973f ccc8 98de 1e32 d53f
00000270: 07e6 fe15 915a a9bf 1abc a3cf 5e7d 8ebf
00000280: 2279 f9e8 1dd9 c6bf 59d9 fc48 4791 adbf
00000290: 0801 37b0 1518 c23f 4a41 7c84 03eb 8d3f
000002a0: 0757 a848 a3cc c0bf 1f48 5758 3d8e b3bf
000002b0: da56 447d 53dc c0bf 8960 77f3 c4e4 d23f
000002c0: 34da fa17 752b b4bf fbdf 45ef f5fc b53f
000002d0: cdd0 c15a 49ed babf 4889 c2e8 a8a3 a7bf
000002e0: fe3e 69eb 9f5a d33f 0b73 7749 6d72 973f
000002f0: 600a 1340 3f19 d3bf b29d 93b7 bfdc 5f3f
00000300: 0b64 d8cc e07f bcbf 60d4 c587 fa41 c63f
00000310: 80d4 3068 6660 71bf 3f1f f904 aa3f b03f

layers.3.weight f8 [100]
0.9585791219843217 0.9315792196657591 0.9707484951262799 0.9541050485355331 0.9927637311632865 1.3578686864468494 1.0533905940630752 2.7693915732258967
1.4933581366951396 0.9141314373126468 1.0044026926067504 0.28235221904226726 0.9415576488123054 0.9748362752011474 0.9629807561724211 1.637529929135598
0.9707215414183399 1.102642637097582 0.8923416674620634 1.0768549045851132 0.9431470414518246 0.46045081225520534 0.6855488968068156 0.9544887845918971
0.9778552075365939 0.9330370933332028 0.8522793694649082 2.9045504839524976 1.8191408998203817 0.6417377554627245 0.9667202013015427 0.42565133533834776
0.9191529948088654 0.5703895506510162 0.9269987669769766 0.9662545844695786 1.1434267997487324 0.9627756102354453 0.6882134955534 1.2948260205974593
0.7867141415296562 0.9620014684890321 0.9760228247529006 0.7809838237947281 1.0458595668853468 0.831624809311563 0.9682565535343075 0.1977943119944948
0.9991701708630585 0.991747663268878 0.8333456058548065 1.0296718555954785 1.04224484993052 0.9536192253608313 0.9838803230218556 1.0463138375461778
1.7701523672758614 0.9724494470110617 0.8565107331243151 0.9456416050811872 0.9507385580650491 0.9710243653522314 0.9659661801766597 0.9671447008539699
2.0603353220987572 1.0918813750743535 1.590886237689389 2.6537303105122305 1.1283994045430192 1.3166010251682476 2.2236984058194307 0.6261448722582891
0.9276574743729717 1.0 1.047794758816504 -0.05212972929026791 1.6104255814816901 0.5058052322539925 0.9683932314783725 0.8941763845145774
0.15341790534912075 1.0084337114972657 1.1752879157640288 0.5035256081498927 0.9571925416488808 0.8791282934393516 1.0702441007144021 0.762826457021378
0.7427988635324067 2.3097236984604153 1.0096538152315595 1.0070319204191345 1.8227997638690001 0.9549859972350387 1.4359967260766002 0.9435543244266273
1.1774892340708198 0.6905505278842357 2.308874971283198 0.9092540378124941
00000000: 41a2 711f aeac ee3f d41f 4339 7fcf ed3f
00000010: c0ac e625 5f10 ef3f 5013 8d4f 0788 ee3f
00000020: 410a c071 b8c4 ef3f c0d3 0884 d4b9 f53f
00000030: 83a3 7618 b0da f03f f295 e6c4 b627 0640
00000040: 5123 6580 cbe4 f73f f81a 7092 9040 ed3f
00000050: 542a cc8e 0812 f03f 0e55 af0a 0f12 d23f
00000060: f651 9e81 3d21 ee3f 3330 1ed8 db31 ef3f
00000070: 4403 ce04 bdd0 ee3f cabc 3d95 5233 fa3f
00000080: 6a43 3d9f 2610 ef3f 2326 189b 6ca4 f13f
00000090: 0872 d31c 108e ec3f 27af 5b35 cc3a f13f
000000a0: 0e5a 4bb4 422e ee3f 2460 03af 0678 dd3f
000000b0: 4b03 733d 04f0 e53f 5312 4710 2c8b ee3f
000000c0: 8ff9 1201 974a ef3f ae45 3a9b 70db ed3f
000000d0: 7408 5d62 df45 eb3f 6f41 d1f6 843c 0740
000000e0: 7cb6 f87c 331b fd3f 6144 0a9e 1d89 e43f
000000f0: 0d20 1f34 5fef ee3f 44b9 3119 df3d db3f
00000100: 632f 978a b369 ed3f 0ad7 4096 a140 e23f
00000110: 6a26 7351 f9a9 ed3f 6705 fdbb 8eeb ee3f
00000120: e6a6 64e6 794b f23f 3320 ebcb 0ecf ee3f
00000130: 8d2a 024f d805 e63f 549d 477d 9bb7 f43f
00000140: 7775 a522 c32c e93f e6a8 bb4d b7c8 ee3f
00000150: ecd2 0e38 943b ef3f 85e8 bcc9 d1fd e83f
00000160: 5cb3 bf3d d7bb f03f fe21 d1a1 ab9c ea3f
00000170: 2829 f22a f5fb ee3f 53f3 acf2 5251 c93f
00000180: b2db dfb8 33f9 ef3f def9 7398 65bc ef3f
00000190: a62c 6d67 c4aa ea3f b44e 1632 8979 f03f
000001a0: 2404 8eef 08ad f03f 3a5f 3877 0c84 ee3f
000001b0: 30d1 5196 f27b ef3f 38cf 1994 b3bd f03f
000001c0: 5b30 e649 8b52 fc3f 1da0 7d4d 4e1e ef3f
000001d0: 3024 6e32 8968 eb3f d1f0 f12e b242 ee3f
000001e0: 4cf0 bd44 736c ee3f dbd2 99b0 a112 ef3f
000001f0: 54d3 1ce8 31e9 ee3f 315c 9571 d9f2 ee3f
00000200: 8da9 d915 917b 0040 cbe4 d09a 5878 f13f
00000210: bf84 a820 4574 f93f 806e 00f5 d63a 0540
00000220: 0769 b588 ec0d f23f a5a4 8f3c cc10 f53f
00000230: 594b c963 22ca 0140 d309 9df8 6009 e43f
00000240: c64c 4aba 5eaf ed3f 0000 0000 0000 f03f
00000250: ee97 e06f c4c3 f03f eced e674 bfb0 aabf
00000260: b6b0 519d 4dc4 f93f 90a6 5574 8e2f e03f
00000270: 7ac1 5bcd 13fd ee3f 680f 0bcb 179d ec3f
00000280: b232 0cab 32a3 c33f d408 3163 8b22 f03f
00000290: b772 99b3 facd f23f 3e79 76bc e11c e03f
000002a0: 0b6d cb40 52a1 ee3f 08ee a9a8 d121 ec3f
000002b0: 75e2 3447 b81f f13f 93c5 ad07 1369 e83f
000002c0: bd15 4c1f 02c5 e73f 1d78 1d6b 507a 0240
000002d0: 0338 4bc2 8a27 f03f f1a6 c380 cd1c f03f
000002e0: 0195 cf15 302a fd3f e465 48cb 3e8f ee3f
000002f0: d597 fab3 d7f9 f63f f62c add6 9831 ee3f
00000300: c39e 7bf3 fed6 f23f 4ef2 af6b fd18 e63f
00000310: d6b6 e170 9378 0240 b723 85ec 9b18 ed3f

layers.3.bias f8 [100]
0.07046677970745807 -0.2400301463808703 0.12613281806008367 0.041748806646350146 -0.0638806724650354 -0.9711015183320559 0.029933564982541908 0.8523635360839668
1.1193809911463826 -0.2783259477716961 0.05710411988647472 -0.45633858888561296 0.7037000822318784 0.4029178866187205 0.18075362760214553 0.142004286044498
-0.06508268682184733 -0.020532169042814966 -0.008050228804069694 0.06973584917822992 -0.2748958007884306 -0.11575310869746656 -0.12624586722987644 0.2180566104274786
-0.04969720426761452 0.08543274112331958 -0.06660576799978363 1.5358540513375176 -0.7837478450738097 -0.8414697184994065 0.03226792308033916 0.442011948951072
-0.6133813307059873 -0.10874740788349366 0.06329073760817937 0.017371495977038406 -0.010871215007784355 -0.014930543543678872 -0.3996847955969262 0.4423669622066286
0.1579038536461767 -0.004196747853431204 0.12063983343940071 0.04267832310118824 -0.20388649099534623 -1.301186750098515 0.29184635062214215 -0.11342639761540499
0.16650045543231531 0.11322347430590825 -0.16706388699633581 -0.15488527221568257 0.08274861038680877 -0.10289693419451433 -0.05527464153572301 0.1311434831438429
1.061697724592751 -0.07688409910621591 0.08218725381357767 0.40290047862183176 -0.7197451924828792 0.007960332417746822 -0.09234579238109838 -0.07292721484267979
0.29650874314941494 0.7842144279312842 0.41400628252294036 1.479763453618426 0.1281937502375272 0.41761374191657674 -0.10872527769165896 -0.9455513482219257
0.7721107262263855 0.11461064304787037 -0.39344070614517085 -0.26878042494157883 -1.6239875468651803 -0.1522985139534849 0.25522273537360507 0.02209487230672291
-0.11069350213399923 -0.11594933529296848 -0.7916679903099235 -0.01762323951326845 -0.19261249072146241 -0.06432697859394473 -0.13092457087253415 0.37837257892712406
-0.29736742177013376 0.6330943226975295 -0.08343183298593784 -0.26842093428623115 -0.9389783012474353 -0.07988004590587658 -1.0246122174286583 -0.16786257253029285
-0.5830557555615771 -0.3653957249225125 -0.7851157820141796 0.3231597958780702
00000000: b047 4c62 1c0a b23f 6945 61ce 4eb9 cebf
00000010: bb9b 42c4 1e25 c03f 2dde 627e 1960 a53f
00000020: e274 15d7 7b5a b0bf c4a0 ca7d 4313 efbf
00000030: 915f 9c8a e7a6 9e3f de12 f9e4 8f46 eb3f
00000040: f1cd cb0a fce8 f13f 5bb0 d3a2 17d0 d1bf
00000050: f62f c24e c03c ad3f e2a7 cac4 a634 ddbf
00000060: 161c ec08 b684 e63f c60d 801a 68c9 d93f
00000070: 40a0 9753 ef22 c73f 34fa 394a 322d c23f
00000080: 6586 6f4b 42a9 b0bf 6126 388a 6206 95bf
00000090: c1a7 826b a37c 80bf 164c 9467 35da b13f
000000a0: 296b 8c8e e497 d1bf 6f15 44e8 fea1 bdbf
000000b0: 05f5 8017 d328 c0bf 9037 3b6d 47e9 cb3f
000000c0: 0667 1076 e971 a9bf e2dd 218d ebde b53f
000000d0: 74b6 485b 130d b1bf a7c7 9eb2 db92 f83f
000000e0: 2de1 5c5c 7614 e9bf d7ef 30e7 51ed eabf
000000f0: 6907 aed4 6b85 a03f aae8 4b7c ec49 dc3f
00000100: 5f7e 6be2 d1a0 e3bf 9666 62c0 ded6 bbbf
00000110: 87b6 2a60 d233 b03f 8f78 6a5c d5c9 913f
00000120: 15e5 68c7 a543 86bf 9153 daa1 e793 8ebf
00000130: 0706 7389 6f94 d9bf 9b88 e084 bd4f dc3f
00000140: 364e a987 3136 c43f b310 7bec 9b30 71bf
00000150: bc94 378b 40e2 be3f a079 efe3 eed9 a53f
00000160: 3aea 75d9 f318 cabf 1b96 9a32 a9d1 f4bf
00000170: 5a42 d850 9cad d23f bae1 422c 8309 bdbf
00000180: 49ea 6c0d e34f c53f 158b 48af 36fc bc3f
00000190: a5f6 7e75 5962 c5bf 6f32 66d5 47d3 c3bf
000001a0: 259a 664f 032f b53f d35e 3917 7457 babf
000001b0: fc5a 6333 f54c acbf bed9 9745 4fc9 c03f
000001c0: d1d0 d5c0 b6fc f03f e45d 3e23 adae b3bf
000001d0: 8c01 474f 390a b53f 104e ce16 1fc9 d93f
000001e0: a159 e511 2708 e7bf ef32 32bb 814d 803f
000001f0: be34 334e f9a3 b7bf 4dd8 bca2 5bab b2bf
00000200: dd81 b3ce fff9 d23f d484 20db 4818 e93f
00000210: 7a92 f134 147f da3f e6b6 7171 1cad f73f
00000220: cf2f 691e a768 c03f 9614 f9fc 2eba da3f
00000230: 5027 ef77 6bd5 bbbf fda8 a9e6 f441 eebf
00000240: 720f c18d 21b5 e83f 9f04 aa83 1f57 bd3f
00000250: 01c1 73ed 212e d9bf c875 bbcf b233 d1bf
00000260: 005b ae5d dafb f9bf 576e 5488 847e c3bf
00000270: da04 68bd 9155 d03f ffde ddc7 09a0 963f
00000280: 6294 8bcb 6856 bcbf 5984 130b dbae bdbf
00000290: 327a f51b 5855 e9bf 33ae 6f95 d30b 92bf
000002a0: 8a92 39ae 86a7 c8bf 76bd 4f9d bb77 b0bf
000002b0: 97f7 11e7 22c2 c0bf c67d 0c9f 4137 d83f
000002c0: 0e82 d95d 1108 d3bf f59c 6806 4f42 e43f
000002d0: 32b4 1ee2 c95b b5bf 5c8d 94ff ce2d d1bf
000002e0: 265d f038 1c0c eebf beca c4c8 0473 b4bf
000002f0: 9302 cfc7 cf64 f0bf 7eb9 9e51 857c c5bf
00000300: 9b35 3c8b 64a8 e2bf 5efc 28c0 a462 d7bf
00000310: 3661 ea21 ab1f e9bf 0a6a ab6c a6ae d43f

layers.3.running_mean f8 [100]
2.5e-323 2.5e-323 2.5e-323 2.5e-323 2.5e-323 297.11050518136824 2.5e-323 447.3852306897443
2.5e-323 2.5e-323 2.5e-323 0.1086416929886016 2.5e-323 2.5e-323 2.5e-323 2.5e-323
2.5e-323 2.5e-323 2.5e-323 2.5e-323 2.5e-323 2.5e-323 2.5e-323 2.5e-323
2.5e-323 2.5e-323 2.5e-323 321.7249370894524 307.51354531979064 98.45628548620455 2.5e-323 80.78693747004559
2.5e-323 2.5e-323 2.5e-323 2.5e-323 2.5e-323 2.5e-323 2.5e-323 2.5e-323
2.5e-323 2.5e-323 2.5e-323 5.821086526023876e-248 2.5e-323 0.4334470380169463 2.5e-323 2.5e-323
2.5e-323 2.5e-323 2.5e-323 2.5e-323 2.5e-323 2.5e-323 2.5e-323 2.5e-323
2.5e-323 2.5e-323 2.5e-323 2.5e-323 2.5e-323 2.5e-323 2.5e-323 2.5e-323
455.6233863528622 2.5e-323 4.7490800441828694e-151 514.8373536720957 2.5e-323 2.5e-323 2.5e-323 2.5e-323
2.5e-323 0.0 2.5e-323 2.5e-323 4.42960379177143e-262 378.77973581432605 2.5e-323 2.5e-323
2.5e-323 2.5e-323 232.17652623458912 2.5e-323 2.5e-323 2.5e-323 2.5e-323 2.5e-323
2.5e-323 247.3245563791731 2.5e-323 2.5e-323 182.28262194810782 2.5e-323 138.33434424471068 2.5e-323
2.5e-323 173.54822513586464 820.9819579924516 2.5e-323
00000000: 0500 0000 0000 0000 0500 0000 0000 0000
00000010: 0500 0000 0000 0000 0500 0000 0000 0000
00000020: 0500 0000 0000 0000 3ec0 14a1 c491 7240
00000030: 0500 0000 0000 0000 e0dd a7e7 29f6 7b40
00000040: 0500 0000 0000 0000 0500 0000 0000 0000
00000050: 0500 0000 0000 0000 e03c 5e26 f1cf bb3f
00000060: 0500 0000 0000 0000 0500 0000 0000 0000
00000070: 0500 0000 0000 0000 0500 0000 0000 0000
00000080: 0500 0000 0000 0000 0500 0000 0000 0000
00000090: 0500 0000 0000 0000 0500 0000 0000 0000
000000a0: 0500 0000 0000 0000 0500 0000 0000 0000
000000b0: 0500 0000 0000 0000 0500 0000 0000 0000
000000c0: 0500 0000 0000 0000 0500 0000 0000 0000
000000d0: 0500 0000 0000 0000 b02d a257 991b 7440
000000e0: 3c18 4c7b 3738 7340 d538 0ac8 339d 5840
000000f0: 0500 0000 0000 0000 f075 fa2e 5d32 5440
00000100: 0500 0000 0000 0000 0500 0000 0000 0000
00000110: 0500 0000 0000 0000 0500 0000 0000 0000
00000120: 0500 0000 0000 0000 0500 0000 0000 0000
00000130: 0500 0000 0000 0000 0500 0000 0000 0000
00000140: 0500 0000 0000 0000 0500 0000 0000 0000
00000150: 0500 0000 0000 0000 977e 8faa 610c 9a0c
00000160: 0500 0000 0000 0000 b22c 35a5 98bd db3f
00000170: 0500 0000 0000 0000 0500 0000 0000 0000
00000180: 0500 0000 0000 0000 0500 0000 0000 0000
00000190: 0500 0000 0000 0000 0500 0000 0000 0000
000001a0: 0500 0000 0000 0000 0500 0000 0000 0000
000001b0: 0500 0000 0000 0000 0500 0000 0000 0000
000001c0: 0500 0000 0000 0000 0500 0000 0000 0000
000001d0: 0500 0000 0000 0000 0500 0000 0000 0000
000001e0: 0500 0000 0000 0000 0500 0000 0000 0000
000001f0: 0500 0000 0000 0000 0500 0000 0000 0000
00000200: 0ee5 f763 f979 7c40 0500 0000 0000 0000
00000210: 14d2 c2ad 79df b820 b166 7be6 b216 8040
00000220: 0500 0000 0000 0000 0500 0000 0000 0000
00000230: 0500 0000 0000 0000 0500 0000 0000 0000
00000240: 0500 0000 0000 0000 0000 0000 0000 0000
00000250: 0500 0000 0000 0000 0500 0000 0000 0000
00000260: 3e7b a8d3 86e5 ab09 cee0 42cc 79ac 7740
00000270: 0500 0000 0000 0000 0500 0000 0000 0000
00000280: 0500 0000 0000 0000 0500 0000 0000 0000
00000290: 488e 581a a605 6d40 0500 0000 0000 0000
000002a0: 0500 0000 0000 0000 0500 0000 0000 0000
000002b0: 0500 0000 0000 0000 0500 0000 0000 0000
000002c0: 0500 0000 0000 0000 3648 0fc4 62ea 6e40
000002d0: 0500 0000 0000 0000 0500 0000 0000 0000
000002e0: 2808 2f3d 0bc9 6640 0500 0000 0000 0000
000002f0: 6c94 b3f2 b24a 6140 0500 0000 0000 0000
00000300: 0500 0000 0000 0000 48ac 700f 8bb1 6540
00000310: 01bd ca0c dba7 8940 0500 0000 0000 0000

layers.3.running_var f8 [100]
2.5e-323 2.5e-323 2.5e-323 2.5e-323 2.5e-323 718.229773381958 2.5e-323 1002.7628716532677
2.5e-323 2.5e-323 2.5e-323 2.326911075824005 2.5e-323 2.5e-323 2.5e-323 2.5e-323
2.5e-323 2.5e-323 2.5e-323 2.5e-323 2.5e-323 2.5e-323 2.5e-323 2.5e-323
2.5e-323 2.5e-323 2.5e-323 1095.1570693654514 854.1478692044855 1107.3461233523506 2.5e-323 218.2292163731509
2.5e-323 2.5e-323 2.5e-323 2.5e-323 2.5e-323 2.5e-323 2.5e-323 2.5e-323
2.5e-323 2.5e-323 2.5e-323 4.1836252995592196e-249 2.5e-323 10.118597657670675 2.5e-323 2.5e-323
2.5e-323 2.5e-323 2.5e-323 2.5e-323 2.5e-323 2.5e-323 2.5e-323 2.5e-323
2.5e-323 2.5e-323 2.5e-323 2.5e-323 2.5e-323 2.5e-323 2.5e-323 2.5e-323
882.98279488815 2.5e-323 2.789641876697907e-151 705.0515056072719 2.5e-323 2.5e-323 2.5e-323 2.5e-323
2.5e-323 2.5e-323 2.5e-323 2.5e-323 1.2010159384439376e-260 728.2089173217053 2.5e-323 2.5e-323
2.5e-323 2.5e-323 909.9396471527731 2.5e-323 2.5e-323 2.5e-323 2.5e-323 2.5e-323
2.5e-323 710.6746605562448 2.5e-323 2.5e-323 1265.179288652046 2.5e-323 810.3680631380593 2.5e-323
2.5e-323 348.1984422514377 1155.5310533587158 2.5e-323
00000000: 0500 0000 0000 0000 0500 0000 0000 0000
00000010: 0500 0000 0000 0000 0500 0000 0000 0000
00000020: 0500 0000 0000 0000 0248 6d93 d671 8640
00000030: 0500 0000 0000 0000 a40e 745c 1a56 8f40
00000040: 0500 0000 0000 0000 0500 0000 0000 0000
00000050: 0500 0000 0000 0000 0aea da8d 839d 0240
00000060: 0500 0000 0000 0000 0500 0000 0000 0000
00000070: 0500 0000 0000 0000 0500 0000 0000 0000
00000080: 0500 0000 0000 0000 0500 0000 0000 0000
00000090: 0500 0000 0000 0000 0500 0000 0000 0000
000000a0: 0500 0000 0000 0000 0500 0000 0000 0000
000000b0: 0500 0000 0000 0000 0500 0000 0000 0000
000000c0: 0500 0000 0000 0000 0500 0000 0000 0000
000000d0: 0500 0000 0000 0000 45af cad6 a01c 9140
000000e0: ceaa 0cd6 2eb1 8a40 e9fa 286e 624d 9140
000000f0: 0500 0000 0000 0000 824c 93bd 5547 6b40
00000100: 0500 0000 0000 0000 0500 0000 0000 0000
00000110: 0500 0000 0000 0000 0500 0000 0000 0000
00000120: 0500 0000 0000 0000 0500 0000 0000 0000
00000130: 0500 0000 0000 0000 0500 0000 0000 0000
00000140: 0500 0000 0000 0000 0500 0000 0000 0000
00000150: 0500 0000 0000 0000 d83b 78d5 1ff4 5d0c
00000160: 0500 0000 0000 0000 cf27 0ad5 b83c 2440
00000170: 0500 0000 0000 0000 0500 0000 0000 0000
00000180: 0500 0000 0000 0000 0500 0000 0000 0000
00000190: 0500 0000 0000 0000 0500 0000 0000 0000
000001a0: 0500 0000 0000 0000 0500 0000 0000 0000
000001b0: 0500 0000 0000 0000 0500 0000 0000 0000
000001c0: 0500 0000 0000 0000 0500 0000 0000 0000
000001d0: 0500 0000 0000 0000 0500 0000 0000 0000
000001e0: 0500 0000 0000 0000 0500 0000 0000 0000
000001f0: 0500 0000 0000 0000 0500 0000 0000 0000
00000200: 3efa 90c3 dc97 8b40 0500 0000 0000 0000
00000210: a81d e9b3 9838 ad20 5996 c57b 6908 8640
00000220: 0500 0000 0000 0000 0500 0000 0000 0000
00000230: 0500 0000 0000 0000 0500 0000 0000 0000
00000240: 0500 0000 0000 0000 0500 0000 0000 0000
00000250: 0500 0000 0000 0000 0500 0000 0000 0000
00000260: 46df 0d39 f8a2 f709 5642 d8dc abc1 8640
00000270: 0500 0000 0000 0000 0500 0000 0000 0000
00000280: 0500 0000 0000 0000 0500 0000 0000 0000
00000290: 85f7 b965 846f 8c40 0500 0000 0000 0000
000002a0: 0500 0000 0000 0000 0500 0000 0000 0000
000002b0: 0500 0000 0000 0000 0500 0000 0000 0000
000002c0: 0500 0000 0000 0000 c807 6fb4 6535 8640
000002d0: 0500 0000 0000 0000 0500 0000 0000 0000
000002e0: 53c4 7197 b7c4 9340 0500 0000 0000 0000
000002f0: 9f26 16cb f152 8940 0500 0000 0000 0000
00000300: 0500 0000 0000 0000 1d41 c8d1 2cc3 7540
00000310: 76a0 73cc 1f0e 9240 0500 0000 0000 0000
