model_policy2_epoch-240.pt (torch, 373942 bytes, 28 tensors)

layers.0.weight f8 [128, 128]
000000 04 47 a5 c4 2f b7 e2 bf 56 0f fa 70 53 d6 dc bf
       -0.5848616448149362 -0.4505814173974064
000010 35 1a 00 31 ba 32 d6 bf 85 0f 1e 7e ab 36 c0 3f
       -0.34684614930339147 0.12666839273526534
000020 fd 5c 34 55 16 75 c7 bf 52 4c 63 94 8d 5b b3 bf
       -0.1832607189214527 -0.07561573860884721
000030 e8 49 36 64 9d 90 ba bf 50 a9 38 9d 5e 41 ab bf
       -0.10376914688666938 -0.05323310536580783
000040 bf a2 b6 3c 5b bd c2 bf d2 0c be ef fd 74 d2 3f
       -0.1464036985828638 0.2883906213030062
000050 fd ac 55 65 e7 e7 a6 3f d1 92 b5 af 6c 94 5d bf
       0.044738036270098626 -0.0018054067030216956
000060 93 f0 6b 1f d8 75 d0 bf 56 40 bd 2e da d0 dd bf
       -0.25719264095801825 -0.46587233127957484
000070 af 3b c8 9f b8 77 d4 bf a2 a8 37 5b ef 48 ef bf
       -0.31980720142103797 -0.9776531964864896
000080 d8 fe 61 75 21 67 c3 bf bd 25 9f 40 20 31 ac bf
       -0.15158479911405354 -0.05506230152930012
000090 a4 83 cf ce ec 55 d0 3f ec d3 f7 ac f6 08 c9 bf
       0.2552444476733007 -0.1955860466547671
0000a0 15 0f 1a ad 6d c7 d8 bf 0c d8 71 23 26 62 d0 3f
       -0.38717214493247926 0.2559905382289578
0000b0 b3 79 4b 40 fc 28 df 3f 05 de f9 e2 d9 1c f0 bf
       0.48687654761115623 -1.0070437303783148
0000c0 3f 20 f0 9a f8 98 eb 3f 92 22 0f 0b ab 8c da bf
       0.8624232317097337 -0.41483570175163564
0000d0 59 93 0c a9 03 a4 db bf be 05 f9 49 b8 50 e6 bf
       -0.4318856383200021 -0.6973535008220819
0000e0 60 b9 6f 24 85 f1 df bf 07 a9 37 e1 3d e3 d6 bf
       -0.4991162162613332 -0.35761973375214534
0000f0 07 a9 e5 44 40 a6 da 3f 22 f1 f6 19 3b f0 d9 3f
       0.41639715889199674 0.40528752837760085
000100 90 a4 d8 1c 49 f8 01 c0 47 3f 3d 12 44 9c d6 3f
       -2.246233201371588 0.3532877138250012
000110 68 2f 9f 3a cc 32 c0 bf 5c 04 fd 4e 59 9f d8 3f
       -0.12655022489922918 0.38472588266092145
000120 65 bf 05 52 c4 78 df 3f 9f 24 63 ab 7f 32 e6 bf
       0.4917460251808648 -0.693664393177773
000130 96 25 a1 48 94 70 e0 bf 54 97 4f c3 59 e3 ff bf
       -0.5137425821823622 -1.9930055264789717
000140 f3 1b c6 0a 11 94 ea bf dc d4 89 a7 b6 cb a5 bf
       -0.8305745325495749 -0.04256983561655556
000150 61 c5 2f 06 53 cf e2 bf ee 12 72 e1 59 31 d6 3f
       -0.5878081436950816 0.3467621518723679
000160 13 ef a0 85 39 f1 a7 bf ff d6 b3 06 14 8d ed bf
       -0.04676227337082941 -0.9234714632900419
000170 a6 31 36 d1 0e 50 ca 3f ea 8b 9b ee 09 b2 a0 3f
       0.20556817260184096 0.03260832822504496
000180 43 c0 9e 9a 50 86 e0 3f b4 c5 5d 97 b0 1f f3 bf
       0.5163958568500749 -1.1952367699380888
000190 5d 91 af d0 ec 0e fe bf 0e 85 00 6f 5c e7 e0 bf
       -1.878643813303902 -0.5282423179634479
0001a0 cc 83 02 6d 6c 12 cb bf 14 e9 91 ca 38 f2 a7 bf
       -0.21149974177117625 -0.046769880988863616
0001b0 a6 9c 57 3c 7b 26 f2 bf 99 82 d1 ab a7 70 a3 bf
       -1.134394870483257 -0.03796886417763296
0001c0 84 82 bc 73 60 82 d1 3f 66 83 30 93 18 fb e3 3f
       0.2735825662839846 0.6244013666911143
0001d0 11 41 7a 5b d4 76 d1 3f a7 ec b0 91 15 ed c8 3f
       0.2728777783713819 0.19473523725341588
0001e0 d1 89 a1 66 70 ea e4 bf 2c a2 f0 e4 ce 7f c0 bf
       -0.6536180500518701 -0.12890039614400572
0001f0 18 53 97 6e 17 2b e6 bf 03 ff 0c c4 ac c3 eb 3f
       -0.6927601966841364 0.8676360921017195
000200 56 0d 0e 16 d7 2f d7 3f 24 9f 08 57 1a db b9 bf
       0.3622949328784747 -0.100999494789559
000210 59 7d 50 27 3b d2 a8 3f 93 d9 d8 08 e3 06 b2 3f
       0.048478935765383376 0.070417585048608
000220 74 9e 60 36 43 c1 df 3f 2a 1d 75 d4 35 20 de 3f
       0.49617080984396655 0.47071595905113617
000230 89 d8 e8 49 fa db df 3f 07 44 f2 7f d2 a4 eb 3f
       0.49780137269716157 0.8638699053718718
000240 d3 80 3d 91 4d 09 c4 bf 8b f7 ac f7 ef ed af bf
       -0.15653390495118077 -0.06236219309219767
000250 63 54 50 de 0c 62 d0 3f c0 4d a9 f8 78 f2 94 bf
       0.2559845133812983 -0.020456209351619625
000260 b4 cf ce 60 4f 84 d3 3f 64 d4 1e f9 53 99 cc 3f
       0.30495056585209146 0.22342919982989706
000270 fa 14 80 fa 81 79 c4 3f 70 c2 a1 4e 7a af e4 3f
       0.15995812159977857 0.6464206252840778
000280 b4 5b 3a bc 7e 8b 91 bf 21 95 39 b0 07 6d 88 3f
       -0.017133693922541673 0.011926708283861278
000290 17 bc d7 ae a1 8d b1 bf e5 20 26 ca 01 38 ea 3f
       -0.06856737631436292 0.8193367908688997
0002a0 b7 83 3c 9e 62 77 e6 3f 68 21 f2 62 b6 65 a8 bf
       0.7020733919672385 -0.04765100438914055
0002b0 32 70 f9 06 be 95 a7 3f 2a aa 07 7c 76 7e f3 3f
       0.04606431803833323 1.218374714366869
0002c0 f1 d3 0a 8b ae 25 a3 3f 49 e1 a2 0c 72 aa e2 3f
       0.0373968643884054 0.5833063360978851
0002d0 df 77 a8 b5 3e e5 c7 3f 88 92 76 0e 29 6c d6 3f
       0.1866835009577121 0.35035158550662304
0002e0 70 6f 0a 34 af 8a c5 3f 6d 36 3c f5 31 b3 bd 3f
       0.16829481164029003 0.11601555096805223
0002f0 cf b7 b4 26 c8 62 95 bf 97 21 8f 11 cb 5c e8 3f
       -0.02088463531725165 0.7613272993994994
000300 6f e9 72 d8 a3 3d fe 3f e1 f9 e9 1b 54 f5 f1 3f
       1.8900488333734662 1.1223946657552164
000310 c2 a7 dc 86 4f fa b6 bf 82 7a 49 7e 05 cf ca 3f
       -0.08975693743255334 0.20944279352530165
000320 7b 86 b3 77 13 d8 d9 3f 7a 7b 7b a6 86 59 e4 3f
       0.4038132351834986 0.6359284640892462
000330 ee fd 8e 5e 8c d1 f2 3f a5 a0 19 f6 74 33 f1 3f
       1.1761592572873911 1.075062714890046
000340 b3 17 41 38 c0 59 d7 bf 0e 4b ec ac 43 dd b7 bf
       -0.3648529576643071 -0.09321997615579056
000350 62 1b 41 90 74 86 f3 3f 50 18 11 7b 80 11 bf bf
       1.2203260073599371 -0.1213608074623107
000360 6e a7 08 b0 90 6a e3 bf 9c bd bc 02 f4 92 ec 3f
       -0.6067584455642938 0.8929386189901609
000370 fc 3c 63 0a 45 85 e7 3f 12 3e cf 25 75 72 e8 3f
       0.7350182726749206 0.7639718759982677
000380 20 b0 d6 d5 67 3f e3 bf f8 fd 50 8e 19 30 f6 3f
       -0.6014899422202724 1.3867431220277222
000390 e6 bc d5 fe ec 25 fe 3f f9 95 ae 26 f2 e9 e1 3f
       1.8842592195977033 0.5598078494555799
0003a0 a2 a1 e7 80 d0 08 d8 3f d1 d2 aa 4e a1 ec db bf
       0.3755379923664127 -0.43631775553084845
0003b0 79 a7 60 2f 4b 60 f2 3f 9b 36 86 a5 a4 d7 88 bf
       1.148509202068878 -0.012130056668662894
0003c0 14 09 13 74 24 85 ec bf da 64 0f 3f bb 82 c1 bf
       -0.8912527339055338 -0.13680210665805853
0003d0 c4 4c eb cb b5 8e bb 3f 25 8a 03 b6 f5 2b d6 3f
       0.10764633396620399 0.34643309378421555
0003e0 13 c3 99 54 e6 ca e6 3f d9 6a 7e a3 a1 73 d1 bf
       0.7122680332523451 -0.27268258062546874
0003f0 85 30 1f db d0 40 e0 3f 1d d9 b1 bb fc f5 d2 bf
       0.5079120902751276 -0.29626386956751266
000400 c0 69 bf cf 86 8d e6 bf e3 f5 d3 8a 5d c0 d2 bf
       -0.7047761972019586 -0.29299105222147953
000410 24 1c b2 08 f0 72 e9 bf 8a cc c0 34 4b 97 e7 bf
       -0.7952804727400502 -0.7372184782347102
000420 2f 09 fe 2a e2 d9 e5 bf 56 1e 22 b6 13 57 e5 bf
       -0.6828471030897044 -0.6668795163431678
000430 3c 0d cd 84 f1 2b dc bf 3f f7 90 c4 1b 4e e3 bf
       -0.44018209427686705 -0.6032847251114858
000440 f4 c0 f6 3f 99 7e ea bf 34 e5 66 3b 6a 85 e4 bf
       -0.8279539346022191 -0.6412860069459954
000450 e5 c6 82 14 c9 04 eb bf 10 a0 ff 74 bc e0 e7 bf
       -0.8443341637232292 -0.7461836133124979
000460 b2 91 3e 3d bd a5 e3 bf 83 60 46 62 1d 2b df bf
       -0.6139818378620048 -0.4870065173831863
000470 a4 e5 9c 9b f9 76 e1 bf ad be 7a 1b 97 61 e3 bf
       -0.5457733191789669 -0.6056628739078939
000480 ba 41 af 79 4f 09 e7 bf 96 14 2b 87 95 60 e3 bf
       -0.7198865296032217 -0.6055400505071187
000490 d4 95 81 dd 00 33 d9 bf 9a 8f 4c ff b9 51 e7 bf
       -0.39373799926246744 -0.7287263857183348
0004a0 ed 0e 76 b4 e6 e9 e7 bf 06 f1 ad 4e a2 f2 e1 bf
       -0.7473023914940008 -0.5608684097965415
0004b0 75 7a 59 13 9f 6b d9 bf 95 87 7b c7 9c c6 eb bf
       -0.3971936882934764 -0.8679946800368606
0004c0 5f 69 2e 62 7c 30 e3 bf 82 0f c3 21 53 53 ea bf
       -0.5996686856845307 -0.8226714763081733
0004d0 18 47 d5 32 25 d9 e9 bf b1 3a 3b 89 20 3a d5 bf
       -0.8077569954714106 -0.3316727962636988
0004e0 fd b2 b3 d9 a3 2c de bf 06 f2 52 f6 ee d4 e1 bf
       -0.47147461185413403 -0.5572428523078663
0004f0 fc 87 c1 fb 04 25 e5 bf 77 70 39 b2 35 91 ea bf
       -0.66076897784319 -0.8302257996506474
000500 db 36 ac 96 ab 54 e1 bf 04 ba 37 3d 16 eb e6 bf
       -0.5415857260538489 -0.7161971278817991
000510 02 2a 3a 2e d2 06 ed bf d1 af 1f 86 ad d3 df bf
       -0.907082643783099 -0.4972947892954354
000520 1a 3f 0b 61 01 8f e5 bf 25 36 e5 df 71 b5 eb bf
       -0.6737067122830667 -0.8658990261989784
000530 e4 51 74 8b e1 8f e5 bf 7b 00 3a cd a4 58 e5 bf
       -0.67381360280211 -0.6670707710582201
000540 55 1d ba d2 5d 74 d2 bf 93 19 b2 8d 94 3a dd bf
       -0.288352447307678 -0.4567004569766137
000550 25 de d0 98 52 68 c7 bf 2d 89 76 50 72 db e0 bf
       -0.18287117444718706 -0.5267879077476089
000560 a1 9b d5 62 90 ee da bf de a5 18 57 8b 16 e3 bf
       -0.42081079150960404 -0.5965019894694554
000570 09 fc 93 11 e1 2f b2 bf 6e 59 34 0a 26 97 e5 bf
       -0.07104307822372403 -0.6747007560068548
000580 f3 7f 7f bf c0 f9 a4 bf a9 4c 5a 41 88 f5 e0 bf
       -0.040967963577486353 -0.5299721981449653
000590 a8 36 a7 2b 86 5f ec bf d5 6b f7 7b f0 2c e3 bf
       -0.886660657177079 -0.5992357655735484
0005a0 52 5f a9 a6 58 d1 e6 bf 34 62 03 55 e5 7a dd bf
       -0.7130549674138627 -0.4606259660918426
0005b0 aa 90 ec ee 44 d3 dc bf 19 63 22 c2 be 82 dc bf
       -0.45039485294752046 -0.4454800506442083
0005c0 61 8c ce 30 bc 95 b1 3f 76 ee e8 ef 2d b9 d3 3f
       0.0686910266072558 0.3081774561758047
0005d0 0b 71 2b b9 30 c0 e5 bf 91 a3 82 26 92 63 e2 bf
       -0.6797107330890254 -0.5746546508936367
0005e0 75 55 38 e7 cd 3d c9 bf 33 94 ec 6e 2d ef e3 bf
       -0.1971986178402109 -0.6229464689719236
0005f0 74 38 86 c0 06 0f e7 bf 4a d3 7c 48 25 e9 d9 bf
       -0.7205842743149007 -0.4048550804030141
000600 bb b6 c8 d8 4a a6 e1 3f f5 2b dd 04 f0 98 dc 3f
       0.5515493616164443 0.44683456873889266
000610 8b 22 7c 46 4c 93 e6 3f e2 8a a7 32 00 48 e7 3f
       0.7054807068498844 0.7275391568512897
000620 3b 63 e3 bc 68 13 ea 3f a3 da 31 d9 86 32 e6 3f
       0.8148692788337039 0.6936678163609326
000630 ce ff e6 24 87 d6 da 3f a1 53 ea 3d fa d6 e6 3f
       0.4193437443136617 0.7137423714908558
000640 0d 16 00 b1 13 20 e6 3f de ac 22 2a 9c 43 eb 3f
       0.691415639594824 0.8520031760175717
000650 c0 aa 1e be 1b 38 f0 3f ae 5b 16 97 df 6c e7 3f
       1.0136983324579631 0.7320402098583736
000660 fa 56 bc af ba 78 e5 3f de cc 6d 60 3c e9 e7 3f
       0.670987456544679 0.7472211726548286
000670 7b bc ab a7 1f 07 e5 3f 23 94 f8 25 00 00 e6 3f
       0.6571195864506899 0.6875000707265183
000680 b9 ba 3a 83 36 db e1 3f 7d e6 a2 61 f0 d8 e4 3f
       0.55800939207787 0.6514818102798042
000690 2d 1b 42 c2 c6 32 e2 3f dd 85 d4 3c 8d f8 eb 3f
       0.5686982912164688 0.8740907848443232
0006a0 9c 7a 4d fc 89 fa e5 3f 9c d5 88 ed 17 77 ea 3f
       0.6868333747659849 0.8270377768846404
0006b0 cc 5a b7 20 38 68 dc 3f 70 a1 7e 15 04 d1 ed 3f
       0.4438610381597925 0.9317646426980399
0006c0 5e cc 8c 94 f5 93 e0 3f e3 ca 5b c2 a8 66 e6 3f
       0.5180614377371844 0.7000316425386156
0006d0 63 41 4d 07 c9 c3 e7 3f 77 ad 4c 3e 52 08 e1 3f
       0.742649568806922 0.5322657791888749
0006e0 ca 95 ce 46 9b a5 ea 3f 04 18 b8 70 c6 66 e8 3f
       0.8327156432102865 0.7625457955880397
0006f0 cf d7 ac c8 c1 66 e5 3f aa e9 3d 2f d6 8c e3 3f
       0.6687935752331614 0.610941974896652
000700 26 5f 0e 99 af bd f1 3f 3a 03 7c 94 53 e6 e3 3f
       1.1088100413089221 0.6218660259329234
000710 ca b0 73 a6 48 c1 e9 3f 40 8b 1b 57 bb 1c ec 3f
       0.8048442126287452 0.8785072995491205
000720 f5 7c 48 76 c5 55 e8 3f 48 11 d7 a5 02 d7 eb 3f
       0.7604701338022141 0.8699963797630881
000730 b8 d2 49 b8 06 3b e7 3f 99 5a 94 38 8a 1f f1 3f
       0.7259553527242906 1.070200177205754
000740 4c 91 df f8 8f 7e c5 3f d1 2c 78 d6 cd a1 de 3f
       0.16792487766282205 0.4786257357051911
000750 8e 7f ba ec 17 e4 e7 3f 00 85 b7 d0 38 74 e5 3f
       0.7465934394458473 0.6704372478963307
000760 51 d2 bb 6e 70 07 d9 3f ad 96 5d 41 f3 34 e3 3f
       0.3910790521033834 0.6002136494323246
000770 ba 16 10 c3 60 2a d9 3f f1 9f 14 e6 bd 01 eb 3f
       0.3932115464125264 0.8439626210938497
000780 00 aa f0 a0 d6 37 ae bf ab 0b 1c 24 af ff e0 3f
       -0.059019763132102554 0.5312114434494694
000790 7e 95 54 d6 1d 39 f1 3f 83 be 37 be 21 59 e8 3f
       1.0764444706231582 0.7608803477468914
0007a0 d1 f0 e2 de 8d d1 e2 3f 9b ce 22 51 7d 3e dc 3f
       0.5880803445102406 0.44131405757364356
0007b0 64 b0 95 99 1f bf e6 3f a8 bd 84 0a d0 dc de 3f
       0.7108304977132431 0.48222733523558725
0007c0 69 e8 9e bf 27 9e dd 3f ca c2 49 07 e2 4a c8 3f
       0.4627780314728001 0.18978524547448777
0007d0 86 cb 44 85 a9 5a e0 3f 8c a5 37 8a 04 98 e2 3f
       0.5110671618370908 0.5810568522985462
0007e0 bd 37 54 88 36 4f d1 3f 7d 7f 24 90 80 e9 e3 3f
       0.27045977891327394 0.6222536864552094
0007f0 b4 1e 57 3e 80 90 e6 3f 54 5f 2c 10 9f 81 d9 3f
       0.7051392762741302 0.3985364587729141

layers.0.bias f8 [128]
000000 c9 3c d7 28 ef e6 9c 3f b3 31 07 5e f7 59 db 3f
       0.028224694125864844 0.4273661058657822
000010 a2 76 1c f5 f3 1f da 3f 4d 61 8f 86 5f 97 c8 3f
       0.40820025383605174 0.19211954183880167
000020 38 eb 93 cb 3f 39 d1 3f 0b c7 71 cf 13 c4 d4 bf
       0.2691192138733416 -0.32446761377569605
000030 22 39 b7 3e e0 1d e6 bf 97 f3 8e c5 81 7e f0 bf
       -0.6911469674030608 -1.0308854786992236
000040 ce 41 d1 81 6c 41 f2 bf da 6a 1e be 23 e7 e5 bf
       -1.1409726210587112 -0.6844652856119311
000050 a9 1f 6c 0c 45 6c d8 bf 05 70 55 47 cc c3 ea 3f
       -0.38160825932618053 0.8364011185872192
000060 d3 cb e1 a2 18 f0 e7 3f 1e 1d d2 9e 0b 63 98 3f
       0.7480586224831945 0.023815328186654765
000070 0c e9 85 5b 68 64 ed bf ba 96 a1 29 af 7e ea 3f
       -0.9185067927894877 0.8279643834218497
000080 53 79 35 78 ef 20 e9 bf dd cf 55 f1 94 a9 ec bf
       -0.7852704379873024 -0.8957009042337593
000090 1a d0 45 52 b1 e4 dd bf 39 92 49 8c d3 5c c4 3f
       -0.46708329233592993 0.15908283567400064
0000a0 17 8a 3e 43 f8 81 d3 bf 57 c2 9b 8c ed 16 eb 3f
       -0.30480772558999675 0.8465488191851119
0000b0 f7 e7 94 3b 03 56 d6 3f 36 6a ba 36 4f 2b c0 bf
       0.3489997941829865 -0.12632169887804573
0000c0 4b 52 5c fe ed 0d a3 3f 4d 9f 5d dd e1 42 ee 3f
       0.037215649890786816 0.9456643413113653
0000d0 3f 9d a9 86 18 1d d5 bf b9 c6 f3 2c 15 36 d3 3f
       -0.32990086699142646 0.3001759470927073
0000e0 11 18 e3 a8 00 aa e3 3f 8b 07 b0 f9 01 65 e0 bf
       0.6145022677017115 -0.5123300434790833
0000f0 2b a1 92 ab d5 44 ea bf 99 c9 3b f6 df 84 d4 bf
       -0.8209026671438883 -0.32061003729099863
000100 26 aa 95 15 00 19 e7 bf 2e 2c 15 de 09 fd df 3f
       -0.7218017980170017 0.49981924712909886
000110 59 bb b7 57 ea 77 de 3f 00 41 fb 0f e2 36 d4 bf
       0.47606905523473625 -0.31584979592027196
000120 b8 97 16 c3 7b 8c cf 3f a8 8a ab 2b 90 a0 d4 3f
       0.24647471452516156 0.32229999794632613
000130 74 3d 2e c2 d1 ff d5 3f 3d fe 91 7f 09 59 df 3f
       0.34373897517158203 0.48980939348254876
000140 8a c7 e5 57 c4 07 c8 3f 8b 85 80 58 0d cd db bf
       0.18773702899812533 -0.43439038889672393
000150 bc 6d 87 3b 6e fb e3 3f 32 a3 f1 11 a8 ba 88 3f
       0.6244422114063393 0.012074769065479527
000160 44 7a 74 12 97 9e d9 3f bf f9 f3 72 d6 2c d7 bf
       0.4003045730804937 -0.3621116755092792
000170 3d 36 ec f5 cc 8a e1 3f 49 78 4a 95 da 21 ca 3f
       0.5481934359720025 0.20415813722223877
000180 08 7b 80 04 cc 87 b2 3f 4c 81 fb 88 27 35 f1 bf
       0.07238459691914667 -1.0754771567227008
000190 94 e0 58 62 0b 5f e7 bf d9 6b fa 7b e8 16 d5 bf
       -0.730352108082132 -0.32952320201155555
0001a0 79 c3 25 af 00 9c d8 bf 38 b5 d5 29 a0 0e e5 bf
       -0.3845216474938336 -0.6580353562436931
0001b0 b7 56 1b 80 4d e3 e7 3f 94 e3 1c 0a 50 10 e7 bf
       0.7464969160161762 -0.7207412908093027
0001c0 d7 c5 35 cf 05 c4 e5 bf 6e b3 60 1a 97 10 b4 3f
       -0.6801785513945856 0.07837814706790677
0001d0 62 6d e2 97 13 ad f0 3f d9 b6 bd be 8a 8f d7 bf
       1.0422550137507973 -0.3681361067491316
0001e0 f9 95 6b 68 92 ac e2 3f b8 49 b0 72 a1 9f d4 3f
       0.5835659064729831 0.32224308204709073
0001f0 fe 77 8a 94 19 d1 d7 bf 2c b8 a7 72 6c 0f dd 3f
       -0.37213744646021485 0.4540663833312262
000200 e8 27 59 79 49 40 d3 bf 23 61 10 33 0b 69 ef 3f
       -0.30079876757065316 0.981572723135319
000210 46 2f 99 73 2e 79 dd 3f 00 0d 3c b2 85 82 d8 3f
       0.4605213288202673 0.38296644597740226
000220 b5 19 b2 af ab 07 ee bf 7e 1c 45 74 69 6d d0 3f
       -0.9384363586003049 0.25667797426689976
000230 9e 49 eb 2b a0 d4 d4 bf 84 97 7e 45 56 a1 b9 3f
       -0.32547764100049814 0.10011805721896222
000240 39 eb 1f 1a 95 73 e1 bf ec 1e bb 5c 40 e6 b7 bf
       -0.5453591833350863 -0.09335710777224521
000250 6b 27 d5 92 4d 47 f3 bf 7c 40 e1 d0 cf d0 f0 bf
       -1.2049079642915455 -1.0509794387217246
000260 a5 1c 3c 90 af 3a ca 3f 6a 15 07 ad 13 91 c3 3f
       0.20491594832148965 0.15286489437691425
000270 59 67 57 de 17 b6 f2 3f ac 07 f2 47 e4 4e e6 bf
       1.1694563565456149 -0.6971303372558757
000280 fa fd 07 e0 ab 44 bf 3f 9c 04 e7 e8 39 45 eb bf
       0.12214159221183954 -0.8522004650950694
000290 12 22 52 9d 2b be e7 bf ce c3 1b f1 6e a4 8b 3f
       -0.741964156405688 0.013497225506826551
0002a0 35 05 3a 90 3e 66 f0 3f 91 b1 bf 33 65 17 e6 3f
       1.0249620088437272 0.6903558741301358
0002b0 d3 d0 34 e3 97 a4 c0 3f c7 07 a3 d5 a5 09 c3 bf
       0.13002298921640562 -0.1487319272183056
0002c0 87 37 66 9a 98 28 d0 3f 77 a5 b1 c6 ce 09 e4 3f
       0.25247778966956286 0.6261972313633767
0002d0 89 29 0f 9c 67 06 d8 bf ed db fb 28 b9 27 df bf
       -0.37539091339262903 -0.4867995167000448
0002e0 ca 6b ce ea 90 da e8 bf 7c 36 e1 24 03 50 ee 3f
       -0.776680430036657 0.947267124205339
0002f0 af 93 73 89 f7 0d d8 3f dd 3e 0b 93 ac 60 e3 bf
       0.3758524744319471 -0.6055510398818701
000300 f7 e4 c8 1a da e6 e9 bf 78 d1 f8 aa b5 d5 d7 bf
       -0.8094301722659613 -0.37241880127410054
000310 7b 1b 2b 62 49 cc e9 3f 96 48 69 7c cc be f1 bf
       0.8061873357154207 -1.109081731778621
000320 fb 2e c0 d2 0f 80 e9 3f 4a 54 e4 3d 22 c9 e5 bf
       0.7968825451111735 -0.680802460558547
000330 b2 73 26 b3 a4 bb b9 3f 75 08 1c 70 21 60 d2 bf
       0.10051946042808771 -0.2871173472232223
000340 00 43 76 6b ae 1b cf bf e4 1b 5f b5 67 5d d9 3f
       -0.2430322670666314 0.3963259955602878
000350 38 e1 69 59 0c 9c d5 3f 13 f1 2c 9b 72 96 c0 bf
       0.3376494286708467 -0.1295912988370068
000360 ac 3c d1 06 85 f0 e4 bf f7 b2 f9 cb ee d0 cd bf
       -0.6543603070403115 -0.2329386230443544
000370 7e 04 4e b7 ab 43 e0 3f 16 1c 51 77 08 b7 f0 bf
       0.5082605915232674 -1.0446858082593784
000380 af 02 a5 ed 78 7c e3 3f ee 55 7f a3 e6 cc d6 3f
       0.608944381856494 0.35625616041701746
000390 51 e2 32 5a 02 86 d8 bf d8 2c 37 a1 73 0d cf bf
       -0.383179271778805 -0.24259801265575365
0003a0 15 4c a2 03 49 ed e3 3f dd 17 65 29 62 99 d0 3f
       0.6227154799438518 0.2593617824790025
0003b0 35 2e 39 b4 c9 81 e8 bf ae 60 4d 87 e3 00 da 3f
       -0.7658432502734686 0.4063042470275019
0003c0 df a0 5f f8 17 58 e4 3f d2 86 2b ea eb d0 c9 bf
       0.6357536173864239 -0.20168827947696016
0003d0 9e b6 e4 b8 bb 7a df bf c0 e5 cd 29 4a 87 eb bf
       -0.49186604553220004 -0.8602648560037593
0003e0 50 fd f8 fd f7 fd eb bf e0 af a1 6e 75 07 b2 bf
       -0.874752040901436 -0.0704263110253005
0003f0 c0 41 13 40 c3 a3 ef 3f 3a 9d aa 3e 7d f1 d6 bf
       0.9887405635327511 -0.35848933334132804

layers.1.weight f8 [100, 128]
000000 22 ec d5 d1 ee d9 e1 bf 0c 22 49 7e 76 f0 8a bf
       -0.5578531359054788 -0.013153959015782334
000010 61 9a 36 02 ae 9e d2 bf e1 5a 03 3a 5b 8f ad 3f
       -0.29093504158155353 0.05773434718292037
000020 60 c9 6b f9 93 aa d5 bf c6 38 99 75 7d 0e d2 bf
       -0.33853625638507445 -0.2821344040320465
000030 4f 55 c3 32 c4 99 d1 3f b9 50 51 fe 51 87 c1 3f
       0.2750101562245008 0.1369421474252073
000040 50 a6 d3 0e 6f 02 ce 3f e4 82 d3 fc 35 cb c9 bf
       0.23444927429163664 -0.2015140041831024
000050 5f af 77 d6 99 fe c9 bf 15 a9 ee 64 00 16 ce bf
       -0.20308230373427258 -0.2350464337189996
000060 71 c9 fb a5 ce 16 b7 bf b8 b8 ae 38 d4 43 d0 3f
       -0.09019176056225377 0.25413995299721703
000070 00 af 50 88 d6 be b4 3f 17 b4 d8 ca 6c 0a c6 3f
       0.08103695705420577 0.17219314484228285
000080 ad eb 68 75 7f 9b d3 3f 6a c1 d8 ef d3 29 c6 bf
       0.3063658377247361 -0.17315148555054388
000090 ac 36 f6 65 4f 62 9d 3f 97 62 fc d7 8b 70 c2 3f
       0.0286953359587218 0.14405963941751018
0000a0 ea 92 c4 d5 52 1b c1 3f c3 95 ba a8 d9 47 a3 3f
       0.13364634931453817 0.037657548758299984
0000b0 6f 73 23 23 ac f7 c3 3f fe 81 55 a1 da 60 c9 3f
       0.15599586215730762 0.19826825025212708
0000c0 fc a1 d5 64 f1 a1 db bf 01 0f a0 83 2e 1e cd bf
       -0.43175921294326236 -0.2274835722638429
0000d0 46 3d bf b2 b4 c9 a4 bf f2 02 8d d9 d7 0e d9 3f
       -0.04060139352770391 0.3915309547920024
0000e0 02 43 00 1a 11 07 c9 3f 04 23 c0 a8 2d ce a0 3f
       0.19552816171246695 0.032823016023092705
0000f0 c4 b4 66 48 e6 08 e0 3f 5a ab 70 0b d8 7a d3 3f
       0.5010863699041228 0.30437279813002294
000100 52 74 18 aa e2 1e bb 3f ce 8d 8d 84 ac e2 81 3f
       0.10594002392504479 0.008733127398676734
000110 10 b6 2b cc 3b 5e c5 bf 37 24 5c 2a a0 f6 69 bf
       -0.16693828076624628 -0.0031693580848508834
000120 2b 0f a1 a6 35 cb d4 3f eb e7 f7 4e ba 99 a5 bf
       0.3249029280889199 -0.04218847478837503
000130 ea 60 bc d9 aa 7d da 3f db 60 ff 98 a3 c8 ca bf
       0.4139201284720132 -0.20924801798424295
000140 fd 33 cd 83 96 a9 95 bf 48 73 b4 57 dc 52 dd bf
       -0.02115473918393106 -0.45818241658144077
000150 a3 a9 91 dc 0a f6 bb bf ef bf 6e 01 e0 5c c1 bf
       -0.10922305951104376 -0.13564682073547327
000160 1c d5 7a a6 66 a2 a8 3f 09 e7 c2 9e 5d 3d bb bf
       0.0481140211317472 -0.10640511632928108
000170 f0 07 8d ef ea c3 c8 bf 13 91 e2 bd 6f 09 e5 bf
       -0.19347893425771145 -0.6574019154254834
000180 f0 1a e3 5e 3c 86 c3 bf 33 3a 47 a9 fb 52 c2 3f
       -0.15253405221138605 0.14315744176424658
000190 8c e0 9f 16 fd f7 a5 3f 4c 15 a0 2e 72 78 de 3f
       0.04290762807062362 0.47610144189123527
0001a0 69 3a 89 2a 2d d7 c3 3f 00 0a d7 0f 79 3d cb 3f
       0.15500416352229543 0.21281350396573373
0001b0 89 7a 99 a6 d1 fa c3 bf 2f 02 6e 5b 02 0a d6 3f
       -0.15609188685171585 0.3443609135502212
0001c0 0a 66 41 bf a5 e7 d8 3f bb 21 28 42 e9 20 95 bf
       0.3891386382798322 -0.020633358633888692
0001d0 fd 25 8e 8f ec 51 96 bf 29 23 a8 10 67 bc 78 bf
       -0.021796890508573686 -0.006039049718773262
0001e0 4f ce 7c 11 e5 76 d1 3f 9a 1d f0 12 8b 88 e0 bf
       0.2728817625786392 -0.5166678781396741
0001f0 2b 51 ae 55 f2 73 de bf 53 07 36 e9 08 c6 c4 bf
       -0.4758268200614732 -0.16229354274042382
000200 a9 74 12 1b 67 6a d8 3f a4 59 4d 82 5b b9 68 3f
       0.38149430888899843 0.0030180728230490717
000210 a6 33 52 ae 62 0f c3 3f 64 36 30 d0 c2 2f c3 bf
       0.14890702735683908 -0.14989504971929357
000220 5d 9f 46 9b d2 2c d8 3f 41 a2 0f e6 a6 6f b2 3f
       0.3777357593885336 0.07201617352223712
000230 ff 1f 3b 3f 92 c6 ab 3f 0a 11 be f1 0e 62 ce 3f
       0.05424935361730831 0.237367504156403
000240 68 28 b8 cb 42 c1 b8 3f 64 cd 19 d5 f1 a0 af 3f
       0.09669892762772891 0.061774785292892515
000250 99 c7 83 f6 04 4e c3 3f 9f 70 8a 00 c5 3f c0 3f
       0.15081846272329072 0.12694609190373726
000260 32 af 41 6f 9c 9f c0 3f 03 49 cf 50 24 64 d7 3f
       0.12987094337892696 0.3654871739537528
000270 cd 44 b0 73 35 27 c5 3f 2a 04 26 d2 1d 59 96 3f
       0.16525905751090023 0.021824327422567937
000280 5e fb 0f 64 b5 fb 8a bf c6 a2 b5 3c da a4 85 bf
       -0.013175408474123958 -0.01056833741923081
000290 01 16 d1 db 10 7b da bf 1c c9 60 5e 22 5d a4 bf
       -0.41376134363630973 -0.03977305795742067
0002a0 43 48 16 d0 1b 27 cb bf df 9f 52 46 fe f3 be 3f
       -0.21213100109577185 0.12091054169525205
0002b0 62 8f 27 2d bd 38 b1 bf 41 16 09 03 7e f3 e3 3f
       -0.0672720179787212 0.6234731730734852
0002c0 02 10 11 5c ed 41 ee 3f 61 ba da b6 18 63 b8 3f
       0.9455477522064941 0.09526209320277125
0002d0 56 a9 3b 8b da 2c c1 bf ed 9e 0d b7 ce 5a b8 3f
       -0.13418132589806459 0.09513561219284457
0002e0 ca 6a bb bd f1 e0 b0 bf d0 1a ae 5b f2 1f 70 bf
       -0.06593237764483742 -0.003936716758181816
0002f0 33 75 9d 93 38 aa dd bf 55 0a c2 7f 7f e3 b7 bf
       -0.46351446548017633 -0.0933150946530444
000300 ce 01 72 49 4a e6 c3 bf 80 4c 1e 4a 98 57 cf 3f
       -0.15546539865682835 0.24486068362293523
000310 b6 dd f4 5b d5 a2 b5 bf 0d 3c 3f f2 ba 3f a1 bf
       -0.08451589102775511 -0.0336893482886965
000320 c3 77 38 a0 c4 e9 d2 3f 7a fe b8 5e 97 d8 d5 3f
       0.2955180706647946 0.3413446831727708
000330 a2 54 46 cb 2a 3d c2 bf d6 7f 47 45 c7 e5 c8 bf
       -0.14249167371295807 -0.194512280299931
000340 55 d6 6d da 51 b7 cc 3f a5 71 c5 3d 6f 1f cf bf
       0.224344474463282 -0.24314680591750207
000350 16 e7 74 4b 5c 60 d4 bf 19 d2 81 26 19 47 e2 bf
       -0.3183813797837599 -0.5711789848415406
000360 4e 9e b1 92 17 56 ad 3f e9 ff 1c 13 f2 80 cb bf
       0.05729745546051089 -0.2148726075483858
000370 21 3c 5e 24 7a 19 ea 3f bf 60 d2 7b 00 f5 a4 3f
       0.8156099996866751 0.040931716074909634
000380 57 2b 4c 5b ab d5 d1 bf 99 67 34 20 2c 22 ba bf
       -0.27866634288573294 -0.10208392893073749
000390 91 ea 99 f5 84 78 dc 3f 95 7d cb 95 fa 3b d2 bf
       0.44485591873641633 -0.28491081837088333
0003a0 9e 13 4c 59 44 19 cb 3f 4a eb 11 e8 29 9d d0 bf
       0.2117085872670516 -0.2595925108250198
0003b0 9a 49 d6 21 65 f1 b0 bf d3 09 fa 91 fc 9e f2 3f
       -0.0661833961114894 1.163815088483365
0003c0 ad 06 f6 0a 65 0b c6 3f 31 9c 2a a7 82 4d d7 bf
       0.17222273860175133 -0.3641058571324179
0003d0 23 bc 8e 86 f4 0d c8 bf d0 19 69 1c 26 56 ba 3f
       -0.18792587824052118 0.10287702745072314
0003e0 20 51 d0 3d 8c 53 d9 3f 37 38 5f 1c c1 05 83 3f
       0.3957243541383537 0.009288319280951736
0003f0 5b 81 3e 89 12 b1 d9 3f 8a b6 ee 7e 95 52 ca 3f
       0.4014326420092595 0.20564526269793176
000400 8f 84 61 9d b1 e0 a5 3f 18 07 d3 85 80 7a b0 bf
       0.04272990270761411 -0.06436923281856044
000410 4c 65 6e 73 31 77 99 3f 0c af 97 48 9a 4a a5 bf
       0.024868748350489953 -0.04158479820384117
000420 46 ee 94 9b 49 9b aa bf 25 80 24 c0 ef 9f b8 3f
       -0.0519659998339788 0.09619043770771947
000430 9b de 3e 7c f1 68 6a 3f de ac 9c cf 70 bb 8c 3f
       0.003223868990939694 0.014029389701667613
000440 1a a8 e1 e1 6d ea 3c bf 18 0f b7 68 20 86 21 bf
       -0.00044121916460560103 -0.00013369699114040216
000450 fd e1 d6 32 52 48 b5 3f 67 c7 e8 0e 8d 91 b1 bf
       0.0831347822303385 -0.06862718214031603
000460 d6 ee 5a 03 80 98 b5 bf 4e 7f c8 f8 d1 1d ae bf
       -0.08435821611322622 -0.0588212600889607
000470 1d 75 bd e3 83 3c 90 bf 5b dc 62 c7 57 24 9c 3f
       -0.015855847144270564 0.02748238710838922
000480 ac 31 30 ed 29 b4 b8 3f 7b 08 bf f6 b3 d4 b6 3f
       0.09649908104638055 0.08918308996274675
000490 83 b6 29 01 dc 0a a3 bf 64 ce ad 1b 2d 1a a0 bf
       -0.03719222559162196 -0.03144970858457155
0004a0 bc df 9a 7c a1 6b bb bf 2d 4a 90 5b 04 d4 93 bf
       -0.1071110657893532 -0.01936346825466211
0004b0 4c 7d 33 df ef 70 99 3f 9f 6c 3f 9e 11 89 b1 3f
       0.024844882963291057 0.06849775422544944
0004c0 cd 60 31 f6 61 02 78 bf 2b ed 49 41 49 bf 67 3f
       -0.005861647284369731 0.0028988295328510514
0004d0 36 d9 b4 5e 47 3a a0 3f 63 ed 36 b8 d0 98 b6 bf
       0.031694631872982645 -0.0882692765944078
0004e0 ac 8d 2f 75 13 28 ac 3f f8 17 68 f0 d6 7d b8 bf
       0.054993255667592805 -0.09567016000082151
0004f0 10 c7 1c c5 39 6b b4 bf da 90 a3 f7 95 4c b0 bf
       -0.07976113378824956 -0.06366860671875277
000500 87 c8 1a 85 55 52 b8 3f 08 f7 89 03 32 c4 aa 3f
       0.09500631808876579 0.05227810185622955
000510 79 db 0c 6b 6d 02 aa 3f c0 b0 cf 35 6b db b4 3f
       0.050799769704489024 0.08147306503059593
000520 c3 41 cb 84 8f c6 a6 bf 77 2b ec b9 05 ec 6e 3f
       -0.04448364730854195 0.0037746536103261913
000530 f0 8d 65 38 50 eb 99 3f 61 53 af 18 f6 83 a2 3f
       0.0253117117330372 0.036163034928597744
000540 d9 98 31 f5 b1 dc 5d bf 96 4d 94 fa 8d ed 49 3f
       -0.001822637354757675 0.0007912581687911531
000550 c7 ef 64 08 b9 56 85 bf 87 ac dd 64 73 b3 a9 3f
       -0.010419316834138116 0.05019722563050615
000560 6f 75 53 e7 d4 d8 90 bf 40 1e 0b 07 5d b1 92 bf
       -0.016452147120494084 -0.018254712633988257
000570 b7 61 9c 12 ae 8d a4 3f 1b ef ca 41 3f 8a b8 3f
       0.040143432399591665 0.09585948330180509
000580 21 12 0e 66 3e 71 8f 3f 37 f7 58 0e 21 a2 9a bf
       0.015352714051695195 -0.026009098530486354
000590 9b 9f f3 fd 13 c0 a9 3f 85 d1 ef ff 91 7f 7c bf
       0.05029356455798891 -0.006957598029647354
0005a0 e2 6e 33 0f 67 65 a0 bf 49 b9 44 f8 3c 4b 5b bf
       -0.03202364025648109 -0.0016658873947324618
0005b0 69 2b 81 a7 ca 01 a1 bf a1 17 e3 fd 54 45 a6 3f
       -0.03321679396375183 0.04349771117408286
0005c0 e5 55 84 ef 54 64 bc 3f e2 d1 1c f0 e7 e2 97 bf
       0.11090594146329343 -0.023326515226658524
0005d0 3e dc dc 25 34 05 aa bf a0 57 81 62 04 a5 aa 3f
       -0.050820951101222964 0.0520402307744654
0005e0 fb 44 4c 6a 5e 73 99 bf dc 33 30 d4 6e d7 92 3f
       -0.02485415958205282 0.01839993639082481
0005f0 c7 c1 ad 69 38 5b 93 bf c6 cf 85 31 79 06 b0 bf
       -0.01890266556751088 -0.06259877642679532
000600 77 a9 c4 3b 6c d0 b1 bf 50 68 90 84 c9 20 af 3f
       -0.06958652934250674 0.06079702132429132
000610 99 74 4a 1a 95 0c 33 bf 2c 6f 84 74 58 08 9c 3f
       -0.0002906669636020903 0.02737558566251079
000620 18 b9 0f b1 08 50 82 bf 25 0e 75 f0 bf 4a ae 3f
       -0.008941715148435267 0.059164045431796354
000630 9d 1d 3f 0c 39 68 aa bf 48 fc 5e 8e f1 ef b0 3f
       -0.05157640718931165 0.06616124845366855
000640 95 ca 6c 44 27 41 9d bf a0 88 a8 29 e6 d3 b1 3f
       -0.028568852950409413 0.06963957325982273
000650 31 c3 69 bf fb 9d a0 bf 64 e7 7d e0 15 fa a4 3f
       -0.03245531760774723 0.04097050061586918
000660 4f 04 38 03 06 42 b3 bf 92 72 e3 58 94 23 9c 3f
       -0.0752261884554326 0.027479474950143308
000670 a0 5b c4 d6 85 10 83 bf 11 aa d9 79 25 34 aa bf
       -0.009308858505887418 -0.05117909538678956
000680 35 00 68 1b 39 a9 9a bf a2 c3 5a 21 60 21 b2 3f
       -0.026036159799332565 0.07082176985092173
000690 76 4b 24 15 94 5b b0 3f d9 77 8f b5 53 46 b5 bf
       0.06389737621456767 -0.08310435469272139
0006a0 9b 5d 2f 89 5d a2 a2 bf 2b 89 b7 1d 1d e6 b5 bf
       -0.03639499950048305 -0.085542506938087
0006b0 96 21 41 1d d2 60 74 bf 4d e9 c4 e9 81 a5 a7 bf
       -0.004975147971045498 -0.046184596811559155
0006c0 13 cb e1 da ae ff 96 bf e3 5f cc 74 45 2e a4 3f
       -0.022459728345391627 0.03941552210579837
0006d0 14 70 40 52 a8 1f 49 bf a1 73 e7 b0 a9 f3 a4 bf
       -0.0007667133218123312 -0.04092150005792595
0006e0 62 4f a1 e1 59 ce a1 3f 18 8a 8f be 70 76 91 3f
       0.03477745894693275 0.017053376799490122
0006f0 18 c4 4c 12 5c 39 bc 3f 1f fe b3 90 55 4d 92 bf
       0.11025023886465168 -0.017873131710983366
000700 2f 98 08 79 e3 82 b5 3f 9c b3 12 a5 da 6e a5 3f
       0.08402845101281352 0.04186137452175062
000710 4d 20 4b 85 c1 3a b7 3f 80 05 5b c4 b9 7c 99 3f
       0.09074029449686911 0.02488985310515579
000720 20 5e bb 4c 5f ba 93 3f 49 92 e7 7b 48 df 72 bf
       0.019265641268104372 -0.004607470646508968
000730 02 dd ad 9b d6 e9 9a bf 6a 26 20 b3 b2 3b 36 bf
       -0.02628264737310549 -0.00033925164018509
000740 3c 76 41 9d 15 f8 b9 3f b5 39 fe 6c 54 f3 6e 3f
       0.10144171799898855 0.003778138059664838
000750 fa 5b f5 aa 73 19 bd bf f8 be 73 84 bf 12 b5 3f
       -0.11366961406507406 0.08231732352919241
000760 b1 d2 a7 6a c8 27 b3 3f c7 6c 40 3e 86 96 b7 3f
       0.07482578853507495 0.09214056987586892
000770 17 40 41 cd cf b3 a7 bf bb da 17 85 c2 7c 90 3f
       -0.0462937295966414 0.016100921033251874
000780 80 62 aa f1 e2 ca a8 bf 04 ae 34 84 02 aa ad 3f
       -0.0484229011537467 0.05793769706573573
000790 62 e7 5d 34 a7 db a7 bf 35 db f9 ef 3a 2b 5a 3f
       -0.04659769548648175 0.001597220951138301
0007a0 a0 79 fc 12 d7 45 ae 3f fc 3d 7c 3e be 7e b1 bf
       0.05912658793225778 -0.06834019685287979
0007b0 65 41 bc fe d6 2c b5 bf 60 38 3c c3 a4 9f b2 3f
       -0.08271545142293275 0.07274846807942614
0007c0 5e e9 66 6c a3 4f a7 3f 85 8a 1f b6 eb a6 a5 3f
       0.045529467566171475 0.04228912923988041
0007d0 78 90 53 ba ad 2e a1 3f 4e d1 04 7b a3 b1 97 bf
       0.03355925464146109 -0.02313857496592791
0007e0 e6 6c 9c 45 16 f8 b6 bf 69 29 a8 2c b3 ee b3 bf
       -0.08972300719726753 -0.07786102142578034
0007f0 4d 29 3d 6f ab 81 b9 3f e7 d2 09 a7 b3 47 a3 3f
       0.09963485208314644 0.03765641607325226

layers.1.bias f8 [100]
000000 55 e6 57 39 aa c3 c5 bf 0e bf d7 f3 73 b7 b6 bf
       -0.1700337200161807 -0.0887367697066532
000010 c4 e0 a0 7d e1 86 9f bf 8c 1c e9 8a de a0 b0 3f
       -0.0307879670073994 0.06495467082378265
000020 4d d0 97 f7 62 55 a8 bf 9b 4c b2 b1 88 93 d5 bf
       -0.0475264479863716 -0.3371297583882524
000030 9e f2 20 c6 5e f3 af bf c6 3b e6 9f 6f eb 5a 3f
       -0.062403642354614805 0.0016430463871050945
000040 b5 85 ed ad 3c c2 b1 bf e2 4b f1 08 47 5b a9 bf
       -0.06937007185253814 -0.04952451690828476
000050 b5 2a af 6a 1c 63 86 bf 9c 60 54 ca f8 70 9d 3f
       -0.010931226735825342 0.028751265858858774
000060 68 17 01 1f b4 de b3 bf 7e eb 89 03 cf db b1 3f
       -0.07761693722667717 0.06976026379008535
000070 00 15 db b4 a5 1f aa 3f 28 08 94 de b4 2b a7 bf
       0.05102269966804762 -0.04525532929439208
000080 6b 4b 27 3b 76 b0 b7 bf 13 9c ca d4 e7 4d bd bf
       -0.0925363439958297 -0.11446999497512449
000090 aa 1b e9 63 b4 1d c0 3f ab d9 1c fc 5f 0c a5 bf
       0.12590651396223268 -0.04111003830478251
0000a0 08 63 ad f4 0a 3b a3 bf 86 9a bc 7c 1a 4d b2 bf
       -0.03755983578475336 -0.07148900552111045
0000b0 3a ef 06 72 dd 4f 98 bf ff cb c0 e6 1c 1e c9 3f
       -0.023742160877858277 0.19623147265664895
0000c0 c1 9b ca 36 1e c6 d1 3f 1e 7f 2e 40 0d ff ab 3f
       0.2777171645233772 0.05468026550738457
0000d0 0f 08 a7 56 a2 f5 bc bf a7 c3 be e7 98 f8 7d 3f
       -0.11312307944811571 0.007317158971930227
0000e0 55 04 e0 99 ed a3 b2 bf 67 b5 9c b3 a6 b4 b3 bf
       -0.07281384474482995 -0.07697526822149357
0000f0 e1 3f bc df 21 71 b3 3f dc 7a 8d 04 5c 43 76 3f
       0.07594501220978557 0.0054353327221565405
000100 00 00 00 e0 a4 25 aa bf 36 20 a9 72 fd 3a a8 bf
       -0.05106845125555992 -0.047325058218632796
000110 94 73 ea f9 82 2f 37 bf 5c 54 4d c3 f3 ec a7 bf
       -0.0003537840620227381 -0.046729676809868365
000120 ac 36 32 2e 12 10 ab bf 86 8c a3 fa 66 30 b5 bf
       -0.05285698713224227 -0.08276980990517488
000130 85 62 3f c4 f2 c5 b6 bf ab 93 1d b9 c8 46 ac bf
       -0.08895795146180248 -0.05522753963194956
000140 59 ee 38 03 df 79 b1 bf 3d bf db ff 9c 7b ad 3f
       -0.06826585606261783 0.057583719475472674
000150 af 61 bd 69 64 8c 95 3f cd 86 d6 5e 15 9d 7d bf
       0.021043366388171666 -0.007229884603846504
000160 a3 b1 63 6a 0a 9c b2 3f d4 9a 8d 91 dc c9 be bf
       0.07269349191091705 -0.12026766351264523
000170 e1 c9 fd 20 42 8f c1 3f 1c 1b 2f dc 64 17 ba bf
       0.1371843968477853 -0.1019194638784992
000180 78 a3 88 46 6f 88 b4 bf 84 94 71 66 89 52 82 bf
       -0.08020682785048716 -0.008946488798935677
000190 3b c6 a5 8c ef bc 9b bf 97 f4 5b c0 87 0b 8d 3f
       -0.027087920150228078 0.014182148511731092
0001a0 0b b7 52 4a 22 dc ca 3f d3 b7 39 1c e1 76 bb bf
       0.20984295491273772 -0.10728270472620176
0001b0 cc 3d 9b 60 67 9f 74 3f 65 60 fb de f1 af ab 3f
       0.005034831827017649 0.054076727361178446
0001c0 26 25 19 6d 71 40 b5 bf 40 d8 7e 49 c5 5d e5 3f
       -0.08301457322626912 0.6676966128786788
0001d0 ce a8 c9 02 a0 db 97 3f 49 87 cf 88 5c 32 79 bf
       0.02329874054923025 -0.006151544058384869
0001e0 bd 04 fa 72 75 5d b5 3f 51 8a 2a 72 03 23 89 3f
       0.0834573178963351 0.012273814126563172
0001f0 b3 e4 80 4a 31 14 b2 bf 00 00 00 40 0e fd a3 bf
       -0.07062061375553945 -0.039040036499500275
000200 1e fb 16 97 24 32 ce bf 21 3a b6 77 83 fe b1 3f
       -0.23590524079733027 0.07028981850292172
000210 9b 06 be 02 ad a5 b8 bf 46 c4 fd 85 4e e4 a9 3f
       -0.09627801243734739 0.050569967132908775
000220 2a 4f 6e cf d0 bc b5 3f 31 d2 dc af 6c 8d b5 bf
       0.08491234840613218 -0.08418921750564647
000230 00 00 00 20 f3 db 78 bf 3b 1e c3 e6 64 7a 91 bf
       -0.006069135386496782 -0.01706845911465236
000240 b6 4e cb 86 6e 35 64 3f 8b 34 99 53 4f 73 d1 3f
       0.002466884491107847 0.27266295589363015
000250 58 3a ff e2 3f ce b5 3f 6b 60 aa 2f 99 13 72 bf
       0.08517836849134974 -0.0044132217250521895
000260 27 a4 c8 e7 ec c2 b1 3f 8b 8d 99 c7 4f 1c a5 3f
       0.0693805757406528 0.04123162566682045
000270 99 f4 cc 0f 93 53 a1 3f 59 ee 19 7a ea 44 d3 3f
       0.03384074752691752 0.30108129428820046
000280 0a bc 3d d1 2c 66 a7 bf 00 eb be 01 d8 64 a3 3f
       -0.04570140890324843 0.037878751957995505
000290 f8 ae fd e2 48 0c ab bf 90 82 13 bb 58 9b 7d bf
       -0.052828099926811534 -0.007228228191906397
0002a0 8b fb 0d f7 b8 b0 a9 3f f2 84 f6 9c 73 2f 8d 3f
       0.05017641082576237 0.014250663020734387
0002b0 fd 9f 52 84 37 48 a7 bf 00 00 00 a0 b3 f6 a4 bf
       -0.04547284593837728 -0.04094468429684639
0002c0 ea 24 8c 06 48 7b b0 3f bc 05 7f 51 b6 8a c0 bf
       0.0643811241135556 -0.1292331598215649
0002d0 00 00 00 a0 85 c6 a5 bf 4d 0e 55 81 f7 fb b5 bf
       -0.042530227452516556 -0.08587595851445791
0002e0 97 37 ae ba bc c9 bf bf 13 c9 ca c1 74 3f ba bf
       -0.12417201573972957 -0.10253076297047796
0002f0 03 88 4a 0f b7 89 9b bf f4 c2 6e cc 6d 32 9d bf
       -0.026892528827950467 -0.028512683489398463
000300 55 9f d6 16 ee 9c b2 3f 00 00 00 c0 01 b1 a8 bf
       0.07270706231667863 -0.04822545498609543
000310 a2 31 70 71 3b e7 3b 3f 78 68 5a 6a 0a 51 90 bf
       0.00042576981781008484 -0.015934145680696038

layers.3.weight f8 [100]
000000 85 36 1e be 32 26 f6 3f 7c 68 5b 13 3e 8c ef 3f
       1.3843257357106336 0.9858694437091482
000010 ec 47 4e 5d 17 f3 f1 3f 39 ef 93 e7 eb a2 ef 3f
       1.1218484539754128 0.9886378787045721
000020 c8 7f 3f 73 65 3c e1 3f 77 36 7b 83 d2 95 f6 3f
       0.5386225939691878 1.411577714537456
000030 a5 98 04 ec c7 fb ee 3f 8f 4d dc a5 b2 03 f2 3f
       0.9682349786496799 1.1259027937820496
000040 da ed 36 bd d6 af e6 3f bf 22 28 37 e9 36 f2 3f
       0.7089647002789505 1.1384060053407408
000050 dc b1 13 c2 84 35 f5 3f 54 76 d9 a3 d2 3e f5 3f
       1.32556606112768 1.3278376007432557
000060 2f 92 a1 c2 c2 0c e5 3f cf bf 7d f6 8c 19 eb 3f
       0.6578077126874343 0.8468689741403014
000070 09 7a 59 2e 57 d6 ee 3f 7f ff 4b a3 9d d4 ee 3f
       0.9636646180404692 0.9634540738479557
000080 d8 c9 69 4d 8e a9 ef 3f ff 40 61 0b d4 fb ee 3f
       0.9894477378823536 0.9682407591117509
000090 40 ab 4c c1 e8 b2 df 3f 2b 39 46 8e fc 22 f6 3f
       0.49529475094702846 1.3835416371908404
0000a0 b8 1e c1 66 8a 69 e5 3f ac 67 31 6e 0d 95 f7 3f
       0.6691333777352702 1.473889761391983
0000b0 01 ce 5f c0 a6 02 f0 3f 02 f8 47 eb d7 49 f7 3f
       1.0006473078364027 1.455528182093531
0000c0 d2 8c 8d 03 cc cb f1 3f c6 a8 01 a6 b1 b2 ef 3f
       1.1122551096712425 0.9905632250131695
0000d0 38 e1 78 a2 6c 67 f6 3f aa f0 12 f8 10 d2 ee 3f
       1.4002500864572323 0.9631428570933356
0000e0 fc 6b ee 05 fe 07 f0 3f 16 ce 9f 31 99 18 f0 3f
       1.0019512397473127 1.006005472035104
0000f0 e8 66 b7 cc cd e2 ef 3f fb 91 18 44 23 86 fa 3f
       0.9964360235564671 1.6577484760283585
000100 00 00 00 00 00 00 f0 3f c8 5c fd 1c dc 95 ef 3f
       1.0 0.9870434347348231
000110 fe ce 11 c2 46 60 ea 3f ed 69 8b 0d 5f e7 ef 3f
       0.8242524900838075 0.9969935669462849
000120 eb d6 bc e5 ea af ef 3f 18 59 23 93 f0 ee e5 3f
       0.9902243125022471 0.6854174493589964
000130 b3 86 f1 3e 96 ca ee 3f 3b 0e 7e 4a f4 0c f3 3f
       0.9622298459400639 1.1906626615390354
000140 f1 7f 21 c2 95 fc ee 3f 26 38 e7 aa 0e 26 f8 3f
       0.9683331290834741 1.5092913318544645
000150 d3 90 e9 6a a5 04 f0 3f 6d 79 31 b1 bf 93 f0 3f
       1.0011343170418072 1.0360714837657625
000160 f2 38 e4 50 b2 f2 e1 3f 60 00 a7 b7 2c f3 ec 3f
       0.5608760433113089 0.9046844088516188
000170 12 e4 45 ef 4c 52 f6 3f 8c 5a 80 d3 37 fc ee 3f
       1.3950929018594747 0.9682883387457237
000180 55 7d cb da 5c 45 ef 3f 49 99 60 ae 42 d0 f1 3f
       0.9772171281182788 1.1133448421110919
000190 fd 4a c2 92 da 9b f0 3f 48 81 45 dd 04 3a e7 3f
       1.0380502445956943 0.7258323976239263
0001a0 24 8a a3 88 76 ab f0 3f aa 85 46 22 2b 37 ef 3f
       1.041861089463631 0.9754844350283538
0001b0 bb ce ea 81 19 d2 ee 3f ef a4 92 a8 f8 92 f5 3f
       0.963146928543629 1.348381670463194
0001c0 04 40 c8 d1 6f 04 ed 3f 66 d8 aa c2 fb 09 f7 3f
       0.9067916009244077 1.4399373630708623
0001d0 50 bd 64 f5 dd fb ee 3f 3a 85 01 94 68 8c f0 3f
       0.9682454865305008 1.0342794209939954
0001e0 e8 0b 50 07 8a 98 df 3f 42 80 44 98 94 27 f0 3f
       0.49368525232438154 1.0096631954147743
0001f0 5a 1a 44 44 c1 16 ef 3f 00 00 00 00 00 00 f0 3f
       0.9715277036019174 1.0
000200 59 65 68 39 b3 25 ed 3f 4a 8d a8 3e db 27 f6 3f
       0.9108520623441719 1.3847305724710446
000210 35 b4 9f 70 d9 fb ee 3f 30 38 7c fb d3 a5 f3 3f
       0.9682433318790858 1.227985365261258
000220 1b cd 06 ae ce b7 fb 3f 13 50 9e a7 8a d8 eb 3f
       1.732374839583662 0.8701833032414491
000230 00 00 00 00 00 00 f0 3f f8 3c 45 73 9b fc ee 3f
       1.0 0.9683358432174876
000240 87 75 eb ff 39 dc f4 3f 06 fd f8 4e e6 79 f0 3f
       1.303766250311442 1.0297606549136744
000250 c2 a5 6d 43 d7 78 ed 3f c8 1e 23 96 66 25 ee 3f
       0.9210010830840292 0.9420655186049425
000260 83 13 3c cd 40 49 f3 3f 2e 81 25 2c 3e 80 f0 3f
       1.2053840653399852 1.0313092922661542
000270 19 45 3e 02 08 f6 ee 3f 6a f8 22 08 22 04 f6 3f
       0.9675331157506292 1.376009017737966
000280 cc 56 9a aa af da ed 3f 84 4a b4 ea f5 a7 fb 3f
       0.9329450924003253 1.7285060089240298
000290 cb b8 96 8b a4 9a ef 3f fe 86 36 5f 17 1a f1 3f
       0.9876272894232668 1.0688699454553325
0002a0 46 15 e2 ed e6 09 f0 3f da ea e9 79 7e 32 f0 3f
       1.0024174969015163 1.0123276483779393
0002b0 9b 7b 01 9c b8 33 f0 3f 00 00 00 00 00 00 f0 3f
       1.0126272291160834 1.0
0002c0 e6 6d c3 15 83 19 f0 3f 3b 50 fd 59 a2 81 f1 3f
       1.006228528035416 1.0941489711012895
0002d0 00 00 00 00 00 00 f0 3f a4 79 d2 ed b5 0f f0 3f
       1.0 1.003835610382887
0002e0 95 a3 98 d1 a0 58 f0 3f a6 c0 ae 41 89 a3 ea 3f
       1.021637743697487 0.8324629099716006
0002f0 b0 fc 5e ed 61 d0 ee 3f 1b 62 a9 8b cd ce ef 3f
       0.9629373203423679 0.9939944961325325
000300 85 df 89 0a 3e 25 f0 3f 00 00 00 00 00 00 f0 3f
       1.0090923701918382 1.0
000310 ca a1 20 0a f3 c6 f9 3f e3 00 e3 45 a7 dd fb 3f
       1.6110716243366476 1.7416146020842056

layers.3.bias f8 [100]
000000 fd a0 77 80 9b d5 aa 3f 8c 5b 06 7e 43 50 9f bf
       0.052410945350688444 -0.030579618994660815
000010 82 fe a3 24 10 5e 9e 3f 1c 1d 32 15 c8 67 ad bf
       0.029655697094311602 -0.057432415568707124
000020 1f a5 4b a1 4b 5b ab bf 21 f0 03 3e d9 c5 8f bf
       -0.05343090385378901 -0.015514085011538782
000030 6e 69 9a d6 76 06 b2 bf 19 8b 40 5e c2 44 ac 3f
       -0.07041113604865298 0.05521209145105938
000040 0b 3a 4a be 20 40 61 3f 57 c4 3f bc 5e f7 b3 3f
       0.0021057738798113726 0.0779933175652031
000050 05 57 51 28 e1 b7 c3 bf bc 27 30 24 fd 65 93 3f
       -0.15404905766143187 0.01894374402403519
000060 ef f4 8c 67 45 71 b4 bf b6 f7 49 02 d3 3a ac bf
       -0.07985337999430774 -0.05513629343930353
000070 61 eb 16 c3 1f 53 80 3f a6 60 c7 81 e3 84 a2 3f
       0.00797104658237452 0.03617011031354993
000080 00 97 ad 7b 2e 2b 7c 3f 1a 40 13 40 61 d2 b1 3f
       0.006877118658712211 0.06961639227233754
000090 50 0d cb e1 20 f2 90 3f 3d 7d 7c c5 55 53 ca bf
       0.01654864671833184 -0.20566818373570497
0000a0 1b 78 0f 63 a2 46 a2 bf 5b 13 03 61 c3 db 51 bf
       -0.03569514712556573 -0.0010899932859029435
0000b0 7a 21 46 cf 91 8d 6c bf 05 69 c8 67 d5 7b c4 bf
       -0.0034854743809697416 -0.160029102015706
0000c0 32 39 8f 08 9e 33 a4 3f 8b 6a b8 c9 f2 17 b2 3f
       0.03945630888448405 0.07067792343915806
0000d0 56 d9 98 fc 6b 12 d1 bf df 99 ca 96 b5 d3 ab bf
       -0.266749378849814 -0.05434958902087649
0000e0 23 d4 5d 0d 71 c2 9a 3f ac 3d 6d c6 5c 03 90 bf
       0.026132360878779914 -0.015637826548582076
0000f0 d3 2d b1 cc 3e 30 a5 bf f8 cb c3 c5 84 80 a3 bf
       -0.04138370751078537 -0.03808989442941163
000100 c2 d1 1d 5d f3 d8 ad bf e4 64 d5 56 a5 24 8d 3f
       -0.05829582702327542 0.014230052673769263
000110 60 74 93 fa d2 f1 96 bf 5a 0c 89 71 17 2d 2f 3f
       -0.022406860870308853 0.00023785506415849555
000120 ba fe bc 9b 38 c9 a0 3f eb f9 40 48 02 a9 a1 bf
       0.03278519536115483 -0.03449256069187697
000130 42 d0 a8 a3 3d a1 b1 bf 64 36 bd 9b e5 0e a7 3f
       -0.0688665890273237 0.04503552938568303
000140 7a 62 87 04 04 78 ab 3f 09 30 2c 2f 52 89 b1 bf
       0.05365002208026666 -0.06850160266566276
000150 48 b0 4c 0c 00 4d a9 bf 2e 3a 62 4c 18 5e a9 bf
       -0.04941558981076405 -0.04954601223390785
000160 f3 68 30 53 10 c4 a6 bf 9a d4 c3 93 b0 c4 8d 3f
       -0.044464597849769215 0.014535312184742733
000170 1e 9b 3e 60 94 3f c9 3f 1f a7 7a 16 08 2f b1 bf
       0.19725279521409161 -0.06712389515692195
000180 cc c9 7b b5 b6 c4 95 3f ee b4 67 8f 5d 93 95 3f
       0.0212582157391326 0.0210699671533136
000190 11 9c 29 7d d3 71 89 bf 30 44 cd f1 02 60 7d bf
       -0.012424137360723038 -0.0071716418286352085
0001a0 95 a8 47 70 62 41 a0 bf a5 69 31 28 ae 75 b7 bf
       -0.03174884434322781 -0.09163940888666973
0001b0 22 a2 0a fd 5d 33 7f bf 0a 5d ff 3f be cf 9d bf
       -0.007617346899373463 -0.029112789779756766
0001c0 7d 25 33 c6 c3 eb 99 3f fe fc b4 18 ad cb e2 bf
       0.02531343362060089 -0.5873628122862156
0001d0 3b 42 4c 8c b3 63 a9 3f 72 f3 00 49 d2 ce 81 bf
       0.04958878600712465 -0.008695261814972464
0001e0 89 e8 74 40 db c0 ab bf 95 b1 d4 3a 71 9a 94 bf
       -0.05420575296234726 -0.02012040063452643
0001f0 e8 1c bf 41 0d d1 91 3f 84 a8 98 97 75 18 b4 3f
       0.01739903177056315 0.0784982199772078
000200 f7 96 7b ec e6 69 9a 3f 9c d7 1b 4b 8f f0 a2 bf
       0.02579460924507423 -0.036991575163411755
000210 61 f2 46 b0 49 c3 a3 bf db f2 2f ce bc bc b6 bf
       -0.03859930302448756 -0.08881740602368941
000220 43 5c 70 95 fa ca d6 3f 83 7f 29 f0 ec d4 72 bf
       0.35613884538310375 -0.00459759286840711
000230 76 90 6e d4 11 a0 a8 3f 1a 39 b1 8f d2 8e ae 3f
       0.04809623449480764 0.05968339923912165
000240 d6 15 dd 26 ee 5c 71 bf de 2a 9e c9 d7 84 a2 bf
       -0.004239015846740432 -0.03616976104884427
000250 6a 70 39 29 fb 9f 74 bf 52 de 72 23 b6 eb 86 3f
       -0.005035382364067068 0.011191771466072673
000260 74 be 6e 12 dc c4 d3 3f 7a 98 68 39 6f 5f a6 3f
       0.30889035987909286 0.043696857221491706
000270 52 af fd 4d 6a 65 83 bf 09 61 b0 82 57 52 ba bf
       -0.00947077799329291 -0.10281893673561994
000280 b6 13 91 2a 84 d5 ab 3f c3 9b 0d 9c f5 24 de 3f
       0.05436337489712832 0.47100582351270875
000290 25 ea 74 d0 63 23 95 bf 28 44 94 df 70 d7 aa 3f
       -0.020642814253031844 0.05242493371236662
0002a0 d3 de 97 78 60 60 a3 bf e9 79 1f 94 eb 2c b0 bf
       -0.0378446719368505 -0.06318542829783493
0002b0 86 95 46 27 aa eb 78 bf 42 a3 53 f8 06 a2 a2 3f
       -0.006084122335243141 0.036392419637030674
0002c0 26 80 d9 3e 07 3c a3 3f 45 36 59 b2 3c ef c5 3f
       0.03756735460478948 0.17136343677923285
0002d0 33 9e 12 e7 02 96 ac bf 35 35 0b a5 03 94 b9 3f
       -0.05583199568473809 0.099914768022434
0002e0 a7 49 79 51 da 1c a3 bf 08 24 93 a4 d6 07 b5 bf
       -0.03732950443795185 -0.08215085523546872
0002f0 3c d9 bd 54 20 a7 a3 3f fe 95 59 16 3f 3b 95 3f
       0.038384447426255325 0.020733819712765104
000300 e4 14 10 ee 55 44 58 3f f6 ca 43 f9 9d e6 87 3f
       0.001481136241865238 0.011670335931261527
000310 08 ab f2 b8 bb 0f d4 bf e8 cd 6c 77 e4 a2 7f bf
       -0.3134602838642171 -0.007723705718308584
