model_policy2_epoch-50.pt (torch, 373906 bytes, 28 tensors)

layers.0.weight f8 [128, 128]
0.03040158426815798 -0.031462884712029855 -0.1663371978248769 0.01529518846816636 -0.03635207900806157 -0.03307465116929136 0.05460101879020635 0.01818275593298579
0.27259917688839197 0.06615622265329281 0.13711148783816882 0.04403872291068235 -0.0984371698918676 -0.18545667296859075 -0.18476229992030443 -0.34180783395223774
-0.1568723734006174 -0.02145039314345218 0.034408101213392175 -0.07115246423580031 -0.1271580051789246 0.014061408773887103 0.20477362356367446 -0.2807539985131143
0.13868127868516084 -0.3116390420856212 -0.006877421444746841 -0.2081924064132187 -0.10358986092425991 0.09130373992749567 0.275309145162372 -0.06780893401036184
-1.0307691338078184 0.1960479934981086 0.03646711834714657 0.2094203911844273 0.052932500957555494 0.0003115066739145974 -0.29778315264988253 -0.8650831745437952
-0.3984534088549672 -0.15022788512081783 -0.09436804952435557 -0.09041822676785341 -0.004637312992619772 -0.13051007476485885 0.035931944358057986 -0.33810395719520575
0.5949291810283668 -0.3455140168420273 -0.5446298857194215 -0.2633836071658247 -0.2725593684559609 0.09748662314712446 -0.6133079828505151 -0.20446135191362905
0.09447763961586371 0.5339554282359315 0.1661380563142673 0.08121349762431834 -0.34812369298045764 -0.14080769143570446 -0.27309434645595865 0.5775875805920142
0.1777375148630257 0.010303778131310875 -0.057710112037836575 -0.0026706579475977658 0.21192101602226499 0.2556792856364249 0.16316646784308386 0.29015077459968186
0.19011850795243695 0.15028472531498618 0.07956734279816603 -0.023364055997842463 0.18171073457756332 0.04640449393044778 0.11475579170581507 0.02232133152399561
0.1574163328866476 0.028025643452194778 0.08846736266760913 0.1573256427921852 0.29626342033184105 0.10028533605821743 0.3386191316103543 0.43415221096242096
0.1010098031083761 0.08225926437949284 0.08025949682946168 0.32988459708229234 0.07160350808814761 0.014381415574873518 -0.1042854915227125 0.293386335536147
0.6803802397962385 0.5159069146723215 0.039318411026217734 0.1522061598889458 -0.03944555989555302 0.1444397786134398 0.5222906485826335 0.4177908539938601
0.05043338834280098 -0.05195870774683292 0.773374445105182 0.019170792384306773 -0.41795547322190707 0.19374376897115886 0.5709627187445185 0.4965008937416929
-0.4349260255527735 0.7673559884456965 0.7299273001350663 0.22153827398293802 0.3055239426879817 -0.26416632376892113 0.45566219434017124 0.06433133970175224
-0.5092814311690242 0.04544319112474696 0.04944008119182737 0.09260649873631788 0.46249061493283633 -0.12186892748045963 0.235536193062362 -0.2893041803864466
-0.25929387802616893 -0.19732769943326955 -0.2827429433424175 -0.35481532497057994 -0.28141737323101773 -0.2686916459684605 0.026239710799113438 -0.22421478755714103
-0.34305206386793397 -0.3043600212411891 -0.2779644887939299 -0.29336501980673746 -0.34890100269999436 -0.2522386585041765 -0.2701081215215403 -0.29058382702869817
-0.42167096215617744 -0.3139823102582192 -0.2575219471557687 -0.3037783615280337 -0.38031915422739343 -0.25700524137857966 -0.28581201082136237 -0.3286698726552541
-0.17517241565961839 -0.2220042530818403 -0.2444315377241719 -0.20716457316623976 -0.2574187822273193 -0.2788194705268002 -0.362037997986805 -0.23566041979629168
-0.25995742345398204 -0.22388507179801806 -0.3685970998935378 -0.2910160740265892 -0.3596314190935471 -0.39106379035804884 -0.32234828664928594 -0.26671960986261556
-0.16383795926938416 -0.28712931490230226 -0.07747518592669034 -0.3227476695430762 -0.2514080069214523 -0.1957038354293194 -0.04416158433912309 -0.32095168481391156
0.12822983649700065 -0.28263577736338813 -0.37659025285139375 -0.2644873296279327 -0.30829548709554466 -0.18550750358673798 -0.3246840194880161 -0.23805079240283114
0.31549058940454155 0.1930438690935986 -0.19874495859130922 -0.15435415723176427 -0.024842087005423192 -0.20693583657961495 -0.18864125473831345 -0.003850163506092276
0.19581594337534286 0.27061439857105657 0.30965979851506337 0.4681804780418466 0.4459359961644216 0.4468090214875752 0.09321180040971816 0.28679908694070333
0.2728619043855018 0.4090190339705268 0.4821583936363878 0.40223880618122415 0.46001864716438895 0.3164928795999457 0.24553471567608476 0.3612980186634947
0.25312980390824824 0.2917554211956744 0.29788953865233075 0.29557496346032336 0.4013080011748029 0.3585256255891347 0.349617853436913 0.33693948969638454
0.26275547936965826 0.2610016001976834 0.34907889820621185 0.23796888087423973 0.41363515002788 0.4165362394462088 0.27455429857967295 0.39534365099296104
0.5013233898827535 0.37696406479790495 0.3621603512238693 0.30926208314628834 0.3696184940743854 0.4377662715160776 0.25867891962818745 0.4539541980073873
0.15316585088337636 0.2080365541030313 0.24904545319616322 0.31633559796614835 0.2881378053655451 0.2708565629393103 0.31185155365348843 0.3512880879047836
0.07462616963251335 0.24781044864217908 0.28824826912914797 0.32180327187019053 0.34888343238455183 0.04124581341581552 0.27525804217006344 0.08177432845281227
0.02091167805920671 -0.04134332804450449 0.1577623705830615 0.14907948111801944 0.08950278146063484 0.29148696462963836 0.3179057408618594 -0.04536436353027251
00000000: 419b b6c8 9721 9f3f 5181 c039 e71b a0bf
00000010: 8110 628c 894a c5bf c331 0e72 1553 8f3f
00000020: 1d64 f65c bd9c a2bf b78a 3222 29ef a0bf
00000030: d97e 102c aaf4 ab3f df52 5518 809e 923f
00000040: 08bd 69d1 4372 d13f 9108 b93c 9def b03f
00000050: fbdd 1586 de8c c13f b266 5155 3e8c a63f
00000060: 5278 65a9 2d33 b9bf eace 9c54 0bbd c7bf
00000070: 7781 d881 4aa6 c7bf 79da 15f7 2de0 d5bf
00000080: 0f66 b3d8 6414 c4bf 785e 2684 17f7 95bf
00000090: eaa2 db4a f09d a13f ad2d ec42 0c37 b2bf
000000a0: a383 d5a8 b646 c0bf 1767 8e56 3acc 8c3f
000000b0: f40a 25a8 0536 ca3f 9971 759e dff7 d1bf
000000c0: d296 42e2 4ec0 c13f 5887 7ae1 e4f1 d3bf
000000d0: bbd7 f9c2 7f2b 7cbf 1500 697c 0ca6 cabf
000000e0: 27ec dd78 dd84 babf a3b7 fd90 ae5f b73f
000000f0: 51c6 b03f aa9e d13f 027d f321 ed5b b1bf
00000100: ace4 76c6 077e f0bf 7ba9 42c4 1918 c93f
00000110: a257 5c71 d1ab a23f 9256 a091 49ce ca3f
00000120: 6b31 0401 f819 ab3f 4153 19fa 366a 343f
00000130: da95 7b11 e10e d3bf e488 dfe8 c2ae ebbf
00000140: 59c1 00ba 4280 d9bf a744 c5d6 aa3a c3bf
00000150: 0492 7e26 8128 b8bf 5a24 ee1e a625 b7bf
00000160: c45a 503a 93fe 72bf 4ff0 74db 8db4 c0bf
00000170: eb91 ccfb ab65 a23f 4b4d b3c7 7ea3 d5bf
00000180: 267e feeb a809 e33f b659 a9d2 e61c d6bf
00000190: 2dda 72a7 9b6d e1bf 451a c5ea 46db d0bf
000001a0: 2d27 6fd9 9c71 d1bf 5be1 3622 e2f4 b83f
000001b0: 85ff 1610 38a0 e3bf fdea e121 ca2b cabf
000001c0: fd78 5ac4 af2f b83f a570 b9b1 2916 e13f
000001d0: 06d2 3e07 0344 c53f ec4b 4a64 68ca b43f
000001e0: 7815 1499 a847 d6bf 13ed de86 fc05 c2bf
000001f0: b20d b0b5 607a d1bf abfd 26f3 987b e23f
00000200: 04f4 cd56 1ac0 c63f f633 cbb0 251a 853f
00000210: ccb6 b307 2e8c adbf b446 6691 c6e0 65bf
00000220: cc4a 9354 3a20 cb3f 77ad 84a6 0c5d d03f
00000230: 044e 9889 a3e2 c43f 1024 f48d d491 d23f
00000240: 6e90 02a3 cd55 c83f 8979 28a6 873c c33f
00000250: 91d2 257f 865e b43f ae8c a641 bfec 97bf
00000260: eadf 2b1f 4c42 c73f 222d a36f 54c2 a73f
00000270: 302f 67b4 a260 bd3f fc4d 9833 67db 963f
00000280: 015d cde8 3726 c43f b25e 4e18 c1b2 9c3f
00000290: 70b6 6b0d cca5 b63f a8ab 4e25 3f23 c43f
000002a0: 10e3 54d9 faf5 d23f 106f a3be 4cac b93f
000002b0: c23f 0494 efab d53f d075 e45a 26c9 db3f
000002c0: 1c06 ed48 c7db b93f 718d 4d72 f10e b53f
000002d0: b271 13ea e28b b43f 980b fb48 d41c d53f
000002e0: 9e78 8485 9b54 b23f 509e 83ec 0074 8d3f
000002f0: d18e 8937 74b2 babf 6c25 0e7b d7c6 d23f
00000300: 999f d8c7 acc5 e53f 4388 c937 4f82 e03f
00000310: 4601 faf2 8a21 a43f b483 7ccf 7d7b c33f
00000320: 2597 725b 3532 a4bf 236f b1ae 007d c23f
00000330: c668 d5e0 9ab6 e03f b72d 9ed9 15bd da3f
00000340: c01a 1eb3 67d2 a93f 28b7 07ed 549a aabf
00000350: b43e a9c3 7bbf e83f 48e6 5019 82a1 933f
00000360: e006 2b50 c8bf dabf d477 c487 98cc c83f
00000370: 46c6 879b 5345 e23f b98a 43af abc6 df3f
00000380: 466b fbf7 d3d5 dbbf db72 5825 2e8e e83f
00000390: ba34 517f 905b e73f 34d5 c8bc 5d5b cc3f
000003a0: dd59 7f4b b48d d33f 2cb1 52de 19e8 d0bf
000003b0: 87bc adc3 9129 dd3f 037c 20c8 0478 b03f
000003c0: d597 6a92 084c e0bf 14d0 6977 5444 a73f
000003d0: 1a35 a9d7 3550 a93f 7834 783b 0fb5 b73f
000003e0: 45fb 753c 7299 dd3f 005b ed51 cd32 bfbf
000003f0: 7614 1dcb 0c26 ce3f 9fc6 56ae f583 d2bf
00000400: e539 8b59 4598 d0bf 7095 d4b7 0842 c9bf
00000410: 5326 b5db 7518 d2bf 7591 3756 4bb5 d6bf
00000420: ad6b a303 be02 d2bf 1026 0972 3e32 d1bf
00000430: 376b f42e 95de 9a3f 7a33 ebf5 11b3 ccbf
00000440: 4cd6 c8a4 90f4 d5bf 9e35 5c74 a27a d3bf
00000450: 346f 3491 2bca d1bf a40f 7713 7ec6 d2bf
00000460: 5cd6 08df 6454 d6bf 8cfd 439d ad24 d0bf
00000470: a66a 1493 7349 d1bf 076d 75e8 ec98 d2bf
00000480: 7d8d 0834 a8fc dabf 8e38 8542 4918 d4bf
00000490: 3252 4255 3d7b d0bf 22b4 ffcb 1a71 d3bf
000004a0: fdbc 5c26 2657 d8bf 0fc8 a71c c672 d0bf
000004b0: 2f08 d275 be4a d2bf fb06 8f5c ed08 d5bf
000004c0: 38ae 35ba 0c6c c6bf ca9a 47a7 a26a ccbf
000004d0: 8f72 515a 8849 cfbf 2ac4 5165 5e84 cabf
000004e0: 08b8 c2a0 8c79 d0bf 21a4 d99e 2dd8 d1bf
000004f0: 1ecf 506c a12b d7bf 4f4c fee1 1e2a cebf
00000500: ef95 0576 24a3 d0bf 57b1 b71a 44a8 ccbf
00000510: 395d 5c4a 1897 d7bf 2f7d 23e2 01a0 d2bf
00000520: 16bc e77f 3304 d7bf 2a35 8f6b 3007 d9bf
00000530: e823 45b5 5aa1 d4bf bef4 6320 ef11 d1bf
00000540: a8e3 736a a4f8 c4bf 099c 4ea2 5360 d2bf
00000550: e880 ceed 69d5 b3bf f80d 63d7 e5a7 d4bf
00000560: 0f88 eb9b 1117 d0bf de72 6fc2 d20c c9bf
00000570: afc0 f3e0 589c a6bf 64cc 77ef 788a d4bf
00000580: 3e22 10d5 d569 c03f 7523 1d5f b416 d2bf
00000590: 874d ff00 0e1a d8bf 7d55 bd43 5ced d0bf
000005a0: b21a a5fe 1cbb d3bf 81a8 88ba b5be c7bf
000005b0: e107 4f7b 9fc7 d4bf 0d1a 14c8 7278 cebf
000005c0: 9e0c ec70 ff30 d43f cca3 3958 a9b5 c83f
000005d0: 8780 b28c 7970 c9bf e4f1 a784 e0c1 c3bf
000005e0: 55be 023d 3470 99bf 9e6b 3d9d df7c cabf
000005f0: da83 e389 6525 c8bf 5031 f9ca 608a 6fbf
00000600: e28e 6a30 7f10 c93f 151f ec0d bf51 d13f
00000610: 7985 e054 77d1 d33f 242f 7440 abf6 dd3f
00000620: f0a9 e821 378a dc3f 8e33 b6dd 8498 dc3f
00000630: bc6b 5c82 badc b73f f8b5 bb8e ea5a d23f
00000640: 973d eac6 9176 d13f 4313 962b 5e2d da3f
00000650: 6440 0ae1 aedb de3f 89bf 6ed5 47be d93f
00000660: f7c1 470d f270 dd3f cb1c d359 6b41 d43f
00000670: c043 ee7a ae6d cf3f 553c 91b9 811f d73f
00000680: c671 5b59 4733 d03f 05d5 1dee 1eac d23f
00000690: 3744 9548 9f10 d33f e105 6540 b3ea d23f
000006a0: 64cf 2ac1 07af d93f c4ba 2b77 15f2 d63f
000006b0: 28fe a68f 2360 d63f 8a85 3ea6 6a90 d53f
000006c0: f432 af5b fcd0 d03f b95f 430e 40b4 d03f
000006d0: bc3d e104 4f57 d63f c008 69a8 c375 ce3f
000006e0: 8e21 7690 ff78 da3f 774c 819d 87a8 da3f
000006f0: fc0e 5831 4c92 d13f 5b8b ec74 4f4d d93f
00000700: 6585 8859 d70a e03f 21c0 84e2 2d20 d83f
00000710: 6785 1a9c a22d d73f 9e64 4031 f3ca d33f
00000720: d8f5 0254 d4a7 d73f aa04 ddd2 5c04 dc3f
00000730: 6eee fd06 328e d03f 77b6 94e8 950d dd3f
00000740: 163d 3448 f09a c33f ee5d 1f1a f1a0 ca3f
00000750: 68f6 58ae b8e0 cf3f 43d0 f4a9 d73e d43f
00000760: 9651 b28c d970 d23f adcd eec3 b655 d13f
00000770: 6381 0938 60f5 d33f 76a0 4108 817b d63f
00000780: 2955 ff5d b31a b33f 493b 43b6 40b8 cf3f
00000790: 7573 42de a872 d23f b268 1bc0 6c98 d43f
000007a0: dd4d 0d2d 1b54 d63f 7989 6fd7 2b1e a53f
000007b0: d835 45e8 d39d d13f de70 5b92 29ef b43f
000007c0: c79f 79f5 de69 953f d3c7 b7e3 f32a a5bf
000007d0: 8fca 18af 8e31 c43f 9a09 f453 0915 c33f
000007e0: 2043 467f a7e9 b63f d1da 12f1 b8a7 d23f
000007f0: ee96 0d52 9158 d43f 6062 8873 ff39 a7bf

layers.0.bias f8 [128]
-0.09891634742653851 0.17908880818418538 0.4585831897103144 -0.12416783298856876 0.02556731166730139 0.2301125275017951 -0.2995814804247481 -0.40283149123506645
-0.09197100287230038 0.00840597422551775 -0.4423217370681136 0.6154972756501653 0.20432677720086145 -0.012071478244728706 -0.129497884144445 -0.029669820189417558
-0.18889564449488633 0.363997393399367 0.13357745328024404 -0.04051325273415368 -0.07065006269766841 0.2146654857194657 0.11322002507385448 -0.3993166285013002
-0.14764183378911777 -0.03289048827640175 0.06721725540366846 0.09708093852183408 0.0351963948119182 -0.32488592553212786 -0.46660851347667986 -0.5370065171874873
0.020526891478081687 0.21152974562301316 0.0347157981912493 -0.448193200222901 -0.05184038600190245 0.37824196256719744 0.2050045959685598 0.15317673958911157
-0.17583074326949164 0.15137485681220975 0.01832018597662344 0.1989575156155061 -0.18056913847322148 -0.000612165250548275 0.2944788146360371 0.19400402458917684
0.06208168526320601 -0.4554559279412677 -0.050970673829852146 -0.30470011131039665 0.07127773349461414 -0.32642936773517356 -0.07463492425229482 -0.480603576177991
-0.07928807844783399 0.4161550182349119 0.058206487563538904 -0.331468003799208 0.1589979758055608 -0.01574090678680029 -0.001534040141578363 0.23152223328517144
-0.4019292743322435 0.1348421712248607 0.15696356236436523 0.02359169619619474 -0.15246533971513312 0.06413265652181717 -0.17673694595868925 0.3889658702348009
-0.4021224373638902 -0.24987596601859108 -0.4266721526295357 -0.018319412825335397 0.07122784172899836 -0.33068342986366905 0.2730259588290419 -0.2733033634621928
0.1745187950140652 -0.1734048848115086 -0.2190866742696766 0.14571319061511778 0.032237601664371895 -0.08487747576813091 0.193397312999169 -0.08126532889167731
0.059975708421809305 0.03834179584990655 0.38997318331374403 -0.11014262202310249 -0.2540395204504272 0.14531848855136562 -0.016543138775877174 -0.30627689332363617
-0.447706974861585 0.06494985980570821 0.42779238090547195 -0.36630404698581515 0.20637283224382189 -0.47082480558457335 -0.12890088000828298 0.12452056186496657
-0.5739326351223016 0.3069690258985632 0.030191811145554567 0.10341735633806003 -0.3385792156908365 0.360296030410024 0.17558120735966684 -0.41708171306361025
0.07827834809774926 -0.13888100110624255 -0.4619181390922815 -0.03415182433125219 0.3694659952408164 0.22451366928003305 -0.04118772665519418 -0.08043847500750959
0.05352759358807509 0.4254888880968199 -0.4128727187363519 0.08280284092604501 -0.00034981964315783365 -0.10682330508305563 -0.26525500988419776 0.21069806405876793
00000000: 169c 3ced 9452 b9bf 5c87 1dcf 61ec c63f
00000010: 4646 934e 6d59 dd3f 04ae e68d 76c9 bfbf
00000020: f8ae d43d 512e 9a3f fb92 02ca 5374 cd3f
00000030: f456 3acd 572c d3bf 4ad3 29bc fdc7 d9bf
00000040: 6d50 8461 698b b7bf deef 1dc3 2637 813f
00000050: 0c1e c1d4 ff4e dcbf d039 b657 27b2 e33f
00000060: f02b e33c 6127 ca3f a031 3462 eeb8 88bf
00000070: 719a a6fc 6293 c0bf a226 91ed c361 9ebf
00000080: 3e2f bb83 bb2d c8bf 94b0 1eb9 bb4b d73f
00000090: b72a a9e4 1019 c13f a875 182f 27be a4bf
000000a0: 9a30 bf5c 1f16 b2bf 225e 5f9c 287a cb3f
000000b0: 14cb f1d0 fcfb bc3f 495f 0a55 678e d9bf
000000c0: 3ca7 d277 ede5 c2bf 9344 fea6 05d7 a0bf
000000d0: cc85 af69 2635 b13f e029 04e0 4bda b83f
000000e0: 75ff 4e09 4305 a23f e7d5 4556 eeca d4bf
000000f0: 92b8 5af4 e9dc ddbf 4fe4 a14a 282f e1bf
00000100: d3fc 585e 0005 953f 4f80 ca1d 6813 cb3f
00000110: 769b c5e3 44c6 a13f dccd 4f88 32af dcbf
00000120: d2f9 fab4 d28a aabf aedc ccc6 1d35 d83f
00000130: e879 9b31 973d ca3f b385 859f 4b9b c33f
00000140: bfa6 fc2d 9f81 c6bf d0f9 b855 4060 c33f
00000150: e143 81de 86c2 923f 4756 6e9b 7077 c93f
00000160: 9e66 34b8 e31c c7bf 0593 8cdd 360f 44bf
00000170: 0881 8eab bdd8 d23f 0b92 73b6 1fd5 c83f
00000180: 60a6 c5af 2bc9 af3f a3bb d19e 3026 ddbf
00000190: 2700 4f02 d418 aabf 0c9b 4ae5 3480 d3bf
000001a0: dcd8 4aee 413f b23f 0919 b800 38e4 d4bf
000001b0: 4294 cd3e 461b b3bf 809b 8180 35c2 debf
000001c0: bd68 e537 394c b4bf 9da7 58a8 48a2 da3f
000001d0: 6738 00a1 3dcd ad3f 6d3b ff92 c536 d5bf
000001e0: d687 1bb1 0b5a c43f e04c 6f5f 621e 90bf
000001f0: cbfe 480f 3b22 59bf 59db 2042 85a2 cd3f
00000200: c7f7 2390 35b9 d9bf fa25 c41d 8242 c13f
00000210: a761 82cb 6117 c43f 25b3 7aee 6b28 983f
00000220: adcd ecf7 fb83 c3bf fde6 5d6e ff6a b03f
00000230: 4399 71f5 509f c6bf 28cb fa1a d1e4 d83f
00000240: 4ece 5dbf 5fbc d9bf cc99 0d87 effb cfbf
00000250: 0119 6ab7 984e dbbf b2f0 ddfb 52c2 92bf
00000260: 1b6c cae2 fc3b b23f 06fd 25d5 ea29 d5bf
00000270: 464e 08df 4179 d13f 2b3e fd63 cd7d d1bf
00000280: e0b5 8fc2 a156 c63f afb4 9d9a 2132 c6bf
00000290: 2624 7d3a 080b ccbf d4d4 24d6 baa6 c23f
000002a0: f82c b369 7281 a03f eb55 97be 87ba b5bf
000002b0: 469c 3b3f 3ec1 c83f ac70 e3f9 cdcd b4bf
000002c0: bdc3 73d4 22b5 ae3f 5992 7d2e 89a1 a33f
000002d0: 1f92 2915 52f5 d83f 5c23 7c8f 4e32 bcbf
000002e0: 8e78 0efa 2e42 d0bf af87 ead5 cb99 c23f
000002f0: b6f4 0f40 aff0 90bf a41c 1666 0a9a d3bf
00000300: b92e ce27 3ba7 dcbf 17cc bed3 8da0 b03f
00000310: f3e2 5d4b f360 db3f d793 8c87 8671 d7bf
00000320: f192 a2ca 6c6a ca3f 3b67 885d fe21 debf
00000330: 42d5 07f4 d27f c0bf 44bb e35c 94e0 bf3f
00000340: e9a2 3ef9 a75d e2bf b5a2 c769 61a5 d33f
00000350: fc9d e825 9aea 9e3f 0f8d 4f53 8f79 ba3f
00000360: 98d6 9f28 48ab d5bf d456 df14 170f d73f
00000370: 8b73 b3eb 7179 c63f 0d8b 577f 77b1 dabf
00000380: 9992 10c1 0c0a b43f 1bbe e446 dac6 c1bf
00000390: 6027 3519 1190 ddbf 40f3 3311 597c a1bf
000003a0: 09c7 a2b3 54a5 d73f 9d06 8829 ddbc cc3f
000003b0: 4b17 f6c5 8e16 a5bf 7253 7fab 9d97 b4bf
000003c0: cae9 c9ff f767 ab3f d3fb cbbe 353b db3f
000003d0: f886 18b2 816c dabf ac12 cb25 9132 b53f
000003e0: fec7 46ed ffec 36bf 6248 c8a9 c558 bbbf
000003f0: d960 2326 f0f9 d0bf 0141 3b77 27f8 ca3f

layers.1.weight f8 [100, 128]
-0.4888356892063924 0.05794422410438821 -0.22122778794236767 -0.0035687565927289082 -0.36174337083510466 -0.23600857364534727 0.18785887084982777 0.12536679073577092
0.2763352802296523 -0.1424778663010531 -0.2655768651564622 -0.16135880923661822 -0.07829048861974637 0.23499105504639944 0.14543345215353504 0.2263630428261466
0.24623953524515363 -0.23329910939028484 0.10856436241136447 0.20495676917689437 0.19579915866039888 0.10217449538170915 0.12147044503196247 0.13293777213942026
-0.5053881711327335 -0.29865721618684565 -0.10215038746099343 0.3093003201989165 0.18843580975805543 0.03473724484924267 0.56448870752605 0.21250075727543027
0.1762822509939072 -0.0517273132805706 -0.2243233216259837 -0.07098780272838405 0.2615675146537448 -0.06631765988628041 0.3602508424421766 -0.126289023206141
0.03275146666292669 -0.5071408143430638 -0.1711693723086251 -0.07080351409340957 -0.032859244976149816 -0.04760649919496047 -0.11269867761143737 -0.7023802106112411
-0.09989155566612964 0.07365081986992963 0.09520887150077753 0.5393931270881575 0.21630258486651469 0.15753168375539084 -0.0973727019108713 0.37286174018720264
0.26927882861499725 0.04834787756556335 -0.07665483486870123 0.04841524503681682 0.328810719682533 -0.47483456684123415 -0.5195276614629857 -0.10026987845300589
0.39016774706414775 0.06794278856859699 0.08323919417123425 -0.08529230183146096 0.29542603422691893 0.132423876002221 -0.019128134748061194 0.28404832665094765
0.025205150667399014 -0.004634131235375023 0.08698190674561872 0.07880567616784795 0.0655381938699186 0.4136892404016362 0.12120274899601778 0.07140696648484776
-0.008154254091157331 -0.06870900271258906 -0.3458376876102578 0.023374692500022932 -0.1695884779582724 0.18567614390518364 -0.1309433307530458 0.5595387767272003
1.0106644754889917 0.15653007623112256 -0.0727480255907165 0.14726405282275093 -0.13333935076379527 -0.10917863597380933 -0.5279349085423155 -0.03514143820013495
-0.14314626842643297 0.315367994185055 -0.14293486695787253 0.023058805503449787 0.23540286960120257 0.27096284841216367 -0.19631218656009514 -0.10477879252856656
0.15821451430715103 -0.17403161962532496 -0.25512659415788375 -0.5174589920226016 0.06688835897966236 -0.16621842540492412 0.7394270192694998 0.11331621205765174
-0.23769436810984454 -0.15770743728017608 0.382401977724677 -0.22552619759986708 0.16970827825760082 -0.19669011853956073 0.017390629673090692 1.0386008151596682
0.10750196456413744 -0.29934064236852564 -0.12202026647755945 0.039796845025252686 0.31893917738287647 -0.12511320297982326 0.3271482658621581 0.2712846104782897
0.04272990270761411 -0.06436923281856044 0.024868748350489953 -0.04158479820384117 -0.0519659998339788 0.09619043770771947 0.003223868990939694 0.014029389701667613
-0.00044121916460560103 -0.00013369699114040216 0.0831347822303385 -0.06862718214031603 -0.08435821611322622 -0.0588212600889607 -0.015855847144270564 0.02748238710838922
0.09649908104638055 0.08918308996274675 -0.03719222559162196 -0.03144970858457155 -0.1071110657893532 -0.01936346825466211 0.024844882963291057 0.06849775422544944
-0.005861647284369731 0.0028988295328510514 0.031694631872982645 -0.0882692765944078 0.054993255667592805 -0.09567016000082151 -0.07976113378824956 -0.06366860671875277
0.09500631808876579 0.05227810185622955 0.050799769704489024 0.08147306503059593 -0.04448364730854195 0.0037746536103261913 0.0253117117330372 0.036163034928597744
-0.001822637354757675 0.0007912581687911531 -0.010419316834138116 0.05019722563050615 -0.016452147120494084 -0.018254712633988257 0.040143432399591665 0.09585948330180509
0.015352714051695195 -0.026009098530486354 0.05029356455798891 -0.006957598029647354 -0.03202364025648109 -0.0016658873947324618 -0.03321679396375183 0.04349771117408286
0.11090594146329343 -0.023326515226658524 -0.050820951101222964 0.0520402307744654 -0.02485415958205282 0.01839993639082481 -0.01890266556751088 -0.06259877642679532
-0.06958652934250674 0.06079702132429132 -0.0002906669636020903 0.02737558566251079 -0.008941715148435267 0.059164045431796354 -0.05157640718931165 0.06616124845366855
-0.028568852950409413 0.06963957325982273 -0.03245531760774723 0.04097050061586918 -0.0752261884554326 0.027479474950143308 -0.009308858505887418 -0.05117909538678956
-0.026036159799332565 0.07082176985092173 0.06389737621456767 -0.08310435469272139 -0.03639499950048305 -0.085542506938087 -0.004975147971045498 -0.046184596811559155
-0.022459728345391627 0.03941552210579837 -0.0007667133218123312 -0.04092150005792595 0.03477745894693275 0.017053376799490122 0.11025023886465168 -0.017873131710983366
0.08402845101281352 0.04186137452175062 0.09074029449686911 0.02488985310515579 0.019265641268104372 -0.004607470646508968 -0.02628264737310549 -0.00033925164018509
0.10144171799898855 0.003778138059664838 -0.11366961406507406 0.08231732352919241 0.07482578853507495 0.09214056987586892 -0.0462937295966414 0.016100921033251874
-0.0484229011537467 0.05793769706573573 -0.04659769548648175 0.001597220951138301 0.05912658793225778 -0.06834019685287979 -0.08271545142293275 0.07274846807942614
0.045529467566171475 0.04228912923988041 0.03355925464146109 -0.02313857496592791 -0.08972300719726753 -0.07786102142578034 0.09963485208314644 0.03765641607325226
00000000: b294 907c 1549 dfbf 6877 0a87 ddaa ad3f
00000010: f1e5 1631 3151 ccbf d30b 4d9b 393c 6dbf
00000020: 5205 d2aa cd26 d7bf a2f1 b068 8735 cebf
00000030: b420 486d c20b c83f 6778 1bdd 040c c03f
00000040: 7f4f d42b 7aaf d13f 715c 15f8 b63c c2bf
00000050: 0ff5 9a1b 36ff d0bf 26e0 4bcc 67a7 c4bf
00000060: fdac 3570 d80a b4bf e26e 23d8 2f14 ce3f
00000070: 4a35 5f38 909d c23f 6c0d fbd4 76f9 cc3f
00000080: 301a 6eef c684 cf3f 9b33 82c6 bedc cdbf
00000090: 0862 11c2 dfca bb3f d2b2 5afe 053c ca3f
000000a0: e8ee 8363 f20f c93f 9d55 2694 1b28 ba3f
000000b0: a8c4 d7e4 af18 bf3f e8f6 dedb 1a04 c13f
000000c0: 669c 59d0 232c e0bf 6f29 0f28 331d d3bf
000000d0: 9d2f 6b1d 8726 babf 1e63 f991 93cb d33f
000000e0: 212f 2724 aa1e c83f df49 2985 14c9 a13f
000000f0: 6724 399f 4a10 e23f 40c5 6f8d 3933 cb3f
00000100: 062a 71b3 6a90 c63f d532 b39d 007c aabf
00000110: 618d 0e69 a0b6 ccbf 8b20 22b3 412c b2bf
00000120: bf90 48ac 85bd d03f fcdb 5bb4 31fa b0bf
00000130: 7751 a98c 590e d73f 04d0 411c 3d2a c0bf
00000140: 3c36 6ddc ccc4 a03f a03f 825f 7f3a e0bf
00000150: ee39 12c4 e0e8 c5bf 101b 79d9 2d20 b2bf
00000160: 056f 164d edd2 a0bf b922 3d0a e15f a8bf
00000170: 10c1 a40e d2d9 bcbf 18da 3d10 e679 e6bf
00000180: 0a8b bb34 7e92 b9bf 2a39 aab6 c7da b23f
00000190: 3289 62cd 9b5f b83f 61fc 1060 b542 e13f
000001a0: 755e 0598 cdaf cb3f 8817 e88a ff29 c43f
000001b0: 26f8 3ada 6aed b8bf e227 027d f7dc d73f
000001c0: c505 9a44 dd3b d13f 2f41 f391 0dc1 a83f
000001d0: dc62 d7b8 a69f b3bf 7035 1f0c e2c9 a83f
000001e0: c115 e71d 3c0b d53f b4fa e585 b063 debf
000001f0: 6f3a 6b79 f89f e0bf 24c4 ba68 49ab b9bf
00000200: 870c 6624 82f8 d83f ddb2 e6d6 b264 b13f
00000210: eff9 b5f0 294f b53f b778 f75e b7d5 b5bf
00000220: de0f d998 42e8 d23f facd 51fc 43f3 c03f
00000230: 42a3 b464 5396 93bf 13c2 5c08 d92d d23f
00000240: da9a 3a07 61cf 993f eef4 9e21 3dfb 72bf
00000250: 7bef d03c 7244 b63f 804c e1d9 9b2c b43f
00000260: cc69 4f6f 1cc7 b03f e1da 8e6f e279 da3f
00000270: 9789 1fb3 2407 bf3f 1e4d c219 ba47 b23f
00000280: 408a 2875 2db3 80bf 6862 97c7 e996 b1bf
00000290: 1ca9 8065 3422 d6bf cdda 5d0f 89ef 973f
000002a0: 29fa 4d43 13b5 c5bf fd2d dc62 3cc4 c73f
000002b0: a558 9b45 c0c2 c0bf b563 5cdd bde7 e13f
000002c0: 7544 5783 ae2b f03f 3764 2073 2d09 c43f
000002d0: 22bd c256 9d9f b2bf 5104 6069 8cd9 c23f
000002e0: a272 668b 4311 c1bf 2ced ed8e 21f3 bbbf
000002f0: 5264 d3bf d7e4 e0bf e2a3 9bff 0efe a1bf
00000300: c4cd b7ee 9d52 c2bf 2ab7 4e3d fd2e d43f
00000310: f165 8591 b04b c2bf 4dac 163e ba9c 973f
00000320: 0b2e 2965 ae21 ce3f b21e 178f 7457 d13f
00000330: 5e7a 8afa c120 c9bf ee7c 396f c8d2 babf
00000340: 8bd2 598a 5f40 c43f 0b5e 6109 ab46 c6bf
00000350: d4de 8f7e fe53 d0bf 2a43 f828 068f e0bf
00000360: 76fe 4c72 981f b13f 77aa 8d36 a546 c5bf
00000370: 0852 31da 62a9 e73f 48eb e490 4a02 bd3f
00000380: 4bd2 bce0 c46c cebf 6727 bade c12f c4bf
00000390: 9034 1025 4679 d83f b294 8add 0ade ccbf
000003a0: dc09 7d38 00b9 c53f 8371 494d 242d c9bf
000003b0: 62a3 cf66 d9ce 913f ff5a 6be3 1b9e f03f
000003c0: 5a08 0fae 3f85 bb3f 6488 55a7 6528 d3bf
000003d0: 1667 f85d b83c bfbf 2c21 bc87 4060 a43f
000003e0: 3c72 11de 7f69 d43f aa4e 8c9d b503 c0bf
000003f0: 9d8c b447 ffef d43f ff63 7a20 ba5c d13f
00000400: 8f84 619d b1e0 a53f 1807 d385 807a b0bf
00000410: 4c65 6e73 3177 993f 0caf 9748 9a4a a5bf
00000420: 46ee 949b 499b aabf 2580 24c0 ef9f b83f
00000430: 9bde 3e7c f168 6a3f deac 9ccf 70bb 8c3f
00000440: 1aa8 e1e1 6dea 3cbf 180f b768 2086 21bf
00000450: fde1 d632 5248 b53f 67c7 e80e 8d91 b1bf
00000460: d6ee 5a03 8098 b5bf 4e7f c8f8 d11d aebf
00000470: 1d75 bde3 833c 90bf 5bdc 62c7 5724 9c3f
00000480: ac31 30ed 29b4 b83f 7b08 bff6 b3d4 b63f
00000490: 83b6 2901 dc0a a3bf 64ce ad1b 2d1a a0bf
000004a0: bcdf 9a7c a16b bbbf 2d4a 905b 04d4 93bf
000004b0: 4c7d 33df ef70 993f 9f6c 3f9e 1189 b13f
000004c0: cd60 31f6 6102 78bf 2bed 4941 49bf 673f
000004d0: 36d9 b45e 473a a03f 63ed 36b8 d098 b6bf
000004e0: ac8d 2f75 1328 ac3f f817 68f0 d67d b8bf
000004f0: 10c7 1cc5 396b b4bf da90 a3f7 954c b0bf
00000500: 87c8 1a85 5552 b83f 08f7 8903 32c4 aa3f
00000510: 79db 0c6b 6d02 aa3f c0b0 cf35 6bdb b43f
00000520: c341 cb84 8fc6 a6bf 772b ecb9 05ec 6e3f
00000530: f08d 6538 50eb 993f 6153 af18 f683 a23f
00000540: d998 31f5 b1dc 5dbf 964d 94fa 8ded 493f
00000550: c7ef 6408 b956 85bf 87ac dd64 73b3 a93f
00000560: 6f75 53e7 d4d8 90bf 401e 0b07 5db1 92bf
00000570: b761 9c12 ae8d a43f 1bef ca41 3f8a b83f
00000580: 2112 0e66 3e71 8f3f 37f7 580e 21a2 9abf
00000590: 9b9f f3fd 13c0 a93f 85d1 efff 917f 7cbf
000005a0: e26e 330f 6765 a0bf 49b9 44f8 3c4b 5bbf
000005b0: 692b 81a7 ca01 a1bf a117 e3fd 5445 a63f
000005c0: e555 84ef 5464 bc3f e2d1 1cf0 e7e2 97bf
000005d0: 3edc dc25 3405 aabf a057 8162 04a5 aa3f
000005e0: fb44 4c6a 5e73 99bf dc33 30d4 6ed7 923f
000005f0: c7c1 ad69 385b 93bf c6cf 8531 7906 b0bf
00000600: 77a9 c43b 6cd0 b1bf 5068 9084 c920 af3f
00000610: 9974 4a1a 950c 33bf 2c6f 8474 5808 9c3f
00000620: 18b9 0fb1 0850 82bf 250e 75f0 bf4a ae3f
00000630: 9d1d 3f0c 3968 aabf 48fc 5e8e f1ef b03f
00000640: 95ca 6c44 2741 9dbf a088 a829 e6d3 b13f
00000650: 31c3 69bf fb9d a0bf 64e7 7de0 15fa a43f
00000660: 4f04 3803 0642 b3bf 9272 e358 9423 9c3f
00000670: a05b c4d6 8510 83bf 11aa d979 2534 aabf
00000680: 3500 681b 39a9 9abf a2c3 5a21 6021 b23f
00000690: 764b 2415 945b b03f d977 8fb5 5346 b5bf
000006a0: 9b5d 2f89 5da2 a2bf 2b89 b71d 1de6 b5bf
000006b0: 9621 411d d260 74bf 4de9 c4e9 81a5 a7bf
000006c0: 13cb e1da aeff 96bf e35f cc74 452e a43f
000006d0: 1470 4052 a81f 49bf a173 e7b0 a9f3 a4bf
000006e0: 624f a1e1 59ce a13f 188a 8fbe 7076 913f
000006f0: 18c4 4c12 5c39 bc3f 1ffe b390 554d 92bf
00000700: 2f98 0879 e382 b53f 9cb3 12a5 da6e a53f
00000710: 4d20 4b85 c13a b73f 8005 5bc4 b97c 993f
00000720: 205e bb4c 5fba 933f 4992 e77b 48df 72bf
00000730: 02dd ad9b d6e9 9abf 6a26 20b3 b23b 36bf
00000740: 3c76 419d 15f8 b93f b539 fe6c 54f3 6e3f
00000750: fa5b f5aa 7319 bdbf f8be 7384 bf12 b53f
00000760: b1d2 a76a c827 b33f c76c 403e 8696 b73f
00000770: 1740 41cd cfb3 a7bf bbda 1785 c27c 903f
00000780: 8062 aaf1 e2ca a8bf 04ae 3484 02aa ad3f
00000790: 62e7 5d34 a7db a7bf 35db f9ef 3a2b 5a3f
000007a0: a079 fc12 d745 ae3f fc3d 7c3e be7e b1bf
000007b0: 6541 bcfe d62c b5bf 6038 3cc3 a49f b23f
000007c0: 5ee9 666c a34f a73f 858a 1fb6 eba6 a53f
000007d0: 7890 53ba ad2e a13f 4ed1 047b a3b1 97bf
000007e0: e66c 9c45 16f8 b6bf 6929 a82c b3ee b3bf
000007f0: 4d29 3d6f ab81 b93f e7d2 09a7 b347 a33f

layers.1.bias f8 [100]
-0.10705419746000044 -0.0887367697066532 -0.0307879670073994 0.06495467082378265 -0.03784480947431838 0.014527865483083904 -0.030640684068202972 0.0016430463871050945
-0.06937007185253814 -0.04952451690828476 -0.01093122753750416 0.04864102538194337 -0.07761693722667717 0.06976026379008535 0.08252168597362967 -0.04525532929439208
-0.0925363439958297 -0.11446999497512449 0.12590651396223268 -0.04111003827037283 -0.005794635162051704 -0.07148900568246815 -0.023742160877858277 0.19623147224030196
0.19216396399637048 0.05468026550738457 -0.04775311845081763 0.007317158971930227 -0.07281384474482995 -0.07697526822149357 0.07594501220978557 0.005435332398303934
-0.05106845125555992 -0.047325058218632796 -0.0003537840620227381 -0.046729676809868365 -0.05285698713224227 -0.08276980990517488 -0.08895795146180248 0.103496240389917
-0.06826585606261783 0.05758371997248336 0.021043366388171666 -0.007229884603846504 0.12741485366103875 -0.12026766351264523 0.13718439716734399 -0.1019194638784992
-0.08020682785048716 0.09458152963326856 -0.027087920150228078 0.014182148511731092 0.057218939568406 -0.10728270472620176 0.005034831827017649 -0.12368482956916751
-0.08301457322626912 0.33956897675560516 0.02329874054923025 -0.006151544058384869 0.04226243121758658 0.03337048256588836 -0.07062061375553945 -0.039040036499500275
-0.23590524079733027 0.16866066056412224 -0.09627801243734739 0.050569967132908775 0.028370582260470067 -0.020860644425089853 -0.006069135386496782 -0.01706845911465236
0.00246688577938917 0.46765752942477357 0.08517836849134974 -0.0044132217250521895 0.06938057572121675 0.04123162566682045 0.03384074752691752 0.2785473286315327
-0.04570140890324843 0.037878752187823286 -0.052828099926811534 -0.007228228191906397 0.05017641082576237 0.014250663020734387 -0.04547284593837728 -0.04094468429684639
0.0643811241135556 -0.12923315952698536 -0.042530227452516556 -0.08587595851445791 -0.12417201573972957 -0.10253076297047796 -0.026892528827950467 -0.028512683489398463
0.07270706231667863 -0.04822545498609543 -0.07681752260978712 -0.015934145957409506
00000000: 987f fd64 e767 bbbf 0ebf d7f3 73b7 b6bf
00000010: c4e0 a07d e186 9fbf 8c1c e98a dea0 b03f
00000020: f6f5 0716 6560 a3bf ae54 0b19 c9c0 8d3f
00000030: 0000 0080 4560 9fbf c63b e69f 6feb 5a3f
00000040: b585 edad 3cc2 b1bf e24b f108 475b a9bf
00000050: ebce 3a86 1c63 86bf e0c9 84fa 79e7 a83f
00000060: 6817 011f b4de b3bf 7eeb 8903 cfdb b13f
00000070: 7baf 7726 2420 b53f 2808 94de b42b a7bf
00000080: 6b4b 273b 76b0 b7bf 139c cad4 e74d bdbf
00000090: aa1b e963 b41d c03f bd2e d1fb 5f0c a5bf
000000a0: 0754 3688 1dbc 77bf ad04 6e7d 1a4d b2bf
000000b0: 3aef 0672 dd4f 98bf 5ee8 dbe5 1c1e c93f
000000c0: dcc4 6a2a d498 c83f 1e7f 2e40 0dff ab3f
000000d0: 2e7a 0ec4 1873 a8bf a7c3 bee7 98f8 7d3f
000000e0: 5504 e099 eda3 b2bf 67b5 9cb3 a6b4 b3bf
000000f0: e13f bcdf 2171 b33f 6234 4cee 5b43 763f
00000100: 0000 00e0 a425 aabf 3620 a972 fd3a a8bf
00000110: 9473 eaf9 822f 37bf 5c54 4dc3 f3ec a7bf
00000120: ac36 322e 1210 abbf 868c a3fa 6630 b5bf
00000130: 8562 3fc4 f2c5 b6bf 58d0 bbc7 ba7e ba3f
00000140: 59ee 3803 df79 b1bf 62af 2004 9d7b ad3f
00000150: af61 bd69 648c 953f cd86 d65e 159d 7dbf
00000160: 43d8 bf42 214f c03f d49a 8d91 dcc9 bebf
00000170: c477 ad21 428f c13f 1c1b 2fdc 6417 babf
00000180: 78a3 8846 6f88 b4bf 7d9e 94c0 7e36 b83f
00000190: 3bc6 a58c efbc 9bbf 97f4 5bc0 870b 8d3f
000001a0: 06f3 5004 cd4b ad3f d3b7 391c e176 bbbf
000001b0: cc3d 9b60 679f 743f e2ca 021a cfa9 bfbf
000001c0: 2625 196d 7140 b5bf 50b2 7984 7fbb d53f
000001d0: cea8 c902 a0db 973f 4987 cf88 5c32 79bf
000001e0: c4a3 dbdf 6ba3 a53f 8e61 8b96 ef15 a13f
000001f0: b3e4 804a 3114 b2bf 0000 0040 0efd a3bf
00000200: 1efb 1697 2432 cebf 1551 9f2a ac96 c53f
00000210: 9b06 be02 ada5 b8bf 46c4 fd85 4ee4 a93f
00000220: 40a6 e88b 2d0d 9d3f c525 5126 7e5c 95bf
00000230: 0000 0020 f3db 78bf 3b1e c3e6 647a 91bf
00000240: 49ad da37 6f35 643f 44e2 a6d8 19ee dd3f
00000250: 583a ffe2 3fce b53f 6b60 aa2f 9913 72bf
00000260: 6445 b3e7 ecc2 b13f 8b8d 99c7 4f1c a53f
00000270: 99f4 cc0f 9353 a13f 0714 b72c b8d3 d13f
00000280: 0abc 3dd1 2c66 a7bf 8a50 b803 d864 a33f
00000290: f8ae fde2 480c abbf 9082 13bb 589b 7dbf
000002a0: 8bfb 0df7 b8b0 a93f f284 f69c 732f 8d3f
000002b0: fd9f 5284 3748 a7bf 0000 00a0 b3f6 a4bf
000002c0: ea24 8c06 487b b03f 5913 dd50 b68a c0bf
000002d0: 0000 00a0 85c6 a5bf 4d0e 5581 f7fb b5bf
000002e0: 9737 aeba bcc9 bfbf 13c9 cac1 743f babf
000002f0: 0388 4a0f b789 9bbf f4c2 6ecc 6d32 9dbf
00000300: 559f d616 ee9c b23f 0000 00c0 01b1 a8bf
00000310: 1f68 5e2b 50aa b3bf 2368 1b6f 0a51 90bf

layers.3.weight f8 [100]
1.2893700452996448 0.9858694437091482 1.1218484539754128 0.9886378787045721 0.48620802961078985 1.5531920384998577 1.0 1.1259027937820496
0.7089647002789505 1.1384060053407408 0.8120241402759305 1.2872393807788893 0.6578077126874343 0.8468689741403014 0.9954282845878395 0.9634540738479557
0.9894477378823536 0.9682407591117509 0.49529475094702846 0.8863155780938746 0.700897029198577 1.1971658535750394 1.0006473078364027 1.1869140340176352
0.6203820091374405 0.9905632250131695 0.7455120767273435 0.9631428570933356 1.0019512397473127 1.006005472035104 0.9964360235564671 1.1181275108800648
1.0 0.9870434347348231 0.8242524900838075 0.9969935669462849 0.9902243125022471 0.6854174493589964 0.9622298459400639 0.991959148600382
0.9683331290834741 1.0040346738299868 1.0011343170418072 1.0360714837657625 0.5536009036680434 0.9046844088516188 1.2560478097530277 0.9682883387457237
0.9772171281182788 0.4847289997766715 1.0380502445956943 0.7258323976239263 0.6950420478225985 0.9754844350283538 0.963146928543629 1.2650342799521535
0.9067916009244077 1.1167596296394429 0.9682454865305008 1.0342794209939954 0.5101924928745165 0.9587572707234403 0.9715277036019174 1.0
0.9108520623441719 1.3726879780891328 0.9682433318790858 1.227985365261258 1.452892938257988 0.9337132183862656 1.0 0.9683358432174876
1.0215902130034276 1.0427266612006028 0.9210010830840292 0.9420655186049425 1.006396743184044 1.0313092922661542 0.9675331157506292 0.8864171940019451
0.9329450924003253 1.3425193599884502 0.9876272894232668 1.0688699454553325 1.0024174969015163 1.0123276483779393 1.0126272291160834 1.0
1.006228528035416 0.7625688269839546 1.0 1.003835610382887 1.021637743697487 0.8324629099716006 0.9629373203423679 0.9939944961325325
1.0090923701918382 1.0 1.3377700558775067 1.2357266102774556
00000000: 7010 107c 42a1 f43f 7c68 5b13 3e8c ef3f
00000010: ec47 4e5d 17f3 f13f 39ef 93e7 eba2 ef3f
00000020: c1c7 8e48 081e df3f 3c3b 1ce5 dfd9 f83f
00000030: 0000 0000 0000 f03f 8f4d dca5 b203 f23f
00000040: daed 36bd d6af e63f bf22 2837 e936 f23f
00000050: 4086 c10c 1afc e93f 1219 2952 8898 f43f
00000060: 2f92 a1c2 c20c e53f cfbf 7df6 8c19 eb3f
00000070: 4c2e fa6a 8cda ef3f 7fff 4ba3 9dd4 ee3f
00000080: d8c9 694d 8ea9 ef3f ff40 610b d4fb ee3f
00000090: 40ab 4cc1 e8b2 df3f 1f27 bb7c b25c ec3f
000000a0: aeaf 489b bf6d e63f 2de2 cf61 9727 f33f
000000b0: 01ce 5fc0 a602 f03f 8a4e f491 99fd f23f
000000c0: e1b4 085f 2bda e33f c6a8 01a6 b1b2 ef3f
000000d0: ba24 8a24 3cdb e73f aaf0 12f8 10d2 ee3f
000000e0: fc6b ee05 fe07 f03f 16ce 9f31 9918 f03f
000000f0: e866 b7cc cde2 ef3f e0cd 3fac d9e3 f13f
00000100: 0000 0000 0000 f03f c85c fd1c dc95 ef3f
00000110: fece 11c2 4660 ea3f ed69 8b0d 5fe7 ef3f
00000120: ebd6 bce5 eaaf ef3f 1859 2393 f0ee e53f
00000130: b386 f13e 96ca ee3f d69c c61c 21be ef3f
00000140: f17f 21c2 95fc ee3f aa65 82a9 8610 f03f
00000150: d390 e96a a504 f03f 6d79 31b1 bf93 f03f
00000160: 144a 093e 19b7 e13f 6000 a7b7 2cf3 ec3f
00000170: 7fa0 9196 c518 f43f 8c5a 80d3 37fc ee3f
00000180: 557d cbda 5c45 ef3f 8cab 5dc8 cc05 df3f
00000190: fd4a c292 da9b f03f 4881 45dd 043a e73f
000001a0: 12c6 17d2 c83d e63f aa85 4622 2b37 ef3f
000001b0: bbce ea81 19d2 ee3f 1e6a cb95 943d f43f
000001c0: 0440 c8d1 6f04 ed3f 30b6 6c58 3fde f13f
000001d0: 50bd 64f5 ddfb ee3f 3a85 0194 688c f03f
000001e0: c2f1 f134 7f53 e03f 8fe6 51ba 23ae ee3f
000001f0: 5a1a 4444 c116 ef3f 0000 0000 0000 f03f
00000200: 5965 6839 b325 ed3f 4215 58ab 87f6 f53f
00000210: 35b4 9f70 d9fb ee3f 3038 7cfb d3a5 f33f
00000220: bc84 66aa 0c3f f73f 39fb 198b fae0 ed3f
00000230: 0000 0000 0000 f03f f83c 4573 9bfc ee3f
00000240: de36 acfa 6e58 f03f bc61 c826 02af f03f
00000250: c2a5 6d43 d778 ed3f c81e 2396 6625 ee3f
00000260: 0d6c ac78 331a f03f 2e81 252c 3e80 f03f
00000270: 1945 3e02 08f6 ee3f d136 5b97 875d ec3f
00000280: cc56 9aaa afda ed3f 1d5b 9694 f57a f53f
00000290: cbb8 968b a49a ef3f fe86 365f 171a f13f
000002a0: 4615 e2ed e609 f03f daea e979 7e32 f03f
000002b0: 9b7b 019c b833 f03f 0000 0000 0000 f03f
000002c0: e66d c315 8319 f03f 9c0b 9bbd f666 e83f
000002d0: 0000 0000 0000 f03f a479 d2ed b50f f03f
000002e0: 95a3 98d1 a058 f03f a6c0 ae41 89a3 ea3f
000002f0: b0fc 5eed 61d0 ee3f 1b62 a98b cdce ef3f
00000300: 85df 890a 3e25 f03f 0000 0000 0000 f03f
00000310: e3fd f892 8167 f53f 8b04 1f44 89c5 f33f

layers.3.bias f8 [100]
0.0436357705028528 0.0011409718692350695 -0.012174824550112021 0.005535473349273618 -0.054051133193833416 0.07203089228772534 0.0017529118429123732 -0.041718321037708596
0.026676029001163615 -0.014726059319211861 -0.1267838465627771 -0.010639296911970375 -0.08232310613817542 -0.009356112500564794 0.012828745439961528 -0.007469293674292016
0.00033285314904153696 0.17939408658600203 0.0362185966116498 -0.09303347670638477 0.012371773299063943 0.001936553115954305 -0.038752627783144394 -0.2228462983741263
0.152448325202199 -0.004099553580874227 -0.33009593476269466 -0.034939604823718697 -0.006070858249030605 0.03452766072266348 0.001262745657517533 0.02066590527947485
-0.03519582743301775 -0.005553567970723337 0.00553484933147258 -0.024257609433362356 -0.007789801853942862 -0.003987999152223695 -0.007735819486931302 -0.20910900985460137
0.09581089380434384 -0.02703225980450108 0.026202147640214155 -0.037715198639828064 -0.18060098944878594 0.00431224514099351 0.07575659346228364 -0.07179940771853638
-0.017205219456834377 -0.03630404239106058 -0.0037150482585763156 -0.04206159491799589 -0.0033017951880152186 0.01379034946676062 -2.058492206849856e-05 0.10483329249727665
0.011803527894151868 -0.19166920366160892 0.07865542065815827 0.005949830450604843 -0.042775164074712616 -0.012241255862014177 0.01801850059534349 0.11637646496689055
-0.11956406092756049 -0.018256659126900585 0.03756593837467746 -0.02775250575079987 0.08186162386098016 -0.04959879425890971 0.006315245814232249 0.05617930449780075
0.16752470792893934 -0.3846286538848254 0.0009921022064345666 -0.005034935590546569 0.29160385403567984 0.08263502444271918 0.02222727537946815 -0.3447204015204124
-0.053031193258934475 0.2107008404872636 -0.02931883997956337 -0.003904728272891516 -0.010818652893469958 -0.08158217102332323 -0.018913414718825863 0.020910638296857017
-0.009349055581873768 0.04579044255058374 -0.11735533827413168 0.027189866668012527 -0.006783376760962027 -0.019899770861089613 0.008892412702477408 0.028058905032460002
-0.008431832094409392 0.0022919586668500767 -0.1492567887050926 -0.17777554181452243
00000000: 0bb4 7d7e 6d57 a63f 1c1d 4c37 95b1 523f
00000010: d5d8 374a 1def 88bf fa53 0c50 5dac 763f
00000020: a72d c212 97ac abbf 436f add6 9d70 b23f
00000030: f9e5 6fc2 3eb8 5c3f 6581 0091 1a5c a5bf
00000040: 40ad 9600 f650 9b3f 2e57 6639 b228 8ebf
00000050: 89f8 52fd 733a c0bf ed94 5042 0eca 85bf
00000060: ca8f 9188 2013 b5bf 0636 a929 4c29 83bf
00000070: d820 e810 f545 8a3f 5486 e240 1f98 7ebf
00000080: fe88 b663 59d0 353f 2ac8 7dab 62f6 c63f
00000090: 8b79 e86f 3e8b a23f 0319 e3bb 0ad1 b7bf
000000a0: 503c b44d 5f56 893f ec0b 3313 7eba 5f3f
000000b0: 94e2 ec69 62d7 a3bf 8d98 c63d 3a86 ccbf
000000c0: bd65 893d 6d83 c33f 8dca ed88 b1ca 70bf
000000d0: ed4a 16b3 4a20 d5bf 7d27 1b98 9ae3 a1bf
000000e0: 5639 369a c1dd 78bf 45f2 380b 9cad a13f
000000f0: b24e 57d3 56b0 543f 3a33 456d 7129 953f
00000100: e199 8fff 2f05 a2bf 5846 f78c 56bf 76bf
00000110: c013 dfcd b5ab 763f 6f1f c89c fcd6 98bf
00000120: 12b3 4703 33e8 7fbf 7de4 f65e b855 70bf
00000130: 3c1d 443b 98af 7fbf 21ee 4f83 15c4 cabf
00000140: d17c 7d0f 1087 b83f 6071 303f 58ae 9bbf
00000150: cc79 cc5c bcd4 9a3f bdbe 7011 684f a3bf
00000160: 3a65 a7e7 ee1d c7bf 9b7c a57d b7a9 713f
00000170: ec7a 60bb c864 b33f ecf5 052c 7261 b2bf
00000180: bae8 8cbb 3e9e 91bf e47c 9085 7196 a2bf
00000190: 69b7 c158 056f 6ebf e147 2eed 1889 a5bf
000001a0: 123e 38cb 5d0c 6bbf 0662 ae5f 1d3e 8c3f
000001b0: 0c24 bd12 b995 f5be 55cc ceca 5ad6 ba3f
000001c0: ce2f 43b2 722c 883f ad40 b0d0 9d88 c8bf
000001d0: f341 61fb c222 b43f 9ac5 3b73 d95e 783f
000001e0: 7258 9055 a0e6 a5bf f9ec b68c f111 89bf
000001f0: 00ad 1e1b 7173 923f fe8f 0e17 d9ca bd3f
00000200: 8bf8 7513 c09b bebf e97a 89a7 dfb1 92bf
00000210: 8e8c 86b9 d73b a33f f6b2 5322 276b 9cbf
00000220: dfc5 4725 e2f4 b43f 75ae 865e 0365 a9bf
00000230: 7131 d0e3 03de 793f a366 0fa7 88c3 ac3f
00000240: d3d2 e91a 7371 c53f 8d8c 6280 c19d d8bf
00000250: a5b0 faa1 2d41 503f fa8b 2e3b 839f 74bf
00000260: a121 1e36 a3a9 d23f df52 7ca7 9127 b53f
00000270: 8a04 5633 bfc2 963f 84d3 b228 e60f d6bf
00000280: c211 6e91 e726 abbf 15f6 90c1 3ef8 ca3f
00000290: 33bc 790b c205 9ebf 8b32 6b07 cffc 6fbf
000002a0: 05f1 e902 1728 86bf a95a 7bb4 91e2 b4bf
000002b0: f431 b1c6 095e 93bf 1f73 7e2e 9969 953f
000002c0: 61f4 c7ff 9825 83bf 61c0 724a d871 a73f
000002d0: 5ffe e5db ff0a bebf aca2 7c10 a9d7 9b3f
000002e0: 4436 84d5 e2c8 7bbf 5c62 2f04 9b60 94bf
000002f0: f6da ea6d 2f36 823f c068 e73d 79bb 9c3f
00000300: 5d10 ba58 b544 81bf 2bad 92f0 95c6 623f
00000310: 9fe0 18b1 d81a c3bf 7a9f 0f55 59c1 c6bf

layers.3.running_mean f8 [100]
2.5e-323 2.5e-323 2.5e-323 2.5e-323 2.5e-323 25.65494251703332 0.0 2.5e-323
2.5e-323 2.5e-323 34.00179480638911 2.5e-323 2.5e-323 2.5e-323 2.5e-323 2.5e-323
2.5e-323 2.5e-323 2.5e-323 22.248018954013567 2.5e-323 25.706327916867316 2.5e-323 34.54306634788978
8.862155996963965 2.5e-323 14.433933630552547 2.5e-323 2.5e-323 2.5e-323 2.5e-323 32.957142962223955
0.0 2.5e-323 2.5e-323 2.5e-323 2.5e-323 2.5e-323 2.5e-323 17.46551365454723
2.5e-323 36.50570479714919 2.5e-323 2.5e-323 6.157497312160306e-79 2.5e-323 20.41279521721406 2.5e-323
2.5e-323 14.325156321126498 2.5e-323 2.5e-323 2.5e-323 2.5e-323 2.5e-323 2.5e-323
2.5e-323 21.526876846675425 2.5e-323 2.5e-323 7.912327883538715 2.5e-323 2.5e-323 0.0
2.5e-323 11.298366271850963 2.5e-323 2.5e-323 26.47370988412761 2.5e-323 0.0 2.5e-323
36.93334482409037 9.565890534779937 2.5e-323 2.5e-323 14.358033205671246 2.5e-323 2.5e-323 11.577067797237694
2.5e-323 20.372714023316735 2.5e-323 2.5e-323 2.5e-323 2.5e-323 2.5e-323 0.0
2.5e-323 30.771905263074224 0.0 2.5e-323 2.5e-323 2.5e-323 2.5e-323 2.5e-323
2.5e-323 0.0 12.833396469979965 23.739982229296245
00000000: 0500 0000 0000 0000 0500 0000 0000 0000
00000010: 0500 0000 0000 0000 0500 0000 0000 0000
00000020: 0500 0000 0000 0000 046b 1350 aaa7 3940
00000030: 0000 0000 0000 0000 0500 0000 0000 0000
00000040: 0500 0000 0000 0000 0500 0000 0000 0000
00000050: 375f edcf 3a00 4140 0500 0000 0000 0000
00000060: 0500 0000 0000 0000 0500 0000 0000 0000
00000070: 0500 0000 0000 0000 0500 0000 0000 0000
00000080: 0500 0000 0000 0000 0500 0000 0000 0000
00000090: 0500 0000 0000 0000 c246 902b 7e3f 3640
000000a0: 0500 0000 0000 0000 6a32 07e8 d1b4 3940
000000b0: 0500 0000 0000 0000 54df b532 8345 4140
000000c0: 6105 c682 6cb9 2140 0500 0000 0000 0000
000000d0: 29b7 7f8c 2cde 2c40 0500 0000 0000 0000
000000e0: 0500 0000 0000 0000 0500 0000 0000 0000
000000f0: 0500 0000 0000 0000 9a2c 1ca9 837a 4040
00000100: 0000 0000 0000 0000 0500 0000 0000 0000
00000110: 0500 0000 0000 0000 0500 0000 0000 0000
00000120: 0500 0000 0000 0000 0500 0000 0000 0000
00000130: 0500 0000 0000 0000 2e1f 22e7 2b77 3140
00000140: 0500 0000 0000 0000 d297 4eef ba40 4240
00000150: 0500 0000 0000 0000 0500 0000 0000 0000
00000160: 8295 25d9 a540 b22f 0500 0000 0000 0000
00000170: 2ee1 85f2 ac69 3440 0500 0000 0000 0000
00000180: 0500 0000 0000 0000 e7a6 aae3 7aa6 2c40
00000190: 0500 0000 0000 0000 0500 0000 0000 0000
000001a0: 0500 0000 0000 0000 0500 0000 0000 0000
000001b0: 0500 0000 0000 0000 0500 0000 0000 0000
000001c0: 0500 0000 0000 0000 957d a966 e186 3540
000001d0: 0500 0000 0000 0000 0500 0000 0000 0000
000001e0: 581c dc47 39a6 1f40 0500 0000 0000 0000
000001f0: 0500 0000 0000 0000 0000 0000 0000 0000
00000200: 0500 0000 0000 0000 9ea8 c776 c398 2640
00000210: 0500 0000 0000 0000 0500 0000 0000 0000
00000220: bb1e 0c0d 4579 3a40 0500 0000 0000 0000
00000230: 0000 0000 0000 0000 0500 0000 0000 0000
00000240: f4ad dbd7 7777 4240 d7fd 7767 bc21 2340
00000250: 0500 0000 0000 0000 0500 0000 0000 0000
00000260: e77a da20 50b7 2c40 0500 0000 0000 0000
00000270: 0500 0000 0000 0000 db6b 296e 7527 2740
00000280: 0500 0000 0000 0000 ede7 ac2f 6a5f 3440
00000290: 0500 0000 0000 0000 0500 0000 0000 0000
000002a0: 0500 0000 0000 0000 0500 0000 0000 0000
000002b0: 0500 0000 0000 0000 0000 0000 0000 0000
000002c0: 0500 0000 0000 0000 9a83 5495 9bc5 3e40
000002d0: 0000 0000 0000 0000 0500 0000 0000 0000
000002e0: 0500 0000 0000 0000 0500 0000 0000 0000
000002f0: 0500 0000 0000 0000 0500 0000 0000 0000
00000300: 0500 0000 0000 0000 0000 0000 0000 0000
00000310: e354 2ef1 b2aa 2940 d472 b279 6fbd 3740

layers.3.running_var f8 [100]
2.5e-323 2.5e-323 2.5e-323 2.5e-323 2.5e-323 4.810271398552745 2.5e-323 2.5e-323
2.5e-323 2.5e-323 1.492405694410838 2.5e-323 2.5e-323 2.5e-323 2.5e-323 2.5e-323
2.5e-323 2.5e-323 2.5e-323 2.281792235066788 2.5e-323 3.226993268511223 2.5e-323 4.580198901789843
3.379676322756028 2.5e-323 2.567874743884468 2.5e-323 2.5e-323 2.5e-323 2.5e-323 3.0635750845432206
2.5e-323 2.5e-323 2.5e-323 2.5e-323 2.5e-323 2.5e-323 2.5e-323 4.54735324089143
2.5e-323 3.9792696879306058 2.5e-323 2.5e-323 2.2837926240438392e-79 2.5e-323 1.8259056481367326 2.5e-323
2.5e-323 2.8230907046869826 2.5e-323 2.5e-323 2.5e-323 2.5e-323 2.5e-323 2.5e-323
2.5e-323 2.2420896493200053 2.5e-323 2.5e-323 2.591021543780216 2.5e-323 2.5e-323 2.5e-323
2.5e-323 3.2017176395180007 2.5e-323 2.5e-323 4.764928036522058 2.5e-323 2.5e-323 2.5e-323
2.641794349564439 1.992533107232157 2.5e-323 2.5e-323 2.9265167347182803 2.5e-323 2.5e-323 2.3111017517390446
2.5e-323 3.7980540986328353 2.5e-323 2.5e-323 2.5e-323 2.5e-323 2.5e-323 2.5e-323
2.5e-323 3.9082270305239786 2.5e-323 2.5e-323 2.5e-323 2.5e-323 2.5e-323 2.5e-323
2.5e-323 2.5e-323 4.790435707414937 3.1738732375789738
00000000: 0500 0000 0000 0000 0500 0000 0000 0000
00000010: 0500 0000 0000 0000 0500 0000 0000 0000
00000020: 0500 0000 0000 0000 42ac 16c9 b73d 1340
00000030: 0500 0000 0000 0000 0500 0000 0000 0000
00000040: 0500 0000 0000 0000 0500 0000 0000 0000
00000050: 50bd 1dcb e4e0 f73f 0500 0000 0000 0000
00000060: 0500 0000 0000 0000 0500 0000 0000 0000
00000070: 0500 0000 0000 0000 0500 0000 0000 0000
00000080: 0500 0000 0000 0000 0500 0000 0000 0000
00000090: 0500 0000 0000 0000 5f07 8f49 1c41 0240
000000a0: 0500 0000 0000 0000 c157 c5d8 e1d0 0940
000000b0: 0500 0000 0000 0000 3173 31a9 1f52 1240
000000c0: e46b 6abd 9309 0b40 0500 0000 0000 0000
000000d0: 53aa e9e9 018b 0440 0500 0000 0000 0000
000000e0: 0500 0000 0000 0000 0500 0000 0000 0000
000000f0: 0500 0000 0000 0000 e8a0 67a7 3382 0840
00000100: 0500 0000 0000 0000 0500 0000 0000 0000
00000110: 0500 0000 0000 0000 0500 0000 0000 0000
00000120: 0500 0000 0000 0000 0500 0000 0000 0000
00000130: 0500 0000 0000 0000 05f4 335e 7d30 1240
00000140: 0500 0000 0000 0000 3502 9d58 8bd5 0f40
00000150: 0500 0000 0000 0000 0500 0000 0000 0000
00000160: b29d a127 4514 9b2f 0500 0000 0000 0000
00000170: 6143 45d7 e836 fd3f 0500 0000 0000 0000
00000180: 0500 0000 0000 0000 6f2d 5294 b095 0640
00000190: 0500 0000 0000 0000 0500 0000 0000 0000
000001a0: 0500 0000 0000 0000 0500 0000 0000 0000
000001b0: 0500 0000 0000 0000 0500 0000 0000 0000
000001c0: 0500 0000 0000 0000 7b3c b4b2 ccef 0140
000001d0: 0500 0000 0000 0000 0500 0000 0000 0000
000001e0: c223 ce80 69ba 0440 0500 0000 0000 0000
000001f0: 0500 0000 0000 0000 0500 0000 0000 0000
00000200: 0500 0000 0000 0000 8e0c 4623 1e9d 0940
00000210: 0500 0000 0000 0000 0500 0000 0000 0000
00000220: 789f 924b 490f 1340 0500 0000 0000 0000
00000230: 0500 0000 0000 0000 0500 0000 0000 0000
00000240: 4918 7113 6522 0540 6726 3c65 6ae1 ff3f
00000250: 0500 0000 0000 0000 0500 0000 0000 0000
00000260: 687e 169b 8169 0740 0500 0000 0000 0000
00000270: 0500 0000 0000 0000 7f94 4bea 227d 0240
00000280: 0500 0000 0000 0000 c788 f02f 6a62 0e40
00000290: 0500 0000 0000 0000 0500 0000 0000 0000
000002a0: 0500 0000 0000 0000 0500 0000 0000 0000
000002b0: 0500 0000 0000 0000 0500 0000 0000 0000
000002c0: 0500 0000 0000 0000 a98c 8b88 0c44 0f40
000002d0: 0500 0000 0000 0000 0500 0000 0000 0000
000002e0: 0500 0000 0000 0000 0500 0000 0000 0000
000002f0: 0500 0000 0000 0000 0500 0000 0000 0000
00000300: 0500 0000 0000 0000 0500 0000 0000 0000
00000310: 49c0 63fa 6729 1340 2069 e8a6 1764 0940
