model_policy_epoch-120.pt (torch, 373906 bytes, 28 tensors)

layers.0.weight f8 [128, 128]
0	0xbfebae2f2369b4a3	-0.8650127116831253
1	0xbfb0014010c9979b	-0.06251907739496547
2	0x3fa853da70ef7328	0.04751474979977949
3	0xbfde14fe3f27d7f2	-0.47003132026236394
4	0xbfc4126dc1a40fe2	-0.1568124003898666
5	0x3f57f6f66899bb9b	0.0014626890500968107
6	0x3fc39bd1df62c1f6	0.15319274337299732
7	0xbfee4d8c3d9f1046	-0.9469662860433423
8	0xbff1308adaaf8b95	-1.0743511717234686
9	0xbfebe8dee263b130	-0.8721765920322806
10	0xbfb654efd91c6f1e	-0.08723353434146161
11	0xbfeb6d0c3088c1ac	-0.8570614765104003
12	0xbfd3571c8efa1400	-0.30219186747154936
13	0xbfd48b8b14b7b155	-0.32101704619596677
14	0xbfda36a78f83b8f0	-0.4095858479985415
15	0x3fa1fde2b4b6d284	0.03514011817916177
16	0x3fdb35d79ea13c43	0.4251612710112946
17	0xbfd4f4f9abfdc67f	-0.327452104530586
18	0xbfe064d00955bfc2	-0.5123062307666191
19	0xbf9933a49d5915dc	-0.0246110650098411
20	0xbfd262d1ee0cbef5	-0.2872814964966744
21	0xbfe3036f89c2d9ca	-0.5941693964621717
22	0xbfd680250c58b164	-0.35157133298596066
23	0x3fd2a943dabf9cc2	0.2915811191764527
24	0xbfe9e3908b955011	-0.8090288854823503
25	0xbff33d19c315e2cc	-1.2024171467330005
26	0xbfe81189ab7e6348	-0.7521408414350867
27	0xbfe67c6cc4ee31e5	-0.7026885839746312
28	0xbffaeb7cec18b173	-1.6824921820180776
29	0xbfd5c5084a388f0d	-0.340150902253513
30	0xbff75476bcddeaf3	-1.4581210496532406
31	0xbfe2bba4190e65a5	-0.5854053964023264
32	0xbff0e9b90b13c56a	-1.0570612366394365
33	0xbfd5c3500834fdbe	-0.3400459365984395
34	0xbfdbaccb4e2217b9	-0.43242151861374684
35	0xbff12fd8ddee640c	-1.0741814297855425
36	0xbfe03b08ff299037	-0.5072064384116918
37	0xbfe48e32a1e1feaa	-0.6423581277631076
38	0xbfebcf4db1b653dc	-0.8690556021634808
39	0x3fde91edf45e5076	0.4776568304453187
40	0x3fe074ee5bc0f754	0.5142738143983743
41	0xbff22a95783f0f9f	-1.135396451675639
42	0xbfed5001c70bfc03	-0.916016472590741
43	0xbfe5fb1bf885a091	-0.6869029859490344
44	0x3fe0ce4f17087a1a	0.5251841974130145
45	0xbfe8fb16b4beadde	-0.7806504755184809
46	0xbffbc8931d564b41	-1.7364684244136728
47	0xbfd9dc81ce71b256	-0.4040836826377804
48	0xbfc66db4356cbe5c	-0.1752228985655958
49	0xbff1d7ad875cf41c	-1.1151557242985808
50	0xbffc236f5d40ec3d	-1.75865112712087
51	0xbfe0f3299c7e1caf	-0.5296829277512155
52	0xbfe3f430ac9083c2	-0.6235583658600421
53	0x3fb0bd6f7ab0f109	0.06539055581464849
54	0xbff0d597d5e6729b	-1.052146754787066
55	0xbfe4498e2fe7eec4	-0.6339789329208192
56	0xbff396d89ef75cfc	-1.2243276795978195
57	0xbfecca4aa1c7b426	-0.8996937904136117
58	0xbff7556b2e9dd4d9	-1.4583541699369589
59	0xbff94b46e334d3f5	-1.5808781504867941
60	0xbfea9c88dda8ccd0	-0.8316082314762756
61	0xbfd160b364632aa0	-0.2715271454186823
62	0xbffadf26c022d0b3	-1.679480314761389
63	0xbfd4ed152e977639	-0.3269703822132644
64	0x3ff5722817c35efd	1.340370266747356
65	0x3fe56e1f092b1363	0.6696925334041278
66	0x3fe14fe26e68cfbe	0.5410015255388243
67	0x3fea3c453f94a654	0.8198572389421295
68	0x3fe9a5d2779c383f	0.8014919601571434
69	0x3fed5c76fce2a831	0.9175372065703923
70	0x3fea612aa8d10b5f	0.8243611619185279
71	0x3fe06ef687ea277b	0.5135452894767093
72	0xbfdc1fbe5629ba62	-0.4394374696193265
73	0x3ff3649e95b3a54d	1.2120653007244357
74	0x3fe8638a340021af	0.7621508613238371
75	0x3ffa728ddfaa260b	1.652967332544338
76	0x3ff85210fb276c81	1.5200357256606198
77	0xbfc1a3e8a417ea94	-0.13781459820150543
78	0x3ff6d095e1e09a79	1.4259241889318715
79	0x3feac11f5256148b	0.8360745056276228
80	0xbf9d66f02da51f06	-0.028712990556669225
81	0x3ff08bae8b9b44af	1.0341020062808572
82	0x3ff8ec138ccf83dc	1.5576358318723953
83	0x3fdf6cbd36edbc7d	0.4910119091427488
84	0x3fe0dc9039bb1f05	0.5269242408330405
85	0x3fe14c6ffe66995a	0.5405807465329346
86	0x3fd999b76ee4c3db	0.40000711278395124
87	0xbfc241dba280c006	-0.14263482508386022
88	0x3fdda99d61e0402f	0.46347746427727804
89	0x3fe8547251e80e36	0.7603084182487183
90	0x3ff7fb259fb2e03b	1.4988151777488514
91	0xbfd5e17aad405229	-0.341887158575704
92	0x3ff1888ef96a4016	1.0958394758963599
93	0x3fddb8e7590687f8	0.4644106263532417
94	0x3fea5a2ff1c46541	0.823509189797882
95	0x3feb2db208004f7a	0.8493280559800802
96	0x4001b92d11837010	2.2154179924236885
97	0xbfee701eff65cb47	-0.9511866558299084
98	0x3fe2c24afde0145b	0.5862173994543228
99	0x3fef03674979615f	0.9691654620210491
100	0x3ff06bcba988e936	1.0263172743276079
101	0x3fe5c3298c2c7a13	0.6800735223549189
102	0xbfb66a24d26698ca	-0.08755712639558336
103	0xbfe80e1b16ceeb13	-0.7517219014619932
104	0x3f83ba4b15fb45aa	0.009632670028994667
105	0x3ff984eb30aa412f	1.5949508572558206
106	0x40048ab1228443c4	2.567720670377158
107	0x3fc80263f70c457c	0.18757295191657508
108	0x3fd9e648f8bd3b2b	0.40468048373161264
109	0x3ff43873b3b48768	1.2637822170003918
110	0x3fb3842ad6071050	0.07623546338351272
111	0xbfc0d8c78a149134	-0.13161558382228977
112	0x3fea0c4bd25a0e80	0.8140009983475949
113	0x3ff48d0d58123b6e	1.2844365539819722
114	0x3fa1f5f37309f741	0.03507958201679041
115	0xbfd5911c84b87754	-0.33698189698212855
116	0xbfe518e18a5f3d56	-0.6592872335985855
117	0x3fd65aa4f94ea37d	0.3492824968948794
118	0x3ff1c277203f5ff3	1.1099768886251666
119	0x3ff3ba50e13c1e2c	1.2329872892604596
120	0x4002171687d2bf46	2.261273442381852
121	0x3fe094edffcb82b6	0.5181798931117416
122	0x3fe1f81400840736	0.5615329752037954
123	0x40022eb2d4ff15e6	2.2728020325036935
124	0x3ff3f61bf213cc87	1.2475852447649076
125	0xbfdf83622601bc85	-0.4923940058860768
126	0x3feaf5196c9a905a	0.8424193497817314
127	0xbff0070ccfb1b3a6	-1.0017212021877895
128	0xbfeff80cc612bbde	-0.9990295284859447
129	0xbfd38497fdb0df80	-0.3049678780985161
130	0xbfc7d0b11dd6709b	-0.18605627018849166
131	0xbfe73419d0821cfc	-0.7251099655558444
132	0xbfc7dcb9683a36cb	-0.1864234694407315
133	0xbfd114a5d7997b03	-0.26688524298326416
134	0xbf73dcab22b5d82f	-0.004849117754352191
135	0xbfe1153f186826b9	-0.5338435627647505
136	0xbff36e63f3470f93	-1.214450788786938
137	0xbffa8ca3dd0d1fa2	-1.6593359598937032
138	0xbfef64fb6ffa39dd	-0.9810769259509545
139	0xbfe519f90cf8385c	-0.6594205144226737
140	0xbfd7b92000a85134	-0.37067413391311566
141	0xbfe02c985313e420	-0.5054437277423212
142	0xbfe8b58684826ec8	-0.772158869559882
143	0xbfd08ce452f6d734	-0.2585993585774873
144	0xbfc986245ab627f8	-0.19940618924402975
145	0xbfdfe092c767cd78	-0.4980818698233729
146	0xbfe37fcbe5dabe07	-0.6093501557679141
147	0xbfc7b094649b27ad	-0.18507628357320752
148	0xbfdbeed67d5369a2	-0.43645250548220293
149	0xbfe5eb946ebeca41	-0.6850073016160608
150	0xbfd1d4abd7a30495	-0.27860542352943557
151	0xbfe7cb7e4c318a88	-0.7435904968409242
152	0xbfe7afb864d80619	-0.7402002305609044
153	0xbff8cc3593c27c43	-1.5498557826865784
154	0xbfe4d1ff974c4d0b	-0.6506345706024218
155	0xbfd50120e5937998	-0.3281938783601617
156	0xbff4f6384ff4c9c1	-1.310112297371788
157	0xbfc0c830e48e88f7	-0.13110934410094163
158	0xbff63d71ffd04de3	-1.3900012963030057
159	0xbfe03fcc3f76ebbe	-0.507787822679681
160	0xbff3294397bb5288	-1.1975742270489338
161	0xbff3cac65146c74e	-1.2370055365431258
162	0xbfe84c409963c40a	-0.7593081470387244
163	0xbfeb512a4ebb5412	-0.8536578691224597
164	0xbfeb325d6e22d9ba	-0.84989806662525
165	0xbfe6182904560c69	-0.690449245900152
166	0xbfeecfc5859da2c7	-0.9628627404864226
167	0xbfe01ab429e33b1a	-0.5032597368352498
168	0xbfb541e309234986	-0.08303660367099583
169	0xbff40a941a7a457f	-1.25258264868566
170	0xbfe25db3f4942ace	-0.5739383484772931
171	0xbfe4a4240c8bc413	-0.645036720756368
172	0x3fd82ab0c661c8f0	0.3776056229900311
173	0xbfc3058eca75b3ca	-0.14860710988742049
174	0xbfe3a306334b8303	-0.6136504175047722
175	0xbff23a3d69e7bc31	-1.139218724910972
176	0x3fd1a78fff969937	0.2758522029856922
177	0xbff3531c225984ab	-1.2077905027183913
178	0xc000cd59adf1325b	-2.1002687062485115
179	0xbff02df1989ba412	-1.0112167321442525
180	0xbfeba63e0d255912	-0.8640432602649375
181	0xbfc8f06e0e40e2fc	-0.19483733840913675
182	0xbfe489325c530b0f	-0.6417476466379827
183	0xbfe637e865bcfb2f	-0.6943246829103823
184	0xbfbdef54b3fd7f23	-0.11693314928333769
185	0xbfde9445138652b4	-0.47779967219075137
186	0xbff0885ece34b7a4	-1.033293538562682
187	0xbffdb42eb96e108e	-1.8564898722989116
188	0xbfe9469bb1abdf0c	-0.789869162573241
189	0xbfc7546bb9b94138	-0.18226381844079653
190	0xbffcecf0a7b295bc	-1.8078466940581697
191	0xbfbc0a4e44441a81	-0.10953225294734105
192	0x3feb2c7210edcbc5	0.849175484718551
193	0x3fec81e49615b0f7	0.8908560687391675
194	0x3fe19606f22948bb	0.5495638589584567
195	0x3fe79409c6cdc929	0.736821068085452
196	0x3fe60c08c0abc92c	0.6889690173250407
197	0x3ff31f14aae19fd8	1.1950880694439459
198	0x3fd9a4db577ad29e	0.4006870607657137
199	0x3fdf092fd9d17265	0.4849357249384297
200	0xbfd65d4be5123816	-0.34944436426383285
201	0x3ff4a9df9ce39072	1.2914730194543407
202	0x3ff413155cf948a4	1.254659045389908
203	0x3ff8f018d556e4c6	1.5586174329348963
204	0x3ff62457bfe597c8	1.3838727470369907
205	0x3fc441e05d2089fe	0.15826038882467225
206	0x3ff0bc108c4bf001	1.0459142189347406
207	0x3fe9a3fc0ab2df13	0.8012676438292793
208	0x3fddd2d23d6c2a2f	0.46599250791828956
209	0x3fe9629894ce9949	0.7932856470477329
210	0x3ff087faeeb737b7	1.03319829223936
211	0x3fd650fd9be7d9d1	0.3486932775989802
212	0x3fe1779999c93c46	0.5458496097215935
213	0x3fdc35ba292c3504	0.4407792474820129
214	0x3fdb9575cd3ece54	0.43099732440461946
215	0x3fc2ba59da15fd74	0.14631198071218032
216	0x3febc0c7b5918167	0.8672827287919461
217	0x3fee3f47a2a7016c	0.9452245880893719
218	0x3ff7576627e4339b	1.4588376577623652
219	0xbfe60d15b8903f0f	-0.6890972714190599
220	0x3fdc0f752e883fc1	0.43844346565401443
221	0x3fd0419b589f5991	0.25400432257210875
222	0x3ff31411ce5fa6bd	1.1923997937650903
223	0x3fd07f372f535e08	0.2577646219410501
224	0x3ffda1515c355f15	1.8518842317479927
225	0xbfd7b0b635be8f4f	-0.37016062973474545
226	0x3fdf5195356250bc	0.4893544217423018
227	0x3fe1a05650a729ed	0.5508224082234939
228	0x3fe90f858ef7ab57	0.7831447403271835
229	0x3fe178ae600603c3	0.5459815860232243
230	0x3fb8341a8d3a52bf	0.09454503963417958
231	0xbfb6247a2df86b39	-0.08649409887622718
232	0x3fdf942ac11f49b0	0.49341839656440367
233	0x3ff219105400bc09	1.1311190873491361
234	0x40008416abb8edd1	2.0644963661013453
235	0x3fe2ba5d5c29a020	0.5852495956469319
236	0x3fab31837c66871e	0.05311213391838819
237	0x3fed72f527dde9c1	0.9202829149865509
238	0xbfd4b7ed25ca910e	-0.3237259739928654
239	0x3fdc7c978b368a9a	0.4451044902327027
240	0xbfe003e89fb0eef0	-0.5004771346061414
241	0x3feafa844f179db3	0.8430806679506787
242	0x3fe5209e51c1051b	0.6602317425496581
243	0xbfb0d5b36122d1f8	-0.06576081391796851
244	0x3fbae33c640be8d8	0.10502984468977006
245	0xbf908c735bbf8a58	-0.01616077659117318
246	0x3fd6253312a1fab6	0.3460204774818679
247	0x3fe6328a56d65316	0.6936694808997312
248	0x3fed999dacd2c2ee	0.9250019431547949
249	0x3fb052d094dae0da	0.06376365312724222
250	0x3fda63b081925553	0.41233456281164144
251	0x3ffdaa9e7b726741	1.8541550466674865
252	0x3ff225450137bbda	1.1340990111891558
253	0xbfe254e2957ad080	-0.5728619498754739
254	0x3ff43c4192c910d9	1.2647109731488426
255	0xbff095b546c2d258	-1.0365498317816186

layers.0.bias f8 [128]
0	0xbffa9c612f369bcd	-1.663178619791995
1	0xbffb90d84f4b71aa	-1.722862539048132
2	0x3fff44eea356fc90	1.9543291454754446
3	0x3fdf1845942be7bc	0.4858564326274253
4	0x3fd1abea68e617e9	0.27611789936088244
5	0xbff51c4e6b5e1a6d	-1.3194107240721238
6	0xbfb9f7b9e9ed4fc2	-0.10143625222309452
7	0x3ff72a4ec7a437ba	1.4478290365691309
8	0x3fc9ab21419887a7	0.2005349703113641
9	0x3fea82251a324a1a	0.8283868323945314
10	0x3ff0a8e71ece8a27	1.0412360385313464
11	0x3ff3e9ec1ec609ef	1.2446099474042247
12	0xbffc0b6117c0ca83	-1.7527781417708475
13	0xc000b363fb6a2e6d	-2.0875930444506623
14	0x3fb56f4e1a16a8a6	0.08372963082243476
15	0x3ff6e8faf6b4b315	1.4318799626300394
16	0x3fe834ed0645778f	0.7564606783378042
17	0x3fd509c84c11f724	0.3287220709679437
18	0x3ff810d9b6645d97	1.504113876790006
19	0xbfcd908c205cc704	-0.23097373562045942
20	0x3fdc8f267ff595a4	0.44623720642115416
21	0xbfee40c885a47f08	-0.945408116360313
22	0x3fe75a8ddec75271	0.7298039771217885
23	0xbfd747368b62d0fa	-0.363721500510351
24	0x3fe584d62550a31c	0.6724653939064384
25	0xc0002196c1de0e8d	-2.0164008279696817
26	0x3fd7c0b4d76f56d0	0.37113686598364115
27	0x3fe2ee095453c723	0.5915571829811807
28	0xbfeb104a99e0f551	-0.8457386975712017
29	0xbfe78d1ae576b966	-0.7359747392381848
30	0xbfe8f2942d325b9b	-0.7796116717098472
31	0x3ff2e5abdb4aef59	1.181072098362128
32	0xbfc3decfca9c7295	-0.15523717301484355
33	0xbfe2d4fe673abae1	-0.5885002151679509
34	0x3fc1be5f486ad342	0.13862219844818396
35	0x3fc7fe524f10c5f3	0.1874487768232452
36	0x3ffb1c8cc13e36f0	1.694470171790666
37	0xc0039610bf282d3e	-2.4482741293083157
38	0xbfca3625aec5bbdf	-0.2047774413472032
39	0xbff0ef488917a493	-1.0584187846346012
40	0xbff3c740979a3bf2	-1.2361455842944875
41	0x3ff362e7e79ed513	1.2116469428704633
42	0xbff9c15ad6089ad6	-1.6097057686508172
43	0xbfd11176a8985819	-0.26669088806500124
44	0xbffae81381fb6d70	-1.6816592290332117
45	0xbfbe55e91fd58cdd	-0.11849839236451794
46	0x3fe5ebe2f397aa55	0.6850447423615359
47	0xbfe28665cc672e6c	-0.578905963158332
48	0x3fb3c5a6bd05eb37	0.07723466982671999
49	0xbfc3919b6a12216b	-0.15288107566108108
50	0xc000c73aff280bc4	-2.097280496034246
51	0xbfd44dba844cfaf7	-0.31724417610159555
52	0x3ff90b6926c02260	1.5652858270351757
53	0x3ff5a1fc1c554ec5	1.352047072102253
54	0xbfc48ef281f93a86	-0.16061240526547155
55	0x3fed1e331d33fd33	0.9099364824650479
56	0x3ffa01a470d1c4d1	1.625400963497942
57	0x3feaac7a785305c1	0.8335544920047867
58	0x3fd6cac382696331	0.3561257146407569
59	0xbfe356cc55dbf8eb	-0.6043454815806205
60	0xbff19fc7187ba97c	-1.1015082317704517
61	0x3ff5f529ba78c6e7	1.3723542484335043
62	0x3fee2cc3a6f21038	0.9429643879561871
63	0x3fbf2df4b9898889	0.12179498223989262
64	0xbfda2a3db6ecf6bf	-0.40882819045860325
65	0x3fe3bf599a86744f	0.6171081560202171
66	0xbfe92a53c74fbb1d	-0.7864169018556343
67	0xbfb0c43aa46e0343	-0.06549421800992854
68	0x3ff9c17b65854ec0	1.6097368207601193
69	0x3ff1955b954d9c8f	1.0989642936854442
70	0xbff407a43cc5d8a7	-1.251865613359351
71	0x3fe3490636b3c246	0.6026640957262053
72	0xbfe6c516dfdd26f6	-0.7115587589589427
73	0xbfd871d775f45590	-0.3819483425043808
74	0xbfeb6a3dd8a7933c	-0.8567189437422722
75	0x3ff2d64541e6f5c3	1.1773121427826119
76	0xbfd3db47ae0a6a39	-0.3102587890258835
77	0x3fd986df23b70d2d	0.3988569115428671
78	0xbfd6a92827feea81	-0.3540745153983736
79	0x3ff236ebd0c84ee9	1.1384084849896061
80	0x3fe010a08092db41	0.502029658432413
81	0x3fd08a76f8fbc6cd	0.2584512168387903
82	0x3ff0001eb105b882	1.0000292696891226
83	0x3fe45b7f0c0328bf	0.6361689791313195
84	0x3fd6e1767cf254ac	0.35751115991417737
85	0xbff40f31e93772eb	-1.2537097082160311
86	0xbfed897ec005d43f	-0.9230340719647144
87	0xbffa7cde07b8de92	-1.6554851819654783
88	0x3ff3cd58b1302e3d	1.2376334115423469
89	0xbfd62f1ad347a06b	-0.34662504799644606
90	0xbff4b25a4b22201b	-1.293543141831839
91	0xbff405ed659a4bd2	-1.2514471024376133
92	0xbff8e84251685fd3	-1.5567038707722431
93	0xbfa5b0884e2a4c7e	-0.042362460652975095
94	0xbff87c85598d726f	-1.5304006097932434
95	0xbfe4f0c1bb0d1b18	-0.6543892529815336
96	0xbff0fa82fac457dd	-1.0611600680908773
97	0x3fefe337848a86a1	0.9964864338582694
98	0x40002e2d0fc1ec84	2.0225468855911135
99	0x3febf4182bb4c9fe	0.8735466817509516
100	0x3fe5a76422cb8733	0.6766834907141174
101	0xc004809dd7371ebd	-2.562801057214385
102	0x3fe6379555261d1d	0.6942850745262238
103	0x3fc3ebb45255fb4d	0.1556306268721194
104	0x3fecd3f534f3789d	0.9008737596702933
105	0x3fd293a2f5bff5b7	0.290261020650941
106	0xbff632dac272d249	-1.3874156566281661
107	0xbfe34466589b8b9b	-0.6020995836846511
108	0x3fd478d9f60bf269	0.319876184730481
109	0x3ff5001da357f021	1.3125282650571608
110	0x3ff13796e284e53e	1.076071629371952
111	0xbfd77a46c0462374	-0.36683815743213377
112	0x3fc5c056e4c2bb17	0.16993223352388817
113	0xbffd2d21c6a3d739	-1.8235185393691167
114	0xbfee43b227cdd1ec	-0.9457636620923586
115	0x3fd9b123ff6895da	0.4014368051742544
116	0x3fb6fc8f9c69aa9e	0.08979127472563639
117	0xbfedb5ba9a82dfb1	-0.928433706073511
118	0x3fe03d73241760d3	0.5075011925610177
119	0x3fc07fbfaef27fed	0.1288985828623476
120	0xbfe585d30ed70e07	-0.6725859918446425
121	0x3fec8e516bb25682	0.8923728087854246
122	0x3ff12402f7ba6114	1.071291892707511
123	0x3fd52169f0ce781a	0.33016441837560395
124	0x3fb4f064e9b043ae	0.08179312424932902
125	0x3fe0ec1cb12d024a	0.5288222752061043
126	0x3fe80718f06cab37	0.7508663841048023
127	0xbfcb6ad078f16e29	-0.21419721513199022

layers.1.weight f8 [100, 128]
0	0xbfaaefe999d0351d	-0.05261163714031112
1	0x3fa6744f407b26ed	0.043856121655677295
2	0xbf9ea51e9bc97974	-0.029926756151661363
3	0xbfb9cc284da60b11	-0.10077144523351601
4	0x3fbe224e630da779	0.11771097105306962
5	0x3f87c6bcc8b6e513	0.011609530330007922
6	0xbfb3fc7c810a69d5	-0.07807138586432612
7	0xbfbdd852f0a84e3d	-0.11658209205079913
8	0x3fbb81ed65487c0e	0.10745128367169363
9	0xbf965391acd8db64	-0.021803165602445232
10	0xbf9dafa28b17e112	-0.028990306605892142
11	0x3fb16167d0690079	0.06789254034174687
12	0x3fa2854539785259	0.036173022523290306
13	0x3fb28eb700d7c0a2	0.07249015589309463
14	0x3fa52b3d5683cc42	0.041345516978161814
15	0x3fa46a47d76e808e	0.03987335686474679
16	0xbfab97e1838dfd32	-0.05389313441173228
17	0x3fadd7a61f74ed4b	0.058285895671782294
18	0xbf968a9883e94a45	-0.022013075877405325
19	0xbfcb4374b605e98f	-0.21299609077307166
20	0xbfa6e225f4d5623a	-0.04469412435236504
21	0xbfa2e34cba49e153	-0.03689040922194189
22	0xbfbd8c8be868c944	-0.1154258196263856
23	0x3fc0824420d33263	0.12897540667326543
24	0x3fb89ad1edfa94c8	0.09611236629514786
25	0xbf4917535c0cd7f5	-0.0007657200841097988
26	0x3fc1c50de6773bf0	0.13882611993037086
27	0x3faedc9097bb26ab	0.06027652599511887
28	0xbf8b0c79e8e09afd	-0.013207390231469324
29	0xbfbe7ce985beaf48	-0.11909350886588499
30	0xbfb36fbcbf192488	-0.07592372575267536
31	0xbfb702dfd78d5b41	-0.08988760960106125
32	0xbfb0a26d4b45c728	-0.06497843826016647
33	0x3f7b1a989fdb8e3e	0.006617160977586743
34	0x3fbad7bd731eeca7	0.10485443172994967
35	0x3fc4cf05717ce6b7	0.16256778756524223
36	0x3f8a5b360826a323	0.012869283794161362
37	0x3f94ba9d6851a086	0.02024312924587026
38	0x3fb010ad6e11d932	0.06275447785614999
39	0xbf8c4906288c5207	-0.013811157333784697
40	0xbfb1b3b0e83d0d29	-0.06914811773190323
41	0x3fc98bcd2674f770	0.19957889917162275
42	0xbfc44b42239e7ee9	-0.15854670275893248
43	0xbf723e3d92a849ee	-0.004453888434471127
44	0xbfb32e7c0f29f768	-0.07492804880345505
45	0x3fcf724dac305160	0.24567576320317652
46	0xbfb0638177873d54	-0.06401833694620979
47	0x3fd03f3617e0af98	0.2538581116848433
48	0xbfc49097fa5a9e16	-0.1606626484328763
49	0x3fa741cb8e146283	0.04542385205622159
50	0x3f70c9d727d7aacb	0.004098740054795778
51	0x3fb0d12368e1da75	0.065691197496429
52	0xbfaaf14a23ef2d9d	-0.052622143637189846
53	0x3f96d9478bfc52ef	0.02231323043732208
54	0xbfa42a06e2f96de3	-0.03938313980753685
55	0xbf999853d979c2ec	-0.024995145939501848
56	0x3f587c0a93edf706	0.0014944175051989097
57	0xbfbb73bc2261f5e8	-0.10723472442074178
58	0x3fad67a5f26a69b5	0.057431398240811594
59	0xbfb1248e5118f023	-0.06696404914777125
60	0x3fbfe30afd7d92fb	0.12455815018399712
61	0xbf8539803b6a74dd	-0.010363580525615418
62	0xbfba71449b0d1102	-0.10329083238054085
63	0x3fa151fceae51268	0.033828643487628096
64	0xbfb0fd90f14fcaee	-0.06636911288641631
65	0x3f6f890a7061ce08	0.003849525822312353
66	0xbf94e0fc8f7f2f7a	-0.020389505632734985
67	0x3fb19d46f50d1a3f	0.06880610926337115
68	0x3f9e3600820237e7	0.029502876219844067
69	0xbfbf9b9487bb7974	-0.12346771539475815
70	0xbfc95aad72f71d36	-0.19807975877322698
71	0x3fc03a066f6349d7	0.1267707866559948
72	0x3fb23c858f0d4e95	0.07123598806838978
73	0x3fb332f55a207d77	0.07499631357540247
74	0x3f8efb29ff16817a	0.015127494904675787
75	0x3f9a4e5ec94cace0	0.02568958381304476
76	0xbf94496c0d0c9e86	-0.019811332985368434
77	0x3fb7ebbccf621cbb	0.09344081938808106
78	0x3f851ebdc1c1d8e8	0.010312540507794357
79	0xbfa9b2eae2b3ef27	-0.05019315736168855
80	0xbfbe89e183f1964f	-0.11929139586717351
81	0xbfc4ba7e0e474f5a	-0.1619412965507035
82	0xbfc035b6d09bf168	-0.12663922487252965
83	0xbfb0401f843df3fe	-0.06347844103397901
84	0x3fc4c4381f008a90	0.1622381354691993
85	0xbfb38c3d8015ed44	-0.07635864617434601
86	0x3fca2c84cfb8ce57	0.20448360579176736
87	0xbf966c46419de1dd	-0.021897409205367303
88	0x3fb662013aba1421	0.08743293460618463
89	0xbfc231daee93b6fd	-0.1421464600493251
90	0x3fb17c1ab9e3552e	0.06829993284494115
91	0xbf9d19b0b4702900	-0.028418313038891974
92	0xbfb04c0ae136ebb1	-0.06366031645204263
93	0x3f968590f33eeaf3	0.021993889662307486
94	0xbfb5c74823c3c203	-0.08507204888497459
95	0xbf949e2b261fdee7	-0.02013461513703776
96	0x3f7701aede8505bf	0.00561683948791497
97	0xbfb11b8997ec8079	-0.0668264385135461
98	0x3f05a963a664b5c5	4.1316369605897146e-05
99	0xbfb2ed663fc9f9d0	-0.07393492753360609
100	0xbfb15d8a32992962	-0.0678335546046234
101	0x3fb4def76b30dc91	0.08152719847645275
102	0xbfc1bd54a5c6166b	-0.13859041304037886
103	0xbf97fb326e80c277	-0.023419178003850818
104	0x3f88d29d9139c2fb	0.012120467180666497
105	0xbfbaa65742b0ee31	-0.10410066011621023
106	0xbf89e2b02407b786	-0.012639404391815889
107	0x3f9ec108b4b313d6	0.030033241299651646
108	0x3fc2d960f0629e11	0.14725887048301492
109	0x3fb17a606bdc9a8f	0.06827356942504025
110	0xbf987787542f5676	-0.023893465531577417
111	0x3f995244671d073f	0.024727886956731778
112	0x3f9740d360a9baad	0.022708227896539302
113	0xbfa185aa98a41536	-0.03422291863720732
114	0xbfb26312844aefb6	-0.07182422380259265
115	0xbf95d748f43c9568	-0.021329059512159715
116	0xbfb23e16481eacb0	-0.07125987301576475
117	0xbfb0059ef463702b	-0.06258576838030254
118	0x3fa9aa669e53fb62	0.05012818033900747
119	0xbfb3f42367e55733	-0.07794400488395752
120	0xbf96d550e07679f9	-0.022298110675928105
121	0xbf9da47ca9c9e770	-0.028947780478552898
122	0x3fc24afee27fb90a	0.14291368541257327
123	0x3fa1a67966c1f6cd	0.03447322253576388
124	0xbfbdd3cb7f6924d8	-0.11651298390019649
125	0xbfa33870f1db100c	-0.03753998710956816
126	0x3fbf89390f0beba0	0.1231876050696159
127	0x3fc22a77791bbf6e	0.1419209805821952
128	0x3fc18771110593c5	0.13694585162298104
129	0x3febafa689c61514	0.8651917162793858
130	0xbfc466097755550f	-0.15936392142126762
131	0x3fd629049359453d	0.3462535323097489
132	0xbfe6b87830a5d62b	-0.7100182485725716
133	0x3fdf6ed7a452168f	0.4911402802175439
134	0xbfe74e7809a95fb6	-0.7283287228301478
135	0xbfed9482dd9ba25a	-0.9243788078575321
136	0x3fbc4f9e3dfb2c2c	0.11058987630092137
137	0xbfd823659745960c	-0.37716045162810086
138	0xbfd35eb119e62c8b	-0.30265452889643346
139	0xbfc2ba352679787e	-0.14630760553967898
140	0x3feda7cf56f856d1	0.9267346094736358
141	0x3fd03e321c676dd5	0.2537961270697598
142	0x3f93d8c396e991d2	0.019381576620064518
143	0xbfd2213f74acbd94	-0.2832792891885785
144	0x3fba5327c2c29cf1	0.10283134941947815
145	0x3fdbb1ca45cd5b71	0.4327264482175713
146	0xbfda4e55b0fb86cc	-0.411031172594545
147	0xbfd6c2cae5de3e28	-0.3556391949468627
148	0xbfe69c44ab74546d	-0.7065757130354889
149	0xbf977f6d80b844c6	-0.02294703577178294
150	0xbfcbfb16378a6c49	-0.21860006057690587
151	0xbfde1cb6712c88a2	-0.47050248195786015
152	0xbfc4060c5a923aba	-0.1564345781557302
153	0x3fe790748de48bcd	0.7363837024062093
154	0x3fd5b4026d6b1503	0.33911190686588116
155	0x3fb388709c7f1633	0.07630065746987995
156	0x3fd2ff3477458771	0.29682647369019494
157	0x3fd1b5490f2cd27a	0.27668978197042515
158	0xbfbb067f52315857	-0.10556789166125334
159	0xbfdfae07588d60c2	-0.4949968685882703
160	0xbfee190c6095d7d4	-0.9405576597625847
161	0x3fba7b6638aa1392	0.10344542392165426
162	0x3fdc143cd944d80d	0.4387352105871976
163	0x3fcc0749377dd7e5	0.2189723511652907
164	0xbfea1a240660104f	-0.8156910061375217
165	0x3fe76e5bb7c439ca	0.732221468848189
166	0x3ffc67973850d010	1.7752906989890143
167	0x3fd7e163c0175426	0.3731316924943847
168	0xbfd7de7f380376d3	-0.3729551360137126
169	0x3f945f8cfdea7ec1	0.019895747182657745
170	0xbf90b8ac0efc6d8b	-0.016329468168903054
171	0x3fc34a3784ff6fd2	0.15070241922410205
172	0x3ff269fdfeff41ff	1.1508769951652764
173	0xbfb5b287953b3eb0	-0.08475539582581848
174	0xbfdcdd0b1045691c	-0.45099140728929554
175	0x3fd78fc15a54bc94	0.3681491262568184
176	0x3fe60ac659edf89c	0.6888152843892104
177	0x3fdc868ebca57daa	0.44571274206642875
178	0x3ff27da6a1f9fe7b	1.155676491471154
179	0xbfeb429ff129ce72	-0.851882906934817
180	0xbfe97a0b13583e35	-0.7961478593660504
181	0x3fd532aaaf6b70e3	0.3312174523432658
182	0xbfb0374fca444afe	-0.06334398925927684
183	0xbfe86cd7756f3241	-0.7632863324775557
184	0xbfed6cf6cf6b33c4	-0.9195512820384626
185	0x3fbc04753a5d5dd1	0.10944302248878236
186	0x3fec3a648da63a61	0.8821280256832545
187	0xbfd4a73a4dd0bbb0	-0.3227067718425429
188	0xbfa600a9d7e41c88	-0.04297381172551079
189	0xbfed5f8472b5246c	-0.9179098358519133
190	0xbff184e3cc08b80a	-1.0949438066559218
191	0x3f63940d6b955290	0.002389932834072468
192	0x3fde0f4661f28395	0.4696823078648376
193	0x3fe3ea2ba7e0ed76	0.6223352698211062
194	0x3fb0833c82520508	0.06450250798845414
195	0x3faaac8e8a00d5a9	0.052097753854848
196	0x3fe2032742f043ec	0.56288493226941
197	0xbfcb8e7c80262785	-0.21528583771970147
198	0x3fdd0e57b13ebeb5	0.45400039967624234
199	0x3fd23b2b7d1d0f2b	0.28486144273869013
200	0x3fd7954768d4c2c2	0.36848626363193315
201	0x3fdb38d5f4d97b4a	0.4253439799412503
202	0x3fe92b2b3be8734c	0.7865196390226656
203	0x3fc36a905d50aaa1	0.15168957287217658
204	0xbfbde3b47b703390	-0.11675575269346283
205	0xbfc2f715136271fc	-0.1481653542185909
206	0xbfe3cfae359bb306	-0.6191016242060818
207	0xbfe0f03e278e90f1	-0.5293265125842749
208	0x3fa05e48e033831c	0.031969334953606515
209	0x3fe193be10ffcb50	0.5492849666610287
210	0x3fd3983aeb962796	0.3061663914346523
211	0xbffa3bc8f97e5803	-1.6395959611741098
212	0xbfdbd16b627d0556	-0.43465695016864936
213	0xbfb252e850a0e4f1	-0.0715775677534969
214	0x3fc1306f677c2049	0.13429062417003682
215	0x3fa8d8b2ad600bc3	0.048528274215662325
216	0xbfd07d1004557977	-0.25763321326476024
217	0xbfd4d254c88d0edd	-0.3253375967508257
218	0x3fe09af3ae27f8ad	0.5189150239455295
219	0x3fdb67bc67e92ba4	0.4282065405611155
220	0xbfc3e0e8ac730260	-0.15530117435811785
221	0x3ff25024b3fdc1eb	1.1445662527950116
222	0x3fc89e95612a5e1a	0.19233958477410412
223	0x3fe0dc56c3ccdaeb	0.526896841451927
224	0x3fdfd0f0224df4af	0.49712756490755344
225	0x3fbac6d4994f4a84	0.10459641211427068
226	0xbfd3031493230f3f	-0.2970630108722964
227	0xbfb87b361ceeb69d	-0.0956300564418719
228	0xbfec5bc31717315e	-0.8862014246929382
229	0x3fe578b9c2954018	0.6709870148133659
230	0x3fd058284c217c92	0.2553807013955033
231	0xbfddc0704d4b6675	-0.46487052486700203
232	0xbfda323b900a0728	-0.4093159586555992
233	0xbfc6f0a3380cebff	-0.1792186759647336
234	0x3ff82fa7a86303da	1.5116345002754685
235	0xbfdb9e71ed22b0d1	-0.43154571683659265
236	0x3ff32d82a7401f2c	1.1986109288427071
237	0xbfdca1683a20a752	-0.447351509823979
238	0xbfffee07742b6780	-1.9956125772355051
239	0xbfe03cea290d46f0	-0.5074358751100743
240	0xbfd9ab89634289a1	-0.4010947675070842
241	0x3fe03c36d6211b9c	0.5073503668034962
242	0x3fd3b4a2831a391d	0.3079000740334708
243	0xbfd5e4a4785dcd4c	-0.3420802283719311
244	0x3fe23ceb2c0e6eec	0.5699363575435803
245	0x3fa1c25ab85e8251	0.03468593121147435
246	0x3fcd9cd0e8dd85ed	0.23134814615609348
247	0x3fc43c07bdcf36f6	0.15808197753943148
248	0x3fd1993ec8a96c44	0.2749783477390262
249	0xbfe97ae03b79ffca	-0.7962495004321621
250	0xbfc6c55534e9602a	-0.17789712031913157
251	0xbfeb6b4162aa8b09	-0.8568427016328722
252	0xbfc17b4b8d46fe71	-0.13657516859347
253	0xbff7d6d94a995234	-1.489953318979258
254	0xbfc951626af66cab	-0.19779615614684096
255	0xbfe9b93f71f294cf	-0.8038632607973798

layers.1.bias f8 [100]
0	0xbfa29e47f88d70c6	-0.03636383923614654
1	0xbfd2dbfc15f4e83a	-0.2946768011494246
2	0x3f86fdcb4400fce4	0.011226261151135515
3	0xbfb97a4aef683507	-0.09952228875063805
4	0xbf86e89dde11e6a1	-0.011185868587051674
5	0x3fe1055618f30315	0.5319014060297343
6	0xbfa0eac6dc7951d6	-0.033041204846685865
7	0x3fcfe147a38915eb	0.24906249508983022
8	0x3fbdd445fd49dda4	0.11652028497507289
9	0x3fb16435f9806126	0.06793534604401383
10	0x3f94c10e87e0f089	0.020267703097701904
11	0xbfb34989c9e8ea46	-0.07534085444869118
12	0xbfb3a303ee2c91ee	-0.07670616688535123
13	0x3f9eab8ade7c9411	0.029951257543093194
14	0xbfb8731660db4412	-0.09550609459553552
15	0xbfa0a210f07c5fbd	-0.03248646674745668
16	0x3fa35f7b07d78468	0.03783783407903557
17	0xbfcb8fc3f2fd1556	-0.21532487263372485
18	0x3f6ad6f6a6313199	0.0032763306967693137
19	0xbfb2fab514a110c1	-0.07413799050943039
20	0x3f9f7ff96c1656a6	0.030761620733378202
21	0xbfc2f51497a1d8ed	-0.14810426143566904
22	0x3fc2811fc53640bc	0.14456555490006007
23	0x3fb223098df40812	0.07084712711005661
24	0x3f555937741c040c	0.0013030091799353131
25	0x3f88522a6f11aedd	0.011875468744811208
26	0xbfc3172388a795c9	-0.14914364025677987
27	0x3f9a5e2fb11bebbe	0.025749917206649313
28	0x3f85b4ea083f897f	0.010598972679819905
29	0x3fc232a88bdee85b	0.1421709711992801
30	0x3faaf5345c66be8b	0.05265201213785272
31	0xbfafa87ca9011522	-0.06183232844390775
32	0xbfa0445e7fd6585c	-0.031771615128648206
33	0x3f67dcba3c86f71a	0.002912868254695844
34	0x3f9dcbee625f4fa6	0.02909824824730802
35	0xbfc4c2f626eb5332	-0.16219975376466206
36	0xbfb6d7fbd716b55c	-0.08923315049351771
37	0xbfbdf17ceabe77fc	-0.11696606379561553
38	0x3fbcca2f3c7d497c	0.11246009089271597
39	0xbfd866c3486d9c42	-0.3812721450144104
40	0xbf855d8f8e6aefd1	-0.010432359250778152
41	0x3f967d7741070e48	0.021962989181487452
42	0x3fa07a1a9d087b8a	0.032181579274257535
43	0xbf92c70cb1eec040	-0.01833743892683537
44	0xbfb6f9747731e618	-0.08974388036758574
45	0x3fc769cda2f44d70	0.1829163594889951
46	0x3fa027fd0d700b4e	0.031555087938633805
47	0xbfe4233734cb4ff6	-0.629298785318041
48	0x3fa36b9c507de9f5	0.03793037874762099
49	0xbfb158089cd540e3	-0.06774953679019151
50	0x3fa6ea1a7e541001	0.044754817887252336
51	0xbf539b0e4ac9232e	-0.0011966361590955532
52	0xbf8c7a2a5dcf8310	-0.013904887187835807
53	0x3f9682759764b291	0.021982037892643694
54	0xbfa1e01f41c9f1d3	-0.03491304090582372
55	0xbf845196e8144e90	-0.009921244580744643
56	0x3fe138e2f87140cf	0.5381941654577761
57	0x3fa0b341c9eba691	0.032617622278690146
58	0xbfbdbb8dc57df168	-0.11614309379178211
59	0x3f9d58de064cf66f	0.028659314283905276
60	0xbf9756f9e8a12c2d	-0.022792725394804748
61	0xbfb4cb8d54f30f79	-0.08123095821343708
62	0x3f99423e59b569f9	0.024666761613255848
63	0x3f9ca38068e5a483	0.02796745910874111
64	0x3fc30260cb13f651	0.14851007381359918
65	0xbfc7a56340ed5f36	-0.18473473234438992
66	0x3fa67f4cb16fcd5e	0.04393996873832394
67	0x3fd9455164aa88ea	0.39485583143881675
68	0x3fbb2657c16753f7	0.10605381461876094
69	0xbfcb7024ecde4935	-0.21435987058482345
70	0x3fc08e55a264de89	0.1293437045039705
71	0xbfb743fb8ffdcc27	-0.09088108315863562
72	0xbf871ebac291893a	-0.011289080679664044
73	0xbfa70957a0000000	-0.04499315097928047
74	0xbfd1c10025e39132	-0.2774048204430698
75	0xbfca7e5744de4a7a	-0.2069806181212533
76	0x3fda1ec20413d61a	0.40812731168930017
77	0x3fc7024439f683c4	0.17975666837904047
78	0xbfa95a9115fee607	-0.04951909440519491
79	0xbf74a819151a9c46	-0.00504312322451656
80	0x3fac30cd9fa7415c	0.05505983899968456
81	0xbfad914748fcd959	-0.05774901166880637
82	0x3fe24e52cfcf7652	0.5720609720990046
83	0x3fdb7fa727573fb6	0.4296663173854499
84	0xbfc0cca348a85707	-0.13124505088551805
85	0xbfb38e3d5857481f	-0.0763891544986852
86	0xbfc0dc537d4456da	-0.13172381989050203
87	0x3fd32810fb798320	0.2993204551512907
88	0xbfa81b1b4367408a	-0.0470818061618284
89	0x3fcc98f7fdbd0cbf	0.2234182347257043
90	0xbfbaed495ac1d0cd	-0.10518320527791332
91	0xbfa7a3a8e8c28948	-0.04617050019557439
92	0x3fd1549d3bb1aab1	0.27078944043629877
93	0x3f97726d4977730b	0.022897441491170272
94	0x3f9085d1b2a2e382	0.016135479477017885
95	0x3f5fdcbfb7939db2	0.0019447204816119665
96	0xbfbc7fe0ccd8640b	-0.11132626534562477
97	0xbfac64b09c45b90a	-0.0554557028543617
98	0xbf716066132a639b	-0.004242323617881373
99	0x3fb03faa04f91f3f	0.06347143765844708

layers.3.weight f8 [100]
0	0x3feeacae1f71a241	0.9585791219843217
1	0x3fee153ccfe38ca2	0.9400924740151775
2	0x3fef105f25e6acc0	0.9707484951262799
3	0x3fee88074f8d1350	0.9541050485355331
4	0x3fefc4b871c00a41	0.9927637311632865
5	0x3ff12a4651b10083	1.0728209677763807
6	0x3ff0dab01876a383	1.0533905940630752
7	0x3ff9f187a751754f	1.621467259966568
8	0x3fefb174a720bd33	0.9904120697227995
9	0x3fed409092701af8	0.9141314373126468
10	0x3ff012088ecc2a54	1.0044026926067504
11	0x3ff28f62fca70b4a	1.1600065106619746
12	0x3fee213d819e51f6	0.9415576488123054
13	0x3fef31dbd81e3033	0.9748362752011474
14	0x3feed0bd04ce0344	0.9629807561724211
15	0x3ffc12d036bea74d	1.7545930994478625
16	0x3fef10269f3d436a	0.9707215414183399
17	0x3ff1a46c9b182623	1.102642637097582
18	0x3fec8e101cd37208	0.8923416674620634
19	0x3ff13acc355baf27	1.0768549045851132
20	0x3fee2e42b44b5a0e	0.9431470414518246
21	0x3fdd7806af036024	0.46045081225520534
22	0x3fe5f0043d73034b	0.6855488968068156
23	0x3fef8e5b74a7a759	0.986127593843075
24	0x3fef4a970112f98f	0.9778552075365939
25	0x3feddb709b3a45ae	0.9330370933332028
26	0x3feb45df625d0874	0.8522793694649082
27	0x400154e96d620b47	2.166460852198188
28	0x3ff4f8ba76dd9ec0	1.310724701232104
29	0x3ff256bfc630839f	1.1461789838578864
30	0x3feeef5f341f200d	0.9667202013015427
31	0x3fe3113e8fd09606	0.595855027092228
32	0x3fed69b38a972f63	0.9191529948088654
33	0x3fe344b89b5d19f0	0.6021388086745088
34	0x3feda9f95173266a	0.9269987669769766
35	0x3feeeb8ebbfd0567	0.9662545844695786
36	0x3ff24b79e664a6e6	1.1434267997487324
37	0x3feecf0ecbeb2033	0.9627756102354453
38	0x3ff0390af5d3c696	1.0139264681460296
39	0x3ff610e01c624f25	1.37911997878559
40	0x3fea30b899cba458	0.8184473995035075
41	0x3feec8b74dbba8e6	0.9620014684890321
42	0x3ff01fe11b325822	1.007783037411635
43	0x3fee8bbd1171a3b0	0.9545579281522034
44	0x3ff0bbd73dbfb35c	1.0458595668853468
45	0x3fe296c4fdf0e29e	0.5809044799599012
46	0x3feefbf52af22928	0.9682565535343075
47	0x3f92076da779e009	0.017606461855820075
48	0x3feff933b8dfdbb2	0.9991701708630585
49	0x3fefbc659873f9de	0.991747663268878
50	0x3fec5495435e8ec7	0.8853250804717953
51	0x3ff0798932164eb4	1.0296718555954785
52	0x3ff0ad08ef8e0424	1.04224484993052
53	0x3fee840c77385f3a	0.9536192253608313
54	0x3fef7bf29651d130	0.9838803230218556
55	0x3ff0bdb39419cf38	1.0463138375461778
56	0x4002987d00a9b0c6	2.3244571735177457
57	0x3fef1e4e4d7da01d	0.9724494470110617
58	0x3feb6889326e2430	0.8565107331243151
59	0x3feb24155d539df6	0.8481547186647151
60	0x3ff1697f148dc443	1.0882559588319658
61	0x3fef12a1b099d2db	0.9710243653522314
62	0x3feee931e81cd354	0.9659661801766597
63	0x3feef2d971955c31	0.9671447008539699
64	0x3ffa68212686fb3c	1.6504222397777104
65	0x3ff1355e1aaf5389	1.0755291979196235
66	0x3ff0edc658155001	1.0580504837753326
67	0x400102d5fc2806e1	2.1263847064700347
68	0x3ff20dec88b56907	1.1283994045430192
69	0x3ff510cc3c8fa4a5	1.3166010251682476
70	0x3ff257976eea1ea1	1.1463846523855994
71	0x3ff091f2e089316f	1.0356320162710195
72	0x3fedaf5eba4a4cc6	0.9276574743729717
73	0x3ff0000000000000	1.0
74	0x3ff0c3c46fe097ee	1.047794758816504
75	0x3fa938b059b89f4e	0.04926062674741037
76	0x3ff86a139090bfa8	1.5258975646101849
77	0x3fdcc51f5407f502	0.44953139501724604
78	0x3feefd13cd5bc17a	0.9683932314783725
79	0x3feda146c27b8e84	0.9259370611657265
80	0xbfc41b3b260cd296	-0.1570810256759116
81	0x3ff0228b633108d4	1.0084337114972657
82	0x3ff786a2f299fe88	1.4703702427504215
83	0x3ffcb991d2c2618e	1.7953050835404585
84	0x3feea15240cb6d0b	0.9571925416488808
85	0x3fec21d1a8a9ee08	0.8791282934393516
86	0x3ff11fb84734e275	1.0702441007144021
87	0x3fe96d3a295c7f34	0.7945833976591303
88	0x3fe8c93b1f1927b6	0.7745643241298612
89	0x40006b7665033a5f	2.0524719134912597
90	0x3ff0278ac24b3803	1.0096538152315595
91	0x3ff01ccd80c3a6f1	1.0070319204191345
92	0x3ffa6a226651019d	1.650911712335165
93	0x3fee8f3ecb4865e4	0.9549859972350387
94	0x3ff4103149e1d1a3	1.253953255273793
95	0x3fee3198d6ad2cf6	0.9435543244266273
96	0x3ff2d6fef37b9ec3	1.1774892340708198
97	0x3fc9b4a0a940f09b	0.2008248163637106
98	0x3ff92724392529ab	1.572056029532727
99	0x3fed189bec8523b7	0.9092540378124941

layers.3.bias f8 [100]
0	0xbfd20f1d15b0fea7	-0.2821724616842211
1	0xbfd025ad5830b4c5	-0.252299629329013
2	0x3faff7b7be435cf3	0.06243681142376003
3	0x3fd08783d2052d03	0.2582711745241825
4	0x3f9b0da8f51f10a1	0.02641929622747397
5	0xbfe44179dbf7db77	-0.6329926773313294
6	0xbfbc3f34d55aeb4c	-0.11033945282808338
7	0x3fe3a8b1ef53a4b0	0.6143426584577778
8	0x3fe5a56133157066	0.676437949917738
9	0x3fd79d7cef3971ee	0.36898730623013776
10	0xbfcdf15a5c6f66d9	-0.2339280082076616
11	0xbfe785ed1fc8c4e0	-0.7350984211717808
12	0xbfc491ae47a8102a	-0.1606958246121633
13	0x3fcfa6b675114e0c	0.24727516857329623
14	0x3fb624b547f6b5ff	0.08649762160231232
15	0x3fd461e611f9c1fd	0.3184752631705406
16	0xbfd00fb59b8c50ef	-0.2509588259720336
17	0xbfca823cc3e9580c	-0.2070995289420242
18	0x3fcc8515cec1ea63	0.22281143756466112
19	0xbfd5068fc93269e7	-0.3285254921735529
20	0xbfe328d8eabf113c	-0.5987362465753345
21	0xbfc79531cdf18add	-0.18424055629574002
22	0xbfd9da1b2cedf751	-0.4039371432080446
23	0x3fc822a1efe6dca8	0.18855690206485076
24	0x3fcc4de9ca10ed97	0.22112772337446238
25	0xbfd8e46570f4553d	-0.38894020109849575
26	0x3fde7ccb54ff4246	0.4763668375062803
27	0x3fde04675198ec4f	0.46901877373210693
28	0xbfbb0f26c1dc912d	-0.10569994194935779
29	0xbfe2a4ff7c97d80e	-0.5826413567981505
30	0xbfc8881bf88c8612	-0.19165372501542827
31	0x3fe3049723eec2e9	0.5943103505906865
32	0xbfe2e10add7f2db4	-0.5899710012540056
33	0xbfc802dbdd7d7646	-0.18758724513002017
34	0xbfca754141490af4	-0.20670333564529353
35	0x3fd99e91f8317934	0.4003033565294516
36	0x3fc78301a86901a4	0.18368550036576636
37	0xbfa159615f37dbd4	-0.03388504302341003
38	0x3fcb21ee477c3154	0.21197298517689467
39	0x3fcf46af5e6486c7	0.24434463604943898
40	0xbfd0804cb40f007c	-0.2578307875046517
41	0xbfbea2480bbb0c7c	-0.11966371809380577
42	0xbfd672d0bf8c589f	-0.3507577772701413
43	0x3fd5a90af82aa55c	0.33844255671518453
44	0xbfd577736f16beb3	-0.335415705189898
45	0xbfe3ebdb294ea9b7	-0.6225410277159459
46	0x3fe25b7d403e80f2	0.5736681227463392
47	0xbfe3f017d57e31a0	-0.6230582399162365
48	0x3fbedd0465194596	0.1205599543402712
49	0xbfd42eaeaa85051d	-0.3153492608290252
50	0xbfd88842bd49a6a7	-0.38331669316412803
51	0xbfd52f06823b6109	-0.330995204143179
52	0x3fda124a49f9608f	0.40736634468113037
53	0x3fc1e6e412d445a5	0.13985873145479136
54	0x3fc8a9854c1a040f	0.19267336097621565
55	0x3fb8652c43413a75	0.09529377595866058
56	0x3fe4b34358a504a2	0.6468826991405374
57	0xbfdfa113b8c696b6	-0.4942063621950682
58	0xbfcac270785b297e	-0.20905881764185702
59	0xbfca6ee30fc1c996	-0.20650900143989465
60	0xbfbfb4324ebbd343	-0.12384333059510504
61	0xbfcffc9ed8a24a70	-0.24989686563329228
62	0x3fd8b1554b958077	0.38582355862855117
63	0xbfd3a6ecc7f911b2	-0.3070632889614685
64	0xbfc5c1c7093ac71a	-0.16997611952461328
65	0x3fd9752a91f789d5	0.39777626280388506
66	0x3fe1549ba8029d8e	0.5415781289529364
67	0x3ff3368d7a45c0c2	1.2008185173290689
68	0x3fcb39645adb27c7	0.21268896519023725
69	0x3fdcbf12da2438ac	0.4491622095382677
70	0xbfd1ecf7c84d7cc2	-0.2800883728104503
71	0xbfce3a64fada7536	-0.23615705727289943
72	0x3fdf3ac740e28568	0.487962544788465
73	0xbfcb9c7810783067	-0.21571255497144934
74	0xbfe98e303d0c0b36	-0.798606986267578
75	0xbfdaf4c17aa98781	-0.42118870714886475
76	0xbfe363fbfeb1d010	-0.6059551214698349
77	0xbfd7d4a180fa5393	-0.37235295863620727
78	0x3f94317ffeeb51dd	0.01972007745173864
79	0xbfba600e69d41520	-0.10302820285513237
80	0xbfd6a0c5be4ab9b8	-0.35356277068322184
81	0xbfccf3e2b706de36	-0.2261927980123219
82	0xbfe2bb250207724c	-0.585344795191824
83	0xbfead2cc5a8e7a4c	-0.8382322090799987
84	0x3fd40f11f63666a1	0.3134198097628574
85	0x3fc23253bd1aae72	0.14216086133579925
86	0x3fd6ae7da163c3aa	0.35440006981576266
87	0x3fd75ea3fe069a59	0.3651514034958488
88	0x3fcda942651bc9eb	0.2317278855985728
89	0xbfc8184699bcad1e	-0.1882408381146456
90	0xbfcb6298caabe34f	-0.21394643684450407
91	0xbfd49b57b3329347	-0.32198135852586457
92	0xbfe8919c5548a586	-0.7677747407625908
93	0xbfd53d2a5c4a9815	-0.3318582440646208
94	0xbfe6a564bdbf2705	-0.7076896387090704
95	0xbfc39830bf110082	-0.15308198289313074
96	0xbfedac9b53af258b	-0.9273201593834285
97	0xbfca8be0c99e175e	-0.20739374012571948
98	0xbfe524571fdf7498	-0.6606860754506156
99	0x3fd776cd500914fc	0.3666260987850618

layers.3.running_mean f8 [100]
0	0x0000000000000005	2.5e-323
1	0x0000000000000005	2.5e-323
2	0x0000000000000005	2.5e-323
3	0x0000000000000005	2.5e-323
4	0x0000000000000005	2.5e-323
5	0x40675b1733b6bd8c	186.84658227626312
6	0x0000000000000005	2.5e-323
7	0x406eb1305fa886ee	245.53715498843616
8	0x40630ed758adcd61	152.46378740258936
9	0x0000000000000005	2.5e-323
10	0x0000000000000005	2.5e-323
11	0x404693892b833cb4	45.15262359531462
12	0x0000000000000005	2.5e-323
13	0x0000000000000005	2.5e-323
14	0x0000000000000005	2.5e-323
15	0x40633a8301a01b5d	153.82849198599698
16	0x0000000000000005	2.5e-323
17	0x0000000000000005	2.5e-323
18	0x0000000000000005	2.5e-323
19	0x0000000000000005	2.5e-323
20	0x0000000000000005	2.5e-323
21	0x0000000000000005	2.5e-323
22	0x0000000000000005	2.5e-323
23	0x0000000000000005	2.5e-323
24	0x0000000000000005	2.5e-323
25	0x0000000000000005	2.5e-323
26	0x0000000000000005	2.5e-323
27	0x40703a9293990469	259.6607852914081
28	0x406a7f198543a1ac	211.97186530312808
29	0x407082e9a846f03b	264.1820452471763
30	0x0000000000000005	2.5e-323
31	0x0000000000000005	2.5e-323
32	0x0000000000000005	2.5e-323
33	0x0000000000000005	2.5e-323
34	0x0000000000000005	2.5e-323
35	0x0000000000000005	2.5e-323
36	0x0000000000000005	2.5e-323
37	0x0000000000000005	2.5e-323
38	0x0000000000000005	2.5e-323
39	0x0000000000000005	2.5e-323
40	0x0000000000000005	2.5e-323
41	0x0000000000000005	2.5e-323
42	0x0000000000000005	2.5e-323
43	0x0000000000000005	2.5e-323
44	0x0000000000000005	2.5e-323
45	0x4048a24886cd9e55	49.26783833541837
46	0x0000000000000005	2.5e-323
47	0x0000000000000005	2.5e-323
48	0x0000000000000005	2.5e-323
49	0x0000000000000005	2.5e-323
50	0x0000000000000005	2.5e-323
51	0x0000000000000005	2.5e-323
52	0x0000000000000005	2.5e-323
53	0x0000000000000005	2.5e-323
54	0x0000000000000005	2.5e-323
55	0x0000000000000005	2.5e-323
56	0x0000000000000005	2.5e-323
57	0x0000000000000005	2.5e-323
58	0x0000000000000005	2.5e-323
59	0x0000000000000005	2.5e-323
60	0x0000000000000005	2.5e-323
61	0x0000000000000005	2.5e-323
62	0x0000000000000005	2.5e-323
63	0x0000000000000005	2.5e-323
64	0x407148f7a4bac6b7	276.56045983275857
65	0x40646aa8fb919bb5	163.33312776984317
66	0x4068bd0ab8c187e9	197.9075588016415
67	0x4074b4806dd09a67	331.2813547276077
68	0x0000000000000005	2.5e-323
69	0x0000000000000005	2.5e-323
70	0x405aa1e55c37dfd7	106.5296240373276
71	0x0000000000000005	2.5e-323
72	0x0000000000000005	2.5e-323
73	0x0000000000000000	0.0
74	0x0000000000000005	2.5e-323
75	0x0000000000000005	2.5e-323
76	0x405cadc5b04b2bdd	114.71519095745994
77	0x406d47a6b9ab0c28	234.23910220535004
78	0x0000000000000005	2.5e-323
79	0x0000000000000005	2.5e-323
80	0x40740fc6495b19fb	320.9859098013546
81	0x0000000000000005	2.5e-323
82	0x406febc4b581ee6c	255.3677623307916
83	0x4055bc28db9df17e	86.93999376701501
84	0x0000000000000005	2.5e-323
85	0x0000000000000005	2.5e-323
86	0x0000000000000005	2.5e-323
87	0x0000000000000005	2.5e-323
88	0x0000000000000005	2.5e-323
89	0x40583798aa215907	96.86869290596597
90	0x0000000000000005	2.5e-323
91	0x0000000000000005	2.5e-323
92	0x40724d84d5e7487a	292.8449305567261
93	0x0000000000000005	2.5e-323
94	0x40617369d40d086a	139.60666849656565
95	0x0000000000000005	2.5e-323
96	0x0000000000000005	2.5e-323
97	0x0000000000000005	2.5e-323
98	0x4076460dc6040d0f	356.37836267073084
99	0x0000000000000005	2.5e-323

layers.3.running_var f8 [100]
0	0x0000000000000005	2.5e-323
1	0x0000000000000005	2.5e-323
2	0x0000000000000005	2.5e-323
3	0x0000000000000005	2.5e-323
4	0x0000000000000005	2.5e-323
5	0x4080235ea3454b01	516.4212098516001
6	0x0000000000000005	2.5e-323
7	0x40709a0dd9bbefce	265.62838147557056
8	0x4077307f2ebc158b	371.0310504290616
9	0x0000000000000005	2.5e-323
10	0x0000000000000005	2.5e-323
11	0x406437519de27c58	161.72871298060886
12	0x0000000000000005	2.5e-323
13	0x0000000000000005	2.5e-323
14	0x0000000000000005	2.5e-323
15	0x4072191a9a697205	289.5689949149094
16	0x0000000000000005	2.5e-323
17	0x0000000000000005	2.5e-323
18	0x0000000000000005	2.5e-323
19	0x0000000000000005	2.5e-323
20	0x0000000000000005	2.5e-323
21	0x0000000000000005	2.5e-323
22	0x0000000000000005	2.5e-323
23	0x0000000000000005	2.5e-323
24	0x0000000000000005	2.5e-323
25	0x0000000000000005	2.5e-323
26	0x0000000000000005	2.5e-323
27	0x4076583d0c81c115	357.51490450558896
28	0x407b4a0212871e9a	436.6255059507472
29	0x40870079d761fa0b	736.0594928411896
30	0x0000000000000005	2.5e-323
31	0x0000000000000005	2.5e-323
32	0x0000000000000005	2.5e-323
33	0x0000000000000005	2.5e-323
34	0x0000000000000005	2.5e-323
35	0x0000000000000005	2.5e-323
36	0x0000000000000005	2.5e-323
37	0x0000000000000005	2.5e-323
38	0x0000000000000005	2.5e-323
39	0x0000000000000005	2.5e-323
40	0x0000000000000005	2.5e-323
41	0x0000000000000005	2.5e-323
42	0x0000000000000005	2.5e-323
43	0x0000000000000005	2.5e-323
44	0x0000000000000005	2.5e-323
45	0x4077d59327d6786d	381.3484266641379
46	0x0000000000000005	2.5e-323
47	0x0000000000000005	2.5e-323
48	0x0000000000000005	2.5e-323
49	0x0000000000000005	2.5e-323
50	0x0000000000000005	2.5e-323
51	0x0000000000000005	2.5e-323
52	0x0000000000000005	2.5e-323
53	0x0000000000000005	2.5e-323
54	0x0000000000000005	2.5e-323
55	0x0000000000000005	2.5e-323
56	0x0000000000000005	2.5e-323
57	0x0000000000000005	2.5e-323
58	0x0000000000000005	2.5e-323
59	0x0000000000000005	2.5e-323
60	0x0000000000000005	2.5e-323
61	0x0000000000000005	2.5e-323
62	0x0000000000000005	2.5e-323
63	0x0000000000000005	2.5e-323
64	0x4071ed8f61d2a234	286.847505400455
65	0x4086400984de8173	712.0046479590659
66	0x40770ef96a88241d	368.93589261226754
67	0x406cd3d2a06ea05f	230.61946126562813
68	0x0000000000000005	2.5e-323
69	0x0000000000000005	2.5e-323
70	0x405f8ac082417100	126.16799980536234
71	0x0000000000000005	2.5e-323
72	0x0000000000000005	2.5e-323
73	0x0000000000000005	2.5e-323
74	0x0000000000000005	2.5e-323
75	0x0000000000000005	2.5e-323
76	0x408d436e54751296	936.428872027044
77	0x408178f6ab7015a4	559.1204441792111
78	0x0000000000000005	2.5e-323
79	0x0000000000000005	2.5e-323
80	0x408d1bc7576f1697	931.472334735753
81	0x0000000000000005	2.5e-323
82	0x408612824f4a207d	706.3136277953305
83	0x4068b1febc18dd3c	197.56234555107392
84	0x0000000000000005	2.5e-323
85	0x0000000000000005	2.5e-323
86	0x0000000000000005	2.5e-323
87	0x0000000000000005	2.5e-323
88	0x0000000000000005	2.5e-323
89	0x40788e5030c3cc3b	392.89457775577074
90	0x0000000000000005	2.5e-323
91	0x0000000000000005	2.5e-323
92	0x408a782d9a3c0978	847.0222668352499
93	0x0000000000000005	2.5e-323
94	0x4089c1f47d527d7c	824.2443796581788
95	0x0000000000000005	2.5e-323
96	0x0000000000000005	2.5e-323
97	0x0000000000000005	2.5e-323
98	0x40812692534b8b6d	548.8214479352879
99	0x0000000000000005	2.5e-323
