model_policy_epoch-210.pt (torch, 373906 bytes, 28 tensors)

layers.0.weight f8 [128, 128]
-1.232559134914669 -0.5243031017052351 -0.09822982825679465 -0.3982412720418784 -0.43099799763412966 -0.4170958004960112 -0.4080068638336132 -1.5107484729960776
-0.8296005477642547 -1.485655904248157 0.002355515964603356 -1.295892149306466 -0.5172802559195862 -0.4334896340071701 -0.7828668559052885 -0.3749026902620889
0.11450825597219737 -0.46033559661217743 -1.3868651920226562 -0.07587561390704149 -0.12568628225587958 -0.8320255790906931 -0.4777285052450474 0.5911486929138516
-0.708637834454407 -2.7227630658517956 -1.2743082645917376 -0.8823250983639557 -2.6170767012384775 0.09250959240410786 -1.506634110823446 -1.0551423028792162
-1.8711985471805757 -0.18893687402144363 -0.12907304904640512 -1.2162846607596596 -0.03191059508197346 -0.3282344816396511 -1.1498253790185229 1.0620382763518579
0.6453827644852692 -1.3179278416255171 -1.10942112945638 -0.6820717849520485 0.29879088610685023 -1.5872278109095759 -2.151915477434026 0.27750893772603746
-1.1027069114953638 -0.533001842867559 -3.7022961414930204 -1.6923151208600262 -0.5728510050173891 -0.012615879625390227 -0.7589567508470075 -1.6257184230080028
-1.2602072564508042 -1.1387157690036402 -2.1264521922489537 -1.8914579697453378 -1.4062220172784172 -0.5873748649767961 -2.032785444382905 0.24127456019219354
1.957565159879235 0.30839496612808587 0.17730046199504557 1.0313469188833635 0.7543831412127823 1.0380779496485344 0.7988644187863563 0.07276392583897727
-0.6997495890202818 1.138437353596434 1.0378630466894347 2.119457275850217 2.2565320986127118 -0.7924673342904639 1.8362921437626492 1.023682433213001
-0.10167562072930407 1.7255735904028733 1.8527477423579979 0.5002862405384663 0.6749124262837582 0.4092612864473231 0.5756836485667137 -0.6164621351740432
0.9122782424488902 0.5606282492873137 1.571927940490406 -0.12057239933734232 1.3847802903318265 0.11422754000110798 2.1826576499962593 0.4023974640799224
2.504638612364599 -0.3315478531270921 0.3339846220751569 1.6196012401366533 -0.017649825466463497 0.09470817070157972 -0.5633519026692659 -2.3880094838204
-0.5984312416370376 1.6915785855857035 2.4683079605863765 0.07385056172193113 -0.19455627865110187 1.581003079451801 -0.4691934455189331 0.01790384866653167
0.6221940015203252 1.2046702162178744 -0.07638445767853597 -0.2472359507940264 -0.9550042443711086 0.7274186589378233 0.6484387963980134 1.0347117110589097
2.500330578537937 1.0330750121529246 1.0982305017972045 2.6426004848836246 1.9114773069646742 -1.4220885787236797 0.7508438163088171 -1.433401860625066
-1.4534983612471186 -1.1201883663619523 -0.5069466291435835 -0.5775221765958832 -0.5352337046859903 -1.1815745015186307 -0.757883658243663 -0.9527243247570443
-0.7106149224234016 -2.219392068088141 -1.2903757136611296 -1.0263772039105004 -1.15234354866713 -0.7553361947957056 -1.1758449623429412 -0.725566651814929
-0.5883368353186857 -1.0359691388163412 -1.434105570046192 -0.6863360148864548 -0.6462361641031106 -1.04076936576929 -0.3496341003243134 -1.084362458646381
-1.0247750239751705 -2.3725359137988704 -1.2888906389850003 -0.2615602263422436 -2.021565428875469 0.09443779363042415 -1.7179501593862847 -0.582010687183396
-1.8759562999871922 -1.0410354256099184 -0.17793289820967925 -1.2842340005758102 -0.7157928777203235 -0.5412407012642767 -1.3952730497651056 -0.15138113203088863
-0.1864260367096652 -1.3301420928555328 -0.936116957041208 -0.6296331760937994 -0.17711631544275902 -1.3772419784821879 -0.4338758869702058 -0.7225714276035291
-0.32183495507631754 -0.9538270281522283 -3.9391382097734153 -1.6642860291063752 -0.8201273500403701 -0.3885199900218956 -0.3483250633091373 -1.7238781676183859
-0.49561228550615 -0.5648707986148301 -1.5621797052378488 -1.7661690728925106 -1.478009979707873 -0.35612895446421994 -2.3139030546895283 0.3053381451116577
1.5657484969527078 0.23594999764444186 0.16931136704192906 1.001527827104694 0.6422931250130614 1.13952849631436 0.09684311123976903 0.02212389811085176
-0.3940596010243899 1.5119870032255387 1.6075686994651095 1.7593626334339991 1.6552612671763127 -0.1222680064996989 1.5411692742908578 0.7414742058082744
0.4447710260413042 1.22400715486935 1.1335040527005307 0.3429042901479793 0.5695114197425668 0.6439443704629683 0.5072811755947358 -0.269499176104775
1.7591737576690747 0.97472710912857 1.0214798159869898 -0.14679823490043542 0.8392078854483188 -0.2252426729499932 2.2172626569110947 0.2528830665203177
2.345240530945959 0.5052199030870697 0.20477183452809183 0.6512989237003093 -0.285880965676798 0.1125238113119853 -0.4279649968016229 -1.2506708533959534
-0.31939245629448443 1.3359743941877917 1.5614824470200233 0.7914237431445657 -0.7384672947097112 0.9798720018128627 -0.8417780420780312 0.5423527641744607
-1.093432686821202 0.8766777329460207 0.9431539612487438 0.18353598068868787 -0.06464182175827246 -0.0286463464968723 0.24698590158917888 0.6547354682025763
0.19455919728375645 0.6921313766238175 0.8043003121928677 2.169860345028208 1.4846594063241083 -1.0727544695097937 1.375279822264378 -1.8652596120517584
00000000: 4c83 6ded 8fb8 f3bf b87d 604c 17c7 e0bf
00000010: 03c9 da0b 9725 b9bf 7096 d5f5 c87c d9bf
00000020: 81b9 1ea0 7895 dbbf cb79 9b95 b2b1 dabf
00000030: 845e 2dd2 c81c dabf 6100 4097 062c f8bf
00000040: 6284 ac72 168c eabf a9ae 1d20 3fc5 f7bf
00000050: dbc9 0f01 e04b 633f 77a1 0668 f9bb f4bf
00000060: f650 c152 8f8d e0bf c0cf 4d4e 4bbe dbbf
00000070: b289 e7ca 3e0d e9bf f0ea 76da 67fe d7bf
00000080: 17c8 85be 6950 bd3f a592 286f 2376 ddbf
00000090: 4a2b 3b8e 9930 f6bf 3b6f 4b90 956c b3bf
000000a0: 5223 ecf3 7c16 c0bf dd28 741b f49f eabf
000000b0: 8e3e 9994 1a93 debf a46b e4a9 b0ea e23f
000000c0: fd13 7640 29ad e6bf a4b8 9400 38c8 05c0
000000d0: bd1a 1710 9163 f4bf b638 3dd8 013c ecbf
000000e0: e78a d7e8 c5ef 04c0 8a22 f169 b5ae b73f
000000f0: 5665 905e 2c1b f8bf b5e0 37e5 dce1 f0bf
00000100: 9e69 47e3 6df0 fdbf ff1c 775f 152f c8bf
00000110: 1f83 3936 7785 c0bf 556d 89e7 e675 f3bf
00000120: 4fc3 8be4 9556 a0bf c2f4 0333 cb01 d5bf
00000130: ffec ef4b af65 f2bf c780 00d9 1bfe f03f
00000140: beb8 5bc1 f9a6 e43f b94f 2481 3b16 f5bf
00000150: c41a c85e 30c0 f1bf ad96 3c35 88d3 e5bf
00000160: 7cfe 0acf 631f d33f 6688 32fd 4865 f9bf
00000170: d5ae 3a76 1f37 01c0 d262 f8d8 b4c2 d13f
00000180: cf21 9f00 b0a4 f1bf 5d5d 7ae1 590e e1bf
00000190: 5c8e 7e70 4d9e 0dc0 eeeb 2905 b913 fbbf
000001a0: 2ff9 80a1 cb54 e2bf 3be9 35b3 5ad6 89bf
000001b0: 13ec feaa 5f49 e8bf 602f 3552 f102 fabf
000001c0: 9d35 8a15 cf29 f4bf 46f6 b406 2e38 f2bf
000001d0: edbb f15d f902 01c0 5a09 9d6e 6943 febf
000001e0: e303 72a8 e27f f6bf 0d2b 725f c6cb e2bf
000001f0: 7646 db03 2543 00c0 b9ed b0b4 15e2 ce3f
00000200: 7486 57d8 2f52 ff3f a15a 713d bebc d33f
00000210: 00ce ea12 c8b1 c63f 59f3 76a0 6580 f03f
00000220: 6d34 051d e823 e83f ec06 c79f f79b f03f
00000230: ac03 141d 4c90 e93f 0796 ce19 a8a0 b23f
00000240: de68 0740 5964 e6bf 12dd 2316 0a37 f23f
00000250: f220 3448 169b f03f 125e 2804 a6f4 0040
00000260: a653 6fb3 600d 0240 7fa0 7d74 e45b e9bf
00000270: 04cc f5de 7361 fd3f 923b c2d4 0061 f03f
00000280: 5b36 d5d9 6907 babf 3df2 990d f39b fb3f
00000290: 9fa5 12d1 daa4 fd3f 4e0c 384a 5802 e03f
000002a0: 26b0 d1f1 e198 e53f 59d9 3340 5631 da3f
000002b0: a7f3 6d1d 006c e23f 636f b9cc 0eba e3bf
000002c0: 7273 0524 6231 ed3f 4fe3 7ca7 aaf0 e13f
000002d0: e832 81e9 9d26 f93f 5842 f42f d5dd bebf
000002e0: e5ed b160 0f28 f63f 6577 9b1c 043e bd3f
000002f0: 02c9 c836 1576 0140 ccdc 0d4b e1c0 d93f
00000300: fa3c 03f8 7f09 0440 105a 8f7c 1438 d5bf
00000310: 8280 4b09 0160 d53f e12a 6ffd e2e9 f93f
00000320: d35f a2bc cb12 92bf fcc7 d36f cb3e b83f
00000330: ec52 c391 fa06 e2bf 265f 5cb7 a41a 03c0
00000340: 448b 7746 5926 e3bf c545 fbb4 b410 fb3f
00000350: 4966 793e 18bf 0340 6e0d 63d3 dee7 b23f
00000360: 66db 045b 38e7 c8bf b2ee 91e2 c94b f93f
00000370: 8916 00f2 4307 debf 722c fbf1 6255 923f
00000380: 6d82 0965 03e9 e33f b2ef d146 5446 f33f
00000390: 00ea a68b ee8d b3bf bd24 8779 6da5 cfbf
000003a0: eeae a30f 658f eebf 8e6b d47e 0347 e73f
000003b0: 1496 ffb7 02c0 e43f 5a94 fcdd 2d8e f03f
000003c0: d712 8051 ad00 0440 922f f8a9 7987 f03f
000003d0: c304 8b25 5a92 f13f 54c0 17b9 0b24 0540
000003e0: d259 873a 6995 fe3f 1a22 1af4 dfc0 f6bf
000003f0: 0c68 6e9c e906 e83f 3790 16ca 36ef f6bf
00000400: 1689 657f 8741 f7bf e525 eea2 4aec f1bf
00000410: f7a6 1f23 e838 e0bf b335 a6c9 0f7b e2bf
00000420: e8fb 2a6f a220 e1bf d9f5 1caa bae7 f2bf
00000430: 3a8a ca3a 9540 e8bf 10ed 1db9 b77c eebf
00000440: 7375 7b81 5bbd e6bf e185 eba0 50c1 01c0
00000450: a9a2 1b01 61a5 f4bf 057d c280 0a6c f0bf
00000460: b282 f4c9 ff6f f2bf 983e c4cf b62b e8bf
00000470: 59de a6ce 42d0 f2bf 79a0 138e d737 e7bf
00000480: 843a 57c5 a7d3 e2bf 801a 2e60 5493 f0bf
00000490: dfc1 a5ae 18f2 f6bf 2a23 40f2 76f6 e5bf
000004a0: 5717 ca76 f7ad e4bf 3286 4ac7 fda6 f0bf
000004b0: 5265 9db4 6760 d6bf 7c57 0e73 8c59 f1bf
000004c0: 11b2 db7e 7a65 f0bf 20d0 f21b f4fa 02c0
000004d0: 58fa 68ca 4b9f f4bf 3bc1 841a 67bd d0bf
000004e0: 70f4 dd7e 2a2c 00c0 6029 2643 132d b83f
000004f0: a48d 6b4e b97c fbbf 6901 6ce0 d49f e2bf
00000500: f5b8 d2c0 ea03 febf 7a8d 2fc3 14a8 f0bf
00000510: 7fb6 5855 81c6 c6bf 4c26 8ef3 388c f4bf
00000520: b097 1077 c6e7 e6bf ad36 e604 d851 e1bf
00000530: 71b3 5bd5 0953 f6bf 8fed a6f9 7460 c3bf
00000540: 753c 65f1 cedc c7bf 658f 3d13 4348 f5bf
00000550: 0623 778c abf4 edbf 5295 7979 f425 e4bf
00000560: e613 3557 bfab c6bf 3a26 84e2 2e09 f6bf
00000570: 79d7 435e 9fc4 dbbf 1a99 521d 4e1f e7bf
00000580: 60cb b0a3 f198 d4bf d68c 7e42 c085 eebf
00000590: da34 cbe4 5a83 0fc0 b239 2363 eaa0 fabf
000005a0: 2650 5fb6 7b3e eabf 571f bff2 82dd d8bf
000005b0: 4d8d d234 f54a d6bf 9859 0346 0195 fbbf
000005c0: a4a9 6f97 1cb8 dfbf df83 d0ec 6b13 e2bf
000005d0: 2f8b 8725 b0fe f8bf c57a 7480 3a42 fcbf
000005e0: 6b1c e0ca eda5 f7bf a547 2519 d1ca d6bf
000005f0: 560c d09a df82 02c0 b074 de00 a98a d33f
00000600: c1c4 c24b 4e0d f93f 4ee4 af09 9c33 ce3f
00000610: 28a0 24b0 feab c53f 7a2d f70a 4206 f03f
00000620: 3d0e cc4f aa8d e43f d57b 883b 823b f23f
00000630: 7521 9ecb b5ca b83f b473 62ab a5a7 963f
00000640: a3c5 c4c2 4538 d9bf b14a ad48 1931 f83f
00000650: 146a e4f4 99b8 f93f 9574 c66e 5926 fc3f
00000660: 79b9 0d3d f37b fa3f 1669 43c1 f44c bfbf
00000670: 5dde ea1c a1a8 f83f 86c5 181d 28ba e73f
00000680: ab91 c3e4 2077 dc3f eabd c386 8895 f33f
00000690: 41b7 4325 d522 f23f a0fe f5d5 24f2 d53f
000006a0: 74c5 4f03 7039 e23f c19d 7239 319b e43f
000006b0: 4fc9 61bb a53b e03f 21d0 ea78 793f d1bf
000006c0: c0b8 d261 9325 fc3f 296b 07e8 f630 ef3f
000006d0: f202 3338 fb57 f03f bc02 01d9 48ca c2bf
000006e0: 8d77 d17e cada ea3f 9fee fd7c c0d4 ccbf
000006f0: 0d9a 3034 f4bc 0140 6daf 1a75 3c2f d03f
00000700: 2355 ad77 0dc3 0240 1a83 21ee c22a e03f
00000710: 7a54 38a6 f635 ca3f 7ccf 26d7 70d7 e43f
00000720: 245e 88ad df4b d2bf 5033 9b49 5cce bc3f
00000730: 3220 464c c763 dbbf 2456 d670 bf02 f4bf
00000740: 4eee 970e ed70 d4bf 9747 b5af 2660 f53f
00000750: 33aa b304 d5fb f83f 9aae c2e2 5753 e93f
00000760: a333 fe29 86a1 e7bf 6dac 4187 1c5b ef3f
00000770: eee9 2681 d8ef eabf c7c8 202f f45a e13f
00000780: 3e64 e445 b37e f1bf 7c4e 0476 be0d ec3f
00000790: a4ff 5437 512e ee3f ea3d 5965 1b7e c73f
000007a0: 1ed8 67ce 5d8c b0bf 0d72 6ac5 7755 9dbf
000007b0: 4005 f3e8 3b9d cf3f 14c3 eecb 97f3 e43f
000007c0: a320 bcd6 50e7 c83f ea4f 64b3 f025 e63f
000007d0: 99fd 2002 d4bc e93f 7744 96bd df5b 0140
000007e0: ecc5 bd38 2ac1 f73f 15eb 3297 002a f1bf
000007f0: 4f96 376a 2501 f63f bffd 8476 1ad8 fdbf

layers.0.bias f8 [128]
-2.337387564863324 -2.475452369617407 2.2112446827190624 0.4947325116358442 0.09617173166906631 -2.0341499537130927 0.7884046526828835 2.0511812480715728
-0.16691961478447084 0.42448040881519217 1.0168050824475827 1.4947668454274363 -3.7570540243364374 -2.280617575577876 -0.5556393240890204 2.8457903348733593
1.7142452420418683 -0.22191774903277833 2.2055868773416876 -0.7020895554798516 0.9770789969721604 -1.2612763822504744 0.2701152138482698 -0.7021690897259897
0.7077218289282852 -2.9544161424523185 0.7317225982182142 1.3341005030180115 -1.2625958428324495 -1.0512401366902515 -2.197853449792535 1.2393974782939534
0.4831313972274025 0.41832547324392755 0.9088049528970353 0.3395544975253406 2.232787074957126 -2.580434632251628 -0.8212340866513812 -1.1268075219440272
-0.4360249382305053 1.7474208189383322 -2.0638343819759695 -0.7032383348466641 -2.5645381831981515 -0.25956727356659665 -0.10175563175864953 0.7009920736752515
0.38429618265709314 0.12663407799700718 -2.509655025134527 0.3498902941530456 1.684462889111209 2.3946161453796617 -0.7996475630066794 1.0924347921679058
1.690430416311466 0.7537277197390453 0.0817478231976265 -0.5690350706586306 -2.0157972721531574 1.919325245227282 1.366953191379131 0.6053716736433796
-0.68946537573805 0.35809125334170744 -0.3016601132949982 1.0078132591578997 0.9302078974605383 1.74704910400531 -2.1502561952937427 0.9445315741849374
-1.5902261977383962 -0.5346392571195877 -1.9915641125054977 1.8299338385313624 -0.7192287217145602 -0.3268496636567072 -1.3070257825593152 1.880615116681921
0.2629906509956663 -0.4928069643677151 2.214692731058634 1.016733910061521 0.8717386859851772 -0.8849955160165537 -1.149502463762693 -2.144264756817637
2.096734120302572 -2.021490957426424 -2.1848914544906655 -2.317172172533674 -2.386140478864717 -0.15288487599912884 -2.504569295898762 -0.4352508755918127
-1.472458107803544 0.950317560708185 1.993846446120954 0.8763615756182962 0.6689672133242763 -3.2318957666906942 0.7526788795771321 -1.1952772596536383
1.9108002751786641 -0.5100926664845377 -2.203545767388853 -0.6370674892141693 -0.265464888464998 1.9989201681541662 2.0049545953985546 -1.5811291389260138
0.009842641300445536 -1.5354216505377745 -0.9156047993188019 0.3468164619578904 -0.09278349722047168 -1.272719035872195 1.7723410995066298 -0.04486242055536509
-1.6469856240213074 0.7909526987671035 1.2369513181824112 -0.7079411841403063 0.29104522468673616 0.9377924756083789 -0.36837198509127156 0.20545115561758492
00000000: 0952 6940 f8b2 02c0 ef7f d2f8 b9cd 03c0
00000010: b0db 5d0d a1b0 0140 e69b 6f8d b2a9 df3f
00000020: e67d 51ea b59e b83f 76dc 3269 f045 00c0
00000030: ef30 e964 9c3a e93f 4216 d5b6 d168 0040
00000040: 4db5 4737 9f5d c5bf 7dda 69e0 af2a db3f
00000050: a04d f867 d544 f03f 4618 c4a3 90ea f73f
00000060: 39a4 1e57 720e 0ec0 7b51 6e6d b43e 02c0
00000070: 35af aa1e ccc7 e1bf 866e 1cb9 2dc4 0640
00000080: 7c4b 3e6b 8c6d fb3f 3eb5 3f01 cd67 ccbf
00000090: c05a 95bb 0aa5 0140 c2c5 f483 8477 e6bf
000000a0: 3f53 332c 3b44 ef3f 4cba cf24 302e f4bf
000000b0: e757 6852 9149 d13f af53 944f 2b78 e6bf
000000c0: 7e31 bd3f a8a5 e63f 84db 34ee a4a2 07c0
000000d0: 91ec a282 456a e73f d4a1 e0c4 7958 f53f
000000e0: ad7e d0b2 9733 f4bf 363c 752d e1d1 f0bf
000000f0: e613 8230 3495 01c0 4547 4073 92d4 f33f
00000100: 74cc b0f3 9feb de3f 2aa6 aa34 d8c5 da3f
00000110: bb56 e41f ee14 ed3f f02f 85c9 42bb d53f
00000120: 96fa 4e78 bfdc 0140 69e4 97e9 baa4 04c0
00000130: 4ce6 10b5 8c47 eabf b12e fa52 6707 f2bf
00000140: 2d30 7c24 d5e7 dbbf e808 5b88 6ff5 fb3f
00000150: c993 b799 bb82 00c0 a9b7 2eae ed80 e6bf
00000160: 3e6f 5198 2c84 04c0 9125 c50d c09c d0bf
00000170: f753 9636 a80c babf fc17 e6ed 866e e63f
00000180: d359 1f04 4f98 d83f 7f33 c7a3 8b35 c03f
00000190: 0e8f 8903 c613 04c0 46cf a442 9a64 d63f
000001a0: deee c05b 8ff3 fa3f a908 7782 2c28 0340
000001b0: bd12 6e7c b696 e9bf bafa 95e7 9c7a f13f
000001c0: e78a a3c3 000c fb3f 74c5 4b98 891e e83f
000001d0: be2a 27e3 6ced b43f 1130 5809 8935 e2bf
000001e0: 4f1c fa51 5a20 00c0 b536 6a63 8eb5 fe3f
000001f0: dd2d 424f 0adf f53f a423 876a 345f e33f
00000200: ea9d 10b1 1910 e6bf ae85 8593 f7ea d63f
00000210: de04 4738 664e d3bf 02ef c8cb 0020 f03f
00000220: aa5d 425a 43c4 ed3f b157 e3c2 e9f3 fb3f
00000230: d076 2685 b933 01c0 103d a547 9a39 ee3f
00000240: 2276 8806 9171 f9bf 4c90 8fc9 c31b e1bf
00000250: f492 b154 72dd ffbf 0960 65b4 6847 fd3f
00000260: 1774 c3f3 eb03 e7bf 5a4e 07da 1aeb d4bf
00000270: e3ef f1dd 93e9 f4bf 7531 68e0 ff16 fe3f
00000280: 5c87 4bbd d6d4 d03f ecd2 cc38 268a dfbf
00000290: a1af 94d2 b0b7 0140 cd2c c7c6 8a44 f03f
000002a0: f4db 5e87 48e5 eb3f 4eba cc1d e251 ecbf
000002b0: db83 08b2 5c64 f2bf 27fa e347 7427 01c0
000002c0: e2da d889 1cc6 0040 2373 7a73 032c 00c0
000002d0: 3bc7 f25e a87a 01c0 00de 6190 9189 02c0
000002e0: fe15 c3d1 d016 03c0 2911 3c4b bb91 c3bf
000002f0: 819b 83a0 5b09 04c0 8738 0e7d 26db dbbf
00000300: b2f0 9b3b 308f f7bf f9cb 815f 0069 ee3f
00000310: 7c5d f587 cbe6 ff3f 370d 586e 270b ec3f
00000320: 645e eaed 2d68 e53f 9723 f02a ecda 09c0
00000330: fd8e 8504 f215 e83f 89d6 3d0c db1f f3bf
00000340: 5948 314f a392 fe3f 7560 0fdb ad52 e0bf
00000350: 1065 719a dca0 01c0 4da1 f05b db62 e4bf
00000360: 8d61 8c71 60fd d0bf 6897 d8b6 93fb ff3f
00000370: 179d 89a2 250a 0040 b509 6711 4e4c f9bf
00000380: fcf1 eef3 6028 843f d114 ea4a 1691 f8bf
00000390: 1451 a46f a24c edbf 54b5 74ac 3d32 d63f
000003a0: 7ba1 2bc6 a8c0 b7bf 6a15 c1a2 0e5d f4bf
000003b0: 71cd 3b57 825b fc3f 169a 350a 35f8 a6bf
000003c0: 6c75 0299 0d5a fabf 9f67 bc08 7c4f e93f
000003d0: 9766 2577 8dca f33f def8 2b45 74a7 e6bf
000003e0: adef 6b26 7ca0 d23f 1c88 a55d 6502 ee3f
000003f0: f2b1 2e17 6893 d7bf 8ac6 2635 394c ca3f

layers.1.weight f8 [100, 128]
-0.05261163714031112 0.043856121655677295 -0.029926756151661363 -0.10077144523351601 0.11771097105306962 0.011609530330007922 -0.07807138586432612 -0.11658209205079913
0.10745128367169363 -0.021803165602445232 -0.028990306605892142 0.06789254034174687 0.036173022523290306 0.07249015589309463 0.041345516978161814 0.03987335686474679
-0.05389313441173228 0.058285895671782294 -0.022013075877405325 -0.21299609077307166 -0.04469412435236504 -0.03689040922194189 -0.1154258196263856 0.12897540667326543
0.09611236629514786 -0.0007657200841097988 0.13882611993037086 0.06027652599511887 -0.013207390231469324 -0.11909350886588499 -0.07592372575267536 -0.08988760960106125
-0.06497843826016647 0.006617160977586743 0.10485443172994967 0.16256778756524223 0.012869283794161362 0.02024312924587026 0.06275447785614999 -0.013811157333784697
-0.06914811773190323 0.19957889917162275 -0.15854670275893248 -0.004453888434471127 -0.07492804880345505 0.24567576320317652 -0.06401833694620979 0.2538581116848433
-0.1606626484328763 0.04542385205622159 0.004098740054795778 0.065691197496429 -0.052622143637189846 0.02231323043732208 -0.03938313980753685 -0.024995145939501848
0.0014944175051989097 -0.10723472442074178 0.057431398240811594 -0.06696404914777125 0.12455815018399712 -0.010363580525615418 -0.10329083238054085 0.033828643487628096
-0.06636911288641631 0.003849525822312353 -0.020389505632734985 0.06880610926337115 0.029502876219844067 -0.12346771539475815 -0.19807975877322698 0.1267707866559948
0.07123598806838978 0.07499631357540247 0.015127494904675787 0.02568958381304476 -0.019811332985368434 0.09344081938808106 0.010312540507794357 -0.05019315736168855
-0.11929139586717351 -0.1619412965507035 -0.12663922487252965 -0.06347844103397901 0.1622381354691993 -0.07635864617434601 0.20448360579176736 -0.021897409205367303
0.08743293460618463 -0.1421464600493251 0.06829993284494115 -0.028418313038891974 -0.06366031645204263 0.021993889662307486 -0.08507204888497459 -0.02013461513703776
0.00561683948791497 -0.0668264385135461 4.1316369605897146e-05 -0.07393492753360609 -0.0678335546046234 0.08152719847645275 -0.13859041304037886 -0.023419178003850818
0.012120467180666497 -0.10410066011621023 -0.012639404391815889 0.030033241299651646 0.14725887048301492 0.06827356942504025 -0.023893465531577417 0.024727886956731778
0.022708227896539302 -0.03422291863720732 -0.07182422380259265 -0.021329059512159715 -0.07125987301576475 -0.06258576838030254 0.05012818033900747 -0.07794400488395752
-0.022298110675928105 -0.028947780478552898 0.14291368541257327 0.03447322253576388 -0.11651298390019649 -0.03753998710956816 0.1231876050696159 0.1419209805821952
0.17052765789780314 0.8513494116141648 -0.19807918313006323 0.43193300644382093 -0.6439076519026106 0.5368019965062418 -0.697409169432715 -0.8799660843728324
0.057868061962651075 -0.3293768294518639 -0.2767207756279021 -0.13861543621158962 0.9719005443008712 0.29417605917272255 0.046869987615154256 -0.3048796917918705
0.07034039340711257 0.44219665156964943 -0.4575908759679681 -0.2961541142611359 -0.676346348909818 -0.015902159269070255 -0.1796320086558827 -0.48968158393515315
-0.17262932571635298 0.7509054286653004 0.3311270361368914 0.046656723991274754 0.3102485509758533 0.21150925577731883 -0.10120823807681169 -0.5011402098927087
-0.9969021939544868 0.10118421447176888 0.4008943464038841 0.17130385430084577 -0.8598515092878111 0.7276234988301657 1.7428030031111512 0.3387542851138851
-0.3232025255181676 -0.024682665694898583 0.008776371810500528 0.09798618466298117 1.1959601806822695 -0.09091575432839429 -0.43565283256405757 0.2865172333948539
0.6965659330037856 0.3421121329489644 1.1507359119289575 -0.8555438309026446 -0.7831426726915682 0.31685846408806406 -0.06724962321401681 -0.7388992883551884
-0.898436821704129 0.1607418424437753 0.9135126717139309 -0.26336653223661477 -0.04820588487754729 -0.9800118824966418 -1.0582528578556907 0.005303133471321756
0.4685424277904962 0.5688823037628654 0.09130687865798727 0.04348973268093737 0.5624289897974174 -0.19292315946829727 0.46383984091269653 0.2810700635525665
0.3628441139820663 0.36449689193002555 0.802506306171251 0.11698574832855452 -0.12488275895643787 -0.1443444952643458 -0.6059139416849059 -0.5688029487758176
0.08936146514101515 0.5369307832802181 0.2677137980130544 -1.5634997676793878 -0.4269420540346036 -0.05164257540178452 0.12331330219278454 0.06791104752221279
-0.24739939535450758 -0.33858762285733046 0.5169436430648373 0.4195460587441637 -0.26841695718325154 1.096164704023328 0.23298209672730577 0.5383299651388638
0.5173787137076375 0.09662157901662628 -0.3203503228190271 -0.13593644289781517 -0.901217202024127 0.6622280321020708 0.27004435666824783 -0.4495767052300662
-0.4675761888420264 -0.1650943200775835 1.568229474469585 -0.44710144162642773 1.2190990083662119 -0.45392824666292086 -1.9646569198665311 -0.6566350510911958
-0.35052013981316216 0.5161964508708616 0.32034565875046017 -0.2618263073876714 0.5635842215825343 0.0402395954471911 0.19335656290659348 0.16100352596909345
0.29982991404953885 -0.7587346885762125 -0.19435961637037222 -0.8027212387755581 -0.09607426065990211 -1.5229743549043249 -0.18064323163625287 -0.8038271251607901
00000000: 1d35 d099 e9ef aabf ed26 7b40 4f74 a63f
00000010: 7479 c99b 1ea5 9ebf 110b a64d 28cc b9bf
00000020: 79a7 0d63 4e22 be3f 13e5 b6c8 bcc6 873f
00000030: d569 0a81 7cfc b3bf 3d4e a8f0 52d8 bdbf
00000040: 0e7c 4865 ed81 bb3f 64db d8ac 9153 96bf
00000050: 12e1 178b a2af 9dbf 7900 69d0 6761 b13f
00000060: 5952 7839 4585 a23f a2c0 d700 b78e b23f
00000070: 42cc 8356 3d2b a53f 8e80 6ed7 476a a43f
00000080: 32fd 8d83 e197 abbf 4bed 741f a6d7 ad3f
00000090: 454a e983 988a 96bf 8fe9 05b6 7443 cbbf
000000a0: 3a62 d5f4 25e2 a6bf 53e1 49ba 4ce3 a2bf
000000b0: 44c9 68e8 8b8c bdbf 6332 d320 4482 c03f
000000c0: c894 faed d19a b83f f5d7 0c5c 5317 49bf
000000d0: f03b 77e6 0dc5 c13f ab26 bb97 90dc ae3f
000000e0: fd9a e0e8 790c 8bbf 48af be85 e97c bebf
000000f0: 8824 19bf bc6f b3bf 415b 8dd7 df02 b7bf
00000100: 28c7 454b 6da2 b0bf 3e8e db9f 981a 7b3f
00000110: a7ec 1e73 bdd7 ba3f b7e6 7c71 05cf c43f
00000120: 23a3 2608 365b 8a3f 86a0 5168 9dba 943f
00000130: 32d9 116e ad10 b03f 0752 8c28 0649 8cbf
00000140: 290d 3de8 b0b3 b1bf 70f7 7426 cd8b c93f
00000150: e97e 9e23 424b c4bf ee49 a892 3d3e 72bf
00000160: 68f7 290f 7c2e b3bf 6051 30ac 4d72 cf3f
00000170: 543d 8777 8163 b0bf 98af e017 363f d03f
00000180: 169e 5afa 9790 c4bf 8362 148e cb41 a73f
00000190: cbaa d727 d7c9 703f 75da e168 23d1 b03f
000001a0: 9d2d ef23 4af1 aabf ef52 fc8b 47d9 963f
000001b0: e36d f9e2 062a a4bf ecc2 79d9 5398 99bf
000001c0: 06f7 ed93 0a7c 583f e8f5 6122 bc73 bbbf
000001d0: b569 6af2 a567 ad3f 23f0 1851 8e24 b1bf
000001e0: fb92 7dfd 0ae3 bf3f dd74 6a3b 8039 85bf
000001f0: 0211 0d9b 4471 babf 6812 e5ea fc51 a13f
00000200: eeca 4ff1 90fd b0bf 08ce 6170 0a89 6f3f
00000210: 7a2f 7f8f fce0 94bf 3f1a 0df5 469d b13f
00000220: e737 0282 0036 9e3f 7479 bb87 949b bfbf
00000230: 361d f772 ad5a c9bf d749 636f 063a c03f
00000240: 954e 0d8f 853c b23f 777d 205a f532 b33f
00000250: 7a81 16ff 29fb 8e3f e0ac 4cc9 5e4e 9a3f
00000260: 869e 0c0d 6c49 94bf bb1c 62cf bceb b73f
00000270: e8d8 c1c1 bd1e 853f 27ef b3e2 eab2 a9bf
00000280: 4f96 f183 e189 bebf 5a4f 470e 7eba c4bf
00000290: 68f1 9bd0 b635 c0bf fef3 3d84 1f40 b0bf
000002a0: 908a 001f 38c4 c43f 44ed 1580 3d8c b3bf
000002b0: 57ce b8cf 842c ca3f dde1 9d41 466c 96bf
000002c0: 2114 ba3a 0162 b63f fdb6 93ee da31 c2bf
000002d0: 2e55 e3b9 1a7c b13f 0029 70b4 b019 9dbf
000002e0: b1eb 36e1 0a4c b0bf f3ea 3ef3 9085 963f
000002f0: 03c2 c323 48c7 b5bf e7de 1f26 2b9e 94bf
00000300: bf05 85de ae01 773f 7980 ec97 891b b1bf
00000310: c5b5 64a6 63a9 053f d0f9 c93f 66ed b2bf
00000320: 6229 9932 8a5d b1bf 91dc 306b f7de b43f
00000330: 6b16 c6a5 54bd c1bf 77c2 806e 32fb 97bf
00000340: fbc2 3991 9dd2 883f 31ee b042 57a6 babf
00000350: 86b7 0724 b0e2 89bf d613 b3b4 08c1 9e3f
00000360: 119e 62f0 60d9 c23f 8f9a dc6b 607a b13f
00000370: 7656 2f54 8777 98bf 3f07 1d67 4452 993f
00000380: adba a960 d340 973f 3615 a498 aa85 a1bf
00000390: b6ef 4a84 1263 b2bf 6895 3cf4 48d7 95bf
000003a0: b0ac 1e48 163e b2bf 2b70 63f4 9e05 b0bf
000003b0: 62fb 539e 66aa a93f 3357 e567 23f4 b3bf
000003c0: f979 76e0 50d5 96bf 70e7 c9a9 7ca4 9dbf
000003d0: 0ab9 7fe2 fe4a c23f cdf6 c166 79a6 a13f
000003e0: d824 697f cbd3 bdbf 0c10 dbf1 7038 a3bf
000003f0: a0eb 0b0f 3989 bf3f 6ebf 1b79 772a c23f
00000400: 6d05 deac d9d3 c53f f740 0b1f 413e eb3f
00000410: 28f0 c79e a85a c9bf 884e 2f56 caa4 db3f
00000420: 901b 5238 e49a e4bf 827f 6d61 7b2d e13f
00000430: ed9b d408 2d51 e6bf 450e 3fa2 ae28 ecbf
00000440: 0598 39f3 e1a0 ad3f 4794 a38d 8214 d5bf
00000450: 9a84 5c0e cbb5 d1bf 4ef1 9f8e 26be c1bf
00000460: 3494 972b cf19 ef3f a96e 5ad2 c7d3 d23f
00000470: 8f28 f1cf 57ff a73f 2f7b 5d1c 2683 d3bf
00000480: 6475 45f9 d301 b23f 491c 392f f34c dc3f
00000490: 20bf ce3d 2b49 ddbf 8cf4 d462 30f4 d2bf
000004a0: 08c6 2a19 a1a4 e5bf c55a fcd7 a748 90bf
000004b0: 78f3 3e81 2efe c6bf 181e 1d6d f156 dfbf
000004c0: 5a21 24be b718 c6bf d333 50d2 6a07 e83f
000004d0: 03e1 c173 2f31 d53f 22af 5cdf 63e3 a73f
000004e0: c5a6 04bd 1cdb d33f 80b4 2e3c bc12 cb3f
000004f0: 192d a078 c8e8 b9bf 6e64 8631 5709 e0bf
00000500: a10b 0b6e 9fe6 efbf 2b17 076c 35e7 b93f
00000510: bc2e bdc2 40a8 d93f 1650 f3e1 48ed c53f
00000520: 21d6 f94f e783 ebbf 5eda 6813 b148 e73f
00000530: 4aba db66 85e2 fb3f 6f6a fc73 26ae d53f
00000540: db72 45a5 59af d4bf f231 c0a7 6946 99bf
00000550: 8da5 3aaf 58f9 813f aa5a 9662 9f15 b93f
00000560: dc93 7524 a722 f33f 8118 883f 4146 b7bf
00000570: db6e 116b bce1 dbbf 86f6 ca60 4c56 d23f
00000580: 9d49 b8a3 444a e63f a728 a549 2ae5 d53f
00000590: ed14 410f 6a69 f23f 6aaf c074 9d60 ebbf
000005a0: 82fe e938 810f e9bf 8404 2eb9 6847 d43f
000005b0: c65d 5f74 4537 b1bf 1ebe d01e 10a5 e7bf
000005c0: b0b9 d793 febf ecbf cb88 324e 3093 c43f
000005d0: fbc5 2fed 7e3b ed3f d84c b44c ffda d0bf
000005e0: 6030 0c16 71ae a8bf 8d76 20e1 415c efbf
000005f0: 3b38 768c 9aee f0bf aadc 350d bdb8 753f
00000600: 0983 0961 99fc dd3f 9ce8 3da9 4834 e23f
00000610: a963 bc39 e35f b73f 011f 2747 4944 a63f
00000620: 3b12 b014 6bff e13f 9356 47c2 b4b1 c8bf
00000630: e951 d34c 8daf dd3f 50f2 b54a 0dfd d13f
00000640: 2e57 c684 d638 d73f 9c51 95c5 ea53 d73f
00000650: 6edb 7ab4 21ae e93f 8c52 2b2b c7f2 bd3f
00000660: d159 8d05 51f8 bfbf 914d 4263 e179 c2bf
00000670: 9544 77a2 a563 e3bf 3789 db3d a233 e2bf
00000680: 56a5 4d9a 64e0 b63f 36ef 4c77 892e e13f
00000690: 70db c90d 3922 d13f fcc8 1755 1804 f9bf
000006a0: 6c67 d7c3 0453 dbbf 301f dd48 e570 aabf
000006b0: 1d6c 14e8 7591 bf3f 191f 2550 9e62 b13f
000006c0: 3384 0c8c c8aa cfbf de2a c06b 6bab d5bf
000006d0: 98d5 1a65 cd8a e03f 3f33 5eb6 d7d9 da3f
000006e0: 38cf 3251 be2d d1bf 96f4 2c00 e489 f13f
000006f0: 19a7 ff7a 5bd2 cd3f be4d 57c3 ff39 e13f
00000700: ceaa e0cd 5d8e e03f b1db f619 31bc b83f
00000710: 3254 f1a3 9e80 d4bf f953 4a88 5d66 c1bf
00000720: f728 2975 c5d6 ecbf 3eee 8bd7 f830 e53f
00000730: c901 1720 6848 d13f 966b 805f ddc5 dcbf
00000740: abbf ddad c4ec ddbf b489 be88 cf21 c5bf
00000750: ac85 17ca 7717 f93f deea 715d 4f9d dcbf
00000760: 754d 38f6 6d81 f33f a476 890f 290d ddbf
00000770: 50fd 2a18 3c6f ffbf d801 bb82 2703 e5bf
00000780: 6d8f 4506 ec6e d6bf e2a6 596b ae84 e03f
00000790: 62ec ef13 8b80 d43f 7799 dd20 c3c1 d0bf
000007a0: a1a2 07c7 e108 e23f ab60 e6c4 489a a43f
000007b0: f24c 1369 e8bf c83f 0afa 4977 c39b c43f
000007c0: fc22 cdce 6930 d33f 88d1 38f8 8d47 e8bf
000007d0: 47a7 fca1 c6e0 c8bf 650f 8b73 e4af e9bf
000007e0: 718b 859f 5298 b8bf 535f 6f5b 1a5e f8bf
000007f0: f58b 0f42 511f c7bf 5f81 c6a9 f3b8 e9bf

layers.1.bias f8 [100]
-0.03636383923614654 -0.2801615822289399 0.011226261151135515 -0.09952228875063805 -0.011185868587051674 0.5697176920813012 -0.033041204846685865 0.2490624955071034
0.11572896310562614 0.06793534604401383 0.020267703097701904 0.23369608112077953 -0.07670616688535123 0.029951257543093194 -0.09550609459553552 -0.36499897515644747
0.03783783407903557 -0.21532487263372485 0.0032763306967693137 -0.07413799050943039 0.030761620733378202 -0.14810426143566904 0.14456555490006007 0.039236489060150294
0.0013030091799353131 0.011875468744811208 -0.14914364025677987 0.03269429410636448 0.24564111381069398 -0.03953343019083553 0.05265201213785272 0.07169633322204647
-0.031771615128648206 -0.0008152941390715597 0.02909824824730802 -0.16219975376466206 -0.08923315049351771 -0.11696606379561553 0.058831397538709584 -0.42025695172509697
-0.027602571988776296 0.021962989181487452 0.002245661668525988 -0.06479429560537622 -0.08974388036758574 0.07889246484490735 0.031555087938633805 -0.690578325713709
0.03793037874762099 -0.06774953679019151 -0.16862313229267928 -0.0011966361590955532 -0.013904887187835807 0.021982037892643694 -0.03491304090582372 -0.009921244580744643
0.38423455364238795 0.032617622278690146 -0.11614309379178211 -0.0381653587169336 -0.6073973368450968 -0.08123095821343708 0.024666761613255848 0.02796745910874111
0.14851007369013688 -0.14110206200272243 -0.06135319792699004 0.39485583122723766 0.10605381461876094 -0.21435987058482345 1.129704850211926 -0.22378618440019035
-0.011289080679664044 -0.04499315097928047 -0.2774048204430698 -0.2173878342014988 0.31475027475279943 0.35694423398978137 -0.04951909440519491 -0.014887562476785066
-0.1785008800097297 -0.05774901166880637 0.33234912159232505 0.01460840938628451 -0.13124505088551805 -0.0763891544986852 -0.13172381989050203 0.29521297241218086
-0.07878810725637991 -0.0028102346214497606 -0.10518320527791332 -0.04617050019557439 0.27078944061221605 0.022897441491170272 -0.16790255195904422 0.0019447204816119665
-0.11132626534562477 0.17388850810051182 -0.0042423239841083244 0.06347143765844708
00000000: c670 8df8 479e a2bf d935 51d8 2aee d1bf
00000010: e4fc 0044 cbfd 863f 0735 68ef 4a7a b9bf
00000020: a1e6 11de 9de8 86bf 1e23 ee98 203b e23f
00000030: d651 79dc c6ea a0bf e67b 6ea4 47e1 cf3f
00000040: 7c18 bdcf 69a0 bd3f 2661 80f9 3564 b13f
00000050: 89f0 e087 0ec1 943f 7ffd ced0 c0e9 cd3f
00000060: ee91 2cee 03a3 b3bf 1194 7cde 8aab 9e3f
00000070: 1244 db60 1673 b8bf 97b5 57a9 245c d7bf
00000080: 6884 d707 7b5f a33f 5615 fdf2 c38f cbbf
00000090: 9931 31a6 f6d6 6a3f c110 a114 b5fa b2bf
000000a0: a656 166c f97f 9f3f edd8 a197 14f5 c2bf
000000b0: bc40 36c5 1f81 c23f 6d7b a51a ce16 a43f
000000c0: 0c04 1c74 3759 553f ddae 116f 2a52 883f
000000d0: c995 a788 2317 c3bf 8fc0 e777 4ebd a03f
000000e0: 585a 2f03 2b71 cf3f 8d63 89cb b93d a4bf
000000f0: 8bbe 665c 34f5 aa3f f68a 6ede b05a b23f
00000100: 5c58 d67f 5e44 a0bf 34c0 fbd4 2eb7 4abf
00000110: a64f 5f62 eecb 9d3f 3253 eb26 f6c2 c4bf
00000120: 5cb5 16d7 fbd7 b6bf fc77 beea 7cf1 bdbf
00000130: 403f d020 261f ae3f 3ddc e469 7de5 dabf
00000140: 0ebc e83f d943 9cbf 480e 0741 777d 963f
00000150: b10b 936d 7e65 623f a2aa 97e4 5b96 b0bf
00000160: 18e6 3177 74f9 b6bf 8be2 68ec 4b32 b43f
00000170: 4e0b 700d fd27 a03f c289 88b7 3719 e6bf
00000180: f5e9 7d50 9c6b a33f e340 d59c 0858 b1bf
00000190: e2e7 455b 7195 c5bf 2e23 c94a 0e9b 53bf
000001a0: 1083 cf5d 2a7a 8cbf 91b2 6497 7582 963f
000001b0: d3f1 c941 1fe0 a1bf 904e 14e8 9651 84bf
000001c0: 1dc8 7886 4c97 d83f 91a6 ebc9 41b3 a03f
000001d0: 68f1 7dc5 8dbb bdbf 6f05 0fef 688a a3bf
000001e0: 83ab 2d8a cc6f e3bf 790f f354 8dcb b4bf
000001f0: f969 b559 3e42 993f 83a4 e568 80a3 9c3f
00000200: 8b16 d0ca 6002 c33f eb94 d9e2 a10f c2bf
00000210: 94ef 33b5 af69 afbf 5c60 7064 5145 d93f
00000220: f753 67c1 5726 bb3f 3549 deec 2470 cbbf
00000230: 50af 9c64 4513 f23f 13d1 a593 06a5 ccbf
00000240: 3a89 91c2 ba1e 87bf 0000 00a0 5709 a7bf
00000250: 3291 e325 00c1 d1bf 69cb 3853 5dd3 cbbf
00000260: 3319 1e56 de24 d43f 2ad7 dea0 2cd8 d63f
00000270: 07e6 fe15 915a a9bf 1abc a3cf 5e7d 8ebf
00000280: 2279 f9e8 1dd9 c6bf 59d9 fc48 4791 adbf
00000290: abf9 0540 3545 d53f 4a41 7c84 03eb 8d3f
000002a0: 0757 a848 a3cc c0bf 1f48 5758 3d8e b3bf
000002b0: da56 447d 53dc c0bf 8960 77f3 c4e4 d23f
000002c0: 34da fa17 752b b4bf 9e01 6239 7d05 67bf
000002d0: cdd0 c15a 49ed babf 4889 c2e8 a8a3 a7bf
000002e0: c505 e23b 9d54 d13f 0b73 7749 6d72 973f
000002f0: d71d cab0 d47d c5bf b29d 93b7 bfdc 5f3f
00000300: 0b64 d8cc e07f bcbf 2491 b887 fa41 c63f
00000310: 2b1f 552c 6660 71bf 3f1f f904 aa3f b03f

layers.3.weight f8 [100]
0.9585791219843217 0.9315792196657591 0.9707484951262799 0.9541050485355331 0.9927637311632865 1.282769765561833 1.0533905940630752 2.620069132729217
1.4933581366951396 0.9141314373126468 1.0044026926067504 0.47878721670078694 0.9415576488123054 0.9748362752011474 0.9629807561724211 1.637529929135598
0.9707215414183399 1.102642637097582 0.8923416674620634 1.0768549045851132 0.9431470414518246 0.46045081225520534 0.6855488968068156 0.9544887845918971
0.9778552075365939 0.9330370933332028 0.8522793694649082 2.7566306402534204 1.7029979466384646 0.8668922747671501 0.9667202013015427 0.35268040445558096
0.9191529948088654 0.5703895506510162 0.9269987669769766 0.9662545844695786 1.1434267997487324 0.9627756102354453 0.6882134955534 1.2948260205974593
0.7867141415296562 0.9620014684890321 0.9760228247529006 0.7156765862890706 1.0458595668853468 0.8410109239364588 0.9682565535343075 0.1977943119944948
0.9991701708630585 0.991747663268878 0.8333456058548065 1.0296718555954785 1.04224484993052 0.9536192253608313 0.9838803230218556 1.0463138375461778
1.8336174889040822 0.9724494470110617 0.8565107331243151 0.9456416050811872 0.982503471539645 0.9710243653522314 0.9659661801766597 0.9671447008539699
1.9525483144812343 1.0918813750743535 1.5595074777003226 2.367785498202757 1.1283994045430192 1.3166010251682476 2.380558266173457 0.6261448722582891
0.9276574743729717 1.0 1.047794758816504 -0.05212972929026791 1.576926961520977 0.6067362102522966 0.9683932314783725 0.8941763845145774
0.15341790534912075 1.0084337114972657 1.9747192610522406 0.5035256081498927 0.9571925416488808 0.8791282934393516 1.0702441007144021 0.762826457021378
0.7427988635324067 2.2793394327710224 1.0096538152315595 1.0070319204191345 1.7045970478345502 0.9549859972350387 1.3340620774849765 0.9435543244266273
1.1774892340708198 0.26356550493580494 2.3822089377565265 0.9092540378124941
00000000: 41a2 711f aeac ee3f d41f 4339 7fcf ed3f
00000010: c0ac e625 5f10 ef3f 5013 8d4f 0788 ee3f
00000020: 410a c071 b8c4 ef3f aa2b f696 3986 f43f
00000030: 83a3 7618 b0da f03f 08a6 32ce e6f5 0440
00000040: 5123 6580 cbe4 f73f f81a 7092 9040 ed3f
00000050: 542a cc8e 0812 f03f 7441 5e23 73a4 de3f
00000060: f651 9e81 3d21 ee3f 3330 1ed8 db31 ef3f
00000070: 4403 ce04 bdd0 ee3f cabc 3d95 5233 fa3f
00000080: 6a43 3d9f 2610 ef3f 2326 189b 6ca4 f13f
00000090: 0872 d31c 108e ec3f 27af 5b35 cc3a f13f
000000a0: 0e5a 4bb4 422e ee3f 2460 03af 0678 dd3f
000000b0: 4b03 733d 04f0 e53f 5312 4710 2c8b ee3f
000000c0: 8ff9 1201 974a ef3f ae45 3a9b 70db ed3f
000000d0: 7408 5d62 df45 eb3f e251 785d 940d 0640
000000e0: 4d7a 5fc6 7a3f fb3f 66f5 28de 94bd eb3f
000000f0: 0d20 1f34 5fef ee3f d9e9 c4d4 5092 d63f
00000100: 632f 978a b369 ed3f 0ad7 4096 a140 e23f
00000110: 6a26 7351 f9a9 ed3f 6705 fdbb 8eeb ee3f
00000120: e6a6 64e6 794b f23f 3320 ebcb 0ecf ee3f
00000130: 8d2a 024f d805 e63f 549d 477d 9bb7 f43f
00000140: 7775 a522 c32c e93f e6a8 bb4d b7c8 ee3f
00000150: ecd2 0e38 943b ef3f befb 9395 d2e6 e63f
00000160: 5cb3 bf3d d7bb f03f c158 bcbd 8fe9 ea3f
00000170: 2829 f22a f5fb ee3f 53f3 acf2 5251 c93f
00000180: b2db dfb8 33f9 ef3f def9 7398 65bc ef3f
00000190: a62c 6d67 c4aa ea3f b44e 1632 8979 f03f
000001a0: 2404 8eef 08ad f03f 3a5f 3877 0c84 ee3f
000001b0: 30d1 5196 f27b ef3f 38cf 1994 b3bd f03f
000001c0: 8177 c34a 7f56 fd3f 1da0 7d4d 4e1e ef3f
000001d0: 3024 6e32 8968 eb3f d1f0 f12e b242 ee3f
000001e0: 0804 cf1e ab70 ef3f dbd2 99b0 a112 ef3f
000001f0: 54d3 1ce8 31e9 ee3f 315c 9571 d9f2 ee3f
00000200: c1e8 284d a33d ff3f cbe4 d09a 5878 f13f
00000210: 0372 e91c bef3 f83f 90ca f585 39f1 0240
00000220: 0769 b588 ec0d f23f a5a4 8f3c cc10 f53f
00000230: eb7f db21 620b 0340 d309 9df8 6009 e43f
00000240: c64c 4aba 5eaf ed3f 0000 0000 0000 f03f
00000250: ee97 e06f c4c3 f03f eced e674 bfb0 aabf
00000260: a99c fec3 173b f93f 9ca4 8a0e 626a e33f
00000270: 7ac1 5bcd 13fd ee3f 680f 0bcb 179d ec3f
00000280: b232 0cab 32a3 c33f d408 3163 8b22 f03f
00000290: b402 5039 7398 ff3f 3e79 76bc e11c e03f
000002a0: 0b6d cb40 52a1 ee3f 08ee a9a8 d121 ec3f
000002b0: 75e2 3447 b81f f13f 93c5 ad07 1369 e83f
000002c0: bd15 4c1f 02c5 e73f bbe0 0150 163c 0240
000002d0: 0338 4bc2 8a27 f03f f1a6 c380 cd1c f03f
000002e0: b0eb d48d 0746 fb3f e465 48cb 3e8f ee3f
000002f0: d21b 1a7a 5158 f53f f62c add6 9831 ee3f
00000300: c39e 7bf3 fed6 f23f 7f64 03da 41de d03f
00000310: b739 3f8f c30e 0340 b723 85ec 9b18 ed3f

layers.3.bias f8 [100]
0.17279086175418737 -0.3582699615494204 -0.07050074465674996 -0.06221292763820227 -0.15060333520303487 -0.9851662503955843 -0.05886872936420743 1.0204735702295649
1.29970223137868 -0.3072315587375363 -0.06433084861593914 -0.46706556354847806 0.567010113127148 0.2895373022222581 -0.009668814491643342 0.28537452441022537
0.0002405348966399768 -0.09345833955207179 0.02665212154009396 -0.1457437747553511 -0.4468080799783233 -0.13681644014529198 -0.26942661458530853 0.27169137354502865
0.09672017877684652 -0.0831326198549604 0.016653414765702812 1.3308680584143275 -0.6654974768102191 -0.8454392222768111 -0.11146809294771765 0.6279985308436219
-0.6884455407417517 -0.11616723481266361 -0.10463169964040796 0.11354299652426728 -0.019200398496210778 0.012637037921606767 -0.23126991093991636 0.5292971248610848
0.055276774050391296 -0.12651973666682811 -0.09643390191181898 -0.0585342393830272 -0.4253615000217526 -1.280511443572663 0.32703719281251337 -0.29070544165649925
0.17645778663069386 0.02685572267119199 -0.08529087285506326 -0.30382889404919533 -0.0213732850326624 0.009907568400403929 -0.026523662324835506 -0.11618547474689925
0.8893102481742553 -0.2002482040215171 0.21818250493765706 0.32343100776986905 -0.6981145110819257 0.12827021868737362 -0.13882758122446495 -0.2862192134063698
0.5629995200377911 0.8570487670151419 0.5845961740340755 1.5368248830547566 0.005050905031654692 0.42808721293053525 -0.05973763905928789 -0.9240005997541121
0.8824972655836405 0.08413977095905142 -0.5280665761726118 -0.19054658527316884 -1.5832059570093115 -0.15592029745089075 0.08516362283798619 0.00828037618104345
-0.1265651233641847 -0.06031159709962789 -0.7706143519935917 -0.2908217660548695 -0.2804238949015201 -0.08085594421794005 -0.008755784069017112 0.4794277079971687
-0.4067874888049658 0.6575258462424917 -0.015846947596903836 -0.4480991446410923 -0.8913211280237754 0.14729599638449584 -1.0485707530657487 -0.11032256322145062
-0.799359405652681 -0.058972453690922425 -0.6938404486569836 0.36410401952527294
00000000: 0915 24ce 021e c63f af9c ff21 e5ed d6bf
00000010: 9af6 a438 560c b2bf 6c61 3073 5fda afbf
00000020: aeca ae57 f846 c3bf ac4d 525f 7b86 efbf
00000030: 65b0 c0c6 0a24 aebf ec17 2918 dc53 f03f
00000040: 59f4 2491 94cb f43f a5ea 448e aea9 d3bf
00000050: 35ec ed8a fc77 b0bf 52d3 21f6 66e4 ddbf
00000060: 4d3c 8c64 f224 e23f 1111 0177 c787 d23f
00000070: b4f7 4250 3ecd 83bf ae05 5d82 9343 d23f
00000080: cfac 7b07 0387 2f3f fd23 eabf e2ec b7bf
00000090: 15ee 8899 b14a 9b3f c6bc 1565 bba7 c2bf
000000a0: de1b c6ea 8098 dcbf 7655 fd7b 3383 c1bf
000000b0: a737 9420 493e d1bf 45cc fe36 6463 d13f
000000c0: 5cb7 b554 a7c2 b83f cc02 82eb 2d48 b5bf
000000d0: 6044 24bf 970d 913f 8de3 224e 3c4b f53f
000000e0: 980d 4f5d c14b e5bf 11e8 4d8e d60d ebbf
000000f0: 1008 c245 2c89 bcbf d519 fd5f 9018 e43f
00000100: f102 52f1 be07 e6bf cc1b 63ca 22bd bdbf
00000110: 2f98 14a0 24c9 babf 3af6 c260 2711 bd3f
00000120: f910 72ee 44a9 93bf 889f bb84 72e1 893f
00000130: 3994 04a0 409a cdbf 61a5 2486 00f0 e03f
00000140: 2bb4 8cc1 3c4d ac3f e32a a479 cc31 c0bf
00000150: efda ef66 e4af b8bf 1753 b127 33f8 adbf
00000160: 218a e470 1f39 dbbf fdc5 4491 f97c f4bf
00000170: 2125 ed67 2dee d43f 06c5 2bff ea9a d2bf
00000180: 3b08 5a33 2b96 c63f 6836 550a 1180 9b3f
00000190: 744e 8f65 9fd5 b5bf 685a e1be ee71 d3bf
000001a0: 72bb e4e0 e0e2 95bf 6bd7 1952 6b4a 843f
000001b0: 8371 05d9 0429 9bbf fae3 4ece 54be bdbf
000001c0: 87fe fcc3 3a75 ec3f 9c75 adaf bba1 c9bf
000001d0: ce1f a281 67ed cb3f f991 38f8 17b3 d43f
000001e0: 81b7 3e3e f456 e6bf 9f11 2895 286b c03f
000001f0: 7d28 9228 1ac5 c1bf 0e4d 4464 6a51 d2bf
00000200: 783b c791 1704 e23f 7007 2d89 f16c eb3f
00000210: 80fa 1a09 03b5 e23f 2463 46b0 d596 f83f
00000220: d68b d1fe 41b0 743f 03d6 d7e8 c765 db3f
00000230: 4425 338c ee95 aebf 9cb4 adb4 6991 edbf
00000240: 9ab7 cfe7 6a3d ec3f eee2 8f1c 2f8a b53f
00000250: b8b4 58e0 ebe5 e0bf 1d6e 0e9c d463 c8bf
00000260: 7dff 02c5 cf54 f9bf 04c6 2a41 32f5 c3bf
00000270: 41e5 e57e 48cd b53f 6855 2b47 4df5 803f
00000280: 99e9 d434 4933 c0bf 7590 3962 29e1 aebf
00000290: b080 f46d dfa8 e8bf 8feb 8ae5 d29c d2bf
000002a0: 349d 6710 77f2 d1bf c76e 1aa4 f9b2 b4bf
000002b0: ff70 d171 8dee 81bf 9038 a98d f1ae de3f
000002c0: ffb6 3564 ce08 dabf f75b bca4 730a e53f
000002d0: f935 aea6 2e3a 90bf 1557 e608 a8ad dcbf
000002e0: fa11 e3e2 b385 ecbf 6bcd a65f 98da c23f
000002f0: 0a5a 3f20 f2c6 f0bf b009 0c79 193e bcbf
00000300: 87e7 202d 5a94 e9bf 424d ef2f a331 aebf
00000310: 72f5 73e2 f033 e6bf 1c01 0df2 7a4d d73f

layers.3.running_mean f8 [100]
2.5e-323 2.5e-323 2.5e-323 2.5e-323 2.5e-323 215.37981164523595 2.5e-323 467.73985065454997
2.5e-323 2.5e-323 2.5e-323 2.5e-323 2.5e-323 2.5e-323 2.5e-323 2.5e-323
2.5e-323 2.5e-323 2.5e-323 2.5e-323 2.5e-323 2.5e-323 2.5e-323 2.5e-323
2.5e-323 2.5e-323 2.5e-323 258.03043307365454 96.26195505867666 2.5e-323 2.5e-323 107.21326800283784
2.5e-323 2.5e-323 2.5e-323 2.5e-323 2.5e-323 2.5e-323 2.5e-323 2.5e-323
2.5e-323 2.5e-323 2.5e-323 2.5e-323 2.5e-323 2.5e-323 2.5e-323 2.5e-323
2.5e-323 2.5e-323 2.5e-323 2.5e-323 2.5e-323 2.5e-323 2.5e-323 2.5e-323
2.5e-323 2.5e-323 2.5e-323 2.5e-323 2.5e-323 2.5e-323 2.5e-323 2.5e-323
505.71262764074396 2.5e-323 2.5e-323 479.6197308720484 2.5e-323 2.5e-323 80.47373058427777 2.5e-323
2.5e-323 0.0 2.5e-323 2.5e-323 227.04760993689803 88.21902096873167 2.5e-323 2.5e-323
2.5e-323 2.5e-323 4.973088755775635e-224 2.5e-323 2.5e-323 2.5e-323 2.5e-323 2.5e-323
2.5e-323 135.10676023826272 2.5e-323 2.5e-323 213.74729455106473 2.5e-323 118.27354595334423 2.5e-323
2.5e-323 196.05693560037338 607.6004232744533 2.5e-323
00000000: 0500 0000 0000 0000 0500 0000 0000 0000
00000010: 0500 0000 0000 0000 0500 0000 0000 0000
00000020: 0500 0000 0000 0000 b55d c06a 27ec 6a40
00000030: 0500 0000 0000 0000 76d3 a36d d63b 7d40
00000040: 0500 0000 0000 0000 0500 0000 0000 0000
00000050: 0500 0000 0000 0000 0500 0000 0000 0000
00000060: 0500 0000 0000 0000 0500 0000 0000 0000
00000070: 0500 0000 0000 0000 0500 0000 0000 0000
00000080: 0500 0000 0000 0000 0500 0000 0000 0000
00000090: 0500 0000 0000 0000 0500 0000 0000 0000
000000a0: 0500 0000 0000 0000 0500 0000 0000 0000
000000b0: 0500 0000 0000 0000 0500 0000 0000 0000
000000c0: 0500 0000 0000 0000 0500 0000 0000 0000
000000d0: 0500 0000 0000 0000 0201 64a7 7c20 7040
000000e0: 6f82 26df c310 5840 0500 0000 0000 0000
000000f0: 0500 0000 0000 0000 315e d62e a6cd 5a40
00000100: 0500 0000 0000 0000 0500 0000 0000 0000
00000110: 0500 0000 0000 0000 0500 0000 0000 0000
00000120: 0500 0000 0000 0000 0500 0000 0000 0000
00000130: 0500 0000 0000 0000 0500 0000 0000 0000
00000140: 0500 0000 0000 0000 0500 0000 0000 0000
00000150: 0500 0000 0000 0000 0500 0000 0000 0000
00000160: 0500 0000 0000 0000 0500 0000 0000 0000
00000170: 0500 0000 0000 0000 0500 0000 0000 0000
00000180: 0500 0000 0000 0000 0500 0000 0000 0000
00000190: 0500 0000 0000 0000 0500 0000 0000 0000
000001a0: 0500 0000 0000 0000 0500 0000 0000 0000
000001b0: 0500 0000 0000 0000 0500 0000 0000 0000
000001c0: 0500 0000 0000 0000 0500 0000 0000 0000
000001d0: 0500 0000 0000 0000 0500 0000 0000 0000
000001e0: 0500 0000 0000 0000 0500 0000 0000 0000
000001f0: 0500 0000 0000 0000 0500 0000 0000 0000
00000200: 89b3 3dec 669b 7f40 0500 0000 0000 0000
00000210: 0500 0000 0000 0000 503c eb6a eaf9 7d40
00000220: 0500 0000 0000 0000 0500 0000 0000 0000
00000230: a2a5 159a 511e 5440 0500 0000 0000 0000
00000240: 0500 0000 0000 0000 0000 0000 0000 0000
00000250: 0500 0000 0000 0000 0500 0000 0000 0000
00000260: 223e 4605 8661 6c40 cf75 8670 040e 5640
00000270: 0500 0000 0000 0000 0500 0000 0000 0000
00000280: 0500 0000 0000 0000 0500 0000 0000 0000
00000290: 2ae6 b79a 6868 9211 0500 0000 0000 0000
000002a0: 0500 0000 0000 0000 0500 0000 0000 0000
000002b0: 0500 0000 0000 0000 0500 0000 0000 0000
000002c0: 0500 0000 0000 0000 407b 7294 6ae3 6040
000002d0: 0500 0000 0000 0000 0500 0000 0000 0000
000002e0: aa29 43d6 e9b7 6a40 0500 0000 0000 0000
000002f0: 43e4 e2c6 8191 5d40 0500 0000 0000 0000
00000300: 0500 0000 0000 0000 9eb2 9b6a d281 6840
00000310: 46bc b7aa cdfc 8240 0500 0000 0000 0000

layers.3.running_var f8 [100]
2.5e-323 2.5e-323 2.5e-323 2.5e-323 2.5e-323 774.2394342433416 2.5e-323 981.8558644710213
2.5e-323 2.5e-323 2.5e-323 2.5e-323 2.5e-323 2.5e-323 2.5e-323 2.5e-323
2.5e-323 2.5e-323 2.5e-323 2.5e-323 2.5e-323 2.5e-323 2.5e-323 2.5e-323
2.5e-323 2.5e-323 2.5e-323 1120.3858457426177 724.297536191679 2.5e-323 2.5e-323 196.271524580553
2.5e-323 2.5e-323 2.5e-323 2.5e-323 2.5e-323 2.5e-323 2.5e-323 2.5e-323
2.5e-323 2.5e-323 2.5e-323 2.5e-323 2.5e-323 2.5e-323 2.5e-323 2.5e-323
2.5e-323 2.5e-323 2.5e-323 2.5e-323 2.5e-323 2.5e-323 2.5e-323 2.5e-323
2.5e-323 2.5e-323 2.5e-323 2.5e-323 2.5e-323 2.5e-323 2.5e-323 2.5e-323
800.6123301098272 2.5e-323 2.5e-323 647.2027715263711 2.5e-323 2.5e-323 322.0494899722121 2.5e-323
2.5e-323 2.5e-323 2.5e-323 2.5e-323 1481.9262633319372 931.0310456116771 2.5e-323 2.5e-323
2.5e-323 2.5e-323 1.960713637917634e-223 2.5e-323 2.5e-323 2.5e-323 2.5e-323 2.5e-323
2.5e-323 858.7457785719471 2.5e-323 2.5e-323 1507.591753754142 2.5e-323 972.9263724744457 2.5e-323
2.5e-323 492.2373676470215 1044.417462187635 2.5e-323
00000000: 0500 0000 0000 0000 0500 0000 0000 0000
00000010: 0500 0000 0000 0000 0500 0000 0000 0000
00000020: 0500 0000 0000 0000 8f25 805c ea31 8840
00000030: 0500 0000 0000 0000 c2c6 78cf d8ae 8e40
00000040: 0500 0000 0000 0000 0500 0000 0000 0000
00000050: 0500 0000 0000 0000 0500 0000 0000 0000
00000060: 0500 0000 0000 0000 0500 0000 0000 0000
00000070: 0500 0000 0000 0000 0500 0000 0000 0000
00000080: 0500 0000 0000 0000 0500 0000 0000 0000
00000090: 0500 0000 0000 0000 0500 0000 0000 0000
000000a0: 0500 0000 0000 0000 0500 0000 0000 0000
000000b0: 0500 0000 0000 0000 0500 0000 0000 0000
000000c0: 0500 0000 0000 0000 0500 0000 0000 0000
000000d0: 0500 0000 0000 0000 6077 251b 8b81 9140
000000e0: 1aa5 a75a 61a2 8640 0500 0000 0000 0000
000000f0: 0500 0000 0000 0000 2131 5154 b088 6840
00000100: 0500 0000 0000 0000 0500 0000 0000 0000
00000110: 0500 0000 0000 0000 0500 0000 0000 0000
00000120: 0500 0000 0000 0000 0500 0000 0000 0000
00000130: 0500 0000 0000 0000 0500 0000 0000 0000
00000140: 0500 0000 0000 0000 0500 0000 0000 0000
00000150: 0500 0000 0000 0000 0500 0000 0000 0000
00000160: 0500 0000 0000 0000 0500 0000 0000 0000
00000170: 0500 0000 0000 0000 0500 0000 0000 0000
00000180: 0500 0000 0000 0000 0500 0000 0000 0000
00000190: 0500 0000 0000 0000 0500 0000 0000 0000
000001a0: 0500 0000 0000 0000 0500 0000 0000 0000
000001b0: 0500 0000 0000 0000 0500 0000 0000 0000
000001c0: 0500 0000 0000 0000 0500 0000 0000 0000
000001d0: 0500 0000 0000 0000 0500 0000 0000 0000
000001e0: 0500 0000 0000 0000 0500 0000 0000 0000
000001f0: 0500 0000 0000 0000 0500 0000 0000 0000
00000200: 8320 540d e604 8940 0500 0000 0000 0000
00000210: 0500 0000 0000 0000 9792 ad46 9f39 8440
00000220: 0500 0000 0000 0000 0500 0000 0000 0000
00000230: 1842 ffb5 ca20 7440 0500 0000 0000 0000
00000240: 0500 0000 0000 0000 0500 0000 0000 0000
00000250: 0500 0000 0000 0000 0500 0000 0000 0000
00000260: 9ef8 5f7e b427 9740 b376 d794 3f18 8d40
00000270: 0500 0000 0000 0000 0500 0000 0000 0000
00000280: 0500 0000 0000 0000 0500 0000 0000 0000
00000290: 9d35 ab73 d724 b211 0500 0000 0000 0000
000002a0: 0500 0000 0000 0000 0500 0000 0000 0000
000002b0: 0500 0000 0000 0000 0500 0000 0000 0000
000002c0: 0500 0000 0000 0000 9084 c15a f7d5 8a40
000002d0: 0500 0000 0000 0000 0500 0000 0000 0000
000002e0: 4d35 b2f4 5d8e 9740 0500 0000 0000 0000
000002f0: 45cd f835 6967 8e40 0500 0000 0000 0000
00000300: 0500 0000 0000 0000 5f91 0442 ccc3 7e40
00000310: d62c 357b ab51 9040 0500 0000 0000 0000
