model_policy_epoch-30.pt (torch, 373806 bytes, 28 tensors)

layers.0.weight f8 [128, 128]
0	0xbfd0b07c43168ce7	-0.26077181388445897
1	0xbfbba68b00fdc2e8	-0.10800999426079338
2	0x3fcd131caed7eb2b	0.2271457532623001
3	0xbf97dd3ab5adf400	-0.023304860438191355
4	0xbf964c752ce87438	-0.021776038042038176
5	0xbf994d05cd4e2a8b	-0.024707880645602514
6	0x3fbc2fdbbf269075	0.11010526100887026
7	0xbfcfb82b187f2c92	-0.24780787178164992
8	0xbfdb4d6609272c82	-0.4265990342507352
9	0xbfd182b7ee8d6fe0	-0.2736034230817932
10	0xbfc86a68790555d0	-0.19074731740208373
11	0xbfe71cfbe093e90d	-0.7222880731854119
12	0xbfb9418a40038d17	-0.09865631163443243
13	0xbfd51d018d7e31b0	-0.32989538972540355
14	0xbfceeb7773be0dd2	-0.24156087066158577
15	0x3fa594a7c6046527	0.04214977543069614
16	0x3fd6c1d589c4b3b2	0.3555806966203888
17	0xbfd3347dd220b564	-0.3000788261441214
18	0xbfd55b56fc678a51	-0.33369993828651895
19	0xbfd3766e15757732	-0.3041033944663126
20	0xbfd915509ce1f09f	-0.39192595787586443
21	0xbfd8ea3a6e74e8fc	-0.38929615771088755
22	0xbfd46a3100e171ea	-0.31898140989304
23	0xbfd95f9499b61c29	-0.39645876894832327
24	0x3fb717d2c3df8fb8	0.09020726472914375
25	0xbfca7be39db5f964	-0.20690579605793424
26	0xbfd99d6377cebadf	-0.40023123455004667
27	0xbfef36afcb34b9de	-0.9754256218782833
28	0xbfe4a5ea5cdde450	-0.6452533544353489
29	0xbfd59c9cef1dbc67	-0.3376839003676139
30	0xbfde27400f09b6c1	-0.47114564388799
31	0xbfda7b6b0099f650	-0.41378283556682494
32	0x3fc0942b9cc00ebd	0.1295218005544622
33	0xbfb39195eef0a8df	-0.0764402111387059
34	0xbfd054b4deec3b01	-0.25517007608225134
35	0xbfe9fd3159b848a0	-0.8121573211995106
36	0xbfccb8f966d2915e	-0.22439496536857012
37	0xbfb05f69a2c5a292	-0.06395588134695121
38	0x3fc71598ccd4a7c8	0.18034658433435724
39	0x3fca48b15ca7417f	0.20534340881432553
40	0x3fc9c5bc2ad3b2e0	0.20134689417991236
41	0xbfb41e04d20f2770	-0.0785830509986718
42	0xbfecfafc3e853d94	-0.905637857542319
43	0xbfe30d43c609271a	-0.5953692310224341
44	0xbfc7dd201a06096a	-0.18643571158106492
45	0xbfe73440bacf58b9	-0.7251285217887676
46	0xbff0d1bb73c88aa4	-1.0512041590488161
47	0xbf95f34a328463f3	-0.021435889561960363
48	0x3fad4fe463ad6616	0.05725015370144264
49	0xbfdd9984baf1d84a	-0.46249502426451683
50	0xbfc59f7f26f86ad9	-0.16892995264864544
51	0x3fd98f4dc6216591	0.39937157009770724
52	0xbfba289aeb85d691	-0.10218208551472176
53	0x3faa3b9df5f74166	0.05123609187615123
54	0xbfe8d682f88e1b07	-0.7761854986755176
55	0xbfccefd6082c7e93	-0.22606921576606406
56	0xbfce52c9e414c417	-0.2369015086819963
57	0x3fe79d6b7fbeed56	0.7379662985835391
58	0xbfab4e583899217c	-0.053332096966701464
59	0xbfe05adb0f7c8fcc	-0.5110907843086294
60	0xbfb9794bc6925fbd	-0.09950708005851445
61	0xbfaf5c1b138eda52	-0.06124958623643252
62	0xbfb6b139884bc69f	-0.08864173486269998
63	0x3fda4af5ca2f733c	0.41082520241416254
64	0x3fd52d80bd9b068c	0.33090227619332135
65	0x3fc2e6346de9ab65	0.14765029303392932
66	0x3fdd630cbbd5b051	0.45917051642641576
67	0x3fde250d325ea316	0.47101144713319465
68	0x3fcaa99a99116a06	0.20830090021156894
69	0x3fd6dda543e654de	0.3572781718333554
70	0x3fb23cbeee993383	0.07123940777928621
71	0x3fc39caaaf902434	0.15321858951964062
72	0xbfd512020acb51fc	-0.3292241197025587
73	0x3fe67116d6d8656c	0.7013048359105318
74	0x3fc923b47ffcfec8	0.1964021325056733
75	0x3fdbf8ef593d1315	0.4370687839003023
76	0x3fdfc9f1f12c362f	0.496700749893395
77	0xbfb6736a046d8ef6	-0.08769857986549909
78	0x3fe23bc707092c21	0.5697970521372363
79	0x3fd123bc6a602b1b	0.26780615223167253
80	0xbfe75bac4551cb37	-0.7299405435463545
81	0x3fe046861ab09c85	0.5086088677679902
82	0x3fe6f44e47d1603a	0.7173224833195555
83	0x3fe3bc7800fe33ab	0.6167564410585461
84	0x3fdca70784af38af	0.4476946635958354
85	0x3fe33457df8716b0	0.600139557435531
86	0x3fd5297358146e8d	0.33065494157356384
87	0xbfe3dde6d56c8328	-0.6208376091418346
88	0xbfd1f93223149b92	-0.28083470750646555
89	0xbfc23d02a6cc66ee	-0.142486888355783
90	0x3fd6f8144ccbbff6	0.35889155864333533
91	0x3fd465338df48af1	0.3186768423349085
92	0x3fee68df7b80b429	0.9503018772280757
93	0x3fdfdbafda71835c	0.4977836259113724
94	0xbfceda73a8a0d24e	-0.24104161962317722
95	0xbfcf6de362edef44	-0.24554102259195976
96	0xbfcf1749ee54abaa	-0.24289821755641344
97	0xbfdc9dd826212018	-0.44713405345510315
98	0x3fae904228944acd	0.05969435448982594
99	0x3fd4be38db0ef9e6	0.3241102351420565
100	0x3fe6b1aa611e3297	0.7091876885256906
101	0x3fb8cc9d65cb7899	0.09687217459893062
102	0x3f31ce74c2a55a54	0.0002717051562703178
103	0xbfea40fb39931786	-0.8204322933677168
104	0xbfe79dac1da247fb	-0.7379971102511712
105	0x3fe6fcc456cc8c0b	0.7183553405087663
106	0x3ff49fb6396fbffb	1.2889921420683084
107	0x3fd19a66c81d0f5c	0.27504891912780294
108	0xbfcc9125e8500c7a	-0.22317956775086484
109	0x3fe06d3fa1fa6e16	0.5133360065114541
110	0x3fe570fdb3857871	0.6700428491856326
111	0xbfe55d350842a9b5	-0.6676278268180825
112	0x3fb7d9752dc1b7ed	0.0931618916235661
113	0x3fe9e959f4bd8211	0.8097352771838492
114	0xbf9a66f8aa042c62	-0.025783429505321094
115	0x3faaa24078661ccc	0.052019133278969315
116	0xbf9066fba55e0f8d	-0.016017848938204394
117	0x3fb7fd49f1684e6e	0.09370863097893231
118	0x3ff38d699dbfc49a	1.2220245515893908
119	0x3fd7ebc3799f0f5d	0.3737648666103633
120	0x3f7e43fecf5ce20e	0.007389064170461269
121	0xbfc731da7625efbf	-0.18120890397028508
122	0xbfc98d3af5047650	-0.19962250674955095
123	0x3fee11439c7e8401	0.9396074348952653
124	0xbfc5c3f82e0a498b	-0.17004301307731526
125	0xbfea5f3eb1446c27	-0.824126573777339
126	0x3fd803b69bbba9fb	0.37522664268786315
127	0xbfd2d44364d33e8c	-0.29420552107055964
128	0xbfe7e0a8c77bb5ff	-0.7461742302090782
129	0xbf9da2a2bec066b4	-0.02894071854834719
130	0x3fdc17743a85b8f2	0.4389315196521145
131	0xbfb7c11fab78d5d3	-0.09279058395698962
132	0x3fcb0e1d75de0982	0.2113682580494008
133	0xbfcb891a3132c6c9	-0.21512153055441832
134	0x3fab3ff28d4dbed2	0.05322225546740146
135	0xbfd59ffb2afe5e11	-0.337889472948036
136	0xbfea7e83f98f638d	-0.8279437898846581
137	0xbff05039e07bcb3a	-1.0195864457024997
138	0xbfe1de605cea6caf	-0.5583955588112043
139	0xbfe48d1bea8c5aba	-0.6422252255459491
140	0xbfd45ec19b82a549	-0.31828346430355176
141	0xbfe00d88d50055ef	-0.5016521606618748
142	0xbfdee4e00fe1745c	-0.48271943617675617
143	0xbfca67c083f2c011	-0.20629126017365754
144	0xbf82d5dbf8d5615f	-0.00919696667794828
145	0xbfe17558ca8501b3	-0.5455745654544927
146	0xbfd022a4a8b24fe3	-0.2521144530703607
147	0xbfe054ee7c645e39	-0.5103676251919246
148	0xbfd18e03b969956a	-0.2742928801220247
149	0xbfdda41395f5067b	-0.46313943523646345
150	0xbfdc6a232d41acf5	-0.4439781133612109
151	0xbfef5032ca154284	-0.9785398432669159
152	0x3fbf80c2da5ed5e3	0.12305848914441912
153	0xbfe7437cf18fdd64	-0.7269882886893524
154	0xbfe1ac66c42a65ff	-0.5522950965270751
155	0xbfd9e2719d5c2416	-0.40444603316478955
156	0xbfda7957a6bc0ec0	-0.41365615160632885
157	0xbfc9ea657e52354e	-0.2024657122423527
158	0xbfe8297569a6d1aa	-0.7550608695515184
159	0xbfdc06138a08ab5a	-0.4378708694445571
160	0x3fd4d8b41c854717	0.3257265356561318
161	0xbfda249977cb3fe7	-0.4084838552344067
162	0xbfce6c8f1ab7424c	-0.23768795780644536
163	0xbfe999bfa1cc9e51	-0.8000181350843808
164	0xbfbdcc1e1e696f67	-0.1163958381889053
165	0xbfba671ac8480e1c	-0.10313575162586414
166	0xbfca954c3bd3339e	-0.20768120690482034
167	0xbfbbfa2ab0992d4e	-0.1092859917782125
168	0xbfd5917469b7df8b	-0.337002852669223
169	0xbfc83130fe0ddf29	-0.18900120167722292
170	0xbfda41cbda39c75e	-0.41026588736632685
171	0xbfd3156837972254	-0.2981815855860408
172	0xbfc6d419d7049d18	-0.17834780692030772
173	0xbfc5d7e7b6988619	-0.17065140167055473
174	0xbfd2c4af971ba884	-0.2932547546066717
175	0xbfe61db92980a3eb	-0.6911283312412001
176	0x3fd1c9d757562f5c	0.27794440773936
177	0xbfbd209056dbca16	-0.1137781345421803
178	0xbfd5037aad870dca	-0.3283373541455289
179	0xbfbeaabc55542bd0	-0.11979271968100069
180	0xbfd2d3d39156f700	-0.29417885964709
181	0xbf63cf54b40bae96	-0.0024181990014449746
182	0xbfd086b403ceffa4	-0.2582216298287625
183	0xbfacb83ecd1edb63	-0.05609318021691114
184	0x3fc8742bbd92a831	0.1910452533387015
185	0x3fe2dbbd0775322d	0.5893235345516296
186	0x3fc6f3731642e91b	0.17930449091893128
187	0xbfe4dab0a82bcb94	-0.651695564707881
188	0x3f3984254f3066db	0.00038934622642870586
189	0xbfd64c5067e34f1c	-0.3484078421144987
190	0x3f9c0580fcd9f808	0.02736474555285187
191	0x3fe1b8222e16d259	0.5537272358111053
192	0x3fc5fdbb524ae18e	0.17180577772320443
193	0x3fd951abf0ebc81a	0.3956098416084629
194	0x3fe76632bea608eb	0.7312253688435509
195	0x3fdea25a98e23514	0.478659295368588
196	0x3fd93d947ff814a8	0.3943835496614363
197	0x3fdb4fef5b4654d7	0.4267538443903737
198	0xbfcb86185139fa02	-0.2150297543157223
199	0xbf9ff7675a9c81de	-0.031217207818487462
200	0xbfe1fcff6d495cf2	-0.5621335157874496
201	0x3fe03168a4b1a270	0.5060313431432188
202	0x3fe18e5e09e1c165	0.5486288254742645
203	0x3fd4e34c54fd98d1	0.3263731794344383
204	0x3fd29bd7ffdeab75	0.2907619475105812
205	0x3fc006bf7d094a6c	0.12520593266761482
206	0x3fdc99256c2d6582	0.4468473011416664
207	0x3fb7a8230895b21c	0.09240931472385977
208	0xbfcdbf41e625a4bc	-0.232399213196265
209	0x3fcdbded56951b6f	0.2323586151853436
210	0x3fdf078c35b5c10e	0.4848356747161383
211	0x3fd874ab39367035	0.38212090098545853
212	0x3fd49e0a9e247057	0.3221460861548215
213	0x3fd84080e7ee3e5b	0.3789369835803648
214	0x3fdf40b24677367a	0.48832375413335394
215	0xbfd6f27af6161861	-0.3585498240648857
216	0x3fc70bdd56cec2b4	0.1800495790353317
217	0x3fcfef38de28f9f9	0.24948798034343136
218	0x3fd8d57038154d6a	0.38802724339367123
219	0x3fc6e28bc60b0253	0.17878863496845784
220	0x3fe1d419f59f9fee	0.5571412846884394
221	0x3faea256e751c6a5	0.05983230184291458
222	0x3f98a9f8b7e785ed	0.024085890030510915
223	0xbfd52d6718e98c47	-0.3308961623462818
224	0x3fc6b09bee1c51a9	0.17726468206877868
225	0xbfc5b94af325e083	-0.16971718666514243
226	0x3f98f3f2834c747c	0.024368085159143224
227	0xbf96f577a1094552	-0.022420758441801532
228	0x3fe94b02565875bf	0.79040638794293
229	0x3fb276b90e6d3c81	0.07212406732763733
230	0x3fcc6c8334a80cf7	0.22206153937450043
231	0xbfcdd77ae81efba3	-0.23313843091997652
232	0xbfc29b48838ecd1c	-0.14536386893960518
233	0x3fe1e506343e7c23	0.5592070598976345
234	0x3fedec7e5951a187	0.9351188416012953
235	0x3fe86d42f49fbf3c	0.7633375909626703
236	0xbfa1e6730e6d978a	-0.03496131468891324
237	0x3fbaf5eb65fec061	0.10531493415942485
238	0x3fe23d7fc50b5827	0.5700072144052272
239	0xbfe30b14de51aab6	-0.5951027242820917
240	0xbfd2b63fe0667814	-0.29237362779702036
241	0x3fe6e664b48af195	0.7156241918778955
242	0x3fd780771f732c95	0.367215901100914
243	0x3fcb0722bbc55832	0.21115526360034803
244	0x3fcc6b70cc20a9b0	0.22202882735412066
245	0x3fb3b4e3f88a5601	0.07697892015342946
246	0x3fe295bca55b6b08	0.580778429949846
247	0x3fd66e0534cf0bb5	0.35046510846239737
248	0xbfe1cfe09f63fbd3	-0.5566256630989933
249	0xbfd39cc440e5727a	-0.30644327485587264
250	0xbfcd7162c2fe8afe	-0.23002275963980162
251	0x3fe483d861bf8465	0.6410943898337221
252	0xbfd2477db15d4e00	-0.2856134635996739
253	0xbff34b8041cfbed3	-1.205932862354463
254	0x3fde1022ef285198	0.46973489146446346
255	0xbfbade00f82c3258	-0.10495000895407125

layers.0.bias f8 [128]
0	0xbfe1fa2e67600b6e	-0.5617897051855445
1	0xbfe685a7ba1d43cd	-0.7038153300328475
2	0x3fe1ec723b431e14	0.560113063570443
3	0x3fbabd6389434318	0.10445234395161795
4	0x3fcef4fb6b431a22	0.24185126054199296
5	0xbfdfe136ac03193c	-0.49812094495827686
6	0x3fce10e63aed1ba4	0.23489072682624823
7	0x3febaf40bc8d6003	0.8651431734715519
8	0x3fbc36ab565d75be	0.11020918711206826
9	0x3fdaa3e4970ac34b	0.416253230573649
10	0x3fcc7bb0a13eaa6e	0.2225247180297915
11	0x3fd52bed1f0f1c72	0.3308060458479708
12	0xbfe87fbe34c03a3b	-0.7655936270037452
13	0xbfeafed1d1126e50	-0.8436059077680031
14	0x3fd00515dbd3964f	0.2503103873008045
15	0x3fdd7456b2b8c595	0.4602257485704169
16	0x3fc81d484c5e6cc4	0.18839362839648832
17	0xbfb3a6bf590aea43	-0.0767631142033816
18	0x3fe1e6ba807ffe46	0.5594151029362784
19	0x3fc45bb00e2adfc5	0.1590480870415815
20	0x3fe6499d98ef8e6c	0.6964862811114023
21	0xbfc4f5558109c23d	-0.16373699951829393
22	0x3fcd38dfc38fae6b	0.22829815911187565
23	0xbfd2bedb58f1c67e	-0.29289897619228344
24	0x3f98824b730ca7e2	0.023934534928379388
25	0xbfe540f4e439ff05	-0.6641792733716733
26	0xbfcc2a6bc41c14f4	-0.22004458499592483
27	0x3fa8d857381e28a1	0.048525548553770344
28	0xbf99405c11255910	-0.024659575029852
29	0xbfe454c641aea5e5	-0.6353484423499905
30	0x3fd2cef7bfa6b498	0.2938823100656207
31	0x3fd79ff9d21bed3a	0.3691391517492836
32	0x3fb89ce567cefb94	0.09614404472720955
33	0xbfda4c129d21217d	-0.41089310974759724
34	0x3fc62b93d791880e	0.17320488000683593
35	0x3fd1d6e86c58afa3	0.2787419374533277
36	0x3fe58ae90df42da6	0.6732068321738793
37	0xbff1de90dee4ebb2	-1.1168373781972432
38	0xbfe63519cef85b71	-0.6939820330033922
39	0xbfd8d5e43c25bc18	-0.3880549037339178
40	0xbfb53a35a4b1bae2	-0.08291945715766816
41	0xbf79775d7aec3645	-0.006217351109410856
42	0xbfd07140c060a4a6	-0.2569124106108326
43	0xbfd652aa37f446bf	-0.34879546608236106
44	0xbfe651212fd2098c	-0.6974035200112652
45	0xbfa87525d3f75009	-0.04776876652218227
46	0x3fc8d8cf0e15d4b3	0.19411647975690513
47	0xbfd851d44eeb54e2	-0.37999446589431163
48	0x3fc50969e36deef3	0.16434978108360773
49	0xbfd863d031fdad2a	-0.38109211809087873
50	0xbfeccd60dd4c4799	-0.9000706026292732
51	0x3fc876f6a203d978	0.1911304751481102
52	0x3fe10c09ab301912	0.5327194541467029
53	0x3fdd07655d48a1fe	0.4535764132474752
54	0xbfc130d70a0e82c7	-0.13430297843026137
55	0x3ff01e6326499988	1.0074187751393726
56	0x3ff0bb423833aef9	1.0457174487482332
57	0x3fd5afec13ecc407	0.3388624376848956
58	0xbfc3b0dae62d5313	-0.15383468855966295
59	0x3fb677250a04afab	0.0877555036028627
60	0xbfb9429463c8deed	-0.09867217479847641
61	0x3fe973f5e2361462	0.7954053323925445
62	0x3fe7137ecf2bb6db	0.7211298033050427
63	0x3fd29cb7d75a9675	0.29081531553888534
64	0xbfb13d5563eb37b3	-0.06734212579178127
65	0x3fc8bfd00f9da967	0.19335366022580588
66	0x3fb54ca22d4fb2f7	0.08320058447106847
67	0xbfc776afcf7bcdf7	-0.18330953246150702
68	0x3fe3efff193b5a2c	0.6230464451608149
69	0x3fe2c8d1def5b277	0.5870141367609695
70	0xbfd13818182eaa2c	-0.26904871331740554
71	0xbfc1ebeac2a29d36	-0.14001211646721295
72	0xbfdf516d949b81b3	-0.48934497368284297
73	0xbfd51f11c63df66a	-0.33002132758688296
74	0xbfde1e340372049e	-0.4705934556623762
75	0x3fb41063c3c82c8a	0.07837508706886545
76	0x3fd68b4d4131baba	0.3522523056662227
77	0xbfcb86dcb58f67e6	-0.2150531660579979
78	0xbfe6714bedb02be6	-0.7013301508280818
79	0x3fe2940663b8e3df	0.5805694530200717
80	0xbfadd09a0b9122f5	-0.05823212996671671
81	0x3fc8e9e69c295379	0.19463808655805417
82	0x3fd449683920d9b6	0.3169804151433725
83	0x3fe39b72c895c19b	0.6127256314921853
84	0x3fa92901d4aba92b	0.049140984736214165
85	0xbfdcf347762cd2b4	-0.45234858074699535
86	0xbfc3d163b884ec1d	-0.15482756147125168
87	0xbfe7d911978ee685	-0.7452476463433447
88	0x3fc166850f801673	0.13594115502216972
89	0x3fcb2d163e4bdc91	0.21231344262898635
90	0xbfc7bc3861f11fa7	-0.18543152601546106
91	0xbfd15c6cb65ca73b	-0.2712661534193221
92	0xbfd1bd70d6f8758f	-0.2771875476190297
93	0xbfae4090743f0607	-0.05908633631726095
94	0xbfd8fa0954fcae15	-0.3902610139800527
95	0xbfd0041bf4334fb9	-0.2502508053560138
96	0xbfb6298268fde623	-0.08657088340069001
97	0x3fb723c44d0dd2b2	0.09038950806809501
98	0x3fe63fa77e7d9541	0.6952702970999455
99	0x3fd4ebce6b8be6b4	0.32689247610651795
100	0x3fe730db3af775e3	0.7247139121715772
101	0xbff1fd70f0c21be5	-1.1243752865427663
102	0x3fc304d3d9fe04e8	0.14858482498315273
103	0x3fdcbfceac183881	0.4492069893466422
104	0x3feb4ca25c7ef32f	0.853104763656665
105	0x3fcc22dcdb2f3138	0.21981392576561531
106	0xbfea246a607dbbd8	-0.8169452557175374
107	0x3faf595e6d1ef49a	0.06122870523493269
108	0xbfe4bef7e8969ec7	-0.6483115713826572
109	0x3fce3b97fa6d7ec7	0.23619365432658965
110	0x3fcfecbce3698f52	0.24941216568106
111	0x3f7e80dc52ac492a	0.007447109829416024
112	0x3fd4a6d42dd8deeb	0.32268242337475667
113	0xbfe56e574819b1aa	-0.6697193535051629
114	0xbfd4ca6f12a7e902	-0.3248555833994403
115	0x3fba0b9878be4a17	0.10173943469843781
116	0xbfe3bc446a6b2164	-0.6167318418966201
117	0xbfc069a2d7105537	-0.12822375775491832
118	0xbfb3d73b60befd93	-0.07750292884792591
119	0x3f95e88ea7f39e5e	0.02139494800658636
120	0xbfc06238d126e6d0	-0.1279974957704355
121	0x3fe27a72be6d044b	0.5774472922568149
122	0x3fc090365ec6b70f	0.12940101268525736
123	0x3febc58c8fb66237	0.8678648764499205
124	0x3fd5f8f0163a3465	0.34331895990982836
125	0x3fe5c95c56df47a2	0.680830163643112
126	0x3fc0e68762eecb74	0.1320351822920106
127	0xbfd468e8ece6a19f	-0.31890318999151107

layers.1.weight f8 [100, 128]
0	0xbfaaefe999d0351d	-0.05261163714031112
1	0x3fa6744f407b26ed	0.043856121655677295
2	0xbf9ea51e9bc97974	-0.029926756151661363
3	0xbfb9cc284da60b11	-0.10077144523351601
4	0x3fbe224e630da779	0.11771097105306962
5	0x3f87c6bcc8b6e513	0.011609530330007922
6	0xbfb3fc7c810a69d5	-0.07807138586432612
7	0xbfbdd852f0a84e3d	-0.11658209205079913
8	0x3fbb81ed65487c0e	0.10745128367169363
9	0xbf965391acd8db64	-0.021803165602445232
10	0xbf9dafa28b17e112	-0.028990306605892142
11	0x3fb16167d0690079	0.06789254034174687
12	0x3fa2854539785259	0.036173022523290306
13	0x3fb28eb700d7c0a2	0.07249015589309463
14	0x3fa52b3d5683cc42	0.041345516978161814
15	0x3fa46a47d76e808e	0.03987335686474679
16	0xbfab97e1838dfd32	-0.05389313441173228
17	0x3fadd7a61f74ed4b	0.058285895671782294
18	0xbf968a9883e94a45	-0.022013075877405325
19	0xbfcb4374b605e98f	-0.21299609077307166
20	0xbfa6e225f4d5623a	-0.04469412435236504
21	0xbfa2e34cba49e153	-0.03689040922194189
22	0xbfbd8c8be868c944	-0.1154258196263856
23	0x3fc0824420d33263	0.12897540667326543
24	0x3fb89ad1edfa94c8	0.09611236629514786
25	0xbf4917535c0cd7f5	-0.0007657200841097988
26	0x3fc1c50de6773bf0	0.13882611993037086
27	0x3faedc9097bb26ab	0.06027652599511887
28	0xbf8b0c79e8e09afd	-0.013207390231469324
29	0xbfbe7ce985beaf48	-0.11909350886588499
30	0xbfb36fbcbf192488	-0.07592372575267536
31	0xbfb702dfd78d5b41	-0.08988760960106125
32	0xbfb0a26d4b45c728	-0.06497843826016647
33	0x3f7b1a989fdb8e3e	0.006617160977586743
34	0x3fbad7bd731eeca7	0.10485443172994967
35	0x3fc4cf05717ce6b7	0.16256778756524223
36	0x3f8a5b360826a323	0.012869283794161362
37	0x3f94ba9d6851a086	0.02024312924587026
38	0x3fb010ad6e11d932	0.06275447785614999
39	0xbf8c4906288c5207	-0.013811157333784697
40	0xbfb1b3b0e83d0d29	-0.06914811773190323
41	0x3fc98bcd2674f770	0.19957889917162275
42	0xbfc44b42239e7ee9	-0.15854670275893248
43	0xbf723e3d92a849ee	-0.004453888434471127
44	0xbfb32e7c0f29f768	-0.07492804880345505
45	0x3fcf724dac305160	0.24567576320317652
46	0xbfb0638177873d54	-0.06401833694620979
47	0x3fd03f3617e0af98	0.2538581116848433
48	0xbfc49097fa5a9e16	-0.1606626484328763
49	0x3fa741cb8e146283	0.04542385205622159
50	0x3f70c9d727d7aacb	0.004098740054795778
51	0x3fb0d12368e1da75	0.065691197496429
52	0xbfaaf14a23ef2d9d	-0.052622143637189846
53	0x3f96d9478bfc52ef	0.02231323043732208
54	0xbfa42a06e2f96de3	-0.03938313980753685
55	0xbf999853d979c2ec	-0.024995145939501848
56	0x3f587c0a93edf706	0.0014944175051989097
57	0xbfbb73bc2261f5e8	-0.10723472442074178
58	0x3fad67a5f26a69b5	0.057431398240811594
59	0xbfb1248e5118f023	-0.06696404914777125
60	0x3fbfe30afd7d92fb	0.12455815018399712
61	0xbf8539803b6a74dd	-0.010363580525615418
62	0xbfba71449b0d1102	-0.10329083238054085
63	0x3fa151fceae51268	0.033828643487628096
64	0xbfb0fd90f14fcaee	-0.06636911288641631
65	0x3f6f890a7061ce08	0.003849525822312353
66	0xbf94e0fc8f7f2f7a	-0.020389505632734985
67	0x3fb19d46f50d1a3f	0.06880610926337115
68	0x3f9e3600820237e7	0.029502876219844067
69	0xbfbf9b9487bb7974	-0.12346771539475815
70	0xbfc95aad72f71d36	-0.19807975877322698
71	0x3fc03a066f6349d7	0.1267707866559948
72	0x3fb23c858f0d4e95	0.07123598806838978
73	0x3fb332f55a207d77	0.07499631357540247
74	0x3f8efb29ff16817a	0.015127494904675787
75	0x3f9a4e5ec94cace0	0.02568958381304476
76	0xbf94496c0d0c9e86	-0.019811332985368434
77	0x3fb7ebbccf621cbb	0.09344081938808106
78	0x3f851ebdc1c1d8e8	0.010312540507794357
79	0xbfa9b2eae2b3ef27	-0.05019315736168855
80	0xbfbe89e183f1964f	-0.11929139586717351
81	0xbfc4ba7e0e474f5a	-0.1619412965507035
82	0xbfc035b6d09bf168	-0.12663922487252965
83	0xbfb0401f843df3fe	-0.06347844103397901
84	0x3fc4c4381f008a90	0.1622381354691993
85	0xbfb38c3d8015ed44	-0.07635864617434601
86	0x3fca2c84cfb8ce57	0.20448360579176736
87	0xbf966c46419de1dd	-0.021897409205367303
88	0x3fb662013aba1421	0.08743293460618463
89	0xbfc231daee93b6fd	-0.1421464600493251
90	0x3fb17c1ab9e3552e	0.06829993284494115
91	0xbf9d19b0b4702900	-0.028418313038891974
92	0xbfb04c0ae136ebb1	-0.06366031645204263
93	0x3f968590f33eeaf3	0.021993889662307486
94	0xbfb5c74823c3c203	-0.08507204888497459
95	0xbf949e2b261fdee7	-0.02013461513703776
96	0x3f7701aede8505bf	0.00561683948791497
97	0xbfb11b8997ec8079	-0.0668264385135461
98	0x3f05a963a664b5c5	4.1316369605897146e-05
99	0xbfb2ed663fc9f9d0	-0.07393492753360609
100	0xbfb15d8a32992962	-0.0678335546046234
101	0x3fb4def76b30dc91	0.08152719847645275
102	0xbfc1bd54a5c6166b	-0.13859041304037886
103	0xbf97fb326e80c277	-0.023419178003850818
104	0x3f88d29d9139c2fb	0.012120467180666497
105	0xbfbaa65742b0ee31	-0.10410066011621023
106	0xbf89e2b02407b786	-0.012639404391815889
107	0x3f9ec108b4b313d6	0.030033241299651646
108	0x3fc2d960f0629e11	0.14725887048301492
109	0x3fb17a606bdc9a8f	0.06827356942504025
110	0xbf987787542f5676	-0.023893465531577417
111	0x3f995244671d073f	0.024727886956731778
112	0x3f9740d360a9baad	0.022708227896539302
113	0xbfa185aa98a41536	-0.03422291863720732
114	0xbfb26312844aefb6	-0.07182422380259265
115	0xbf95d748f43c9568	-0.021329059512159715
116	0xbfb23e16481eacb0	-0.07125987301576475
117	0xbfb0059ef463702b	-0.06258576838030254
118	0x3fa9aa669e53fb62	0.05012818033900747
119	0xbfb3f42367e55733	-0.07794400488395752
120	0xbf96d550e07679f9	-0.022298110675928105
121	0xbf9da47ca9c9e770	-0.028947780478552898
122	0x3fc24afee27fb90a	0.14291368541257327
123	0x3fa1a67966c1f6cd	0.03447322253576388
124	0xbfbdd3cb7f6924d8	-0.11651298390019649
125	0xbfa33870f1db100c	-0.03753998710956816
126	0x3fbf89390f0beba0	0.1231876050696159
127	0x3fc22a77791bbf6e	0.1419209805821952
128	0x3fc28416867208f6	0.14465600552291108
129	0x3fe1a6e53d8fc3ac	0.5516229822516059
130	0xbfc71eeedb752b43	-0.18063150134761416
131	0x3fd49cda1a6fa279	0.3220734842457556
132	0xbff04fbf0bdf7bf1	-1.0194693053997492
133	0x3fb5dcd149983dda	0.08540065809960798
134	0xbfe2485bf56fdc16	-0.5713329118433446
135	0xbfe27c1534e064ec	-0.5776468308205529
136	0x3fdfd916e4e481b1	0.49762508728783944
137	0xbfd818fced7ee1fa	-0.3765251464169804
138	0x3fc40e92afbf239c	0.1566947324884297
139	0x3fd063c2cf1b259b	0.2560889265556285
140	0x3fe3885eb347e1bc	0.6103967191293616
141	0x3fd3bdd1044e2da6	0.3084604780239836
142	0x3fc7ea1477765221	0.18683105309595852
143	0xbfc8bc88ab310c56	-0.19325359686817717
144	0xbfc1451c3f867928	-0.13492158033199897
145	0x3fddf3cacc2cebd9	0.4680048936749564
146	0xbfea8532fce55cc2	-0.8287596644758184
147	0xbfd1ebafee6afb1a	-0.28001020701405965
148	0xbfc1dfc8352f5c95	-0.13964178654598372
149	0x3fce1e676912603a	0.23530285482843444
150	0xbfcf5b69b91d17fc	-0.2449772027850371
151	0xbfda38881f704935	-0.4097004229562516
152	0xbfdc8329929cf6e5	-0.44550551717462233
153	0x3fef9df51322c4c6	0.9880318998094928
154	0x3fa47c3d134a21d3	0.04001036510914315
155	0x3f9ca23a58a3447a	0.027962600383777382
156	0x3fdbc76ed09ec1d1	0.43404741643010164
157	0x3fdfba9d05130422	0.49576497550521215
158	0xbfcafb4e425bc611	-0.2107942413345403
159	0xbfcb438d53b676dd	-0.21299902522598915
160	0xbfde08d27f81d538	-0.4692884679019076
161	0xbfbc78264bf3165d	-0.1112083373473864
162	0x3fd8cfdc863e0472	0.3876868544539952
163	0x3fd5cccbde07cf98	0.3406247776285851
164	0xbfe1d30cc1503c61	-0.5570129180577049
165	0x3fdc942d90cf173f	0.4465440668249023
166	0x3ff9255dc884587d	1.5716226418203683
167	0x3fe3527d1dd434c1	0.6038194258304871
168	0xbfbb10a4f6c6a627	-0.10572272324375175
169	0xbfcc0a8c6e339075	-0.2190719163983236
170	0x3fc95ed0b5d8ab0a	0.19820603255478658
171	0xbf9e93f4e77bfd00	-0.029861284855539516
172	0x3feecf92f245d748	0.9628386241808835
173	0xbfc554b1b8b19aa9	-0.1666471626114874
174	0xbfc79f57f7c84a5a	-0.18455028151273006
175	0x3fdac1335c34f96a	0.41804203037818033
176	0x3feb14eee874d845	0.8463053264774848
177	0x3fdf10c3770e21ed	0.485398165001725
178	0x3fe9b9543d08d8bd	0.8038731758195109
179	0xbfe08ca4710e166e	-0.5171682556253481
180	0xbfd13643489e8363	-0.26893694011419295
181	0xbfcc1ad12290d5c4	-0.21956838786870325
182	0xbfd8374b8904c15e	-0.37837494259567517
183	0xbfd1a3bcb2a7f99a	-0.2756187195481289
184	0xbfe66cbffe95a422	-0.7007751438478673
185	0x3fb76fc951b8fb61	0.09154947514705959
186	0x3fe02b6a29259791	0.5052996448182389
187	0xbfe3fe1a77da6e07	-0.624768480385172
188	0x3fc6a9a286d3cdbf	0.1770518453919134
189	0xbfcf8ff34f4f8d89	-0.24658051846118337
190	0xbfe932821480ab8c	-0.7874155426446676
191	0x3fb9185d0cb7ab3c	0.09802800713047771
192	0x3fcd16bc7f0c8cb7	0.22725635722699675
193	0x3fd8744adfa45efa	0.3820979293827659
194	0x3fd3c435de360f18	0.3088507337599693
195	0x3fb53796408406d2	0.08287943911639253
196	0x3feb8fe9a8b444a2	0.8613174719813694
197	0xbfbbf76a5336fb29	-0.10924400836573213
198	0x3fc71089a488be36	0.18019218953985366
199	0x3fa552d4ec630b5c	0.04164758096296481
200	0xbfb0aecdc341b7e0	-0.06516729371079988
201	0x3fe90e4406057856	0.7829914205174286
202	0x3fdbdc3aa67d737a	0.43531671770852365
203	0xbfb84da3cfb286d7	-0.09493469067322323
204	0xbfc0306031b41bd4	-0.12647631098681578
205	0xbf9adee1788d5c1a	-0.026240847571298166
206	0xbfdacae2297f6b20	-0.41863302280914816
207	0xbfbe9709cd2ca4e9	-0.11949216136112607
208	0xbfdd69a5c8deb0b8	-0.4595732175464593
209	0x3fe1bc8a19c591b0	0.5542650702814651
210	0x3fa5ade5fb22dfa8	0.042342364221837514
211	0xbff397e9fe523cc9	-1.2245883879111708
212	0xbfe4540528c820ed	-0.6352563663977243
213	0xbfe01384cd6b0cdd	-0.5023826610635315
214	0xbf90c05cb72cd539	-0.016358803444025603
215	0x3fd9dccde43d8f53	0.4041018227492163
216	0xbfdbec405cf4632c	-0.4362946422348155
217	0xbfbfee0ba257135f	-0.12472603524572666
218	0x3fe84da43d5d7a1b	0.7594777296579339
219	0x3fca78160a945dfb	0.2067897369058612
220	0x3f932abcf07954ee	0.01871772020088696
221	0x3ff9100cbd974edf	1.5664184003734858
222	0x3fc8b693675494eb	0.1930717711012798
223	0x3fe627719a563438	0.6923149122609464
224	0x3fe4542fccbd383a	0.6352766989528
225	0xbfcd9a5f508c467e	-0.2312735694218197
226	0xbfe2b3a7383d0e53	-0.5844303224952888
227	0x3fd0e84df10b547c	0.26417873897054966
228	0xbfe60dff55b39157	-0.6892086671692067
229	0x3fdaebdf77b50769	0.4206465405478555
230	0x3fa5f49fec3f2ab1	0.04288196333762551
231	0xbf43d85e3d17d3e9	-0.0006056270742066358
232	0xbfd1e0e144995624	-0.2793505830680678
233	0x3fa48739360ba9de	0.04009417328582619
234	0x3ff36909bc9a9c72	1.2131440512983116
235	0x3f7d4871c930d58c	0.007149166561295838
236	0x3fe71bbab6eff92d	0.7221349308963788
237	0xbfe5aac7cac5ed3a	-0.6770972214139086
238	0xbff4024f7ea2186a	-1.2505640932663717
239	0xbfb25a72ebb34f47	-0.07169264082341185
240	0xbfe41efe39c7be05	-0.6287833336372733
241	0x3fb72bd9fc7816e8	0.0905128709201467
242	0x3fdee6d79ea4858e	0.4828394936795001
243	0xbfe684ac11e4247e	-0.703695330566134
244	0x3fd37cd3247be7e4	0.3044936996735699
245	0x3fce709b7197f10c	0.23781149908598598
246	0xbfb573d6a951ecc5	-0.08379880555905846
247	0xbfd13ba4319e26ec	-0.2692652210758826
248	0xbfc464fe9bf347e3	-0.15933210959207064
249	0xbfe58c367e348297	-0.6733658280318932
250	0xbfe0fcb4e8c435b1	-0.5308479829997649
251	0xbfde8e99c68d5ad9	-0.47745365514621835
252	0xbfd09ed5faf9fa4d	-0.259694571584906
253	0xbfed41cf447ce2ee	-0.9142834031727867
254	0xbfd45153b68da7f7	-0.31746380641436595
255	0xbff0232724b8a841	-1.0085822519709071

layers.1.bias f8 [100]
0	0xbfa29e47f88d70c6	-0.03636383923614654
1	0x3fb2149633f10aa7	0.0706266285715552
2	0x3f86fdcb4400fce4	0.011226261151135515
3	0xbfb97a4aef683507	-0.09952228875063805
4	0xbf86e89dde11e6a1	-0.011185868587051674
5	0x3fc917a69e06b082	0.19603426662559192
6	0xbfa0eac6dc7951d6	-0.033041204846685865
7	0x3fb5387930854502	0.08289296564659668
8	0x3fba44884f317158	0.10260822232652822
9	0x3fb16435f9806126	0.06793534604401383
10	0x3f94c10e87e0f089	0.020267703097701904
11	0xbfa0bdf080db5b7e	-0.03269912312469268
12	0xbfa71448afd0303d	-0.04507662912519137
13	0x3f9eab8ade7c9411	0.029951257543093194
14	0xbfb8731660db4412	-0.09550609459553552
15	0xbfa0a210f1154234	-0.03248646681698056
16	0x3fa35f7b07d78468	0.03783783407903557
17	0xbfcb8fc3f2fd1556	-0.21532487263372485
18	0x3f6ad6f6a6313199	0.0032763306967693137
19	0xbfb2fab514a110c1	-0.07413799050943039
20	0x3f9f7ff96c1656a6	0.030761620733378202
21	0xbf9b7a647c097ac2	-0.026834077902430982
22	0x3fc2811fc53640bc	0.14456555490006007
23	0x3fb223098df40812	0.07084712711005661
24	0x3f555937741c040c	0.0013030091799353131
25	0x3f88522a6f11aedd	0.011875468744811208
26	0xbfc3172388a795c9	-0.14914364025677987
27	0x3f9a5e2fad2e01f2	0.025749916977931116
28	0x3fa6e03795680d64	0.044679390895931786
29	0x3fc232a88be71a67	0.14217097121418762
30	0x3faaf5345c66be8b	0.05265201213785272
31	0x3fc17e99ae1e8e1d	0.13667603494569472
32	0xbfa0445e7fd6585c	-0.031771615128648206
33	0x3fa2d8e7ae54b501	0.03681110385000786
34	0x3faee4d051778059	0.060339460320165635
35	0xbfc0b8e8f359497d	-0.13064300424828082
36	0xbfb6d7fbd716b55c	-0.08923315049351771
37	0xbfb5cfb83eaecb89	-0.08520080118505126
38	0x3fbcca2f3c7d497c	0.11246009089271597
39	0xbfd6ab86e48e4785	-0.35421917266750597
40	0xbf855d8f8e6aefd1	-0.010432359250778152
41	0x3f967d7741070e48	0.021962989181487452
42	0x3fa07a1a9d087b8a	0.032181579274257535
43	0xbf92c70cb1eec040	-0.01833743892683537
44	0xbfb6f9747731e618	-0.08974388036758574
45	0x3fb9fc994c169052	0.10151060207005116
46	0x3fa027fd0d700b4e	0.031555087938633805
47	0xbfa98309a3fd6e45	-0.049827862995439655
48	0x3fa36b9c507de9f5	0.03793037874762099
49	0xbfb158089cd540e3	-0.06774953679019151
50	0x3fb37083842371ee	0.07593557334934761
51	0xbf539b0e4ac9232e	-0.0011966361590955532
52	0xbf8c7a2a5dcf8310	-0.013904887187835807
53	0x3f9682759764b291	0.021982037892643694
54	0xbfa1e01f41c9f1d3	-0.03491304090582372
55	0xbf845196e8144e90	-0.009921244580744643
56	0x3fcc7fe62d28b283	0.2226531715872576
57	0x3fb069fc156accf0	0.06411719820862394
58	0xbfbdbb8dc57df168	-0.11614309379178211
59	0x3f9d58de064cf66f	0.028659314283905276
60	0xbf9756f9e8a12c2d	-0.022792725394804748
61	0xbfafc101b8dd1705	-0.06201939946781291
62	0x3faca249821f9c81	0.055925652631963814
63	0x3f9ca38068e5a483	0.02796745910874111
64	0x3fb7def85740afbb	0.09324600343887728
65	0xbf7dd8aa8857875e	-0.007286707060730395
66	0x3fa67f4cb0fac51e	0.043939968685103845
67	0x3fd7466753bbeb8b	0.36367209603457046
68	0x3fbb2657c16753f7	0.10605381461876094
69	0x3fa0490b388184f6	0.03180728020448413
70	0x3f59a4a06baf3fe6	0.0015651289565887737
71	0xbfb743fb8ffdcc27	-0.09088108315863562
72	0xbf871ebac291893a	-0.011289080679664044
73	0xbfa70957a0000000	-0.04499315097928047
74	0xbfcbabf518ec58b0	-0.2161852237410975
75	0x3fc0b36739898c50	0.13047495183409064
76	0x3fce3f36434dc023	0.2363040760642444
77	0x3fb06f62b0d1e147	0.06419960801020351
78	0xbfa95a9115fee607	-0.04951909440519491
79	0xbf74a819151a9c46	-0.00504312322451656
80	0x3fac30cd9fbecccd	0.055059839010391444
81	0xbfad914748fcd959	-0.05774901166880637
82	0x3fbb1fad6273b83b	0.10595210698713313
83	0x3fd33f21baffcc22	0.3007282568134447
84	0xbfc0cca348a85707	-0.13124505088551805
85	0xbfb1651379add722	-0.067948548514178
86	0xbfb9d60078715558	-0.10092165890212834
87	0x3fc9f7f43475b5e1	0.20287945329202642
88	0xbfa81b1b4367408a	-0.0470818061618284
89	0x3fcac994c83879e9	0.2092767694129656
90	0xbfbaed495ac1d0cd	-0.10518320527791332
91	0xbfa7a3a8e8c28948	-0.04617050019557439
92	0x3fcdaffa1ec6b38a	0.23193289282553692
93	0x3f97726d4977730b	0.022897441491170272
94	0x3fc273287bdc8385	0.14413934753340754
95	0x3f5fdcbfb7939db2	0.0019447204816119665
96	0xbf84cf3cfccf9183	-0.010160900559591074
97	0x3fcbcdd74f75b0b5	0.21721927051419745
98	0xbf7160661460cc48	-0.0042423236355260754
99	0x3fb03faa04f91f3f	0.06347143765844708

layers.3.weight f8 [100]
0	0x3feeacae1f71a241	0.9585791219843217
1	0x3febe426230134e9	0.8716002162633717
2	0x3fef105f25e6acc0	0.9707484951262799
3	0x3fee88074f8d1350	0.9541050485355331
4	0x3fefc4b871c00a41	0.9927637311632865
5	0x3fe1c2c33f8ed82e	0.5550247422568242
6	0x3ff0dab01876a383	1.0533905940630752
7	0x3fe2b9ae12b96c34	0.5851660123547675
8	0x3fefda3db0b988f3	0.9953907443671411
9	0x3fed409092701af8	0.9141314373126468
10	0x3ff012088ecc2a54	1.0044026926067504
11	0x3ff4b2de1cd7241b	1.2936688543870847
12	0x3fef254a8a9462f0	0.9733021456368913
13	0x3fef31dbd81e3033	0.9748362752011474
14	0x3feed0bd04ce0344	0.9629807561724211
15	0x3febfaf350215f52	0.8743835988088711
16	0x3fef10269f3d436a	0.9707215414183399
17	0x3ff1a46c9b182623	1.102642637097582
18	0x3fec8e101cd37208	0.8923416674620634
19	0x3ff13acc355baf27	1.0768549045851132
20	0x3fee2e42b44b5a0e	0.9431470414518246
21	0x3fd7d50304e0e72f	0.3723762080804702
22	0x3fe5f0043d73034b	0.6855488968068156
23	0x3fef8e5b74a7a759	0.986127593843075
24	0x3fef4a970112f98f	0.9778552075365939
25	0x3feddb709b3a45ae	0.9330370933332028
26	0x3feb45df625d0874	0.8522793694649082
27	0x3ff15657818cf32a	1.0835795460290663
28	0x3fe58faeff4bc801	0.6737894998789217
29	0x3fe741d32f2a9b2d	0.7267852708072035
30	0x3feeef5f341f200d	0.9667202013015427
31	0x3fe4963fad6ea708	0.6433409106586803
32	0x3fed69b38a972f63	0.9191529948088654
33	0x3fe6f32b3a609b57	0.7171836986716283
34	0x3feeae2b504d46d4	0.9587608879466765
35	0x3fefef84d7b485e9	0.9979881489745682
36	0x3ff24b79e664a6e6	1.1434267997487324
37	0x3fefd2ca301f2462	0.9944811763645129
38	0x3ff0390af5d3c696	1.0139264681460296
39	0x3ff6a4b87a88b63b	1.4152149950490542
40	0x3fea30b899cba458	0.8184473995035075
41	0x3feec8b74dbba8e6	0.9620014684890321
42	0x3ff01fe11b325822	1.007783037411635
43	0x3fee8bbd1171a3b0	0.9545579281522034
44	0x3ff0bbd73dbfb35c	1.0458595668853468
45	0x3fe4c968a3a63e64	0.6495860286976947
46	0x3feefbf52af22928	0.9682565535343075
47	0x3fd0771d900c9412	0.25727023188875464
48	0x3feff933b8dfdbb2	0.9991701708630585
49	0x3fefbc659873f9de	0.991747663268878
50	0x3fed58c55183531d	0.9170862762499358
51	0x3ff0798932164eb4	1.0296718555954785
52	0x3ff0ad08ef8e0424	1.04224484993052
53	0x3fee840c77385f3a	0.9536192253608313
54	0x3fef7bf29651d130	0.9838803230218556
55	0x3ff0bdb39419cf38	1.0463138375461778
56	0x3ff21fad2ca0a860	1.1327335112823889
57	0x3ff01104d3977fba	1.0041549935631182
58	0x3feb6889326e2430	0.8565107331243151
59	0x3feb24155d539df6	0.8481547186647151
60	0x3ff1697f148dc443	1.0882559588319658
61	0x3fefcd005fe58034	0.9937745926836272
62	0x3fefed64ff451c41	0.9977288232556775
63	0x3feef2d971955c31	0.9671447008539699
64	0x3feb6263e5173a70	0.8557605242184092
65	0x3fe93121d5969354	0.7872475787777184
66	0x3fe8ebe18cfe36e2	0.7787940744180697
67	0x3feebcf13a4fb6e6	0.9605642451185445
68	0x3ff20dec88b56907	1.1283994045430192
69	0x3ff705a2d54df084	1.4388759929852606
70	0x3fee8de222e70903	0.9548197442711913
71	0x3ff091f2e089316f	1.0356320162710195
72	0x3fedaf5eba4a4cc6	0.9276574743729717
73	0x3ff0000000000000	1.0
74	0x3feec9bfc800e486	0.9621275812452417
75	0x3fe46a268441061a	0.6379578192792821
76	0x3fefa70fd1dcc3a0	0.9891432856439799
77	0x3fe071397d1c304c	0.5138213580662607
78	0x3feefd13cd5bc17a	0.9683932314783725
79	0x3feda146c27b8e84	0.9259370611657265
80	0x3fe665987d323489	0.6999018140064815
81	0x3ff0228b633108d4	1.0084337114972657
82	0x3ff36aa82819ab4f	1.2135392729203038
83	0x3feb8e3c6927be07	0.8611127904713961
84	0x3feea15240cb6d0b	0.9571925416488808
85	0x3ff05578f089e038	1.0208672901189981
86	0x3ff1a183d9cb5187	1.101932383307117
87	0x3fe7f5829693220e	0.7487194958603725
88	0x3fe8c93b1f1927b6	0.7745643241298612
89	0x3ff2b4c3c64824eb	1.1691320176490148
90	0x3ff0278ac24b3803	1.0096538152315595
91	0x3ff01ccd80c3a6f1	1.0070319204191345
92	0x3fec20434687280b	0.8789383294581524
93	0x3fee8f3ecb4865e4	0.9549859972350387
94	0x3fe5e562cdaec765	0.6842512147179433
95	0x3fee3198d6ad2cf6	0.9435543244266273
96	0x3ff3574eed525f19	1.2088155050641431
97	0x3fda06b557cacd29	0.4066594464631686
98	0x3ff20f3f4cfee702	1.128722477688314
99	0x3fed189bec8523b7	0.9092540378124941

layers.3.bias f8 [100]
0	0xbfd82649ea39fa9d	-0.3773369586341831
1	0x3ff09c55cb37698a	1.0381677568571797
2	0xbfdc5b44fcbb9714	-0.4430706470578667
3	0x3fe2cb40a450870e	0.5873110970753446
4	0x3fd3f68684d619dd	0.31192172024057446
5	0xbfe923c2287f90b7	-0.785615042780157
6	0xbfd21bb34605b8fc	-0.2829406913578081
7	0x3fb627f85979033b	0.08654739555732942
8	0xbfbffa85d3a517d0	-0.12491642396079716
9	0x3fcf02191201fd86	0.24225152377401232
10	0xbfe3d0b3b6d78f31	-0.6192263194211362
11	0x3f52c7e6ccdf1b8a	0.0011462930592515985
12	0x3f82eb3ccf4cf45c	0.009237742496788375
13	0x3fd5ce47be610ad5	0.34071534721094326
14	0xbfd8d7204808f692	-0.3881302550761144
15	0x3fcbb7630c6d6477	0.21653402430345967
16	0xbfdb6da925dfb0a5	-0.42856816004383297
17	0xbfdcdef9fb24546e	-0.4511094048078296
18	0x3fd929bbfbd125bd	0.3931722602033821
19	0xbfe13ebb51cbf58b	-0.5389076802818392
20	0xbfe591c2e9a8c822	-0.6740431369455602
21	0xbff01bf3a576e1fa	-1.0068241561367572
22	0xbfcdbfb49d71fa2c	-0.23241288841013963
23	0x3fe0ad5718e8de5d	0.5211596952930894
24	0x3fde00889699cd63	0.4687825651846735
25	0x3fdb8180ace6b100	0.4297792137611083
26	0xbfdf8974a3db21c5	-0.4927646255642027
27	0x3fd7b9f566aa3908	0.37072501207229935
28	0x3fdc216e16b8def9	0.43954040736160455
29	0x3f92518ac26c471c	0.017889183155666108
30	0xbfcaaec98153c342	-0.20845907988361928
31	0x3fea828ff4dc360b	0.8284377844262861
32	0xbfda5402d7f48341	-0.4113776310860438
33	0xbfdd43593eea37fb	-0.45723563331637224
34	0xbfdd2666199271d1	-0.45546867844839506
35	0xbfd01c1fa499ff17	-0.2517165286480902
36	0x3fdf1842d7899828	0.4858557801111396
37	0x3fe1dfe1d92d1321	0.5585793725700549
38	0x3fcbbde11c293582	0.21673215746924873
39	0x3fd8e92f611f14ef	0.38923248753083234
40	0xbfca45bfd549219e	-0.2052535811838085
41	0xbfe0bb7a5008bfeb	-0.522885471646075
42	0xbfdce6726641a1bb	-0.45156536088918714
43	0x3fd6e7d2954b6b33	0.35789932803679675
44	0xbfe557ac1d94fbed	-0.6669521882794222
45	0xbfe5098555ae64a6	-0.6574122117482559
46	0xbfe2495783722604	-0.5714528624823179
47	0xbfeb3f4a0c382182	-0.8514757383973548
48	0xbfdc68dfd5498769	-0.4439010222323448
49	0xbfdc6dbac9a07e8d	-0.4441973656666754
50	0x3fce310fe64d1ed1	0.2358722567098455
51	0xbfe2346a8bd8e4be	-0.5688984614745534
52	0x3fdc0c5ab96b1a27	0.4382540522314308
53	0xbfe202aa6b9256b5	-0.5628254033096797
54	0x3fdf6d94132f4071	0.4910631358479867
55	0x3fe09002285ad822	0.5175791538411014
56	0x3fdacae6ebe90ee9	0.41863415754435934
57	0xbfe2b71c9e2e2ed8	-0.5848525132618887
58	0xbfdfcac0ff6fb8db	-0.49675011582338663
59	0x3f90c19cef83a777	0.016363575094977514
60	0xbfde1f556ea05ac6	-0.4706624584518234
61	0xbfdbc0330465b1c6	-0.43360591344278665
62	0x3fda01baeaf73ab4	0.40635559984086034
63	0xbfe078f9c7a3299f	-0.5147675418059413
64	0xbfda7b84b4d6cfca	-0.41378896389073516
65	0x3fbee548c309d866	0.1206860996406661
66	0xbfc6a6702fa86e3e	-0.17695429160163373
67	0x3fe8cb51ed8ca99b	0.7748193397176694
68	0xbfd144d6a395c130	-0.2698265645513116
69	0x3fe2d67b8ff8d606	0.5886819660142357
70	0xbfd042a2a8e5b690	-0.2540671014201985
71	0xbfddfff40e3109f6	-0.46874715219396934
72	0x3fdf69409f064bd2	0.4907990982985072
73	0xbfe43298a893d4ff	-0.6311763088730514
74	0xbfe19d011fdcf4a0	-0.5504155752493212
75	0x3fbd56b2014f66ab	0.1146041157911905
76	0xbfe9d5e856a38c54	-0.8073617641606554
77	0xbfe66bf9ac2bda0a	-0.7006805765839215
78	0xbfe0a9fe29a56e7f	-0.5207510770228082
79	0xbfc08758858ac29e	-0.12913042564971006
80	0xbf873839db7f6c8e	-0.011337711344756831
81	0xbfe29cc16c7f9e5c	-0.5816352004157568
82	0x3fa16b057cd155d9	0.03401963375715029
83	0xbfef1c0887c22de2	-0.9721720363172006
84	0x3fd99fddaa3e70de	0.40038243890172776
85	0x3fd9fd511507a87c	0.40608622602179145
86	0xbfc963499d846687	-0.19834251586216942
87	0x3fe61cba72baab2c	0.6910068741611659
88	0xbfe4ad53e8436d68	-0.6461581741709042
89	0xbfc8abf12026dc05	-0.19274725027000286
90	0xbfc29e3596ff4722	-0.14545316574963701
91	0xbfe2babb209e0591	-0.5852943074279883
92	0xbfe4d20d35c4b1d4	-0.6506410646593914
93	0xbfe17c31bbf0131c	-0.5464104338321678
94	0xbfe7ee72b58bd1bb	-0.7478574319671262
95	0x3fe078609cadad54	0.5146945057034977
96	0xbfda68470dc6608d	-0.41261459679800155
97	0x3fee1cf858cc734e	0.94103638976558
98	0xbfc06e460376bc02	-0.12836527985697904
99	0x3fd9b0e11644eee2	0.4014208524201718

layers.3.running_mean f8 [100]
0	0x0000000000000005	2.5e-323
1	0x404f544c09894bea	62.65857047275479
2	0x0000000000000005	2.5e-323
3	0x0000000000000005	2.5e-323
4	0x0000000000000005	2.5e-323
5	0x40593056f3bd2460	100.75530713530452
6	0x0000000000000005	2.5e-323
7	0x403c18a87eb28733	28.09632102831456
8	0x40653b566c14117e	169.85429958266826
9	0x0000000000000005	2.5e-323
10	0x0000000000000005	2.5e-323
11	0x404a2d8b0e401bd4	52.35580614214237
12	0x0000000000000005	2.5e-323
13	0x0000000000000005	2.5e-323
14	0x0000000000000005	2.5e-323
15	0x406551cc4171c384	170.55618355006675
16	0x0000000000000005	2.5e-323
17	0x0000000000000005	2.5e-323
18	0x0000000000000005	2.5e-323
19	0x0000000000000005	2.5e-323
20	0x0000000000000005	2.5e-323
21	0x4053f4f6ce6b328c	79.8275638625002
22	0x0000000000000005	2.5e-323
23	0x0000000000000005	2.5e-323
24	0x0000000000000005	2.5e-323
25	0x0000000000000005	2.5e-323
26	0x0000000000000005	2.5e-323
27	0x405889b3ee4532c3	98.1516071010365
28	0x4061c4fb330dbc34	142.1556639927163
29	0x40686690312cc06e	195.20510157337725
30	0x0000000000000005	2.5e-323
31	0x405157f9a07f2fa1	69.37461101933015
32	0x0000000000000005	2.5e-323
33	0x40585ddf67513b6c	97.4667604726107
34	0x0000000000000005	2.5e-323
35	0x0000000000000005	2.5e-323
36	0x0000000000000005	2.5e-323
37	0x0000000000000005	2.5e-323
38	0x0000000000000005	2.5e-323
39	0x0000000000000005	2.5e-323
40	0x0000000000000005	2.5e-323
41	0x0000000000000005	2.5e-323
42	0x0000000000000005	2.5e-323
43	0x0000000000000005	2.5e-323
44	0x0000000000000005	2.5e-323
45	0x406327b3222f4eb2	153.24061688651778
46	0x0000000000000005	2.5e-323
47	0x405d8ee512ec9992	118.23273156266649
48	0x0000000000000005	2.5e-323
49	0x0000000000000005	2.5e-323
50	0x0000000000000005	2.5e-323
51	0x0000000000000005	2.5e-323
52	0x0000000000000005	2.5e-323
53	0x0000000000000005	2.5e-323
54	0x0000000000000005	2.5e-323
55	0x0000000000000005	2.5e-323
56	0x404f8692dacc4caa	63.051356649165726
57	0x0000000000000005	2.5e-323
58	0x0000000000000005	2.5e-323
59	0x0000000000000005	2.5e-323
60	0x0000000000000005	2.5e-323
61	0x0000000000000005	2.5e-323
62	0x0000000000000005	2.5e-323
63	0x0000000000000005	2.5e-323
64	0x40427430115af525	36.90771691266335
65	0x40636631306828ea	155.19350452750888
66	0x4063cf49b4b26724	158.47774729580226
67	0x4046811547877507	45.00846189607733
68	0x0000000000000005	2.5e-323
69	0x40492494c20488b8	50.28578973027601
70	0x0000000000000005	2.5e-323
71	0x0000000000000005	2.5e-323
72	0x0000000000000005	2.5e-323
73	0x0000000000000000	0.0
74	0x40447506d50f5548	40.91427100418747
75	0x4057a30d34c3a7c2	94.54768103701556
76	0x405823f391d0df0c	96.56174130818926
77	0x4061d1c79d4f3592	142.55561700316008
78	0x0000000000000005	2.5e-323
79	0x0000000000000005	2.5e-323
80	0x406951665132c4c1	202.54373989024864
81	0x0000000000000005	2.5e-323
82	0x406602c0492ad535	176.08597238889493
83	0x4055756ef328bfab	85.83489684085241
84	0x0000000000000005	2.5e-323
85	0x0000000000000005	2.5e-323
86	0x0000000000000005	2.5e-323
87	0x17221f678f3bd6ce	3.0305058423290335e-197
88	0x0000000000000005	2.5e-323
89	0x4047aefe89f97f29	47.36714291269738
90	0x0000000000000005	2.5e-323
91	0x0000000000000005	2.5e-323
92	0x40582aa092d54bf4	96.66605063276057
93	0x0000000000000005	2.5e-323
94	0x40534763b35e3fe1	77.11546024517112
95	0x0000000000000005	2.5e-323
96	0x0000000000000005	2.5e-323
97	0x404a498c8b262981	52.57460154879937
98	0x406ae4f2c5b25104	215.15463528468547
99	0x0000000000000005	2.5e-323

layers.3.running_var f8 [100]
0	0x0000000000000005	2.5e-323
1	0x40524047b809d37e	73.00437737426361
2	0x0000000000000005	2.5e-323
3	0x0000000000000005	2.5e-323
4	0x0000000000000005	2.5e-323
5	0x406afb34f41d3962	215.85021405895083
6	0x0000000000000005	2.5e-323
7	0x40597359ddaeb79a	101.8023599821303
8	0x40567c6e65a7d7ca	89.9442381037799
9	0x0000000000000005	2.5e-323
10	0x0000000000000005	2.5e-323
11	0x405b1f48e360ac53	108.48882374230134
12	0x0000000000000005	2.5e-323
13	0x0000000000000005	2.5e-323
14	0x0000000000000005	2.5e-323
15	0x4051381cbec88187	68.87675447064076
16	0x0000000000000005	2.5e-323
17	0x0000000000000005	2.5e-323
18	0x0000000000000005	2.5e-323
19	0x0000000000000005	2.5e-323
20	0x0000000000000005	2.5e-323
21	0x406dff5152a76e2d	239.97867710782285
22	0x0000000000000005	2.5e-323
23	0x0000000000000005	2.5e-323
24	0x0000000000000005	2.5e-323
25	0x0000000000000005	2.5e-323
26	0x0000000000000005	2.5e-323
27	0x40521c81d7436ed5	72.44542485795257
28	0x404a958eedc6f0ea	53.16842434133453
29	0x4064a04ba289cb95	165.00923277772077
30	0x0000000000000005	2.5e-323
31	0x40545fb29f2f0f04	81.49527721019336
32	0x0000000000000005	2.5e-323
33	0x4056897293d8c0fc	90.14761825721138
34	0x0000000000000005	2.5e-323
35	0x0000000000000005	2.5e-323
36	0x0000000000000005	2.5e-323
37	0x0000000000000005	2.5e-323
38	0x0000000000000005	2.5e-323
39	0x0000000000000005	2.5e-323
40	0x0000000000000005	2.5e-323
41	0x0000000000000005	2.5e-323
42	0x0000000000000005	2.5e-323
43	0x0000000000000005	2.5e-323
44	0x0000000000000005	2.5e-323
45	0x4064906937d51192	164.51284400572746
46	0x0000000000000005	2.5e-323
47	0x406bde0511dcfa69	222.9381188693981
48	0x0000000000000005	2.5e-323
49	0x0000000000000005	2.5e-323
50	0x0000000000000005	2.5e-323
51	0x0000000000000005	2.5e-323
52	0x0000000000000005	2.5e-323
53	0x0000000000000005	2.5e-323
54	0x0000000000000005	2.5e-323
55	0x0000000000000005	2.5e-323
56	0x405327ab178fa73c	76.61981762913359
57	0x0000000000000005	2.5e-323
58	0x0000000000000005	2.5e-323
59	0x0000000000000005	2.5e-323
60	0x0000000000000005	2.5e-323
61	0x0000000000000005	2.5e-323
62	0x0000000000000005	2.5e-323
63	0x0000000000000005	2.5e-323
64	0x4051f648b656d59a	71.84818800430222
65	0x405a1aecf5e82328	104.42071292562161
66	0x40564c8bb8f41269	89.19602798304699
67	0x405707d5347ebf7f	92.12238800409067
68	0x0000000000000005	2.5e-323
69	0x404cd5f118ce13c7	57.671420193313274
70	0x0000000000000005	2.5e-323
71	0x0000000000000005	2.5e-323
72	0x0000000000000005	2.5e-323
73	0x0000000000000005	2.5e-323
74	0x405bdbc5bc5667d7	111.43394382894563
75	0x40624611f720a511	146.18969303489624
76	0x4063010dac45045e	152.032919058608
77	0x406005c438913a46	128.1802027546384
78	0x0000000000000005	2.5e-323
79	0x0000000000000005	2.5e-323
80	0x40669f717140e318	180.982597948773
81	0x0000000000000005	2.5e-323
82	0x4068082ae9cf76db	192.2552384426152
83	0x405c817bb826d176	114.02317622938958
84	0x0000000000000005	2.5e-323
85	0x0000000000000005	2.5e-323
86	0x0000000000000005	2.5e-323
87	0x1742417845719abe	1.2211030508340277e-196
88	0x0000000000000005	2.5e-323
89	0x4053bbee3a31d0e2	78.9364152418598
90	0x0000000000000005	2.5e-323
91	0x0000000000000005	2.5e-323
92	0x406cf54721532e63	231.66493288275078
93	0x0000000000000005	2.5e-323
94	0x40696bd5f17b771f	203.3698661242897
95	0x0000000000000005	2.5e-323
96	0x0000000000000005	2.5e-323
97	0x405e68e0051d693a	121.63867309448406
98	0x405e5744f39fcdad	121.36358347516826
99	0x0000000000000005	2.5e-323
